extra_baseline2/log_res/ablation/3exp1_actor/imitation_learning_env-20250218-164333/bc_ddpg_actor.pth (torch, 275774 bytes, 108 tensors)

fc.0.weight f4 [64, 620]
000000 66 db 61 bc 88 18 e4 3c ea ec 10 bd af 1d 46 bd
       -0.013785219 0.027843729 -0.03538219 -0.048368152
000010 ec 8e 41 bc fa a1 5e bb 87 c3 63 bc 99 b1 0d 3d
       -0.01181386 -0.0033971057 -0.013901598 0.0345932
000020 39 98 3e bc 5a 9f 04 3b 4a b8 06 bd 87 2d 6a bc
       -0.011632972 0.0020236582 -0.032890595 -0.014293081
000030 b1 e5 28 bd 31 d5 03 bd b9 0d 02 bd be 27 39 3c
       -0.041234676 -0.032185737 -0.03175137 0.011300979
000040 50 a3 6a 3c f1 66 3f 3c e5 ff 68 bd 0f 16 1c bb
       0.014321163 0.011682258 -0.056884665 -0.002381686
000050 02 0a 62 3b ad 18 da 3c 00 98 5d 3c 47 a5 65 3d
       0.0034490828 0.026623094 0.013525009 0.056065824
000060 d1 2b a1 3a a3 45 8c 3c 5b d1 47 3d 15 68 57 bd
       0.0012296384 0.01712305 0.04878364 -0.052589495
000070 4a 60 34 bc 20 62 1d bc c7 a1 c5 bc a3 a2 14 3d
       -0.011009285 -0.009605914 -0.024124993 0.036287915
000080 ab 0e 45 bc a2 54 6a bc 2a ae d4 bc 76 96 0e bd
       -0.012027423 -0.014302405 -0.025961954 -0.03481146
000090 4c 23 9c bc 57 5a 18 3d cd 9f 81 3c 88 67 b5 3c
       -0.0190598 0.03719553 0.01582327 0.022144094
0000a0 6f 54 45 3b 84 8f b6 bb 34 c7 04 3b 56 5b 14 bd
       0.003011014 -0.0055713076 0.0020260336 -0.036219917
0000b0 31 6d 8b bb 6f 55 c2 bc b9 54 df 3b 5d d6 5a 3c
       -0.00425496 -0.023722379 0.0068155196 0.013356772
0000c0 8b bb cd bc be f2 d5 ba d5 13 18 3d 2c 6f 7a 3d
       -0.025113842 -0.0016322953 0.03712829 0.061141178
0000d0 ad 7c fc 3c 2a 9b 16 3c 18 1b ce 3c 11 17 2b bd
       0.030821169 0.009192267 0.025159404 -0.041770045
0000e0 4a 1a 81 3c 11 64 11 bd a0 87 31 bd 29 df ae bc
       0.015759606 -0.03549582 -0.043342233 -0.021346645
0000f0 fc 97 06 bb 50 c7 94 3c e9 8f 0c bc aa 4d 0d 3a
       -0.0020537367 0.018161446 -0.008579233 0.0005390296
000100 f7 82 8c 3c 47 1a d4 bc cb 4a 2b bc 16 f9 f8 3a
       0.017152293 -0.025891436 -0.010454844 0.0018995132
000110 c6 c9 9e 3c d6 8b fd 3c f5 90 a4 bc eb b1 f0 b9
       0.019383322 0.030950468 -0.020088652 -0.00045908926
000120 29 6e 2a 3d 10 d8 ff 3c 1d 16 3c 3c 00 4f 95 3c
       0.041608963 0.031230956 0.011479882 0.018226147
000130 cb 8f 40 3a e1 a2 07 bc 51 45 2a bc 4f bb 82 3b
       0.00073456456 -0.008278579 -0.010392503 0.003989614
000140 a7 c5 f8 bc 4e ba 0e 3d f1 fb ea 3c 05 5b 41 bd
       -0.030367685 0.034845643 0.028684588 -0.047205944
000150 53 6b 92 bb 58 28 42 bc 86 d5 b3 3c dd 09 e1 3b
       -0.0044683605 -0.011850439 0.021952402 0.006867631
000160 63 3c 3b 3d ad 25 b4 3b 3c 44 c9 bb 05 cd b1 3c
       0.045711886 0.0054976554 -0.0061421674 0.021704206
000170 bc 07 c2 3c 0e d8 cb 3c 26 70 07 bd c9 3f 76 bc
       0.023685329 0.024883296 -0.033065937 -0.015029856
000180 f9 3b ac 3c 0a f6 dd bb 86 28 3e bd 3f 46 49 bc
       0.021024691 -0.006773715 -0.046425365 -0.012284814
000190 b3 7d 20 3d 2c 44 e9 3c f5 10 db bc f3 5b 77 bc
       0.039182376 0.02847489 -0.026741484 -0.015097606
0001a0 5f 93 7a bd f0 10 d7 bc ad f4 37 bc 06 9b ad ba
       -0.0611757 -0.026253194 -0.011227769 -0.0013245053
0001b0 5d 2d 6d bc c3 ab 54 3c 55 15 0e bc 9c 74 15 3d
       -0.0144761475 0.012980404 -0.008672078 0.03648816
0001c0 8b 2d 90 bb 90 41 45 3d 9d be 30 3d 63 30 db bc
       -0.0043999604 0.04815823 0.043150533 -0.026756471
0001d0 4f 1b ac bc 64 79 02 3a 30 c0 4f 3a 25 72 41 3b
       -0.021009116 0.0004977195 0.00079250615 0.0029517498
0001e0 3a d9 25 3c 58 ba 96 bb e7 04 f4 bc 85 72 03 3c
       0.010122592 -0.0045998506 -0.029787494 0.008022909
0001f0 a5 52 29 bd 78 ec 0e bd 04 3f a1 bc 16 7f 0f bd
       -0.04133858 -0.034893483 -0.019683369 -0.035033308
000200 ae 9c 89 bc d9 12 f8 bc 2f a1 a8 bc a5 83 30 3c
       -0.016798344 -0.030282425 -0.02058467 0.010773574
000210 29 9d 1b bd 42 ad 58 3b f7 52 a0 3c 32 8c 3b 3b
       -0.037991676 0.0033062254 0.01957081 0.0028617498
000220 26 f4 95 bc e8 34 ac bb 20 51 34 b7 c0 7c af 3c
       -0.018304896 -0.0052553304 -1.0747724e-05 0.02142179
000230 1d d5 16 3d 92 51 d7 3c ed ef 28 3d 76 4c d0 b8
       0.036824334 0.026284013 0.041244436 -9.932455e-05
000240 3e bb f4 bc a1 4a c4 bc 68 ad f3 3c 26 6b 74 bc
       -0.02987444 -0.023961367 0.029745772 -0.014918124
000250 8f 78 bb bc 2f b2 3c bd 65 c4 5a bd 64 47 cd bc
       -0.022884635 -0.046068367 -0.053409953 -0.025058456
000260 ee 54 03 3a 7e e8 77 3c 5a 86 64 3c 8e 9b 2a bd
       0.0005009909 0.015131114 0.0139480475 -0.041652255
000270 bb 47 95 3c e5 1a 00 bd b5 3b 9f 3c e6 95 8c 3b
       0.01822268 -0.03127565 0.01943765 0.00429033
000280 5d 67 53 3b 16 03 3c bc 69 7a 44 bd 40 14 2f bd
       0.0032257654 -0.011475345 -0.047968302 -0.04274392
000290 4b 85 26 bc 75 95 89 3b 24 20 3d bc 22 8f 36 bb
       -0.010163615 0.004198725 -0.011543307 -0.002785631
0002a0 03 16 f3 bb f3 3e 06 3b 47 77 88 3d fd c1 05 3b
       -0.0074183955 0.0020484298 0.06663375 0.0020409815
0002b0 9e ad 7c 3d 24 4b a7 3c 99 06 7d bc 04 0d d8 3c
       0.06168901 0.020421572 -0.015443468 0.026373394
0002c0 7c e7 de bb 56 ef e0 bc c6 9c 4b 3d fb aa 01 bd
       -0.0068024974 -0.027457874 0.049710058 -0.0316572
0002d0 dc 6e e0 bb 57 a3 77 bb d2 c3 26 3d cb 2d bd 3c
       -0.006849153 -0.0037786567 0.040714093 0.023093125
0002e0 e0 9b 09 bc 04 3b 1f 3a ac b3 e4 bc 63 80 05 bc
       -0.00839898 0.00060741627 -0.027917705 -0.008148286
0002f0 65 8d 86 bc 6e 3e 1c 3d e3 79 0e 3d 2d 22 31 3d
       -0.016424844 0.038145475 0.03478421 0.043245483
000300 79 98 ca 3b 45 49 0c 3c 2f 2a 04 bd 66 6f 17 bd
       0.006182727 0.008562391 -0.032266792 -0.036971472
000310 f1 f5 17 bd 3e dc 3b 3c 1c ad 8d bc f3 3e a9 3a
       -0.037099782 0.011466084 -0.017294459 0.0012912437
000320 ac 37 e1 3c 6e af 5d 3d 68 1a fb b9 f9 3f b6 bc
       0.027492367 0.05412238 -0.00047894125 -0.022247301
000330 00 be c1 bc 8e 5c a6 3c 03 a6 8d 3c 37 0b 71 3d
       -0.02365017 0.020307805 0.017291075 0.058848586
000340 e8 e0 6d 3c 33 c5 4a 3c d2 75 d2 bb c0 53 9b bc
       0.014518954 0.0123761175 -0.0064227367 -0.018960834
000350 37 2d 91 bb d6 9e 5c bc 01 db 4d bc d0 4b 8b 3b
       -0.004430439 -0.013465604 -0.012564422 0.004250981
000360 ff e0 14 bd 38 6f fe 3b c3 78 8b 3c 3e 6b cb bc
       -0.036347385 0.007764723 0.017025357 -0.02483141
000370 43 9e bd bc 72 0f 11 3d f3 59 5e 3c 33 7d a7 3c
       -0.023146754 0.03541512 0.01357125 0.020445442
000380 8b bb 69 bc a8 65 87 3c bc b9 19 bd bc 50 71 bc
       -0.014265905 0.016527966 -0.037530646 -0.014728721
000390 92 3e f2 bb b2 d1 8b bc d0 f3 a3 3c c0 a0 a9 3c
       -0.007392713 -0.017067764 0.02001372 0.020706534
0003a0 2f 68 5b 3b 2a b5 a6 3d 4f 28 99 3c 57 4c ae bc
       0.0033478846 0.08140023 0.018695978 -0.021276636
0003b0 cb 16 5d 3c 3c c0 d3 bc b1 4b 92 bc 43 a5 b0 b9
       0.013494204 -0.0258485 -0.017858358 -0.00033692466
0003c0 b9 2b e5 3c 39 cc ae 3c c6 51 2e bc 09 37 59 bc
       0.02797495 0.021337615 -0.0106396135 -0.01325775
0003d0 e2 9e cb 3c 5c a8 e5 bc 07 15 7c 3d 26 0a ea bb
       0.024856035 -0.028034382 0.06154349 -0.007142323
0003e0 01 43 d2 3c 08 e7 e9 3b 11 ec 9b bc b6 ed f2 3b
       0.025666716 0.007138137 -0.019033464 0.0074135913
0003f0 df be 0d 3d 03 46 2a bc 15 84 db bc 6c ce 91 bc
       0.034605857 -0.010392669 -0.02679638 -0.017798625

fc.0.bias f4 [64]
000000 56 5f cf 3c 90 98 77 bc b5 a7 8a bc ec 8b fb 3c
       0.025314014 -0.015112057 -0.016925672 0.030706368
000010 1f 61 cc bb 3d 4d 21 bd fa f6 18 bd 5c 8c 1e 3b
       -0.0062371637 -0.0393803 -0.03734491 0.0024192547
000020 5d 06 15 3d 4b 22 aa bc 7a 26 29 3c 5e 70 19 bd
       0.03638302 -0.020768305 0.010324115 -0.037460677
000030 b6 a7 03 3d a2 f3 82 3c c7 bd ca 3b 0b c7 c9 3c
       0.032142363 0.015985314 0.006187174 0.024631044
000040 bc aa 1c 3d 10 32 5e ba 05 cb 1f bd a9 9a 13 3d
       0.038248762 -0.0008476088 -0.039011974 0.036036167
000050 3b 4b cb 3b 94 88 ca bc f2 7a e8 3c 73 a3 ce bc
       0.0062040365 -0.024723329 0.028378937 -0.025224423
000060 9a 4d c3 3c 75 65 06 3d a5 48 a1 3c 40 1a c1 3b
       0.023840714 0.0328116 0.01968796 0.005893022
000070 6e 00 62 3c 2a 60 35 bc ea f6 9c bc 34 4e 19 3d
       0.013794048 -0.011070291 -0.019160707 0.037428096
000080 5e 50 51 ba d1 6a e8 bb 8c df 48 bc cb 3d 27 3b
       -0.0007984693 -0.0070928116 -0.012260329 0.002551901
000090 66 e7 c5 3c 78 27 d2 3a e4 57 93 3c c1 2c 9e bc
       0.024158191 0.0016033491 0.017986245 -0.01930845
0000a0 b8 3f bd 3c 34 15 af 3c f9 40 a9 bc d7 d8 60 bc
       0.023101673 0.021372415 -0.020660864 -0.013723574
0000b0 8c 0e 0c bd 65 94 e6 3c 91 81 34 bb f6 fd 05 3c
       -0.03419356 0.028146932 -0.0027543048 0.008178225
0000c0 59 ab 28 bc c6 3e a9 ba 84 13 c1 bc 23 a7 44 3c
       -0.010294759 -0.0012912385 -0.023568876 0.012002739
0000d0 69 03 0b bd 1f 76 a8 bc cc 9c 0a bd 9f bf c0 3c
       -0.0339388 -0.020564137 -0.03384094 0.023528872
0000e0 83 ac d4 bc ac f1 80 bc 3a 58 65 3b 3a d6 d2 3a
       -0.025961166 -0.015740238 0.0034995214 0.0016085573
0000f0 4f d6 48 bc 07 bf 6b 3c 6c 61 ac bc 82 91 47 3c
       -0.012258126 0.014388806 -0.021042548 0.012180688

fc.2.weight f4 [64]
000000 bb a1 84 3f 00 00 80 3f 1f b0 84 3f 00 00 80 3f
       1.0361856 1.0 1.0366248 1.0
000010 33 ff 84 3f 00 00 80 3f dd cd 84 3f 00 00 80 3f
       1.0390381 1.0 1.0375324 1.0
000020 00 00 80 3f f4 d9 84 3f 00 00 80 3f 00 00 80 3f
       1.0 1.0379014 1.0 1.0
000030 8d fa 83 3f 00 00 80 3f e1 e6 84 3f a7 cc 84 3f
       1.0310837 1.0 1.0382959 1.0374955
000040 57 06 85 3f 00 00 80 3f 00 00 80 3f 00 00 80 3f
       1.039256 1.0 1.0 1.0
000050 00 00 80 3f 00 00 80 3f 00 00 80 3f 00 00 80 3f
       1.0 1.0 1.0 1.0
000060 00 00 80 3f 00 00 80 3f 00 00 80 3f ea 7d 84 3f
       1.0 1.0 1.0 1.0350926
000070 12 f0 84 3f 77 9d 84 3f 00 00 80 3f 34 c0 84 3f
       1.0385764 1.0360554 1.0 1.0371156
000080 00 00 80 3f f2 fd 84 3f 00 00 80 3f d1 7d 84 3f
       1.0 1.0389998 1.0 1.0350896
000090 88 9f 84 3f 00 00 80 3f 00 00 80 3f 00 00 80 3f
       1.0361185 1.0 1.0 1.0
0000a0 68 3b 85 3f 00 00 80 3f 00 00 80 3f 48 1c 85 3f
       1.0408754 1.0 1.0 1.0399256
0000b0 8f cd 84 3f 00 00 80 3f 31 bc 85 3f 00 00 80 3f
       1.0375232 1.0 1.0448056 1.0
0000c0 0b dd 85 3f 00 00 80 3f 59 a5 85 3f 00 00 80 3f
       1.0458082 1.0 1.0441085 1.0
0000d0 66 c5 84 3f 00 00 80 3f 00 00 80 3f 45 aa 84 3f
       1.0372741 1.0 1.0 1.0364462
0000e0 00 00 80 3f 00 00 80 3f 42 33 85 3f be 9e 84 3f
       1.0 1.0 1.0406268 1.0360944
0000f0 00 00 80 3f 00 00 80 3f 00 00 80 3f 00 00 80 3f
       1.0 1.0 1.0 1.0

fc.2.bias f4 [64]
000000 49 b6 14 3d 99 28 9c 3d ac 3d 80 3c e7 24 5b 3d
       0.036306653 0.07624931 0.015654407 0.05350199
000010 ba 0c 5b ba 2d 94 96 3d ed 56 94 bd df 40 94 bd
       -0.00083560834 0.07352481 -0.07243142 -0.07238936
000020 52 a5 a0 3d 25 0b d9 ba e8 66 80 3d 78 e2 96 3d
       0.07844032 -0.0016559107 0.06269628 0.07367414
000030 2b 04 2b 3d be 21 9d 3d cb db 65 3d 13 89 b5 3c
       0.04175202 0.076724514 0.056117814 0.022160089
000040 e9 63 62 3d 12 03 9c 3d e9 d7 96 bd 14 fe 9e bd
       0.055271063 0.07617773 -0.073654 -0.07763305
000050 09 bb 92 bd 93 fd 93 bd 1f 94 97 bd b0 0f 9a bd
       -0.071645804 -0.072261 -0.07401299 -0.075225234
000060 5e b7 9a 3d 94 4b 99 3d fb c7 9c 3d 94 86 ab 3c
       0.07554506 0.074851185 0.07655331 0.020938195
000070 43 11 86 3d 6c 74 9a bd 5f 06 9d bd 78 5f 8c 3d
       0.06546261 -0.07541737 -0.07667231 0.06854147
000080 ea e9 96 bd 0a 27 87 3d 92 bd 8d bd 48 0c af bd
       -0.07368834 0.06599243 -0.06920923 -0.08547264
000090 05 2e 78 bd db 79 8a 3d 4a 1f 9b 3d 38 91 92 bd
       -0.060590763 0.06761523 0.07574327 -0.071566045
0000a0 14 75 8f 3d 0f bd 9f 3d 9c b3 94 3d 19 b7 91 3d
       0.07004753 0.07799732 0.0726082 0.07115001
0000b0 23 52 91 3d 01 0e 7a bd 45 87 79 3d 7d c7 9f bd
       0.070957445 -0.06104851 0.06092002 -0.07801721
0000c0 84 cf 7f 3d 0d 91 87 bd ac 9b 69 bd f7 55 89 bd
       0.06245376 -0.06619463 -0.057033226 -0.067058496
0000d0 92 87 2a bd e8 f3 96 bd 95 6e 97 3d 57 df 8d bd
       -0.041633196 -0.0737074 0.07394139 -0.06927364
0000e0 c2 78 94 3d 0a 7e 9d 3d 4d 67 79 bd 71 27 a7 3c
       0.07249595 0.07690056 -0.06088953 0.02040455
0000f0 ce 12 97 3d 1a e7 90 3d 13 4f 9e bd 0a d8 96 3d
       0.073766336 0.07075329 -0.07729926 0.07365425

fc.2.running_mean f4 [64]
000000 ec f0 8a 46 01 fb 21 1b d1 38 24 46 9d 12 2d 21
       17784.46 1.3398712e-22 10510.204 5.8639314e-19
000010 a8 b5 5f 46 00 00 00 00 b0 54 c0 46 00 00 00 00
       14317.414 0.0 24618.344 0.0
000020 5f e6 51 1a 27 f0 7f 46 00 00 00 00 00 00 00 00
       4.340628e-23 16380.038 0.0 0.0
000030 07 8a 8d 46 00 00 00 00 50 a4 bd 46 d1 38 41 45
       18117.014 0.0 24274.156 3091.551
000040 33 c7 9f 43 00 00 00 00 00 00 00 00 00 00 00 00
       319.55624 0.0 0.0 0.0
000050 00 00 00 00 00 00 00 00 00 00 00 00 00 00 00 00
       0.0 0.0 0.0 0.0
000060 00 00 00 00 00 00 00 00 00 00 00 00 5f e9 54 45
       0.0 0.0 0.0 3406.5857
000070 71 72 ef 46 82 d1 1c 46 00 00 00 00 79 ff 00 47
       30649.22 10036.377 0.0 33023.473
000080 00 00 00 00 d2 b7 42 44 00 00 00 00 a6 8d b0 46
       0.0 778.8722 0.0 22598.824
000090 df ac bc 46 00 00 00 00 00 00 00 00 00 00 00 00
       24150.436 0.0 0.0 0.0
0000a0 30 9d eb 46 00 00 00 00 00 00 00 00 37 1f 23 47
       30158.594 0.0 0.0 41759.215
0000b0 9f 58 4e 46 00 00 00 00 f1 91 db 46 00 00 00 00
       13206.155 0.0 28104.97 0.0
0000c0 13 62 46 47 00 00 00 00 82 ec f3 46 00 00 00 00
       50786.074 0.0 31222.254 0.0
0000d0 be 8d cc 46 00 00 00 00 00 00 00 00 68 a1 12 46
       26182.871 0.0 0.0 9384.352
0000e0 00 00 00 00 00 00 00 00 c6 58 83 46 ed c9 e7 46
       0.0 0.0 16812.387 29668.963
0000f0 00 00 00 00 00 00 00 00 00 00 00 00 00 00 00 00
       0.0 0.0 0.0 0.0

fc.2.running_var f4 [64]
000000 01 9c 43 47 4b 53 95 16 96 4d de 47 4b 53 95 16
       50076.004 2.4124814e-25 113819.17 2.4124814e-25
000010 c5 0c 86 47 4b 53 95 16 ac af bc 47 4b 53 95 16
       68633.54 2.4124814e-25 96607.34 2.4124814e-25
000020 4b 53 95 16 01 5e fc 46 4b 53 95 16 4b 53 95 16
       2.4124814e-25 32303.002 2.4124814e-25 2.4124814e-25
000030 9b ea 45 47 4b 53 95 16 c2 41 cd 47 7c 8a 38 47
       50666.605 2.4124814e-25 105091.516 47242.484
000040 b2 56 85 47 4b 53 95 16 4b 53 95 16 4b 53 95 16
       68269.39 2.4124814e-25 2.4124814e-25 2.4124814e-25
000050 4b 53 95 16 4b 53 95 16 4b 53 95 16 4b 53 95 16
       2.4124814e-25 2.4124814e-25 2.4124814e-25 2.4124814e-25
000060 4b 53 95 16 4b 53 95 16 4b 53 95 16 1c b9 82 47
       2.4124814e-25 2.4124814e-25 2.4124814e-25 66930.22
000070 1f d0 97 47 aa ee bb 47 4b 53 95 16 0c 66 ee 47
       77728.24 96221.33 2.4124814e-25 122060.09
000080 4b 53 95 16 a0 0d bd 47 4b 53 95 16 76 d0 17 47
       2.4124814e-25 96795.25 2.4124814e-25 38864.46
000090 53 50 e7 47 4b 53 95 16 4b 53 95 16 4b 53 95 16
       118432.65 2.4124814e-25 2.4124814e-25 2.4124814e-25
0000a0 21 e6 18 47 4b 53 95 16 4b 53 95 16 37 c9 64 47
       39142.13 2.4124814e-25 2.4124814e-25 58569.215
0000b0 03 d3 23 47 4b 53 95 16 07 ec 13 47 4b 53 95 16
       41939.01 2.4124814e-25 37868.027 2.4124814e-25
0000c0 e9 c2 af 47 4b 53 95 16 a6 49 0f 47 4b 53 95 16
       89989.82 2.4124814e-25 36681.65 2.4124814e-25
0000d0 81 19 86 47 4b 53 95 16 4b 53 95 16 8f b9 d6 46
       68659.01 2.4124814e-25 2.4124814e-25 27484.78
0000e0 4b 53 95 16 4b 53 95 16 1d 36 ed 46 43 66 30 48
       2.4124814e-25 2.4124814e-25 30363.057 180633.05
0000f0 4b 53 95 16 4b 53 95 16 4b 53 95 16 4b 53 95 16
       2.4124814e-25 2.4124814e-25 2.4124814e-25 2.4124814e-25

fc.3.weight f4 [64, 64]
000000 95 34 15 3e 8e e2 27 3d eb d0 0d be 96 f3 0c 3e
       0.1457084 0.040987544 -0.13849227 0.13764796
000010 93 bd 18 3e 80 0f 09 3e 74 b1 bd b9 fd 53 37 bd
       0.14916067 0.13384819 -0.00036181102 -0.04475783
000020 77 3c 25 3e c9 44 9c 3d 04 56 81 3d cc f8 c9 3d
       0.16136347 0.07630307 0.06315234 0.09861907
000030 7a 97 cb 3c b4 af 26 bd 3e 0c ec bb d2 d7 da 3d
       0.024852503 -0.040694907 -0.007203608 0.10685696
000040 bb 47 86 3d ef ff 0f 3c 44 8b 94 3d 1e 48 1d bd
       0.0655665 0.008789047 0.07253125 -0.038398854
000050 71 3a 82 bb 2a d5 b5 bc a3 3a c1 bd 8d b9 b6 3d
       -0.003974252 -0.022196371 -0.09435012 0.0892211
000060 e9 7f b5 bd 58 86 a4 bd ba f9 9a 3d 9a 89 17 3d
       -0.088622876 -0.080334365 0.07567163 0.03699646
000070 c4 35 76 bd 89 62 cd 3d 30 e0 90 bd d4 79 a6 3d
       -0.06010987 0.1002856 -0.0707401 0.081287056
000080 45 c6 b7 bd ca fe f9 3d 14 05 1c be b4 69 dd bb
       -0.08973364 0.122068 -0.15236312 -0.0067569856
000090 9a 6d bf 3d f8 73 85 3d 71 1b b7 3b 29 80 aa 3d
       0.09347077 0.0651626 0.005587988 0.08325226
0000a0 71 70 b3 bc b9 64 9d bd 34 e6 9d 3d fe ed 92 bd
       -0.021904202 -0.07685227 0.077099234 -0.071743
0000b0 b7 0d 08 be 25 5e b7 3d 4e 24 19 bd b0 81 07 be
       -0.13286482 0.089535035 -0.03738814 -0.13233066
0000c0 e2 57 83 3d a3 a9 f6 3c c7 cd 15 bd 93 1a 0f bb
       0.06413247 0.030110186 -0.036573198 -0.0021835908
0000d0 36 13 e6 3c 2a 21 be bc 78 5f 10 bd 8e b9 20 3e
       0.028085332 -0.023209173 -0.035247296 0.15695783
0000e0 f8 9d 38 bd 16 82 22 3e e0 dd 8e bb bf 63 13 3d
       -0.045072526 0.15869936 -0.0043599457 0.035983797
0000f0 51 a9 0f 3c 41 f9 c0 3d 4c 79 a6 3d dc 00 ad 3c
       0.0087683955 0.094225414 0.08128604 0.021118574
000100 e7 68 11 be 22 53 2f 3e 0d 27 87 bd 22 d5 11 3e
       -0.14200173 0.17121556 -0.06599245 0.1424146
000110 2d e1 7c bd c3 ab 7a 3d 0d 66 53 3d ef 84 fd bc
       -0.06173818 0.06119896 0.051610995 -0.030947177
000120 39 84 78 bc 04 78 4a bd 08 83 be 3d c5 27 82 3d
       -0.015168243 -0.049430862 0.09302336 0.06355242
000130 c2 1c 12 3e 7c e4 9c bc b2 28 e9 3d a2 3e 78 bc
       0.14268783 -0.019151919 0.11384715 -0.015151652
000140 1e 90 15 bc a0 39 26 3e 14 d9 5a 3d df 2b 46 be
       -0.0091285985 0.1623292 0.053429678 -0.19352673
000150 80 68 8c bd fa d6 d5 bd fc ff 6a bc 2b 61 e6 bd
       -0.06855869 -0.10441394 -0.014343258 -0.11249002
000160 db 23 36 3e 50 41 ee 3d 4e 87 07 3e 4a 32 26 3e
       0.17787115 0.11633551 0.13235208 0.16230121
000170 6c 84 fc 3d 99 36 e4 bd f7 00 db bd b1 c3 01 bc
       0.12329945 -0.11143226 -0.106935434 -0.007920192
000180 e2 ab b5 bd f8 82 02 3d 1d 69 0a 3d 90 f3 e6 bd
       -0.08870675 0.031863183 0.03379165 -0.112769246
000190 df 0b ce bd 2a 79 f8 3d 94 f1 d6 bc 5e cb 10 be
       -0.10060858 0.12132485 -0.02623824 -0.14140078
0001a0 06 37 8b 3d c3 56 19 3d 48 57 2a 3e 71 81 6b 3d
       0.06797604 0.037436258 0.16634858 0.05749649
0001b0 a3 af 9a 3d 1c 38 26 be 5d 10 da 3d cf 4f 52 3b
       0.07553031 -0.16232342 0.10647652 0.0032091027
0001c0 95 d8 e1 3d b6 c7 c0 bd fe ca 0d 3c a2 d3 2e be
       0.11027638 -0.09413092 0.008654354 -0.17072919
0001d0 50 47 0d be a9 66 2c be ff 44 35 3b 84 c2 a1 3c
       -0.13796735 -0.16836037 0.0027659533 0.019746073
0001e0 2d c4 f3 3d a6 cb 5f bd 92 b4 82 bd 1e 29 e2 3c
       0.11902652 -0.054637574 -0.06382097 0.027607497
0001f0 85 21 b5 3d 47 e1 ad bc fd fd aa bc 76 db e8 3d
       0.08844284 -0.021225585 -0.020873064 0.11369984
000200 0c af ab bd b6 db ea 3d 03 fc 6b 3d 3a a6 4b bd
       -0.08382997 0.11467688 0.057613384 -0.049719073
000210 8c a2 ce 3c be 53 2e 3e fe 67 36 3c 1b 40 03 be
       0.025223993 0.17024133 0.011133192 -0.12817423
000220 d4 62 a4 3d fb 5f 1b be d6 4d 02 3e 30 f8 06 3e
       0.080266625 -0.15173332 0.12725005 0.13180614
000230 49 ad 2c 3e 54 b3 a7 3d c1 ae f2 3d 17 85 14 be
       0.16862978 0.08188501 0.11849738 -0.14503895
000240 c7 4e bb 3c fe a2 5d 3d 4d 80 48 be a2 4c 0b be
       0.022864712 0.05411052 -0.19580193 -0.13603452
000250 9d a2 af bd 82 56 8c bd fe 85 06 3d 99 bd 07 be
       -0.08575938 -0.068524376 0.03284263 -0.1325592
000260 8c 75 28 3c cf f8 52 bd 76 1d f2 3d 90 66 55 3c
       0.010281932 -0.051506814 0.118220255 0.013024941
000270 7f 57 a2 3c ad 2e 27 be 5d 4b 47 be 5a 2d 1d 3e
       0.019817112 -0.16326399 -0.19462343 0.15349331
000280 56 15 d9 bd 56 b3 b0 3d fd 6d da bd 7a d7 df 3d
       -0.10599773 0.086279556 -0.1066551 0.10929771
000290 13 fe e8 bd 4d f7 db bc 83 27 30 bc 4f 1c ac bd
       -0.11376586 -0.02685132 -0.010751608 -0.08403837
0002a0 6e 0b 7d bd 08 aa 9f bc 2f 8b 3b 3e 02 a5 a1 bd
       -0.06177848 -0.019490257 0.18314813 -0.07892801
0002b0 15 02 0a 3e 44 94 f6 bd 88 2c a0 3d ad ca c2 bc
       0.13477357 -0.12039998 0.07820994 -0.023778284
0002c0 ed ec 3d 3d 20 51 35 be bb 6b 82 3d ae 4c 5e 3d
       0.04636853 -0.17706728 0.06368204 0.054272346
0002d0 0f 11 10 be 14 77 94 bd 45 48 26 3e 2d 74 3b 3d
       -0.14069007 -0.07249275 0.16238506 0.04576509
0002e0 63 01 82 3d 34 45 19 bc 9c 12 30 3d 20 f4 e4 3d
       0.06347921 -0.009354878 0.042986497 0.11179376
0002f0 5a 94 9e 3d da 7c 21 3e 20 7f 3d be a4 59 e6 bc
       0.077431396 0.15770283 -0.18505526 -0.028118916
000300 04 8e a8 3d a7 37 1a 3e 1d 5c db 3a f4 88 91 bc
       0.08230212 0.15060292 0.0016735826 -0.0177655
000310 65 4b 2d 3e 02 54 b1 3d 4b 4c 7a bd 32 0f 19 bd
       0.16923292 0.08658601 -0.061107915 -0.037368007
000320 5c a1 b9 bc 39 bc a8 3d b0 e8 c9 3d ad 7d 3c 3d
       -0.02265995 0.082390256 0.09858835 0.04601829
000330 0e 08 df 3d f3 bc fa 3d 9e 83 9a 3b 6f 70 2b 3e
       0.10890208 0.122430705 0.004715397 0.16742109
000340 9b 8b 0c 3c ed 6e 3d 3e 24 6f 06 be c6 49 29 be
       0.008578206 0.18499346 -0.13128334 -0.16532049
000350 cb b8 25 be 05 52 14 3b 72 2a bc bd 52 25 47 be
       -0.16183774 0.0022631895 -0.09187783 -0.1944783
000360 bf d3 f2 3d 26 fc ee 3d 11 10 b9 3d 75 4b c9 bd
       0.118567936 0.11669187 0.090362675 -0.098288454
000370 3f 83 1f be 0c d6 88 bd 9d 51 15 be 7f 1b 3b bd
       -0.1557741 -0.06681451 -0.14581914 -0.04568052
000380 45 a6 49 be 21 34 eb 3d 20 8d 9d bd 59 c9 7d bd
       -0.19692333 0.11484552 -0.07692933 -0.0619596
000390 ba f7 01 ba dc f8 f4 3d 47 9f 4a 3e 43 d2 15 3d
       -0.00049578736 0.11961529 0.19787322 0.036577474
0003a0 11 6b 2d bd 40 39 3e 3e 77 e5 34 3e 6e ef 88 3d
       -0.042338435 0.18576527 0.17665659 0.066862926
0003b0 a7 37 22 bd f3 66 cd bb bf a7 9e bd a8 48 f6 bd
       -0.039603855 -0.006268376 -0.07746839 -0.12025577
0003c0 d6 00 9a bd 0e 12 f7 bd b9 51 61 3d 9d c1 fa 3c
       -0.07519691 -0.120639905 0.055009577 0.0306099
0003d0 69 4e 6a bd f7 e4 ca bd c6 44 a6 3d 78 38 ed b7
       -0.057203684 -0.09906953 0.08118586 -2.8278897e-05
0003e0 d2 0d 19 3d 09 8a 2d 3e 0a 5b ce bd c2 b9 a1 3d
       0.037366696 0.16947187 -0.10075958 0.078967586
0003f0 81 a2 76 bb 4e 27 50 bd ad 7a 10 be d9 b9 c5 3c
       -0.003763348 -0.050818734 -0.14109297 0.02413647

fc.3.bias f4 [64]
000000 be ef 51 3d 84 cc f4 3c 46 e3 d3 3d 64 ab f0 3d
       0.051254027 0.029882677 0.10346083 0.1175144
000010 4b 9e a6 3c 0f b4 44 3d 8a 88 17 3e 30 8f b3 b9
       0.020339152 0.04802328 0.1479818 -0.00034248224
000020 93 72 d4 3d 0a 39 61 3c 92 c8 43 3e a0 ae ae 3d
       0.10373416 0.013746509 0.1911948 0.08529401
000030 c3 20 3b 3e f3 f1 5e 3d b0 6e 85 3d 54 c8 57 bd
       0.18274216 0.05442996 0.065152526 -0.052681282
000040 20 81 b2 bc 3f c1 a4 bd 4f 25 1c 3e 0e b8 61 3d
       -0.021790087 -0.08044671 0.15248607 0.05510717
000050 ae 6f 00 3d 30 36 56 3d 6f ec 50 3d d3 e1 9b 3c
       0.031356506 0.05229777 0.05100673 0.01902858
000060 3c c6 e7 3c 87 a6 b2 3c 4c 95 bf 3d 2b ab f5 3d
       0.028292768 0.021807922 0.09354648 0.11995538
000070 82 46 06 3e 1c 85 3a 3e a3 e0 18 3e 29 54 e3 3c
       0.13112834 0.1821484 0.14929442 0.027750092
000080 35 aa e1 3d a6 67 33 3d 03 6c 45 3e be 2a af 3d
       0.110187925 0.04380002 0.19279484 0.08553074
000090 f2 4b 9e bd 39 d8 4f 3d 7c 66 b0 bc 0f 19 1e 3c
       -0.07729329 0.050743315 -0.021533243 0.009649529
0000a0 0a a0 cd 3d 27 60 ca 3d e4 e8 29 3e 01 43 45 bd
       0.10040291 0.09881621 0.16592747 -0.048159603
0000b0 75 83 05 3e c9 9b 61 3d 93 1e 06 3e ad 60 05 bd
       0.13038428 0.05508021 0.130976 -0.0325629
0000c0 d6 15 fa 3d 1b c4 b7 3d a7 f8 2d 3c 91 8a 08 3e
       0.12211196 0.08972951 0.010618365 0.13334109
0000d0 48 61 da 3d 71 bf 16 3e 5b 27 6c 3d bb 5e ee 3d
       0.10663086 0.14721467 0.05765472 0.11639162
0000e0 7e 6d 17 3e 9f a6 14 3e dd 6b 03 3c 42 08 33 3e
       0.14787862 0.14516686 0.008021322 0.17483619
0000f0 5c 93 00 3e 0f 33 46 3c 9c c4 cc 3d f1 77 16 3e
       0.12556213 0.012097134 0.09998438 0.14694192

placing_layer.0.weight f4 [5, 64]
000000 b7 99 6e bd 40 71 8c 3d a6 b1 92 bd 78 61 88 bd
       -0.058252063 0.06857538 -0.0716279 -0.06659216
000010 ee 96 0f 3d 02 ef 76 bb 47 39 f3 3d ac e2 29 bd
       0.035056047 -0.003767908 0.11876159 -0.041475937
000020 7a 27 9b bc 8b 10 a1 bc 73 59 bc bc a7 05 a1 bd
       -0.018939722 -0.019661209 -0.022991871 -0.07862406
000030 71 4b f1 3c 01 40 99 3c 9b cb 75 3c 7a 99 4f bd
       0.029454919 0.018707277 0.015002157 -0.050683476
000040 bc 14 7e 3d be 79 6f 3d 7c 01 53 3d 49 a5 da bc
       0.062031493 0.05846571 0.051515087 -0.026690142
000050 22 f5 61 3c 90 8e 64 3d 15 a5 52 bd 14 83 19 bd
       0.013791354 0.05580002 -0.051426966 -0.03747852
000060 3f f5 37 b8 c1 7f b8 bd 94 2b 65 3c 94 03 02 bd
       -4.3859003e-05 -0.09008742 0.013987441 -0.031741694
000070 91 55 84 bd c0 c7 31 3d d2 7c 99 3c 0e 43 48 bd
       -0.06461633 0.043403387 0.018736277 -0.048892073
000080 06 83 b7 bd e9 9f 01 be 64 2d 84 bd bd bc 01 be
       -0.089605376 -0.12658657 -0.0645397 -0.12669654
000090 8f 98 02 3b 72 5d c6 bd 01 11 13 bd e3 ff 96 bd
       0.0019927358 -0.09685792 -0.035904888 -0.07373025
0000a0 f6 fb 8d 3d 6e 2a c1 3c 25 a0 f1 3c 90 8a dc 3d
       0.06932823 0.023579802 0.029495308 0.10768616
0000b0 96 34 ba 3d c9 4b d5 3c 16 92 7e bd a2 b7 ec 3d
       0.09092061 0.026037114 -0.062151037 0.11558463
0000c0 f0 9f f1 3c 07 e4 1a 3d 46 a2 74 bd cc 28 bd bd
       0.02949521 0.03781512 -0.05972507 -0.09236297
0000d0 69 f1 c1 3c 19 9a 4e 3d 19 20 f7 bb 89 1c f7 bc
       0.023674684 0.050439928 -0.007541668 -0.030164974
0000e0 7e 88 d3 3d de da bf 3d 96 ee a4 bb cb de 0a bd
       0.10328768 0.093679175 -0.0050333245 -0.03390388
0000f0 c7 29 c8 3a bf 98 de 3c c8 87 5d 3d da b8 04 be
       0.001527124 0.027172444 0.05408457 -0.1296114
000100 8e 39 c7 3d a0 81 e6 3c 6b 7a b5 bd 94 5e 6e 3d
       0.097277746 0.028137982 -0.0886124 0.058195665
000110 58 e0 94 3d 6c 2b a0 3d 9c c5 28 3d dd 3b 7a bd
       0.07269353 0.07820782 0.04120408 -0.061092246
000120 59 92 8c bd 82 1b 9c 3d cb 8c 6e bd 65 fe 3f bc
       -0.06863851 0.07622434 -0.05823974 -0.011718367
000130 e2 7b 95 bd ac e0 9c bd 06 e1 27 3d 7e c6 58 3d
       -0.072990194 -0.0766004 0.040986083 0.052923672
000140 8a 09 ed bc a8 fd 3b 3d 4c 25 06 be e1 66 09 be
       -0.028935213 0.045896202 -0.13100165 -0.13418151
000150 9d 82 d6 bd 1d 5e d2 3c 02 70 dc bd 5c 00 19 3c
       -0.10474131 0.025679642 -0.10763551 0.009338465
000160 aa 8c 4a bc c8 3d 18 bd ab 0c b4 3d f2 cb 78 3d
       -0.0123626385 -0.037168294 0.08791479 0.060741372
000170 1c ec f8 bd 34 c4 07 be 85 a5 23 3d 5a 07 59 3d
       -0.12154409 -0.1325844 0.039952774 0.052985527
000180 26 61 d0 bd 03 2d 8b 3b 32 6a ca 3b 36 ef 16 3d
       -0.101747796 0.004247309 0.0061772102 0.036849223
000190 c5 80 20 ba d2 e5 9f 3d 48 17 ba 3d 57 15 2b 3d
       -0.0006122704 0.078075066 0.09086472 0.041768398
0001a0 15 af ad 3d 01 7e bb 3c 91 33 6a bd 59 b2 ef bc
       0.0848066 0.022887232 -0.057178084 -0.029259847
0001b0 cb 31 3f 3d d0 6e cf bd 88 72 a9 bd b0 dd 3a bd
       0.046678346 -0.10128558 -0.08273798 -0.045621574
0001c0 1c e2 90 bc c7 6f f5 bc e9 f0 f6 bd 8c b3 0b 3d
       -0.017685942 -0.029960526 -0.12057669 0.034106776
0001d0 57 81 f6 3c e5 87 8a 3d 74 08 a1 bb 99 02 a8 ba
       0.03009097 0.06764201 -0.004914338 -0.0012818157
0001e0 bc 9f cd 3d 27 93 cf 3d be a3 de bd e9 33 56 3c
       0.100402325 0.10135489 -0.10871075 0.0130739
0001f0 16 6f 04 be 17 92 e5 bd 1b 8b 4f 3d d5 bd c6 bd
       -0.12933001 -0.11209505 0.05066977 -0.09704176
000200 47 37 49 3d 15 ee e9 3c b4 b5 dd 3d 03 cd 09 3c
       0.049124982 0.02855591 0.10825673 0.008410695
000210 38 9f 9f bb 31 1e 29 3e b9 76 bc bc b6 ae 8b bd
       -0.0048712753 0.16515423 -0.02300583 -0.06820433
000220 8a bb bb 3d ac 73 5e 3d 8d ac 77 bd da 61 18 3e
       0.091666296 0.054309532 -0.06046729 0.14881077
000230 f7 dc 82 bd c9 b3 bc 3d 14 0e c1 3d a1 c3 0c bd
       -0.06389802 0.09213979 0.09426513 -0.034366254
000240 90 a6 8d 3d 87 56 1a 3d b4 d4 88 bd bf e9 78 3d
       0.06916535 0.037680175 -0.06681195 0.060769793
000250 02 13 cd 3d b1 07 6d 3d 11 77 a0 3d bd 20 a9 3d
       0.10013391 0.057868663 0.0783521 0.082581975
000260 d0 e1 29 3e bb e0 c4 3d 48 72 5f 3d ca 1c 89 38
       0.16590047 0.096131764 0.054552346 6.5380314e-05
000270 cf 3c 8a 3d ef 48 15 3e 36 b5 05 bd 7e f5 06 3e
       0.067498796 0.14578603 -0.03264352 0.13179585
000280 e8 62 d2 3d ad 78 41 bd f2 3e 0e 3d ed 9e 11 bd
       0.10272771 -0.047234226 0.034727998 -0.035551954
000290 b7 02 80 bd 4e b5 03 3e 77 1f c4 bc 35 1b c0 3d
       -0.06250518 0.12862131 -0.023940785 0.09380189
0002a0 ec ae 18 3e 9b ef 1a bd 6b 7f 95 3d ae 49 a7 bd
       0.14910477 -0.03782616 0.07299694 -0.0816835
0002b0 2a 48 90 3b 7c d1 02 3e 52 e6 0b bd 47 e8 84 3d
       0.004403134 0.12775224 -0.034155197 0.06489616
0002c0 0f 9c 29 3e a7 89 0c 3e 2d 25 d1 bc d1 02 55 bd
       0.16563438 0.13724385 -0.025530422 -0.05200464
0002d0 93 7c a0 3c 13 7a bc 3d 30 b9 cd 3d 80 e3 a3 3c
       0.019590652 0.09202971 0.10045087 0.020005941
0002e0 47 0f 0f 3e b3 43 e2 3d 25 d1 f4 3d 6d 0e 8c 3d
       0.13970672 0.11048069 0.11953954 0.06838689
0002f0 71 89 2e 3e b8 67 79 bd 84 3b 8e 3d 8f b3 16 3e
       0.17044617 -0.06088993 0.069449455 0.14716934
000300 27 86 e2 bd e8 e2 be 3c 75 9d ae bd 49 8a 80 3b
       -0.11060744 0.023301557 -0.08526126 0.003922735
000310 e1 9c 34 bc 34 87 02 be 7d b0 79 bd a2 4f 4b bd
       -0.011023731 -0.12746888 -0.060959328 -0.04963649
000320 d9 61 dc bc 0b b7 ec bd e5 c6 34 bd e0 37 46 bd
       -0.026902126 -0.1155835 -0.044134993 -0.04839313
000330 5a d3 f7 bd 10 bd bf bd 1b 7a b4 bd 2e ca db 3d
       -0.12100859 -0.09362233 -0.08812352 0.10731922
000340 fb 9a 03 3c 5a 4b aa bd 80 5d de 3d 98 0c 10 bd
       0.008032556 -0.083151534 0.108576775 -0.03516826
000350 31 12 47 bd a5 c7 9f 3d ec 29 0d bc f5 0d 57 3d
       -0.048601333 0.07801751 -0.008615952 0.052503545
000360 28 d9 73 bc 6c 68 0d bc 68 3b a9 3d 83 de 29 bd
       -0.014883317 -0.008630853 0.08263284 -0.04147197
000370 f2 02 95 3d 54 ce bb 3d c1 d4 ec bd 05 1a b8 bc
       0.072759524 0.09170213 -0.11564017 -0.022473345
000380 0d 57 de bd 0c d0 f8 3c 9f 14 d1 bd b6 71 2c bc
       -0.10856447 0.030372642 -0.10209011 -0.010525158
000390 96 ea ea bd b4 ab a2 3d d0 67 65 3d e7 31 3d 3d
       -0.11470525 0.07942906 0.056007206 0.04619017
0003a0 7c f8 aa 3c 6c 27 ad bc d2 5f f1 bd d6 0d c6 bd
       0.02087044 -0.021136962 -0.117858544 -0.09670608
0003b0 96 39 bc bd 6a 18 91 3d 35 78 bf bd 68 16 9c bd
       -0.09190671 0.07084735 -0.093490995 -0.07621461
0003c0 9c 8e 42 3d b3 a6 f0 bd 3c 5d bf 3d 44 2a ca bd
       0.047499284 -0.11750545 0.09343955 -0.09871343
0003d0 ab 42 a8 bd 40 c8 aa bc c0 83 8c bc 9f 5c b9 3d
       -0.08215841 -0.02084744 -0.017152667 0.09050869
0003e0 0d 42 c2 bc e8 8a cd 3c eb c7 38 3d 44 2d c0 bd
       -0.023713136 0.02509065 0.04511253 -0.09383634
0003f0 35 90 0b 3d ce 36 cb bd 4c 2a b7 bd 3b e8 67 ba
       0.034073073 -0.099225625 -0.08943614 -0.0008846556

placing_layer.0.bias f4 [5]
000000 50 14 c9 bd f4 c5 b8 bd dd 50 3f 3d 14 10 ad bd
       -0.098183274 -0.090221316 0.046707977 -0.08450332
000010 d8 74 93 3d
       0.072000206

placing_layer.1.weight f4 [5, 64]
000000 ed 95 1b 3e 41 7a 22 3e c3 06 aa 3d 10 3a 0c 3e
       0.15193911 0.15866949 0.08302071 0.13694024
000010 1e 7b 88 bc cd 31 70 bd a5 df 3e 3e 21 1d 18 3e
       -0.01666027 -0.058641244 0.18640001 0.14854862
000020 be d8 1f 3e eb f1 3f 3d 73 ce c2 3d 90 4a 2e 3e
       0.15610024 0.04686157 0.09512033 0.17020631
000030 81 5d f9 bc 9f b9 05 3c b6 9f df 3d c1 2a 1f 3e
       -0.030440094 0.008161931 0.10919134 0.15543653
000040 10 f1 c6 bc c5 42 18 3e 45 70 fc 3b fe c4 0f 3e
       -0.02428487 0.1486922 0.0077038133 0.1403999
000050 6a d4 85 3c a6 fd 0c 3e d4 55 23 3e 55 d4 d7 bc
       0.016336638 0.13768634 0.1595071 -0.026346365
000060 ff a2 84 3b 63 d7 25 3e 52 86 36 3e e3 bb af 3d
       0.004047751 0.16195445 0.17824677 0.085807584
000070 7e ac ef 3d b7 92 98 3d d9 33 c1 3d e4 28 05 3e
       0.11702822 0.07449859 0.09433717 0.1300388
000080 93 8b 49 bd 16 0c 62 3d 53 83 a3 3d 25 b2 ce bc
       -0.049205374 0.055187307 0.079840325 -0.02523143
000090 ac f4 db 3d 4b 0d 2d 3d 7d ab 0f bd 1e 18 d2 3d
       0.10740027 0.042249005 -0.035075653 0.10258506
0000a0 54 ab c2 3d 81 27 3b bd 8c c7 a3 3d 32 06 82 3c
       0.095053345 -0.04569197 0.07997045 0.015872095
0000b0 b5 c6 3e 3e 99 28 48 bc 84 48 22 3e d5 a5 43 3c
       0.18630488 -0.0122167105 0.15847975 0.011941393
0000c0 b1 46 3b 3e 68 de c7 b8 c3 3f 5a bd b0 2b 41 3c
       0.18288685 -9.530486e-05 -0.053283464 0.011790201
0000d0 cb 8b 59 bd 30 d9 b6 3d 84 23 12 3b 92 38 ab 3d
       -0.053111833 0.08928144 0.0022299 0.08360399
0000e0 f0 f7 23 3d 7c 88 51 ba b8 59 28 3e c8 83 bc 3d
       0.040031374 -0.0007993055 0.16440475 0.09204823
0000f0 77 1d 23 3e d8 76 b3 3d b2 51 01 3e 14 36 3f 3e
       0.15929209 0.08762902 0.1262882 0.18672973
000100 2b f5 bf 3d b7 16 66 bd ac c3 86 3d 53 ae 12 bd
       0.09372934 -0.056174006 0.0658029 -0.03581078
000110 77 f1 c1 3d 8a 65 8c bd 5b fc fb bd 8f bc f1 bc
       0.09469884 -0.068553045 -0.12303992 -0.029508857
000120 27 30 be bc 93 ea b3 bd f2 1c c9 bd db c0 56 bd
       -0.02321632 -0.08784976 -0.09819974 -0.052430015
000130 8f fb 6e bc af 95 08 be 31 a9 e7 3c 25 f0 f1 bd
       -0.014586343 -0.1333835 0.028278919 -0.11813382
000140 94 c2 e4 3d 07 58 47 bd 5b 0b b6 bd fb c1 66 bd
       0.11169925 -0.048667934 -0.08888885 -0.056337338
000150 1f f5 c7 3d 59 78 d1 bd af 29 48 3c 07 8b 23 3d
       0.0976355 -0.102280326 0.012216969 0.03992751
000160 ce 32 86 bd 18 85 a9 bc 83 90 89 bd 61 87 79 bd
       -0.06552659 -0.020693347 -0.067170165 -0.060920123
000170 98 ba 56 3d c8 6a 94 3d ec e3 de 3c 82 19 97 bd
       0.052424043 0.072469294 0.027208291 -0.07377912
000180 d3 3d ee 3c b0 f2 56 3d 0d 53 02 bd 15 e3 3a bb
       0.029082214 0.05247754 -0.031817485 -0.00285167
000190 60 5d ea 3d 8d 46 b7 bd e6 1c c9 bd 3e bd c8 3d
       0.11443591 -0.08949003 -0.09819965 0.0980172
0001a0 63 bc 35 bc 99 38 9b bd 4e 09 cb bd ef 58 ed bd
       -0.011092278 -0.075791545 -0.09913884 -0.11589228
0001b0 76 9c fd bd 23 d6 03 be 49 34 99 bd 7d 6b 99 3c
       -0.12383358 -0.12874655 -0.07480676 0.018728012
0001c0 9b d8 d3 bd 28 41 d8 3d 3e fe 08 3d 13 90 3a bd
       -0.103440486 0.105593026 0.03344559 -0.045547556
0001d0 5f f3 c7 3d 26 f3 0b 3d 1a 59 73 3d 66 49 0f be
       0.09763216 0.03416743 0.059411146 -0.13992843
0001e0 04 ca 0d 3b 96 c8 c1 3d 98 4d 94 bd a1 6f 76 3d
       0.0021635303 0.09462087 -0.07241362 0.06016505
0001f0 98 4d 0e bd e8 fc db bd 3f d3 d2 bc ac 1c 8c 3c
       -0.034741968 -0.107415974 -0.025735496 0.017103516
000200 05 87 ac 3d 45 36 66 bd 13 dd 91 3d 8c 5d cd 3d
       0.084241904 -0.0562041 0.07122245 0.10027608
000210 75 4e f6 b9 20 d6 cd 3c be d9 b6 bd be 51 e8 bc
       -0.0004697923 0.025126517 -0.0892825 -0.02835929
000220 d3 c7 9b bd bf e0 f5 3c 59 9d d3 3c c0 f7 1e bd
       -0.07606473 0.030014394 0.025831865 -0.03881049
000230 06 db 97 bd 1e cf 90 bb e1 3c 20 3d f0 52 e0 bd
       -0.07414822 -0.0044192215 0.03912056 -0.10953319
000240 4b 38 c0 bd f1 17 58 bd d0 c5 03 be f2 24 d2 bd
       -0.09385737 -0.052757207 -0.12868428 -0.10260953
000250 43 f4 72 3d 72 02 9a bd 0d 6a a2 bd dd 05 01 be
       0.059314977 -0.07519998 -0.07930384 -0.12599893
000260 7a f5 94 3c 7f be df b8 e1 61 62 bd c2 78 09 be
       0.018183459 -0.00010668951 -0.055269126 -0.13424972
000270 11 c7 f2 bd 42 7d ac bc f2 53 84 bd e8 4a a8 3b
       -0.11854375 -0.021055821 -0.06461324 0.0051358826
000280 ca fe 8e bd 10 34 0f bd f3 af 67 bd 4f 48 fb bd
       -0.06982191 -0.03496176 -0.056564283 -0.12269651
000290 d3 94 b1 bd eb 79 b3 3d a3 aa a2 3c 51 01 95 bd
       -0.08670964 0.087634884 0.019856757 -0.07275642
0002a0 e9 45 90 bd 54 d2 07 be 35 a7 b0 3c 33 b6 c2 3d
       -0.07044584 -0.13263828 0.021564106 0.09507408
0002b0 46 21 0f be 91 6e 05 be 0c 39 89 3d 34 cc c8 3d
       -0.13977537 -0.13030459 0.06700334 0.09804574
0002c0 41 d8 2e bd a5 9f 02 be 0b 57 e4 bd 64 df 8d 3d
       -0.042686705 -0.12756212 -0.11149415 0.06927374
0002d0 53 9c ca 3c a1 98 b4 bd bb 95 88 bd 64 cc be bd
       0.024732744 -0.08818174 -0.06669184 -0.09316328
0002e0 2a d2 12 3d d0 ae 1d 3d 7c c3 be bd 16 ad 19 bd
       0.03584496 0.038496792 -0.093146294 -0.037518583
0002f0 df ad 9f bb e6 ad be 3d c2 3a 19 3c 6f 3a 48 3c
       -0.004873022 0.09310512 0.009352388 0.012220963
000300 21 e1 72 3c a6 6d e0 bd d3 90 ce 3d 78 28 fb bd
       0.014824183 -0.10958414 0.10086217 -0.12263578
000310 58 1e f0 3c d4 64 08 be 5a e3 c0 bd a8 de 15 bc
       0.029311344 -0.13319713 -0.09418364 -0.009147324
000320 5d a2 08 3d 9f 04 b9 3d 4b b2 9d bd fb 8d fc 3c
       0.033357967 0.090340845 -0.07700022 0.03082942
000330 e4 c6 ae 3d ba 1c 50 3d 63 f4 3d 3c 40 ab 67 3c
       0.08534029 0.050808646 0.011593911 0.01413995
000340 2b e7 37 bd 58 8b a9 3c b8 0c 70 bc 88 1f c9 3d
       -0.044898193 0.020696327 -0.01465147 0.09820467
000350 38 9d 0e bd 53 1c 6a bc f2 63 a7 3d d1 c4 ca bd
       -0.034817904 -0.01428898 0.0817336 -0.09900821
000360 44 38 0f 3d a6 b8 d4 bd 39 62 bc bd e1 e5 9d bd
       0.03496577 -0.103867814 -0.09198422 -0.077098615
000370 fc a3 9d 3d f4 9d bd bc 4c 9e c2 3d fb fa 77 3d
       0.07697293 -0.023146607 0.09502849 0.060542088
000380 ef 96 0b bd 46 9e 96 3b 28 28 15 bd 7e 56 e0 bd
       -0.03407949 0.0045965044 -0.03641525 -0.10953997
000390 31 da c0 3d 3a 45 02 be e7 04 ff bd ac 41 0e 3d
       0.09416617 -0.1272172 -0.12452107 0.0347306
0003a0 e9 d0 0a 3d 9d 36 85 bd 03 27 51 3d 28 3f 85 3d
       0.03389064 -0.06504557 0.051062595 0.06506187
0003b0 e8 25 c5 3c b9 61 c5 3d a6 06 46 bd c8 bc 9a bc
       0.024065927 0.0963778 -0.048346184 -0.018888846
0003c0 f9 d8 a9 bd ce ff b1 bc 9f b5 53 bd c3 61 29 bd
       -0.082933374 -0.021728422 -0.05168688 -0.041353
0003d0 7b f4 8d bd 30 44 a2 bd 20 b3 9e bc ad 65 dc bb
       -0.069313966 -0.07923162 -0.019372523 -0.006725988
0003e0 3d d0 04 be 22 24 3f 3d db 20 1d bd cc e9 0b be
       -0.12970062 0.04666532 -0.03836141 -0.13663405
0003f0 76 8f ac bd 0e 9f 98 3d b9 7d e8 bd a6 b6 e4 bd
       -0.084258005 0.07452212 -0.11352105 -0.1116765

placing_layer.1.bias f4 [5]
000000 c9 1f a0 3d 82 82 44 3c 67 7f ca 3d f1 86 cc ba
       0.078185625 0.011994006 0.09887581 -0.001560418
000010 04 5e 59 bd
       -0.053068176

placing_layer.2.weight f4 [5, 64]
000000 33 f7 11 3e bd a2 ab 3c 2e 30 c5 3d 65 90 75 3c
       0.14254455 0.020951623 0.0962833 0.01498804
000010 c5 96 d5 3d 42 0a 8a 3c c6 36 48 3e 15 b7 4f 3d
       0.10429148 0.016850594 0.19552144 0.05071171
000020 4a b4 b8 3a b9 79 a0 bb 50 d3 44 3e d7 fd 72 3d
       0.0014091816 -0.004897323 0.19221234 0.05932411
000030 ec a7 eb 3d f7 2a 55 3c 77 f4 9b 3d 8d 20 28 3e
       0.11506638 0.013010732 0.07614987 0.16418667
000040 24 22 8f 3d d0 16 0d 3e a1 b2 b1 3d a0 34 dd 3d
       0.06988934 0.13778234 0.08676649 0.10801053
000050 14 85 30 3e a7 f8 2e 3e 8a 13 b0 3d f7 05 e2 3d
       0.17238265 0.17087041 0.08597477 0.11036294
000060 2f d8 b8 3d d0 cf f8 3d d0 c8 0c 3e a0 36 31 3e
       0.09025609 0.12149012 0.13748479 0.17305994
000070 d5 ce 62 3d 8d c2 09 3d ca 31 4d bd 9b 3f 14 bd
       0.05537303 0.033632804 -0.05009631 -0.03619347
000080 40 3c b1 3d 1d 9f 1a 3e aa fd ba 3d 44 2c 34 3e
       0.0865407 0.1509976 0.09130414 0.17595011
000090 ad a0 91 3d b2 ba f1 3d 76 f9 18 3d b9 d6 2e 3e
       0.071107246 0.118031874 0.03734728 0.17074098
0000a0 e0 f5 91 3d 59 4d 21 3d 50 0f e0 bb 47 39 03 3e
       0.07126975 0.039380405 -0.006837763 0.12814818
0000b0 ab bb 3a 3e ad 27 5d bd b4 a2 27 bd 7d 33 23 3e
       0.18235652 -0.053992916 -0.04092665 0.1593761
0000c0 18 99 6b bd 6e 80 9f 3d 0f d5 6c 3d 7a 3c 0c 3e
       -0.05751905 0.07788168 0.057820376 0.13694945
0000d0 8e 41 92 3c 02 ac f0 3d 3d 58 3e 3e 10 a7 b1 3d
       0.017853525 0.11751558 0.18588348 0.08674443
0000e0 a5 cb 9a 3d 88 c8 2d bd 28 a0 9d 3d 9e a4 d4 3d
       0.07558373 -0.04242757 0.07696563 0.10382961
0000f0 3b f4 e1 3d fa ea d4 3d 1e ae 97 3b 6e 03 b2 bb
       0.110329114 0.10396381 0.0046289107 -0.0054325378
000100 45 b0 a1 3c 7f fd 8e 3c 32 0b 04 bd 7b e9 8c bd
       0.019737372 0.01745486 -0.03223724 -0.0688047
000110 1f cd 7b bd d1 fb c1 3c 55 3c 0b 3d e7 d9 b8 3d
       -0.061474916 0.023679646 0.033993084 0.090259366
000120 c6 18 09 3e c1 3e 15 3d 84 1f 6a 3d ec 3f 92 bd
       0.13388357 0.0364368 0.057158962 -0.071410984
000130 37 56 4c bd 23 f0 fb 3d 15 d2 6b 3d cf 74 ab 3d
       -0.04988691 0.12301662 0.057573397 0.08371889
000140 12 5d 43 3d d1 0a 83 bd 45 52 b9 3b d2 75 18 3e
       0.04769618 -0.063985474 0.0056555592 0.14888695
000150 3e b4 16 bc db ef c8 3d d1 6d 0d bc 82 4c a0 bc
       -0.0091982465 0.09811374 -0.008632139 -0.019567732
000160 02 e8 7e b9 9d da 26 bd 5d 01 88 bb 1a 9a 46 bc
       -0.00024309757 -0.04073583 -0.004150553 -0.012121702
000170 4d 56 d1 bc 70 fb 83 bd 5b 33 b4 bb cd 95 be bc
       -0.025553847 -0.06444442 -0.005499286 -0.02326479
000180 12 35 b0 bb fc 23 45 bd d7 cb 36 3c 9b 9e 7f bb
       -0.00537742 -0.04813002 0.011156998 -0.0039004448
000190 21 de 52 bb a4 9c 04 3d 4b 88 72 bd b1 82 d3 3d
       -0.0032175856 0.032375947 -0.05921201 0.10327662
0001a0 1c b5 7e 3c 4b 18 f2 bc c6 b4 ac 3d 08 b2 17 3e
       0.0155461095 -0.0295526 0.08432917 0.14814007
0001b0 7d 6d 68 3d 54 16 1e 3d bf bb 03 3b 0c 8a 9a 3d
       0.05674504 0.038595513 0.002010092 0.075458616
0001c0 48 dc ce 3d 8a 6e c1 3d 7e 2a 14 3d 85 de 46 bd
       0.10100609 0.09444912 0.036173336 -0.048552055
0001d0 64 d8 97 bd e3 0b ca 3d b7 7d dc 3d 23 17 1f 3e
       -0.0741432 0.098655485 0.10766166 0.1553617
0001e0 0f e4 ae 3d 44 f7 96 bd 4d c7 e2 3c 82 48 1b 3e
       0.085395925 -0.07371381 0.027682925 0.15164378
0001f0 0d cb 12 3d 54 b0 0b 3e fe 00 b3 bd 08 c9 b2 bc
       0.035838176 0.13641483 -0.087404236 -0.021824375
000200 e5 31 48 3d a0 a2 99 bd 91 df f4 3c b8 dc 11 be
       0.048875708 -0.075017214 0.029891761 -0.14244354
000210 99 82 7b 3d 7c c5 c1 bb 5f 5a a1 3c 68 d3 5f 3d
       0.061403845 -0.0059134346 0.019696413 0.054644972
000220 e4 76 9a bc 2d bb ff bd 07 45 c1 3d 18 29 7c 3d
       -0.01885552 -0.12486873 0.09436994 0.061562628
000230 fa d5 3f bd 12 3f 01 bd 91 ce bc 3a d7 18 80 bd
       -0.046834923 -0.03155429 0.0014404823 -0.06254738
000240 e3 c4 aa bc 1c 14 02 be 6f 75 38 bd e7 bd dd bc
       -0.020845836 -0.12702984 -0.04503387 -0.027068092
000250 c5 a0 02 3a 9c d7 3f 3d fb c1 82 3d f1 3d 98 3d
       0.0004983063 0.04683648 0.06384655 0.074336894
000260 1f 5e 03 be d9 27 86 3d 95 37 a8 3d a6 81 f2 bd
       -0.12828873 0.06550569 0.082137264 -0.11841135
000270 0d 1c 4b 3d cc 1c 66 bd 94 2b 84 bd e5 32 6d 3d
       0.0495873 -0.056179807 -0.06453624 0.057909865
000280 46 21 5d bd d6 7f 8d ba 19 2a 28 3d 41 02 ea bc
       -0.05398681 -0.0010795544 0.041055772 -0.028565528
000290 38 08 d2 bd 0c bd 77 39 59 b2 8f 3c a8 b6 ca bd
       -0.10255474 0.00023626181 0.017541097 -0.0989812
0002a0 a4 e5 35 3a df 8d 2c 3d 0d 48 9d 3c 26 94 4e 3d
       0.0006938821 0.042127486 0.019199396 0.050434254
0002b0 ff 1e 80 3d 6c de ca 3d c9 fc 58 3d 64 27 8d bd
       0.06255912 0.09905705 0.05297545 -0.06892279
0002c0 ad 45 5d bd 57 ec ee 3c ab 63 9c bc 30 37 ee bd
       -0.054021526 0.02916543 -0.019090494 -0.1163162
0002d0 1b 6e 09 be 21 d9 01 bc 16 9c 01 be e6 99 3f bd
       -0.13420908 -0.007925303 -0.12657198 -0.04677763
0002e0 19 54 9f 3d 51 df 18 bd 98 40 ee bd 26 1e 0b be
       0.07779712 -0.037322346 -0.11633414 -0.1358572
0002f0 ec dc ab bd 00 26 ab 3d bd a1 b7 bd a9 ab 13 3d
       -0.08391747 0.08356857 -0.08966396 0.03605238
000300 cd 47 09 be cc 19 d7 bd e2 9b df 3c da 60 51 bd
       -0.13406296 -0.10502967 0.02729601 -0.051117755
000310 e0 03 90 3d e5 42 c1 bd 3e dc d6 3d d8 fa 7f 3c
       0.07031989 -0.09436587 0.104912266 0.015623771
000320 ff 32 d4 bd 92 ba 7a bc f5 d7 32 3d b0 04 d7 bd
       -0.10361289 -0.015303271 0.043662984 -0.10498941
000330 42 09 86 bd ba 8e 3e 3c a1 01 34 bd 29 fe 15 3d
       -0.065447345 0.011630708 -0.043946866 0.03661934
000340 fc 97 f1 bd 4d e5 06 3c ae a4 0c bd a3 43 5b bb
       -0.11796567 0.0082333805 -0.03433674 -0.0033457063
000350 fe da 21 3d 08 1b 32 3c 43 a5 a0 3d 30 e9 24 bd
       0.039515488 0.010870703 0.07844021 -0.040261447
000360 f9 b7 1b 3d e8 8d f1 3c ca 05 d8 bd 59 3a ca 3d
       0.038017247 0.029486611 -0.10547979 0.0987441
000370 bb 68 42 bd c7 45 e3 3c 63 fe e9 3c 98 01 a7 3b
       -0.04746316 0.027743233 0.028563684 0.0050966255
000380 93 d2 02 be 56 9b 4b bc bd 8d 2f 3d 46 7b be bd
       -0.1277564 -0.012427172 0.04285978 -0.09300856
000390 78 d5 22 3d 03 b5 07 be 2a 64 9b 3d 8c b4 c8 3d
       0.03975436 -0.13252644 0.07587464 0.098000616
0003a0 22 a2 64 bd 08 8a a6 bc a1 e1 c0 bc 77 cb 9c bd
       -0.055818684 -0.02032949 -0.023545088 -0.07655995
0003b0 3a 53 04 be 77 c2 06 3c 06 2b 5e 3c 9c a2 a6 bc
       -0.12922373 0.008225075 0.013560062 -0.02034121
0003c0 2c 86 18 3d 53 87 4b bd 4f b9 ef bd ec 5f 9e 3d
       0.03723733 -0.049689602 -0.11705267 0.077331394
0003d0 2e f1 b6 bb d3 36 8b 3d 3a be 01 be 46 66 0b 3d
       -0.00558295 0.06797566 -0.12670222 0.034033082
0003e0 78 ae c3 3d 5a b2 9c bd 7f ef 5d bd c6 ca 01 be
       0.09554762 -0.07651205 -0.05418348 -0.12675008
0003f0 cb a0 8c 3b b4 82 33 3d 7b 86 aa bd 1f 01 10 be
       0.004291629 0.04382582 -0.08326431 -0.14062928

placing_layer.2.bias f4 [5]
000000 01 bd 1b 3e 7e 41 b8 3d bc b1 21 bd 12 18 02 3c
       0.15208818 0.08996867 -0.03947614 0.007940309
000010 c5 1d bb bd
       -0.091365375
