auto_src/log_res/exp4/imitation_learning_env-20240721-041046/bc_ddpg_actor.pth (torch, 356414 bytes, 108 tensors)

fc.0.weight f4 [64, 785]
0	0x3c126642	0.008935513
1	0xbc02e8b8	-0.007990055
2	0xbd0c2387	-0.03421357
3	0xbd0e1cb3	-0.03469534
4	0xbc93eb0b	-0.018056413
5	0x3c6efa31	0.0145860175
6	0x3ba0e424	0.004910009
7	0x3d00922c	0.0313894
8	0x3c5759a7	0.013143933
9	0x3cb75a46	0.022381913
10	0x3ca678cf	0.020321278
11	0x3b1bb05e	0.0023756246
12	0xbd3edd66	-0.04659786
13	0xbd157900	-0.036492348
14	0xbb4b0a6b	-0.0030981551
15	0x3ca8007c	0.020508043
16	0x3b086758	0.002081355
17	0x3d0ccd44	0.034375444
18	0xbd2db6e4	-0.042410746
19	0x3afbc51a	0.0019208521
20	0x3cb8304d	0.02248397
21	0x3c19051f	0.0093396
22	0xbd0f0f39	-0.034926627
23	0x3c433e6c	0.011916738
24	0xbc2ce6ed	-0.010553104
25	0x3c06cc94	0.008227486
26	0x3ca09277	0.01960109
27	0xbd82a2b2	-0.06378688
28	0xbc866ec6	-0.016410243
29	0xbc55806d	-0.013031107
30	0xbc995ad3	-0.018720066
31	0x3cbcc2c1	0.023042085
32	0xbca552df	-0.020181118
33	0x3cbd65f9	0.023119913
34	0x3a8b6854	0.0010635951
35	0xbc55b5f1	-0.0130438665
36	0xbc076932	-0.008264827
37	0x3d1da599	0.038488004
38	0x3b7b8901	0.0038381221
39	0x3cb88c90	0.022527963
40	0xbc7a2256	-0.015266975
41	0xbcafd397	-0.021463199
42	0x3b744411	0.0037272016
43	0xbd306de1	-0.04307354
44	0xbc3a07f6	-0.011354437
45	0xbd39062c	-0.0451719
46	0x3c4b05b1	0.012391494
47	0x3ce180fe	0.027527329
48	0xbd12e399	-0.035861585
49	0xbbc29da0	-0.0059392005
50	0x3cfd4483	0.030916458
51	0x3d0b404f	0.033996876
52	0x3c8f6dd3	0.017508423
53	0xbc36c170	-0.0111545175
54	0x3d040fe6	0.032241724
55	0xbc24fa85	-0.010069494
56	0x3ce9da38	0.028546438
57	0xbd0f9729	-0.035056267
58	0xbd1c31de	-0.038133495
59	0xbcffb021	-0.031211914
60	0x3cc3c6d3	0.023898518
61	0x3c3beb40	0.011469662
62	0xbd6392bc	-0.05555986
63	0x3d39a03d	0.04531883
64	0x3c7b0f25	0.015323435
65	0xbc25e001	-0.0101242075
66	0xbb4f5abf	-0.0031639782
67	0x3cb8705d	0.022514516
68	0x3cf1bf8a	0.029510278
69	0x3d27fc1e	0.041011922
70	0xbd41ea37	-0.047342505
71	0xbcfabd28	-0.030607775
72	0xbb911388	-0.004427377
73	0x3c884604	0.016634949
74	0x3d1e379f	0.038627263
75	0x3c534f84	0.012897376
76	0x3c9e6b4b	0.01933827
77	0xbd41f5e5	-0.047353644
78	0xbd12c66f	-0.035833772
79	0xbc8d5b28	-0.01725538
80	0xbc42554a	-0.011861155
81	0x3cfeccce	0.031103518
82	0x3ca3f520	0.020014346
83	0xbd20855e	-0.03918969
84	0xbc0fbb65	-0.008772706
85	0xbc2ba5d3	-0.010476547
86	0xbc8c0ae7	-0.017095042
87	0xbc885230	-0.016640753
88	0x3cba2dc7	0.022726906
89	0xbc49edda	-0.012324775
90	0x3cc84c8a	0.02445056
91	0x3cc25aa8	0.023724869
92	0x3cbc6503	0.022997385
93	0x3bdb1bb3	0.0066866516
94	0xbd7060c1	-0.05868602
95	0xbc605d50	-0.013694122
96	0x3c768673	0.015046704
97	0x3c0204c1	0.007935704
98	0xbcf8a4ea	-0.030352075
99	0xbbab2635	-0.0052230605
100	0x3d7cb5cf	0.061696824
101	0x3cb755bb	0.022379747
102	0x3bad8978	0.0052959286
103	0xbbce91dd	-0.0063040094
104	0xbcb16949	-0.02165665
105	0xbc35e101	-0.011101008
106	0xbcbf701a	-0.023368884
107	0xbd0e7317	-0.034777727
108	0xbd0e713e	-0.034775965
109	0xbc367b41	-0.011137784
110	0xbcba3f0d	-0.022735143
111	0x3cd6092c	0.02612742
112	0xbd2a80ae	-0.041626625
113	0x3be57760	0.007002756
114	0x3cd5938a	0.026071329
115	0xbcb230d1	-0.021751793
116	0x3c380367	0.01123128
117	0x3baf3902	0.005347372
118	0xbc6c5bcd	-0.014426184
119	0x3d11e5d2	0.035619564
120	0xbc414a91	-0.011797563
121	0x3c7c007a	0.015380973
122	0xbd52ad01	-0.05143452
123	0x3befc8df	0.007317647
124	0xbd1575b6	-0.03648921
125	0xbc660678	-0.014039628
126	0xbc3c515a	-0.011494005
127	0xbafa7aca	-0.001911008
128	0xbcffc4a1	-0.03122169
129	0xbcfc7cb2	-0.030821178
130	0xbc98f54d	-0.018671656
131	0x3b487afe	0.0030590887
132	0xbce0c111	-0.027435811
133	0xbccab285	-0.024743328
134	0x3c80b919	0.015713261
135	0xbb026573	-0.0019896894
136	0xbb9f140d	-0.004854685
137	0xbcc35766	-0.023845386
138	0x3bf704d4	0.0075384174
139	0x3cf9f894	0.03051404
140	0x3d0b667a	0.034033276
141	0x3d3d01e4	0.04614438
142	0x3ca71699	0.020396518
143	0xbc836fac	-0.01604446
144	0xbc35ab75	-0.011088242
145	0xbc89c216	-0.01681618
146	0xbc0ac490	-0.008469716
147	0x3cbaa6ad	0.022784555
148	0xbcae2099	-0.021255778
149	0xbc2a7997	-0.010404966
150	0xbd5ede79	-0.054411385
151	0xbd322bd9	-0.043498848
152	0xbc553b5d	-0.013014642
153	0x3d407cb2	0.04699392
154	0x3cc53e14	0.024077453
155	0xbce7c99d	-0.028294379
156	0x3cd8ce7f	0.026465653
157	0xbd0ec8e8	-0.034859568
158	0xbd62acaa	-0.055340447
159	0xbcb61dc4	-0.02223099
160	0xbc393ab8	-0.011305504
161	0x3cd10d16	0.025518935
162	0xbc874da9	-0.016516523
163	0xbd58e26f	-0.05295032
164	0xbc693cca	-0.014235685
165	0x3bbfbbf1	0.005851262
166	0xbcd32119	-0.025772618
167	0xbc969032	-0.018379305
168	0xbd3e828a	-0.04651121
169	0x3d04751b	0.032338243
170	0x3cb644a0	0.02224952
171	0xbc7138be	-0.014723001
172	0x3d875147	0.06607299
173	0x3c1e841b	0.009675051
174	0xba853280	-0.0010162145
175	0x3cc709a1	0.024296584
176	0xbb114997	-0.0022169107
177	0xbab6ffd0	-0.0013961736
178	0x3d27e66f	0.040991243
179	0xbcce32d3	-0.02517072
180	0xbb847f2c	-0.0040434804
181	0x3baf9a69	0.0053589833
182	0x3ce0b1a4	0.027428456
183	0x3ad0435c	0.0015889215
184	0x3d1e7b3a	0.038691737
185	0x3d2bbbcc	0.041927144
186	0xbc5f155f	-0.013615935
187	0x3c595a02	0.013266088
188	0xbcf931cb	-0.030419251
189	0x3d1ff4d4	0.039051846
190	0x3d091d83	0.03347541
191	0xbaebc68b	-0.0017988248
192	0xbd075a2d	-0.033044983
193	0xbbac30af	-0.005254827
194	0xbd0aa73d	-0.033850897
195	0xbc717a8e	-0.014738692
196	0xbc9d32fb	-0.019189348
197	0x3bf747b0	0.0075463876
198	0xbce73a7d	-0.028226132
199	0x3c3847dd	0.011247602
200	0x3c5cd18e	0.013477696
201	0x3ccfbe75	0.025359372
202	0xbcda17a4	-0.0266226
203	0xbd3f9824	-0.046775952
204	0x3c0b0572	0.008485185
205	0x3ca44472	0.020052169
206	0xbb25d494	-0.0025303708
207	0x3c6321c2	0.013863029
208	0xbab638b1	-0.0013902393
209	0xbc044e59	-0.00807532
210	0x3b75b9ca	0.0037494772
211	0xbcce4e85	-0.025183925
212	0xbc361e3d	-0.011115608
213	0xbcefd76c	-0.029277526
214	0xbc21c38a	-0.00987328
215	0x3bf04b8b	0.007333224
216	0xbc82c760	-0.01596421
217	0xbcf94c70	-0.030431956
218	0x3d171625	0.036886353
219	0xbca30e2d	-0.01990422
220	0xba8b2826	-0.0010616824
221	0x3cec683e	0.0288583
222	0xbb4e3944	-0.0031467238
223	0x3c1d398a	0.009596238
224	0xbca9f147	-0.020744933
225	0xbb1a3574	-0.0023530396
226	0xbd1b442e	-0.037906818
227	0xbce654fe	-0.0281167
228	0xbc345fc3	-0.0110091595
229	0xbb64075f	-0.0034794433
230	0xbb9b7fce	-0.00474546
231	0x3d67b859	0.056572292
232	0xbc9e8ad6	-0.019353312
233	0x3cd29c32	0.025709245
234	0x3c4ef30a	0.012631187
235	0xbcb68673	-0.022280907
236	0x3bd1b124	0.0063992906
237	0x3cdb027d	0.026734585
238	0xbd3e9b3c	-0.04653476
239	0x3bee37ca	0.007269834
240	0x3c9f93fc	0.019479744
241	0x3c520cbf	0.012820422
242	0xbcb86819	-0.022510575
243	0x3c2e0725	0.010621821
244	0xbc50dff4	-0.012748707
245	0xbd1c3435	-0.038135726
246	0x3d48a584	0.048985973
247	0xbca68dde	-0.02033132
248	0x3cb99220	0.022652686
249	0xbbc353be	-0.0059609106
250	0xbcb84834	-0.022495367
251	0x3a86e2a3	0.0010290932
252	0x3cd37169	0.025810914
253	0xbc6794d8	-0.014134608
254	0xbccbee3c	-0.024893872
255	0xbc8a75cb	-0.016901871

fc.0.bias f4 [64]
0	0xbcb09e04	-0.021559723
1	0xbbf93813	-0.0076055615
2	0xbc758596	-0.014985463
3	0x3c39713b	0.0113185
4	0x3be089f5	0.0068523833
5	0xbc5ce357	-0.013481936
6	0xbc58e94f	-0.013239219
7	0xbb05afaf	-0.0020398905
8	0xbb6e13bb	-0.0036327678
9	0x3ca0ca6f	0.019627778
10	0x3a8a41dd	0.0010548193
11	0x3c98905b	0.018623522
12	0xbcd8b5bf	-0.02645385
13	0xbcd5dcfc	-0.02610635
14	0x3c893caa	0.01675256
15	0x3cc0f0a9	0.023552256
16	0x3c47e742	0.012201132
17	0xbc31a837	-0.010843328
18	0x3cd25753	0.025676405
19	0xbc3c0faa	-0.011478344
20	0xbcf5a92c	-0.029987894
21	0xbcd23047	-0.025657786
22	0x3cb89898	0.0225337
23	0xbcbe9e03	-0.023268705
24	0xb97c4241	-0.00024057274
25	0x3c806726	0.015674185
26	0xbc345a42	-0.011007847
27	0x3cc3804c	0.023864888
28	0x3c9ec306	0.019380104
29	0x3b03d5cf	0.0020116454
30	0x3bb864ba	0.005627242
31	0xbc6c1fb6	-0.014411857
32	0x3bd78bc8	0.0065779425
33	0xbca165fa	-0.019701947
34	0xbc35d65b	-0.01109847
35	0x3cdd89e3	0.027043289
36	0xbb20abfd	-0.0024516576
37	0x3cccb2f0	0.024987668
38	0xbbefe6aa	-0.0073211985
39	0x3c912617	0.017718358
40	0xbaa983cd	-0.0012932956
41	0x3ca68d6e	0.02033111
42	0x3c120f9b	0.008914853
43	0xbb8bae07	-0.004262689
44	0x3c9725e4	0.018450685
45	0xbd180b64	-0.037120238
46	0x3c6c0f61	0.0144079635
47	0xbd0461ec	-0.032319948
48	0x3bef3ab4	0.007300699
49	0xbc9e2fa7	-0.019309832
50	0x3a97fd56	0.0011595886
51	0xbd18acbe	-0.037274115
52	0x3a9d61e2	0.0012007321
53	0xbc35c0b1	-0.0110933045
54	0xbc281579	-0.010259026
55	0xbcacfaa5	-0.02111561
56	0x3b42ad3a	0.0029705302
57	0xbaadc5a3	-0.0013257753
58	0xbd0035fd	-0.031301487
59	0x3d3026f9	0.043005917
60	0x3c96d17e	0.01841044
61	0xbc7d4b40	-0.0154598355
62	0x3cd090f1	0.025459738
63	0xbc66de9e	-0.014091162

fc.2.weight f4 [64]
0	0x3fc72fa5	1.5561415
1	0x3f800000	1.0
2	0x3f800000	1.0
3	0x3f800000	1.0
4	0x3f800000	1.0
5	0x3f800000	1.0
6	0x3f800000	1.0
7	0x3fc700e1	1.5547143
8	0x3fc7d8fe	1.5613096
9	0x3f800000	1.0
10	0x3f800000	1.0
11	0x3f800000	1.0
12	0x3f800000	1.0
13	0x3f830d18	1.0238371
14	0x3fc7520a	1.5571911
15	0x3f800000	1.0
16	0x3fc78d2e	1.558996
17	0x3fc86b96	1.5657833
18	0x3fc71398	1.5552855
19	0x3fbd52e8	1.4790926
20	0x3f800000	1.0
21	0x3f800000	1.0
22	0x3f800000	1.0
23	0x3f800000	1.0
24	0x3f800000	1.0
25	0x3f800000	1.0
26	0x3f800000	1.0
27	0x3f800000	1.0
28	0x3fc79052	1.5590918
29	0x3fc6d5d4	1.5534005
30	0x3f800000	1.0
31	0x3f800000	1.0
32	0x3f800000	1.0
33	0x3f800000	1.0
34	0x3f800000	1.0
35	0x3f800000	1.0
36	0x3f800000	1.0
37	0x3f800000	1.0
38	0x3f800000	1.0
39	0x3f800000	1.0
40	0x3fc50dfd	1.5394894
41	0x3f800000	1.0
42	0x3f800000	1.0
43	0x3fc8a702	1.5675967
44	0x3fc75e43	1.5575641
45	0x3fbbfc0d	1.4686295
46	0x3fc65928	1.5495958
47	0x3f800000	1.0
48	0x3f800000	1.0
49	0x3f800000	1.0
50	0x3f800000	1.0
51	0x3fc6eed2	1.5541632
52	0x3f800000	1.0
53	0x3f800000	1.0
54	0x3f9dafe2	1.23193
55	0x3fc7a47f	1.5597075
56	0x3f800000	1.0
57	0x3f800000	1.0
58	0x3f800000	1.0
59	0x3fc770dc	1.5581317
60	0x3f800000	1.0
61	0x3fc6dd29	1.5536243
62	0x3f800000	1.0
63	0x3f924c30	1.14295

fc.2.bias f4 [64]
0	0xbf06c4f2	-0.52644265
1	0x3f169103	0.5881502
2	0x3f14fc95	0.5819791
3	0xbf188edc	-0.59592986
4	0x3f1641b3	0.58694
5	0xbf1972b4	-0.5994065
6	0xbf11e3a8	-0.56988
7	0x3f084ba1	0.532404
8	0xbef04e23	-0.46934614
9	0x3f12d75d	0.5735987
10	0xbf165e90	-0.5873804
11	0xbf1671d1	-0.5876742
12	0x3f177b67	0.5917267
13	0x3f1a9b13	0.60392874
14	0x3f0c1882	0.54724896
15	0x3f12d948	0.57362795
16	0xbf0eb6ca	-0.55747664
17	0x3f09e6a6	0.53867567
18	0xbf0caae0	-0.54948235
19	0x3f0c370f	0.5477151
20	0xbf169be0	-0.58831596
21	0xbf147a29	-0.579989
22	0xbf1756a0	-0.59116554
23	0xbf1422b7	-0.5786547
24	0xbf16c0da	-0.5888802
25	0xbf16bc1e	-0.58880794
26	0x3f17362f	0.5906705
27	0x3f1605e5	0.58602744
28	0x3f030566	0.5118011
29	0x3f059152	0.52174866
30	0xbf182486	-0.5943073
31	0xbf16df36	-0.5893434
32	0xbf146adc	-0.57975554
33	0xbf1437d9	-0.57897717
34	0x3f180260	0.59378624
35	0x3f1512e8	0.58231974
36	0xbf11f41e	-0.5701312
37	0x3f17ab1a	0.59245455
38	0xbf1846e2	-0.5948316
39	0x3f12c82d	0.57336694
40	0xbef961c3	-0.487074
41	0xbf18016d	-0.59377176
42	0xbf169987	-0.58828014
43	0xbf05446e	-0.5205754
44	0xbf03a6d7	-0.5142645
45	0x3f0e9dd4	0.55709577
46	0x3f0a1214	0.53933835
47	0xbf161fd2	-0.58642304
48	0xbf18dbf2	-0.5971061
49	0x3f18d848	0.5970502
50	0x3f18376b	0.5945956
51	0x3f0c01a9	0.54690033
52	0xbf166d44	-0.58760476
53	0xbf15f2cf	-0.5857362
54	0x3f154047	0.58301204
55	0x3f0a690f	0.54066557
56	0x3f184ec0	0.5949516
57	0x3f13d74c	0.5775039
58	0x3f180857	0.59387726
59	0xbf070e2c	-0.52756
60	0x3f171440	0.59015274
61	0x3f0d1074	0.5510323
62	0xbf162e67	-0.58664554
63	0x3f182f49	0.5944715

fc.2.running_mean f4 [64]
0	0x456c9c78	3785.7793
1	0x00000000	0.0
2	0x00000000	0.0
3	0x00000000	0.0
4	0x00000000	0.0
5	0x00000000	0.0
6	0x00000000	0.0
7	0x45cdc2e7	6584.363
8	0x46ff370b	32667.521
9	0x00000000	0.0
10	0x00000000	0.0
11	0x00000000	0.0
12	0x00000000	0.0
13	0x00000004	6e-45
14	0x4544ef7c	3150.9678
15	0x00000000	0.0
16	0x44d49a4a	1700.8215
17	0x44a1b1a4	1293.5513
18	0x4626feca	10687.697
19	0x00000004	6e-45
20	0x00000000	0.0
21	0x00000004	6e-45
22	0x00000000	0.0
23	0x00000000	0.0
24	0x00000000	0.0
25	0x00000000	0.0
26	0x00000000	0.0
27	0x00000000	0.0
28	0x473caa89	48298.535
29	0x4656b63d	13741.56
30	0x00000000	0.0
31	0x00000000	0.0
32	0x00000000	0.0
33	0x00000000	0.0
34	0x00000000	0.0
35	0x00000000	0.0
36	0x00000000	0.0
37	0x00000000	0.0
38	0x00000000	0.0
39	0x00000004	6e-45
40	0x461a897c	9890.371
41	0x00000000	0.0
42	0x00000000	0.0
43	0x47659c12	58780.07
44	0x45aed1a6	5594.206
45	0x00000004	6e-45
46	0x45bdf76f	6078.929
47	0x00000000	0.0
48	0x00000000	0.0
49	0x00000000	0.0
50	0x00000000	0.0
51	0x47172866	38696.4
52	0x00000000	0.0
53	0x00000000	0.0
54	0x00000004	6e-45
55	0x44dbe6bb	1759.2103
56	0x00000000	0.0
57	0x00000000	0.0
58	0x00000000	0.0
59	0x47135f08	37727.03
60	0x00000000	0.0
61	0x472c0dbc	44045.734
62	0x00000000	0.0
63	0x00000004	6e-45

fc.2.running_var f4 [64]
0	0x451b7b92	2487.7231
1	0x00000004	6e-45
2	0x00000004	6e-45
3	0x00000004	6e-45
4	0x00000004	6e-45
5	0x00000004	6e-45
6	0x00000004	6e-45
7	0x452cb7c9	2763.4866
8	0x454a283d	3234.515
9	0x00000004	6e-45
10	0x00000004	6e-45
11	0x00000004	6e-45
12	0x00000004	6e-45
13	0x00000004	6e-45
14	0x454b8230	3256.1367
15	0x00000004	6e-45
16	0x4550bc1b	3339.7566
17	0x454ac8cc	3244.5498
18	0x456e44bc	3812.296
19	0x00000004	6e-45
20	0x00000004	6e-45
21	0x00000004	6e-45
22	0x00000004	6e-45
23	0x00000004	6e-45
24	0x00000004	6e-45
25	0x00000004	6e-45
26	0x00000004	6e-45
27	0x00000004	6e-45
28	0x45742276	3906.1538
29	0x453a96d0	2985.4258
30	0x00000004	6e-45
31	0x00000004	6e-45
32	0x00000004	6e-45
33	0x00000004	6e-45
34	0x00000004	6e-45
35	0x00000004	6e-45
36	0x00000004	6e-45
37	0x00000004	6e-45
38	0x00000004	6e-45
39	0x00000004	6e-45
40	0x45281a25	2689.634
41	0x00000004	6e-45
42	0x00000004	6e-45
43	0x455e7887	3559.533
44	0x45217cea	2583.8071
45	0x00000004	6e-45
46	0x4550db75	3341.716
47	0x00000004	6e-45
48	0x00000004	6e-45
49	0x00000004	6e-45
50	0x00000004	6e-45
51	0x452632de	2659.1792
52	0x00000004	6e-45
53	0x00000004	6e-45
54	0x00000004	6e-45
55	0x4576a835	3946.513
56	0x00000004	6e-45
57	0x00000004	6e-45
58	0x00000004	6e-45
59	0x455729ff	3442.6248
60	0x00000004	6e-45
61	0x452d424e	2772.144
62	0x00000004	6e-45
63	0x00000004	6e-45

fc.3.weight f4 [64, 64]
0	0x3f132c70	0.5748968
1	0x3f05ad0e	0.52217185
2	0x3efc5ac9	0.49288014
3	0xbefd9514	-0.495278
4	0x3f32072e	0.69542205
5	0xbef8c676	-0.48588914
6	0xbf0284fe	-0.5098418
7	0xbed23067	-0.41052553
8	0x3ecfea75	0.40608564
9	0x3f1a0a9f	0.60172457
10	0xbf2db752	-0.6785785
11	0xbf301c8e	-0.6879357
12	0x3f06191c	0.52382064
13	0x3edc266f	0.42998073
14	0xbecfecfa	-0.40610486
15	0x3f0eaf4c	0.5573623
16	0x3f03af36	0.51439226
17	0xbf170fce	-0.5900849
18	0x3efd1df1	0.49436906
19	0xbee37ff6	-0.44433564
20	0xbf221c44	-0.6332438
21	0xbf2ce177	-0.6753153
22	0xbf1008b3	-0.56263274
23	0xbf0bcd41	-0.5461007
24	0xbf21475d	-0.62999517
25	0xbef57a2e	-0.47944778
26	0x3f108994	0.5645993
27	0x3f04b1d5	0.5183385
28	0xbf02f234	-0.5115082
29	0xbeeb4179	-0.4594839
30	0xbf2cdb76	-0.6752237
31	0xbee8edd0	-0.45493937
32	0xbf047843	-0.51746005
33	0xbf20e753	-0.6285297
34	0x3f082227	0.5317711
35	0x3f2cd0fe	0.67506397
36	0xbee9f42c	-0.456941
37	0x3eeea876	0.466129
38	0xbf1aa008	-0.6040044
39	0x3f287385	0.6580127
40	0x3ed036ed	0.40666905
41	0xbf2f6366	-0.68511045
42	0xbf1df0e0	-0.6169567
43	0x3ef30c0b	0.47470126
44	0x3f03ab1f	0.51432985
45	0xbe9ef7aa	-0.31048328
46	0xbf0461d8	-0.517118
47	0xbf2d96ef	-0.6780843
48	0xbf03094f	-0.5118608
49	0x3f2f47ae	0.6846875
50	0x3f208272	0.62699044
51	0xbefe225c	-0.4963559
52	0xbf043bbe	-0.5165366
53	0xbf1147b0	-0.5675001
54	0x3dee4e28	0.11636001
55	0xbf0acb09	-0.5421606
56	0x3ee7a3de	0.45242208
57	0x3f14613c	0.5796087
58	0x3f0c8da7	0.54903644
59	0x3f103b0d	0.56340104
60	0x3f0e1016	0.55493295
61	0xbf059bb0	-0.52190685
62	0xbf2d0df4	-0.67599416
63	0x3e7bb320	0.2458005
64	0x3ee61126	0.44934958
65	0x3f07df14	0.53074765
66	0x3ef79b88	0.48360848
67	0xbf1c4972	-0.6104957
68	0x3f2f1939	0.6839786
69	0xbf3242cb	-0.6963317
70	0xbf12557b	-0.5716168
71	0xbf16b59b	-0.5887086
72	0x3f1b801b	0.6074235
73	0x3f226903	0.63441485
74	0xbf2963d6	-0.6616796
75	0xbf158f3b	-0.5842168
76	0x3f012237	0.5044283
77	0x3f05d562	0.5227872
78	0xbf048fec	-0.5178211
79	0x3f299bdc	0.6625345
80	0x3ee831ed	0.4535059
81	0xbee37dcb	-0.4443191
82	0x3ecd982c	0.4015516
83	0xbed78f05	-0.42101303
84	0xbf00adfb	-0.50265473
85	0xbef3b18c	-0.47596395
86	0xbf006f81	-0.5017014
87	0xbf1aea3f	-0.6051368
88	0xbf1ee0e0	-0.6206188
89	0xbf2960f2	-0.6616355
90	0x3f368685	0.7129901
91	0x3f2c87b8	0.6739459
92	0xbec18760	-0.37798595
93	0xbf18fab0	-0.5975752
94	0xbef7c81a	-0.48394853
95	0xbf27c375	-0.6553262
96	0xbf25d19f	-0.6477298
97	0xbf0bf746	-0.54674184
98	0x3f0629df	0.5240764
99	0x3f3723f4	0.71539235
100	0xbf01e700	-0.50743103
101	0x3f2af028	0.667727
102	0xbf05f710	-0.5233011
103	0x3eecd45f	0.46255776
104	0x3f0ed248	0.55789614
105	0xbef2e304	-0.47438824
106	0xbf13e644	-0.5777323
107	0x3ecdd8f7	0.40204594
108	0x3f1cef15	0.6130231
109	0xbee2f599	-0.44328
110	0xbedab1b4	-0.42713702
111	0xbf1241eb	-0.5713183
112	0xbf00350b	-0.5008094
113	0x3f156be7	0.5836777
114	0x3f128a4a	0.5724226
115	0xbf1d696d	-0.6148899
116	0xbf2c8eef	-0.674056
117	0xbf11eed8	-0.5700507
118	0xbd218f10	-0.039443076
119	0xbf0c668e	-0.54843986
120	0x3f3123e3	0.69195384
121	0x3f0be3fe	0.54644763
122	0x3f190bec	0.59783816
123	0x3ee2652f	0.44217822
124	0x3f3189c1	0.6935082
125	0xbefc70c1	-0.49304774
126	0xbf127e72	-0.5722419
127	0x3e87d8ee	0.26532692
128	0x3edb33c0	0.4281292
129	0x3f1756f9	0.59117085
130	0x3f198308	0.5996556
131	0xbf259741	-0.6468392
132	0x3f07a8f2	0.52992165
133	0xbf32632a	-0.6968256
134	0xbf07a24e	-0.5298203
135	0xbf02786e	-0.5096501
136	0x3ee343a1	0.44387534
137	0x3f24f1d8	0.64431524
138	0xbf30e360	-0.69096947
139	0xbf29882d	-0.6622341
140	0x3f2bb1a4	0.67067933
141	0x3f035213	0.5129711
142	0xbf165cae	-0.5873517
143	0x3f275871	0.65369326
144	0x3ee06f3b	0.43834862
145	0xbf0e2698	-0.5552764
146	0x3f100a47	0.5626568
147	0xbeb3d30b	-0.3512195
148	0xbefa3508	-0.48868585
149	0xbf12336e	-0.57109725
150	0xbf18ed67	-0.5973725
151	0xbf1997b1	-0.5999709
152	0xbf00ae7c	-0.5026624
153	0xbefa4032	-0.48877102
154	0x3f20475f	0.62608904
155	0x3f22d453	0.6360523
156	0xbede8831	-0.4346328
157	0xbf097410	-0.5369272
158	0xbf1962e6	-0.5991653
159	0xbf130c5b	-0.5744073
160	0xbf2773de	-0.65411174
161	0xbee87faa	-0.454099
162	0x3f2bcbf7	0.671081
163	0x3f0146f8	0.50498915
164	0xbefe472a	-0.4966367
165	0x3f0dc969	0.5538545
166	0xbef7eb53	-0.48421726
167	0x3f001f9e	0.50048244
168	0x3f185d89	0.59517723
169	0xbf1a3f57	-0.602529
170	0xbef7ba75	-0.48384443
171	0x3f172f10	0.59056187
172	0x3efd5b74	0.49483836
173	0xbeb9ff55	-0.36327615
174	0xbf029af9	-0.5101772
175	0xbf3241da	-0.6963173
176	0xbf0d6cc3	-0.5524408
177	0x3f18da3a	0.5970799
178	0x3f03fca5	0.5155738
179	0xbee6bf14	-0.45067656
180	0xbefcdf29	-0.49389008
181	0xbf32ffc4	-0.6992152
182	0x3e00a27b	0.12561981
183	0xbef269fa	-0.4734648
184	0x3f20f006	0.62866247
185	0x3f1a6604	0.60311913
186	0x3f2db353	0.6785175
187	0x3f145fcc	0.57958674
188	0x3f2520b8	0.6450305
189	0xbf030164	-0.51173997
190	0xbf1e0636	-0.6172823
191	0x3e076862	0.13223413
192	0x3ec435e0	0.38322353
193	0x3eed3544	0.463297
194	0x3f30c06f	0.6904363
195	0xbf346331	-0.70463854
196	0x3f2c9170	0.6740942
197	0xbf33358d	-0.70003587
198	0xbed8f34c	-0.4237312
199	0xbeeac1b8	-0.4585092
200	0x3f062af5	0.524093
201	0x3f06b75f	0.5262355
202	0xbf19ec98	-0.6012664
203	0xbef0984e	-0.469912
204	0x3f15db1c	0.5853746
205	0x3ef71119	0.48255232
206	0xbeec9fd6	-0.46215695
207	0x3f252e68	0.64523935
208	0x3ee1b2ca	0.44081718
209	0xbedf2791	-0.43584874
210	0x3ef8eba8	0.4861729
211	0xbee1d1df	-0.4410543
212	0xbf07e845	-0.5308879
213	0xbf082301	-0.5317841
214	0xbf24a0c2	-0.64307797
215	0xbf2e545e	-0.68097484
216	0xbf2def15	-0.67942935
217	0xbf2ad8c2	-0.66736996
218	0x3f330f88	0.69945574
219	0x3f2aea74	0.66764
220	0xbf18d244	-0.5969584
221	0xbec9001d	-0.392579
222	0xbf1a0424	-0.6016257
223	0xbf14acfd	-0.5807646
224	0xbefd3a4c	-0.4945854
225	0xbef752f6	-0.48305482
226	0x3f15a4e0	0.58454704
227	0x3f19dcd7	0.601026
228	0xbf0fbcd6	-0.56147516
229	0x3eec819d	0.46192637
230	0xbf1525fb	-0.5826108
231	0x3ee12677	0.4397466
232	0x3f0fbc77	0.5614695
233	0xbf2def3c	-0.6794317
234	0xbf0dc5c9	-0.5537992
235	0x3f1842db	0.59477013
236	0x3f189d62	0.5961515
237	0xbef64cc5	-0.48105446
238	0xbf04486d	-0.5167301
239	0xbf030fe8	-0.51196146
240	0xbf2d91ea	-0.6780077
241	0x3f1486aa	0.5801798
242	0x3f088285	0.53324157
243	0xbef826fa	-0.48467237
244	0xbf06cfdf	-0.52660936
245	0xbf0ec25f	-0.55765337
246	0x3d7b3918	0.061333746
247	0xbf0524dd	-0.52009374
248	0x3ef77281	0.48329547
249	0x3f234ad9	0.63786083
250	0x3f2f6851	0.6851855
251	0x3f16c388	0.58892107
252	0x3eee5b3f	0.4655399
253	0xbf09a336	-0.53764665
254	0xbf290d54	-0.6603596
255	0x3e1bc1d0	0.15210652

fc.3.bias f4 [64]
0	0x3f07c8f3	0.53041
1	0x3f019b6f	0.506278
2	0x3ef450ae	0.47717804
3	0x3edf50de	0.43616384
4	0x3ee12a44	0.4397756
5	0x3f1a7069	0.60327774
6	0x3ed995f2	0.42497212
7	0x3ecba8b4	0.39777148
8	0x3f087fdd	0.53320104
9	0x3f15bc00	0.5848999
10	0x3f0bd7ef	0.54626364
11	0x3f1d9851	0.6156054
12	0x3f0a86c3	0.5411188
13	0x3f08c985	0.53432494
14	0x3f086b8e	0.53289115
15	0x3f0510ba	0.5197865
16	0x3eee2a23	0.46516523
17	0x3f095851	0.53650385
18	0x3f0a862a	0.5411097
19	0x3f102c3b	0.5631749
20	0x3f0f2de7	0.55929416
21	0x3f1473f7	0.5798945
22	0x3ef34045	0.4750997
23	0x3f0f5d9a	0.560022
24	0x3f182f3d	0.5944708
25	0x3f140f8e	0.57836235
26	0x3edc5ff5	0.4304196
27	0x3ef742a0	0.48293018
28	0x3f196af6	0.59928834
29	0x3f00e4e7	0.5034928
30	0x3f1b905c	0.6076715
31	0x3ef7e31b	0.48415455
32	0x3ed3d7df	0.41375634
33	0x3f08a426	0.5337547
34	0x3edd5eb2	0.4323631
35	0x3ec2e497	0.38065025
36	0x3eeca26b	0.46217665
37	0x3f18994f	0.5960893
38	0x3f1fd0c1	0.6242791
39	0x3f0c6636	0.5484346
40	0x3f15fbb0	0.5858717
41	0x3ee4ac52	0.4466272
42	0x3f1c80c7	0.61134
43	0x3f04ae57	0.5182852
44	0x3ef22969	0.47297218
45	0x3ef8d914	0.48603117
46	0x3f1fd136	0.62428606
47	0x3f14a6d1	0.5806704
48	0x3ee94816	0.4556281
49	0x3f164f04	0.5871432
50	0x3f14ba6a	0.58096945
51	0x3f17d9a0	0.59316444
52	0x3f14db1b	0.5814683
53	0x3f0fa6a7	0.56113666
54	0x3f057bdc	0.5214212
55	0x3f05722c	0.5212734
56	0x3e91db75	0.28487745
57	0x3f19f790	0.60143375
58	0x3f0986cc	0.5372131
59	0x3f0f2ad6	0.5592474
60	0x3f0b930f	0.5452127
61	0x3ee404c8	0.44534898
62	0x3ed727ab	0.42022452
63	0x3ef5fea5	0.4804584

placing_layer.0.weight f4 [8, 64]
0	0x3deca484	0.11554816
1	0x3d82310e	0.06357013
2	0xbd9554b8	-0.072915494
3	0xbcad0257	-0.02111928
4	0xbcf0e8e6	-0.02940793
5	0xbdc972b5	-0.09836332
6	0xbd940610	-0.07227719
7	0xbda2fa5b	-0.07957908
8	0xbdc0d6e5	-0.09415988
9	0x3ca533b0	0.020166248
10	0x3d2da423	0.04239286
11	0xbd87668c	-0.06611356
12	0xbd237232	-0.039903827
13	0x3bda6f2d	0.006666085
14	0xbd4d3a2f	-0.050104316
15	0xbd0bffa6	-0.034179352
16	0xbdbad116	-0.09121911
17	0x3de81da6	0.1133378
18	0xbde88e49	-0.11355264
19	0x3d5bf2a4	0.053698197
20	0xbdd4effc	-0.10397336
21	0xbda503f5	-0.08057395
22	0x3da39d6a	0.07989009
23	0x3dd37097	0.10324209
24	0x3de9fedb	0.11425563
25	0x3dc4d3c0	0.096107006
26	0xbdf5c6fd	-0.12000845
27	0x3d83b951	0.06431831
28	0xbdb4c8c9	-0.08827359
29	0x3d12a5e7	0.035802748
30	0xbd9e60fe	-0.077333435
31	0xba430eaa	-0.0007440845
32	0xbd73fba2	-0.059566148
33	0xbcb21878	-0.021740183
34	0x3dc34805	0.09535221
35	0x3e0b30cc	0.13592833
36	0x3c9ea704	0.019366749
37	0xbdc4841d	-0.09595511
38	0x3decc949	0.115618296
39	0xba4f8a06	-0.00079169904
40	0xbd1bf4c3	-0.03807522
41	0x3da79232	0.081821814
42	0x3dcb8d72	0.09939088
43	0xbd400032	-0.046875186
44	0x3cd38eaa	0.025824863
45	0xbdae80d8	-0.08520669
46	0xbcde066f	-0.027102677
47	0x3da2c593	0.079478405
48	0x39a56023	0.0003154288
49	0xbddb77b5	-0.10716192
50	0xbdaf03f1	-0.08545674
51	0x3dc1f4ba	0.09470506
52	0xbd07d633	-0.03316326
53	0xbd16c898	-0.036812395
54	0x3d518c27	0.05115905
55	0xbd856cac	-0.06514868
56	0xba2d81f6	-0.0006618792
57	0x3d9e43c1	0.07727767
58	0xbcca7596	-0.024714272
59	0x3d8ea637	0.06965297
60	0x39691d89	0.00022231614
61	0xbc610f11	-0.013736502
62	0xbca02f2f	-0.019553749
63	0xbd9da415	-0.07697312
64	0x3f2345e9	0.6377855
65	0x3f114458	0.5674491
66	0x3f0c2af4	0.5475304
67	0x3f097efe	0.537094
68	0x3edc2428	0.42996335
69	0x3f1d01f5	0.6133111
70	0x3f13de2a	0.5776087
71	0x3f00f65e	0.50375926
72	0x3f23ecd1	0.6403323
73	0x3eefbc8c	0.46823537
74	0x3f1cba49	0.6122175
75	0x3ee4e320	0.44704533
76	0x3ef4062a	0.47660953
77	0x3ef19a1e	0.47187895
78	0x3f051e78	0.51999617
79	0x3f1ba271	0.6079474
80	0x3f273012	0.65307724
81	0x3f054f90	0.5207453
82	0x3f225fd3	0.63427466
83	0x3f046660	0.5171871
84	0x3ee5ce91	0.4488416
85	0x3eec1891	0.46112493
86	0x3ee87688	0.45402932
87	0x3eda96c4	0.4269315
88	0x3eff15a8	0.4982121
89	0x3f21873b	0.6309697
90	0x3f2579ca	0.6463896
91	0x3f166e5f	0.5876216
92	0x3f1bf5e5	0.6092208
93	0x3eec6705	0.46172348
94	0x3ef2d2bf	0.47426412
95	0x3ee81d71	0.45334962
96	0x3f2a4996	0.66518533
97	0x3f1bcf33	0.60863036
98	0x3eff0250	0.49806452
99	0x3f1b9134	0.6076844
100	0x3f098ef6	0.53733766
101	0x3f02ec69	0.51141983
102	0x3f067778	0.52526045
103	0x3f1a3a1b	0.6024491
104	0x3f120d33	0.5705139
105	0x3f0e0dcf	0.5548982
106	0x3f027732	0.5096313
107	0x3f1cede1	0.61300474
108	0x3ef1b5d1	0.47209027
109	0x3efce21c	0.49391258
110	0x3f05cbef	0.522643
111	0x3ef962db	0.48708233
112	0x3ef12561	0.4709883
113	0x3f09c654	0.5381825
114	0x3f03b871	0.5145331
115	0x3f02d169	0.51100785
116	0x3f0d5747	0.552113
117	0x3ed026d8	0.40654635
118	0x3f0c2457	0.5474295
119	0x3ed5dfca	0.417723
120	0x3ee04a4e	0.4380669
121	0x3f078dec	0.5295093
122	0x3f25abee	0.6471547
123	0x3f243ecc	0.6415832
124	0x3f1a1cd6	0.6020025
125	0x3efb712e	0.49109787
126	0x3f220a46	0.63296926
127	0x3f021c8d	0.50824815
128	0xbe02b75d	-0.1276526
129	0xbd57159e	-0.05251085
130	0x3d4ebf2f	0.050475296
131	0x3da85ae3	0.0822046
132	0xbdd29211	-0.10281766
133	0xbdb60698	-0.088879764
134	0xbc76e35e	-0.015068857
135	0xbccb0bf2	-0.02478597
136	0x3dc80dba	0.09768243
137	0xbdecf6f7	-0.11570542
138	0xbd84372d	-0.064558364
139	0xbdb3fa76	-0.08788006
140	0x3c81d8a7	0.015850378
141	0xbd2f8c02	-0.04285813
142	0xbba91e6a	-0.0051610963
143	0xbdbbc288	-0.09167963
144	0x3d0ec5bd	0.034856547
145	0xbc7f179e	-0.015569596
146	0x3dec1f75	0.115294375
147	0xbdc73340	-0.09726572
148	0xbc5781e3	-0.013153526
149	0xbdc35cb9	-0.0953917
150	0x3ae929ff	0.0017789005
151	0x3d3e57ee	0.046470575
152	0x3d00651e	0.031346433
153	0xbdc3d620	-0.095623255
154	0xbda44a76	-0.08022015
155	0xbdcebff8	-0.10095209
156	0xbd9e087a	-0.077164605
157	0xbbc7b4a9	-0.0060945344
158	0xbcc36d10	-0.023855716
159	0x3d827699	0.06370277
160	0x3d2474e0	0.040150523
161	0xbbfd2930	-0.007725857
162	0xbd86820b	-0.065677725
163	0xbdd2dde2	-0.10296227
164	0x3cdf5cb8	0.027265891
165	0xbde7a7c7	-0.11311298
166	0xbc48415e	-0.012222616
167	0x3c94889b	0.018131545
168	0x3cd9a21b	0.026566556
169	0x3d83fb6e	0.06444441
170	0x3d71ec67	0.05906334
171	0xbdae9b28	-0.085256875
172	0xbd6bbcee	-0.057553224
173	0xbbdf3e7c	-0.0068128686
174	0xbdab65ac	-0.08369002
175	0x3d42b772	0.04753823
176	0xbd876529	-0.06611092
177	0x3d981436	0.0742573
178	0x3d6a2adc	0.05716978
179	0x3dc326d6	0.09528892
180	0x3d93a679	0.072094865
181	0x3d4bdaa4	0.04976906
182	0xbe02329f	-0.12714623
183	0x3df55b21	0.11980272
184	0x3dcc7c3c	0.09984633
185	0xbcba6116	-0.022751372
186	0xbd84be8b	-0.06481656
187	0xbdc1593b	-0.094408475
188	0x3dc74b43	0.09731152
189	0xbb19e32c	-0.0023481352
190	0xbd5ba850	-0.053627312
191	0xbcdb517b	-0.026772251
192	0x3d0628f2	0.032753892
193	0xb9d777e9	-0.00041097336
194	0xbce5f27d	-0.028069729
195	0xbdef1afa	-0.11675067
196	0xbdc834eb	-0.09775718
197	0xbcab139e	-0.020883378
198	0x3ca9e117	0.020737214
199	0xbbca925f	-0.0061819996
200	0xbdd1668f	-0.102246396
201	0x3ddbfbeb	0.10741409
202	0x3d8d20c3	0.068910144
203	0xbd80de92	-0.06292452
204	0xbd2a2636	-0.041540347
205	0x3d90f700	0.070783615
206	0xbdabe3d2	-0.08393063
207	0x3bbd686b	0.00578027
208	0x3d8ff081	0.07028294
209	0x3d2f7c18	0.042842954
210	0xbd8b347f	-0.06797122
211	0x3dce8158	0.10083264
212	0xbdcd53d9	-0.10025758
213	0x3db4d05a	0.088288024
214	0xbd6d31cb	-0.057908814
215	0xbd94a9a7	-0.07258921
216	0x3c9c09e9	0.019047694
217	0xbb937aa7	-0.0045007053
218	0xbdb815d0	-0.089885354
219	0xbcdeb116	-0.02718405
220	0xbcd4a99a	-0.025959779
221	0x3d840921	0.06447054
222	0xbdc99f3d	-0.098448254
223	0xbbbc097f	-0.0057384367
224	0x3ddfcaa7	0.10927325
225	0xbc15ff14	-0.009155054
226	0x3c23826d	0.009979826
227	0xbd4076c7	-0.046988275
228	0xbd4bed0c	-0.049786612
229	0xbce89da8	-0.028395489
230	0xbd4ffce5	-0.05077829
231	0x3dbe64f2	0.092965975
232	0x3de371ff	0.111057274
233	0xbdecf8f0	-0.115709186
234	0xbd88e198	-0.066836536
235	0xbdf158dc	-0.11784527
236	0xbc92563a	-0.017863382
237	0x3c8a0e5d	0.016852552
238	0x3dd38d3d	0.103296734
239	0x3c44ece2	0.012019368
240	0xbde928f7	-0.113847665
241	0xbcaaca4a	-0.020848412
242	0xbdebe451	-0.11518157
243	0xbc680315	-0.014160891
244	0x3d62c921	0.055367593
245	0x3d82aaf6	0.063802645
246	0x3daaf7f3	0.08348074
247	0x3dc6aca2	0.09700896
248	0xbe8771ed	-0.26454106
249	0x3e008333	0.12550049
250	0xbc31aa65	-0.010843848
251	0xbbf3e7c1	-0.0074433987
252	0x3d0dd4f1	0.034626905
253	0x39869449	0.00025668953
254	0x3a31894e	0.0006772474
255	0xbdfed824	-0.12443569

placing_layer.0.bias f4 [8]
0	0x3db6b417	0.08921068
1	0x3ece269c	0.40263832
2	0xbc95135c	-0.018197708
3	0x3cd7c91c	0.026341014
4	0xbcaf5168	-0.021401122
5	0x3dc4815a	0.09594984
6	0x3e8bf326	0.27333945
7	0x3d7e7021	0.062118653

placing_layer.1.weight f4 [8, 64]
0	0x3cad499d	0.021153266
1	0xbd7cf57a	-0.061757542
2	0x3d6716d3	0.05641825
3	0x3d532154	0.051545456
4	0x3df7fa02	0.12108232
5	0x3d41f180	0.047349453
6	0x3de148b2	0.11000194
7	0x3c7e696e	0.015528066
8	0x3cebce3a	0.02878486
9	0xbde0b454	-0.10971895
10	0xbd66a09e	-0.05630552
11	0x3db4f831	0.08836401
12	0xbcf684e9	-0.030092673
13	0x3d2f7086	0.04283192
14	0xbde14f49	-0.110014506
15	0xbdd57569	-0.10422785
16	0xbd651965	-0.05593242
17	0x3dc8119d	0.097689845
18	0x3dc18442	0.09449054
19	0xbd802f9b	-0.0625908
20	0x3d0b29e3	0.033975493
21	0xbd597ebe	-0.053099386
22	0x3d5c67f7	0.053810086
23	0xbd775543	-0.060384046
24	0xbde31695	-0.110882916
25	0xbd8291a6	-0.063754365
26	0xbb2a635f	-0.0025999171
27	0xbc6c3d5a	-0.014418924
28	0xbd419958	-0.04726538
29	0x3d2db9c0	0.042413473
30	0xbdc2e20f	-0.095157735
31	0x3cd18da1	0.02558023
32	0xbddbd281	-0.1073351
33	0x3d3c92b7	0.046038356
34	0xbdc969aa	-0.09834607
35	0xbded0c63	-0.11574628
36	0x3d36a16e	0.044587545
37	0x3acaf5fd	0.0015484687
38	0x3b395daa	0.0028284588
39	0xbdaa329d	-0.08310435
40	0xbd9b3902	-0.07579233
41	0xbdc5f022	-0.09664942
42	0x3db03a32	0.0860485
43	0xbdcfe033	-0.101501845
44	0x3c66821e	0.014069108
45	0xbbddfe15	-0.0067746737
46	0x3dd5f41a	0.10446949
47	0xbcda40ca	-0.026642222
48	0xbd5e13fa	-0.05421827
49	0x3d1b6e98	0.037947267
50	0x3ddaaef5	0.10677902
51	0x3dd83f10	0.10558903
52	0xbd4257af	-0.047446903
53	0x3d4f0546	0.05054214
54	0x3d18e371	0.03732628
55	0x3965d05d	0.00021916763
56	0xbd79cc09	-0.0609856
57	0x3cee627f	0.029099701
58	0x3ca8e9e2	0.020619337
59	0xbd6e8292	-0.05822999
60	0x3d3e863e	0.046514742
61	0x3db917d3	0.09037747
62	0xbd2577b0	-0.040397346
63	0x3ba4d5f6	0.005030389
64	0x3c7c20f0	0.015388712
65	0xbe0a5172	-0.13507631
66	0x3d81a755	0.06330744
67	0xbda31ea7	-0.07964831
68	0x3db52e2d	0.08846698
69	0xbdff3d06	-0.12462811
70	0xbd37e65b	-0.04489742
71	0x3cd5ccbf	0.026098607
72	0x3cc2d91f	0.023785172
73	0x3dc6d28d	0.09708128
74	0xbd3bddfc	-0.045865998
75	0xbb2a5e8a	-0.002599629
76	0xbc4bb975	-0.012434353
77	0xbc42a495	-0.01188006
78	0xbdd730a6	-0.10507326
79	0x3d99a815	0.07502762
80	0xbde65334	-0.112463385
81	0xbd43fce1	-0.047848586
82	0x3db702fd	0.08936117
83	0xbd024f30	-0.0318138
84	0xbd47c972	-0.048776098
85	0xbdb47251	-0.088108666
86	0x3da1004d	0.078613855
87	0xbd518a33	-0.051157188
88	0xbd5c69f4	-0.053811982
89	0x3d374e7d	0.044752587
90	0xbda01b3e	-0.07817696
91	0xbd8b2eea	-0.067960575
92	0xbc092bc9	-0.008372256
93	0xbd18bd08	-0.03728965
94	0xbdd53035	-0.104095854
95	0xbd2ac428	-0.041690975
96	0x3d2322be	0.039828055
97	0x3d423828	0.047416836
98	0xbdce679b	-0.10078355
99	0x3c471ce2	0.012152882
100	0x3d9904d3	0.07471623
101	0x3dbeb04d	0.093109705
102	0xbda9731d	-0.08273909
103	0xbd5d24f8	-0.053990334
104	0xbd190dce	-0.03736668
105	0xbddf285b	-0.10896369
106	0x3d19cc54	0.037548378
107	0x3ce1d526	0.027567457
108	0xbdb56a6b	-0.08858188
109	0xbcb6fb49	-0.022336619
110	0x3dc8f1e4	0.09811762
111	0xbc3a492c	-0.011369985
112	0xbbc3ffee	-0.005981437
113	0xbd92a642	-0.071606174
114	0xbcf9c468	-0.030489162
115	0xbde9bd8a	-0.11413105
116	0x3ce2e1fc	0.027695648
117	0xbd2e7c42	-0.04259897
118	0x3da66b21	0.08125902
119	0x3c8bf714	0.01708559
120	0x3da0747d	0.078347184
121	0xbce55a10	-0.027997047
122	0x3d504f57	0.050856914
123	0x3d8a1728	0.06742698
124	0xbd2c2ea8	-0.042036682
125	0x3dde1d0b	0.10845383
126	0xbd4faea1	-0.05070365
127	0x3c05cc36	0.008166363
128	0xbe11b79f	-0.14230202
129	0xbe02840e	-0.12745687
130	0x3d80c3a1	0.06287313
131	0xbd26c638	-0.04071638
132	0x3dca8f96	0.09890668
133	0x3c043f85	0.008071785
134	0x3cf3e2e8	0.029771283
135	0x3ce911ad	0.028450811
136	0xbd45d24b	-0.048296254
137	0xbe130c50	-0.14360166
138	0xbce64a31	-0.02811155
139	0xbc29773b	-0.010343368
140	0x3d297e98	0.041380495
141	0xbca92f89	-0.02065255
142	0xbe16323a	-0.14667597
143	0x3c1cde0b	0.009574424
144	0xbc901ec8	-0.017592803
145	0xbd0131b9	-0.03154156
146	0x3be32269	0.0069315922
147	0x3dccfb68	0.100088894
148	0xbdbc67b9	-0.09199471
149	0xbde64ca9	-0.112450905
150	0xbcc4ce1c	-0.024024062
151	0xbdf46876	-0.11933987
152	0xbd99e68a	-0.07514675
153	0xbdb05efd	-0.086118676
154	0x3d17382d	0.036918808
155	0xbc19a581	-0.009377838
156	0x3dbed415	0.09317795
157	0xbdb46fef	-0.08810412
158	0xbc8efa68	-0.017453387
159	0xbdcdf780	-0.100569725
160	0x3cbb2ff8	0.022850022
161	0x3d1d67b8	0.038428992
162	0x3d6eb50f	0.05827814
163	0xbd3ed457	-0.04658922
164	0x3d0cb133	0.034348678
165	0x3aff8fd1	0.0019497817
166	0xbda88836	-0.08229105
167	0xbdb7a35c	-0.08966705
168	0xbe17c58a	-0.14821449
169	0xbde08178	-0.10962194
170	0xbe02b2cf	-0.12763523
171	0xbd4a57b2	-0.04940004
172	0xbcfe0a65	-0.031010816
173	0x3cf2d91f	0.029644547
174	0x3dabbbbb	0.08385416
175	0xbc5669c3	-0.013086739
176	0xbd88a2d8	-0.06671685
177	0x3c2eb455	0.010663112
178	0x3da84e04	0.08218005
179	0x3d869d95	0.06573025
180	0xbe1bea5f	-0.15226124
181	0xbe1e37e3	-0.15451007
182	0x3aa8fbd7	0.0012892437
183	0x3d0344de	0.0320481
184	0x3c4d758c	0.012540232
185	0x3dc6aff2	0.09701528
186	0xbda2d7a8	-0.079512894
187	0xbb99d4f6	-0.0046945764
188	0x3d706cb0	0.058697402
189	0xbc49caf1	-0.012316451
190	0x3d5667cc	0.052345082
191	0xbc8ded8c	-0.017325185
192	0x3f058336	0.52153337
193	0x3f1855b8	0.59505796
194	0x3ee23086	0.44177645
195	0x3f22c473	0.6358101
196	0x3f1e6216	0.6186842
197	0x3ed2be8b	0.41160998
198	0x3ec9ee76	0.39439744
199	0x3ecdaba8	0.40170026
200	0x3ed7d1fb	0.4215239
201	0x3ec14309	0.37746456
202	0x3edfb9a9	0.43696335
203	0x3f0c5e6c	0.54831576
204	0x3eb1e2bc	0.34743297
205	0x3f250ba5	0.64470893
206	0x3ee86de9	0.45396355
207	0x3ee4c986	0.44685
208	0x3f0ed75d	0.5579737
209	0x3f188492	0.59577286
210	0x3f07f0f0	0.53102016
211	0x3f0c3086	0.5476154
212	0x3f05116b	0.519797
213	0x3f04124a	0.51590407
214	0x3f136817	0.57580703
215	0x3eac5ba2	0.3366366
216	0x3f1d165e	0.61362255
217	0x3f088f4e	0.53343666
218	0x3ef42f0a	0.47692138
219	0x3ed8a4f5	0.42313352
220	0x3eb1aedb	0.34703717
221	0x3f234abf	0.6378593
222	0x3eccbc07	0.39987203
223	0x3ee0226c	0.43776262
224	0x3ed90d86	0.4239313
225	0x3ec54798	0.38531184
226	0x3f03d585	0.5149768
227	0x3f1f5344	0.6223643
228	0x3ef9d7e0	0.48797512
229	0x3f2393b0	0.6389723
230	0x3f01afd3	0.5065891
231	0x3f238c70	0.63886166
232	0x3ede3e06	0.43406695
233	0x3f235ddd	0.638151
234	0x3ee17028	0.4403088
235	0x3f24a726	0.6431755
236	0x3ebd3d65	0.36960903
237	0x3ed774f7	0.42081425
238	0x3edadbeb	0.4274591
239	0x3f004ad6	0.5011419
240	0x3ee39d1d	0.44455805
241	0x3ed29671	0.41130403
242	0x3ef70dfd	0.4825286
243	0x3ed36c28	0.41293454
244	0x3ef2ecc5	0.47446266
245	0x3f166a67	0.5875611
246	0x3ed90782	0.4238854
247	0x3f266dcd	0.6501129
248	0x3ed651df	0.41859338
249	0x3eac3ab0	0.33638525
250	0x3eeb32c4	0.4593717
251	0x3ed225f0	0.4104457
252	0x3eeb80f9	0.45996836
253	0x3efc8239	0.49318102
254	0x3edc65fb	0.43046555
255	0x3f05ce9f	0.52268404

placing_layer.1.bias f4 [8]
0	0x3deccbc4	0.11562303
1	0xbb2c97aa	-0.0026335516
2	0x3da7a252	0.08185257
3	0x3ea4f1b1	0.32215646
4	0xbdfdd238	-0.12393612
5	0x3db2328e	0.08701049
6	0x3dacd41d	0.08438895
7	0xbcc2c7d0	-0.023776919

placing_layer.2.weight f4 [8, 64]
0	0xbd915893	-0.07096972
1	0xbd5f736d	-0.054553438
2	0xbdd77ad4	-0.105214745
3	0x3dc80136	0.09765856
4	0x3d8a1b09	0.06743438
5	0x3dd2a02f	0.10284459
6	0x3d0de219	0.03463945
7	0xbd075725	-0.033042092
8	0x3cdf364b	0.027247569
9	0xbdcb3f73	-0.09924211
10	0xbdd798f9	-0.10527224
11	0x3d191e61	0.037382487
12	0xbc70ded1	-0.014701561
13	0xbd777805	-0.060417194
14	0xbd80c8aa	-0.06288274
15	0xbd7ddaf6	-0.061976396
16	0x3dc67331	0.0968994
17	0x3cb8e5b3	0.022570467
18	0xbdcfb058	-0.10141057
19	0xb99b6fbc	-0.00029647152
20	0xbb3ed2c0	-0.0029117316
21	0x3c432804	0.011911396
22	0x3d1de609	0.038549457
23	0x3d92656b	0.0714825
24	0x3d03aeee	0.032149248
25	0x3dbdc4d4	0.092660576
26	0x3dbd0164	0.09228781
27	0x3db54df9	0.08852763
28	0xbcf51310	-0.029916316
29	0x3d8b58e4	0.06804064
30	0xbd91b715	-0.07114998
31	0x3c90f54a	0.017695088
32	0xbd9f1644	-0.07767919
33	0x3dbd0035	0.09228555
34	0x3ca3b495	0.01998357
35	0x3cda5570	0.026652068
36	0x3d6a2b67	0.057170298
37	0xbdee94c9	-0.11649472
38	0xbdc2a468	-0.09504014
39	0x3d534820	0.051582456
40	0xbdbd513d	-0.092440106
41	0x3cc0223e	0.023453828
42	0x3d033894	0.03203638
43	0x3d6808f8	0.05664918
44	0xbdd969ee	-0.106159076
45	0x3cee2b10	0.029073268
46	0xbd8efc53	-0.06981721
47	0x3bf666cf	0.00751958
48	0xbcc71e3f	-0.024306415
49	0xbdb72834	-0.08943215
50	0x3de02f20	0.109464884
51	0x3c0a6acf	0.008448317
52	0x3db86e3d	0.09005401
53	0xbdff164d	-0.124554254
54	0xbd802b9c	-0.06258318
55	0xbe00cfbe	-0.12579247
56	0xbda041ef	-0.07825076
57	0x3d7dceab	0.061964672
58	0xbbdd4db3	-0.0067536472
59	0x3d924a5f	0.071430914
60	0x3dc12ed5	0.094327606
61	0xbd1d7cf8	-0.038449258
62	0xbde0bdb7	-0.10973685
63	0x3ccc4464	0.024934955
64	0xbcaf06ec	-0.021365605
65	0xbe071776	-0.13192543
66	0x3cae2c17	0.021261258
67	0x3d8cf815	0.068832554
68	0x3cb50750	0.022098213
69	0xbd8cde32	-0.06878318
70	0x3d7e608d	0.062103797
71	0x3b706d64	0.0036686296
72	0xbe124f73	-0.1428812
73	0xbc978fd0	-0.018501192
74	0x3dc0525b	0.09390708
75	0xbdb10887	-0.086442046
76	0x3c559d3f	0.013037979
77	0xbd976ece	-0.07394181
78	0xbdffa058	-0.12481755
79	0x3d6ca2c6	0.05777242
80	0x3dbff1a7	0.093722634
81	0x3bca4e63	0.006173895
82	0x3d4a6faa	0.049422897
83	0xbd88b2b1	-0.06674708
84	0xbdd939ec	-0.10606751
85	0xbdb30a84	-0.0874224
86	0xbdbf39f2	-0.09337224
87	0x3dabfc7f	0.08397769
88	0xbd58e9a9	-0.05295721
89	0xbe11f6f7	-0.14254366
90	0x3d62cf2c	0.055373356
91	0xbcc19381	-0.023629906
92	0xbd93315a	-0.071871474
93	0x3d3407a5	0.043952603
94	0xbdcbc8f6	-0.0995044
95	0x3d115081	0.035477165
96	0xbc85762f	-0.016291706
97	0x3da6ba92	0.08141054
98	0xbe00f69d	-0.12594076
99	0xbda664fb	-0.08124729
100	0xbca2f486	-0.019891988
101	0x3dabdabf	0.08391332
102	0x3dba6593	0.09101405
103	0xbc2f5f33	-0.01070385
104	0xbd8f74cb	-0.07004698
105	0xbb8e4db2	-0.004342758
106	0xbd46c842	-0.048530824
107	0xbd1dc44d	-0.038517285
108	0x3d02830d	0.03186326
109	0xbd7a091c	-0.061043844
110	0x3db05b77	0.086111955
111	0x3af96f4f	0.0019030365
112	0xbcc6ba74	-0.02425883
113	0x3d8b4e96	0.068020985
114	0xbe008cf7	-0.12553774
115	0x3cba6d56	0.022757214
116	0xbddb2ce7	-0.10701924
117	0xbc5f83c2	-0.013642253
118	0x3dafa7b3	0.08576908
119	0x3d2ceff6	0.042221032
120	0x3dd1d032	0.10244788
121	0x3ca38eab	0.01996549
122	0xbd820b75	-0.063498415
123	0xbddfdc82	-0.109307304
124	0x3cd0043b	0.025392642
125	0x3d1b3e11	0.037900988
126	0x3dc82283	0.097722076
127	0xbdea16ab	-0.11430105
128	0xbc5a79e7	-0.013334728
129	0x3ddcc71d	0.10780165
130	0xbd006af5	-0.031352002
131	0xbd61d2b5	-0.055132587
132	0x3d49f6a3	0.049307477
133	0xbdd98ff4	-0.1062316
134	0xbcb6e353	-0.022325194
135	0x3bf90be4	0.0076002944
136	0xbdb76881	-0.089554794
137	0x3dda2e40	0.10653353
138	0x3d570227	0.052492287
139	0x3def7315	0.11691872
140	0xbdd8fc09	-0.10594947
141	0xbd1304e6	-0.035893343
142	0xbc9a15db	-0.01880925
143	0xbc12daf2	-0.008963333
144	0xbd3a40c1	-0.04547191
145	0xbdc025c4	-0.09382203
146	0x3d10aad8	0.03531918
147	0xbdc34b13	-0.09535804
148	0xbdb850f7	-0.08999818
149	0xbd48d0cc	-0.04902725
150	0x3dc2f9e7	0.09520321
151	0x3dc3c183	0.09558394
152	0xbdd9222b	-0.1060222
153	0xbdc653ce	-0.09683953
154	0xbda94d1b	-0.0826666
155	0xbd1e1ed9	-0.038603637
156	0xbbac6c40	-0.005261928
157	0xbd13669a	-0.03598652
158	0x3db22645	0.086987056
159	0x3db919b4	0.090381056
160	0xbc19f36f	-0.009396418
161	0xbd59d5f6	-0.053182565
162	0x3db07bcb	0.08617362
163	0x3c17717a	0.0092433635
164	0xbdb2ddec	-0.087337345
165	0xbdd02db5	-0.10164968
166	0xbdadbd6b	-0.08483394
167	0xbd5af265	-0.05345382
168	0x3cbe7b49	0.023252146
169	0x3c85c32c	0.016328417
170	0x3dcea3cc	0.100898355
171	0x3d0c82fa	0.034304596
172	0x3cd83786	0.026393663
173	0x3d73d15f	0.059525844
174	0xbd9e1cb3	-0.07720318
175	0x3d85b117	0.06527918
176	0x3ca966c8	0.020678893
177	0x3dca884b	0.09889277
178	0xbe013668	-0.1261841
179	0xbcae29ea	-0.02126022
180	0xbdb0c3f4	-0.08631125
181	0xbddccce8	-0.1078127
182	0x3d3204a1	0.043461446
183	0x3cd18626	0.025576662
184	0xbaeeda78	-0.0018223068
185	0xbcd1f642	-0.02563012
186	0xbdab0be6	-0.08351879
187	0x3dbf03c0	0.09326887
188	0xbbed4202	-0.0072405348
189	0x3d448224	0.047975674
190	0xbca32fed	-0.019920314
191	0xbd5e69e5	-0.054300208
192	0xbca76d20	-0.020437777
193	0xbd023ce4	-0.03179635
194	0xbe07f0ab	-0.13275401
195	0xbdce31a7	-0.10068064
196	0x3c9df029	0.019279556
197	0x3d8e0d64	0.06936148
198	0xbd7f94ff	-0.062397953
199	0xbd2a3994	-0.041558817
200	0xbdc2bcca	-0.09508665
201	0xbc04e329	-0.0081108
202	0xbc282a0f	-0.010263934
203	0xbd51871e	-0.05115425
204	0xbdb243ea	-0.0870436
205	0x3c8076cf	0.015681652
206	0xbd8607af	-0.06544434
207	0xbca86677	-0.020556672
208	0xbdef32c9	-0.116796084
209	0x3ad3ba07	0.0016153463
210	0x3c163f91	0.009170429
211	0x3de7d3fe	0.11319731
212	0x3c88a991	0.016682418
213	0x3d3aa85e	0.045570724
214	0x3d29b2a2	0.041430123
215	0xbda79b44	-0.081839114
216	0xbbe4c4bd	-0.006981461
217	0x3c4d91f6	0.012547007
218	0x3d0bbc4d	0.034115124
219	0x3dd7e87f	0.10542392
220	0xbde5214c	-0.111879915
221	0x3d449717	0.047995653
222	0x3d1f5123	0.038895737
223	0x3cbc96b6	0.023021083
224	0xbe06ea77	-0.13175379
225	0x3dae0d9e	0.08498691
226	0x3bd7b097	0.0065823304
227	0xbd9d0e6b	-0.07668766
228	0x3de6f12a	0.11276467
229	0xbdbd3d49	-0.09240205
230	0xbd840c00	-0.06447601
231	0x3d3a808c	0.045532748
232	0x3d3ed051	0.046585385
233	0x3df2f29f	0.118626826
234	0xbd554091	-0.05206353
235	0x3c651e56	0.013984283
236	0x3ddaf3ff	0.1069107
237	0xbd8db6b2	-0.06919612
238	0xbdb989ff	-0.09059524
239	0xbc81a710	-0.015826732
240	0xbdd6970c	-0.10478029
241	0xbd982cc4	-0.07430413
242	0x3d20f01e	0.039291494
243	0xbdf335ca	-0.11875494
244	0x3dbb26cb	0.091382585
245	0xbdf5e237	-0.12006038
246	0xbdb7dc68	-0.08977586
247	0x3de5841d	0.11206839
248	0xbd32ae13	-0.04362304
249	0xbdd85c82	-0.105645195
250	0x3de3d488	0.111245215
251	0x3d959620	0.07304025
252	0x3d1fcf7d	0.039016236
253	0x3c846bb7	0.016164644
254	0x3dd5fa71	0.104481585
255	0xbdb80886	-0.08986001

placing_layer.2.bias f4 [8]
0	0xbc6e1e6e	-0.014533622
1	0x3d835133	0.06411972
2	0xbbbaade5	-0.0056969994
3	0xbb8f49bb	-0.004372803
4	0xbdd14676	-0.102185175
5	0x3d9cb9f4	0.07652655
6	0xbdbfee99	-0.09371681
7	0x3ea3e570	0.32010984

placing_layer.3.weight f4 [8, 64]
0	0x3f1fa5f1	0.6236258
1	0x3efc4738	0.49273086
2	0x3ee1a600	0.4407196
3	0x3f27b73b	0.6551396
4	0x3f059b04	0.5218966
5	0x3ec4c38f	0.3843045
6	0x3ef87255	0.48524728
7	0x3edba095	0.42895952
8	0x3f02718c	0.5095451
9	0x3eabb607	0.33537313
10	0x3ef1e597	0.47245476
11	0x3efb94b6	0.49136895
12	0x3ec4617e	0.3835563
13	0x3f16a6da	0.58848345
14	0x3ed90dad	0.42393246
15	0x3eb7d93e	0.3590793
16	0x3ef1f7c8	0.47259355
17	0x3ee66185	0.44996276
18	0x3f1398c1	0.5765496
19	0x3f0b1d95	0.54342014
20	0x3f0dcf35	0.553943
21	0x3efb8489	0.49124554
22	0x3eed6a01	0.46369937
23	0x3eeabb63	0.4584609
24	0x3f1fee06	0.6247257
25	0x3eca956b	0.39567122
26	0x3eddca93	0.43318614
27	0x3ec64d6e	0.3873095
28	0x3f0b3eb6	0.54392564
29	0x3f109574	0.5647805
30	0x3ed8d566	0.4235031
31	0x3efe4367	0.496608
32	0x3f01672d	0.5054806
33	0x3eac4785	0.33648315
34	0x3eeb34a0	0.45938587
35	0x3f23d51d	0.6399706
36	0x3f0d2cd6	0.5514654
37	0x3f1eac09	0.61981255
38	0x3efbbf8b	0.49169573
39	0x3f1c1e59	0.60983807
40	0x3f2022ae	0.62552917
41	0x3f1d6141	0.6147652
42	0x3ebc2b13	0.36751613
43	0x3f100e71	0.56272036
44	0x3ea972a1	0.33095267
45	0x3f1c942c	0.6116359
46	0x3ec8d9eb	0.39228758
47	0x3f0143ca	0.5049406
48	0x3ee29a31	0.44258264
49	0x3f1176a2	0.56821644
50	0x3f1670b4	0.5876572
51	0x3ef8e915	0.48615327
52	0x3f0daab7	0.55338615
53	0x3f0ac63e	0.54208744
54	0x3f068d75	0.52559596
55	0x3f208365	0.6270049
56	0x3ed6511d	0.4185876
57	0x3ef4f99a	0.4784668
58	0x3f0574ab	0.52131146
59	0x3f1f7ccb	0.62299794
60	0x3f00b656	0.5027822
61	0x3ec01086	0.37512606
62	0x3efade4b	0.4899772
63	0x3f1923a9	0.5982004
64	0x3d22aada	0.039713718
65	0xbd43d401	-0.047809605
66	0xbce99991	-0.028515609
67	0xbd2ffcc8	-0.04296568
68	0xbd895326	-0.067053124
69	0x3ce6263d	0.028094405
70	0x3d95cb66	0.07314186
71	0xbd7e934c	-0.062152192
72	0x3ce9f2d4	0.028558172
73	0xbd9c9d45	-0.07647184
74	0x3d40ec9a	0.04710064
75	0x3c78fcd7	0.0151970005
76	0x3cd86fd3	0.02642051
77	0xbd198203	-0.037477504
78	0x3de4c554	0.1117045
79	0xbdc02c5b	-0.0938346
80	0x3cbc868e	0.02301338
81	0xbe014ced	-0.12627001
82	0x3dba2d43	0.09090664
83	0x3d0584ac	0.03259723
84	0xbc498276	-0.012299171
85	0x3de89e53	0.11358323
86	0xbda703ab	-0.081549965
87	0x3dc3cfe2	0.09561135
88	0x3b87e578	0.004147228
89	0x3d40c542	0.04706312
90	0x3d1d1bdc	0.038356647
91	0xbd775cf5	-0.060391385
92	0x3c4d03d2	0.012513118
93	0xbdb7fcf3	-0.08983793
94	0xbd820354	-0.06348291
95	0x3d85e2a4	0.06537369
96	0x3d619b52	0.055079766
97	0xbe07e5eb	-0.132713
98	0x3d367e20	0.044553876
99	0x3d9d52c0	0.07681799
100	0xba2f9432	-0.0006697803
101	0xbd1b2535	-0.03787728
102	0x3c1ac60b	0.009446631
103	0xbb859bf2	-0.004077428
104	0xbd5144a3	-0.051090848
105	0x3d26bc2a	0.04070679
106	0x3da4837e	0.08032893
107	0x3dc81a24	0.09770611
108	0xbdb3926f	-0.08768164
109	0xbd1f3cc6	-0.038876317
110	0x3df1ccf8	0.11806673
111	0x3d468853	0.048469853
112	0xbda8e58a	-0.08246906
113	0xbb3cb0b9	-0.0028791858
114	0x3d66f4b4	0.05638571
115	0xbd6eb79c	-0.058280572
116	0xbdf05fab	-0.11736997
117	0x3d1f623a	0.038912036
118	0xbdba0086	-0.09082131
119	0xbd96d226	-0.073643014
120	0x3d5dfd9a	0.05419693
121	0xbc10b293	-0.008831638
122	0xbd0ecb69	-0.034861956
123	0x3c4be564	0.012444828
124	0xbdaa4a25	-0.08314923
125	0xbd9e1160	-0.07718158
126	0xbb275037	-0.002552999
127	0x3dbdc4d9	0.09266061
128	0x3da3b14d	0.07992802
129	0x3cb80eb3	0.022467947
130	0xbc8270dc	-0.015922956
131	0xbcd51028	-0.02600868
132	0xbc965570	-0.018351287
133	0x3c083ac0	0.008314788
134	0x3c82920d	0.015938783
135	0xbe0676db	-0.13131277
136	0x3d659cd8	0.05605778
137	0xbc23cbf7	-0.0099973595
138	0x3d564470	0.05231136
139	0x3de1383e	0.109970555
140	0x3dbfebec	0.093711704
141	0x3d5435e0	0.05180919
142	0xbc280c7f	-0.010256886
143	0xbdeb0253	-0.11475053
144	0x3de01c21	0.10942865
145	0x3cb284a8	0.021791771
146	0x3d7bbc3b	0.061458807
147	0x3ce6852f	0.028139679
148	0x3d90b077	0.07064908
149	0xbdc9e320	-0.09857774
150	0xbdbf794c	-0.093493074
151	0xbbd83e49	-0.006599222
152	0xbdf9d6fa	-0.12199207
153	0xbc4d988f	-0.01254858
154	0xbde66461	-0.112496145
155	0xbd653d49	-0.05596665
156	0xbdf3a725	-0.11897115
157	0xbd412e4c	-0.047163293
158	0x3d8dbb0d	0.06920443
159	0xbcdf2b60	-0.027242362
160	0x3c953d85	0.018217811
161	0xbc9e0ee5	-0.019294212
162	0xbd20a2f5	-0.039217908
163	0xbddb9a84	-0.10722831
164	0xbdba6ed6	-0.091031715
165	0xbdc1e327	-0.09467154
166	0x3d3523d1	0.04422361
167	0x3bdc9f0d	0.0067328275
168	0x3ddc9304	0.107702285
169	0x3c60d2a0	0.013722092
170	0xbdc2b14c	-0.09506473
171	0x3d82d5a5	0.06388406
172	0xbda5bf6f	-0.08093154
173	0xbdd3eb19	-0.10347576
174	0xbd857396	-0.06516187
175	0x3dd242c7	0.10266643
176	0x3d1ff832	0.039055057
177	0x3de21326	0.110388085
178	0xbdf22d74	-0.11825076
179	0x3cfa19c4	0.030529864
180	0xbdf95f00	-0.12176323
181	0x3d780205	0.0605488
182	0x3dabec6c	0.08394703
183	0xbd4e9e17	-0.050443735
184	0x3d988737	0.07447665
185	0x3d295cd8	0.04134831
186	0x3cdc9f40	0.026931405
187	0xbdb658d3	-0.089036606
188	0x3d342c18	0.043987364
189	0xbd6f9028	-0.058487087
190	0x3d1db1da	0.03849969
191	0xbd62fcc0	-0.055416822
192	0x3d898728	0.06715232
193	0x3d00c777	0.031440224
194	0xbdc2c211	-0.095096715
195	0x3dde1149	0.10843141
196	0xbb863635	-0.0040958175
197	0x3cbb1bc9	0.022840397
198	0xbe00369d	-0.12520833
199	0x3d732b2c	0.059367344
200	0x3da33e2a	0.07970841
201	0xbda750ec	-0.081697315
202	0xbd92e31a	-0.071722224
203	0xbd12da95	-0.035852987
204	0xbd7ea06f	-0.06216472
205	0xbd5d0d5e	-0.053967826
206	0x3ca7b21b	0.02047067
207	0x3de3f810	0.111312985
208	0xbcc17750	-0.023616463
209	0xbdffddf0	-0.12493503
210	0x3cc91839	0.024547683
211	0x3da2e564	0.07953909
212	0xbdebc1f7	-0.11511605
213	0x3d2eeefc	0.042708382
214	0x3dc7fa2b	0.09764513
215	0xbca560f4	-0.020187832
216	0xbdb673c7	-0.089088015
217	0xbc9ea679	-0.01936649
218	0xbdefab57	-0.11702602
219	0xbd2d3752	-0.042289086
220	0xbd433a4a	-0.04766301
221	0xbdb78254	-0.08960405
222	0xbded55e4	-0.11588648
223	0xbdeb0513	-0.11475577
224	0x3cd3e85f	0.02586764
225	0xbbc2c36b	-0.005943706
226	0x3ca27ed9	0.019835876
227	0x3d894f2c	0.06704554
228	0xbd97a9b7	-0.074054174
229	0xbd829173	-0.063753985
230	0x3d430b32	0.0476181
231	0xbc0015e3	-0.007817718
232	0x3dd1fea6	0.102536485
233	0xbdeb9a12	-0.11503996
234	0xbbc0b375	-0.005880768
235	0x3d23b865	0.039970774
236	0x3c70ebab	0.014704625
237	0x3cc9b51f	0.024622498
238	0x3d2222bb	0.039583903
239	0xbe02bfd1	-0.12768485
240	0x3dcc5e94	0.09978977
241	0x3da38bfb	0.079856835
242	0xbda80625	-0.08204297
243	0x3dad982e	0.084762916
244	0x3ce82c26	0.028341364
245	0xbd689cd7	-0.0567902
246	0x3c98cdd9	0.018652843
247	0xbcd0ba7f	-0.025479553
248	0xbba67838	-0.005080249
249	0x3d2174e4	0.039418116
250	0x3d9b5ed8	0.075864494
251	0x3dc014cf	0.09378969
252	0x3af43f25	0.0018634541
253	0x3d1b8b93	0.037974905
254	0x3d6cf1fa	0.057847954
255	0x3d5c869a	0.053839304

placing_layer.3.bias f4 [8]
0	0x3eb93641	0.36174205
1	0xbd863ae5	-0.06554202
2	0xbd734a44	-0.059396997
3	0xbdcb1871	-0.09916771
4	0x3ea45562	0.32096392
5	0x3ee185a9	0.44047287
6	0x3e943c08	0.2895205
7	0xbc9064ed	-0.01762625
