extra_baseline2/log_res/back/2exp_1/td3_agent_env-20240812-134927/td3_actor.pth (torch, 225477 bytes, 88 tensors)

fc.0.weight f4 [64, 500]
0	0xb9af8ae3	-0.0003348208
1	0x3cc487b3	0.023990488
2	0xbd16c3ab	-0.036807697
3	0xbd06cef0	-0.032912195
4	0xbc8d1aaa	-0.017224628
5	0x3c447b9d	0.011992362
6	0xba684750	-0.0008860724
7	0x3d113d8f	0.035459097
8	0xbb820c53	-0.0039687543
9	0x3c41e2b2	0.0118338335
10	0xbc5d6f9d	-0.01351538
11	0xbc1006c0	-0.008790672
12	0xbd2effdf	-0.042724486
13	0xbcf2a1c7	-0.029618157
14	0xbc97055f	-0.018435178
15	0x3ad92394	0.0016566389
16	0x3c90d57f	0.017679928
17	0x3cdbd2a2	0.026833836
18	0xbcf85e65	-0.030318448
19	0xbc9f88f8	-0.019474491
20	0x3c851139	0.016243564
21	0x3d181c00	0.037136078
22	0xbc16caf7	-0.009203664
23	0x3d091324	0.03346552
24	0xbbec33ee	-0.007208339
25	0x3b9b1028	0.0047321506
26	0x3d25dd2c	0.04049413
27	0xbd29edf0	-0.04148668
28	0xbce6a2c9	-0.028153794
29	0xbc397f78	-0.011321895
30	0xbc8ece5c	-0.017432384
31	0x3d1e443c	0.038639292
32	0xbced7725	-0.028987477
33	0xbca8a577	-0.020586712
34	0xbcfff3bd	-0.031244153
35	0xbd2b8eda	-0.04188428
36	0xbcd5db8e	-0.026105668
37	0x3d1d75c6	0.038442396
38	0x3ca379b4	0.019955494
39	0x3cb19039	0.021675216
40	0x3b1a2372	0.0023519662
41	0xbcbbd34d	-0.022927905
42	0x3bf7eda1	0.0075661694
43	0xbd2b0871	-0.041756097
44	0xbd045bd7	-0.032314148
45	0xbcbcde44	-0.023055203
46	0x3ce72616	0.028216403
47	0x3cd6cd99	0.026221083
48	0xbca27a4a	-0.019833703
49	0xbad3813a	-0.0016136535
50	0x3cea4ecb	0.028602025
51	0x3d361aa0	0.044458985
52	0x3c916696	0.017749112
53	0x3bc5f815	0.0060415366
54	0x3cf5a33b	0.02998506
55	0xbcd7b64b	-0.026332041
56	0x3c08897a	0.008333558
57	0xbd0e04fb	-0.03467272
58	0xbcfdead0	-0.030995756
59	0xbcbd4114	-0.02310232
60	0x3ca5c450	0.02023521
61	0x3c93559e	0.017985161
62	0xbcd90342	-0.026490811
63	0x3c5d5bbc	0.013510641
64	0x3cc91eb5	0.024550775
65	0xbbb8f671	-0.0056446125
66	0x3adfcf38	0.0017075306
67	0x3c29c602	0.01036215
68	0x3ce34790	0.027744085
69	0x3d2fe319	0.042941187
70	0xbd0d296d	-0.034463335
71	0xbc864247	-0.016389025
72	0x3c8ffb6a	0.017575938
73	0x3d17c5c9	0.037053857
74	0x3d1f6748	0.038916856
75	0x3d21a104	0.039460197
76	0x3c11d226	0.008900201
77	0xbd1f49fd	-0.03888892
78	0x3b86cefc	0.00411403
79	0xbce531f5	-0.027977923
80	0xbd2ab6d2	-0.041678257
81	0x3d22c0bd	0.03973459
82	0x3d0b481e	0.034004323
83	0xbd36b9d3	-0.04461081
84	0x3c0924cc	0.008370589
85	0xbbf6ddc5	-0.007533761
86	0xbbf1271c	-0.0073593985
87	0xbca7b3df	-0.020471511
88	0x3c8ce28f	0.017197875
89	0xbcd8fea9	-0.026488619
90	0x3c864daf	0.016394464
91	0x3cb94518	0.022615954
92	0x3d0321e6	0.03201475
93	0x3c88fc30	0.016721815
94	0xbd354c65	-0.04426231
95	0xbceda7a8	-0.029010609
96	0x3cb6ed81	0.022330048
97	0x3c195bb3	0.009360242
98	0xbd0ee510	-0.03488642
99	0xbcd2f4ab	-0.025751432
100	0x3d2c5342	0.04207159
101	0x3cf6dbb0	0.030134052
102	0xbc9fbdb4	-0.019499637
103	0xbc3869c5	-0.011255686
104	0xbd2e7ee5	-0.042601485
105	0xba52b7fb	-0.00080382795
106	0xbd09f1c1	-0.03367782
107	0xbd0d4bce	-0.03449612
108	0xbb217d3b	-0.0024641294
109	0x3bdc06ea	0.0067146914
110	0xbc9608d1	-0.01831475
111	0x3cd96365	0.026536653
112	0xbcdef15b	-0.027214697
113	0x3d2635fc	0.040578827
114	0x3cfb108e	0.030647542
115	0xbd1a78b2	-0.03771276
116	0xbc365c79	-0.011130446
117	0x3b043f80	0.002017945
118	0x3bd5cec9	0.006524895
119	0x3c2dc7f6	0.010606756
120	0x3c8fc4dd	0.017549926
121	0x3b2f8f17	0.002678817
122	0xbcb2c19d	-0.021820838
123	0x3cad5b36	0.021161657
124	0xbd2fb6c6	-0.042898916
125	0xbcd92479	-0.02650665
126	0xbc376b9e	-0.0111950915
127	0xbcb27524	-0.021784373
128	0xbc8029ff	-0.015645025
129	0xbd162322	-0.0366546
130	0xbc1bdc0a	-0.009512911
131	0x3c1c9f5c	0.009559479
132	0xbceeab57	-0.029134436
133	0xbb1668ea	-0.0022950717
134	0x3d0320ed	0.032013822
135	0xbb96a583	-0.0045973673
136	0x3aa2e8ff	0.0012429057
137	0xbb7cd78d	-0.0038580627
138	0x3c1449af	0.009050771
139	0x3ce8f1ca	0.028435607
140	0x3d2d83ec	0.04236214
141	0x3ce8a84d	0.028400565
142	0x3d2de98f	0.042459067
143	0xbb53f6ef	-0.0032343229
144	0xbd248da9	-0.04017416
145	0xbcadae84	-0.02120138
146	0x3cf97465	0.030451009
147	0xb997fe72	-0.0002899054
148	0xbcb618bb	-0.02222859
149	0xbd0c5f3b	-0.034270506
150	0xbd2b6d9c	-0.04185258
151	0xbd1a9ab5	-0.037745196
152	0xbc149f1a	-0.009071136
153	0x3cc8e9a0	0.024525464
154	0x3cc6115f	0.024178205
155	0xbd30a9d3	-0.043130707
156	0x3ce486f4	0.027896382
157	0xbd0f56cd	-0.03499489
158	0xbc1ae748	-0.009454556
159	0xbc948c43	-0.018133288
160	0xbc0d21ce	-0.008614017
161	0xbc0fdcfb	-0.008780713
162	0xbd24601a	-0.040130712
163	0xbd1e29d6	-0.038614117
164	0xbbe54f45	-0.006997975
165	0x3a179c0f	0.00057834474
166	0xbca66d4e	-0.020315792
167	0x3c8a01ad	0.016846502
168	0xbd24df1c	-0.040251836
169	0xbb45cbac	-0.0030181212
170	0x3d211746	0.039328836
171	0xbc956f2b	-0.018241486
172	0x3d256933	0.04038353
173	0x3c84ad7e	0.016196009
174	0xbd254fc6	-0.04035928
175	0x3ce7cb19	0.028295087
176	0xbba91a3c	-0.005160598
177	0xbca38b61	-0.019963922
178	0x3d127abd	0.035761584
179	0xbd14069d	-0.03613912
180	0x3b9d3f71	0.0047988226
181	0xbc196855	-0.009363254
182	0x3d02cf6b	0.03193609
183	0x3c4c8888	0.012483723
184	0x3cb00964	0.021488853
185	0x3c8161e4	0.015793748
186	0xbc30330a	-0.010754356
187	0xbc1a180b	-0.009405146
188	0xbd16f444	-0.036854044
189	0x3cc68234	0.024232008
190	0x3d11709b	0.03550778
191	0x3cfaabbb	0.030599466
192	0xbd0135d5	-0.03154548
193	0x3b02b74c	0.001994568
194	0xbd012100	-0.031525612
195	0xbcc9ac88	-0.024618402
196	0xbcd57a7d	-0.026059384
197	0x3c7a66d1	0.015283302
198	0xbcda5134	-0.026650049
199	0xba7fc5cc	-0.0009756952
200	0x3af6976c	0.0018813438
201	0x3cec2994	0.02882842
202	0xbd0a77ec	-0.033805773
203	0xbcfb8243	-0.030701762
204	0xbcd4baca	-0.025967974
205	0x3d003680	0.031301975
206	0xbc83b152	-0.016075764
207	0x3d1a8258	0.03772196
208	0x3c847a44	0.016171582
209	0x3bb98fbf	0.005662888
210	0xb9ae8a02	-0.0003329069
211	0xbc10d81d	-0.008840588
212	0x3bb7dcb2	0.0056110257
213	0xbc274fc0	-0.010211885
214	0xb9a4bf77	-0.0003142317
215	0x3bbafa86	0.0057061343
216	0xbd0f4887	-0.034981277
217	0xbcc004f9	-0.023439871
218	0x3d13ea5c	0.036112174
219	0xbd14a877	-0.036293473
220	0xbb52742f	-0.0032112708
221	0x3d35351c	0.044240102
222	0x3c845784	0.016155012
223	0x3aa5f68c	0.0012661978
224	0xbd1ebe96	-0.038755976
225	0x3cb57c40	0.022153974
226	0xbd027983	-0.031854164
227	0xbc4ffdd6	-0.012694797
228	0xbc75d679	-0.015004748
229	0xbbd902fa	-0.0066226693
230	0x3a003bfc	0.0004891751
231	0x3d171651	0.036886517
232	0x3bb6f148	0.005582962
233	0x3d241264	0.0400566
234	0x3ce01afa	0.027356613
235	0xbce79dc3	-0.028273469
236	0x3ca45013	0.020057714
237	0xbd017d01	-0.031613354
238	0xbc9b457f	-0.018954037
239	0x3c57820f	0.013153567
240	0x3c71efc7	0.01476664
241	0x3d096d01	0.03355122
242	0xbc6bdf5d	-0.014396516
243	0x3896240b	7.159271e-05
244	0x3cbc9c03	0.023023611
245	0xbd312693	-0.043249678
246	0x3d046f45	0.032332677
247	0xbd17797d	-0.036981095
248	0x3a21940a	0.0006163722
249	0xbbf925c9	-0.0076033813
250	0xbcc0f356	-0.023553532
251	0x3bc1aff6	0.0059108688
252	0x3d177951	0.03698093
253	0xbc562fd5	-0.0130729275
254	0xbcd98114	-0.026550807
255	0xbc877e42	-0.016539697

fc.0.bias f4 [64]
0	0xbcb1a1c7	-0.021683587
1	0x3d36b5c5	0.044606943
2	0xbd1e1783	-0.03859664
3	0xbcda1f60	-0.026626289
4	0x3a996ad6	0.0011704813
5	0x3bc0e436	0.00588658
6	0xbc0ccffc	-0.008594509
7	0xbc54b3e8	-0.012982346
8	0xbcba9b6e	-0.022779193
9	0x3d0bb7a1	0.03411067
10	0x3d2f4a82	0.042795666
11	0xbc9ec41b	-0.01938062
12	0x3a49c8c0	0.00076974556
13	0xbd3043fc	-0.043033585
14	0x3d1edffe	0.038787834
15	0xbccd9623	-0.025096005
16	0xbcbeaa41	-0.023274543
17	0xbcbbe350	-0.02293554
18	0x3c3c1343	0.011479202
19	0x3c7d56a1	0.0154625485
20	0xbd2128a2	-0.03934539
21	0xbc33db9f	-0.010977655
22	0x3cca43a2	0.024690453
23	0x3bc3b894	0.005972931
24	0xbd22d05c	-0.03974949
25	0x3cc06879	0.023487316
26	0x3d165977	0.036706414
27	0xbb32fbfc	-0.002731084
28	0x3d2cbc66	0.04217186
29	0x3cf10c83	0.029424911
30	0xbd0d4558	-0.03448996
31	0xbc7d8a49	-0.015474864
32	0x3d1ee84c	0.038795754
33	0xbc3f6d94	-0.01168384
34	0x3d1f0cd6	0.0388306
35	0xbd084da6	-0.033277176
36	0x3d20b4da	0.039234973
37	0x3c49d58a	0.012318978
38	0xbd1889ab	-0.037240665
39	0xbd2bd0c2	-0.041947134
40	0xbd09950d	-0.03358941
41	0x3d248e33	0.040174674
42	0x3c4a065b	0.012330617
43	0x3c663405	0.014050488
44	0xbc5de29d	-0.013542798
45	0xbd2577f2	-0.040397592
46	0x3d14dbd9	0.036342476
47	0xbcb2259a	-0.021746445
48	0xbbc9c131	-0.0061570634
49	0xbb74d012	-0.0037355465
50	0x3d262097	0.040558424
51	0x3c97f88a	0.01855113
52	0xbb845f48	-0.0040396787
53	0x3d1c4cc0	0.038159132
54	0x3d19ba1e	0.03753101
55	0xbc0f339c	-0.008740332
56	0x3d18ab4d	0.03727274
57	0xbcb2fddd	-0.021849567
58	0xbd255da2	-0.0403725
59	0x3d1d5fc5	0.03842141
60	0xbb30a520	-0.002695389
61	0xbbb7dd7b	-0.0056111193
62	0xbceef7a0	-0.029170811
63	0xbc97b221	-0.018517556

fc.2.weight f4 [64]
0	0x3f800000	1.0
1	0x3f800000	1.0
2	0x3f800000	1.0
3	0x3f8595f9	1.0436393
4	0x3f800000	1.0
5	0x3f800000	1.0
6	0x3f8500d3	1.0390877
7	0x3f84d0d8	1.0376234
8	0x3f85b331	1.044531
9	0x3f800000	1.0
10	0x3f85a5d5	1.0441233
11	0x3f800000	1.0
12	0x3f800000	1.0
13	0x3f855cdc	1.0418963
14	0x3f8591b1	1.0435086
15	0x3f858160	1.0430107
16	0x3f85a443	1.0440754
17	0x3f800000	1.0
18	0x3f800000	1.0
19	0x3f800000	1.0
20	0x3f858077	1.0429829
21	0x3f85878a	1.0431988
22	0x3f8566fa	1.0422051
23	0x3f858509	1.0431224
24	0x3f800000	1.0
25	0x3f85b9bb	1.0447305
26	0x3f85bad9	1.0447646
27	0x3f800000	1.0
28	0x3f8576b3	1.0426849
29	0x3f857983	1.0427707
30	0x3f8588dd	1.0432392
31	0x3f8590dd	1.0434834
32	0x3f85dc6e	1.0457895
33	0x3f85b2b4	1.0445161
34	0x3f800000	1.0
35	0x3f859f54	1.0439248
36	0x3f8588ca	1.043237
37	0x3f800000	1.0
38	0x3f800000	1.0
39	0x3f7fec56	0.99969995
40	0x3f800000	1.0
41	0x3f800000	1.0
42	0x3f800000	1.0
43	0x3f800000	1.0
44	0x3f800000	1.0
45	0x3f85a252	1.0440161
46	0x3f800000	1.0
47	0x3f85929a	1.0435364
48	0x3f800000	1.0
49	0x3f800000	1.0
50	0x3f857ac9	1.0428096
51	0x3f85d012	1.0454123
52	0x3f855e5c	1.0419421
53	0x3f800000	1.0
54	0x3f800000	1.0
55	0x3f85bd64	1.0448422
56	0x3f800000	1.0
57	0x3f800000	1.0
58	0x3f85a565	1.04411
59	0x3f800000	1.0
60	0x3f85c6c1	1.045128
61	0x3f85c160	1.0449638
62	0x3f800000	1.0
63	0x3f858a5e	1.0432851

fc.2.bias f4 [64]
0	0x3d2d864d	0.042364407
1	0x3d3e9a32	0.04653377
2	0xbd3c58af	-0.045983013
3	0x3bc1ef30	0.005918406
4	0x3d2901c7	0.04126146
5	0xbd3f54d8	-0.046711773
6	0xbca2c98b	-0.019871494
7	0xbcf90fc6	-0.03040303
8	0xbd3049a2	-0.04303897
9	0xbd38dca6	-0.0451323
10	0xbb74fd32	-0.0037382361
11	0x3d25c600	0.04047203
12	0x3d1ca64a	0.038244523
13	0xbd23009e	-0.03979551
14	0x3cc1d56b	0.023661336
15	0x3bd98972	0.006638699
16	0x3d02d9e4	0.031946078
17	0x3d3d24af	0.046177562
18	0xbd2a4056	-0.04156526
19	0x3d21a35c	0.039462432
20	0x3d0728ad	0.032997776
21	0xbcecf847	-0.028926982
22	0xbc87f7c8	-0.016597643
23	0x3cbf436f	0.023347585
24	0x3d3ccf16	0.04609593
25	0x3d1586d6	0.036505543
26	0x3ce245b1	0.027621122
27	0x3d2760ab	0.040863674
28	0xbcd196b2	-0.025584552
29	0xbcb211cc	-0.021737002
30	0xbd18a5c1	-0.03726745
31	0x3d25fb83	0.040523063
32	0xbbc9abc3	-0.006154509
33	0x3d069455	0.032856304
34	0x3d325c94	0.04354532
35	0x3c893247	0.016747607
36	0x3ced6e86	0.028983366
37	0xbd2d1118	-0.04225263
38	0xbd2fc516	-0.042912565
39	0xbd36eb3b	-0.044657927
40	0x3d44214b	0.047883313
41	0xbd2d96f1	-0.042380277
42	0x3d444910	0.04792124
43	0x3d3c001d	0.045898546
44	0xbd27a82e	-0.040931873
45	0xbbea6dea	-0.007154216
46	0xbd41d5f9	-0.0473232
47	0xbb1d2caa	-0.002398292
48	0x3d386ede	0.045027606
49	0x3d435928	0.047692448
50	0xbcf9436f	-0.030427663
51	0x3cde2183	0.027115589
52	0xbd043b1a	-0.032282926
53	0x3d434adb	0.04767881
54	0x3d2e9073	0.042618226
55	0x3cd76d24	0.02629716
56	0x3d3c9c00	0.04604721
57	0x3d2ba78d	0.041907836
58	0xbcc696b1	-0.024241777
59	0xbd2b63eb	-0.041843336
60	0x3ca6336a	0.020288188
61	0x3d1ef1c0	0.03880477
62	0xbd2e5087	-0.042557266
63	0xbd182c29	-0.03715149

fc.2.running_mean f4 [64]
0	0x00000000	0.0
1	0x00000000	0.0
2	0x00000000	0.0
3	0x4723ce0c	41934.047
4	0x00000000	0.0
5	0x00000000	0.0
6	0x45e9a855	7477.0415
7	0x46331264	11460.598
8	0x46c23fbf	24863.873
9	0x00000000	0.0
10	0x4678b8e3	15918.222
11	0x00000000	0.0
12	0x00000000	0.0
13	0x462c1287	11012.632
14	0x446db1df	950.77924
15	0x461c4d1b	10003.276
16	0x46f43ca5	31262.322
17	0x00000000	0.0
18	0x00000000	0.0
19	0x00000000	0.0
20	0x4422a4b0	650.57324
21	0x44fc7133	2019.5375
22	0x46b02f7d	22551.744
23	0x4529833d	2712.2024
24	0x00000000	0.0
25	0x449c547a	1250.6399
26	0x43e814f6	464.16376
27	0x00000000	0.0
28	0x4694340f	18970.03
29	0x46cabbfd	25949.994
30	0x46c63aac	25373.336
31	0x46d58571	27330.72
32	0x43425f78	194.37292
33	0x46a46925	21044.572
34	0x00000000	0.0
35	0x46955a75	19117.229
36	0x475b6727	56167.152
37	0x00000000	0.0
38	0x00000000	0.0
39	0x1cb5a63d	1.2020547e-21
40	0x00000000	0.0
41	0x00000000	0.0
42	0x00000000	0.0
43	0x00000000	0.0
44	0x00000000	0.0
45	0x470be137	35809.215
46	0x00000000	0.0
47	0x46aad59b	21866.803
48	0x00000000	0.0
49	0x00000000	0.0
50	0x4667a664	14825.598
51	0x4642a172	12456.361
52	0x468e815d	18240.682
53	0x00000000	0.0
54	0x00000000	0.0
55	0x468df0ab	18168.334
56	0x00000000	0.0
57	0x00000000	0.0
58	0x470b6a35	35690.207
59	0x00000000	0.0
60	0x460dac91	9067.142
61	0x44d18934	1676.2876
62	0x00000000	0.0
63	0x467c630e	16152.764

fc.2.running_var f4 [64]
0	0x1e0af823	7.356973e-21
1	0x1e0af823	7.356973e-21
2	0x1e0af823	7.356973e-21
3	0x468ae0f3	17776.475
4	0x1e0af823	7.356973e-21
5	0x1e0af823	7.356973e-21
6	0x468ad1c7	17768.889
7	0x4696d1ee	19304.965
8	0x4699036a	19585.707
9	0x1e0af823	7.356973e-21
10	0x46b7e035	23536.104
11	0x1e0af823	7.356973e-21
12	0x1e0af823	7.356973e-21
13	0x46ac1eb0	22031.344
14	0x468b2fb4	17815.852
15	0x46063094	8588.145
16	0x4692aa78	18773.234
17	0x1e0af823	7.356973e-21
18	0x1e0af823	7.356973e-21
19	0x1e0af823	7.356973e-21
20	0x4725f168	42481.406
21	0x465852ad	13844.669
22	0x46b6b8c6	23388.387
23	0x46e77d80	29630.75
24	0x1e0af823	7.356973e-21
25	0x47bce176	96706.92
26	0x4651d353	13428.831
27	0x1e0af823	7.356973e-21
28	0x46e7a361	29649.69
29	0x46480fcd	12803.95
30	0x463a3462	11917.096
31	0x4663a30a	14568.76
32	0x46aa09f5	21764.979
33	0x467f761a	16349.525
34	0x1e0af823	7.356973e-21
35	0x46c5d70a	25323.52
36	0x46695de6	14935.475
37	0x1e0af823	7.356973e-21
38	0x1e0af823	7.356973e-21
39	0x1ec73ad4	2.1094275e-20
40	0x1e0af823	7.356973e-21
41	0x1e0af823	7.356973e-21
42	0x1e0af823	7.356973e-21
43	0x1e0af823	7.356973e-21
44	0x1e0af823	7.356973e-21
45	0x4687a153	17360.662
46	0x1e0af823	7.356973e-21
47	0x46aa8546	21826.637
48	0x1e0af823	7.356973e-21
49	0x1e0af823	7.356973e-21
50	0x45ed4863	7593.0483
51	0x46971aaa	19341.332
52	0x47c73da2	102011.266
53	0x1e0af823	7.356973e-21
54	0x1e0af823	7.356973e-21
55	0x46e5f7ab	29435.834
56	0x1e0af823	7.356973e-21
57	0x1e0af823	7.356973e-21
58	0x4682b5fc	16730.992
59	0x1e0af823	7.356973e-21
60	0x468ee3d5	18289.916
61	0x4863cff1	233279.77
62	0x1e0af823	7.356973e-21
63	0x468ee2aa	18289.332

fc.3.weight f4 [64, 64]
0	0xbcdae0b0	-0.026718467
1	0x3d44cf2b	0.048049133
2	0xbe1d17ff	-0.15341185
3	0x3dc4d246	0.09610419
4	0x3d87e025	0.06634549
5	0xbd7a69fc	-0.06113623
6	0xbd6565df	-0.056005355
7	0xbe13eae5	-0.14445074
8	0xbd00c6d5	-0.03143962
9	0x3cf0a10d	0.02937367
10	0x3e04191e	0.12900206
11	0x3db6698a	0.08906849
12	0xbcc346b5	-0.023837427
13	0xbdc31d62	-0.09527089
14	0x3d4f3c43	0.05059458
15	0xbe2832f7	-0.16425692
16	0x3dea3768	0.11436349
17	0x3e10d546	0.14143857
18	0x3c5523b3	0.013009
19	0x3e1ccb05	0.15311821
20	0xbd9bf072	-0.07614221
21	0xbda10b89	-0.07863528
22	0x3d8b0f26	0.06789999
23	0xbd950b7b	-0.0727758
24	0x3cf0bf13	0.029387986
25	0x3d98a5ee	0.074535236
26	0xbd906940	-0.07051325
27	0x3dbead1a	0.0931036
28	0xbbadd803	-0.0053052916
29	0x3c73c534	0.01487856
30	0xbe1ba552	-0.15199783
31	0x3d411bf3	0.047145795
32	0x3e0b58f3	0.1360815
33	0xbd82d769	-0.063887425
34	0xbd150345	-0.03638007
35	0x3c023c04	0.007948879
36	0x3db96e81	0.0905428
37	0x3ce4f5ea	0.027949292
38	0xbcd31a18	-0.025769278
39	0xbdb4e2de	-0.08832334
40	0x3df5c5bb	0.12000605
41	0xbc8c852c	-0.017153345
42	0xbcfd0372	-0.030885432
43	0xbd0d2b4b	-0.034465116
44	0xbe0ba012	-0.1363528
45	0xbc24ff0f	-0.010070576
46	0xbcd08201	-0.025452616
47	0x3c8f3f67	0.017486287
48	0x3de7e7a3	0.11323478
49	0x3dc974c3	0.09836724
50	0x3c358377	0.011078707
51	0xbd89529f	-0.06705212
52	0x3ab8d4a6	0.001410146
53	0x3d8a13e7	0.06742077
54	0x3d301d39	0.04299662
55	0x3e18cec3	0.14922623
56	0x3e04decb	0.12975614
57	0x3cb60fd2	0.02222434
58	0xbd9bd72e	-0.07609402
59	0x3db14ce6	0.08657245
60	0xbde69074	-0.11258021
61	0x3dc7b2c3	0.09750893
62	0xbd8432fa	-0.064550355
63	0xbd888f76	-0.06667988
64	0x3d7e973f	0.06215596
65	0x3d92a937	0.071611814
66	0xbdfd769f	-0.12376141
67	0x3e0a1936	0.1348618
68	0x3db57197	0.08859556
69	0x3d652e85	0.055952568
70	0x3cbe2d5e	0.023214992
71	0xbd1be0eb	-0.038056295
72	0xbd9233b6	-0.07138769
73	0xbe096227	-0.13416348
74	0xbc33ed31	-0.010981844
75	0x3d7b7175	0.061387498
76	0x3e287c1d	0.16453595
77	0xbd02b545	-0.031911153
78	0x3e16bded	0.14720888
79	0xbe09efff	-0.13470457
80	0x3d034208	0.032045394
81	0x3d84ac6f	0.064782016
82	0xbdebea56	-0.115193054
83	0x3dc00589	0.09376056
84	0x3d44d48c	0.048054263
85	0xbd8a3eac	-0.06750235
86	0xb99fcea6	-0.00030480808
87	0x3d0c5428	0.034259945
88	0xbd923930	-0.07139814
89	0x3ccc43fe	0.024934765
90	0x3e034116	0.12817797
91	0x3bd1e04a	0.006404911
92	0x3cb09e02	0.021559719
93	0xbdc43520	-0.09580445
94	0xbe2784d8	-0.1635927
95	0x3c522b62	0.012827726
96	0xbd05a389	-0.032626662
97	0x3e096bb4	0.13419992
98	0x3df2e4aa	0.118600205
99	0xbd40bd90	-0.04705578
100	0xbb1bb58b	-0.002375933
101	0xbdde961f	-0.10868477
102	0xbd5d9e20	-0.054105878
103	0xbcc2fb2e	-0.023801412
104	0xbd332d7b	-0.043744545
105	0xbdb8b942	-0.0901971
106	0x3db746c2	0.08949043
107	0x3d312821	0.04325116
108	0x3d9a9c19	0.075493045
109	0xbdbc19c7	-0.09184604
110	0xbce73cbb	-0.0282272
111	0xbc8055f5	-0.015665988
112	0xbccc763d	-0.024958724
113	0xbdaa516f	-0.083163135
114	0xbdaf8fee	-0.08572374
115	0x3dcad2f0	0.099035144
116	0x3d1eb77c	0.038749203
117	0x3c7153b2	0.014729427
118	0x3dbeb00b	0.09310921
119	0x3d9f701e	0.077850565
120	0x3d145b96	0.036220156
121	0x3cc9510f	0.024574785
122	0xbc9d8d0f	-0.019232301
123	0xbd8da4c9	-0.06916196
124	0xbd8f15e8	-0.069866
125	0xbc047c27	-0.008086241
126	0xbda5f5aa	-0.08103497
127	0xbe115e55	-0.14196141
128	0x3df7b1a4	0.12094429
129	0x3e23cdc1	0.15996458
130	0x3d775c10	0.060390532
131	0xbcfc4151	-0.030792864
132	0x3dcbbc12	0.09947981
133	0xbe17fe15	-0.14843018
134	0x3d88865d	0.06666253
135	0xbdac4529	-0.08411629
136	0xbdf0dc42	-0.11760761
137	0xbdd0515c	-0.10171768
138	0x3c2e49d6	0.010637721
139	0x3d8ec7dd	0.06971715
140	0x3d73e8f1	0.059548322
141	0x3ddc63f5	0.10761253
142	0x3d531944	0.051537767
143	0xbb227f3a	-0.0024795071
144	0xbe274096	-0.16333231
145	0x3e1f315a	0.1554617
146	0xbe20d40b	-0.15705888
147	0x3d6ced50	0.057843506
148	0xbe05e426	-0.13075313
149	0xbd3ccea4	-0.046095505
150	0xbe16e309	-0.14735045
151	0x3e14773e	0.14498612
152	0xbd8829a4	-0.06648567
153	0x3e0ebe6c	0.13939828
154	0xbdfc04e8	-0.12305623
155	0xbce7c072	-0.028290007
156	0x3e1ce1ef	0.15320562
157	0x3c8d9a1a	0.017285395
158	0xbbeaff3e	-0.0071715405
159	0x3c1d919f	0.009617238
160	0xbe0d99f9	-0.13828267
161	0xbc315f83	-0.010825994
162	0x3b8df0fb	0.0043317056
163	0x3ddfb6c6	0.10923533
164	0x3d876a06	0.06612019
165	0xbdb58cc5	-0.0886474
166	0x3d7bdcde	0.061489932
167	0xbd21e81a	-0.03952799
168	0x3d18ec8a	0.037334956
169	0xbe216f43	-0.15765099
170	0x3d706ed0	0.05869943
171	0x3d48f7d1	0.04906446
172	0xbdfa91cd	-0.122348405
173	0x3c95eed0	0.018302351
174	0xbdc9aed5	-0.098478
175	0xbdfa67c8	-0.12226826
176	0xbaafaa7a	-0.0013402246
177	0x3d27ac24	0.04093565
178	0xbd854a65	-0.0650833
179	0xbdf2c910	-0.11854756
180	0xbcd7f169	-0.02636023
181	0xbd7d163e	-0.06178879
182	0x3d9ba17e	0.075991616
183	0xbdc14281	-0.09436513
184	0x3d5c197a	0.053735234
185	0xbb5cc96d	-0.0033689395
186	0xbd5f6e30	-0.054548442
187	0x3d1d3c9a	0.038387872
188	0x3c7a3d66	0.015273428
189	0x3e2713d2	0.16316155
190	0xbe22395f	-0.15842198
191	0xbd7ebc85	-0.062191505
192	0x3d462c9d	0.04838239
193	0x3cac148c	0.021005891
194	0xbe0b0111	-0.13574626
195	0xbd9733ec	-0.0738295
196	0x3ce82f76	0.028342944
197	0x3d79ff8d	0.061034728
198	0x3d727a8e	0.05919891
199	0xbdf2e4a9	-0.1186002
200	0x3e10ffd4	0.1416009
201	0xbdd4b0f0	-0.10385311
202	0x3d4f31fe	0.050584786
203	0xbc426e9b	-0.011867191
204	0x3cad6e64	0.021170802
205	0xbd81bf68	-0.06335336
206	0xbd4d80bc	-0.0501716
207	0xbd701390	-0.058612406
208	0x3ddad9e0	0.106860876
209	0xbcc1484f	-0.02359405
210	0xbcfb697f	-0.030689953
211	0x3e19dc9d	0.15025564
212	0xbd2138f1	-0.039360944
213	0xbddb6b85	-0.10713867
214	0xbd159a82	-0.036524303
215	0xbb4219d0	-0.0029617436
216	0x3d17697b	0.03696583
217	0xbc1a90df	-0.009433954
218	0xbd48c205	-0.049013156
219	0x3de0b73f	0.109724514
220	0xbe0166a6	-0.12636814
221	0xbc86757f	-0.016413448
222	0xbd52a7a3	-0.051429402
223	0xbdfa5c1f	-0.12224602
224	0x3e00cb0d	0.12577458
225	0x3db40aa6	0.087910935
226	0x3e2598a3	0.16171508
227	0xbe200377	-0.15626322
228	0x3de7e76c	0.11323437
229	0xbc3d8bdd	-0.011568991
230	0xbde076c4	-0.10960153
231	0x3d843c22	0.06456782
232	0x3e1cf393	0.15327291
233	0xbdeb6de9	-0.11495573
234	0xbc1f3fb9	-0.0097197825
235	0x3d703c83	0.05865146
236	0x3cb77b85	0.022397766
237	0x3d92aa02	0.07161333
238	0x3b1bbb5d	0.00237628
239	0x3e221a56	0.15830359
240	0x3d32ab2d	0.043620277
241	0x3e118ce7	0.14213906
242	0xbde45b15	-0.11150185
243	0x3d090e87	0.03346112
244	0x3d0fdbbd	0.035121668
245	0x3dbc7eec	0.09203896
246	0xbd5e1902	-0.054223068
247	0x3d265dcf	0.040616807
248	0x3df27a05	0.1183968
249	0x3df2e841	0.11860705
250	0xbd4eb143	-0.05046202
251	0xbdbba7fd	-0.091629006
252	0xbe05866e	-0.13039562
253	0xbdf836d9	-0.12119836
254	0xbda78f56	-0.08181636
255	0xbe26e4e8	-0.16298258

fc.3.bias f4 [64]
0	0x3d890c02	0.066917434
1	0xbd1d68b1	-0.03842992
2	0x3d48d9f9	0.049036
3	0x3d22be29	0.039732132
4	0xbc8a65bc	-0.016894214
5	0xbdb3ff9d	-0.08788989
6	0x3e0cdc7f	0.13755988
7	0x3e0756bb	0.13216679
8	0xbce8b88f	-0.028408317
9	0xbd1e8f7c	-0.038711056
10	0x3d56bd58	0.052426666
11	0x3d061460	0.032734275
12	0xbd0f143b	-0.034931403
13	0x3d3128a0	0.043251634
14	0x3c6fdd08	0.0146401
15	0x3dd9c67d	0.10633562
16	0x3da6258c	0.0811263
17	0x3de98ccf	0.1140381
18	0x3dba3c44	0.09093526
19	0x3c7b3152	0.015331583
20	0x3db1d19b	0.08682557
21	0xbc50e506	-0.012749916
22	0x3e048b95	0.12943871
23	0x3d20b498	0.039234728
24	0x3e1c99ea	0.15293089
25	0x3d86a21c	0.06573889
26	0x3d12dddf	0.035856124
27	0x3ce8d258	0.028420612
28	0xbcd8f765	-0.026485154
29	0xbd31db52	-0.04342205
30	0xbd281a93	-0.04104097
31	0xbd252c83	-0.040325653
32	0x3e15086e	0.14553997
33	0xbd13ee12	-0.036115713
34	0xbd49b654	-0.049246147
35	0x3b1f17d5	0.002427568
36	0x3dbd9913	0.09257712
37	0xbbf9e858	-0.0076265745
38	0x3b19d395	0.002347206
39	0xbda65302	-0.08121301
40	0xbd2ee265	-0.042696375
41	0x3d7e900f	0.062149104
42	0x3d6fe4ba	0.05856774
43	0x3d228b23	0.039683472
44	0xbd092971	-0.033486787
45	0x3d3a7c9f	0.045529004
46	0xbd7e4a60	-0.06208265
47	0x3dbf1eff	0.09332084
48	0xbc3cf60a	-0.01153327
49	0xbd2f3740	-0.0427773
50	0x3a88abd3	0.0010427184
51	0x3ddd96fb	0.10819813
52	0xbca75f76	-0.020431262
53	0xbd7b364f	-0.06133109
54	0x3d93f91e	0.0722525
55	0x3d829fa0	0.06378102
56	0xbd99c7e7	-0.075088315
57	0x3db5eebf	0.08883428
58	0xbd5c71a3	-0.05381931
59	0xbd81b78e	-0.063338384
60	0x3cea93c4	0.028634913
61	0xbd3c7603	-0.046010982
62	0x3d868859	0.06568975
63	0xbcbdecca	-0.023184199

placing_layer.0.weight f4 [5, 64]
0	0x3e01191f	0.12607239
1	0xbdb37294	-0.087620884
2	0x3e1aa5bf	0.1510229
3	0xbddf4267	-0.10901337
4	0x3d4ab396	0.049487673
5	0x3de6dcc9	0.1127258
6	0x3d2c5ba3	0.04207958
7	0x3ca70369	0.020387368
8	0x3cee27bf	0.029071687
9	0x3d4968a6	0.049172066
10	0x3dd7ddad	0.10540328
11	0xbd7354d4	-0.05940707
12	0xbd4a76b9	-0.04942963
13	0xbd854925	-0.06508092
14	0xbdaaa43b	-0.08332106
15	0x3cdceadf	0.026967464
16	0xbcc21fe3	-0.023696845
17	0xbdab611d	-0.08368132
18	0xbd44423d	-0.047914732
19	0xbceb0338	-0.028688058
20	0x3d95cf8a	0.073149756
21	0x3a341577	0.00068696536
22	0xbd13aefb	-0.036055546
23	0x3d785f6e	0.060637884
24	0xbdae190d	-0.08500872
25	0x3d762514	0.060093954
26	0xbcf35bb2	-0.02970681
27	0x3d9b7057	0.075897865
28	0x3d930311	0.07178319
29	0x3c57c36e	0.013169153
30	0xbd73b7d5	-0.059501488
31	0x3dcdcb8d	0.1004859
32	0x3d2c3bef	0.042049345
33	0x3c896d5d	0.016775781
34	0x3d9b9020	0.07595849
35	0x3d2d3086	0.042282604
36	0x3c233a7d	0.009962675
37	0x3e1a27a4	0.15054184
38	0xbdae891a	-0.08522244
39	0x3d5fc302	0.054629333
40	0x3cc36a11	0.023854287
41	0x3e1adf9f	0.15124367
42	0x3ce3f9a0	0.027828991
43	0xbd4b12c6	-0.04957845
44	0x3d9231bc	0.07138392
45	0xbdf3384a	-0.11875971
46	0xbdd89310	-0.10574925
47	0x3c016f58	0.007900082
48	0xbd601a0e	-0.054712348
49	0x3d54f5c1	0.05199218
50	0xbd0fdac3	-0.035120737
51	0xbdc424bc	-0.09577319
52	0x3e12740f	0.14302085
53	0x3cffa675	0.031207303
54	0x3dc5f921	0.09666658
55	0xbddd10a0	-0.107941866
56	0x3b580785	0.0032963466
57	0x3ce239ac	0.02761539
58	0x3de7c592	0.113169804
59	0x3db0ff1f	0.086424105
60	0x3e100b33	0.14066772
61	0x3dc70035	0.09716836
62	0xbd4e32fd	-0.050341595
63	0x3d0910d1	0.033463303
64	0xbd64929d	-0.055803884
65	0x3ca8ac99	0.020590113
66	0x3e1a310a	0.1505777
67	0xbd9e8090	-0.07739365
68	0xbc36d8be	-0.011160074
69	0x3df03930	0.11729658
70	0x3c14b93c	0.009077366
71	0xbdce9d9c	-0.10088655
72	0xbd51a673	-0.05118413
73	0xbd2cfaa6	-0.042231224
74	0xbdbb4d46	-0.09145598
75	0x3c8f4349	0.017488139
76	0x3b0f0556	0.0021823249
77	0xbdb6cea4	-0.08926132
78	0xbda9f55c	-0.08298752
79	0x3d65d69f	0.05611288
80	0x3c221080	0.009891629
81	0xbd9046d1	-0.07044757
82	0x3e133f18	0.14379537
83	0x3dc2abd9	0.095054336
84	0xbc475e3f	-0.012168466
85	0x3d5ec5b3	0.05438776
86	0x3df31c29	0.118706055
87	0x3e17ad4b	0.148122
88	0x3dcf6e20	0.101284266
89	0x3dfc377a	0.12315269
90	0x3dd657bd	0.104659535
91	0x3da16679	0.07880873
92	0x3e0625dc	0.1310038
93	0x3db774fa	0.089578584
94	0x3da008ba	0.078141645
95	0xbda3000c	-0.07958993
96	0x3e0b5b3b	0.1360902
97	0xbdbb1882	-0.09135534
98	0xbd7f086f	-0.062263902
99	0x3c7a8b1b	0.015291954
100	0x3cb91883	0.022594696
101	0x3c60ebf2	0.013728129
102	0x3d089794	0.03334768
103	0xbcaab1d1	-0.020836743
104	0x3cb1af24	0.021689959
105	0x3e12b0c0	0.14325237
106	0xbd499c97	-0.0492216
107	0x3df01592	0.11722864
108	0x3dcac802	0.0990143
109	0xbd37f618	-0.044912428
110	0xbc6f46fa	-0.0146043245
111	0xbbd038e6	-0.006354439
112	0x3bf0145d	0.0073266462
113	0xbd3df580	-0.046376705
114	0xbcbd2612	-0.023089442
115	0x3ddd8919	0.10817165
116	0xbd1642ae	-0.036684684
117	0x3e1b7358	0.15180719
118	0x3dac8ac1	0.08424903
119	0xbc81ddb7	-0.015852792
120	0xbda98950	-0.082781434
121	0x3d7c2580	0.0615592
122	0xbaa582e7	-0.0012627513
123	0xbd0dc8f9	-0.03461549
124	0xbc7e0948	-0.0155051425
125	0x3dc331c3	0.09530976
126	0x3e241922	0.16025212
127	0x3d2d2919	0.042275522
128	0x3e0d1452	0.13777283
129	0x3ca1ac18	0.019735381
130	0xbd9adb51	-0.075613625
131	0x3c148a2d	0.009066147
132	0x3e2636bb	0.16231816
133	0xbd8aceb7	-0.06777709
134	0x3d661ba8	0.05617872
135	0xbd6ebcd6	-0.058285557
136	0xbd9395d2	-0.0720631
137	0x3d6ec133	0.058289718
138	0x3ddf5b10	0.10906041
139	0x3e0983f0	0.13429236
140	0xbd0437be	-0.032279722
141	0xbc06967b	-0.008214588
142	0xbd8d1d9b	-0.068904124
143	0x3d366fac	0.044540092
144	0x3dd8f1e5	0.10593013
145	0x3d4c0e3a	0.049818255
146	0x3df5379b	0.119734965
147	0x3e0f5ef7	0.1400107
148	0x3c8b729f	0.017022429
149	0xbc1f5087	-0.009723789
150	0x3e0f93e6	0.14021263
151	0x3d77eae0	0.06052673
152	0xbc12f1bf	-0.00896877
153	0xbc3c0aba	-0.011477167
154	0x3dfe02e9	0.12402899
155	0xbb1cfb32	-0.0023953435
156	0xbd720313	-0.059084963
157	0x3e292922	0.16519597
158	0x3db04989	0.08607776
159	0xbd3e95f1	-0.046529714
160	0x3d219173	0.03944535
161	0xbbf255f1	-0.007395499
162	0x3dd775d8	0.10520524
163	0xbd4a34e4	-0.049366847
164	0x3db20c3b	0.08693739
165	0xbdab27bc	-0.08357188
166	0x3d015196	0.031571947
167	0x3d3e289f	0.046425458
168	0xbd35d088	-0.044388324
169	0x3dcdbc87	0.10045724
170	0xbdaefd2e	-0.08544384
171	0xbda391e0	-0.07986808
172	0x3dc9e1f7	0.098575525
173	0xbc825a98	-0.01591234
174	0x3df91716	0.121626064
175	0xbd83143d	-0.064003445
176	0x3dc911d2	0.09817852
177	0x3d4ed811	0.050499026
178	0x3db7d466	0.08976059
179	0xbd0900b8	-0.03344795
180	0x3e11b359	0.14228572
181	0x3e0a438c	0.1350233
182	0x3dcbade2	0.09945275
183	0x3db5a4a3	0.088692926
184	0xbdc1653e	-0.094431385
185	0x3d94434f	0.072394006
186	0xbd7c4e32	-0.06159801
187	0x3d704f50	0.05866939
188	0xbc7275c1	-0.0147985825
189	0x3dbb9602	0.09159471
190	0xbc45b3ea	-0.012066821
191	0x3d569be8	0.052394778
192	0x3e262f73	0.16229038
193	0x3dcd8897	0.10035818
194	0x3db6da21	0.089283235
195	0x3d9836d3	0.07432332
196	0xbd624b2c	-0.05524747
197	0x3cbd2147	0.023087157
198	0x3d596500	0.053074837
199	0x3ccde71a	0.025134612
200	0x3dc0ef32	0.09420623
201	0x3dd6bcd8	0.10485238
202	0x3ba3d999	0.005000305
203	0x3de8fef4	0.113767534
204	0x3d04f4db	0.032460075
205	0xbd201aac	-0.039087936
206	0x3dd1d6d5	0.10246054
207	0xbd10ca0e	-0.035348944
208	0x3d936f6c	0.071989864
209	0x3d77fb28	0.060542256
210	0x3dd5d0b9	0.10440201
211	0x3c28af56	0.01029571
212	0x3db6b2e7	0.08920842
213	0xbd9efbc3	-0.077628635
214	0xbd42ed2e	-0.047589473
215	0xbd584a7f	-0.05280542
216	0xbc5a7b24	-0.013335023
217	0xbc14dcd8	-0.009085856
218	0x3d15f3e3	0.03660954
219	0x3db2c9ae	0.087298736
220	0x3e1f2c82	0.15544322
221	0x3c0951c4	0.008381311
222	0x3d219650	0.03944999
223	0x3e0d4e03	0.1379929
224	0x3e0bcfaa	0.13653436
225	0x3d493262	0.049120314
226	0x3c91386d	0.017727101
227	0x3deed03d	0.11660812
228	0x3bf1fb3e	0.0073846867
229	0xbd9e1ba0	-0.07720113
230	0xbce43f77	-0.027862294
231	0x3d93fa5a	0.07225485
232	0x3e1b50b1	0.151675
233	0x3dbb0eed	0.09133706
234	0x3cab451b	0.020906975
235	0x3de6cdfd	0.11269758
236	0x3d80f7f6	0.06297295
237	0xbd852310	-0.06500828
238	0x3d56cae2	0.052439578
239	0xbd0b67a2	-0.03403438
240	0x3e0dee9f	0.13860558
241	0x3e08ec65	0.13371427
242	0xbc8cb125	-0.017174313
243	0x3da98ab2	0.08278407
244	0x3da2ef72	0.07955827
245	0x3c5f8b15	0.013644
246	0x3d0a030e	0.03369432
247	0x3d240fc7	0.04005411
248	0x3dd4b69e	0.10386394
249	0x3e1d9e6f	0.15392469
250	0xbd912bef	-0.07088458
251	0x3e1a480a	0.15066543
252	0xbca31bb1	-0.019910665
253	0x3d065f81	0.032805923
254	0x3caa0dc8	0.020758525
255	0x3d0d345e	0.03447377

placing_layer.0.bias f4 [5]
0	0xbcadc147	-0.021210326
1	0x3cec2b54	0.028829254
2	0x3ac4dede	0.0015020033
3	0xbcf89307	-0.030343546
4	0x3cc24a89	0.023717182

placing_layer.1.weight f4 [5, 64]
0	0x3db4035e	0.08789705
1	0x3d33a7fd	0.043861378
2	0xbbb22480	-0.00543648
3	0x3b0764f6	0.0020659543
4	0xbdf0ff4c	-0.11767444
5	0xbdb6427d	-0.088994004
6	0x3de43be2	0.11144234
7	0xbc051f1f	-0.008125096
8	0xbdb763c3	-0.08954575
9	0xbd75f63c	-0.06004928
10	0xbd8bf8d7	-0.06834572
11	0xbcfc1078	-0.030769572
12	0xbd93bba0	-0.07213521
13	0x3db9587a	0.09050079
14	0xbe000b64	-0.12504345
15	0x3d66cf01	0.056349758
16	0xbca09b94	-0.019605435
17	0xbdf16b2e	-0.11788021
18	0x3d9b1ea9	0.07574207
19	0x3d0ee002	0.0348816
20	0xbde0cb44	-0.1097627
21	0x3c9a50a7	0.018837286
22	0xbdf406b3	-0.1191534
23	0x3da163b0	0.07880342
24	0x3d485b1a	0.048915006
25	0xbc62e916	-0.013849517
26	0x3d9a7118	0.07541102
27	0x3da1dced	0.079034664
28	0x3c644341	0.01393205
29	0xbd5b1c7c	-0.05349396
30	0x3dbfd118	0.09366053
31	0xbdff51aa	-0.12466748
32	0xbdb8c0f0	-0.09021175
33	0xbd754366	-0.05987873
34	0xbd590cc4	-0.05299069
35	0x3da0c4fc	0.07850072
36	0xbdfbf02d	-0.12301669
37	0xbdd777e4	-0.10520914
38	0xbdbffbf6	-0.093742296
39	0x3d5c6334	0.053805545
40	0x3c9baf00	0.019004345
41	0xbd8af4c7	-0.06784969
42	0xbd1cf8e4	-0.038323298
43	0xbd98e7d0	-0.0746609
44	0xbde1cac2	-0.11025001
45	0xbd9746a8	-0.073865235
46	0xbd688e9c	-0.056776628
47	0xbdbc1da7	-0.09185343
48	0x3dcb78b4	0.09935132
49	0xbd904ad8	-0.07045525
50	0xbd762114	-0.06009014
51	0xbdaa6b9c	-0.08321306
52	0x3d519beb	0.051174086
53	0xbdb0161a	-0.085979655
54	0xbcaec8fc	-0.021336071
55	0x3d837fd3	0.06420865
56	0xbc29f173	-0.010372507
57	0xbd08180d	-0.03322606
58	0xbd8371f7	-0.064182214
59	0xbd3bdc60	-0.045864463
60	0x3dc21602	0.09476854
61	0xbd221a50	-0.039575875
62	0x3d858c82	0.0652094
63	0xbdc2fa77	-0.09520429
64	0x3e10fd1d	0.14159055
65	0x3e1f52ac	0.1555888
66	0x3dbe61a4	0.09295967
67	0x3d4f7fdf	0.050659057
68	0x3db9c18b	0.090701185
69	0x3ca91f34	0.020644762
70	0x3e1f0568	0.15529406
71	0xbd9a9528	-0.075479805
72	0x3dd07f25	0.10180501
73	0xbd95915b	-0.07303115
74	0x3d637642	0.0555327
75	0xbcfe6799	-0.031055259
76	0x3d00c884	0.031441227
77	0xbd2003b6	-0.03906604
78	0xbd229c39	-0.039699767
79	0xbd006c42	-0.031353243
80	0xbd9b4997	-0.075823955
81	0xbdacabb8	-0.0843119
82	0xbd55c242	-0.05218721
83	0x3d9df02c	0.07711825
84	0x3d927249	0.071507044
85	0x3dcd1d1a	0.10015316
86	0x3d8eab0d	0.06966219
87	0xbda5260f	-0.080639
88	0xbdb01c2a	-0.08599122
89	0x3c1449e0	0.009050816
90	0xbd9761e3	-0.07391717
91	0x3adc30e6	0.0016799241
92	0xbd8a8b70	-0.06764877
93	0xbd180415	-0.037113268
94	0x3cf6ae42	0.03011239
95	0xbd806d39	-0.062708326
96	0x3dee9d87	0.1165114
97	0x3e1821e9	0.14856686
98	0x3da1b917	0.07896631
99	0x3c95a033	0.018264866
100	0xbd7ad3af	-0.061237033
101	0x3d7d0a8c	0.061777636
102	0xbc81dcdc	-0.015852384
103	0xbcb813e7	-0.022470428
104	0x3d876ac7	0.06612163
105	0xbd1ecf25	-0.038771767
106	0x3e200943	0.15628533
107	0x3e25e27e	0.16199681
108	0x3e21c6e7	0.15798531
109	0xbc617db0	-0.013762876
110	0x3e1c6ff3	0.1527708
111	0x3e158381	0.14600946
112	0x3e0df23f	0.13861941
113	0x3d6dfba3	0.058101308
114	0x3dd0612b	0.10174783
115	0xbd405fd8	-0.046966404
116	0xbcf331c0	-0.029686809
117	0x3dfc9e38	0.12334865
118	0x3d45992d	0.048241783
119	0xbd4013a1	-0.04689372
120	0xbcc1d8fa	-0.023663033
121	0x3de1dc4f	0.11028349
122	0xbd89cf07	-0.067289405
123	0x3e027c51	0.12742735
124	0x3e0712fc	0.13190836
125	0x3e06994f	0.1314442
126	0x3cb468e9	0.022022681
127	0x3d43b5c5	0.04778077
128	0x3cc8513e	0.024452802
129	0x3d0ab9f5	0.03386875
130	0x3dd0d022	0.10195948
131	0x3d0449c3	0.032296907
132	0x3de8238c	0.11334905
133	0x3debf09a	0.115205005
134	0x3d8ac891	0.06776536
135	0xbd68c712	-0.056830473
136	0x3c60eb1b	0.0137279285
137	0x3cd9c372	0.026582453
138	0x3dd7adf3	0.10531225
139	0x3dbb4f21	0.09145952
140	0xbd3df103	-0.046372425
141	0x3de6236f	0.11237227
142	0xbdc204d1	-0.09473575
143	0x3d2ec8cc	0.042671964
144	0x3da80e81	0.082058914
145	0x3b08dbe6	0.0020883023
146	0x3cf48672	0.029849265
147	0xb90b8c44	-0.00013308326
148	0xbd04502d	-0.032303024
149	0xbd79299b	-0.060830694
150	0xbd689034	-0.056778148
151	0x3dc31898	0.09526175
152	0xbb7b5fa0	-0.0038356557
153	0xbd8f7d7e	-0.070063576
154	0x3e0f6057	0.14001594
155	0x3d8f421a	0.0699503
156	0x3d420f7d	0.047378052
157	0x3c29f5b8	0.010373525
158	0x3dee2f2f	0.11630093
159	0x3e265653	0.16243868
160	0x3dfa2bca	0.12215383
161	0x3dd983d9	0.10620851
162	0xbd61a3de	-0.055087917
163	0xbdba1fe7	-0.09088116
164	0xbce6a61b	-0.028155377
165	0x39d556ce	0.000406912
166	0x3cf9baa4	0.030484505
167	0x3e06beba	0.13158694
168	0xbdabbc5b	-0.08385535
169	0xbc162d4e	-0.009166075
170	0xbdc9cb67	-0.09853249
171	0xbd9031bc	-0.07040736
172	0x3ddd2b44	0.10799268
173	0xbd215bea	-0.039394297
174	0xbd5bc134	-0.05365105
175	0x3c990b63	0.018682187
176	0xbda76150	-0.08172858
177	0xbadbca47	-0.0016768657
178	0x3d42566e	0.047445707
179	0x3e212170	0.15735412
180	0xbda8ffbb	-0.08251902
181	0x3aaa65c7	0.0013000303
182	0x3d0ea80d	0.034828234
183	0xbd26ff4e	-0.04077082
184	0x3df1c42c	0.11804995
185	0xbd91e086	-0.071229026
186	0x3e1ba752	0.15200546
187	0x3d9f56fc	0.07780263
188	0xbd7e27ba	-0.062049605
189	0x3db88259	0.09009237
190	0xbda1ec3e	-0.07906388
191	0x3df9c794	0.1219627
192	0xbd7e5060	-0.06208837
193	0x3d58d7ec	0.052940294
194	0xbdcae206	-0.09906392
195	0x3da690a4	0.08133057
196	0xbdf42bfb	-0.11922451
197	0x3d4c5ad0	0.049891293
198	0x3b450461	0.0030062424
199	0xbd94c086	-0.072632834
200	0x3d313bd8	0.043269962
201	0x3db50378	0.08838552
202	0x3dc32df2	0.09530248
203	0xbcee54e0	-0.029093206
204	0xbd65dbdc	-0.056117877
205	0x3db609b6	0.08888571
206	0xbdec7ad8	-0.11546868
207	0xbd6fe1d5	-0.05856498
208	0xbd68c5a1	-0.0568291
209	0x3d66224c	0.05618505
210	0xbbc5167b	-0.006014643
211	0xbcce9c50	-0.02522102
212	0xb9f16b68	-0.00046047126
213	0x3df810df	0.12112593
214	0xbdd3e64c	-0.1034666
215	0xbd77a2f0	-0.060458124
216	0x3c359e0d	0.0110850455
217	0xbc789c70	-0.015174016
218	0xbdb48e14	-0.08816162
219	0x3d7057cd	0.058677483
220	0x3da0f42c	0.07859072
221	0xbd500b26	-0.050791882
222	0x3dd45642	0.10368015
223	0xbdf8c388	-0.121466696
224	0xbaea494e	-0.001787463
225	0xbc65b573	-0.014020312
226	0xbd2c100e	-0.0420075
227	0x3d4b59e4	0.049646273
228	0xbde67352	-0.11252464
229	0xbd8851ea	-0.06656249
230	0x3d12b56c	0.03581755
231	0xbd956eaa	-0.07296498
232	0x3d857d52	0.065180436
233	0xbdf68145	-0.12036375
234	0x3d8566fe	0.06513785
235	0x3d3ed8f4	0.04659362
236	0x3d8f3783	0.0699301
237	0xbd977cd9	-0.0739686
238	0xbdf31160	-0.118685484
239	0x3db49228	0.088169396
240	0xbddb3920	-0.10704255
241	0xbd16abf8	-0.036785096
242	0xbd47ac61	-0.048748378
243	0xbddcbe0e	-0.107784376
244	0x3db14a2e	0.08656727
245	0xbdfbfb6a	-0.12303813
246	0x3d685f14	0.0567313
247	0xbca2d92a	-0.019878943
248	0x3d843744	0.064558536
249	0xbdf73eea	-0.12072547
250	0xbd9b4600	-0.07581711
251	0xbdb40c9d	-0.08791468
252	0xbd335eb4	-0.043791488
253	0xbd5e67e4	-0.054298297
254	0x3dc9d601	0.09855271
255	0x3d8a2f03	0.06747248

placing_layer.1.bias f4 [5]
0	0xbc0bc493	-0.008530754
1	0x3d1714d0	0.036885083
2	0x3dd6031c	0.10449812
3	0xbde8528f	-0.11343872
4	0xbe04cfe0	-0.12969923

placing_layer.2.weight f4 [5, 64]
0	0x3e00684e	0.12539789
1	0x3dba2883	0.09089758
2	0xbd1698a7	-0.036766674
3	0xbc21a300	-0.009865522
4	0x3d8dc087	0.06921487
5	0xbcf4dc78	-0.029890284
6	0x3df87bd6	0.12132995
7	0x3d4fd88c	0.050743625
8	0x3da89a84	0.082325965
9	0x3de38818	0.11109942
10	0x3cb9ab29	0.022664623
11	0x3e21cde2	0.15801194
12	0xbb63b679	-0.0034746213
13	0xbd94afaf	-0.072600715
14	0x3e129f61	0.1431861
15	0xbc044bc2	-0.008074703
16	0x3c7de157	0.01549562
17	0x3e14c512	0.14528301
18	0x3c5bff79	0.013427609
19	0xbdb0997a	-0.08623023
20	0xbcb0a5f2	-0.021563504
21	0x3d9d46e5	0.07679538
22	0xbca23a73	-0.019803261
23	0x3d7f997c	0.062402233
24	0xbcd0907b	-0.025459519
25	0xbd8cd3b5	-0.068763174
26	0xbcf0a700	-0.029376507
27	0xbd4bc164	-0.04974498
28	0xbd0951a2	-0.033525117
29	0xba1ac531	-0.00059040176
30	0x3d9e7ece	0.0773903
31	0x3d71cb09	0.05903152
32	0xbd29f386	-0.041492008
33	0x3d9fb5d7	0.07798355
34	0xbc86fb8f	-0.016477374
35	0xbd94f306	-0.072729155
36	0xbd394579	-0.04523227
37	0xbda9166e	-0.08256231
38	0x3db3da5b	0.087818824
39	0xbd82f118	-0.06393641
40	0xbd4bdfd5	-0.04977401
41	0x3d6cf36f	0.057849344
42	0xbd36a51e	-0.04459106
43	0xbd27d635	-0.040975768
44	0xbdb813d6	-0.089881584
45	0x3da7fdb3	0.08202686
46	0xbd179d4d	-0.037015248
47	0x3e076f67	0.1322609
48	0x3ca58e09	0.02020933
49	0x3da7dacf	0.08196031
50	0xbca88449	-0.020570891
51	0xbd7c3882	-0.061577328
52	0x3dc1c1fe	0.09460829
53	0xbc934743	-0.017978316
54	0x3e1356bc	0.14388555
55	0x3de77eb9	0.11303467
56	0x3d6292dc	0.055315837
57	0x3befc766	0.0073174713
58	0xbd33a27f	-0.04385614
59	0x3d301c74	0.042995885
60	0x3e0ad640	0.13558292
61	0xbd78d045	-0.060745496
62	0x3e0cd54b	0.1375324
63	0x3c8171c2	0.015801314
64	0x3e00b812	0.12570217
65	0x3d04c6dd	0.032416213
66	0x3c1ec8be	0.009691415
67	0x3c9a073e	0.018802281
68	0x3dfba18c	0.12286672
69	0x3e123119	0.14276542
70	0x3e1f8905	0.15579613
71	0xbd8e3d67	-0.06945305
72	0xbd956a5d	-0.07295678
73	0x3d42e619	0.04758272
74	0xbd6c2b8a	-0.05765871
75	0x3da28da5	0.07937173
76	0x3da59a10	0.08086026
77	0x3e0c30f0	0.13690543
78	0x3dbad70b	0.091230474
79	0x3dcd32ec	0.10019478
80	0xbd859234	-0.06522027
81	0x3e1afa8b	0.15134637
82	0x3d994cbf	0.07485341
83	0x3c032e83	0.008006695
84	0x3d9d4f3a	0.07681127
85	0x3dcb0175	0.09912387
86	0xbd0e5a53	-0.03475411
87	0x3da1becc	0.0789772
88	0xbc638316	-0.013886234
89	0xbc8e0e78	-0.017340884
90	0x3dee7cf0	0.11644924
91	0x3e086b6e	0.13322231
92	0x3d79cadf	0.06098449
93	0x3d6488e2	0.055794604
94	0x3d926268	0.07147676
95	0xbd06898a	-0.03284601
96	0x3db61d44	0.08892301
97	0x3d8b83bf	0.06812238
98	0x3d80c927	0.06288367
99	0x3e0056d3	0.12533121
100	0xbd9f8d0b	-0.07790574
101	0xbb8b3a9b	-0.0042489297
102	0x3db9aba1	0.09065939
103	0xbd0cd1f3	-0.03437991
104	0xbcbd9d54	-0.023146309
105	0xbd9cfe93	-0.07665744
106	0x3dcb7c04	0.099357635
107	0x3e01e4e0	0.12684965
108	0x3dbd152f	0.09232556
109	0x3de15168	0.11001855
110	0xbcb372e3	-0.021905368
111	0x3e0c783f	0.13717745
112	0xbd9dd4bf	-0.07706594
113	0x3ce62167	0.0280921
114	0x3dad778d	0.08470068
115	0x3e1f8f5c	0.15582031
116	0x3db30c15	0.08742539
117	0x3dbf3c4a	0.09337671
118	0x3dd5cbd3	0.10439267
119	0xbd8b1eb6	-0.06792967
120	0xbd3085e5	-0.04309644
121	0x3de28d6a	0.11062129
122	0x3e20db5d	0.1570868
123	0xbbf99ab1	-0.0076173176
124	0x3e16237e	0.14661977
125	0x3e1753c0	0.14778042
126	0x3dd4c8e0	0.10389876
127	0xbd1a0dd6	-0.03761085
128	0x3e0c17bd	0.1368093
129	0x3d3c891e	0.046029203
130	0xbbdadf04	-0.0066794176
131	0xbd4e1abd	-0.05031847
132	0x3d9ba418	0.07599658
133	0x3e1c1f2f	0.1524627
134	0xbccd6383	-0.025071865
135	0xbcbe1675	-0.023204068
136	0x3df7e753	0.121046685
137	0x3e11c631	0.1423576
138	0xbc86f267	-0.016473008
139	0x3d500f44	0.05079581
140	0xbd9e1b2c	-0.077200264
141	0x3c89d35a	0.016824413
142	0x3e222c06	0.15837106
143	0x3d90a5eb	0.07062896
144	0x3df1ffe6	0.11816387
145	0x3dda637a	0.10663505
146	0x3d294fb8	0.04133579
147	0x3db2e959	0.08735914
148	0x3db93601	0.090435036
149	0xbda06d94	-0.078334
150	0x3db846f3	0.089979075
151	0x3e0d5367	0.13801347
152	0x3c1ce323	0.009575638
153	0x3dc3f82d	0.0956882
154	0xbd4383a7	-0.047732975
155	0x3da014f1	0.07816494
156	0xbd87f788	-0.0663901
157	0xbd67fb43	-0.056636106
158	0x3d564559	0.05231223
159	0x3df35354	0.11881128
160	0x3d972d0e	0.073816404
161	0xbd6a292d	-0.057168175
162	0xbda45427	-0.08023863
163	0x3debbeef	0.11511027
164	0x3da46f46	0.08029036
165	0x3d4b091d	0.049569238
166	0xbd9fbe40	-0.07799959
167	0x3d91159d	0.070842005
168	0x3df08df7	0.11745828
169	0x3df0a1f0	0.11749637
170	0x3d873d84	0.0660353
171	0xbd66692f	-0.056252655
172	0x3e007b77	0.12547098
173	0x3e06e7f8	0.13174427
174	0xbbde95e8	-0.0067927726
175	0x3d924fb7	0.07144111
176	0xbd92d815	-0.071701206
177	0x3e110bf5	0.14164717
178	0x3dc4fc3e	0.09618424
179	0xbd20423d	-0.03912567
180	0x3d171802	0.03688813
181	0x3e0d9a7e	0.13828465
182	0x3d9933ff	0.074806206
183	0x3d9da498	0.076974094
184	0x3da57af8	0.08080095
185	0x3dc2986c	0.095017284
186	0xbd418339	-0.047244284
187	0x3d6b0935	0.057381827
188	0xbd72799a	-0.059198
189	0x3c9021bf	0.017594216
190	0xbd5b4b4e	-0.053538613
191	0xbc75fbd1	-0.015013651
192	0x3e16e6a5	0.14736421
193	0x3d7e1db3	0.062040042
194	0x3e09f23d	0.13471313
195	0x3e1af17b	0.1513118
196	0x3dd51621	0.104046114
197	0x3e12efe6	0.14349326
198	0x3c84f23a	0.016228784
199	0xbd60bed9	-0.054869507
200	0x3d4fd4a9	0.050739918
201	0xbcc6366f	-0.024195878
202	0x3d9d8a30	0.07692373
203	0x3d984ea8	0.074368775
204	0xbbe24884	-0.006905617
205	0x3d806bf7	0.06270593
206	0x3dec387d	0.11534212
207	0x3c2413f6	0.010014525
208	0x3de794c8	0.11307675
209	0x3b84754f	0.0040423046
210	0x3dc8c4ee	0.09803186
211	0x3dcf0f37	0.10110324
212	0xbdb7ae35	-0.08968774
213	0xbd2780dd	-0.040894378
214	0xbd8b5771	-0.068037875
215	0x3dae87c1	0.08521987
216	0x3e0a9939	0.13535012
217	0xb9acb1ea	-0.00032938953
218	0xbda74419	-0.081672855
219	0x3e1d57d6	0.15365538
220	0x3bfc9537	0.0077082175
221	0x3cd63a67	0.026150895
222	0x3daea582	0.08527662
223	0x3d96a7b1	0.07356203
224	0x3db50a5e	0.08839868
225	0xbd9c4199	-0.07629699
226	0x3de0ccbf	0.10976552
227	0xbdaea98b	-0.085284315
228	0x3d48daa8	0.04903665
229	0x3dca6233	0.09882011
230	0x3b8cc7f3	0.0042962967
231	0x3ddd8c93	0.10817828
232	0x3c823ba5	0.015897581
233	0x3d9e8a4c	0.07741222
234	0x3d178dbe	0.03700041
235	0x3e1366ff	0.14394759
236	0xbd928e93	-0.071561
237	0x3e052b35	0.13004763
238	0xbd0616c8	-0.03273657
239	0xbb64d84a	-0.0034918957
240	0x3d9c5765	0.07633857
241	0x3c8d28a1	0.017231287
242	0x3d20e1b3	0.039277744
243	0xbce687ed	-0.028140986
244	0x3d1ba1ff	0.03799629
245	0xbdac0b5e	-0.084006056
246	0x3d67f20e	0.056627326
247	0xbd87c57b	-0.06629463
248	0xbba4f2f0	-0.005033843
249	0x3e0bef52	0.13665512
250	0xbd42b10c	-0.047532126
251	0x3e0a3f58	0.13500726
252	0x3e224fa5	0.15850694
253	0x3e226f5a	0.1586279
254	0x3e206f07	0.15667354
255	0xbd096eb9	-0.03355286

placing_layer.2.bias f4 [5]
0	0xbdb33ef1	-0.087522395
1	0xbd143abb	-0.036188822
2	0x3db95138	0.09048694
3	0xbd221cc8	-0.03957823
4	0x3d8dc6f7	0.06922715
