extra_baseline/log_res/ablation/3exp2_actor/experiment_epochs_env-20250220-194845/best_actor.pth (torch, 275435 bytes, 108 tensors)

fc.0.weight f4 [64, 620]
000000 d5 bc e7 3a d1 ec e7 3c 6b d0 cd bc 6f e6 b4 bc
       0.0017680178 0.028311165 -0.025123795 -0.022082536
000010 27 fb 29 bc 80 97 50 3c b5 a0 a6 3b d1 03 2c 3d
       -0.010374821 0.012731433 0.0050850757 0.041995827
000020 8f 2f 96 3b 26 d2 97 3c 58 78 24 bc 8a 3d af 3a
       0.004583306 0.018532824 -0.010038458 0.001336978
000030 96 99 02 bd a7 62 89 bc 8d 20 11 bc 81 27 4f 3b
       -0.031884752 -0.016770674 -0.008857858 0.003160924
000040 99 a5 c3 3c 94 f8 f4 3c f0 9f ad bc 49 c2 2f bc
       0.023882674 0.029903688 -0.021194428 -0.010727474
000050 df 46 84 3c 36 ae 25 3d f2 ee dc ba bf 8a 22 3d
       0.016147075 0.040449344 -0.0016855879 0.0396831
000060 66 aa e1 3b 4c 26 e4 3b 8e cb 3e 3d 3e b8 f8 bc
       0.006886768 0.006962573 0.046580844 -0.030361291
000070 12 4a 95 bc 67 19 62 bb 0b 12 61 bc 5c 6e 26 3d
       -0.018223796 -0.0034500004 -0.013737212 0.04063259
000080 b4 80 70 bc ca 32 19 bc e6 32 ae bc 50 f0 12 bd
       -0.014679123 -0.009350488 -0.021264505 -0.03587371
000090 3f eb 55 bc 32 ec 24 3d 53 3c d1 3c 3f 95 fc 3c
       -0.013056575 0.040264316 0.02554146 0.030832885
0000a0 09 5c 82 3b cf ee 39 bc b7 c7 54 3c 01 44 01 bd
       0.0039782566 -0.01134844 0.012987069 -0.031558994
0000b0 24 91 d7 bc f2 78 96 bc 59 72 13 3d 37 6a 0f 3d
       -0.026314326 -0.018368218 0.035997722 0.035013404
0000c0 8a 63 43 bc 07 1c 24 3c 94 5f e1 3c 58 ab 53 3d
       -0.011925587 0.010016448 0.027511396 0.051677078
0000d0 c9 b8 d0 3c 3c b2 7f 3c b9 a6 13 3d f7 e6 b5 bc
       0.025478737 0.015606459 0.03604767 -0.02220486
0000e0 9b 1e 69 3c d0 bd c8 bc b9 35 a5 bc 0f 30 61 bc
       0.014228488 -0.024504572 -0.020167219 -0.013744368
0000f0 8a 7c a8 3c 77 2b c8 3c 03 61 78 bc d2 cd ae 3c
       0.020567197 0.024434788 -0.015159848 0.021338377
000100 bf 8f fe 3c 38 8e 51 bb 07 7d 48 3c 14 38 90 3c
       0.031074403 -0.0031975638 0.01223684 0.017604865
000110 1c 89 0b 3d 47 3e 3a 3d 3c 05 ef bc 78 2d b0 bb
       0.034066305 0.04546955 -0.0291773 -0.005376514
000120 71 e0 a9 3c 46 a4 2c 3d 52 61 2b 3d 70 d4 1b 3d
       0.020736905 0.04214885 0.04184086 0.038044393
000130 49 8a 8e 3c 4a 96 e7 bc 7e 13 50 3c 41 57 86 bc
       0.017399924 -0.028269906 0.01269996 -0.016399028
000140 4f 77 0f bd f8 65 39 3d 16 6e 24 3d a9 50 03 bd
       -0.03502589 0.04526326 0.04014405 -0.032059345
000150 03 7e 85 3c 9c 0a 97 bb 51 1c 8d 3a 51 ff 61 bc
       0.016295439 -0.004609419 0.0010765885 -0.013793782
000160 c5 58 cc 3c 4d c6 58 bc 5f b5 87 3c 9d c7 ff 3c
       0.024944672 -0.013230872 0.016565977 0.031223113
000170 b1 bd 0f 3d c4 7b a6 3c 1e bb 11 bd 4e 49 c6 bc
       0.035093013 0.020322688 -0.03557884 -0.024204876
000180 38 6e b1 3c 4e ec 8d 3c f8 02 b9 bc 7c 1d 87 bc
       0.021659002 0.017324593 -0.022584423 -0.016493551
000190 99 3f 23 3d bc ce 10 3d 6e 90 43 bc 70 f1 93 bb
       0.039855573 0.035353407 -0.01193629 -0.0045148656
0001a0 5a 4d f8 bc bd 52 00 3b 1d e4 b7 bc 94 4d c7 bc
       -0.030310322 0.0019580566 -0.02244764 -0.024328984
0001b0 b3 88 9d 3b 60 23 6a 3c 82 9d 6b bc 2b 2d e4 3c
       0.0048075556 0.014290661 -0.0143808145 0.027853569
0001c0 88 43 5d bc 79 ef 3c 3d 60 1d 11 3d 93 da 04 bd
       -0.01350487 0.046126816 0.035428405 -0.03243501
0001d0 ad 64 93 bb 59 89 33 3c 34 c8 62 3c cc c9 a3 3c
       -0.0044980855 0.010958039 0.013841677 0.019993685
0001e0 a8 69 8c 3c 14 b1 66 3c 09 00 40 bc 4f 12 e0 3c
       0.017140225 0.014080305 -0.011718758 0.02735248
0001f0 ba cc f5 bc 03 0f b4 bc b6 84 88 3a 38 13 50 bc
       -0.030004848 -0.021979814 0.0010415528 -0.012699895
000200 07 b5 96 bb 10 a6 ce bc 3f 1d c7 bb 20 ef 85 3c
       -0.004599217 -0.02522567 -0.0060764845 0.016349375
000210 ea 3a 9e bc b0 c5 cf 39 42 04 09 3d ba 15 38 bb
       -0.019315202 0.00039629405 0.033451326 -0.0028089122
000220 27 4e 00 3c e0 e0 54 3a 9c 04 89 3c 4e d0 13 3d
       0.007831133 0.0008120667 0.01672583 0.036087327
000230 d6 40 25 3d c9 e1 06 3d 02 ce 34 3d 4b 86 c7 3a
       0.040345035 0.03293017 0.044141777 0.0015222518
000240 7b 83 00 bd 8a db 8c bc 56 78 07 3d 53 4a 13 3c
       -0.03137539 -0.017194528 0.033073746 0.008989888
000250 1e 63 94 bc 3a b6 c2 bc ab 88 12 bd 66 0f b6 bc
       -0.018113669 -0.023768533 -0.035774868 -0.02222414
000260 37 46 f7 3a 61 1f e3 3c d2 60 e5 3c a8 a5 18 bd
       0.001886553 0.027724924 0.02800027 -0.037267357
000270 ce 18 15 3d 35 2e c8 bc b4 26 ec ba 09 3d eb bb
       0.03640061 -0.024436096 -0.0018016906 -0.007178907
000280 32 c2 c4 bb bd 5e aa ba c2 f8 e7 bc 81 22 e4 bc
       -0.006004595 -0.0012998205 -0.02831686 -0.027848484
000290 a6 e7 db 3b b3 ce 31 3b 70 07 3f bc 3c bb ab 3c
       0.0067109643 0.002713126 -0.011659488 0.020963304
0002a0 73 cb f0 bc 41 ff be 3b 44 8b 16 3d 89 b1 ea bb
       -0.029393887 0.0058287685 0.036753908 -0.007162277
0002b0 3a a1 35 3d a1 ae 9e 3c 96 68 fa bc 75 90 df 3c
       0.04434321 0.019370379 -0.030567449 0.027290562
0002c0 9e 82 3a 3b 12 ab fb bb 65 bf 23 3d 73 09 c5 bc
       0.0028459202 -0.0076803053 0.03997745 -0.024052357
0002d0 3f b1 d5 3b 03 4f 6b 3b 01 a5 0e 3d 52 64 94 3c
       0.0065213735 0.003590525 0.03482533 0.018114243
0002e0 85 e8 f2 3c 83 c7 86 3c 05 17 f6 ba a5 c1 a6 ba
       0.02965189 0.016452556 -0.0018775171 -0.0012722505
0002f0 1e ac df bc 95 4f f9 3c 83 d9 0c 3d 27 7b 0d 3d
       -0.027303752 0.030433455 0.034387123 0.034541275
000300 a1 c3 b5 bc ac 46 0f 3c 54 8a ac bc a3 6f a0 bc
       -0.02218801 0.008744877 -0.021062054 -0.019584483
000310 58 6d 5b bc a1 e6 9b 3c 76 a3 9e bc d4 02 31 3c
       -0.013392769 0.01903087 -0.019365054 0.010803897
000320 2d fd 7f 3b 58 cf 15 3d ca b8 bb bc b8 a0 a7 bc
       0.0039060817 0.03657469 -0.022915263 -0.020462379
000330 40 99 38 bc bc e7 f1 3c 60 99 b3 bb 85 4f 1b 3d
       -0.011267006 0.029529445 -0.00548093 0.037917633
000340 61 db a7 3c d2 be 56 3c 3b 84 f1 3a d1 bd 24 bb
       0.02049035 0.013107019 0.0018426249 -0.0025137553
000350 8e ea 26 3c 03 02 05 bb 5d 85 3e 3c 36 fe d8 3b
       0.010187758 -0.0020295389 0.011628476 0.006622101
000360 f3 3e c5 bc 38 ad 36 bc 07 33 23 3d c5 45 ba bc
       -0.024077868 -0.011149697 0.039843585 -0.022738347
000370 04 38 3e 38 7b a0 46 3d 3b d0 c4 3c 7d 52 c3 3b
       4.53517e-05 0.04849289 0.024025073 0.005960761
000380 40 68 f8 bc b0 5b b8 3c 71 37 97 bc 8d ec c5 bb
       -0.030323148 0.022504658 -0.018459054 -0.006040162
000390 94 7f df bb b1 64 d1 3a bb 45 48 3b a6 a5 42 3d
       -0.0068206284 0.0015975443 0.003055914 0.047521256
0003a0 ea 1b 47 3c 3f 2d 32 3d 16 31 fe 3c f5 0f c4 bc
       0.012152651 0.04350018 0.031029265 -0.02393339
0003b0 53 31 e4 3c 68 9f ba bc 6f 8f 20 bc b4 ea a5 3c
       0.02785555 -0.022781089 -0.009799822 0.020253517
0003c0 fa ba 72 3c fb 48 20 3d 3a d9 ce bb 41 cc 06 3c
       0.0148150865 0.0391321 -0.0063125165 0.008227409
0003d0 cc a4 de 3c 91 e4 15 bd 4f e1 12 3d 70 b3 ba bc
       0.02717819 -0.03659493 0.035859402 -0.02279064
0003e0 ab 86 be 3b 94 3e 11 3b 0b 60 20 bc 1c 86 88 3c
       0.0058143935 0.0022162544 -0.009788523 0.01666551
0003f0 6d 0d 30 3d 80 30 03 bb ac 01 76 bc 80 ad c5 bb
       0.042981554 -0.0020017922 -0.015015047 -0.0060326457

fc.0.bias f4 [64]
000000 67 40 f8 3c 09 65 8c bc 47 1e 9b bc 8b c9 f1 3c
       0.030304147 -0.017138021 -0.018935336 0.029515048
000010 85 4c 07 ba 3d 4d 21 bd fd 34 32 bd 5c 8c 1e 3b
       -0.00051612436 -0.0393803 -0.043507565 0.0024192547
000020 78 e1 18 3d 3f a9 ee bc 7a 26 29 3c 5e 70 19 bd
       0.0373244 -0.029133437 0.010324115 -0.037460677
000030 35 1d 0a 3d a2 f3 82 3c e7 0d 1f 3c 96 d2 b6 3c
       0.03371926 0.015985314 0.009707904 0.022317212
000040 53 f9 24 3d 10 32 5e ba 05 cb 1f bd a9 9a 13 3d
       0.040276837 -0.0008476088 -0.039011974 0.036036167
000050 3b 4b cb 3b 94 88 ca bc f2 7a e8 3c 73 a3 ce bc
       0.0062040365 -0.024723329 0.028378937 -0.025224423
000060 9a 4d c3 3c 75 65 06 3d a5 48 a1 3c 33 d7 89 3c
       0.023840714 0.0328116 0.01968796 0.016826248
000070 61 fa 92 3c a9 71 57 bc ea f6 9c bc 75 dd 18 3d
       0.017941656 -0.013149657 -0.019160707 0.037320573
000080 5e 50 51 ba 96 12 c5 b9 8c df 48 bc b7 6c b9 3a
       -0.0007984693 -0.00037588616 -0.012260329 0.001414678
000090 bb 67 bd 3c 78 27 d2 3a e4 57 93 3c c1 2c 9e bc
       0.023120752 0.0016033491 0.017986245 -0.01930845
0000a0 ba f6 a4 3c 34 15 af 3c f9 40 a9 bc dd f7 5f bc
       0.02013718 0.021372415 -0.020660864 -0.013669935
0000b0 02 ec 19 bd 65 94 e6 3c db 6c b8 3a f6 fd 05 3c
       -0.03757859 0.028146932 0.0014070527 0.008178225
0000c0 27 86 5d bc c6 3e a9 ba fe f5 84 bc 23 a7 44 3c
       -0.013520754 -0.0012912385 -0.01623058 0.012002739
0000d0 8b 52 08 bd 1f 76 a8 bc cc 9c 0a bd ce 5c a6 3c
       -0.033281844 -0.020564137 -0.03384094 0.020307925
0000e0 83 ac d4 bc ac f1 80 bc 7e 29 43 3b a2 4f 21 ba
       -0.025961166 -0.015740238 0.002977937 -0.0006153529
0000f0 4f d6 48 bc 07 bf 6b 3c 6c 61 ac bc 82 91 47 3c
       -0.012258126 0.014388806 -0.021042548 0.012180688

fc.2.weight f4 [64]
000000 00 00 80 3f 00 00 80 3f 00 00 80 3f 00 00 80 3f
       1.0 1.0 1.0 1.0
000010 00 00 80 3f 00 00 80 3f 00 00 80 3f 00 00 80 3f
       1.0 1.0 1.0 1.0
000020 00 00 80 3f 00 00 80 3f 00 00 80 3f 00 00 80 3f
       1.0 1.0 1.0 1.0
000030 00 00 80 3f 00 00 80 3f 00 00 80 3f 00 00 80 3f
       1.0 1.0 1.0 1.0
000040 00 00 80 3f 00 00 80 3f 00 00 80 3f 00 00 80 3f
       1.0 1.0 1.0 1.0
000050 00 00 80 3f 00 00 80 3f 00 00 80 3f 00 00 80 3f
       1.0 1.0 1.0 1.0
000060 00 00 80 3f 00 00 80 3f 00 00 80 3f 00 00 80 3f
       1.0 1.0 1.0 1.0
000070 00 00 80 3f 00 00 80 3f 00 00 80 3f 00 00 80 3f
       1.0 1.0 1.0 1.0
000080 00 00 80 3f 00 00 80 3f 00 00 80 3f 00 00 80 3f
       1.0 1.0 1.0 1.0
000090 00 00 80 3f 00 00 80 3f 00 00 80 3f 00 00 80 3f
       1.0 1.0 1.0 1.0
0000a0 00 00 80 3f 00 00 80 3f 00 00 80 3f 00 00 80 3f
       1.0 1.0 1.0 1.0
0000b0 00 00 80 3f 00 00 80 3f 00 00 80 3f 00 00 80 3f
       1.0 1.0 1.0 1.0
0000c0 00 00 80 3f 00 00 80 3f 00 00 80 3f 00 00 80 3f
       1.0 1.0 1.0 1.0
0000d0 00 00 80 3f 00 00 80 3f 00 00 80 3f 00 00 80 3f
       1.0 1.0 1.0 1.0
0000e0 00 00 80 3f 00 00 80 3f 00 00 80 3f 00 00 80 3f
       1.0 1.0 1.0 1.0
0000f0 00 00 80 3f 00 00 80 3f 00 00 80 3f 00 00 80 3f
       1.0 1.0 1.0 1.0

fc.2.bias f4 [64]
000000 37 67 90 3d 2b 78 9e bd f0 48 79 bd 39 6e a4 3d
       0.07050937 -0.07737764 -0.060860574 0.08028836
000010 15 9c 80 3d 0b bc ad bd 9e 53 ae bd 86 ec b7 3d
       0.0627977 -0.08483132 -0.085120425 0.0898066
000020 c6 4f c0 3d da 92 ab 3d 21 4a c0 bd 40 f6 ad 3d
       0.093902156 0.08377619 -0.09389139 0.08494234
000030 53 ff a5 bd 05 13 c0 3d 1c 00 a1 3d 46 4e 9f 3d
       -0.0810534 0.09378628 0.07861349 0.07778601
000040 e5 30 84 3d b4 93 c1 3d 20 4f b4 bd ed c8 c0 bd
       0.064546384 0.09452 -0.088041544 -0.094133236
000050 72 1d b5 bd f1 e8 a8 3d c6 9e c1 bd 37 9f ba bd
       -0.08843507 0.08247555 -0.09454112 -0.09112399
000060 26 50 c1 bd ff 38 c1 bd f1 30 c0 3d c9 08 8d bd
       -0.09439115 -0.09434699 0.09384335 -0.06886441
000070 03 c7 99 3d 45 2d 6e bd c5 49 c2 bd be 8d b5 3d
       0.075086616 -0.05814864 -0.09486727 0.08864926
000080 69 4c c0 bd de 47 ae 3d 3d 43 bf bd fd 48 70 3d
       -0.09389574 0.08509801 -0.093389966 0.058663357
000090 31 3b 9e bd c6 09 b9 bd ee 20 c0 3d 4e cd bb bd
       -0.077261336 -0.09035067 0.09381281 -0.09170018
0000a0 a3 35 b2 3d da 60 c0 3d 70 4f bb 3d e6 87 a8 3d
       0.08701637 0.09393473 0.09146011 0.082290456
0000b0 51 db b5 3d ef ef b1 3d fd a8 9a 3d f6 cc bc bd
       0.08879722 0.08688342 0.07551763 -0.09218781
0000c0 db 74 5f 3d f5 c9 bf bd 28 15 9e 3c 97 e6 be 3d
       0.0545548 -0.09364692 0.019297197 0.09321325
0000d0 d9 62 88 bd 94 00 c1 bd e6 ee c3 3d 67 7d bb bd
       -0.06659479 -0.094239384 0.09567051 -0.09154778
0000e0 45 d3 bb bd aa d1 c3 3d 20 2e 1f bd 5c 52 fd 3c
       -0.09171156 0.095614746 -0.038862348 0.030923061
0000f0 a0 d5 ad 3d 95 c1 b0 3d 2f c8 c0 bd 88 cd b8 3d
       0.08488011 0.08630673 -0.09413182 0.09023577

fc.2.running_mean f4 [64]
000000 0f 6c f2 46 65 ed d5 42 75 83 05 46 2b 47 68 40
       31030.03 106.96366 8544.864 3.6293437
000010 e6 55 df 46 00 00 00 00 c5 3c b5 46 00 00 00 00
       28586.95 0.0 23198.385 0.0
000020 19 f6 04 3b 79 4d d2 44 00 00 00 00 00 00 00 00
       0.0020288287 1682.421 0.0 0.0
000030 24 a1 90 46 00 00 00 00 9f 41 bf 46 2c 1f 16 45
       18512.57 0.0 24480.81 2401.9482
000040 41 37 51 46 00 00 00 00 00 00 00 00 00 00 00 00
       13389.813 0.0 0.0 0.0
000050 00 00 00 00 00 00 00 00 00 00 00 00 00 00 00 00
       0.0 0.0 0.0 0.0
000060 00 00 00 00 00 00 00 00 00 00 00 00 59 59 29 47
       0.0 0.0 0.0 43353.348
000070 d9 d3 bc 46 ff 2d 58 46 00 00 00 00 7b 97 99 46
       24169.924 13835.499 0.0 19659.74
000080 00 00 00 00 d3 a5 89 46 00 00 00 00 54 dc c6 46
       0.0 17618.912 0.0 25454.164
000090 ed 73 d2 46 00 00 00 00 00 00 00 00 00 00 00 00
       26937.963 0.0 0.0 0.0
0000a0 4d 35 7a 46 00 00 00 00 00 00 00 00 39 7d ef 46
       16013.325 0.0 0.0 30654.611
0000b0 03 bc 2f 46 00 00 00 00 6f 58 ce 46 00 00 00 00
       11247.003 0.0 26412.217 0.0
0000c0 06 a9 38 47 00 00 00 00 7a 54 3d 47 00 00 00 00
       47273.023 0.0 48468.477 0.0
0000d0 78 0c 0b 47 00 00 00 00 00 00 00 00 09 1c 43 45
       35596.47 0.0 0.0 3121.7522
0000e0 00 00 00 00 00 00 00 00 6b 68 d2 45 bb 4c ab 46
       0.0 0.0 6733.0522 21926.365
0000f0 00 00 00 00 00 00 00 00 00 00 00 00 00 00 00 00
       0.0 0.0 0.0 0.0

fc.2.running_var f4 [64]
000000 01 2f 0e 36 01 2f 0e 36 01 2f 0e 36 01 2f 0e 36
       2.1187009e-06 2.1187009e-06 2.1187009e-06 2.1187009e-06
000010 01 2f 0e 36 01 2f 0e 36 01 2f 0e 36 01 2f 0e 36
       2.1187009e-06 2.1187009e-06 2.1187009e-06 2.1187009e-06
000020 01 2f 0e 36 01 2f 0e 36 01 2f 0e 36 01 2f 0e 36
       2.1187009e-06 2.1187009e-06 2.1187009e-06 2.1187009e-06
000030 01 2f 0e 36 01 2f 0e 36 01 2f 0e 36 01 2f 0e 36
       2.1187009e-06 2.1187009e-06 2.1187009e-06 2.1187009e-06
000040 01 2f 0e 36 01 2f 0e 36 01 2f 0e 36 01 2f 0e 36
       2.1187009e-06 2.1187009e-06 2.1187009e-06 2.1187009e-06
000050 01 2f 0e 36 01 2f 0e 36 01 2f 0e 36 01 2f 0e 36
       2.1187009e-06 2.1187009e-06 2.1187009e-06 2.1187009e-06
000060 01 2f 0e 36 01 2f 0e 36 01 2f 0e 36 01 2f 0e 36
       2.1187009e-06 2.1187009e-06 2.1187009e-06 2.1187009e-06
000070 01 2f 0e 36 01 2f 0e 36 01 2f 0e 36 01 2f 0e 36
       2.1187009e-06 2.1187009e-06 2.1187009e-06 2.1187009e-06
000080 01 2f 0e 36 01 2f 0e 36 01 2f 0e 36 01 2f 0e 36
       2.1187009e-06 2.1187009e-06 2.1187009e-06 2.1187009e-06
000090 01 2f 0e 36 01 2f 0e 36 01 2f 0e 36 01 2f 0e 36
       2.1187009e-06 2.1187009e-06 2.1187009e-06 2.1187009e-06
0000a0 01 2f 0e 36 01 2f 0e 36 01 2f 0e 36 01 2f 0e 36
       2.1187009e-06 2.1187009e-06 2.1187009e-06 2.1187009e-06
0000b0 01 2f 0e 36 01 2f 0e 36 01 2f 0e 36 01 2f 0e 36
       2.1187009e-06 2.1187009e-06 2.1187009e-06 2.1187009e-06
0000c0 01 2f 0e 36 01 2f 0e 36 01 2f 0e 36 01 2f 0e 36
       2.1187009e-06 2.1187009e-06 2.1187009e-06 2.1187009e-06
0000d0 01 2f 0e 36 01 2f 0e 36 01 2f 0e 36 01 2f 0e 36
       2.1187009e-06 2.1187009e-06 2.1187009e-06 2.1187009e-06
0000e0 01 2f 0e 36 01 2f 0e 36 01 2f 0e 36 01 2f 0e 36
       2.1187009e-06 2.1187009e-06 2.1187009e-06 2.1187009e-06
0000f0 01 2f 0e 36 01 2f 0e 36 01 2f 0e 36 01 2f 0e 36
       2.1187009e-06 2.1187009e-06 2.1187009e-06 2.1187009e-06

fc.3.weight f4 [64, 64]
000000 9e d4 0d 3e 5c ca 04 bd c3 66 1d be 2a 05 35 3e
       0.13850638 -0.032419547 -0.15371232 0.17677751
000010 3f c5 09 3e 2d c7 18 3c 35 71 3c bd fc d3 a0 3d
       0.1345415 0.009324831 -0.0460064 0.07852933
000020 70 54 4c 3e a0 40 aa 3d 8a bf 79 bd 30 e3 1b 3e
       0.19954085 0.083131075 -0.06097368 0.15223384
000030 4f 96 85 3c ec b8 3d 3c 3b e4 4b 3d 4a 34 f4 3d
       0.016307024 0.011579733 0.049778204 0.11924036
000040 1a 2d f0 3d 12 76 7a 3d 85 82 a0 3c bf 71 ba bd
       0.117273524 0.061147757 0.019593487 -0.091037266
000050 e9 7e 6a bd 9c 28 c4 3d cc fb 15 be 6e 55 15 3d
       -0.057249937 0.09578058 -0.14646834 0.036458425
000060 da 96 58 be 23 f1 53 be 05 12 03 3e 5e ff 85 3d
       -0.21151295 -0.20697455 0.12799843 0.06542848
000070 99 01 7e bc 97 9f 83 3d 98 02 fc bd c2 1f 07 3e
       -0.015503311 0.06426924 -0.12305182 0.13195708
000080 1d 4b 11 be 97 58 01 3e 52 5b 51 be 7e c6 b0 3a
       -0.1418881 0.1263145 -0.20444992 0.001348689
000090 30 9b c5 3d cd 52 6d bd 0b 0a 67 3d 12 8d fa 3c
       0.0964874 -0.057940293 0.056406062 0.030584846
0000a0 ff d5 9b 3c 72 bf c6 bc c9 7f 04 3e b4 66 34 bd
       0.01902294 -0.02426121 0.12939371 -0.044043258
0000b0 9f 1d 77 bd 3b 64 59 3e ea 58 1d bc f4 a0 3d be
       -0.060330983 0.21229641 -0.009603718 -0.1851843
0000c0 b1 0a c3 3d 81 75 85 bc c6 e0 68 bd c4 44 02 3e
       0.095235236 -0.016291382 -0.056854986 0.12721545
0000d0 d8 a8 ba 3b 7e 33 9a bd 94 4a 8c 3c 31 48 b3 3d
       0.0056963973 -0.075293526 0.017125405 0.08754004
0000e0 84 b9 28 be c3 2d 58 3e 7e 92 81 3b a7 fd a9 3d
       -0.16477019 0.21111207 0.003954231 0.083003335
0000f0 be 28 7f 3d bf 0f 17 3e 65 b3 ed 3c 98 a4 97 3d
       0.062294714 0.147521 0.029016206 0.07404441
000100 2c 5f e0 bd ab e8 d5 3d 33 bc e3 bd 51 f8 a7 3d
       -0.109556526 0.104447685 -0.111198805 0.082016595
000110 4e 57 16 bd 56 c2 af b9 08 23 a8 3d 44 55 fd 3c
       -0.036704354 -0.00033523393 0.08209807 0.030924447
000120 85 20 b3 bd eb c3 50 bc 2f d6 05 3d 1d cf 65 bc
       -0.08746437 -0.012742023 0.032674965 -0.01402643
000130 4a 7e d5 3d 2e 44 c9 bd 98 5b 82 3d 4d e1 e5 3c
       0.10424478 -0.09827457 0.06365126 0.028061533
000140 fc 88 3b bd 8a 9b aa 3d 63 ce 06 3e 87 d4 ea bd
       -0.045784935 0.08330448 0.13164668 -0.114663176
000150 7a d6 21 3c a4 7c 1c bd 9a ef 84 3d 7a a5 09 bd
       0.009877795 -0.038204804 0.06491013 -0.033605076
000160 05 14 f1 3d 4b a6 64 3d e8 34 5a 3d 05 0d eb 3d
       0.117713965 0.05582265 0.05327311 0.11477093
000170 14 f7 94 3d f0 60 87 bd b4 dc e3 bc be c1 42 bd
       0.07273689 -0.06610286 -0.0278152 -0.04754805
000180 3a 8d 1b bc 3e 28 a0 3d 58 bb e7 3d 94 02 77 bd
       -0.00949412 0.078201756 0.1131503 -0.060305193
000190 1c 54 65 bd ac 69 75 3d 05 62 d7 bd 7a af 7f bd
       -0.055988416 0.05991523 -0.105167426 -0.062423207
0001a0 67 4a db 3c 22 08 2a bd 67 82 b2 3d 07 69 e7 3b
       0.026768876 -0.041511662 0.087162785 0.007062081
0001b0 d7 cd 9d 3c 90 4e e8 bd 50 e6 6d 3d 57 dd a7 3d
       0.019263191 -0.113431096 0.05808097 0.08196514
0001c0 38 6a 78 3d 5d 30 6d bc d0 a3 2a 3d 90 19 ea bd
       0.060648173 -0.014476863 0.04166013 -0.11430657
0001d0 be c5 b8 bd 08 52 b6 bd 94 3b 9c bd fd 83 26 3d
       -0.09022091 -0.08902365 -0.07628551 0.040653218
0001e0 54 4b 69 3d 6e e1 08 be 19 a1 bd bd 5c c8 85 b9
       0.056956604 -0.13367245 -0.092592426 -0.00025517016
0001f0 e4 14 25 3c 2a dc cb bd 42 6e 6e 3d b9 a2 0f 3d
       0.0100757815 -0.09954102 0.05821062 0.035067294
000200 01 cf 03 bd 98 b2 1c 3b c5 80 25 bb 0b d3 06 bd
       -0.032179836 0.002391016 -0.0025253755 -0.03291611
000210 f2 38 86 3d e6 cc ca 3b b8 5e 16 3d 99 d5 0f 3d
       0.0655383 0.0061889766 0.036711425 0.035115812
000220 66 28 bc 3d c0 f5 96 bd 66 40 12 bd 18 32 1a 3e
       0.09187393 -0.07371092 -0.035705946 0.15058172
000230 09 5d d0 3d 12 6c cb 3d 57 d3 cb 3d 6b 27 9e bd
       0.10173995 0.09932722 0.09952419 -0.07722362
000240 96 39 38 bc f4 c5 92 3d 67 88 5b be a1 95 1d be
       -0.011244198 0.07166663 -0.21438752 -0.1538911
000250 cc 34 d5 bd 0f 2f bd 3d 38 f9 7f 3c 15 39 1a be
       -0.10410461 0.09237491 0.015623383 -0.15060838
000260 72 9e 1b be 87 d5 58 be 6a f8 0a 3e 2d 68 1a bd
       -0.15197161 -0.21175204 0.13571325 -0.037697006
000270 1a 68 59 3b 69 db 0a be 45 2d 59 be 29 ee 15 3e
       0.0033173622 -0.13560261 -0.21208675 0.14641632
000280 d8 95 fc bd f3 09 ea 3d 46 d2 fd bd f8 74 08 3e
       -0.12333268 0.11427679 -0.12393622 0.1332587
000290 89 9d ad bd 45 0d 41 be 19 a7 97 3b 26 6a d0 bd
       -0.08477313 -0.18852718 0.004628074 -0.10176496
0002a0 c6 df 8d bd c0 25 d7 ba 85 ae 4d 3e 20 b8 d8 bd
       -0.06927447 -0.0016414449 0.20086105 -0.10581994
0002b0 d6 1e 06 3e f8 5b dd 3c b9 46 43 3d 6d 77 2b bd
       0.130977 0.027021393 0.04767487 -0.04186194
0002c0 90 e0 ff 3b 4f 4b 4d be ef 20 e7 3d f6 dc 4f 3e
       0.0078087524 -0.20048259 0.112855785 0.20299134
0002d0 5f 6a eb bd 32 86 b7 bd 4c 23 38 3e 82 fb 4f 3d
       -0.11494898 -0.089611426 0.17982215 0.050776966
0002e0 29 2b c6 bd 91 28 07 3c 6b c2 88 bc 48 bd 90 3d
       -0.09676201 0.008249418 -0.016694268 0.070673525
0002f0 66 a5 c4 3d cc 86 34 3e 83 5a 4f be c2 91 22 bc
       0.0960186 0.17629546 -0.20249371 -0.009922447
000300 c8 7f 3e 3d 63 8f 18 3d 41 b8 9e 3c 2b 20 04 bc
       0.04650858 0.03724612 0.019374968 -0.00806431
000310 d5 5b fb 3d f3 ff a5 bd a2 01 ee bd 9e 31 04 3e
       0.12273375 -0.08105459 -0.11621405 0.12909552
000320 0b a5 3a bc 49 67 93 3d d6 93 87 bd 7e 37 8a 3d
       -0.011391888 0.071974345 -0.06619994 0.067488655
000330 07 b8 9d 3d 52 56 10 3e 00 ac 6b 3d 6a 0f 17 3e
       0.07701116 0.14095429 0.05753708 0.14751974
000340 8b fa 88 3d 2d 91 50 3e 93 7c 1b be 7a ec 3c be
       0.06688412 0.2036788 -0.1518424 -0.18449584
000350 b2 a3 3a be 8e ef 27 3e 74 9e e1 bd cf 54 5b be
       -0.18226507 0.16399977 -0.11016551 -0.2141907
000360 c6 7a 3d bd e0 84 3e bd 7d 20 df 3d bb 79 94 bd
       -0.046259664 -0.04651344 0.108948685 -0.07249781
000370 1b 3d b1 bd 37 53 e9 bd a4 5d 28 be 6b 9b b8 3c
       -0.08654233 -0.11392825 -0.16441971 0.022535047
000380 2e 7f 5c be 66 7a a5 3d 72 ef c3 bd 50 fa 7c bd
       -0.2153289 0.08079986 -0.09567155 -0.061762154
000390 a9 57 3a bd 4d 12 3b bd c3 c1 5b 3e 8b 76 90 3c
       -0.045493755 -0.04567175 0.21460633 0.01763465
0003a0 d9 49 a5 3c ec dd 51 3e cf 8b 48 3e 49 65 ff 3d
       0.020176815 0.20494813 0.19584583 0.124704905
0003b0 3a 5b 63 3c 67 f7 0f 3e f9 e8 02 bd 24 29 0f be
       0.013876731 0.1405922 -0.03196046 -0.13980538
0003c0 08 72 11 bd 79 5d 11 be c1 5b c1 3c 95 41 39 3e
       -0.03550914 -0.14195813 0.023603322 0.18091424
0003d0 ac f6 d6 bd 92 09 f0 bd 2e 7d cc 3d 60 5d 2d bd
       -0.10496268 -0.117205754 0.09984814 -0.042325377
0003e0 72 61 00 be 1f b5 40 3e b2 3b 8e bd ef e1 04 3e
       -0.12537172 0.18819092 -0.0694498 0.12976812
0003f0 c9 88 86 3c 9e c4 f5 bc 8d 75 23 be 9e a5 34 3d
       0.016422646 -0.030000981 -0.15962811 0.044103257

fc.3.bias f4 [64]
000000 3a b3 c4 3d 19 ae 38 bd cb b0 ed 3d 26 55 03 3e
       0.09604497 -0.045087907 0.11605986 0.1282545
000010 0c 91 51 3d 12 26 71 3d 65 9f 1f 3e 8c c5 28 bd
       0.051163718 0.058874197 0.15588148 -0.04120402
000020 b4 aa 09 3e 4b 67 ee bc 8e 98 4d 3e f2 85 b8 3d
       0.13444024 -0.029101988 0.20077726 0.09009923
000030 4d 4a 4b 3e 5e 1e 72 3d 71 af 68 3d 00 c0 d9 bd
       0.19852562 0.05911099 0.05680794 -0.10632324
000040 48 c7 7e bd 99 c3 71 bd 8d 11 0e 3e 94 f3 5d 3d
       -0.06220177 -0.059024427 0.13873883 0.054187372
000050 08 ee fa 3c 54 2a ad 3d 60 a5 80 3d 06 24 13 3d
       0.03063108 0.08455339 0.06281543 0.035923027
000060 f0 d1 46 3d 73 b4 a8 3c 26 ab d5 3d 38 01 0c 3e
       0.048540056 0.020593857 0.104330346 0.1367234
000070 b3 13 09 3e e5 45 48 3e 25 26 21 3e 31 51 8b 3d
       0.13386421 0.19557913 0.15737207 0.068025954
000080 79 4d b5 3d 98 23 1a 3d c3 dc 4c 3e 5e 01 c1 3d
       0.08852667 0.0376316 0.20006089 0.09424089
000090 f1 02 f4 bd f8 17 84 3d ec a1 71 bd 52 25 88 3c
       -0.119146235 0.06449884 -0.05899231 0.016619358
0000a0 51 d6 ce 3d 0c 66 dc 3d 46 0f 3d 3e 50 0e b2 bd
       0.10099471 0.107616514 0.18462858 -0.08694136
0000b0 60 51 fe 3d e4 91 cc 3d b2 22 01 3e 74 6c bd bc
       0.12417865 0.09988764 0.12610891 -0.023123004
0000c0 6c fa 10 3e ee f2 cf 3d 67 a1 aa 3c b3 fb 1a 3e
       0.14158028 0.10153757 0.020828916 0.15135078
0000d0 26 8b ef 3d b5 02 29 3e 1f e5 91 3d 8e e9 01 3e
       0.11696462 0.16504939 0.071237795 0.1268675
0000e0 23 60 2b 3e 79 72 1f 3e d4 12 a8 3c 4e 04 40 3e
       0.16735892 0.15571012 0.02051679 0.18751642
0000f0 6d f2 f0 3d e5 7a 9e 3b a3 9e ef 3d e4 7e 23 3e
       0.11764989 0.0048364275 0.117001794 0.15966374

placing_layer.0.weight f4 [5, 64]
000000 08 f4 15 3c 4e b1 9d 3d 73 b7 3d bc da 07 bd 3a
       0.00915242 0.07699834 -0.011579382 0.0014421896
000010 26 3d bd 3d 26 03 53 3d 6d 9d 36 3e 18 db c6 bc
       0.09240179 0.051516674 0.1783349 -0.024274394
000020 fe 05 31 3d 2e 27 2e 3c 1b ad 2d 3d 9c 8c a5 bc
       0.043218605 0.010629458 0.042401414 -0.02020865
000030 39 7d b5 3d 75 ce 85 3d d2 ba 93 3d 73 80 0c bd
       0.08861775 0.06533519 0.072133675 -0.034302186
000040 48 28 b0 3d d2 e6 9d 3d 98 17 ea 3d 53 13 a1 3c
       0.08601433 0.07710041 0.114302814 0.019662535
000050 3c 4b 80 3d c1 95 fc 3d 5f f3 03 3c a1 03 98 3c
       0.0626435 0.12333251 0.00805363 0.018556418
000060 d0 f2 4c 3d cc 47 2e bd ec ec a5 3d 89 01 fd 3c
       0.05003625 -0.04254894 0.0810183 0.030884521
000070 f1 79 2c ba 05 fb dc 3d 39 ee b1 3d fb 4d 69 3c
       -0.000657945 0.10790066 0.086880155 0.014239783
000080 8a 5e 0c bd d3 cc 93 bd 44 30 c0 bb a5 8d 8c bd
       -0.034269847 -0.072168015 -0.0058651287 -0.06862954
000090 40 38 97 3c 87 d9 2e bd fd 4b cf bc c9 09 dd bc
       0.01845944 -0.04268792 -0.025304789 -0.026982205
0000a0 be 18 08 3e 24 39 b1 3d 24 2e bd 3d 39 d3 fd 3d
       0.13290688 0.08653477 0.09237316 0.12393803
0000b0 36 1b 19 3e 41 35 aa 3d 26 6e 85 3b 64 9f 22 3e
       0.14951786 0.083109386 0.0040719686 0.15881115
0000c0 9e e4 bb 3d c4 f5 da 3d bb 6b d8 bb 9e a9 fe bc
       0.09174465 0.10691407 -0.0066046393 -0.03108674
0000d0 22 84 9c 3d 17 1d dc 3d e5 7a 45 3d b9 03 18 3d
       0.0764239 0.10747736 0.048212904 0.037112925
0000e0 cb 9a 2e 3e 75 30 26 3e 89 79 3e 3d 86 e9 d0 3c
       0.17051236 0.16229422 0.046502624 0.025501978
0000f0 9c 5c 84 3d 3c f5 82 3d 33 b6 eb 3d b7 5b 80 bd
       0.06462976 0.06394431 0.11509361 -0.06267493
000100 13 c0 d5 3d d0 98 18 3d 2c 29 b2 bd bd 8f 91 3d
       0.10437026 0.03725511 -0.08699259 0.07107494
000110 85 1f bc 3d b0 a2 c7 3d 29 b2 25 3d 20 7e 57 bd
       0.091856994 0.09747827 0.04045311 -0.052610517
000120 1e 6e 5e bd c8 fc b9 3d 8b 83 4e bd 6c aa 52 bc
       -0.054304235 0.09081417 -0.050418418 -0.012858015
000130 36 df 97 bd c7 b0 6f bd c9 4c 40 3d 36 06 68 3d
       -0.07415621 -0.058518197 0.046948228 0.05664655
000140 97 bd 40 bc d8 b6 6f 3d c8 cc e9 bd e8 32 0b be
       -0.011763952 0.058523983 -0.11416012 -0.13593638
000150 92 79 d6 bd a5 ee 06 3d c2 f3 dc bd 35 14 1d 3c
       -0.104724064 0.032942433 -0.107886806 0.009587337
000160 de a1 00 bc 9d b2 95 bc 62 4c d2 3d 00 93 81 3d
       -0.007851092 -0.018273646 0.10268475 0.06326866
000170 2f b1 e5 bd 7b a8 06 be d4 f8 4c 3d af 73 78 3d
       -0.11215436 -0.13150208 0.05004199 0.0606572
000180 25 92 d6 bd a2 46 b6 3c ce bf 02 3c 40 3b 06 3d
       -0.104770936 0.022250477 0.0079803 0.03277135
000190 b8 26 9d 3c 3e 71 a3 3d 78 27 d0 3d d1 3c 18 3d
       0.019183502 0.079805836 0.10163778 0.037167374
0001a0 ff cd c1 3d ce b4 c1 3c 6a 13 66 bd 6f 53 b2 bc
       0.09463119 0.023645785 -0.05617086 -0.0217683
0001b0 c6 e8 3c 3d ea b9 ca bd 78 fc 8b bd 68 83 43 bd
       0.046120428 -0.098987415 -0.06835264 -0.04773274
0001c0 67 3a 9e bc 67 0f 8d bc c2 fd e7 bd 46 95 07 3d
       -0.019314958 -0.017219258 -0.11327697 0.033101343
0001d0 14 81 f4 3c e3 3f 89 3d 41 3f bf bb 8a be 23 3c
       0.029846705 0.067016385 -0.005836398 0.0099941585
0001e0 0c fc da 3d d9 f2 e5 3d 4d 92 d0 bd d8 ee 58 3c
       0.106926054 0.1122796 -0.10184155 0.013240539
0001f0 f3 08 e8 bd 6a db e4 bd 29 e2 64 3d 54 ba b0 bd
       -0.11329832 -0.111746624 0.055879746 -0.08629289
000200 d6 fe 87 3d 07 ea fd ba 3b cf ee 3d f6 68 bf 3c
       0.06640403 -0.0019372114 0.1166062 0.023365479
000210 30 31 53 bb e7 79 21 3e 5b 56 09 bc 1a 55 bb bd
       -0.0032225363 0.15769158 -0.008382405 -0.09147091
000220 08 5c ce 3d 05 66 e8 3c 9f 9c 3e bd 8e c1 24 3e
       0.10076147 0.02836896 -0.046536084 0.1608946
000230 06 21 40 bd 7d 55 b5 3d aa 99 cb 3d 47 a4 64 bd
       -0.046906494 0.08854196 0.099414185 -0.05582073
000240 9b b8 3c 3d e7 11 39 3d 37 33 83 bd 87 fd 7a 3d
       0.04607449 0.04518309 -0.06406253 0.06127694
000250 d8 fb dd 3d 88 89 a1 3d 25 4b ba 3d b2 d5 c5 3d
       0.10839051 0.0788756 0.09096364 0.096599
000260 9e 29 32 3e 00 b6 b3 3d 6c 63 89 3d 67 2c 8b 3c
       0.17398688 0.08774948 0.06708416 0.016988946
000270 1c b9 9e 3d 50 b4 23 3e 73 35 91 bc ad d7 19 3e
       0.077501506 0.15986753 -0.017725682 0.1502368
000280 52 8d e9 3d 7b da 6a bd 8b b1 3b 3d c6 e3 c0 bc
       0.11403908 -0.057337265 0.045823615 -0.02354611
000290 b5 47 c5 bd 12 44 12 3e ee e0 39 bd 1e 5a c2 3d
       -0.09632818 0.1428378 -0.045380525 0.09489845
0002a0 47 bf 1c 3e 05 4f e7 bc be 28 a6 3d 2e 18 dd bd
       0.15307342 -0.028235922 0.0811324 -0.107956275
0002b0 47 f6 1d 3c ca c7 14 3e f9 bb bc bc 05 5e 8b 3d
       0.009641237 0.14529338 -0.023038851 0.06805042
0002c0 71 c5 38 3e e9 04 1b 3e 01 6a 86 bc 36 fc 20 bd
       0.18044068 0.15138592 -0.016407968 -0.039303027
0002d0 c0 0c f9 3c 9b 1b de 3d 3d b5 e4 3d 69 cb fc 3c
       0.030401587 0.10845109 0.11167381 0.030858712
0002e0 c5 1e 20 3e 19 3d fc 3d 21 ce 00 3e e6 04 aa 3d
       0.15636738 0.12316341 0.12578632 0.083017156
0002f0 68 d6 30 3e d6 c8 8b bd 10 90 b9 3d 1c 3b 21 3e
       0.1726929 -0.06825416 0.09060681 0.15745205
000300 90 b4 dc bd e8 e2 be 3c 56 57 94 bd 50 f4 a1 3c
       -0.10776627 0.023301557 -0.072432205 0.019769818
000310 60 09 8d 3b 36 b3 e5 bd 30 8e 76 bd 50 36 29 bd
       0.004304096 -0.112158224 -0.060194194 -0.041311562
000320 c8 4d ad bc 06 2d d2 bd 58 27 f0 bc e0 37 46 bd
       -0.021155253 -0.10262494 -0.029315636 -0.04839313
000330 5a d3 f7 bd e4 bb a0 bd ac e8 ae bd 2e ca db 3d
       -0.12100859 -0.07848337 -0.085404724 0.10731922
000340 a8 8f a4 3c c8 7d a8 bd 34 8c fd 3d 98 0c 10 bd
       0.020088032 -0.08227116 0.12380257 -0.03516826
000350 d4 74 43 bd ec ab bb 3d 80 03 f9 bb 40 30 5a 3d
       -0.047718838 0.09163651 -0.007599294 0.05326867
000360 50 5c 48 bc 00 6a d6 bb 5c e1 c9 3d 98 05 21 bd
       -0.01222904 -0.006543398 0.09857437 -0.039311975
000370 00 69 b4 3d f6 31 db 3d a0 1a d1 bd 50 14 0d bc
       0.0880909 0.10702889 -0.102101564 -0.0086108
000380 a8 56 d9 bd 90 f8 3e 3d bc a5 c4 bd 20 36 02 bc
       -0.106122315 0.046623766 -0.09601924 -0.007947475
000390 12 21 ca bd b4 ab a2 3d 98 f2 70 3d d4 ca 3f 3d
       -0.09869589 0.07942906 0.058825105 0.04682429
0003a0 5c 14 15 3d 20 97 ab bb 70 31 d8 bd d6 0d c6 bd
       0.03639637 -0.0052365214 -0.105563045 -0.09670608
0003b0 96 39 bc bd 6a 18 91 3d 6a e3 a1 bd 82 91 96 bd
       -0.09190671 0.07084735 -0.07904704 -0.07351972
0003c0 40 11 74 3d 44 37 cf bd 3c 5d bf 3d 44 2a ca bd
       0.059586763 -0.10117963 0.09343955 -0.09871343
0003d0 8c 88 a2 bd f0 15 91 bc c0 83 8c bc 5e bf d0 3d
       -0.079362005 -0.017710656 -0.017152667 0.101927504
0003e0 a0 d4 ea bb 74 f0 25 3d 38 db 40 3d 9c 11 b8 bd
       -0.00716646 0.040512517 0.047084063 -0.08987734
0003f0 d4 4a 50 3d a8 a5 c9 bd 4c 2a b7 bd b0 17 73 3c
       0.05085261 -0.098460495 -0.08943614 0.0148371905

placing_layer.0.bias f4 [5]
000000 bf da 1d bd 20 28 ab bd 88 a0 5d 3d 3a f4 8e bd
       -0.03853869 -0.083572626 0.054108173 -0.06980176
000010 b3 cf a0 3d
       0.078521155

placing_layer.1.weight f4 [5, 64]
000000 f3 7a 25 3e ac 21 e8 3d cd c3 a9 3d 36 4c 10 3e
       0.16160183 0.113345474 0.08289299 0.14091572
000010 77 6c b9 bc fd 99 97 bd 70 4a 42 3e f5 a7 e7 3d
       -0.022634728 -0.07402418 0.18973708 0.11311332
000020 86 58 20 3e af c8 d5 3b 99 c4 c6 3d b5 ef 32 3e
       0.15658769 0.0065241675 0.09705467 0.17474253
000030 de 01 cf bc ce b9 b9 bb 5a 40 d5 3d d3 04 f6 3d
       -0.025269445 -0.0056679016 0.10412665 0.12012639
000040 3b 05 80 bd ce f2 0f 3e 6a 5a 51 ba 36 6e 08 3e
       -0.06250998 0.14057466 -0.000798619 0.13323292
000050 dd 84 8c 3c 0d c1 1a 3e 58 71 2a 3e 10 dd b7 bc
       0.017153198 0.15112706 0.166448 -0.022444278
000060 35 e7 19 3b 1b 35 13 3e f0 68 39 3e cf df bc 3d
       0.0023483757 0.14375727 0.18106437 0.092223756
000070 e8 93 ee 3d 54 be 9f 3d a0 52 c9 3d 6c 6a 0b 3e
       0.11649305 0.07799974 0.098302126 0.13614815
000080 ca 58 4a bd 76 6f 10 3d 9c 5a a3 3d d9 68 b7 bc
       -0.049401082 0.035262547 0.07976267 -0.022388862
000090 4d 03 73 3d 3d 43 46 3d 3e 7c 92 bd 7e fa c8 3d
       0.05932932 0.048403967 -0.071526036 0.098134026
0000a0 10 db b6 3d d2 03 3c bd a1 a8 9e 3d 3d 8d c6 bc
       0.089285016 -0.04590208 0.07747007 -0.02423727
0000b0 a1 88 3a 3e e9 85 44 bb 95 43 23 3e 0c 99 16 3c
       0.18216182 -0.0029987043 0.15943749 0.009191763
0000c0 12 98 3e 3e 19 1b b7 3b 8f c4 56 bd 9d e6 7a 3c
       0.18612698 0.005587947 -0.052433547 0.015313772
0000d0 4c 75 52 bd 79 e5 c1 3d 18 a8 90 38 ae 9a af 3d
       -0.051381394 0.094675966 6.897765e-05 0.08574425
0000e0 e7 d9 3a 3d 66 77 23 ba bb 81 26 3e 26 bf c4 3d
       0.045617964 -0.00062357483 0.16260426 0.09606771
0000f0 00 a9 1a 3e 9d ff 95 3d d9 72 0b 3e 62 a8 3d 3e
       0.15103531 0.07324145 0.1361803 0.18521264
000100 e9 d8 c1 3d 81 ef 60 bd f3 67 95 3d 53 85 ef bc
       0.094652005 -0.05491591 0.07295217 -0.029238379
000110 6a 31 c5 3d e0 ea 8a bd ca 2c f6 bd b4 01 d8 bc
       0.096285656 -0.0678308 -0.120202616 -0.026368
000120 f7 c3 91 bc b6 75 b2 bd e7 c6 bf bd 90 40 5a bd
       -0.017793639 -0.08713858 -0.093641095 -0.053284228
000130 26 6b 49 bc 92 83 03 be 8a 85 ed 3c 50 f4 e4 bd
       -0.012293613 -0.12843159 0.02899434 -0.111794114
000140 e1 70 ec 3d 88 ab 3f bd e2 3d aa bd f7 38 5b bd
       0.115449674 -0.046794444 -0.083125845 -0.053521123
000150 3a 6d c8 3d b0 0e d2 bd 21 b2 6a 3c ee 8a 1f 3d
       0.09786458 -0.10256708 0.014324696 0.038950853
000160 72 d5 85 bd 38 d9 9b bc 92 c2 86 bd d3 ed 76 bd
       -0.06534852 -0.019024476 -0.0658008 -0.0602854
000170 d0 ce 6a 3d 8f a1 98 3d f2 56 03 3d 2a fe 8a bd
       0.057326138 0.0745269 0.03206534 -0.06786759
000180 4e 7a 0a 3d 91 f6 6c 3d f0 1d ee bc 62 00 92 ba
       0.033808045 0.05785233 -0.02906701 -0.001113903
000190 d2 57 f1 3d 82 8b b6 bd 91 55 bf bd 7c 1a c1 3d
       0.117843285 -0.08913328 -0.09342492 0.094288796
0001a0 a5 ff 08 bc 48 d8 97 bd 62 ab c9 bd cf 9f e1 bd
       -0.008361732 -0.07414299 -0.09847142 -0.11016809
0001b0 f9 cd f5 bd 14 1e 05 be e7 0d 9a bd a3 0e ab 3c
       -0.12002177 -0.12999755 -0.07522183 0.020881003
0001c0 3c b3 d0 bd 93 9a da 3d a5 90 ef 3c 45 20 2f bd
       -0.10190436 0.10674014 0.029243777 -0.042755384
0001d0 47 d1 ce 3d dd 5b 11 3d 23 92 8b 3d d8 a9 0c be
       0.1009851 0.035488 0.06814983 -0.13736665
0001e0 9d 48 84 3b a0 30 c9 3d d1 de 8e bd 4d d9 84 3d
       0.0040369765 0.098237276 -0.069760926 0.06486759
0001f0 42 2c f3 bc 9c 49 d4 bd 83 b9 dd bc 04 41 99 3c
       -0.02968419 -0.103656024 -0.027065998 0.01870776
000200 45 3a 1b 3e db b1 10 bd 0c 5e 11 3e d2 4e 3c 3e
       0.15158947 -0.035325866 0.14196032 0.18389443
000210 7a 14 40 3d 0e bd 75 3d 74 fb 61 3a a6 63 d6 bb
       0.046894528 0.05999475 0.0008620538 -0.0065426407
000220 73 92 26 bc 09 21 45 3d 24 83 e1 3d 10 b1 45 3d
       -0.010166752 0.048127208 0.11011341 0.048264563
000230 1e f7 c9 3b 78 f5 21 3d 84 5b d4 3d 74 5a bf bd
       0.006163492 0.039540738 0.10369018 -0.093434244
000240 8a dc 89 bd c3 4b 84 bc 3d ce 85 bd e5 1e 3f bd
       -0.067315176 -0.016149407 -0.065334775 -0.046660323
000250 97 74 f7 3d dd 4a db ba 95 55 17 bc 76 45 8a bd
       0.120827846 -0.0016730685 -0.009236713 -0.0675153
000260 71 4e 9c 3d 63 8f 18 3d fa d3 88 3c 05 ab 34 bd
       0.07632149 0.03724612 0.01670264 -0.04410841
000270 5a 61 3d bd 6a 29 47 3d 50 58 10 3c 77 51 a5 3d
       -0.04623542 0.04862348 0.008810118 0.08072179
000280 cb 16 3c bc a9 ec 80 3c 13 2f a6 3c ce e3 5d bd
       -0.011480044 0.015737848 0.020286119 -0.05417233
000290 43 23 9a bd f1 f3 1c 3e 21 32 0a 3d f8 1a f2 bc
       -0.07526257 0.15327431 0.033739213 -0.029553875
0002a0 80 01 65 bc ec d3 84 bd fc e1 bd 3d fd 32 fb 3d
       -0.013977408 -0.064857334 0.09271619 0.122655846
0002b0 9f 4e 8e bd af ac 84 bd 6a 4b 0c 3e a8 3d 09 3e
       -0.069485895 -0.06478249 0.13700643 0.13402426
0002c0 5f 1f 01 3d 43 ea 62 bd 3a 85 86 bd a4 48 1b 3e
       0.03152406 -0.05539919 -0.0656838 0.15164429
0002d0 59 6e bb 3d 81 ce 61 bc 8b 9a 9e 3b 29 8b a1 bc
       0.091519065 -0.0137821445 0.0048402003 -0.019719677
0002e0 96 fb f0 3d 7d ee ec 3d 78 81 03 bd 85 5a 3c 3d
       0.11766736 0.115689255 -0.032105893 0.045984764
0002f0 c0 7c 82 3d d1 a2 ff 3d 3d 88 b2 3d 19 f2 c1 3d
       0.063714504 0.12482227 0.08717392 0.094700046
000300 fb 67 b0 3c 1e af e2 bd 9b 24 e7 3d b5 f2 e0 bd
       0.021533957 -0.11068557 0.11286279 -0.10983793
000310 1c eb 21 3d 38 e4 f9 bd b7 a0 b4 bd 37 e4 8c ba
       0.03953086 -0.122017324 -0.088197164 -0.0010749166
000320 d5 d8 10 3d 36 60 cb 3d 92 e1 90 bd 9a e0 11 3d
       0.035363037 0.0993046 -0.07074274 0.035614587
000330 cb 1e b8 3d 3a 69 88 3d f8 42 ac 3c 40 ab 67 3c
       0.08990248 0.066606954 0.021028027 0.01413995
000340 8a 64 19 bd 10 25 da 3c 37 4b 9b bb ca a0 d5 3d
       -0.037449397 0.026629 -0.004739191 0.10431059
000350 22 24 ed bc 49 83 53 bb ca 86 b2 3d 70 e2 c9 bd
       -0.028947894 -0.0032274297 0.08717115 -0.09857643
000360 5b df 27 3d 92 e1 c8 bd 9a 98 ae bd 0c cc 93 bd
       0.040984493 -0.09808649 -0.085252 -0.07216653
000370 5f 25 b0 3d a2 60 5c bc ba ce d8 3d 44 97 97 3d
       0.08600878 -0.013450773 0.10586305 0.074018985
000380 f7 17 10 bd 50 e2 7f 3c ef 88 dd bc 52 e6 ce bd
       -0.035179105 0.015617922 -0.027042834 -0.10102524
000390 82 9f d6 3d b8 cb fe bd 2d d1 fa bd ec 84 1b 3d
       0.104796425 -0.124412 -0.12246928 0.03796856
0003a0 c8 79 37 3d 26 06 64 bd 42 db 75 3d 6c ae 90 3d
       0.044793874 -0.055669926 0.060023554 0.07064518
0003b0 c7 1b dc 3c 21 0f d3 3d ca ed 10 bd f5 12 b1 bc
       0.026868714 0.1030562 -0.035383023 -0.021615485
0003c0 4b a6 94 bd 09 d9 69 bc 2d da 49 bd a3 68 16 bd
       -0.0725828 -0.014272937 -0.049280334 -0.036720883
0003d0 51 22 91 bd 96 ee 90 bd 35 61 6c bc 80 83 92 bb
       -0.070866235 -0.07076757 -0.014427473 -0.0044712424
0003e0 06 d1 f7 bd 9c ec 76 3d f4 94 18 bd c9 c5 04 be
       -0.12100415 0.060284242 -0.037251428 -0.12966074
0003f0 4b 2b a3 bd 46 ad 9f 3d 53 d6 dc bd dd 13 cd bd
       -0.07967242 0.07796721 -0.107830666 -0.10013554

placing_layer.1.bias f4 [5]
000000 18 af 91 3d c0 f0 82 3c c3 79 2f 3e 91 cc fb 3b
       0.071134746 0.01598394 0.17136292 0.0076842983
000010 40 3d 38 bd
       -0.044980288

placing_layer.2.weight f4 [5, 64]
000000 10 1c 1e 3e 12 c5 ae bc 8b ca c9 3d 08 4e b4 3c
       0.15440392 -0.021334205 0.09853085 0.022009864
000010 d7 10 ce 3d 1b 5a 9d 3b 27 bf 4e 3e 33 8e 96 3c
       0.10061806 0.004802001 0.20190106 0.018378353
000020 51 eb 9e 3b 57 dc 23 bd a3 43 4a 3e a0 45 89 3d
       0.0048498292 -0.040005054 0.19752364 0.06702733
000030 9f 89 fb 3d e6 5f 0c 3b 4d 1b 96 3d 47 b4 07 3e
       0.122821085 0.0021419465 0.07329426 0.13252364
000040 0a 41 0d 3d 61 6f 07 3e 67 73 a6 3d 67 32 d4 3d
       0.034485854 0.13226081 0.0812748 0.10361176
000050 5c ab 34 3e c5 07 3f 3e f5 71 c1 3d 20 99 ee 3d
       0.17643493 0.18655308 0.09445564 0.116503
000060 9e f6 bc 3d 08 63 d9 3d 25 da 12 3e 04 86 3a 3e
       0.09226726 0.10614592 0.14341028 0.18215185
000070 28 c4 6e 3d ab 0b 25 3d d8 69 31 bd 2f 84 df bc
       0.058292538 0.04029433 -0.04331383 -0.02728471
000080 e6 03 b6 3d ba b8 08 3e 52 a7 c0 3d 7d 2b 3a 3e
       0.08887462 0.13351718 0.09406914 0.18180652
000090 1f f0 d4 3c 9c 02 02 3e ad b6 7e 3b 4c b0 2d 3e
       0.025993405 0.12696308 0.0038866207 0.16961783
0000a0 c4 bd 8c 3d 35 c8 2c 3d 1a e3 d8 bb 59 77 ba 3d
       0.068721324 0.04218312 -0.0066188695 0.09104795
0000b0 a7 05 39 3e 53 8b 2c bd 8e 2e 19 bd 7f 7a 23 3e
       0.18068562 -0.042125057 -0.037397914 0.15964697
0000c0 53 99 50 bd b4 09 b1 3d 85 d3 7a 3d ff c1 12 3e
       -0.05092747 0.08644429 0.061236877 0.14331816
0000d0 5b 42 b2 3c ad ed 00 3e bb e6 3e 3e 70 fb bb 3d
       0.021760156 0.12590666 0.18642704 0.09178817
0000e0 8d 25 ac 3d a6 79 1f bd 4d 85 9e 3d 01 6f e3 3d
       0.084056 -0.038934372 0.07740269 0.11105157
0000f0 f0 4c d7 3d b3 15 bd 3d da 30 8f 3c c6 7e 72 bb
       0.105127215 0.092326544 0.017479349 -0.0037001832
000100 7d 2f cf bc c1 f6 f8 bc d2 98 94 bd 57 71 e8 bd
       -0.025291199 -0.030391099 -0.07255711 -0.11349743
000110 89 9a c8 bd f5 f4 bf bc af 47 32 bc 3c 80 3d 3d
       -0.097951 -0.023432234 -0.0108813485 0.046264872
000120 f5 0d b9 3d ca fa 04 bc 6c d4 66 3c c1 de f4 bd
       0.09035865 -0.008116433 0.014088731 -0.119565494
000130 56 59 c4 bd 22 b2 c1 3d 78 a8 61 3c 04 04 1b 3d
       -0.09587352 0.09457804 0.013773076 0.037845626
000140 fd 85 b2 3c 1e 28 93 bd 05 79 0b bd 6c 63 d7 3d
       0.021792406 -0.07185386 -0.03405096 0.1051701
000150 fa d9 74 bd e1 09 64 3d 24 13 64 bd 58 1d 89 bd
       -0.05977819 0.055673484 -0.055682316 -0.0669505
000160 99 5e 37 bd 12 22 a7 bd 8c f7 34 bd e8 99 6b bd
       -0.04476795 -0.08160795 -0.04418139 -0.057519823
000170 0b 40 93 bd 31 16 e3 bd 76 a5 49 bd 31 09 82 bd
       -0.071899496 -0.11088217 -0.04923006 -0.06349409
000180 a8 06 5e bd a5 ec a9 bd af d7 0a bd a1 9a 53 bd
       -0.054205567 -0.082970895 -0.0338971 -0.051661137
000190 58 51 09 bd 40 ce 6f bc a0 37 d3 bd 63 5a 56 3d
       -0.03352484 -0.014636576 -0.10313344 0.052332293
0001a0 a4 b3 ca bc e9 83 92 bd 87 ae 28 3d e6 ba d0 3d
       -0.024743862 -0.07154066 0.041182067 0.10191898
0001b0 29 54 40 3c 7f 73 b2 bb e1 e1 30 bd b7 cb ca 3c
       0.011738815 -0.005445897 -0.043184165 0.024755342
0001c0 32 42 6a 3d 56 35 48 3d f7 46 1f bc 57 8d be bd
       0.057192035 0.04887899 -0.009721509 -0.09304302
0001d0 2a 4d fd bd e6 0f 55 3d 8a 6b 7f 3d 15 f4 e4 3d
       -0.123682335 0.052017115 0.062358417 0.111793675
0001e0 c9 17 28 3d 52 08 f2 bd a3 a9 7f bc 31 35 da 3d
       0.04103831 -0.11817993 -0.015604409 0.10654677
0001f0 8b 5c 88 bb ad f9 b2 3d db ef 03 be 0e c2 80 bd
       -0.0041614226 0.08739028 -0.12884466 -0.06287013
000200 0b b4 f3 3d dd 52 7d bd bd bd bb 3d ae cc 86 bd
       0.11899575 -0.061846603 0.09167049 -0.06582008
000210 ea 85 e1 3d 0c b0 25 3d 29 97 c2 3d 2b d5 9e 3d
       0.1101187 0.040451095 0.09501488 0.07755502
000220 d5 93 46 3d 33 97 cd bd a5 48 2d 3e bc b0 03 3e
       0.048480827 -0.100386046 0.16922243 0.12860388
000230 4f 19 cb 3c c4 ff a1 3c 6e 98 74 3d 79 57 46 bd
       0.024792342 0.019775279 0.05971568 -0.048423264
000240 38 79 a7 ba c1 4b d7 bd 87 20 9b 3c 39 71 b0 3c
       -0.0012777215 -0.10512496 0.018936409 0.021538364
000250 70 4a 39 3d 59 07 ef 3d 89 52 02 3e 69 e4 01 3e
       0.045237005 0.11671323 0.12726797 0.12684788
000260 25 26 9b bd 4d f8 d7 3d c8 10 18 3e 81 2b 18 bd
       -0.07575635 0.105454065 0.14850152 -0.037150864
000270 55 75 f3 3d b4 3e 86 3c b3 41 a1 3b 66 ed 04 3e
       0.11887614 0.016387321 0.004921162 0.12981185
000280 7b c2 cb 3b 49 22 51 3d a4 e4 e4 3d 3e 8f f8 3c
       0.0062182522 0.051058087 0.11176422 0.03034174
000290 e9 4a b8 bd 43 03 71 3d 21 9d 21 3d d2 54 5d bd
       -0.08998663 0.058841 0.03945649 -0.05403597
0002a0 50 d3 67 3d 8f 2d db 3d a5 7f a3 3d d5 3f 92 3d
       0.056598008 0.10702049 0.07983331 0.07141081
0002b0 b4 a0 01 3e e3 d9 22 3e 53 ec fd 3d 8f ce 0b bd
       0.1265896 0.1590343 0.12398591 -0.034132537
0002c0 19 81 07 3c 13 f2 cb 3d cb f3 dd 3c a6 df 4e bd
       0.008270525 0.09958281 0.027093789 -0.050506257
0002d0 16 01 96 bd 7c 9c 72 3d fb b6 91 bd ce e1 9c 3c
       -0.07324426 0.059231266 -0.07114979 0.01915064
0002e0 23 7d 1b 3e d2 c3 07 3d 28 b5 79 bd 68 9e 69 bd
       0.15184455 0.033145733 -0.06096378 -0.057035834
0002f0 af 86 bb bc 28 18 ef 3d c8 4d bb bc 57 48 db 3d
       -0.02289137 0.11674529 -0.022864237 0.10707157
000300 b7 e7 0a be 26 7b db bd f4 bf 03 3d 85 0f 43 bd
       -0.13564955 -0.10716848 0.032165483 -0.047622222
000310 df 5a 93 3d 05 76 c2 bd fb 4a dc 3d 41 7f bb 3c
       0.07195067 -0.09495167 0.10756489 0.022887828
000320 15 af d2 bd 79 2f 21 bc 0f d2 3a 3d 5b ce d1 bd
       -0.102873005 -0.0098379785 0.045610484 -0.10244437
000330 f6 21 84 bd 13 d1 62 3c f7 c1 1f bd f7 5b 23 3d
       -0.0645179 0.0138437925 -0.03900334 0.039882626
000340 c6 44 e8 bd 48 9f 40 3c 1d 1b 03 bd 33 bf cf 3b
       -0.113412425 0.011756726 -0.03200828 0.0063399314
000350 8f e4 21 3d e3 7a 42 3c f8 c4 a2 3d 5d ca 15 bd
       0.03952461 0.011870119 0.07947725 -0.03656994
000360 91 97 27 3d 34 53 07 3d 36 87 d8 bd 25 26 cd 3d
       0.04091603 0.033038333 -0.105726644 0.10017041
000370 26 cf 3f bd 3b df de 3c 2d 6b e6 3c 97 21 ea 3b
       -0.04682841 0.027206054 0.028127277 0.0071451175
000380 69 76 00 be 7f 98 cd bb b3 c9 31 3d 32 75 b9 bd
       -0.1254517 -0.0062742825 0.043405246 -0.09055556
000390 ac 63 43 3d 0f 98 09 be 87 18 9c 3d b8 15 c1 3d
       0.047702476 -0.13436912 0.07621866 0.09427971
0003a0 03 1a 5c bd 5d b3 9d bc b0 2b b1 bc ca 09 92 bd
       -0.053735744 -0.019250566 -0.021627277 -0.07130773
0003b0 11 d1 01 be b4 c1 14 3c 87 87 82 3c b5 8c cf bc
       -0.12677409 0.009079386 0.015933765 -0.025335649
0003c0 a2 37 19 3d 10 39 53 bd 78 58 f7 bd c9 f1 a4 3d
       0.03740657 -0.05156809 -0.12077421 0.08053929
0003d0 ec a9 04 bc 29 92 8a 3d 04 55 fb bd 14 07 10 3d
       -0.008097153 0.06766159 -0.12272075 0.035163
0003e0 e5 08 c4 3d 01 bd 98 bd 1a f0 6e bd 51 30 00 be
       0.09572009 -0.07457925 -0.058334447 -0.12518431
0003f0 fb 30 f9 3b df a8 3f 3d 07 8b ab bd 9d f2 09 be
       0.007604716 0.046791907 -0.08376127 -0.13471456

placing_layer.2.bias f4 [5]
000000 bd 4f 17 3e fc db 40 3d 0d 38 e5 3c c4 9b 2a 3c
       0.14776511 0.047084793 0.027980829 0.010413114
000010 cc a3 bb bd
       -0.09162101
