auto_src/log/z3exp_1/critic_learn/epoch66/imitation_learning_env-20240814-042102/bc_ddpg_actor.pth (torch, 275774 bytes, 108 tensors)

fc.0.weight f4 [64, 620]
000000 69 8e 79 bb 90 6a ae 3c 13 52 d1 bc 68 5f 9b bc
       -0.0038079268 0.021291047 -0.025551831 -0.018966392
000010 d8 77 c6 b9 08 c9 cf 3c ec f2 00 3d c7 ca 51 3d
       -0.00037854793 0.025364414 0.03148167 0.051218774
000020 52 f6 1f 3c b8 89 00 3d 8c ba 75 bc 29 f6 ce bb
       0.009763317 0.03138134 -0.0149980895 -0.0063159657
000030 80 fc 03 bd 75 59 09 bd 61 fb 9f bb 73 e9 a4 bc
       -0.032223225 -0.03353258 -0.0048822616 -0.020130849
000040 f0 2a 2e 3d 55 8a 2b 3d 5e 6b d3 bc 9a 11 ff ba
       0.042521417 0.04187997 -0.025808033 -0.0019460202
000050 9c 4a 66 3c 48 4a c9 3c e5 84 82 bc 0a 82 04 3d
       0.014055874 0.024571553 -0.01593251 0.032350577
000060 fc ef 35 3c b7 ff db 3c 78 8b f0 3c 5a 4d f6 bc
       0.01110458 0.026855333 0.029363379 -0.030066181
000070 42 c6 ce bc 10 fb 90 bc 1b ee c0 bc 40 12 06 3d
       -0.025241021 -0.01769784 -0.023551038 0.03273225
000080 66 75 6e bb 23 91 2f bc 45 ea f6 bc ff 18 bd bc
       -0.0036385893 -0.010715756 -0.030141005 -0.023083208
000090 e6 2b 9c bb f9 28 68 3d 7d 54 05 3d ea 34 1f 3d
       -0.0047659753 0.0566797 0.032551277 0.038868822
0000a0 04 d0 5a 3c f8 35 78 39 40 5c b8 3c 81 7e 4e bd
       0.013355259 0.00023671228 0.022504926 -0.050413612
0000b0 73 7b bf bc cb 3b 49 bc a0 a6 f9 3c 6e 81 91 3c
       -0.023374295 -0.012282322 0.03047496 0.017761912
0000c0 eb fd 43 bc 0c fc 01 3c 8a 6b db 3c 83 88 35 3d
       -0.011962394 0.007933628 0.026784677 0.04431964
0000d0 b9 d7 2a 3c 5e cf 99 3c 40 87 99 3c 4a 81 be 3b
       0.010427409 0.018775638 0.01874125 0.0058137523
0000e0 e9 4d c8 3c 77 d7 63 bc 35 b6 2e bb 98 10 81 3a
       0.024451213 -0.013906351 -0.0026658897 0.0009846864
0000f0 94 72 1d 3c 5f aa c4 3c f8 09 98 bc fe 06 26 3c
       0.009609837 0.02400702 -0.018559441 0.010133503
000100 d0 3b ac 3c 94 b6 2e 3c 2c 9b 67 3c d2 84 97 3c
       0.021024615 0.010663647 0.014136117 0.01849595
000110 72 72 18 3d ec f2 57 3d b7 98 14 bd eb 6b c8 bc
       0.03721852 0.052721903 -0.036278453 -0.024465522
000120 15 a7 ab 3c 5d bf 06 3d d8 ef 8b 3c a4 92 26 3d
       0.020953694 0.032897342 0.01708214 0.04066719
000130 55 82 a2 bc 85 c5 2f bd 6e d8 c9 3b 2f 63 08 bc
       -0.019837538 -0.04291298 0.0061598336 -0.008324428
000140 bd c0 9f bc 1c 2b 3d 3d af a9 49 3d b5 c0 81 bc
       -0.019501084 0.04618369 0.04923409 -0.01583896
000150 f2 8e f0 3c 40 9b 72 bc 8b d6 cc bc ff 92 95 bc
       0.029365037 -0.014807522 -0.025004646 -0.01825857
000160 18 7c 1b bb af 27 8c bc 75 42 c8 3c ce a3 e0 3c
       -0.0023725089 -0.017108766 0.024445752 0.027421858
000170 2a 7f 3d 3d 7a 1e 94 3c 10 84 13 bd 1e b4 ed bc
       0.04626385 0.018080939 -0.036014616 -0.02901655
000180 a0 56 21 3d 97 46 a1 3c c8 c3 8b bc c3 85 42 bc
       0.039389253 0.01968698 -0.01706113 -0.011872712
000190 af 85 60 3d f4 76 5e 3d 98 77 b4 3b 86 43 71 3b
       0.05481499 0.05431266 0.0055074207 0.0036813929
0001a0 50 c9 53 bc c3 fb 3e bc af ec d6 bc 83 28 42 bd
       -0.012926415 -0.011656704 -0.026235906 -0.047401916
0001b0 26 5c 21 bc f8 f5 be 39 ff 21 cb bc aa 69 d7 3c
       -0.00984863 0.00036422885 -0.024796484 0.026295502
0001c0 c5 b1 c3 bc 51 7b ca 3c 02 76 ee 3c e0 dc 1f bd
       -0.023888478 0.024717005 0.029109005 -0.039029002
0001d0 71 2e 00 3c 67 46 1c 3c 73 91 40 bc 7d 70 45 3c
       0.0078235725 0.00953827 -0.011753428 0.012050745
0001e0 29 6d 19 3d af b7 e0 3c b2 52 8b 3b d8 71 3b 3d
       0.03745762 0.027431337 0.0042518014 0.045762867
0001f0 6b 82 9f bc 01 27 ab bc 5d dc 67 3b 20 c6 68 bc
       -0.019471368 -0.020892622 0.003537915 -0.014207393
000200 1d 95 56 3b 4f ee c5 bc 49 1b 87 bc 9c d9 50 3c
       0.0032742687 -0.024161486 -0.016492503 0.012747195
000210 0b f8 85 bc 28 dd 5b bb 4e 67 28 3d 69 a3 1a bc
       -0.016353628 -0.0033548567 0.041114144 -0.009438374
000220 fd 70 c9 3c 6a 91 b2 3c 7f 2f 96 3c fa db 3c 3d
       0.02459001 0.021797854 0.018333195 0.046108223
000230 d3 c5 42 3d 5b 58 19 3d ae e1 4a 3d 56 7c 06 3c
       0.04755194 0.037437778 0.04953163 0.008208355
000240 b1 f2 97 bc 08 c6 22 3b 4e 23 14 3d 0c 06 00 3b
       -0.018548341 0.0024837274 0.03616648 0.0019534854
000250 de 54 d4 3b 69 6f 2a bc 03 ff ba bc df c0 ee bc
       0.0064798435 -0.010402539 -0.022826677 -0.029144702
000260 b4 fa 21 bc c6 89 05 3d 9e 17 b1 3c d7 b0 6c bd
       -0.009886432 0.032602094 0.021617707 -0.057785835
000270 c8 64 c8 3c c3 d4 c4 bc 38 46 d1 bc c3 81 b8 bc
       0.024462119 -0.024027234 -0.025546178 -0.022522813
000280 6c ab 83 38 98 f4 08 bc 5d e3 0d bd a7 ca 25 bd
       6.2784966e-05 -0.008359097 -0.03464066 -0.040476467
000290 ad 05 3c bc ce d5 65 3b b6 e6 6b bc 03 35 3a 3c
       -0.011475963 0.0035070064 -0.0143982675 0.011365178
0002a0 ec 73 1f bd 62 df 33 3c 7c c8 0d 3d 9f 36 ac bc
       -0.03892891 0.010978552 0.034615025 -0.02102214
0002b0 fa 2a c4 3c 52 ff c7 3b a8 0b 14 bd 53 64 1c 3d
       0.023946274 0.0061034346 -0.03614393 0.038181614
0002c0 8f 6f 93 3c b4 42 39 38 2d 0f 5b 3d 07 cd 21 bc
       0.017997531 4.416956e-05 0.05348127 -0.0098755425
0002d0 79 05 84 3c ba 33 67 3c 03 f6 06 3d 35 31 2f bc
       0.01611589 0.014111454 0.03294946 -0.010692884
0002e0 5b 87 ec 3b bb 4d e0 3c ba 9b fe bb d0 aa 38 bb
       0.007218284 0.027380815 -0.007770029 -0.0028177984
0002f0 40 f9 0a bd 7c 8f ff 3c 27 3b 37 3d cc 2a bb 3c
       -0.03392911 0.031196348 0.044734146 0.022847556
000300 cb bd 0f bd 35 9a f5 3b 25 d1 28 bd b5 1e 76 bb
       -0.03509311 0.0074951896 -0.04121508 -0.0037554924
000310 db 4d 3b bb 5d 7b 05 3d cc ac 08 bb 01 ca 98 3c
       -0.002858034 0.03258835 -0.0020854948 0.01865101
000320 32 e6 cf 3a b4 f9 fe 3c a1 2c bf bc d8 c3 af bc
       0.001586145 0.031124927 -0.02333671 -0.02145569
000330 31 4c cf bb 31 16 a7 3c c2 b8 ca bc cc 1d 62 3c
       -0.0063262214 0.020396324 -0.024746303 0.013801049
000340 2e 85 0d 3d bc 72 9f bc c4 a7 38 3c cd ab 5a 3c
       0.03455084 -0.01946389 0.011270467 0.013346625
000350 ff 73 d0 3c 13 f3 93 3a ea 4a 36 3a 73 28 cd 3b
       0.025445936 0.0011287652 0.0006953912 0.0062609254
000360 fc 41 69 bc 2f 29 e8 bb 28 64 70 3d 43 84 62 bc
       -0.014236923 -0.0070849876 0.058689266 -0.013825479
000370 85 c2 21 3c 15 2d a2 3c 8a 91 f9 3c 89 ec c5 ba
       0.009873037 0.019796887 0.030464906 -0.00151004
000380 34 13 21 bc fc d9 05 3d b0 b0 a6 bc 27 41 1e 3c
       -0.009831239 0.03267859 -0.020347923 0.009659088
000390 0e fe 47 3c b6 53 a3 3b b9 64 09 3c 7f 02 98 3c
       0.012206567 0.0049843444 0.008385831 0.018555878
0003a0 76 90 4c 3c 1b 6f e8 3c e0 08 5e 3c fb b4 08 bd
       0.012485614 0.028373292 0.013551921 -0.03337572
0003b0 d0 f6 1d 3d a9 41 ac bc e1 70 1e bb fe 04 01 3d
       0.038565457 -0.021027403 -0.0024176168 0.0314989
0003c0 af 57 eb 3c 6c f7 67 3d 67 60 02 3c bf 79 4a 3b
       0.028728334 0.056632444 0.007957554 0.003089532
0003d0 be c9 23 3d 64 82 0d bd 4e 8a 81 3c f7 db 2e bd
       0.03998732 -0.03454818 0.01581302 -0.042690244
0003e0 e1 f2 25 bc ef fa 94 bc 47 8e 6b bc 49 85 45 3c
       -0.010128708 -0.01818606 -0.014377183 0.012055703
0003f0 1f d2 20 3d ef bf bc bb bf 49 b5 bc d6 45 57 bc
       0.039262887 -0.005760185 -0.022129891 -0.013139209

fc.0.bias f4 [64]
000000 55 60 e3 3c 90 98 77 bc c9 00 71 bc ec 8b fb 3c
       0.027755896 -0.015112057 -0.01470966 0.030706368
000010 2b aa e6 bb 3d 4d 21 bd 7c ef 16 bd 5c 8c 1e 3b
       -0.0070393286 -0.0393803 -0.036849484 0.0024192547
000020 5d 06 15 3d cd 42 b1 bc 7a 26 29 3c 5e 70 19 bd
       0.03638302 -0.021638298 0.010324115 -0.037460677
000030 08 c0 07 3d a2 f3 82 3c b1 59 0d 3c 90 8d d3 3c
       0.03314212 0.015985314 0.008627341 0.025824338
000040 a7 fe 1d 3d 10 32 5e ba 05 cb 1f bd a9 9a 13 3d
       0.038572934 -0.0008476088 -0.039011974 0.036036167
000050 3b 4b cb 3b 94 88 ca bc f2 7a e8 3c 73 a3 ce bc
       0.0062040365 -0.024723329 0.028378937 -0.025224423
000060 9a 4d c3 3c 75 65 06 3d a5 48 a1 3c bc ac ba 3b
       0.023840714 0.0328116 0.01968796 0.005696861
000070 87 c4 5a 3c 9f 3c 3d bc ea f6 9c bc 4c 84 1e 3d
       0.01335252 -0.011550098 -0.019160707 0.038700387
000080 5e 50 51 ba 3f c5 e1 bb 8c df 48 bc 46 22 8f 3b
       -0.0007984693 -0.0068899686 -0.012260329 0.0043680994
000090 3b 5f b5 3c 78 27 d2 3a e4 57 93 3c c1 2c 9e bc
       0.022140136 0.0016033491 0.017986245 -0.01930845
0000a0 ab 1f c7 3c 34 15 af 3c f9 40 a9 bc 5f b6 5f bc
       0.024307093 0.021372415 -0.020660864 -0.0136543205
0000b0 82 af fb bc 65 94 e6 3c ac 22 ab ba f6 fd 05 3c
       -0.030723337 0.028146932 -0.0013056598 0.008178225
0000c0 a6 da 1f bc c6 3e a9 ba 48 53 a9 bc 23 a7 44 3c
       -0.00975672 -0.0012912385 -0.020669594 0.012002739
0000d0 24 8c 14 bd 1f 76 a8 bc cc 9c 0a bd 16 c3 cb 3c
       -0.03626646 -0.020564137 -0.03384094 0.024873298
0000e0 83 ac d4 bc ac f1 80 bc 33 b0 50 3b 60 b1 38 3b
       -0.025961166 -0.015740238 0.0031843304 0.0028181896
0000f0 4f d6 48 bc 07 bf 6b 3c 6c 61 ac bc 82 91 47 3c
       -0.012258126 0.014388806 -0.021042548 0.012180688

fc.2.weight f4 [64]
000000 51 33 83 3f 00 00 80 3f 33 01 83 3f 00 00 80 3f
       1.0250036 1.0 1.0234741 1.0
000010 62 cc 82 3f 00 00 80 3f 20 f9 82 3f 00 00 80 3f
       1.0218623 1.0 1.0232277 1.0
000020 00 00 80 3f de 03 83 3f 00 00 80 3f 00 00 80 3f
       1.0 1.0235555 1.0 1.0
000030 0a 18 82 3f 00 00 80 3f 38 32 83 3f c5 27 83 3f
       1.0163586 1.0 1.02497 1.0246512
000040 cd 5c 83 3f 00 00 80 3f 00 00 80 3f 00 00 80 3f
       1.0262696 1.0 1.0 1.0
000050 00 00 80 3f 00 00 80 3f 00 00 80 3f 00 00 80 3f
       1.0 1.0 1.0 1.0
000060 00 00 80 3f 00 00 80 3f 00 00 80 3f 07 18 83 3f
       1.0 1.0 1.0 1.0241708
000070 36 1b 83 3f 9f f5 82 3f 00 00 80 3f 54 19 83 3f
       1.0242679 1.0231208 1.0 1.0242105
000080 00 00 80 3f 9b 85 83 3f 00 00 80 3f 9c f8 82 3f
       1.0 1.0275148 1.0 1.023212
000090 86 bf 82 3f 00 00 80 3f 00 00 80 3f 00 00 80 3f
       1.0214698 1.0 1.0 1.0
0000a0 61 82 83 3f 00 00 80 3f 00 00 80 3f 27 7b 83 3f
       1.0274163 1.0 1.0 1.0271958
0000b0 24 22 83 3f 00 00 80 3f e3 e4 83 3f 00 00 80 3f
       1.0244794 1.0 1.0304226 1.0
0000c0 ee ab 83 3f 00 00 80 3f b1 b3 83 3f 00 00 80 3f
       1.0286844 1.0 1.0289212 1.0
0000d0 41 33 83 3f 00 00 80 3f 00 00 80 3f d8 38 83 3f
       1.0250016 1.0 1.0 1.0251722
0000e0 00 00 80 3f 00 00 80 3f 70 66 83 3f cd e8 82 3f
       1.0 1.0 1.0265636 1.0227295
0000f0 00 00 80 3f 00 00 80 3f 00 00 80 3f 00 00 80 3f
       1.0 1.0 1.0 1.0

fc.2.bias f4 [64]
000000 0d c5 2f 3d 77 f8 82 3d 2c c1 ce bb 51 ba 44 3d
       0.04291253 0.06395047 -0.006309649 0.048029248
000010 7d ea 47 3d 90 0d 81 3d 7e 30 70 bd df 51 7b bd
       0.04880761 0.06301415 -0.058639996 -0.061357375
000020 e7 4c 88 3d 28 8d 8d 3c ff 4d 53 3d 1a ba 7f 3d
       0.06655293 0.017279223 0.051588055 0.06243334
000030 16 94 0c 3d af dd 85 3d ff a8 41 3d 2f e6 39 3d
       0.034320913 0.065364234 0.047280308 0.045385536
000040 13 80 29 3d 38 b8 84 3d ed 34 81 bd 7c 54 85 bd
       0.041381907 0.064804494 -0.06308923 -0.06510255
000050 04 a3 77 bd 60 5b 76 bd a1 f0 81 bd 9c a3 81 bd
       -0.0604582 -0.060145736 -0.063447244 -0.06330034
000060 1f cb 7a 3d 1f c9 7d 3d a2 f9 85 3d 70 b5 03 bd
       0.061228868 0.061959382 0.06541754 -0.032155454
000070 09 4f 65 3d ec f7 80 bd ca f2 87 bd eb c6 63 3d
       0.055983577 -0.06297287 -0.06638105 0.055609625
000080 40 26 81 bd 57 90 6f 3d cd 2c 70 bd 32 d3 88 bd
       -0.06306124 0.058487263 -0.058636475 -0.06680907
000090 de f0 4a bd 7d 0e 68 3d f0 59 83 3d 89 86 79 bd
       -0.049546115 0.056654442 0.064136386 -0.06091932
0000a0 06 15 71 3d ab ea 86 3d 30 35 79 3d e2 7d 6f 3d
       0.05885794 0.06587728 0.06084174 0.05846966
0000b0 bf 0b 7d 3d dd d5 42 bd 69 7f 59 3d 70 9b 86 bd
       0.06177878 -0.047567237 0.053100023 -0.06572616
0000c0 1e 9a 42 3d fe ca 5f bd 22 c0 81 3b 96 be 59 bd
       0.04751026 -0.054636948 0.0039596716 -0.053160273
0000d0 29 9e e3 bc b5 5e 7f bd 51 d0 81 3d 93 9f 6d bd
       -0.027785378 -0.06234618 0.06338561 -0.05801351
0000e0 01 d1 73 3d d8 a6 88 3d b6 dc 32 bd 03 2a fd bc
       0.059525494 0.06672448 -0.043667518 -0.030903822
0000f0 a6 00 7b 3d 05 7d 74 3d 83 60 86 bd 8f 95 80 3d
       0.061279915 0.05968954 -0.06561377 0.06278526

fc.2.running_mean f4 [64]
000000 9b 6e cf 46 99 02 35 21 c0 b7 74 46 cd 67 41 27
       26551.303 6.1328623e-19 15661.9375 2.68404e-15
000010 48 ae 4c 46 00 00 00 00 f4 e4 b8 46 00 00 00 00
       13099.57 0.0 23666.477 0.0
000020 26 8f 6a 20 fa e2 53 46 00 00 00 00 00 00 00 00
       1.9867935e-19 13560.744 0.0 0.0
000030 b2 6a a5 46 00 00 00 00 3c db 06 47 f1 12 69 45
       21173.348 0.0 34523.234 3729.1838
000040 65 ab 9d 45 00 00 00 00 00 00 00 00 00 00 00 00
       5045.4243 0.0 0.0 0.0
000050 00 00 00 00 00 00 00 00 00 00 00 00 00 00 00 00
       0.0 0.0 0.0 0.0
000060 00 00 00 00 00 00 00 00 00 00 00 00 5a a0 be 44
       0.0 0.0 0.0 1525.011
000070 c0 29 d3 46 67 9f f2 45 00 00 00 00 58 62 f5 46
       27028.875 7763.9253 0.0 31409.172
000080 00 00 00 00 87 6a de 44 00 00 00 00 e6 32 cb 46
       0.0 1779.329 0.0 26009.45
000090 b5 29 ae 46 00 00 00 00 00 00 00 00 00 00 00 00
       22292.854 0.0 0.0 0.0
0000a0 84 4b f5 46 00 00 00 00 00 00 00 00 91 f0 1b 47
       31397.758 0.0 0.0 39920.566
0000b0 b6 00 b2 46 00 00 00 00 97 c7 e8 46 00 00 00 00
       22784.355 0.0 29795.795 0.0
0000c0 a4 9f 4d 47 00 00 00 00 27 41 0c 47 00 00 00 00
       52639.64 0.0 35905.152 0.0
0000d0 1a 7e a6 46 00 00 00 00 00 00 00 00 6d 76 04 46
       21311.05 0.0 0.0 8477.606
0000e0 00 00 00 00 00 00 00 00 9d 16 71 46 95 91 01 47
       0.0 0.0 15429.653 33169.582
0000f0 00 00 00 00 00 00 00 00 00 00 00 00 00 00 00 00
       0.0 0.0 0.0 0.0

fc.2.running_var f4 [64]
000000 7a e0 fc 47 46 de a6 1c b1 73 55 47 46 de a6 1c
       129472.95 1.1042415e-21 54643.69 1.1042415e-21
000010 b3 b6 ee 47 46 de a6 1c 3a db 11 48 46 de a6 1c
       122221.4 1.1042415e-21 149356.9 1.1042415e-21
000020 46 de a6 1c ae 82 fd 46 46 de a6 1c 46 de a6 1c
       1.1042415e-21 32449.34 1.1042415e-21 1.1042415e-21
000030 11 19 00 48 46 de a6 1c 62 ee a6 47 6e 61 14 47
       131172.27 1.1042415e-21 85468.766 37985.43
000040 cd a6 c2 47 46 de a6 1c 46 de a6 1c 46 de a6 1c
       99661.6 1.1042415e-21 1.1042415e-21 1.1042415e-21
000050 46 de a6 1c 46 de a6 1c 46 de a6 1c 46 de a6 1c
       1.1042415e-21 1.1042415e-21 1.1042415e-21 1.1042415e-21
000060 46 de a6 1c 46 de a6 1c 46 de a6 1c 75 e4 9d 47
       1.1042415e-21 1.1042415e-21 1.1042415e-21 80840.914
000070 dc e1 80 47 bf db 58 47 46 de a6 1c f5 04 aa 47
       65987.72 55515.746 1.1042415e-21 87049.914
000080 46 de a6 1c c1 ae d8 47 46 de a6 1c 45 0b 93 47
       1.1042415e-21 110941.51 1.1042415e-21 75286.54
000090 e8 fd e2 47 46 de a6 1c 46 de a6 1c 46 de a6 1c
       116219.81 1.1042415e-21 1.1042415e-21 1.1042415e-21
0000a0 39 19 34 47 46 de a6 1c 46 de a6 1c 35 44 cc 47
       46105.223 1.1042415e-21 1.1042415e-21 104584.414
0000b0 3e 50 42 47 46 de a6 1c a0 55 1a 47 46 de a6 1c
       49744.242 1.1042415e-21 39509.625 1.1042415e-21
0000c0 e7 3d 55 48 46 de a6 1c 31 a0 4a 47 46 de a6 1c
       218359.61 1.1042415e-21 51872.19 1.1042415e-21
0000d0 03 84 9c 47 46 de a6 1c 46 de a6 1c 2b e7 b5 47
       80136.02 1.1042415e-21 1.1042415e-21 93134.336
0000e0 46 de a6 1c 46 de a6 1c 49 e0 0f 47 f0 39 ec 47
       1.1042415e-21 1.1042415e-21 36832.285 120947.875
0000f0 46 de a6 1c 46 de a6 1c 46 de a6 1c 46 de a6 1c
       1.1042415e-21 1.1042415e-21 1.1042415e-21 1.1042415e-21

fc.3.weight f4 [64, 64]
000000 8b 27 0d 3e 11 2a 06 3d a5 11 03 be 6a 5c 05 3e
       0.13784616 0.03275496 -0.127997 0.13023534
000010 c1 c2 10 3e 8c a8 00 3e 8e bb 5a bd fd 51 15 bd
       0.14136793 0.12564296 -0.053401522 -0.036455143
000020 08 d9 1c 3e 61 ee 89 3d ae 2e 60 3d 77 14 b9 3d
       0.15317166 0.0673492 0.054732017 0.090371065
000030 3a 71 b1 3d e0 2e 48 bd 27 b7 36 3d 45 d0 4e 3d
       0.086641744 -0.04887283 0.04460826 0.05049159
000040 e4 8e e5 3d 6b 2a 20 3a 55 49 a5 3d fa 68 f7 bc
       0.11208895 0.00061098364 0.080706276 -0.030201424
000050 87 9d 8b 3b b3 3c 63 bc 40 73 b0 bd 83 a9 c7 3d
       0.004260722 -0.013869452 -0.08615732 0.09749129
000060 0c 86 c6 bd c0 97 b5 bd 17 46 8a 3d 5d 55 11 3d
       -0.09693536 -0.08866835 0.0675165 0.0354818
000070 81 1f 09 bd 59 70 16 3d c1 1e 80 bd db eb b9 3d
       -0.03347731 0.036728237 -0.06255866 0.09078189
000080 ce 0e a7 bd 86 37 9b 3d 3e 80 13 be 1f b3 e0 3c
       -0.08157121 0.0757895 -0.1440439 0.027429162
000090 3e 06 e4 3d f7 52 68 3d 0b 53 29 bb 82 3f bb 3d
       0.11134003 0.056719746 -0.002583685 0.091429725
0000a0 e7 3f 0e 3d a6 38 ae bd 6f e9 8c 3d 0e 7e 56 bc
       0.03472891 -0.085068986 0.068804614 -0.013091577
0000b0 7e 08 ad bd 9c 2d c9 3d ed 69 b1 3c b1 28 fe bd
       -0.084488854 0.098231524 0.021656955 -0.12410105
0000c0 fd 57 f2 3d 8a ec 1d 3d 0e 47 b9 bd 6a b0 d0 3b
       0.11833189 0.03855566 -0.09046756 0.0063686864
0000d0 60 ae ed bc 51 eb 75 bc ca cd 31 bd 07 51 19 3e
       -0.029013813 -0.015009717 -0.043409146 0.14972316
0000e0 4b c7 5a bd ac 27 1a 3e b6 2b 55 3d 4c 9b 9e 3d
       -0.053412717 0.15054196 0.05204364 0.07744464
0000f0 94 68 f7 39 55 f0 af 3d 69 3d b7 3d cd f5 53 3c
       0.00047189428 0.085907616 0.0894726 0.012937021
000100 10 cc 01 be 66 8c 0b 3e 49 f2 02 be ae 1d db 3d
       -0.126755 0.13627777 -0.12787737 0.1069902
000110 88 ec c2 bc 05 52 d7 3c d8 a5 c7 3d 5b e5 84 3b
       -0.023794428 0.026284227 0.09748429 0.0040556616
000120 b1 61 4d bd 4b 7f 14 bd d0 99 6e 3d a8 3a ea 3c
       -0.050141994 -0.03625421 0.058252156 0.028592423
000130 c6 a3 f3 3d 66 7c 5d bd 29 c3 a4 3d e3 64 e7 3c
       0.11896472 -0.054073714 0.08045036 0.028246349
000140 ec ca 51 bd fe 82 02 3e b6 e9 b4 3d 8d 72 22 be
       -0.051218912 0.12745282 0.08833639 -0.1586401
000150 48 0c 0a bd f8 38 8e bd 0f 99 a8 3c d9 c8 9e bd
       -0.03370312 -0.0694446 0.020580797 -0.077531524
000160 2f 63 12 3e df 64 a6 3d 9c 9b c7 3d 21 fc 07 3e
       0.14295648 0.081247084 0.09746477 0.13279773
000170 44 ec e3 3d 29 e6 bc bd a7 4a 93 bd b2 1a 14 bd
       0.111290485 -0.09223587 -0.07191973 -0.03615827
000180 cc 93 5c bd e8 89 cc 3d 80 bb 8c 3d d5 3a c3 bd
       -0.053851888 0.09987241 0.068717 -0.09532706
000190 f7 5a 9f bd 5f b9 b0 3d f4 52 7a bd 7a 3c da bd
       -0.07781022 0.08629107 -0.061114267 -0.10656066
0001a0 12 e2 b2 3c 62 8c 1f 3b d6 88 06 3e 91 58 f1 ba
       0.021836314 0.002434515 0.13138136 -0.0018413236
0001b0 89 b1 2e 3d 87 82 02 be c1 10 a9 3d 6d 67 1c 3d
       0.04264978 -0.12745105 0.08255149 0.038184572
0001c0 ba 54 1a 3d 06 60 72 bd 30 78 b1 3d f3 df 0a be
       0.037678458 -0.059173606 0.08665502 -0.13561992
0001d0 61 cf 8d bd 59 af 08 be a7 9d 03 bd 29 fa 91 3c
       -0.0692432 -0.1334814 -0.03213277 0.017819481
0001e0 ee 29 ac 3d f5 70 b7 bd db df eb bd 33 d0 bf bc
       0.08406435 -0.08957092 -0.115173064 -0.023414707
0001f0 d8 1c 5b 3d b2 05 66 bd a0 3c 66 3c 3b 7e a1 3d
       0.053494304 -0.056157775 0.01405254 0.07885405
000200 f2 96 89 bd f1 5f d4 3d be 32 5b bc 79 15 79 bd
       -0.06718244 0.10369862 -0.013378797 -0.060811494
000210 f2 ca ab 3d 6f 16 23 3e 8f f1 2e 3d 32 f0 ef bd
       0.08388318 0.15926526 0.042710837 -0.117157355
000220 37 fa 8d 3d 60 aa e4 bd 19 ac ed 3d 41 63 f7 3d
       0.0693249 -0.11165309 0.11605091 0.12079478
000230 07 87 19 3e 08 4d 91 3d 54 38 d7 3d a0 bf 03 be
       0.14992915 0.07094771 0.105087906 -0.12866068
000240 5a c8 b7 3b 49 c5 30 3d a7 3e 3d be cb 12 00 be
       0.0056086006 0.043156896 -0.18480931 -0.12507169
000250 39 0d 99 bd 1d 60 6b bd 2f 86 33 3d c4 fb f8 bd
       -0.07473225 -0.057464708 0.04382914 -0.121573955
000260 2e 91 44 ba 4d 18 80 bd 28 b2 db 3d 2d 27 da bc
       -0.000749844 -0.06254635 0.1072734 -0.026630009
000270 88 5b b1 b7 e6 7b 1c be b8 17 3c be 3e cf 0d 3e
       -2.1142667e-05 -0.15281639 -0.18368423 0.13848588
000280 1d 9b c2 bd 82 07 0f 3e 69 c8 c3 bd 17 16 ea 3d
       -0.09502242 0.13967708 -0.095597096 0.114299946
000290 71 b0 c8 bd 23 6f 1b bd cf f9 b1 bc f2 87 95 bd
       -0.097992785 -0.037947785 -0.021725563 -0.0730132
0002a0 97 ca dc bd e5 59 f9 bc 3d 42 30 3e 69 0e c8 bd
       -0.107808284 -0.030438373 0.17212768 -0.097683735
0002b0 32 61 f4 3d a8 76 df bd 3d 10 84 3d 88 0f 52 bc
       0.11932601 -0.10911304 0.0644841 -0.012821086
0002c0 ba 18 b8 3c fe eb 29 be f2 64 06 3e 2d 05 86 3d
       0.022472728 -0.1659393 0.13124445 0.06543956
0002d0 c8 fa dd bd ab e8 7b bd db 07 1b 3e 56 ad 61 3d
       -0.10838848 -0.061501186 0.15139715 0.055096947
0002e0 02 a7 56 3d ed 21 a6 bc 2b c5 8d bc 00 3c b3 3d
       0.052405365 -0.020279849 -0.017305931 0.087516785
0002f0 7e fe 87 3d 60 30 16 3e 42 4b 32 be 65 31 20 bd
       0.066403374 0.14666891 -0.17411521 -0.039109606
000300 dd c9 8e 3d a2 ec 0d 3e 59 5b ef 3c 72 9c f3 bc
       0.06972096 0.138598 0.029218363 -0.029737685
000310 4b 9e 1c 3e 26 b3 98 3d ad c4 f9 bd 5d 4a cf bc
       0.15294759 0.07456045 -0.12195716 -0.025304014
000320 0e e4 0d bd d1 f6 81 3d 5c d2 b0 3d 60 0e 0b 3d
       -0.034641318 0.063459046 0.08633873 0.033949256
000330 2a 43 f2 3d 8e 30 e2 3d fe 4c 87 3d 40 d7 d5 3d
       0.11829217 0.11044417 0.06606482 0.10441446
000340 77 90 87 3d 7b 22 31 3e 16 33 f4 bd 4b fa 1c be
       0.06619351 0.1729831 -0.11923806 -0.15329854
000350 16 57 19 be e9 ce 6b 3c f8 84 a3 bd 74 d4 3a be
       -0.14974627 0.014392593 -0.07984346 -0.18245107
000360 59 22 da 3d 59 3d d6 3d a1 7d a0 3d 0f 2d b2 bd
       0.106510825 0.1046092 0.07836462 -0.087000005
000370 b7 f8 fe bd 60 e1 03 be 3e 08 09 be 44 e3 e4 bc
       -0.12449782 -0.12878942 -0.1338205 -0.0279404
000380 c1 54 3d be 49 53 79 3d ca c0 84 bd 43 78 32 bd
       -0.18489362 0.060870443 -0.06482084 -0.04357172
000390 b1 08 84 bc 7a 21 dc 3d 6e 4d 3e 3e 4b 41 47 3d
       -0.016117426 0.10748573 0.18584225 0.048646253
0003a0 87 c0 ab 3c 8a f4 31 3e df 8f 28 3e 45 23 05 3e
       0.020965828 0.1737844 0.16461132 0.13001736
0003b0 67 53 eb 3b 52 d2 c4 3b fc d1 61 bc da b3 dd bd
       0.007181573 0.0060065174 -0.013782974 -0.108253196
0003c0 ee ad 50 bc d5 2d de bd 9d ba 10 bc d8 23 2f 3d
       -0.012736781 -0.108485855 -0.008833555 0.042758793
0003d0 74 aa f8 bd dc 3e b2 bd 55 9d 8d 3d ad c7 b6 3b
       -0.12141886 -0.08703396 0.06914774 0.0055780024
0003e0 2a f0 ce 3c 53 44 21 3e d7 78 0d bd 7b 50 0d 3e
       0.025261004 0.1574872 -0.03453907 0.13800232
0003f0 a5 d7 81 bc 8b cc 80 bd 15 36 04 be 64 11 46 3c
       -0.015849898 -0.062890135 -0.12911256 0.012089107

fc.3.bias f4 [64]
000000 3f 4d 34 3d ae 1b 9b bb 11 37 bf 3d ac c0 d9 3d
       0.04401898 -0.0047335243 0.09336675 0.10632452
000010 a0 3c 16 3c fd 8e 17 3d 34 41 0c 3e 2d 39 0c bd
       0.009169728 0.0370016 0.13696748 -0.034234215
000020 86 a6 c1 3d 5b c4 10 bc 7a 88 35 3e 9f 49 99 3d
       0.0945559 -0.008835877 0.17727843 0.07484745
000030 55 25 2d 3e b4 29 3d 3d e2 09 5c 3d ee 52 83 bd
       0.16908772 0.04618235 0.053720362 -0.06412302
000040 b0 9d 18 bd 4f 50 6c bd cf f7 0b 3e 3a 27 2d 3d
       -0.037259758 -0.057693776 0.1366875 0.042273737
000050 94 c4 77 3c 3a 15 2d 3d 6c e8 25 3d 75 99 0c 3c
       0.0151225515 0.04225657 0.040504858 0.008581509
000060 8f ec 8b 3c 4a b4 18 3c 59 9e a3 3d 03 31 ed 3d
       0.017080573 0.009320328 0.07989187 0.11581614
000070 b7 59 fc 3d f4 63 32 3e 1c d2 0d 3e 16 83 da 3c
       0.12321799 0.17420942 0.13849682 0.026673835
000080 9b 93 a9 3d f4 5b 03 3d 77 80 37 3e 11 a5 96 3d
       0.08280107 0.032070115 0.17920099 0.07355703
000090 bb be b0 bd 8d 2b 23 3d 11 3a 06 bd ab 05 b5 bb
       -0.08630129 0.039836455 -0.03277022 -0.0055243573
0000a0 dd c5 bb 3d 90 1c b4 3d e5 f4 20 3e f8 6e 8f bd
       0.09168599 0.0879451 0.1571842 -0.070035875
0000b0 18 af f8 3d 4d bb 3e 3d 92 42 e8 3d 5b 70 3c bd
       0.121427715 0.046565343 0.11340822 -0.046005588
0000c0 a5 b8 e6 3d ca 3e a2 3d 06 ad 53 ba dc 4d fe 3d
       0.11265687 0.07922132 -0.0008074794 0.12417194
0000d0 6b a1 cb 3d fe 07 0e 3e b6 87 39 3d f1 45 d2 3d
       0.099428974 0.13870236 0.04529544 0.102672465
0000e0 c2 e4 0e 3e c1 dd 09 3e 62 31 d1 ba 55 c3 28 3e
       0.13954452 0.13463499 -0.0015960152 0.16480763
0000f0 55 1f e9 3d b9 44 ef ba e6 6d c0 3d 4a 0d 12 3e
       0.11382929 -0.0018254734 0.093959615 0.14262882

placing_layer.0.weight f4 [5, 64]
000000 be 7d 59 bd ab 58 7e 3d 48 94 94 bd db 4e 7d bd
       -0.053098433 0.06209628 -0.07254845 -0.06184278
000010 cb 52 31 3d 12 d9 8a 39 e4 8a e9 3d 1c 20 3f bd
       0.04329185 0.0002648314 0.114034444 -0.04666148
000020 fe 6c 5a bc fb fc 8e bc 4e 20 ae bc ad 14 ab bd
       -0.01333165 -0.017454615 -0.021255638 -0.08353553
000030 5a 88 c3 3c fb cb ab 3c 36 ac 81 3c 3b 37 66 bd
       0.023868728 0.020971289 0.015829187 -0.056205016
000040 3b d6 89 3d 68 7e 61 3d b4 91 5d 3d 85 fa 04 bd
       0.06730314 0.05505219 0.05409403 -0.032465477
000050 06 00 66 3c fa 9e 76 3d 6a f6 4a bd 7f c6 27 bd
       0.0140380915 0.060210206 -0.049551405 -0.040960785
000060 7b 63 0b bb ef 25 a3 bd 85 8e a7 3c b2 14 0e bd
       -0.0021269012 -0.0796622 0.0204537 -0.034687705
000070 c1 b7 81 bd 9b fe 34 3d 8e 26 c2 3c 01 70 48 bd
       -0.063338764 0.044188123 0.023700025 -0.04893494
000080 6a bd c3 bd 2e 99 f9 bd a6 fa 8d bd 6e f6 00 be
       -0.09557612 -0.1218742 -0.06932573 -0.12594005
000090 78 ca 1b 3c 58 fa d4 bd c5 9b 32 bd 22 d7 95 bd
       0.0095087215 -0.10399312 -0.043605585 -0.07316424
0000a0 b0 e1 96 3d 53 8f d8 3c c8 2e fa 3c b9 4a e4 3d
       0.07367265 0.02643553 0.030539885 0.11147065
0000b0 20 be ae 3d 7d 80 c8 3c b3 60 76 bd a5 4b dc 3d
       0.08532357 0.02447533 -0.060150813 0.107566155
0000c0 6d af f6 3c b5 91 32 3d b7 47 7d bd 91 5d be bd
       0.030112946 0.04359599 -0.06183597 -0.0929519
0000d0 32 ba 92 3c ab 28 36 3d 76 bd 53 bc 7a 7d b2 bc
       0.01791105 0.044472378 -0.012923589 -0.021788348
0000e0 d1 94 e0 3d 59 fc c7 3d 88 02 26 bc b4 9d 16 bd
       0.109658845 0.09764928 -0.010132439 -0.03677149
0000f0 59 59 d8 3b 1a 56 f4 3c a9 0c 59 3d c0 34 02 be
       0.006602448 0.029826213 0.05299059 -0.12715435
000100 b1 a5 dc 3d eb 97 e6 3c 69 c3 b2 bd e5 37 8b 3d
       0.10773791 0.028148612 -0.08728678 0.067977704
000110 ee 18 a7 3d 95 20 af 3d 2b 75 26 3d 20 ec 79 bd
       0.08159052 0.085511364 0.040639084 -0.061016202
000120 4e f4 64 bd 74 b9 a9 3d b7 76 52 bd 95 41 66 bc
       -0.05589705 0.082873255 -0.051382747 -0.014053722
000130 7f aa 8e bd bb a4 8d bd 17 19 2b 3d eb ea 63 3d
       -0.06966113 -0.069161855 0.041771974 0.055643957
000140 f3 28 85 bc 2b d5 3c 3d 58 cb f9 bd b7 a9 0a be
       -0.016254878 0.04610173 -0.12196988 -0.13541304
000150 0e 55 d0 bd 33 eb 02 3d 65 e8 dd bd a2 ed 12 3c
       -0.10172473 0.031962585 -0.10835341 0.008967789
000160 26 5c 39 bc 2a 0b cd bc 7a 7d c8 3d 04 e7 79 3d
       -0.011313474 -0.025029738 0.09789558 0.06101133
000170 6e d2 eb bd 9a 54 05 be ae e7 4d 3d a8 33 74 3d
       -0.11514746 -0.13020554 0.050269775 0.059619576
000180 93 5c cf bd 2c b2 76 3c fa 4a 05 3c 6c ed 19 3d
       -0.10125079 0.015057128 0.008135552 0.03757994
000190 97 2b f5 3b 56 39 a5 3d 4d db b7 3d c3 7d 27 3d
       0.007482003 0.080675766 0.08977375 0.04089142
0001a0 cb a2 bd 3d 32 ab c2 3c 28 33 60 bd 13 84 f5 bc
       0.09259566 0.023763273 -0.054736286 -0.029970204
0001b0 54 e4 3f 3d 58 5e cb bd 70 e7 98 bd f3 0e 3f bd
       0.04684861 -0.09930104 -0.07466018 -0.046645116
0001c0 d6 83 82 bc e8 eb ad bc 60 82 f0 bd ce 82 0d 3d
       -0.015932005 -0.021230653 -0.11743617 0.034548573
0001d0 e1 19 f2 3c 71 90 8d 3d 76 61 08 bc 6c c3 23 3c
       0.029553356 0.06912316 -0.008324018 0.009995323
0001e0 03 78 e0 3d 1e 58 e0 3d 6f f5 df bd 76 e9 69 3c
       0.109603904 0.10954307 -0.109354846 0.014276853
0001f0 a4 8c f4 bd ab 79 ea bd c4 44 60 3d 4c 83 b5 bd
       -0.119408876 -0.114489876 0.05475308 -0.088629335
000200 80 3a 3c 3d 53 0d c5 3c 17 94 d3 3d 2d c2 bf 3b
       0.045954227 0.024054205 0.1033098 0.005852005
000210 b6 84 22 bc 35 f4 24 3e e4 f3 de bc 88 0e 96 bd
       -0.009919336 0.16108783 -0.027215905 -0.0732699
000220 18 a6 b1 3d 2c 09 4e 3d fb de 80 bd 2c ae 12 3e
       0.08674258 0.050301716 -0.0629253 0.14324254
000230 c1 c5 8c bd 7a cc b5 3d 7d a1 b9 3d 1b 2f 1f bd
       -0.06873656 0.088768914 0.090640046 -0.038863283
000240 46 94 85 3d 29 3e 74 3d 02 6d 92 bd 6b d8 61 3d
       0.065224215 0.059629593 -0.07149698 0.055138033
000250 9e 6c c4 3d f0 ae 60 3d c3 40 99 3d d6 d3 9d 3d
       0.095910296 0.054854333 0.074830554 0.0770642
000260 ed 86 23 3e c8 12 bd 3d a0 78 4d 3d c5 67 a5 bb
       0.15969439 0.09232098 0.050163865 -0.0050477707
000270 c1 17 85 3d 82 6c 11 3e 05 90 16 bd e6 c9 04 3e
       0.06498671 0.14201549 -0.03675844 0.12967643
000280 96 bc c9 3d 35 42 54 bd a2 f4 fc 3c aa 4e 25 bd
       0.09850423 -0.051820952 0.030878369 -0.040358223
000290 ac 56 88 bd 20 3b fd 3d ba f4 da bc 8b ea b3 3d
       -0.06657156 0.12364793 -0.026728023 0.0878497
0002a0 b7 bf 13 3e c0 c8 27 bd b9 c5 8a 3d 74 08 ae bd
       0.14428602 -0.040962934 0.06775994 -0.08497706
0002b0 bd 8e 53 ba d3 ee fb 3d ed 46 18 bd 4c 41 77 3d
       -0.0008070281 0.123014115 -0.037177015 0.060365006
0002c0 0f 02 25 3e d5 83 07 3e 08 35 f8 bc 27 dc 67 bd
       0.16114067 0.13233884 -0.030298725 -0.056606438
0002d0 5b 2d 84 3c e7 1c b6 3d b9 0c c2 3d b1 6c 8c 3c
       0.016134908 0.088922314 0.09475083 0.017141672
0002e0 c3 c5 0b 3e 30 0d da 3d 36 bc e9 3d 81 32 85 3d
       0.13649659 0.106470466 0.114128515 0.065037735
0002f0 db 31 2b 3e 23 f0 87 bd 0b a8 8a 3d 91 08 13 3e
       0.16718237 -0.06637599 0.06770333 0.14358737
000300 73 e9 df bd e8 e2 be 3c 61 81 97 bd 18 f5 94 3c
       -0.10933199 0.023301557 -0.07397724 0.018183276
000310 ee f4 33 3b 41 28 e7 bd 33 ee 7a bd 50 36 29 bd
       0.0027459222 -0.11286975 -0.06126232 -0.041311562
000320 c8 4d ad bc 06 2d d2 bd d3 0c fd bc e0 37 46 bd
       -0.021155253 -0.10262494 -0.030889904 -0.04839313
000330 5a d3 f7 bd 4f f3 a3 bd ad 1b b2 bd 2e ca db 3d
       -0.12100859 -0.08005392 -0.08696685 0.10731922
000340 a8 8f a4 3c c8 7d a8 bd 84 4a fa 3d 98 0c 10 bd
       0.020088032 -0.08227116 0.12221244 -0.03516826
000350 d4 74 43 bd ec ab bb 3d 80 03 f9 bb d3 45 54 3d
       -0.047718838 0.09163651 -0.007599294 0.051824402
000360 50 5c 48 bc 00 6a d6 bb a8 a5 c6 3d 98 05 21 bd
       -0.01222904 -0.006543398 0.09699565 -0.039311975
000370 f5 36 b1 3d c8 01 d8 3d a6 59 d4 bd 14 cb 24 bc
       0.0865306 0.10547215 -0.103686616 -0.010058183
000380 6f 76 dc bd 6f 80 38 3d 6a c7 c7 bd c7 d4 1b bc
       -0.10764777 0.04504436 -0.09754832 -0.009511179
000390 c6 7d cd bd b4 ab a2 3d 98 f2 70 3d d4 ca 3f 3d
       -0.10033755 0.07942906 0.058825105 0.04682429
0003a0 2b 92 0e 3d 62 64 df bb 45 9e da bd d6 0d c6 bd
       0.034807365 -0.0068173865 -0.10674719 -0.09670608
0003b0 96 39 bc bd 6a 18 91 3d 57 19 a5 bd 82 91 96 bd
       -0.09190671 0.07084735 -0.08061474 -0.07351972
0003c0 e1 be 6d 3d 1e 7e d2 bd 3c 5d bf 3d 44 2a ca bd
       0.058043364 -0.10277961 0.09343955 -0.09871343
0003d0 8c 88 a2 bd 21 7c 9d bc 84 31 99 bc 5e bf d0 3d
       -0.079362005 -0.019224228 -0.018700369 0.101927504
0003e0 31 d1 0e bc 66 a6 1f 3d 38 db 40 3d 08 32 bb bd
       -0.008716867 0.03897705 0.047084063 -0.09140402
0003f0 0a d0 49 3d c7 75 cc bd 4c 2a b7 bd b0 17 73 3c
       0.049270667 -0.09983402 -0.08943614 0.0148371905

placing_layer.0.bias f4 [5]
000000 99 cc c6 bd 04 69 af bd ed ff 37 3d 9c 2c 92 bd
       -0.09706993 -0.08564952 0.044921804 -0.07137415
000010 20 ab 93 3d
       0.07210374

placing_layer.1.weight f4 [5, 64]
000000 24 59 0c 3e b2 a5 12 3e 36 20 8b 3d 00 02 fd 3d
       0.1370588 0.1432102 0.06793253 0.12353897
000010 d2 59 06 bd ce c7 95 bd 91 d1 2f 3e 01 91 07 3e
       -0.032800503 -0.073135 0.17169787 0.13238908
000020 74 d5 0f 3e 10 93 fc 3c 92 f7 a6 3d 24 67 1e 3e
       0.1404627 0.030831844 0.08152689 0.15469033
000030 80 fb 3b bd 6d 10 c1 bb 8d 6d c1 3d 00 d5 0e 3e
       -0.045894146 -0.0058918507 0.09444723 0.1394844
000040 ec 25 26 bd 8f 87 21 3e c0 3e f4 bb 0e b9 ff 3d
       -0.04056351 0.15774368 -0.0074537694 0.12486468
000050 21 fb f7 3a 5d fa fc 3d 7d 68 16 3e 81 0c 2c bd
       0.0018919447 0.123524405 0.14688297 -0.042004112
000060 fb ab 5f bc 16 0c 16 3e c6 4a 28 3e 7f e7 8e 3d
       -0.013651843 0.14653048 0.16434774 0.06977748
000070 fa 03 d4 3d 72 b4 73 3d 87 bc a3 3d c3 df ec 3d
       0.10352321 0.059498258 0.07994943 0.11566117
000080 7e 51 84 bd 43 77 27 3d 0d 6a 85 3d cc e1 25 bd
       -0.06460856 0.04088522 0.06514368 -0.04049854
000090 19 1e be 3d 76 02 d9 3c e8 17 50 bd 89 83 b2 3d
       0.092830844 0.026490431 -0.05080405 0.087164946
0000a0 68 dc a2 3d 65 96 74 bd db b9 82 3d 25 eb 0c 3b
       0.079521954 -0.05971374 0.06383105 0.0021502462
0000b0 cd be 2e 3e 21 57 e3 bc fa 1e 14 3e ba 4e 82 bb
       0.17064972 -0.027751507 0.14464942 -0.00397667
0000c0 8d c0 2b 3e 99 f2 76 bc 59 5f 8d bd 5a 0c 37 bb
       0.16772671 -0.015072488 -0.06902952 -0.0027930946
0000d0 c9 cc 89 bd fd 7b 9a 3d 39 8e 6c bc 9e 18 90 3d
       -0.06728513 0.0754318 -0.014438205 0.07035945
0000e0 7a 3f d6 3c 29 74 81 bc 0f ef 17 3e d7 0a a0 3d
       0.026153315 -0.01580246 0.14837287 0.078145675
0000f0 ee d9 13 3e 6e bf 95 3d 26 e8 e7 3d 11 84 30 3e
       0.14438602 0.07311903 0.11323576 0.1723788
000100 6a 7c bd 3d 50 8e 68 bd 0f 11 85 3d 56 48 13 bd
       0.09252246 -0.056776345 0.06497394 -0.035957657
000110 eb 60 c1 3d fd e3 8b bd d4 05 ff bd 47 59 f7 bc
       0.09442314 -0.06830595 -0.124522835 -0.030193938
000120 5c 9d bd bc 3d 75 b3 bd ad 89 cb bd 41 a8 59 bd
       -0.023146324 -0.08762596 -0.09938369 -0.053138975
000130 69 c1 7d bc d5 11 09 be 8b 59 e6 3c 4b fb f3 bd
       -0.015488007 -0.13385709 0.02811887 -0.11913165
000140 0a a3 e2 3d 7a 92 49 bd de db b6 bd ef b9 65 bd
       0.110662535 -0.049211957 -0.08928655 -0.056085523
000150 e1 2c c7 3d 42 d9 d0 bd 16 6f 4e 3c ac b7 13 3d
       0.09725357 -0.10197689 0.012599727 0.036063835
000160 00 76 85 bd 18 85 a9 bc 52 9c 89 bd 93 38 76 bd
       -0.06516647 -0.020693347 -0.06719269 -0.060112547
000170 b1 0e 52 3d 3a 17 92 3d 2e 17 d2 3c ab 67 9a bd
       0.051283542 0.07133336 0.025645819 -0.07539304
000180 2a 94 f2 3c d1 30 53 3d 86 87 06 bd 4c 45 82 bb
       0.029611666 0.051560227 -0.03284409 -0.003975546
000190 b2 e3 ea 3d 41 94 b9 bd 0b c2 ca bd f5 be c7 3d
       0.11469211 -0.0906148 -0.09900292 0.09753219
0001a0 6f 5f 38 bc ef 0e 9d bd 36 7e ca bd 51 91 ee bd
       -0.011253222 -0.07668864 -0.09887354 -0.11648811
0001b0 8c 92 ff bd e5 91 05 be 2f 55 9d bd b5 3e 9c 3c
       -0.124791235 -0.13043936 -0.07682263 0.01907287
0001c0 22 b7 d5 bd 4a 4e d8 3d 89 72 04 3d 7a 79 3c bd
       -0.104353204 0.105618075 0.03233579 -0.046014287
0001d0 a8 4f c7 3d 02 80 06 3d 5a 59 6f 3d 24 c9 0e be
       0.0973199 0.03283692 0.05843482 -0.13943917
0001e0 90 22 14 3b f7 d6 bf 3d c8 12 96 bd 02 f7 71 3d
       0.0022603609 0.09367173 -0.07327801 0.059073456
0001f0 b9 f5 0f bd ab be d7 bd 75 c6 db bc 78 a4 89 3c
       -0.03514645 -0.10534414 -0.02682803 0.016802058
000200 6b 48 b9 3d 58 81 5e bd eb 1d 9e 3d eb 3f db 3d
       0.09047016 -0.05432257 0.0772055 0.10705551
000210 55 2f b3 3b 20 d6 cd 3c 46 8e a6 bd 99 ce ac bc
       0.005468289 0.025126517 -0.08132605 -0.021094607
000220 3d 70 96 bd bf e0 f5 3c 49 98 06 3d 75 e1 fa bc
       -0.073456265 0.030014394 0.032860074 -0.030625084
000230 06 e0 8b bd 1e cf 90 bb d8 60 33 3d f0 52 e0 bd
       -0.068298385 -0.0044192215 0.04379353 -0.10953319
000240 c0 66 b1 bd 97 43 45 bd b9 56 01 be 58 c5 c4 bd
       -0.08662176 -0.04816016 -0.12630738 -0.09607953
000250 df 1d 88 3d f9 97 96 bd 95 64 95 bd ec 48 fb bd
       0.066463225 -0.07353205 -0.07294575 -0.12269768
000260 0f 6b ca 3c 37 77 cd 36 b3 a7 44 bd 95 ac 02 be
       0.024709253 6.1233545e-06 -0.048011493 -0.12761147
000270 a9 96 e3 bd f6 03 99 bc e0 5a 82 bd 06 a0 06 3c
       -0.111127205 -0.018678647 -0.06364989 0.0082168635
000280 ca fe 8e bd 02 a0 09 bd 8a c6 4d bd 05 aa ec bd
       -0.06982191 -0.03359986 -0.05023817 -0.11555866
000290 ca 5d a7 bd eb 79 b3 3d a3 aa a2 3c 51 01 95 bd
       -0.08172186 0.087634884 0.019856757 -0.07275642
0002a0 cf 2a 90 bd 8a 7b 03 be 5f 3f da 3c 59 7b d3 3d
       -0.07039415 -0.12840095 0.026641546 0.10326261
0002b0 63 49 08 be 18 cc 04 be 0c 39 89 3d 34 cc c8 3d
       -0.13309245 -0.1296848 0.06700334 0.09804574
0002c0 71 34 28 bd a5 9f 02 be 0b 57 e4 bd 98 1a 9a 3d
       -0.041065637 -0.12756212 -0.11149415 0.075246036
0002d0 2c cd f1 3c 13 ff ac bd 61 09 74 bd 87 bd b4 bd
       0.029516779 -0.08447089 -0.059579257 -0.08825212
0002e0 30 20 2b 3d 13 15 3e 3d 7c c3 be bd 72 64 fb bc
       0.041778743 0.046406817 -0.093146294 -0.030687544
0002f0 9c 3f e2 3a 1b 87 cc 3d c2 3a 19 3c 33 06 a3 3c
       0.0017261389 0.09986707 0.009352388 0.019900417
000300 36 97 6f 3c 84 d7 e1 bd c8 e3 d3 3d ee 3b f4 bd
       0.014623454 -0.110274345 0.1034618 -0.11925493
000310 67 ea 02 3d ef 93 05 be 27 36 c2 bd d3 2f 54 bb
       0.031961825 -0.13044713 -0.09482985 -0.0032377138
000320 36 d4 0b 3d 3c ed be 3d da f0 9d bd a7 fb ef 3c
       0.034137927 0.093225926 -0.077119544 0.029294802
000330 1c 05 ad 3d e7 99 5e 3d 0a bb 22 3c 40 ab 67 3c
       0.0844824 0.05434599 0.009932289 0.01413995
000340 d1 59 2c bd 35 9a a0 3c 24 e5 26 bc 6e f6 c3 3d
       -0.042077843 0.019604782 -0.010186467 0.09568487
000350 cf ee 0d bd 41 5f 57 bc cb 25 a6 3d d6 0c d5 bd
       -0.034651574 -0.013145269 0.08112677 -0.10402839
000360 9c ec 11 3d a5 91 d5 bd 9a 4b b4 bd 49 84 9f bd
       0.03562604 -0.1042817 -0.08803482 -0.07788903
000370 9a 9f a3 3d 5e 67 98 bc 3c d2 ca 3d a1 9c 84 3d
       0.07989426 -0.018603977 0.0990338 0.06475187
000380 c4 70 0e bd 3b 94 25 3c 49 90 07 bd 7b 95 dc bd
       -0.03477551 0.010106142 -0.033096585 -0.10770699
000390 4c 4a c6 3d ab be 02 be c5 8d fe bd a5 72 12 3d
       0.0968214 -0.12768047 -0.12429384 0.035753865
0003a0 e5 3a 17 3d e4 b4 80 bd f7 ba 5d 3d d5 31 81 3d
       0.0369214 -0.06284502 0.05413338 0.06308333
0003b0 c1 e9 bf 3c 08 be c4 3d c8 82 35 bd d3 4a 9d bc
       0.023426892 0.09606558 -0.044314176 -0.019200718
0003c0 6a 8d a2 bd fc cc 9c bc 24 de 53 bd 56 f2 29 bd
       -0.07937129 -0.019140713 -0.05172552 -0.041490875
0003d0 2b 10 90 bd 8c 5e 9a bd ba b5 b0 bc ae ed ce bb
       -0.07034334 -0.07537565 -0.021571029 -0.0063149547
0003e0 bf 78 02 be 81 d3 4e 3d dd 2e 1c bd f4 c7 09 be
       -0.12741373 0.050494675 -0.03813063 -0.13455182
0003f0 72 b2 a6 bd d6 1c 96 3d 50 36 e9 bd 87 4a de bd
       -0.081395045 0.07329719 -0.113873124 -0.10854059

placing_layer.1.bias f4 [5]
000000 1e e4 84 3d b3 45 33 3c 16 56 d8 3d 14 2b 87 3a
       0.064888224 0.010941911 0.105632946 0.0010312521
000010 5a 35 7c bd
       -0.061574318

placing_layer.2.weight f4 [5, 64]
000000 b4 01 03 3e 6f 61 bd 3b 49 6d a7 3d 8c f0 08 3b
       0.12793618 0.0057794373 0.08175141 0.002089533
000010 7b df b4 3d 16 ca 43 3b 10 cb 39 3e 42 26 0e 3d
       0.08831688 0.0029875091 0.18143868 0.034704454
000020 8b d1 5e bc 94 25 a4 bc d9 8e 37 3e b1 42 36 3d
       -0.013599764 -0.02003745 0.17925586 0.044497196
000030 f5 a4 cd 3d a2 a9 cf b8 44 b7 7d 3d c1 cc 18 3e
       0.10041229 -9.902126e-05 0.061942354 0.14921857
000040 58 2b 5c 3d d9 76 16 3e 49 3f 94 3d d3 93 be 3d
       0.053752273 0.14693774 0.07238633 0.09305539
000050 45 94 22 3e 00 c7 20 3e 9c 4f 97 3d 59 70 c2 3d
       0.15876873 0.15700912 0.07388231 0.09494085
000060 ba cc 95 3d ea 55 db 3d 89 1b fe 3d 43 6d 21 3e
       0.07314439 0.10709746 0.12407596 0.15764336
000070 79 e9 2d 3d 02 f6 9d 3c cf b4 82 bd 14 94 4d bd
       0.042458985 0.019282345 -0.06382143 -0.050190046
000080 83 50 93 3d 1b c8 0c 3e 0a d1 9d 3d f3 2f 25 3e
       0.07193091 0.13748209 0.07705887 0.16131572
000090 7a 38 6a 3d 2c 6c d2 3d 16 58 b3 3c ef 7b 1f 3e
       0.057182766 0.102745384 0.021892589 0.1557462
0000a0 2c 58 67 3d 6e 9c d3 3c e1 5f b7 bc 40 10 eb 3d
       0.05648057 0.025831427 -0.022384586 0.11477709
0000b0 5d 43 2b 3e 2c 1e 8d bd 0e fd 5c bd 5f 09 14 3e
       0.16724916 -0.068905205 -0.05395227 0.144567
0000c0 ce a5 93 bd 86 c4 81 3d d7 60 2f 3d 23 01 fc 3d
       -0.07209359 0.06336312 0.042816963 0.12304904
0000d0 b4 31 87 3b a8 b6 d5 3d 02 14 2e 3e 7b 8b 97 3d
       0.004125798 0.104352295 0.1699982 0.07399651
0000e0 b1 38 7e 3d e7 85 68 bd d8 d6 7b 3d e3 4c b9 3d
       0.062065784 -0.056768324 0.061484188 0.09047868
0000f0 6b c4 c4 3d 80 f9 b7 3d 11 68 fe bb 66 88 9e bc
       0.09607776 0.08983135 -0.0077638705 -0.01935215
000100 26 7f be bc 31 05 fb bc bf 84 9e bd eb 60 e7 bd
       -0.023253988 -0.030642124 -0.07740163 -0.112977825
000110 12 74 c0 bd 7b 41 e7 bc 6b 2f 69 bc 83 5b 4e 3d
       -0.09397139 -0.028229466 -0.014232497 0.05038024
000120 bc bf c0 3d 08 a5 07 bc dc 20 48 3c 74 b4 f6 bd
       0.094115704 -0.008279093 0.012214866 -0.120461375
000130 f1 60 c6 bd 71 20 b6 3d 16 47 29 3c 3c 5f 21 3d
       -0.09686459 0.088929065 0.01033189 0.039397463
000140 2d 7d 9c 3c c3 40 95 bd ce 98 05 bd 35 eb ce 3d
       0.019102657 -0.07287743 -0.03261643 0.10103456
000150 90 3e 6c bd cd b7 5d 3d c7 22 6c bd 64 4a 75 bd
       -0.05767685 0.054130364 -0.057650354 -0.059885398
000160 9f dd 3a bd 62 f6 ac bd 03 a7 22 bd 2f dd 6c bd
       -0.04562151 -0.08445431 -0.039710056 -0.057828125
000170 af cc 92 bd 33 ab dd bd 41 2b 4b bd e7 75 8f bd
       -0.071679465 -0.10823669 -0.049601797 -0.0700491
000180 1c d7 50 bd 64 bf aa bd 4a 37 0e bd 74 de 52 bd
       -0.050986394 -0.08337286 -0.034720697 -0.05148168
000190 c3 f0 05 bd 44 a5 4a bc 84 d1 c9 bd 00 56 83 3d
       -0.03270031 -0.012368504 -0.09854415 0.064128876
0001a0 20 b4 bc bc 22 d5 93 bd f2 57 2b 3d 39 f2 d4 3d
       -0.023035109 -0.07218386 0.041831918 0.10397763
0001b0 a6 79 36 3c eb a6 55 bb e6 45 3b bd 3c d0 0f 3d
       0.011137402 -0.0032600712 -0.045720957 0.035110697
0001c0 3f a6 6b 3d 8d 7f 58 3d 48 9e 1c bc 1b 68 c2 bd
       0.05753159 0.052856017 -0.009559222 -0.09492513
0001d0 2c 4a f1 bd 81 12 54 3d a5 49 78 3d c0 d0 e5 3d
       -0.11781725 0.05177546 0.060617108 0.112214565
0001e0 bc e5 2b 3d f2 b2 ef bd 08 5d 6e bc ec cb da 3d
       0.04196714 -0.11704053 -0.014548548 0.10683426
0001f0 5b b8 8c 39 7d 66 b6 3d 48 f0 05 be 9b 80 86 bd
       0.00026840236 0.08906267 -0.13079941 -0.06567498
000200 4c 8f 5a 3d be dd 9f bd e9 7a ef 3c 4d ab 0e be
       0.053359315 -0.07805966 0.029233413 -0.13932534
000210 8a 7a 7c 3d 78 a4 ca bb 42 75 ac 3c 98 c6 49 3d
       0.0616403 -0.006184157 0.021052007 0.04926166
000220 47 23 86 bc 4f 17 00 be a1 a7 bf 3d ec 9c 83 3d
       -0.016374243 -0.12508892 0.093581446 0.06426415
000230 ff d9 35 bd 71 dd 08 bd a0 ab 5e ba 7c 39 80 bd
       -0.04439735 -0.033414308 -0.0008494202 -0.06260964
000240 0c fb 84 bc c4 aa 02 be e5 4a 41 bd 22 52 e2 bc
       -0.01623299 -0.12760454 -0.047190566 -0.027627055
000250 0f 5a 0e 3b 52 b7 37 3d 77 9d 8c 3d 9e f8 8c 3d
       0.002172116 0.044852562 0.068659715 0.068833575
000260 8f 14 04 be 42 79 8c 3d 65 c8 a3 3d b8 ee f1 bd
       -0.12898467 0.068590656 0.079972066 -0.1181311
000270 3a 1c 41 3d a0 a0 66 bd 63 31 92 bd 2e 41 78 3d
       0.04714606 -0.056305528 -0.07138326 0.060609035
000280 f5 67 52 bd 50 ff e3 ba 2e 27 0f 3d 36 35 08 bd
       -0.051368672 -0.0017394815 0.034949474 -0.03325387
000290 d5 07 d3 bd 30 1c 30 39 1d 4b b2 3c 9a e1 cc bd
       -0.10304228 0.00016795169 0.021764332 -0.100039676
0002a0 1c 18 63 b9 a0 47 17 3d 9d e6 60 3c d4 89 4d 3d
       -0.00021657388 0.03693354 0.0137268575 0.05018027
0002b0 84 63 84 3d 4c ce c9 3d dd bc 53 3d 13 e9 85 bd
       0.064642936 0.09853801 0.051693786 -0.06538596
0002c0 f8 5c 6f bd be 44 eb 3c aa 78 c9 bc 46 9b ef bd
       -0.05843827 0.028719302 -0.02459367 -0.11699538
0002d0 5a 6f 05 be 76 f2 3d bc a3 09 03 be 22 3e 2c bd
       -0.13030759 -0.011593452 -0.12796645 -0.042051442
0002e0 1a 87 a9 3d 0b 46 1d bd 4f d7 e5 bd ec 1d 0b be
       0.08277722 -0.038396876 -0.112227075 -0.13585633
0002f0 f9 00 b3 bd fd 1d ab 3d e9 b9 bf bd d5 e6 14 3d
       -0.0874042 0.08355329 -0.093616314 0.03635295
000300 54 d4 0a be cc 19 d7 bd 5d a5 d0 3c f2 93 58 bd
       -0.13557559 -0.10502967 0.025469476 -0.052875467
000310 da 6a 8f 3d af 4d c1 bd 01 92 d1 3d 84 22 7a 3c
       0.07002802 -0.09438645 0.10232926 0.015267018
000320 cf 66 d4 bd b2 45 8a bc 77 84 31 3d 66 9d da bd
       -0.10371172 -0.016878936 0.04333922 -0.106745526
000330 c6 d9 89 bd 8e a5 40 3c da 6c 34 bd 05 77 0e 3d
       -0.0673099 0.011758221 -0.04404912 0.034781475
000340 09 63 f4 bd 25 ea e2 3b 47 36 0f bd 57 74 a1 bb
       -0.11932952 0.006924885 -0.034963872 -0.004927199
000350 43 77 1a 3d 30 b9 2d 3c 43 c5 9c 3d 1c cc 29 bd
       0.037711393 0.010603234 0.07654812 -0.04145442
000360 07 44 15 3d 32 4b f1 3c e3 65 d8 bd a4 34 c6 3d
       0.03644183 0.029454801 -0.10566308 0.09678009
000370 f4 a2 42 bd 82 d5 d4 3c 8c 40 d9 3c 7b bd 54 3b
       -0.047518685 0.025980715 0.026520036 0.0032461572
000380 ca d4 04 be c0 e8 44 bc 95 a9 2e 3d 58 f2 c1 bd
       -0.12971798 -0.012018383 0.042642195 -0.094700515
000390 75 78 22 3d 47 92 09 be 85 83 97 3d 24 fe c8 3d
       0.039665658 -0.13434707 0.07398132 0.098140985
0003a0 30 06 6a bd 3c 33 a6 bc ab ba cf bc dc 5d a0 bd
       -0.057134807 -0.020288102 -0.025357565 -0.07830402
0003b0 e4 50 06 be 8f 03 f4 3b df 12 5f 3c 37 50 a3 bc
       -0.13116795 0.0074467133 0.013615339 -0.01993571
0003c0 8c d6 13 3d 67 43 4c bd cd 48 f0 bd c9 96 9a 3d
       0.03609328 -0.049868967 -0.11732636 0.07548291
0003d0 5d 22 0c bc 22 85 87 3d 7c dd 03 be dd 40 03 3d
       -0.008553115 0.0661719 -0.12877458 0.03204428
0003e0 6e 0e c0 3d 91 81 9c bd 7f ef 5d bd af bf 03 be
       0.09377752 -0.076419 -0.05418348 -0.1286609
0003f0 09 f3 23 3b e5 02 2d 3d 00 cf aa bd 49 ea 11 be
       0.0025016686 0.04223909 -0.08340263 -0.14249529

placing_layer.2.bias f4 [5]
000000 08 b2 0e 3e 20 50 42 3d 1b 38 24 bd b4 a3 ca 3b
       0.13935101 0.047439694 -0.04009257 0.0061840657
000010 ac 85 c8 bd
       -0.09791121
