extra_baseline2/log_res/1exp_2/td3_agent_env-20250107-181958/td3_actor.pth (torch, 248442 bytes, 108 tensors)

fc.0.weight f4 [64, 565]
00000000: 6b8f 353c 392f 003d feec 24bd 285c 0ebd
00000010: ae50 d3bc e5b0 033c 8ad7 82bb 3804 113d
00000020: 5d30 c1bc 98b8 3a3c 8814 0cbc 6121 fabb
00000030: fc71 19bd 6f81 d9bc 1d4b debc ccad a33c
00000040: 5fb5 3c3c 9a69 883c 68e8 14bd b1c3 5dbc
00000050: 94f5 283c 4a69 f23c ed48 00bc aec9 2f3d
00000060: 501e 3b3b 7a75 8bbc 80f1 a43c b453 60bd
00000070: 6404 2cbc a814 ccbb dfdc ebbc 0976 3a3d
00000080: 503f a4bb 4317 81bc a5c2 36bd 3b84 f9bc
00000090: f778 d1bc 246b 3c3d 5a02 bd3c d999 cd3b
000000a0: 8f26 16bc 5a99 92bc 8d60 4b3c fdaa d2bc
000000b0: 8fca a6bc a482 99bc 6b6e bf3c df82 1d3d
000000c0: 5f5b 8abc 4a0d 663c 64ca 1f3d ef67 1a3d
000000d0: 7491 1d3d b86a 5a3c 3178 cc3c 83f7 e4bb
000000e0: f310 9cbb 9aff c1bc ee18 48bc 63cf 9dbb
000000f0: 7737 e23c f185 b83c 9182 a9bc b9d9 033d
00000100: cbbd f93c 0c0a b2bc 6f61 8e3c bdb1 883c
00000110: 6aeb e73c ff17 db3c 5e19 22bd 5e33 cf39
00000120: 31e0 293d 5dfa 213d 9c98 573d 327f 7a3c
00000130: 543c c93b f08e f7bc 7a5c 7ebb cdf4 2bbd
00000140: f215 1cbd 054a 303d 3263 0f3d e082 12bd
00000150: 0eb8 2a3b c5f9 1d3b 3e9c 0dbc 8f1c 7fbc
00000160: 5dc0 9ebb 93b2 debc abb9 ae3c cbf2 c73c
00000170: 920c c83c cc11 4a3c 896e 7cbd fb04 07bc
00000180: a521 a63c b6e6 9f3b 46d5 54bd 383f b6bb
00000190: 7f87 423d ccbc 0b3d 1c89 4dbb b284 433c
000001a0: 32e5 0ebd 6716 b83c 5880 3cbd 4f6b 58bd
000001b0: 716a c7bc 8339 baba b5fe fbbb adc3 ac3c
000001c0: 3fa2 52bc 41b0 133d e40e fd3c b3bb a4bc
000001d0: a794 aabc aa6b 963c 3036 69bb 5dfb f53c
000001e0: fa59 cb3b f107 d63b 78c1 00bd 9b58 e93c
000001f0: b49a 34bd 1463 00bd 3a19 2dba 05b2 4ebc
00000200: 1359 86bc dc96 22bd bc58 b0bc e65e 8e3c
00000210: a5b0 1bbd 76c8 4f3c 69bb 763c a064 923c
00000220: a5d4 b8bb c329 b73b 7f5e 4f3b bbec 863b
00000230: 31cc 683d 44a2 143d 041d e13c 58d5 04bc
00000240: 0d11 4fbd 28e9 88bc d17e fa3c 5846 14bb
00000250: a131 0ebd c688 c5bc 10c5 3ebd 176c f7bc
00000260: fd86 b9ba 9025 df3c 8ef8 fe3c 89e1 42bd
00000270: 927d ec3c eb48 15bd f199 b3bb 6129 e1bb
00000280: b05c b9bb e85e 60bc db4b 9ebc 0fec fabc
00000290: 55fb 27bc 5b93 303c f9d8 b7bc adde 0c3c
000002a0: d996 7cbd eb8a 92bb 9d94 ac3c dad0 ccbb
000002b0: 83bc 4c3d fd2b 593b 876d f1bc 2c88 d83b
000002c0: b598 b23b 9889 01bd 3b57 203d 1199 18bd
000002d0: 9e52 1fba a096 a3bc 555d ba3c 9169 483c
000002e0: 9c6c 083d 114e d83c ff26 10bc dba9 a33b
000002f0: 9217 a3bc 2139 703a f012 463d ef89 e53c
00000300: fb34 c5bc 5512 48bc c2fa fbbb a62f dcbc
00000310: 2544 47bc 09f5 dc3b d082 eebb db76 c23b
00000320: 35ce 59ba 6ce7 cf3c 12e7 43bd da0b 28bd
00000330: 8747 cdbc 886d d53c 5376 30bc 796d e93c
00000340: 4383 8f3c 3771 1b3c 3c75 91bc 30fe afbc
00000350: 5a7e 2e3c f3cb babc ed7f 9dbc 9a0b 0cbb
00000360: b73d 58bd 09bf 0abd 76d6 403d e9f9 49bc
00000370: 65a4 52bc 62a4 043d 35f9 803c 11a0 86bb
00000380: 871e 84bc 55b5 2f3d 17d9 2dbd 60b6 92bb
00000390: 3592 d6bc b8b1 343b 407c 813c ea23 d93c
000003a0: fb5a 9f3c 1a7a 143d b375 c03b c73a 82bc
000003b0: cb7c 733c 1c48 20bd cdc7 c1bc b1d1 403c
000003c0: 165e ca3c dd3a a93c 2a85 a2bc e05d 523b
000003d0: eb6c af3c f4f8 0cbd 6634 563c 3446 57bd
000003e0: be38 193a 97c1 1cba a456 abbc 1d63 de3b
000003f0: 0b86 133d 8c95 35bc df47 c2bc 9790 6abc
0.011081557 0.031295035 -0.040265076 -0.034755856 -0.025795307 0.00803778 -0.0039929794 0.035404414
-0.023582632 0.01139655 -0.008549817 -0.0076333736 -0.03746222 -0.026550977 -0.027135426 0.019980334
0.011517852 0.016651917 -0.036354452 -0.013535426 0.010312457 0.029591221 -0.007829887 0.042916946
0.0028552003 -0.01702379 0.020134687 -0.054767326 -0.010499094 -0.0062280484 -0.028791843 0.045522723
-0.0050124303 -0.015758162 -0.04461922 -0.03045856 -0.025570376 0.046000615 0.02307241 0.0062744436
-0.0091644665 -0.01789539 0.012413156 -0.0257163 -0.02036026 -0.018739052 0.023368081 0.038454887
-0.016889272 0.014041254 0.039011374 0.037696775 0.038468793 0.013331108 0.024959655 -0.0069875135
-0.0047627627 -0.02368145 -0.012212975 -0.004815982 0.027614338 0.022524806 -0.020692142 0.03219006
0.030486008 -0.021733306 0.017380444 0.016686315 0.028310496 0.02674484 -0.039574973 0.00039520388
0.04147357 0.039545406 0.052635774 0.015289115 0.006141225 -0.030219525 -0.0038812445 -0.041981507
-0.038106866 0.04303934 0.03500671 -0.035769343 0.0026049647 0.0024105173 -0.008643208 -0.015570774
-0.004844709 -0.02718476 0.021328768 0.024407765 0.024420056 0.012333345 -0.061628852 -0.0082409335
0.020279715 0.004879798 -0.051961206 -0.0055617355 0.0474925 0.034115598 -0.003136224 0.0119334925
-0.034886546 0.02247162 -0.046020836 -0.052836712 -0.024342747 -0.0014207814 -0.0076902756 0.0210894
-0.012856065 0.03605676 0.03089089 -0.020109033 -0.020822836 0.018361885 -0.0035585277 0.030027086
0.0062057944 0.0065317084 -0.031434506 0.028484633 -0.04409285 -0.03134449 -0.00066031853 -0.012615685
-0.016399896 -0.039694652 -0.021526687 0.017379235 -0.03801026 0.012682071 0.0150593305 0.017870247
-0.0056405836 0.005589695 0.0031642017 0.004117576 0.056835357 0.03628756 0.027479656 -0.008107506
-0.05055337 -0.01671274 0.030578049 -0.0022624936 -0.0347153 -0.02411307 -0.046574652 -0.030202908
-0.001415461 0.02723959 0.03112438 -0.04757837 0.02886847 -0.036446493 -0.0054809977 -0.006871388
-0.005656801 -0.013694502 -0.01932328 -0.03063014 -0.010252793 0.01077732 -0.022442328 0.008598012
-0.061667297 -0.0044721267 0.021066958 -0.006250483 0.049984466 0.0033137791 -0.029471172 0.00660803
0.005450333 -0.03162536 0.03914569 -0.03725535 -0.00060776796 -0.019969285 0.022749582 0.0122322
0.033306703 0.026404412 -0.00879836 0.0049946136 -0.0199087 0.00091637863 0.048357904 0.028019873
-0.024073115 -0.012211402 -0.007689805 -0.02687819 -0.012162243 0.0067430777 -0.0072787777 0.005934579
-0.00083086203 0.025378905 -0.047827788 -0.041026928 -0.025058521 0.026053205 -0.010770398 0.028494583
0.017518645 0.009487442 -0.017756097 -0.02148351 0.010650242 -0.022802329 -0.019226039 -0.002136922
-0.05279323 -0.03387359 0.047079526 -0.01232765 -0.0128565775 0.03238333 0.015743831 -0.004108437
-0.016127838 0.04289754 -0.04244336 -0.004477307 -0.026192764 0.002757175 0.015806317 0.026506383
0.019452563 0.036249258 0.005873406 -0.015897168 0.014861296 -0.03913127 -0.023654843 0.011768744
0.024703067 0.020657951 -0.019838888 0.003209941 0.02141424 -0.034417108 0.013074016 -0.052557185
0.0005844942 -0.0005979775 -0.020915337 0.0067867176 0.036016505 -0.011083018 -0.023715911 -0.0143166995

fc.0.bias f4 [64]
00000000: 307a 123c 6d2e d0bc f8a2 783b 3fbd 953a
00000010: 8f30 95bc 7288 26bd e0f0 103d 75db f23c
00000020: 9d1c b9bc 883a e4bc cedc 963b c4c1 4bbb
00000030: 9a93 d9bc bdab 023b 445c 1cbc 2f70 d93c
00000040: e32c 6e3c c1f0 d73c d7af 973c 1faf 0abc
00000050: 0157 783c c7be 9bbc 6617 f73c 9f0d 24ba
00000060: 1905 1f3d 45a2 0a3c d970 5e3c 938c c4bb
00000070: 9af1 bcbc bdc1 e8bc a157 d1bc 9760 cebc
00000080: fdc6 153d db8a d4bc ab1d f9bc bbbb 23bc
00000090: 67bf 933c f5ce 83bc e70f 3ebc 2332 25bd
000000a0: 5361 f7bc d92c 9e3b 6223 a83b 759e e639
000000b0: c2c4 68bc 7988 f03a 9566 fcbc f885 873c
000000c0: ad50 88bc 9fd7 e4bc eb01 39bc 065d bf3c
000000d0: 68fe a6bc 1391 0cbd 45c4 8a3c ad36 e43b
000000e0: b7f3 0dbd efd6 ff3c 7e4e e7bc 8e0f 14bd
000000f0: a0d9 47bb 6921 f0bc 4ade 1b3c 74f2 8fbc
0.008940265 -0.025412763 0.0037938934 0.0011424198 -0.018211631 -0.04065747 0.035385966 0.02964566
-0.022596652 -0.027859941 0.0046039587 -0.0031090835 -0.02655964 0.001993879 -0.009543482 0.026542751
0.014537069 0.026359918 0.018516464 -0.008464604 0.015157462 -0.019011868 0.030162524 -0.0006258133
0.03882322 0.00846154 0.01357671 -0.005998203 -0.023064423 -0.028412694 -0.02555448 -0.025192542
0.036566723 -0.025945118 -0.030409655 -0.009993489 0.018035604 -0.016089896 -0.011600471 -0.040331017
-0.030197775 0.0048271236 0.005131171 0.00043987078 -0.014207067 0.0018351219 -0.030810634 0.016543373
-0.016640032 -0.027934847 -0.011291961 0.023359787 -0.020384982 -0.03431804 0.016939292 0.0069645257
-0.034656253 0.031230418 -0.02823567 -0.036147647 -0.0030494705 -0.029312806 0.009513447 -0.017571665

fc.2.weight f4 [64]
00000000: 7fb7 833f 1f8d 833f 1a89 833f 7c68 833f
00000010: 0000 803f 0000 803f 0000 803f ce9f 833f
00000020: 21c4 833f 0000 803f 0000 803f d983 833f
00000030: e0e2 833f 8485 833f 0000 803f 0000 803f
00000040: e8c2 833f 0000 803f 0000 803f 0000 803f
00000050: 0000 803f c293 833f e095 833f 0000 803f
00000060: 0000 803f 0000 803f 0000 803f f57f 7f3f
00000070: a295 833f 0000 803f fcb3 833f 0000 803f
00000080: d56c 833f 0000 803f 0000 803f 0000 803f
00000090: 0000 803f 3688 833f 0000 803f 0000 803f
000000a0: 42ae 833f f973 833f bca7 833f 0000 803f
000000b0: 0000 803f 0000 803f 0000 803f 209b 833f
000000c0: 318f 833f 0000 803f a4b1 833f edc4 833f
000000d0: 0000 803f a19e 833f 0000 803f e5a7 833f
000000e0: ffac 833f 0000 803f b78e 833f 0d76 833f
000000f0: 66b7 833f 0000 803f 0000 803f 0000 803f
1.0290374 1.0277442 1.0276215 1.0266261 1.0 1.0 1.0 1.0283144
1.0294229 1.0 1.0 1.0274612 1.0303612 1.0275121 1.0 1.0
1.0293856 1.0 1.0 1.0 1.0 1.0279467 1.0280113 1.0
1.0 1.0 1.0 0.9980462 1.0280039 1.0 1.0289302 1.0
1.0267588 1.0 1.0 1.0 1.0 1.0275943 1.0 1.0
1.0287554 1.0269767 1.0285563 1.0 1.0 1.0 1.0 1.0281715
1.0278074 1.0 1.0288587 1.0294472 1.0 1.0282785 1.0 1.0285612
1.0287169 1.0 1.0277928 1.0270401 1.0290344 1.0 1.0 1.0

fc.2.bias f4 [64]
00000000: ab02 e73c 54fb e3bc 5259 d8bc 377f 54bc
00000010: 644c 0c3d ed54 cf3c 24b0 d53c e9bb f2bc
00000020: a144 09bd 3c64 143d d65a fb3c 517a 02bd
00000030: 3f61 653c 122e e0bc aa5f e1bc 2896 f43c
00000040: fc07 c53c 93f1 e5bc faa4 113d 4306 cfbc
00000050: 8f36 04bd 6a75 df3c dd18 c03c 622c 06bd
00000060: f100 fe3c 8791 f4bc e182 08bd 02a6 dc3c
00000070: 3be4 c9bc f87b e8bc 8b70 c9bc 21cd fd3c
00000080: bdc2 a63c 881e 0c3d f333 d6bc 997a c23c
00000090: 85be 033d 2a27 eabc ad17 113d 8f64 00bd
000000a0: b4f8 cebc c8f3 ddbc 0cb4 2abb 43d3 0b3d
000000b0: d99e 123d 7c78 0fbd 028c fdbc 5f27 873c
000000c0: b66d e33c 257d 10bd 764d 0ebc 3bad 493c
000000d0: 9aeb 03bd 2394 df3c 5763 103d 2eea d53c
000000e0: a266 b1bc ae83 d1bc 78b6 e7bc 954d d7bc
000000f0: 41ba 193c b32c 123d 4591 01bd 4ddb 10bd
0.028199514 -0.027829804 -0.026409779 -0.0129697835 0.03425254 0.02530905 0.026084967 -0.029630618
-0.033512715 0.036228403 0.030682962 -0.03185493 0.014000236 -0.027365718 -0.027511436 0.029856756
0.024051659 -0.028069293 0.035557725 -0.02527154 -0.032278594 0.027277667 0.023449356 -0.03275717
0.031006308 -0.02985455 -0.03332794 0.026934627 -0.024644962 -0.028379425 -0.024589797 0.030981602
0.02035653 0.034208804 -0.026147818 0.0237401 0.032164115 -0.028583128 0.03542297 -0.0313459
-0.025265075 -0.027093783 -0.0026047258 0.03413702 0.03579602 -0.035027012 -0.03095055 0.016498266
0.027762275 -0.035275597 -0.00868546 0.012309368 -0.03220711 0.027292317 0.035250988 0.026112642
-0.021655384 -0.025575485 -0.02828525 -0.026282111 0.009382785 0.03568716 -0.03163268 -0.03536539

fc.2.running_mean f4 [64]
00000000: d21b a646 3fdb 9846 8ee0 5346 3e7c 6a44
00000010: 0000 0000 0000 0000 0000 0000 4663 ef45
00000020: 38f4 0947 0000 0000 0000 0000 4b02 aa46
00000030: 0093 5746 20f9 6a44 0000 0000 0000 0000
00000040: 6010 0747 0000 0000 0000 0000 0000 0000
00000050: 0000 0000 bfcd b445 c4d1 8945 0000 0000
00000060: 0000 0000 0000 0000 0000 0000 3dea 412f
00000070: 99a3 b546 0000 0000 2d5b dc46 0000 0000
00000080: a45e c046 0000 0000 0000 0000 0000 0000
00000090: 0000 0000 0045 bb44 0000 0000 0000 0000
000000a0: d4ae 0047 bd7e 5f47 60db 1647 0000 0000
000000b0: 0000 0000 0000 0000 0000 0000 1849 9c46
000000c0: f17d 8a46 0000 0000 0c2a a945 cd65 5846
000000d0: 0000 0000 05df 0f46 0000 0000 1fe9 a046
000000e0: 0d56 1f46 0000 0000 276c 0d46 ceb2 2747
000000f0: d032 4c46 0000 0000 0000 0000 0000 0000
21261.91 19565.623 13560.139 937.9413 0.0 0.0 0.0 7660.409
35316.22 0.0 0.0 21761.146 13796.75 939.8926 0.0 0.0
34576.375 0.0 0.0 0.0 0.0 5785.7183 4410.2207 0.0
0.0 0.0 0.0 1.7636466e-10 23249.799 0.0 28205.588 0.0
24623.32 0.0 0.0 0.0 0.0 1498.1562 0.0 0.0
32942.83 57214.74 38619.375 0.0 0.0 0.0 0.0 20004.547
17726.97 0.0 5413.256 13849.45 0.0 9207.755 0.0 20596.56
10197.513 0.0 9051.038 42930.805 13068.703 0.0 0.0 0.0

fc.2.running_var f4 [64]
00000000: 1985 5247 3752 1047 ac65 5547 4488 1a47
00000010: 9bb3 8f25 9bb3 8f25 9bb3 8f25 df8f 1847
00000020: 7834 3647 9bb3 8f25 9bb3 8f25 7c8b 9247
00000030: b62d 8047 05be 0947 9bb3 8f25 9bb3 8f25
00000040: 575b 1a47 9bb3 8f25 9bb3 8f25 9bb3 8f25
00000050: 9bb3 8f25 085f 8547 45a4 3f47 9bb3 8f25
00000060: 9bb3 8f25 9bb3 8f25 9bb3 8f25 4eff ae32
00000070: ad8f 3f47 9bb3 8f25 dc4c 3c47 9bb3 8f25
00000080: c426 8747 9bb3 8f25 9bb3 8f25 9bb3 8f25
00000090: 9bb3 8f25 b045 8c47 9bb3 8f25 9bb3 8f25
000000a0: d425 2247 a1f3 6147 0ea8 5a47 9bb3 8f25
000000b0: 9bb3 8f25 9bb3 8f25 9bb3 8f25 cf4e 9947
000000c0: b08d 4047 9bb3 8f25 1388 8147 83e7 e146
000000d0: 9bb3 8f25 8c3e 2747 9bb3 8f25 3a9c 8747
000000e0: be1a 6947 9bb3 8f25 58db 8347 dff0 5d47
000000f0: 0003 2647 9bb3 8f25 9bb3 8f25 9bb3 8f25
53893.098 36946.215 54629.67 39560.266 2.492825e-16 2.492825e-16 2.492825e-16 39055.87
46644.47 2.492825e-16 2.492825e-16 75030.97 65627.42 35262.02 2.492825e-16 2.492825e-16
39515.34 2.492825e-16 2.492825e-16 2.492825e-16 2.492825e-16 68286.06 49060.27 2.492825e-16
2.492825e-16 2.492825e-16 2.492825e-16 2.0372365e-08 49039.676 2.492825e-16 48204.86 2.492825e-16
69197.53 2.492825e-16 2.492825e-16 2.492825e-16 2.492825e-16 71819.375 2.492825e-16 2.492825e-16
41509.83 57843.63 55976.055 2.492825e-16 2.492825e-16 2.492825e-16 2.492825e-16 78493.62
49293.688 2.492825e-16 66320.15 28915.756 2.492825e-16 42814.547 2.492825e-16 69432.45
59674.742 2.492825e-16 67510.69 56816.87 42499.0 2.492825e-16 2.492825e-16 2.492825e-16

fc.3.weight f4 [64, 64]
00000000: ca76 d63d 98d0 73bd 57a9 193e 5134 0ebe
00000010: 1bde 6d3d 52c8 f13d ce74 993d f46a 0fb8
00000020: 0374 133c 5246 113d 9f68 083e 0daa 6bbd
00000030: 9097 cbbd 53c7 60bd 8412 15be c374 cf3c
00000040: fb82 ff3b 9322 e5bd 5e4b 80bd df19 b8bd
00000050: 2238 3e3d 8733 8c3a 66e9 16bd 90a6 8d3c
00000060: 2049 76bd 7c7a 9e3b 10dc 46bd 0b08 733d
00000070: 75ba 9b3d 5689 e8bc 56a5 a9bd f9a2 043e
00000080: 2e33 763d ccc5 f83c c018 333d f5c5 423d
00000090: a475 ca3c 4949 013e 7638 99bd c206 073d
000000a0: 46a5 abbc 561d 0f3e a7e5 96bc ee62 81bd
000000b0: aa0a 663d a0a7 09be 1036 0abe d621 1fbd
000000c0: 0162 adbd 0529 233c a9b7 39bd eb48 1cbe
000000d0: 958d bd3d 45be b2bc 2d65 a63d 48f5 e0bd
000000e0: b3e9 4ebd 2be3 04bc fe09 843d ece2 913d
000000f0: 8312 093e c3e1 dd3d 253a c0bd 2eee 26bc
00000100: 24a5 bdbd 8ef0 163b a186 0d3e 0513 f1bd
00000110: c6ce 9f39 0248 c13d 72e3 ba3c ce4a 05be
00000120: 1b33 a9bd fde3 5abd 4b37 8abd 2b1f 36bc
00000130: ebd8 8dbd a4ff f7bd abb9 17be 5f0e 413d
00000140: c340 f83c af61 d9bd 1a1b 0b3e 9d30 213d
00000150: e7a1 82bd 31a9 983d 4e5f d83d c75d 9e3d
00000160: c1e1 013e b803 613d b43f 7b3d 9fd4 4c3d
00000170: 7a0f bb3d f0fd 393d c695 883d 87dc 50bd
00000180: 2190 183e b805 8fbd 020c bebd ff06 34bc
00000190: 8c2f 333d 363c cfbc 33bf 553d 3ccf 8abd
000001a0: e67d 4fbb 5f80 023e f22b eabd 9e08 e13d
000001b0: 23fd bd3d a09e b1bd 8714 68bd cf53 97bd
000001c0: d0d0 f3bb 5768 f4bd 83c1 74bd 97f0 4d3d
000001d0: dc6f e6bd 8bab 093e c0a3 993d 841c eabc
000001e0: e5af 17be 9924 c33c 8987 82bd d94f d1bd
000001f0: 3050 63bd 9ede e63d 56d2 b83d 8074 eebc
00000200: df47 003e 4077 50bd eda6 03be 264f 77bd
00000210: 68d3 1f3e a708 bbbd b51c 013d 6ddb 07be
00000220: c273 10be 1ebe 813d d4df bf3d ef6d f73d
00000230: b3ea b8bd 6af6 9abd c04b 00be c1cc 053d
00000240: 147c c73d 7a0d 38bc 3162 f43d bbb0 c43d
00000250: 1682 6ebd 084a 4bbd 0ba6 053e 4532 86bc
00000260: 58b9 abbc 6a57 a2bd 0503 4f3d cb03 aebc
00000270: 54b7 c6bd 73bd d33d 0980 9f3d e661 79bd
00000280: 6e9f 483b 5d89 69bc 7001 443d 459e 81bd
00000290: b7f2 a53d 5414 0cbe 5da4 d33c dba4 dbbc
000002a0: 3a8e 63bd dde0 ab3d 279d 11be 0d9f afbd
000002b0: a7b4 ec3d 881c bcbd 49e7 4f3d 30ef 9dbd
000002c0: 4837 8e3d 48af 96bc 8aea 043d 1f12 cdbd
000002d0: 08a1 a33d 49fb 113e 5ffc ca3d fa35 933d
000002e0: b6b8 1cbe fc88 123c e500 02be 2800 26bc
000002f0: 647d d3bc 0bfc a93d e2e8 abbd 34bf a4bc
00000300: b2c7 083e 5659 273d 37df 093d 128d f53c
00000310: 0e18 fbbd a24f 08bd f691 3ebb 4100 bfbc
00000320: bb65 0e3d bbd4 143d 359f 77bd 1aba 803d
00000330: 71bb f1bb dfb8 89bd 69f5 943d 72b7 c9bd
00000340: 3461 8d3c b840 0d3d 3493 103d c2cd b9bc
00000350: 8d22 8f3d 5976 e0bd a363 bdbd a7e8 94bd
00000360: a248 9cbd 22e4 05bd 874a 9d3c fddf 393d
00000370: d318 cc3d b19d a0bc b431 88bb f4ec 963d
00000380: 6fdb 9a3d 6afa 90bc 117d 40bc 07d9 843d
00000390: c4f7 72bd 2e3f 02be e38c c1bd c038 6f3d
000003a0: f77d fc3d 1102 6a3d 9672 67bc bec7 423d
000003b0: ddda 2bbb a68a a6bd 4617 f83c 1d77 7abd
000003c0: bff8 e43d 2726 e43d b51f 2bbd d5b8 293d
000003d0: 7cd3 713d 725d 83bc c635 0fbd 8ae2 82ba
000003e0: 63ff 3d3d 5a68 013e 1d59 d1bd 8c5d c63d
000003f0: d722 5dbd 4e25 0dbd e925 f7b9 b5cf 5c3c
0.10471876 -0.059525102 0.15006004 -0.13887145 0.058073144 0.11805786 0.07492982 -3.4193465e-05
0.008999827 0.035467453 0.1332116 -0.05753522 -0.09941018 -0.05487759 -0.14557844 0.025324231
0.0077975965 -0.11188235 -0.06264375 -0.089893095 0.04644025 0.0010696509 -0.03684368 0.017291337
-0.06012833 0.0048363786 -0.04854971 0.059333842 0.07603923 -0.0283858 -0.082834885 0.12952794
0.060107403 0.030367754 0.043724775 0.047552068 0.024714299 0.12625612 -0.07481472 0.03296543
-0.020952832 0.13976035 -0.018420054 -0.063176975 0.056162514 -0.1344285 -0.13497186 -0.038850628
-0.084659584 0.00995851 -0.045341168 -0.15262191 0.0925552 -0.021819243 0.081247665 -0.10984284
-0.05051584 -0.008110802 0.06447218 0.0712336 0.13385968 0.10834076 -0.0938609 -0.010188622
-0.09260014 0.0023031565 0.13820888 -0.11771206 0.00030480901 0.094375625 0.022813533 -0.13016817
-0.08261701 -0.053440083 -0.067488275 -0.011115829 -0.069261394 -0.121093065 -0.1481692 0.047132846
0.030304318 -0.10614335 0.13584557 0.039353002 -0.06378537 0.07454146 0.10565053 0.0773273
0.12683775 0.054935187 0.06134005 0.05000746 0.09133811 0.04540819 0.06669192 -0.05099156
0.14898731 -0.06983513 -0.09279634 -0.010987996 0.043746516 -0.025297265 0.052184295 -0.06777808
-0.0031660735 0.12744282 -0.11434163 0.10987972 0.092767976 -0.086728334 -0.0566602 -0.07389032
-0.007440664 -0.11933964 -0.05975486 0.050278272 -0.11251804 0.13444345 0.07501936 -0.02857805
-0.14813192 0.023821162 -0.063735075 -0.10220308 -0.055496395 0.112729296 0.090244934 -0.029108286
0.12527417 -0.050894976 -0.12856646 -0.060378216 0.15607989 -0.0913251 0.031521518 -0.13267298
-0.14106658 0.0633509 0.09368864 0.12081515 -0.0902914 -0.07566531 -0.12528896 0.03266597
0.09740463 -0.011233682 0.11932791 0.09604021 -0.05822953 -0.04963115 0.13051622 -0.016381392
-0.020962402 -0.07926829 0.05053999 -0.021242043 -0.09702936 0.10338869 0.07788093 -0.06088438
0.0030612606 -0.014253941 0.047852933 -0.06329016 0.08102935 -0.1367963 0.02583521 -0.026812008
-0.05555556 0.08392499 -0.14220105 -0.085752584 0.11557894 -0.091851294 0.05075768 -0.07711637
0.06944138 -0.018394127 0.032450236 -0.10013222 0.07989699 0.14256014 0.09911417 0.071880296
-0.15304837 0.008943792 -0.12695654 -0.010131873 -0.025816627 0.083000265 -0.08394028 -0.020110704
0.13357428 0.04085668 0.03366014 0.029974494 -0.122604474 -0.03327907 -0.0029078699 -0.02331555
0.034764986 0.036335688 -0.060454566 0.06285496 -0.007377081 -0.067247145 0.07273371 -0.098494425
0.017258264 0.03448555 0.035296634 -0.02268112 0.06989012 -0.10960073 -0.0924752 -0.072709374
-0.07631041 -0.032688268 0.019200576 0.045379627 0.09965672 -0.019606443 -0.0041563157 0.07369414
0.07561385 -0.017697532 -0.011748568 0.06486707 -0.05931832 -0.12719414 -0.094507 0.05840373
0.123287134 0.057130877 -0.0141264405 0.04755377 -0.0026222982 -0.08131914 0.030284535 -0.06114875
0.11180257 0.111400895 -0.041778285 0.041436035 0.059039578 -0.01603577 -0.03496339 -0.0009985727
0.046386134 0.12637463 -0.10222075 0.096858114 -0.053988304 -0.034459405 -0.00047139756 0.013477256

fc.3.bias f4 [64]
00000000: 1f20 c0bd ba3b 29ba 0aa5 3bbd 661e f5bd
00000010: 7767 2d3d 8e8e 02bd fbaf c33d c0c3 b3bd
00000020: 1504 5cbd 87c0 4bb9 8d27 70bc 34d4 ee3d
00000030: feb2 783c a3b7 81bd 0371 273d 228d 8a3d
00000040: 3203 a13d 46f6 fe3b 7956 da3d a430 273d
00000050: 0b7e a4bd 8ed5 12bd 6c21 b5bd b4b4 0f3d
00000060: 99ef 4b3d 4bfa 263d d32c 1f3c f7c3 323d
00000070: 0d3b 33bd 8397 043e 3231 103e d184 a0bd
00000080: 2c7b 593d 52b4 f13d d54c 1c3c a363 133e
00000090: 2ca1 173e 3618 a1bd 18ff fe3d 245c aebb
000000a0: 2419 23bd 5d5c 70bd 391e b7bd 5b42 dc3c
000000b0: 781a a83c 0c2a 243d 3eb7 a43d 99c0 10bd
000000c0: 6e90 a63d abdc d83d 7fe6 a33d 9ab4 bbbc
000000d0: 8752 d7bd 51d3 b4bd 752f 0f3d 5a7a 86bc
000000e0: 2559 003e 1980 473c 4448 81bd a959 53bd
000000f0: 3bdd 0f3c 41fd b5bd 07e2 a0bd 5392 e6bc
-0.093811266 -0.00064557383 -0.04581169 -0.11968689 0.042335 -0.031874232 0.0955505 -0.08777571
-0.05371483 -0.0001943131 -0.014657867 0.11661568 0.015179394 -0.06333854 0.04087926 0.067652
0.078619376 0.007780823 0.106610246 0.04081787 -0.08031853 -0.035848193 -0.08844265 0.03508444
0.049789045 0.04076604 0.009715277 0.043643918 -0.043757487 0.12948422 0.14081267 -0.07837833
0.05309598 0.118019715 0.009539803 0.14393477 0.14807576 -0.07865946 0.12450999 -0.0053210426
-0.039818898 -0.058681834 -0.089413114 0.02688711 0.020520434 0.04007916 0.08042763 -0.035339925
0.081330165 0.10588964 0.08002948 -0.022913266 -0.10513788 -0.08829368 0.034957368 -0.016415764
0.12534006 0.012176537 -0.06312612 -0.05159918 0.008780773 -0.08886195 -0.07855611 -0.028145945

placing_layer.0.weight f4 [4, 64]
00000000: 70a8 733d d272 303c 423a 95bd e37b 693d
00000010: 051c 86bd 24fd 933c 2f1f ef3d 1a52 143b
00000020: 9d15 d63d a6b2 cb3d 14c2 093e 68f7 103e
00000030: 422d b23d c55c 8e3d c90c 713c 9535 0c3e
00000040: 0830 95bc 2fb9 a43d dc7e d6b9 5e90 063d
00000050: 74ae c93b 9117 5ebd b7df 75bc 7499 16bd
00000060: 3fc9 8c3c a641 1a3e 15c3 bcbb f82f bf3d
00000070: 6b50 a23d 0589 74bd 1ae7 c23c ca85 0f3d
00000080: 83e6 d63c 3591 163e 7a79 a33b ce7f 17bd
00000090: 1605 f93c 8007 c93d 9360 183e 9d91 793d
000000a0: 5aec 373d 5811 8f3d 5c52 963d 94cf 053e
000000b0: 8785 cf3d fe76 5dbd 915f a5bd 788b a3bd
000000c0: adc0 713d f3f9 4cba 6b7f 87bd 9ff6 bebd
000000d0: 0590 0f3e 37ca 293d d6d1 19bc 2011 5dbd
000000e0: 3805 b23c d59a cd3d 1a01 1cbd 0d75 c93d
000000f0: d1b5 e23d 884e 073e 7f34 f93c 3bd7 cd3d
00000100: f519 99bc e39b 833d da9b ce3c 5e23 d1bd
00000110: 400d 96bc 59dd 833d 5f89 e7ba 406b 08be
00000120: 79bb e03d ad04 b13a c259 01be 48bb b43d
00000130: c13f ccbc 81e6 bd3d 366e 8b3d 74e4 53bd
00000140: f4ab 3b3c 6523 82bd 7e88 cc3d 42a0 cc3d
00000150: 270a cd3d 6481 813c f07c 9f3d 53f2 723d
00000160: 851a 74bd 02dd 373d e658 c83c 2bec e53d
00000170: e67f 94bd 27af 9bbd de53 bfbd 0a5c d7bc
00000180: 8970 703d c26d ae3d 5be0 ab3a 704e 3ebd
00000190: d7eb 39bc 85a3 babd 1d87 4dbb 78ae bf3d
000001a0: 3243 c83d 9ce2 133c 3b77 503d ed0f 5d3d
000001b0: 3e34 cd3d e8df 05be c723 e63d b441 55bd
000001c0: b280 02be 3188 fcbd 0244 68bd f3ab a9bd
000001d0: f5e9 313d 200e aabd eb96 18b9 3018 293b
000001e0: 4511 2fbd 680c 923d 97bb 4abd 673b 0d3d
000001f0: 0aa9 b93d acc7 663d 5377 bebd 1881 8fbb
00000200: 5005 823d 5e80 ca3d 0ef7 193e 43cc d7bd
00000210: e300 a1bc d4be 82bb 6b27 c0bd 9860 823d
00000220: 6c44 0a3e 7cc9 41bc 2d85 d83b 8d5f 8dbd
00000230: 350c 313d 958d 733d d353 5bbd a09c f73d
00000240: afde b83d f06a 0e3e c784 0c3e ed1a b7bd
00000250: cdb4 5f3c 173e 103e b78c 7f3d adec 30bd
00000260: 4cf3 c3bd 8e8b 53bd ab1c 0e3e 484a 913d
00000270: 234c 6c3d fa41 8e3c f2e5 0f3e d471 023e
00000280: 71d3 b7bd 5ae3 0c3e 5d99 08bd 64c1 1f3d
00000290: e09d 8bbd fe22 f2bc 4fb6 143e 9645 db3d
000002a0: 2f4c de3c 47af 8ebd 96bd 5ebc a4d6 113e
000002b0: 915a bf3d 02ca 713d ba1e a33d 55e8 bfbd
000002c0: 3e46 c33d bb38 c6bc 7cd8 babc ffbb 773d
000002d0: a571 00bd fd5d 913d ffd4 c5bc 15b5 c03c
000002e0: 3a52 89bd cdd1 053e 209a da3d 0c07 89bb
000002f0: d59f ce3c ad65 113e 448c b7bd da87 5a3d
00000300: 1122 03bd f33c bdbc 159a cd3d 13cb 7abd
00000310: 6b9e a73c 9155 03be f83d b43d 3040 96bd
00000320: 8c5e bcbd afb2 363c bfc2 6c3d 46e3 02bc
00000330: 3dc1 e3bd a967 813d 042d debc 6bc4 633d
00000340: 10c4 b3bd 29f5 963b 014f b2bd df9a c03d
00000350: 73fa 7f3d b1e4 02be fdcf a6bd 4947 513d
00000360: 1038 e0bd 8e49 4abd b8cf 6bbc 6c65 bd3c
00000370: bcc4 793d 8b4d 03be 7714 a63d fb04 623d
00000380: 8a11 6a3c e069 003d 5074 8d3d 6098 a63d
00000390: 3ffc fdbd 3767 ac3d 6abc 88bd 9c06 943d
000003a0: a217 febd f5cc 6abd 95bb cc3d 0bb6 ccbd
000003b0: 587c cdbd 7de7 a3bd 62df 623c 140c 163c
000003c0: f224 08be e22e ccbd 49cd c63d d457 c9bd
000003d0: 70c6 403d 8f80 7d3d ae1b 94bd c86d 01bd
000003e0: 0671 25bd 2f9d 1fbd 6d51 05be e544 a3bd
000003f0: ea1d 743d f6bd cf3d c62a 39bc f94c 03be
0.059486806 0.010769563 -0.072865024 0.057002913 -0.06548313 0.018065043 0.1167587 0.0022631944
0.10453341 0.09946184 0.13452941 0.14156878 0.087000385 0.06951288 0.014712521 0.13692315
-0.01821138 0.080431335 -0.00040911778 0.032852523 0.0061548296 -0.054221693 -0.015006951 -0.036767438
0.017185805 0.15064105 -0.0057605603 0.09335321 0.07925495 -0.059700985 0.023791838 0.0350397
0.026232963 0.1470383 0.0049888464 -0.03698712 0.030397933 0.09815884 0.1488059 0.060929883
0.044903137 0.0698573 0.073399276 0.13067466 0.1013289 -0.054068558 -0.080748685 -0.07985586
0.05902164 -0.0007819228 -0.066161 -0.09324383 0.14019783 0.041452613 -0.009388408 -0.05397141
0.021731004 0.100392975 -0.038086988 0.09836779 0.11069835 0.13213551 0.03042054 0.100508176
-0.018689135 0.064262174 0.0252208 -0.10211824 -0.018316865 0.06438703 -0.0017664841 -0.13322163
0.109732576 0.0013505422 -0.12631896 0.088247836 -0.024932744 0.09272481 0.068081304 -0.05173154
0.011454571 -0.06354407 0.09986971 0.09991504 0.10011702 0.015808769 0.07787502 0.05931313
-0.059595603 0.044888504 0.024456453 0.11226686 -0.07250957 -0.07601767 -0.09342168 -0.026289005
0.058701072 0.085170284 0.0013113128 -0.046461523 -0.0113477325 -0.0911322 -0.0031361051 0.09359449
0.097784415 0.009026196 0.050894957 0.053970266 0.1001973 -0.13073695 0.11237293 -0.052064613
-0.12744406 -0.12330664 -0.056705482 -0.0828475 0.04343601 -0.083034754 -0.00014552071 0.002580177
-0.04274108 0.071312726 -0.049495306 0.03448048 0.09065445 0.056342766 -0.09300103 -0.004379403
0.063486695 0.09887765 0.1503565 -0.10537007 -0.019653743 -0.0039900336 -0.093825184 0.0636608
0.13502663 -0.011827823 0.0066076727 -0.069029905 0.043224532 0.059461195 -0.053546738 0.12090421
0.090268485 0.13907981 0.13722526 -0.089406826 0.013653946 0.14086185 0.062390056 -0.04319446
-0.095678896 -0.05164676 0.13878123 0.07094246 0.057689797 0.017365444 0.14052561 0.12738734
-0.08975876 0.13758603 -0.033349384 0.03900279 -0.06817222 -0.029557701 0.1452267 0.10706632
0.027135937 -0.06967025 -0.0135950055 0.14242035 0.09343446 0.05903054 0.07964845 -0.09370486
0.09534882 -0.024196973 -0.022808306 0.06048202 -0.03135838 0.07098005 -0.024149416 0.023523847
-0.067051366 0.13068314 0.10673928 -0.0041817483 0.025222698 0.14198942 -0.089623004 0.053352214
-0.03201491 -0.023100352 0.100391544 -0.061228823 0.020461282 -0.1282561 0.08800882 -0.073364615
-0.09197721 0.011151 0.05780291 -0.0079887565 -0.11120842 0.063186 -0.027121074 0.05560724
-0.0877763 0.004606862 -0.08706475 0.09404539 0.062494706 -0.12782551 -0.08145139 0.051093373
-0.10948193 -0.049386553 -0.014392786 0.02311965 0.060978636 -0.12822549 0.08109372 0.05518053
0.014286408 0.03135097 0.069069505 0.08134532 -0.12401628 0.08418124 -0.06676562 0.07227823
-0.12406851 -0.05732437 0.09996716 -0.099956594 -0.10033482 -0.08003137 0.013847204 0.009158153
-0.13295344 -0.0996988 0.09707124 -0.09831205 0.047064245 0.06189018 -0.07231842 -0.031598836
-0.04039099 -0.03896826 -0.13019343 -0.07972125 0.05959884 0.10143654 -0.011301702 -0.12822331

placing_layer.0.bias f4 [4]
00000000: 8459 e73d 6fa8 e23c db87 a53d f39a 5f3c
0.112963706 0.027668206 0.08082553 0.013647783

placing_layer.1.weight f4 [4, 64]
00000000: 977e 2cbd d341 d33d 3e44 233b 0a98 63bd
00000010: f9aa 173d 5bcb c8bc 6659 523b 8016 023d
00000020: 1c38 ea3c 8ef8 db3d 17bf b8bd 7d1d 613d
00000030: 7b40 b93d 9c2e 47bd e91f 7fbc 80a1 80b5
00000040: 548f 8cbd cfdb 923c c0c4 f53b 3ef8 4cbc
00000050: 562c 89bc 3957 d83c 1403 ee3d e4b8 c83d
00000060: 4c1e 9e3d 840e a03d aeaf b83d 31d6 173d
00000070: 61a0 bdbc 219e b93d 8438 85bd f8a4 39bc
00000080: e22e edbd 20e3 a9bd 904d 26bd eb33 983d
00000090: bc06 d73c 4249 b4bd f07d cbbd 76e1 c43d
000000a0: 312a a0bb 195b 6dbd 627a f33d 0252 a9bd
000000b0: ea02 fdbd 5926 d13d 5eb4 a63d 2d28 db3d
000000c0: b4f3 b13d 75a4 abbd 8f65 87bd aed6 acbd
000000d0: 9db2 febc adca a4bd c78c dcbd 5d9b 583d
000000e0: e324 9cbd b7e1 723d 1bbe a8bd ba7b cf3c
000000f0: 8fb1 12bd 3723 ae3b 2a15 2c3d a7ca 0b3c
00000100: 589b abbc 31be fc3c 446d 13bd d295 dabd
00000110: f742 16bd 423d cfbd 1bcc e7bd a611 06bd
00000120: 832e b2bb cb74 b03d d698 ee3c 8cd2 f8bd
00000130: 009d a73b 9838 09bd 61be 013d 6588 c0bd
00000140: 9333 c7bd 8fe2 ef3c b73a 723c 3264 03bd
00000150: 33a4 d6bc b259 aabd a257 e6bd 88b6 da3b
00000160: 0b9c a03d 817e 12bd b817 853b bf93 b4bc
00000170: f57f e4bd 1bb6 5abc 3e17 9ebd f2b0 a73d
00000180: 43e3 603d da6d 923d 90e6 4d3d 2731 0fbb
00000190: abd6 a93c cfb8 92bb 5693 63bd b56f f33d
000001a0: 6725 04bd 2efb f5bd f31f b73c 4e5a f7bd
000001b0: b94a d93d 8936 0a3b 5dac ccbd c410 623d
000001c0: 7c02 a13c 9e51 e53b 2fb5 84bd f128 a9bd
000001d0: 5e44 d7bd 161e 4fbc 8eba 74bd 262f e33d
000001e0: 6077 163d feb0 50bc 99bd 0abd 8d69 d13d
000001f0: 4444 333d a831 e8bd 343a b8bd 198f 00be
00000200: 647c 013e 1b94 8dbd df0b cc3d a09a 683d
00000210: a5d0 a83d 2fde 023e 04d1 c33d 0208 043e
00000220: 6a16 ea3d 50ae c9bb 7aae 37bd 8240 bd3c
00000230: 5d01 f93d 71b9 cfbd b761 0b3e 33cd 6b3d
00000240: 8dfb dabb 2ab6 3a3d afd9 22bd 818b b33c
00000250: 879a 8b3c e25c b7bd 251b 5dbd bde9 24bd
00000260: 6671 363d b116 a6bb 0250 adbd 9f67 d73d
00000270: 1184 a13d 241b 1dbd 6753 8ebd 22b3 fe3d
00000280: d324 573d 3bb9 95bd 396c adbd dbac b93d
00000290: 2a84 c4bd 5a37 36bc 7160 253c 6ec0 5abd
000002a0: 0934 033e 70a8 e6bc 1bb6 74bc b476 dd3d
000002b0: be18 01bb 55ea 023d 79e0 90bd 69fc d33c
000002c0: 6bca c7bd acff 0a3d 5aaa d6bb 1d0e 093d
000002d0: 54d4 973d c2fc 253c 1e7f f33d b532 a3bd
000002e0: c775 3d3d 7adc 433c 2dfc 0d3e 675d 2abd
000002f0: d76b 45bc 46e7 3d3d b003 a5bd f5dc 903d
00000300: ac77 203d 3e86 4d3d f23f 103d 5082 613d
00000310: fdeb 223c b29a 52bd 0f4b 06be 5104 09bc
00000320: 63ec 27bd 3b5e 0abe f3b5 2d3d 7c5d 1a3c
00000330: 380e df3b 57a6 cbbd 9408 b7bd eead cd3d
00000340: 6a20 8c3d e948 b73b 9335 ac3d 8d7a e7bd
00000350: 7a55 a13d 8464 07be a910 f53b 3583 dcbd
00000360: a31d a3bd ba20 cfbd c579 2cbd 6f53 eb3b
00000370: 0304 d7bc 8e9a 03be 314d a7bd c830 f2bd
00000380: 612b 0dbe fa5b bc3d 33cd 973d 47b8 a1bc
00000390: db02 99bd 8c34 df3c a9de cb3d 3f1a eebb
000003a0: a4e4 233d 5204 403d ded7 4f3d 5ead 0abe
000003b0: 6a22 10be 312c cb3d 233b 26bb 80c8 1cbc
000003c0: 552a 4a3c e8b2 a33d b20c 1f3c 7384 05be
000003d0: 0ded 80bd 7b4d c33d 44d4 86bd cf0f af3c
000003e0: bab7 08be c084 033d 1518 083c bc87 9bbb
000003f0: 924a f338 0ef1 d5bd 9575 9b3d 62a1 b5bd
-0.042112913 0.10315289 0.0024912502 -0.055564918 0.037028287 -0.02451103 0.0032096743 0.03175974
0.028591208 0.107407674 -0.090208225 0.054959763 0.09045502 -0.048628435 -0.015571573 -9.583746e-07
-0.06863275 0.017927079 0.007500261 -0.012510357 -0.016744774 0.026408779 0.11621681 0.0980089
0.077206224 0.07815269 0.09017883 0.037069503 -0.023147764 0.09063364 -0.0650492 -0.0113308355
-0.11581208 -0.08295274 -0.040601313 0.074317776 0.026248328 -0.08803035 -0.0993613 0.09613316
-0.004887842 -0.057948206 0.11888577 -0.08267595 -0.123540714 0.10212392 0.08139871 0.10701022
0.08689061 -0.08380977 -0.06611168 -0.084393844 -0.031091029 -0.0804647 -0.10769039 0.05288254
-0.07624223 0.05929729 -0.08239385 0.025327552 -0.035813864 0.0053142565 0.04201237 0.008532203
-0.020948097 0.03085241 -0.035992876 -0.10673107 -0.036684956 -0.10119106 -0.11318227 -0.032731675
-0.0054376735 0.086160265 0.029125612 -0.12149534 0.0051151514 -0.033501238 0.0316757 -0.09401015
-0.09726634 0.029282836 0.0147845065 -0.032077976 -0.026201343 -0.08317889 -0.112471834 0.0066745915
0.07842263 -0.035765175 0.0040616654 -0.022043107 -0.11157218 -0.013349081 -0.07719277 0.081880465
0.054904234 0.07149859 0.05026871 -0.0021849365 0.020732244 -0.0044775973 -0.055560432 0.11886541
-0.032262232 -0.12010799 0.022354102 -0.12077771 0.10609955 0.0021089634 -0.09993813 0.05519177
0.019654505 0.006998255 -0.064798705 -0.08259762 -0.10511087 -0.01264145 -0.059748225 0.11092977
0.03673494 -0.012737511 -0.03387222 0.1022521 0.043766275 -0.11337596 -0.08995476 -0.12554587
0.12645108 -0.069130145 0.09963202 0.056788087 0.08242921 0.12780069 0.09561351 0.1289368
0.114300564 -0.006154813 -0.04484413 0.023102049 0.12158463 -0.10142792 0.13611494 0.05756874
-0.006682819 0.04558388 -0.03975838 0.021917107 0.017041458 -0.08953263 -0.053980965 -0.040261973
0.04454174 -0.005068623 -0.08462526 0.10517811 0.07886518 -0.03835596 -0.069495015 0.124365106
0.052525353 -0.073107205 -0.084679075 0.09066173 -0.09595521 -0.011121595 0.010093794 -0.05340617
0.12812819 -0.02815649 -0.014935995 0.108136564 -0.0019698585 0.031961758 -0.07074065 0.025877194
-0.09755405 0.033935234 -0.006551069 0.033460725 0.07413545 0.010131063 0.1188948 -0.07968656
0.0462549 0.011954421 0.13865729 -0.04159298 -0.012049637 0.046363138 -0.08057344 0.07073394
0.039176628 0.05017685 0.035217233 0.055055916 0.009943959 -0.05141706 -0.1311457 -0.0083628455
-0.04099692 -0.13512509 0.04240985 0.0094217025 0.006807115 -0.09943836 -0.08937183 0.1004294
0.0684212 0.0055934084 0.08408656 -0.113026716 0.078776315 -0.13221937 0.0074787927 -0.10767213
-0.07964637 -0.10113664 -0.042108316 0.007181577 -0.02624703 -0.12851927 -0.0816902 -0.118257105
-0.13786079 0.09197231 0.074121855 -0.01974119 -0.07471248 0.027246736 0.099545784 -0.0072663124
0.04001297 0.04687912 0.050742976 -0.13542697 -0.14075628 0.09920538 -0.0025364838 -0.009569287
0.012339194 0.07993108 0.009707617 -0.13038807 -0.06295214 0.095362626 -0.06583455 0.021369843
-0.13351336 0.032109022 0.008306523 -0.0047464054 0.00011601033 -0.10446368 0.07590786 -0.08868672

placing_layer.1.bias f4 [4]
00000000: baae ce3d ed7e 0cbd d782 2dbd b109 703d
0.1009192 -0.034300733 -0.042361107 0.058602992

placing_layer.2.weight f4 [4, 64]
00000000: 3446 753d 55e2 1a3e 9d42 a83d c7b4 d0bd
00000010: 5736 673d c5e3 b93d 771e 60bd afb5 153d
00000020: 9593 91bd e315 50bd 6858 8abd 8bdf 533d
00000030: fe81 94bd b2bf b1bd a322 ea3d ddb3 89bd
00000040: 873d a93c 6646 b43d 6461 913d 8dea 9ebd
00000050: da2b bcbd 451c 0b3d 4ab7 36bd 3d1b 50bd
00000060: e2b1 8c3d 958c 093d 792f c5bd 0049 62bd
00000070: 1c69 0fbc 94e0 8f3d 5f5d c6bd 8b16 383c
00000080: 55dc 793c b3c3 62bd 6938 6c3d 3464 fe3b
00000090: d849 51bd b036 aebd 097b 9cbd 0e2a d13c
000000a0: 4716 ccbb 1895 4f3d c841 e03d bc9e f33d
000000b0: b0b6 143c a5a8 0d3d f1fd 1dbd f3e8 923d
000000c0: 74ad 0b3e 707e 9dbb bfba 75bd 6231 f3bd
000000d0: 8601 f83c 3a01 843d 69ec 35bd 1f79 783c
000000e0: 0905 3fbd 9f20 3ebd a4a5 a8bd 20f6 d3bd
000000f0: 0559 cebc 5289 d13d b8ae 36bd df78 c53d
00000100: 63a4 81bc 12d7 d4bd 68f0 83bd b5a5 82bc
00000110: fcee c83d bd90 cabd 30d1 d7bc 3e5b 443c
00000120: 5ba0 d53d f687 8bb9 a09a b43d 1a00 513d
00000130: 97fc 5b3d b7d1 c5bc 8256 cd3d f312 f53c
00000140: 8fe8 8c3d 3e8c 59bd b97d 3b3c efb5 1dbb
00000150: dce2 f03c 508a 9b3c 6721 49bd ad50 28bd
00000160: 36da 6b3d 50d3 c43d 8967 f13a b481 e0bd
00000170: c7b4 9fbc 8e74 b8bd 2fd2 8c3d 432c 2f3c
00000180: b561 0abd 02e3 803c 4096 533d d902 d23d
00000190: 0fe2 c03c b7c6 943d 38cc 9e3d bfc5 9a3d
000001a0: ccce a43d 114f 853d eed4 623d 1168 82bd
000001b0: 6c5d 3bbc bc4a 5b3d 6fcb 673d e044 01be
000001c0: 6b6a 3c3d 145a 5d3d 13a9 bc3c 9610 853d
000001d0: 4515 ecbd f832 bebd e01c c23d e0ff 96bd
000001e0: 7c09 fabd 6a44 56bb 9d53 87ba dd48 b6bd
000001f0: 016f f4b9 205e 02be 244d 2bbc a526 79bc
00000200: 9e8d 443d c77f 993d 3584 0f3e e75e ddbc
00000210: 0534 00bd d9c5 1f3e f949 5a3d 6195 a1bd
00000220: 5941 823d 49f1 aebd 1d33 0c3e ed03 1bbd
00000230: ef9a 7cbd bf57 e53d ff09 f23c 876d 183d
00000240: 8d65 e93c c30f 81bd 3926 aabd 8363 713d
00000250: 1414 adbd 500e c63c 1f4c debb 263d ccb9
00000260: 573e 8e3d ec48 ecba cc24 0bbc d741 b7bc
00000270: f4d9 253d 9c53 c63d 800e bbbc afbe 1a3e
00000280: 842c 173c c7b4 7fbd cef0 013e b089 133e
00000290: 5683 8c3d a5ae b0bd fc35 493d 61cf f43d
000002a0: 70f1 b23d 9870 72bd 24fa e5bc 582e c2bc
000002b0: cb76 0bbd 97ca 5e3d 8511 a8bd 1656 da3b
000002c0: e5a2 b1bd 84f8 80bc b7f0 0e3e 03c9 0b3e
000002d0: 2e30 303d 642e 60bd 5d33 063e 6b75 e63d
000002e0: 7a9e 6f3d 9332 53bc 780f cbbc 967b 1b3d
000002f0: 2acb afbc 1293 66bd 8b74 cabb 41d4 523b
00000300: f8e6 d93c 16e9 d8bd 007c efba 5e33 debd
00000310: 6fb5 57bd faaa bf3d 4ef0 0c3c 66d3 273d
00000320: 0039 e53b d8e2 5dbd 7e29 aabd f4da dbbd
00000330: fc15 a6bd 80c3 febd 785d c7bd 9563 323d
00000340: 8ee6 b5bd 86c0 b2bd c04f 423b 606b 95bb
00000350: 0aa2 a63c ae1d c03c eb6d a9bd ac16 063d
00000360: 8418 30bd a73c c63d 8e5f afbd 6831 e43d
00000370: 9097 4fbc 5c3c 2bbd f557 26bb ded1 b83c
00000380: 06f6 883c 0c0d 70bd a0d4 86bd da87 fdbd
00000390: 7464 63bd 5ce6 65bd c818 74bc f245 8f3d
000003a0: 44d2 3dbd da0c 5abd 83b4 333d be0f f03d
000003b0: 0cab ccbd 1ec4 9c3d acf0 25bd a956 c8bd
000003c0: 680b 99bc b00a 3e3b 11d3 343b 54ca 2abd
000003d0: 04df cabd 6819 393d 9e7a f6bd ec78 84bd
000003e0: a302 ba3d de79 9f3d 6a21 cebd 4063 483b
000003f0: c8d6 473d 6595 0e3d 005f d43a d871 e23c
0.059881404 0.15125401 0.082158305 -0.101907305 0.056448307 0.09076647 -0.054716554 0.03655022
-0.07108227 -0.050802123 -0.067551434 0.05172686 -0.072513565 -0.08679141 0.11432388 -0.06723759
0.020659221 0.0880249 0.07098654 -0.07759581 -0.091880515 0.033962507 -0.04460839 -0.050807226
0.06869866 0.033581335 -0.09628195 -0.0552454 -0.008753087 0.07025257 -0.09685778 0.011235843
0.015250285 -0.055362415 0.057670984 0.00776341 -0.051095814 -0.085065246 -0.076406546 0.025532749
-0.0062282416 0.050679296 0.10950047 0.118955106 0.009076759 0.03458466 -0.038572256 0.07173338
0.13640386 -0.0048063323 -0.059992548 -0.118746534 0.030274164 0.064455464 -0.04441491 0.015165596
-0.04663566 -0.04641783 -0.082347184 -0.10349679 -0.025188932 0.1023127 -0.04460022 0.09642195
-0.015825456 -0.10392584 -0.06442338 -0.015948156 0.09811208 -0.09890888 -0.026344866 0.011984644
0.10430976 -0.00026613445 0.08818555 0.051025487 0.053707685 -0.024147851 0.10026266 0.029916262
0.068802945 -0.05311226 0.011443549 -0.002406474 0.02940505 0.018986851 -0.04910412 -0.041092563
0.05758115 0.09610617 0.0018417697 -0.10962239 -0.019495381 -0.09006606 0.06876027 0.010691705
-0.033784587 0.015733246 0.05165696 0.102544494 0.023545293 0.07264464 0.077537954 0.07557248
0.08047256 0.06509221 0.055378847 -0.06367505 -0.011435848 0.05353807 0.056590494 -0.1262393
0.045999926 0.054040983 0.02302984 0.06497304 -0.11527494 -0.09287065 0.09478164 -0.07373023
-0.1220884 -0.0032694587 -0.0010324601 -0.08900616 -0.0004662201 -0.12731218 -0.0104554035 -0.0152069675
0.04798662 0.07495075 0.14015277 -0.027022792 -0.03129961 0.15602817 0.053293202 -0.0788982
0.0636012 -0.08542115 0.13691373 -0.03784554 -0.061671194 0.11198377 0.029545782 0.03721383
0.028490806 -0.063018344 -0.08308072 0.058932792 -0.08451095 0.024176747 -0.0067839767 -0.0003895547
0.06945484 -0.0018027104 -0.00849266 -0.022370262 0.04049106 0.09683916 -0.022834063 0.15111803
0.009226922 -0.062428262 0.12689516 0.14407992 0.06860988 -0.08627061 0.04912375 0.11953617
0.08737457 -0.05918941 -0.028073378 -0.023703739 -0.034048837 0.054392423 -0.082064666 0.0066630943
-0.08673648 -0.015743501 0.13959013 0.13650899 0.043014698 -0.05473174 0.13105531 0.112528645
0.058500744 -0.012890476 -0.02478765 0.037959658 -0.02145918 -0.0562926 -0.006178444 0.003216997
0.026599392 -0.105913326 -0.0018271208 -0.10849641 -0.052663263 0.09358783 0.008602215 0.04097309
0.0069953203 -0.054171413 -0.08308695 -0.10735121 -0.08109662 -0.124396324 -0.097346246 0.043552
-0.088818654 -0.08728127 0.0029649585 -0.0045599192 0.020340938 0.023451652 -0.08272918 0.032736465
-0.04299213 0.09679537 -0.085631475 0.11142236 -0.012670413 -0.04180561 -0.0025382016 0.02256101
0.016718876 -0.058606192 -0.06583524 -0.12379427 -0.05551572 -0.05612789 -0.014898486 0.06995763
-0.046343103 -0.053234912 0.04387332 0.117217526 -0.09993562 0.07654594 -0.040512726 -0.09782154
-0.018682197 0.002899807 0.0027591626 -0.04169686 -0.09905818 0.045190245 -0.12035106 -0.064683765
0.09082534 0.07786916 -0.10064967 0.0030576736 0.048788816 0.034810442 0.0016202629 0.027642176

placing_layer.2.bias f4 [4]
00000000: f469 9ebd 371e 64bd 2fa3 7a3c a9e3 01be
-0.07735053 -0.055692878 0.015297695 -0.12684502

placing_layer.3.weight f4 [4, 64]
00000000: 2c79 bcbd dd63 d43d 4d9b 0bbb ff81 5fbd
00000010: 5202 0c3e 2b41 c83d e17e d83c 3b10 f83c
00000020: 39c6 c23d 61d5 d03d 8209 e63d 9839 d03d
00000030: 2483 023e e439 d5bc 0d5e 8bbd 46af a4bd
00000040: a9d5 5ebd 85f1 f93d 9b92 e1bc d39c 5d3c
00000050: 186d 793c 3095 27bc b71e a7bb a3ea 8f3d
00000060: 18bb 513d ea35 5e3c 29e7 40bd 0e8c cdbc
00000070: 027d 2fbb 0c40 093e 4c52 c93b fa3e a0bc
00000080: bb64 e03d 231e eb3d 13b7 903d 9930 58bd
00000090: 0a8d 003e bc75 79bd 63bc 82bd 620b 1cbc
000000a0: 2c58 3b3d 0c5f 96bd 2371 b03c 2ef1 073e
000000b0: 99b0 9a3d cf79 8e3c df9b 0e3e b9f2 843d
000000c0: 83b3 813d 0da3 193d 6d5d 0b3d 5c1e b2bd
000000d0: 5727 123e dfb4 6ebd 06eb 9c3d 05e7 b2bd
000000e0: 569e 40bd 424c 71bc e370 0e3e 7aea 253d
000000f0: e718 5f3c ceef 2d3c d34d 2d3d 38a8 523d
00000100: 847d 91bc 82ec 7dbc ae46 dcbc ba15 233d
00000110: d90b b33d be20 16bd c450 bf3a 61b8 48bc
00000120: d27d 1abc 748c ba3d 2f2b f4bb fe10 193e
00000130: 5197 4d3a e5ed b23d fe9d 143e 7ee8 9dbd
00000140: 05c2 943d 67e4 49bd 0050 823d 88bc ec3d
00000150: 98fc a53d 5ef2 b93d 6263 063e ad7f 8ebd
00000160: e937 0a3e 487c a5bd 41fc 063e 0b56 aebd
00000170: d198 e73d 5894 a93c 6f0a f23d a1e0 bd3d
00000180: 67f8 f13d b354 74bd c725 923d 6f24 333d
00000190: 9e45 db3d d322 d2bc f65e 973d ce3f e63d
000001a0: 1e97 ae3d 8f4b 1e3e 19b0 a63c 79ef bebd
000001b0: 4005 52bc 9788 963d 42e1 cdbc 4e93 5b3c
000001c0: f9a9 b83d fafd be3d 494b 073e 3869 71bc
000001d0: b6a8 9abd 9d6b 293d f745 c1bd 0484 a13d
000001e0: b55e a1bd 13cb 27bd 70f3 d7bc 047c db3c
000001f0: 4337 32bd f8ef 803d 9daf f23d 955b 053d
00000200: ba99 e23b c19c 8ebc 2cb5 f1bd d02e bcbd
00000210: d424 043d a2c1 e9bd 2f6c 40bd 6738 7a3b
00000220: 7ebb 8f3c 5908 bf3a fae6 c2bd 3882 78bd
00000230: 40cf 64bb e484 9a3c c796 9bbc 2163 1d3d
00000240: 0385 6dbd 18c2 e13d 827e 74bd 1bf1 c83d
00000250: 0623 ffbd 45ed 6a3c d8d7 fe3c 57b5 99bb
00000260: 6686 d6bd d7b9 0abd 388b ec3d cfdc 233d
00000270: 4e03 a8bd 0329 18bd f061 1fbd 6108 12bd
00000280: 8cca b33c 38cb d43d 8fdb babc a4d9 d23c
00000290: caf1 863d 85a8 07bd 5fe5 2b3c fbc7 ba3d
000002a0: 20c7 80bd 4457 ebbc 1727 383d 23c2 013a
000002b0: 4c2f 343d 9b9b 6dbd da4d 763d 4ac7 cc3d
000002c0: 804d 00be 4267 adbd ae5b bfbd c0f5 99bc
000002d0: 1462 2f3d 6ece e13d 6822 f7bd 3e86 a2ba
000002e0: 1062 39bc 3a46 a13d d81a 8cbd 39be ab3d
000002f0: 00e2 a8ba d95c d4bd 22ef 99bd a192 813d
00000300: 2583 a43d 44aa a7bd b82f c6bd 6145 0a3d
00000310: ce3b ca3d 2852 95bc 2cef ba3d 517a 45bd
00000320: 5496 d6bd e9ea 06be a086 fdbd 59d5 03be
00000330: e2dd d7bb 7054 11be d719 333d eb5c a8bd
00000340: 64f2 cb3c 20a7 49bc 11aa 833c 76fe 0dbd
00000350: da41 a8bd 4b6f a0bd 1e5a c33d 8faa 983d
00000360: 9d49 d6bd 58bb 38bc c7b3 a83d 9a11 c8bb
00000370: bb46 3e3d 6909 cd3d abb8 023d 4416 8cbd
00000380: 11ed b0bd b5bc 78bd 18db d9bc c762 563d
00000390: 7058 b6bd 6c3f 76bd 56dd 08be 95d4 a43c
000003a0: 4e82 0c3d 3ac3 87bd ba4f 473d 00d3 a93d
000003b0: 5836 583d 4cfc 183c cecf 3abd eb3e f8bd
000003c0: 483a cfbd 45dc 83bc 7d63 a93d 1d57 0bbe
000003d0: 4e56 ab3d 4b6b 9fbd 4700 b33d 9dc8 febd
000003e0: 3120 f8bb b71d b63d c110 983d b7b0 c2bd
000003f0: 3174 823c c626 a13d fa7b 54bd 5825 913d
-0.09202799 0.1037061 -0.0021302283 -0.054567333 0.1367276 0.09778055 0.026427688 0.030281177
0.09510464 0.10196949 0.11232282 0.10167235 0.12745339 -0.026028581 -0.06805048 -0.08041243
-0.05440298 0.12204269 -0.027535727 0.013526159 0.015223764 -0.01022844 -0.005100097 0.07027175
0.051203817 0.013562659 -0.04709545 -0.025091197 -0.0026777391 0.13403338 0.0061438438 -0.01956128
0.10956713 0.114803575 0.07066169 -0.05278072 0.12553802 -0.060903296 -0.06383588 -0.009524198
0.045738384 -0.073423475 0.021538323 0.13275596 0.075532146 0.017392067 0.13926648 0.06491608
0.06333067 0.037509013 0.034024645 -0.08697197 0.1427282 -0.05827796 0.07662015 -0.0873547
-0.047026 -0.014727654 0.1391025 0.040506817 0.013616777 0.010616256 0.042310547 0.051429957
-0.017760046 -0.015498282 -0.026889171 0.039815642 0.08742494 -0.03665232 0.0014596214 -0.012250991
-0.009429412 0.091088206 -0.007451437 0.14947888 0.00078426773 0.08736781 0.14513394 -0.0771036
0.07263569 -0.049290087 0.06362915 0.11559397 0.08104819 0.09079431 0.13123849 -0.06957946
0.1349789 -0.080803454 0.13182165 -0.08512505 0.11308444 0.020700619 0.11818396 0.0927136
0.11814957 -0.059651088 0.07136112 0.043735918 0.10706638 -0.025651371 0.07391159 0.112426385
0.08524917 0.15458511 0.020347642 -0.093230195 -0.0128186345 0.07350271 -0.025131825 0.013401819
0.09016795 0.09325786 0.13212313 -0.014734559 -0.0755171 0.041362394 -0.09437173 0.07886508
-0.07879392 -0.04096515 -0.026361197 0.026792534 -0.043509733 0.062957704 0.11849902 0.032558043
0.0069152983 -0.01740873 -0.11802134 -0.09188616 0.032261685 -0.11413886 -0.046978172 0.003818059
0.017545458 0.0014574631 -0.095167115 -0.06067106 -0.003491357 0.018862195 -0.018992795 0.038424615
-0.057988178 0.110233486 -0.05969096 0.09811612 -0.12457852 0.014338796 0.031108782 -0.004690807
-0.10474853 -0.033868637 0.11549991 0.0400055 -0.08203755 -0.037148487 -0.03891176 -0.035652522
0.021947168 0.103903234 -0.022809772 0.025738545 0.06589086 -0.033119697 0.010491698 0.091201745
-0.0628798 -0.028728135 0.044959154 0.0004949888 0.04399042 -0.058009725 0.06013284 0.09998949
-0.12529564 -0.084669605 -0.093436584 -0.01879394 0.042818144 0.110257015 -0.12067109 -0.0012399626
-0.011314884 0.07874723 -0.068410575 0.083858915 -0.0012884736 -0.10369272 -0.07516314 0.06326795
0.08032826 -0.081867725 -0.096770704 0.03375757 0.09874688 -0.018227652 0.0912765 -0.048212353
-0.104778916 -0.13175549 -0.12379193 -0.12874354 -0.00658773 -0.14192367 0.043725815 -0.08220848
0.024895854 -0.012307912 0.016072305 -0.0346665 -0.08215685 -0.078337274 0.09538673 0.074544065
-0.10463259 -0.011275135 0.08237415 -0.006105614 0.046454173 0.100115605 0.031914394 -0.06840184
-0.08638967 -0.06072684 -0.02659373 0.052340295 -0.08903587 -0.060119078 -0.13365683 0.020120898
0.034303956 -0.066290334 0.048660018 0.08292198 0.0527862 0.009337496 -0.045608334 -0.12121376
-0.10118538 -0.016096244 0.08270929 -0.1360745 0.08366071 -0.077841364 0.08740287 -0.12440608
-0.007572197 0.088923864 0.074250706 -0.09506362 0.015924545 0.078687236 -0.051876046 0.07087201

placing_layer.3.bias f4 [4]
00000000: 8f84 85bd bf89 c0bc 2552 ecbd 25da ab3a
-0.06519424 -0.023503182 -0.11539105 0.0013111277
