extra_baseline2/log_res/ablation2/4-1/critic140/imitation_learning_env-150-20250303-003511/bc_ddpg_actor.pth (torch, 159293 bytes, 68 tensors)

fc.0.weight f4 [64, 345]
0	0xb9d3540f	-0.00040307685
1	0x3cec982a	0.028881151
2	0xbd357fb9	-0.04431126
3	0xbd224a49	-0.039621625
4	0xbca9de93	-0.020736014
5	0x3c6c899e	0.014437107
6	0xba8bd0b5	-0.0010667058
7	0x3d2ed955	0.042687733
8	0xbb9c8f40	-0.004777819
9	0x3c696926	0.014246261
10	0xbc8549ee	-0.016270604
11	0xbc2d632a	-0.010582725
12	0xbd52acb4	-0.051434234
13	0xbd120c19	-0.03565607
14	0xbcb5ced2	-0.022193346
15	0x3b02b3ca	0.0019943588
16	0x3cae5c0f	0.021284131
17	0x3d045159	0.03230414
18	0xbd15801a	-0.03649912
19	0xbcc00ebf	-0.023444531
20	0x3ca031b5	0.019554952
21	0x3d371e40	0.044706583
22	0xbc358882	-0.011079909
23	0x3d2504c5	0.04028775
24	0xbc0e2d6a	-0.00867782
25	0x3bbaac8e	0.0056968397
26	0x3d47ad3e	0.0487492
27	0xbd4c922d	-0.04994409
28	0xbd0ad394	-0.033893183
29	0xbc5f5030	-0.013629958
30	0xbcabeb17	-0.020986123
31	0x3d3e87d0	0.04651624
32	0xbd0eeff8	-0.03489682
33	0xbccb06be	-0.024783488
34	0xbd1a10a7	-0.037613537
35	0xbd4e8815	-0.050422747
36	0xbd00ba27	-0.03142753
37	0x3d3d8f43	0.046279203
38	0x3cc4cd1e	0.024023589
39	0x3cd5c2dc	0.026093893
40	0x3b398f97	0.0028314346
41	0xbce21d7d	-0.027601952
42	0x3c153c3a	0.009108597
43	0xbd4de646	-0.050268434
44	0xbd1f5758	-0.038901657
45	0xbce35ee0	-0.0277552
46	0x3d0b229d	0.033968557
47	0x3d014bd9	0.031566475
48	0xbcc399a3	-0.02387697
49	0xbafe9f30	-0.0019426104
50	0x3d0d0966	0.03443279
51	0x3d5b3a3a	0.053522326
52	0x3caf0ab9	0.021367418
53	0x3bee53a5	0.007273155
54	0x3d13db41	0.03609777
55	0xbd01d7ea	-0.031700052
56	0x3c245f0a	0.010032425
57	0xbd2af8a8	-0.041741043
58	0xbd18d718	-0.037314504
59	0xbce3d5d5	-0.027811924
60	0x3cc78f50	0.024360329
61	0x3cb15eac	0.021651588
62	0xbd02a055	-0.031891186
63	0x3c853df7	0.016264899
64	0x3cf21eb6	0.02955566
65	0xbbdeab3b	-0.0067953146
66	0x3b06b7ab	0.0020556252
67	0x3c4c621b	0.012474562
68	0x3d08ce63	0.03339995
69	0x3d53be41	0.051695112
70	0xbd29f059	-0.04148898
71	0xbca1a0f3	-0.019730067
72	0x3cad5584	0.021158941
73	0x3d36b675	0.0446076
74	0x3d3fe631	0.046850387
75	0x3d429412	0.047504492
76	0x3c2f8c38	0.010714583
77	0xbd3fc2ed	-0.046816755
78	0x3ba24a57	0.0049527097
79	0xbd09f592	-0.03368146
80	0xbd4d8403	-0.050174724
81	0x3d43ee73	0.047834825
82	0x3d27aceb	0.04093639
83	0xbd5bf9e1	-0.0537051
84	0x3c251a05	0.010077004
85	0xbc149896	-0.009069582
86	0xbc11282b	-0.008859674
87	0xbcc9e3e5	-0.024644801
88	0x3ca99b08	0.020703807
89	0xbd029d91	-0.03188855
90	0x3ca1aeae	0.019736614
91	0x3cdf09eb	0.027226409
92	0x3d1ddd69	0.03854123
93	0x3ca4e923	0.0201307
94	0xbd5a41f4	-0.053285554
95	0xbd0f0d2b	-0.034924667
96	0x3cdc3818	0.026882216
97	0x3c389f1f	0.011268406
98	0xbd2c066c	-0.041998312
99	0xbcfdf5fa	-0.03100108
100	0x3d4f7487	0.05064824
101	0x3d149755	0.036277134
102	0xbcc04e3c	-0.023474805
103	0xbc5e01e2	-0.013550254
104	0xbd52116f	-0.051286157
105	0xba7daceb	-0.0009676951
106	0xbd2610c3	-0.04054333
107	0xbd2a19bc	-0.04152845
108	0xbb4268fe	-0.002966463
109	0x3c0470d1	0.008083538
110	0xbcb49ec8	-0.022048369
111	0x3d02da34	0.031946376
112	0xbd06321f	-0.032762643
113	0x3d481828	0.048851162
114	0x3d171f88	0.036895305
115	0xbd39f638	-0.045400828
116	0xbc5b897f	-0.013399481
117	0x3b1f353b	0.0024293202
118	0x3c00b278	0.00785505
119	0x3c513535	0.012769033
120	0x3cad13d9	0.021127628
121	0x3b53591f	0.0032249165
122	0xbcd73282	-0.026269201
123	0x3cd0b24a	0.02547564
124	0xbd5388e5	-0.051644225
125	0xbd02b454	-0.031910256
126	0xbc5ccfeb	-0.013477306
127	0xbcd6d671	-0.0262253
128	0xbc9a4a97	-0.018834395
129	0xbd34be75	-0.044126946
130	0xbc3ba201	-0.011452199
131	0x3c3c8d24	0.01150826
132	0xbd0fa97b	-0.03507374
133	0xbb351277	-0.0027629414
134	0x3d1ddc3d	0.038540114
135	0xbbb55b6b	-0.0055345795
136	0x3ac41ee9	0.0014962825
137	0xbb983168	-0.0046445616
138	0x3c32847e	0.010895846
139	0x3d0c3752	0.034232445
140	0x3d50e34d	0.05099802
141	0x3d0c0b16	0.03419026
142	0x3d515da7	0.051114704
143	0xbb7f2ce4	-0.003893667
144	0xbd461955	-0.048364002
145	0xbcd11693	-0.02552346
146	0x3d162770	0.036658704
147	0xb9b6faac	-0.0003490051
148	0xbcdb37f2	-0.026760075
149	0xbd28fcee	-0.041256838
150	0xbd4e6010	-0.05038458
151	0xbd3a1f29	-0.045439873
152	0xbc32eb53	-0.0109203635
153	0x3cf1dece	0.029525187
154	0x3cee7217	0.029107137
155	0xbd54ad7e	-0.051923268
156	0x3d098ea3	0.033583295
157	0xbd2c8f58	-0.04212889
158	0xbc3a7b59	-0.011381947
159	0xbcb2d4a5	-0.021829912
160	0xbc29e72c	-0.010370057
161	0xbc2d30e1	-0.010570736
162	0xbd45e27c	-0.048311695
163	0xbd3e6809	-0.046485934
164	0xbc0a0737	-0.008424572
165	0x3a36843a	0.00069624523
166	0xbcc85ac1	-0.024457337
167	0x3ca623ed	0.020280803
168	0xbd467b63	-0.048457514
169	0xbb6e1e2f	-0.0036333909
170	0x3d41ee3f	0.04734635
171	0xbcb3e5ce	-0.021960165
172	0x3d4721a0	0.04861605
173	0x3c9fb9a6	0.019497704
174	0xbd470305	-0.048586864
175	0x3d0b85f0	0.03406328
176	0xbbcb9350	-0.0062126294
177	0xbcc4e266	-0.024033736
178	0x3d30572d	0.043051887
179	0xbd3233c0	-0.043506384
180	0x3bbd4ddb	0.0057771034
181	0xbc38ae54	-0.011272032
182	0x3d1d7a1c	0.03844653
183	0x3c763aab	0.015028636
184	0x3cd3ec5a	0.025869537
185	0x3c9bc212	0.019013438
186	0xbc541e7e	-0.012946723
187	0xbc3981dc	-0.011322465
188	0xbd35ba3a	-0.044367053
189	0x3ceef9ec	0.029171906
190	0x3d2f16ca	0.042746343
191	0x3d16e2d7	0.036837425
192	0xbd1b8d07	-0.03797629
193	0x3b1d5d12	0.0024011773
194	0xbd1b73f4	-0.03795238
195	0xbcf2c972	-0.029637072
196	0xbd007fba	-0.03137181
197	0x3c96b95c	0.018398933
198	0xbd036958	-0.032082886
199	0xba99f500	-0.0011745989
200	0x3b146e3e	0.0022648717
201	0x3d0e272f	0.034705337
202	0xbd26b248	-0.040697366
203	0xbd1763f9	-0.036960576
204	0xbd000c56	-0.031261764
205	0x3d1a59a5	0.037683148
206	0xbc9e8a11	-0.019352945
207	0x3d3a01d5	0.045411903
208	0x3c9f7bfa	0.019468296
209	0x3bdf63c9	0.0068173152
210	0xb9d21ed0	-0.00040077278
211	0xbc2e5f35	-0.010642816
212	0x3bdd580c	0.006754881
213	0xbc496b5d	-0.012293664
214	0xb9c6554a	-0.00037829048
215	0x3be11886	0.0068693785
216	0xbd2c7e2a	-0.042112507
217	0xbce72a09	-0.028218286
218	0x3d3211bd	0.043473948
219	0xbd32f699	-0.043692205
220	0xbb7d5b4c	-0.0038659154
221	0x3d5a25ec	0.05325882
222	0x3c9f5225	0.01944835
223	0x3ac7cbca	0.0015243229
224	0xbd3f1b1b	-0.04665671
225	0x3cda7b91	0.02667025
226	0xbd1d12b2	-0.038347907
227	0xbc7a6473	-0.015282738
228	0xbc93fa19	-0.018063592
229	0xbc02a02a	-0.007972756
230	0x3a1a603f	0.00058889756
231	0x3d35e338	0.044406146
232	0x3bdc3ca5	0.0067210966
233	0x3d4584ef	0.04822248
234	0x3d06e545	0.032933492
235	0xbd0b6aa6	-0.034037255
236	0x3cc5cf31	0.024146648
237	0xbd1be2b6	-0.038058005
238	0xbcbaecc5	-0.022817979
239	0x3c81b879	0.015835034
240	0x3c91a0f4	0.017776944
241	0x3d2570f3	0.04039092
242	0xbc8dfa83	-0.017331367
243	0x38b4bf8e	8.618749e-05
244	0x3ce30f1d	0.027717168
245	0xbd5543ac	-0.05206649
246	0x3d1f6ebd	0.038923968
247	0xbd365a9c	-0.044520006
248	0x3a428473	0.0007420249
249	0xbc15f81f	-0.009153395
250	0xbce848fe	-0.028355118
251	0x3be92c12	0.0071158493
252	0x3d365a67	0.04451981
253	0xbc80ece2	-0.015737955
254	0xbd02ec12	-0.031963415
255	0xbca31d58	-0.019911453

fc.0.bias f4 [64]
0	0x3d38ec37	0.045147147
1	0xbcb68c47	-0.022283686
2	0xbab6dd92	-0.0013951531
3	0xbcf016da	-0.029307771
4	0xbcd7b605	-0.02633191
5	0x3ce07328	0.02739866
6	0x3d19907c	0.037491307
7	0x3d238bc1	0.0399282
8	0x3cf6b021	0.030113282
9	0x3c83045c	0.01599329
10	0x3b86b03d	0.0041103647
11	0xbcb4b196	-0.022057336
12	0x3d4b2b15	0.049601633
13	0xbd0f2785	-0.034949798
14	0xbbca5ae1	-0.0061753844
15	0xbc66db31	-0.014090345
16	0xbb47a5c7	-0.0030463801
17	0xbd34000c	-0.043945357
18	0x3adac960	0.0016692095
19	0xbb0a3e8c	-0.002109441
20	0x3c5d18cc	0.013494682
21	0x3cde26a1	0.02711803
22	0x3d39524f	0.04524451
23	0xbc5a7459	-0.0133334035
24	0x3ceb7ac6	0.028745066
25	0xbd1ce00d	-0.03829961
26	0xbcd1ddf0	-0.025618523
27	0xbd35d90a	-0.044396438
28	0x3bfa02a0	0.0076297075
29	0x3d3d8059	0.04626498
30	0xbc4475ff	-0.011991023
31	0x3d13f279	0.03611991
32	0xbc80b3e8	-0.015710786
33	0xbd2ca11c	-0.042145833
34	0xbd284689	-0.041082893
35	0x3d01b149	0.031663213
36	0x3d110bf3	0.035411786
37	0xbd285315	-0.04109486
38	0x3c740b51	0.014895276
39	0x3b14f65c	0.002272985
40	0xbd0925a2	-0.033483155
41	0xbcb1c26f	-0.021699158
42	0x3d02a4ed	0.031895567
43	0x3cdd1ad9	0.026990341
44	0xbd03e62f	-0.032201942
45	0xbc95dba7	-0.018293215
46	0xbd21f26a	-0.039537825
47	0xbd12ac4a	-0.03580884
48	0xbc5723c9	-0.01313109
49	0x3c8be947	0.017079009
50	0x3c943160	0.01808995
51	0xbcc7fef1	-0.024413558
52	0x3d43e902	0.047829635
53	0x3d21368c	0.03935866
54	0x3b96fe0b	0.004607921
55	0xbd36f5b9	-0.044667933
56	0x3d22a7f0	0.03971094
57	0xba820cc8	-0.0009922022
58	0xbd0ccdef	-0.03437608
59	0x3cf4bfdb	0.02987664
60	0xbd3ea732	-0.04654617
61	0xbc436052	-0.01192482
62	0x3c977241	0.018487098
63	0xbc8644a4	-0.016390152

fc.2.weight f4 [64]
0	0x3f800000	1.0
1	0x3f800000	1.0
2	0x3f7fa9b3	0.99868315
3	0x3f7faa73	0.9986946
4	0x3f7fabd2	0.9987155
5	0x3f800000	1.0
6	0x3f7fab7e	0.9987105
7	0x3f800000	1.0
8	0x3f800000	1.0
9	0x3f800000	1.0
10	0x3f800000	1.0
11	0x3f800000	1.0
12	0x3f7fa86c	0.99866366
13	0x3f800000	1.0
14	0x3f7faaca	0.9986998
15	0x3f7faf04	0.9987643
16	0x3f800000	1.0
17	0x3f7fa7c3	0.9986536
18	0x3f800000	1.0
19	0x3f800000	1.0
20	0x3f7fa8f1	0.9986716
21	0x3f7fab78	0.99871016
22	0x3f7fa840	0.99866104
23	0x3f7fada2	0.9987432
24	0x3f7faa43	0.99869174
25	0x3f7fab66	0.9987091
26	0x3f800000	1.0
27	0x3f800000	1.0
28	0x3f800000	1.0
29	0x3f800000	1.0
30	0x3f800000	1.0
31	0x3f800000	1.0
32	0x3f7faa1a	0.9986893
33	0x3f7fac11	0.9987193
34	0x3f800000	1.0
35	0x3f800000	1.0
36	0x3f800000	1.0
37	0x3f800000	1.0
38	0x3f800000	1.0
39	0x3f7fac69	0.9987245
40	0x3f800000	1.0
41	0x3f800000	1.0
42	0x3f7fa85d	0.99866277
43	0x3f800000	1.0
44	0x3f800000	1.0
45	0x3f7fb23c	0.9988134
46	0x3f800000	1.0
47	0x3f800000	1.0
48	0x3f800000	1.0
49	0x3f7fab0b	0.99870366
50	0x3f800000	1.0
51	0x3f7fac5e	0.99872386
52	0x3f800000	1.0
53	0x3f800000	1.0
54	0x3f800000	1.0
55	0x3f800000	1.0
56	0x3f800000	1.0
57	0x3f7fad55	0.9987386
58	0x3f800000	1.0
59	0x3f800000	1.0
60	0x3f800000	1.0
61	0x3f800000	1.0
62	0x3f800000	1.0
63	0x3f800000	1.0

fc.2.bias f4 [64]
0	0x3dc6c333	0.097052
1	0xbdd5e906	-0.10444836
2	0x3db7ccb8	0.08974594
3	0xbd974590	-0.07386315
4	0x3db9efdd	0.090789534
5	0xbdd15135	-0.10220567
6	0xbdcc90ee	-0.09988581
7	0x3dd41a11	0.10356534
8	0x3dd39e8e	0.10332976
9	0xbdd40a56	-0.10353534
10	0x3dd33b32	0.10314025
11	0xbdc8f823	-0.09812953
12	0xbd6c8f61	-0.057753924
13	0x3dd08fdf	0.10183691
14	0x3daf0234	0.08545342
15	0x3db16cc4	0.086633235
16	0x3dd45ea3	0.10369613
17	0x3d91d2af	0.07120263
18	0xbdd4ddec	-0.10393891
19	0x3db1801d	0.08667014
20	0x3d95d242	0.07315494
21	0xbce34a92	-0.027745519
22	0xbcce83bb	-0.025209298
23	0xbc461680	-0.012090325
24	0x3dac38f5	0.08409301
25	0x3d969149	0.0735193
26	0x3dd12a64	0.102131635
27	0xbdd02e10	-0.10165036
28	0xbd9edd92	-0.07757105
29	0xbdc7b280	-0.09750843
30	0x3dd38c4b	0.10329493
31	0xbdd43a2a	-0.103626564
32	0xbbf8a822	-0.0075884024
33	0xbdab7546	-0.083719775
34	0x3dc8fdcb	0.09814032
35	0x3dc2b16c	0.09506497
36	0xbddbcf61	-0.10732914
37	0xbdb83f55	-0.089964546
38	0x3dce126c	0.100621074
39	0x3d1f4f6d	0.038894106
40	0xbdcd100d	-0.10012827
41	0x3dd1efea	0.10250838
42	0xbd2ac7a6	-0.041694306
43	0xbdd5d183	-0.10440352
44	0xbdcce436	-0.10004465
45	0xbdbfc762	-0.09364201
46	0xbdca67cd	-0.0988308
47	0xbdd07f67	-0.1018055
48	0x3dcb74a7	0.09934359
49	0x3db67742	0.089094654
50	0xbdd35a50	-0.1031996
51	0x3d464e26	0.048414372
52	0x3dd23933	0.10264816
53	0xbdd29415	-0.10282151
54	0x3dd72052	0.105042115
55	0x3dd515c1	0.1040454
56	0xbdc07638	-0.093975484
57	0x3db9080f	0.0903474
58	0x3dcf9441	0.10135699
59	0x3dcd0458	0.10010594
60	0xbdb51d81	-0.08843518
61	0xbda4ca8d	-0.08046446
62	0x3dd388df	0.103288405
63	0x3dc8cd0a	0.09804733

fc.2.running_mean f4 [64]
0	0x00000000	0.0
1	0x00000000	0.0
2	0x46d3788a	27068.27
3	0x46f9cf70	31975.719
4	0x4710a284	37026.516
5	0x00000000	0.0
6	0x45a55772	5290.9307
7	0x00000000	0.0
8	0x00000000	0.0
9	0x00000000	0.0
10	0x00000000	0.0
11	0x00000000	0.0
12	0x47128738	37511.22
13	0x00000000	0.0
14	0x46c95690	25771.281
15	0x469dcd1d	20198.557
16	0x00000000	0.0
17	0x46150e88	9539.633
18	0x00000000	0.0
19	0x419395f9	18.448229
20	0x463ce930	12090.297
21	0x46d02a86	26645.262
22	0x474f9190	53137.562
23	0x46a14e4b	20647.146
24	0x4714ca3b	38090.23
25	0x47420522	49669.133
26	0x38d3f6c2	0.00010107226
27	0x35aa5ae1	1.2692436e-06
28	0x00000000	0.0
29	0x00000000	0.0
30	0x00000000	0.0
31	0x00000000	0.0
32	0x4724272e	42023.18
33	0x471f7dd0	40829.812
34	0x38dd0f26	0.00010540923
35	0x41d8ded3	27.1088
36	0x00000000	0.0
37	0x42003ea3	32.06117
38	0x00000000	0.0
39	0x461b4e0e	9939.514
40	0x00000000	0.0
41	0x00000000	0.0
42	0x470bf35a	35827.35
43	0x376928d4	1.3897388e-05
44	0x423b0de0	46.76355
45	0x4594d9f9	4763.2466
46	0x00000000	0.0
47	0x00000000	0.0
48	0x3975e7e8	0.00023451413
49	0x46bd87b8	24259.86
50	0x00000000	0.0
51	0x4638a901	11818.251
52	0x00000000	0.0
53	0x3855f0d6	5.1007453e-05
54	0x00000000	0.0
55	0x00000000	0.0
56	0x00000000	0.0
57	0x463cca4f	12082.577
58	0x00000000	0.0
59	0x3ed10bd6	0.40829343
60	0x390f9f6a	0.00013696929
61	0x398cb893	0.000268404
62	0x00000000	0.0
63	0x00000000	0.0

fc.2.running_var f4 [64]
0	0x32c41aad	2.2829534e-08
1	0x32c41aad	2.2829534e-08
2	0x44cacdf6	1622.4363
3	0x45271501	2673.3127
4	0x4511dece	2333.9253
5	0x32c41aad	2.2829534e-08
6	0x45095b8d	2197.722
7	0x32c41aad	2.2829534e-08
8	0x32c41aad	2.2829534e-08
9	0x32c41aad	2.2829534e-08
10	0x32c41aad	2.2829534e-08
11	0x32c41aad	2.2829534e-08
12	0x452a8b16	2728.6929
13	0x32c41aad	2.2829534e-08
14	0x45178fbc	2424.9834
15	0x451ccdca	2508.8618
16	0x32c41aad	2.2829534e-08
17	0x456c979b	3785.4753
18	0x32c41aad	2.2829534e-08
19	0x32c41aad	2.2829534e-08
20	0x45191744	2449.454
21	0x4535f362	2911.2114
22	0x458c6244	4492.283
23	0x452ecb39	2796.7014
24	0x44dc4415	1762.1276
25	0x457d6b50	4054.707
26	0x32c41aad	2.2829534e-08
27	0x32c41aad	2.2829534e-08
28	0x32c41aad	2.2829534e-08
29	0x32c41aad	2.2829534e-08
30	0x32c41aad	2.2829534e-08
31	0x32c41aad	2.2829534e-08
32	0x4532b506	2859.314
33	0x44f347f3	1946.2484
34	0x32c41aad	2.2829534e-08
35	0x32c41aad	2.2829534e-08
36	0x32c41aad	2.2829534e-08
37	0x32c41aad	2.2829534e-08
38	0x32c41aad	2.2829534e-08
39	0x44fcfb9e	2023.863
40	0x32c41aad	2.2829534e-08
41	0x32c41aad	2.2829534e-08
42	0x44a7e823	1343.2543
43	0x32c41aad	2.2829534e-08
44	0x32c41aad	2.2829534e-08
45	0x451e2384	2530.2197
46	0x32c41aad	2.2829534e-08
47	0x32c41aad	2.2829534e-08
48	0x32c41aad	2.2829534e-08
49	0x451a7a71	2471.6526
50	0x32c41aad	2.2829534e-08
51	0x45280161	2688.0862
52	0x32c41aad	2.2829534e-08
53	0x32c41aad	2.2829534e-08
54	0x32c41aad	2.2829534e-08
55	0x32c41aad	2.2829534e-08
56	0x32c41aad	2.2829534e-08
57	0x44913a38	1161.8193
58	0x32c41aad	2.2829534e-08
59	0x32c41aad	2.2829534e-08
60	0x32c41aad	2.2829534e-08
61	0x32c41aad	2.2829534e-08
62	0x32c41aad	2.2829534e-08
63	0x32c41aad	2.2829534e-08

fc.3.weight f4 [64, 64]
0	0xbd76cf9b	-0.06025658
1	0x3d8f0787	0.069838576
2	0xbddf1a7f	-0.108937256
3	0xbd0362f2	-0.032076783
4	0x3b59321f	0.0033141447
5	0x3dee301f	0.11630272
6	0xbcb08bb2	-0.021550987
7	0xbdc1502d	-0.094391204
8	0xbdee8042	-0.11645557
9	0x3d47d6b7	0.048788752
10	0xbd053178	-0.03251788
11	0x3dd790a9	0.105256386
12	0xbd793c77	-0.06084868
13	0x3c8c0a08	0.017094627
14	0x3d27ab61	0.040934924
15	0xbcc10248	-0.023560658
16	0x3d4f47bd	0.050605524
17	0xbd258467	-0.04040947
18	0x3c5a03ae	0.013306541
19	0xbd2b014e	-0.04174929
20	0x3dc377e6	0.09544353
21	0xbd9b3350	-0.075781465
22	0x3d8b20ad	0.06793342
23	0x3c22d059	0.009937369
24	0x3cfadbc1	0.030622365
25	0xbc81c03c	-0.015838735
26	0xbd9912ab	-0.07474264
27	0x3e04c65e	0.12966296
28	0x3d4b7f66	0.049682043
29	0x3df5306e	0.11972128
30	0x3d3e6615	0.04648407
31	0x3d9cb4ef	0.07651698
32	0xbb816fd7	-0.0039501
33	0xbdc170ca	-0.09445341
34	0x3c8f4863	0.017490571
35	0x3cd0bf36	0.025481801
36	0xbd60d003	-0.054885875
37	0x3dc93664	0.09824827
38	0x3c949c20	0.018140852
39	0xbd8e4785	-0.06947235
40	0x3d94d573	0.07267275
41	0x3dc8a372	0.097968
42	0xbb8d5a21	-0.0043137227
43	0xbd198027	-0.03747573
44	0xbb814f9d	-0.003946258
45	0x3d6aa99f	0.05729067
46	0xbabb826f	-0.001430584
47	0xbcd62ef6	-0.02614544
48	0xbbdd9ef8	-0.0067633353
49	0xbdbfedac	-0.09371504
50	0xbdbf092a	-0.0932792
51	0xbd8e6015	-0.0695192
52	0x3de0b29a	0.109715655
53	0xbd91bac9	-0.071157046
54	0x3dcc782f	0.09983861
55	0xbc6ebbac	-0.014571112
56	0x3def63b8	0.11688942
57	0xbd4609b9	-0.048349116
58	0xbdc210d3	-0.09475865
59	0x3d3716a2	0.04469932
60	0x3dc8c38f	0.09802925
61	0x3dd4ef5c	0.10397217
62	0x3de5de29	0.11224014
63	0xbd4bb35b	-0.049731594
64	0x3df94273	0.12170877
65	0xbce25047	-0.02762617
66	0xbb4c7477	-0.0031197348
67	0xbbd7a62a	-0.0065810876
68	0x3da3e212	0.08002104
69	0xbcffad72	-0.031210635
70	0xbe0d991c	-0.13827938
71	0xbb522538	-0.003206564
72	0x3e477372	0.19477633
73	0xbde183af	-0.11011445
74	0x3ddec75b	0.10877868
75	0xbd096dfe	-0.033552162
76	0x3c1ef023	0.009700808
77	0x3d7ceef5	0.061751325
78	0x3db1aa32	0.0867504
79	0x3da98f3a	0.082792714
80	0x3e0f8f79	0.14019574
81	0x3e044d32	0.12920073
82	0xbd90646a	-0.070504025
83	0x3e23c5b4	0.15993387
84	0x3e0bc590	0.13649583
85	0xbdd8fb00	-0.105947495
86	0xbdbe73c8	-0.09299427
87	0xbd898693	-0.06715121
88	0xba0d29e4	-0.00053849653
89	0x3c3cfee0	0.011535376
90	0x3bb5d539	0.0055490998
91	0x3c0e45cc	0.008683633
92	0xbb502d7b	-0.003176539
93	0xbe4f5c86	-0.20250139
94	0x3e4ad478	0.19807613
95	0xbd3382e2	-0.04382599
96	0xbd091fce	-0.033477597
97	0xbd886ef2	-0.06661786
98	0x3e10ebab	0.141524
99	0xbda262e3	-0.079290174
100	0xbe6421e4	-0.22278553
101	0x3d4f2c13	0.05057914
102	0x3dd6a8f0	0.10481441
103	0x3d8d06d7	0.0688607
104	0xbe3d2c0b	-0.18473832
105	0x3d650fef	0.0559234
106	0xbdaa2cf3	-0.08309355
107	0xbd82a04f	-0.06378233
108	0xbdf5c2b3	-0.120000266
109	0x3d19f650	0.037588418
110	0xbe414de2	-0.18877366
111	0xbc237204	-0.009975914
112	0x3d374e1c	0.044752225
113	0xbca2afe8	-0.01985927
114	0xbd18a77a	-0.037269093
115	0x3d398e59	0.04530177
116	0x3dbfa596	0.09357755
117	0x3c1f31c5	0.009716456
118	0x3ddc4014	0.107544094
119	0x3d9b6493	0.075875424
120	0xbd6f8806	-0.05847933
121	0xbd694f9c	-0.056960687
122	0x3bee4ac9	0.0072720987
123	0xbcfca57f	-0.030840633
124	0xbe1c5cd0	-0.1526978
125	0xbde00895	-0.10939137
126	0x3e47ca9b	0.19510882
127	0x3e3c9637	0.18416677
128	0xbc9f921c	-0.01947885
129	0xbe566125	-0.20935495
130	0x3e0b770b	0.1361963
131	0x39b093c4	0.0003367943
132	0xbdcb5e4e	-0.099300966
133	0xbe3ec418	-0.18629491
134	0xbcfd5d65	-0.030928323
135	0x3e5d8a7b	0.21634857
136	0x3daa5ee8	0.08318883
137	0xbd42671e	-0.04746162
138	0x3e0adc76	0.13560662
139	0xbe5683e4	-0.2094875
140	0xbd1b08ab	-0.037850063
141	0xbca71c3f	-0.020399211
142	0x3e040b43	0.12894921
143	0x3d3169b0	0.043313682
144	0x3dd10238	0.10205501
145	0xbd5c7295	-0.05382021
146	0xbcbc65e6	-0.022997808
147	0xbad4f4be	-0.0016247255
148	0x3e05018f	0.12988876
149	0x3dc821fa	0.097721055
150	0xbe08c60d	-0.133568
151	0xbd27fb55	-0.041011173
152	0x3dc79187	0.09744554
153	0x3deb6828	0.114944756
154	0xbb777d2e	-0.0037763822
155	0xbe34e21d	-0.1766438
156	0xb99d46e0	-0.0002999818
157	0xbe48bffd	-0.19604488
158	0x3dec6865	0.11543349
159	0xbcccc792	-0.024997506
160	0x3dcf8f8d	0.10134802
161	0x3d0b3224	0.033983365
162	0x3de1300c	0.10995492
163	0x3e06595e	0.13120028
164	0xbe32776f	-0.17428373
165	0xbde72cb9	-0.11287827
166	0x3db85542	0.09000637
167	0x3cc23e87	0.023711456
168	0xbe2a6d0a	-0.16643158
169	0x3d460a3d	0.048349608
170	0xbd2c8ae2	-0.042124636
171	0xbd24a829	-0.040199433
172	0xbe2f189d	-0.17099233
173	0x3db6badb	0.089223586
174	0xbe5c10a4	-0.21490723
175	0xbdb09070	-0.08621299
176	0xbd25aed8	-0.040449947
177	0x3dab48ee	0.083635196
178	0xbd8bc677	-0.068249635
179	0x3d1f5bd8	0.03890595
180	0x3dca5775	0.09879962
181	0x3d0b54f0	0.03401655
182	0x3e1de808	0.15420544
183	0x3e3078bf	0.17233561
184	0xbd8c9990	-0.06865227
185	0xbd830698	-0.06397742
186	0x3c28e53e	0.010308562
187	0xbc93eece	-0.018058207
188	0xbdc31d5f	-0.095270865
189	0xbdd24d8f	-0.102686994
190	0x3dee27b5	0.11628667
191	0x3d4dd9d6	0.050256573
192	0x3dd85b81	0.10564328
193	0x3d529220	0.051408887
194	0x3d1e3d28	0.038632542
195	0xbdd82e69	-0.10555727
196	0x3d8bf4a6	0.06833772
197	0xbd3f8967	-0.046761896
198	0xbd985f48	-0.074400485
199	0xbd21348b	-0.03935675
200	0x3d9d3e7e	0.07677935
201	0xbe04483a	-0.12918177
202	0xbcec17b9	-0.028819906
203	0xbe2fd41d	-0.17170759
204	0x3d41bf0e	0.047301345
205	0x3d941b6e	0.07231794
206	0x3e0377a2	0.12838605
207	0x3b5c189d	0.0033584007
208	0x3da2b87c	0.07945344
209	0xbb88e4b8	-0.004177656
210	0xbe07a359	-0.13245906
211	0xbd278bae	-0.040904693
212	0xbcc205d4	-0.02368442
213	0x3d5cd4aa	0.05391375
214	0x3dda327f	0.106541626
215	0x3dfac8d0	0.12245333
216	0xbd1032e3	-0.03520478
217	0xbdd2e137	-0.102968626
218	0xbc60d887	-0.013723499
219	0xbe318332	-0.17335203
220	0x3d73f46a	0.059559263
221	0x3cb5b3be	0.022180434
222	0x3e119d8c	0.14220256
223	0xbd800919	-0.06251735
224	0x3de45330	0.11148679
225	0x3be51c60	0.006991908
226	0x3d920805	0.07130436
227	0x3dc1005e	0.09423898
228	0xbdbedabe	-0.093190655
229	0xbd80f6b5	-0.06297056
230	0xbcef7b66	-0.029233646
231	0x3ddb1b11	0.10698522
232	0xbcfa6159	-0.030563997
233	0xbc448283	-0.011994007
234	0xbdfeb5f9	-0.12437052
235	0xbce46af3	-0.027883029
236	0xbd9a397a	-0.07530494
237	0x3dbd93dc	0.092567176
238	0xbc20d714	-0.009816904
239	0xbdba8699	-0.09107704
240	0x3e1a0cd7	0.1504396
241	0xbc8cf720	-0.017207682
242	0xbdc96788	-0.098342
243	0xbdb7db0b	-0.08977326
244	0x3dc57b13	0.09642615
245	0xbdc68dc7	-0.09695011
246	0x3d45ff8c	0.04833941
247	0x3bc4c607	0.006005052
248	0x3d0d70b4	0.03453131
249	0x3e20e189	0.15711035
250	0x3dca337f	0.09873103
251	0x3d53e1b3	0.051728915
252	0xbcb39725	-0.021922657
253	0xbe04f02b	-0.12982242
254	0x3cb328bd	0.021870011
255	0xbd4690ea	-0.048478045

fc.3.bias f4 [64]
0	0xbdca53d6	-0.09879272
1	0x3e04c599	0.12966003
2	0x3d91c226	0.07117109
3	0xbd6c3edb	-0.05767713
4	0x3e0386ae	0.12844345
5	0x3d52109e	0.05128538
6	0x3dac7bd9	0.084220596
7	0xbdde8592	-0.1086532
8	0x3e19dd7d	0.15025897
9	0x3e4d7b4f	0.2006657
10	0x3e46e161	0.19421913
11	0x3e0d3214	0.13788635
12	0x3d93fc2d	0.07225833
13	0xbd180eb7	-0.03712341
14	0x3de6d943	0.11271908
15	0x3cea47c6	0.028598677
16	0x3c9cd8a8	0.019146279
17	0x3e057496	0.13032755
18	0x3dda727e	0.10666369
19	0x3d7a9c6e	0.06118434
20	0xbd15cf4d	-0.03657465
21	0xbdc8db8f	-0.098075025
22	0xbdb50a0f	-0.08839809
23	0x3de408a4	0.111344606
24	0xbbca9435	-0.0061822184
25	0x3d970b48	0.073751986
26	0xbc849678	-0.01618503
27	0x3e1df116	0.15423998
28	0x3d05eb01	0.03269482
29	0x3e46d61d	0.19417615
30	0x3d154935	0.03644677
31	0x3ca1d941	0.019756915
32	0x3e14b6c9	0.14522852
33	0x3d4113ad	0.047137905
34	0x3d10e4cf	0.03537446
35	0x3d971633	0.07377281
36	0xbd208f68	-0.039199263
37	0x3dd55840	0.10417223
38	0x3d43a0ed	0.047760893
39	0xbde46a93	-0.1115314
40	0x3cbe477d	0.023227448
41	0xbcfa1de0	-0.030531824
42	0xbde01430	-0.109413505
43	0xbd25460a	-0.040349998
44	0x3e23eb73	0.16007785
45	0x3d723686	0.05913403
46	0xbcfb6771	-0.030688973
47	0x3d3ea2f8	0.046542138
48	0xbd69fc28	-0.05712524
49	0x3e067a50	0.13132596
50	0x3e18b060	0.14911032
51	0x3e39f2d1	0.18159033
52	0xbb711974	-0.0036788853
53	0x3d67ff06	0.056639694
54	0xbd73ea0b	-0.059549373
55	0x3e1dae85	0.15398605
56	0x3e36fd57	0.17870079
57	0x3e291287	0.16510974
58	0x3e3c5b53	0.18394212
59	0x3e0eabf0	0.13932776
60	0x3e181e4e	0.1485531
61	0xbd45f4e8	-0.048329264
62	0x3d35c102	0.04437352
63	0x3e033b36	0.12815556

placing_layer.0.weight f4 [4, 64]
0	0x3d22be7e	0.03973245
1	0x3c5202eb	0.0128180785
2	0xbcad6302	-0.021165375
3	0x3e158a28	0.14603484
4	0x3e48664d	0.19570275
5	0x3ddd6413	0.10810103
6	0x3cdc2ad7	0.026875896
7	0xbdac3e88	-0.084103644
8	0x3dd5601a	0.104187205
9	0x3d5dc24f	0.054140385
10	0xbce7470e	-0.028232124
11	0xbd15a3ba	-0.036533095
12	0x3d6d8ada	0.057993747
13	0x3e151cc3	0.14561753
14	0x3db92c94	0.09041706
15	0x3d60b4cd	0.054859925
16	0x3d68b65f	0.056814548
17	0x3e483b92	0.19553974
18	0x3e3a4224	0.18189293
19	0x3b39b36e	0.0028335708
20	0x3de1d15e	0.11026262
21	0x3d110b65	0.035411257
22	0x3e0f4e5b	0.13994734
23	0x3e1fbff0	0.15600562
24	0xbbcb4210	-0.0062029436
25	0x3c865c94	0.016401567
26	0x3daaae2f	0.08334004
27	0x3e37025d	0.17871995
28	0x3e210759	0.15725459
29	0x3d10a0c2	0.03530956
30	0x3e3540b4	0.17700464
31	0x3debe56d	0.11518369
32	0x3e2ad205	0.16681679
33	0x3e18403a	0.1486825
34	0x3d8e4329	0.069464035
35	0x3d2e8f0c	0.04261689
36	0x3e195be4	0.1497646
37	0xbb8e1a36	-0.0043366207
38	0xbd06ba15	-0.032892305
39	0x3e0206cd	0.12697907
40	0xbc984973	-0.01858971
41	0x3dd824d8	0.105539024
42	0xbcbdc93b	-0.023167243
43	0x3d85dd86	0.06536393
44	0x3dac5de8	0.08416349
45	0x3e3e4523	0.18581061
46	0xbc163fa8	-0.00917045
47	0xbca054e9	-0.019571738
48	0x3d801cad	0.062554695
49	0x3cfc6445	0.030809531
50	0xbce0e37f	-0.027452229
51	0x3d05ba20	0.032648206
52	0x3dc9f3fe	0.09860991
53	0x3ba1eacc	0.00494132
54	0xbcc69b5a	-0.024244
55	0xbc16bc1f	-0.009200125
56	0xbbba9903	-0.00569451
57	0x3de92a43	0.11385014
58	0xbbfeec24	-0.007779615
59	0x3d6fe44a	0.058567323
60	0x3df287e2	0.11842324
61	0xbd599af3	-0.053126287
62	0x3dd8e9d9	0.10591478
63	0x3d98292c	0.07429728
64	0xbce2b558	-0.027674362
65	0xbcbafb56	-0.022824924
66	0x3e1f704e	0.15570185
67	0x3dfeffce	0.124511346
68	0x3da29473	0.07938471
69	0xbce3e955	-0.027821222
70	0x3deaa40d	0.114570715
71	0xbd8afdb9	-0.06786675
72	0xbd4ca5e8	-0.049962908
73	0x3e42a332	0.19007567
74	0x3dfe7b5b	0.12425872
75	0x3c8518aa	0.016247112
76	0x3e182d6a	0.14861074
77	0x3cf90793	0.03039912
78	0x3dd69582	0.10477735
79	0x3d4cfd6f	0.05004638
80	0x3e03ba27	0.1286398
81	0x3e25bc72	0.16185167
82	0x3d7d1dd6	0.061796032
83	0x3dfdf1a7	0.12399607
84	0x3d8f775d	0.070051886
85	0x3d98279e	0.074294314
86	0x3bad2155	0.0052835145
87	0xbba6ad23	-0.0050865575
88	0x3e15a4b4	0.1461361
89	0x3e0814db	0.13289206
90	0xbdaa9b72	-0.0833043
91	0x3dc3ce63	0.095608495
92	0x3e2ea2c3	0.17054276
93	0x3e119d40	0.14220142
94	0x3e0319ac	0.12802762
95	0x3e09a2fa	0.13441077
96	0xbd217d1f	-0.039425965
97	0xbc345f8e	-0.01100911
98	0x3e1c3ecf	0.15258335
99	0x3d95fd22	0.07323672
100	0xbc9edac0	-0.019391418
101	0x3e31ed28	0.17375624
102	0x3bb8e20d	0.0056421817
103	0x3da9eb43	0.08296826
104	0x3c57f6e2	0.01318142
105	0x3e06461e	0.13112685
106	0x3d7777f7	0.06041714
107	0xbd8fb7b7	-0.07017463
108	0x3de47790	0.11155617
109	0x3bc0d6e4	0.005884992
110	0x3d82200d	0.063537695
111	0x3d8d3d9e	0.06896518
112	0x3daab2f4	0.08334914
113	0xbc55e6f3	-0.013055551
114	0x3e07f230	0.13275981
115	0x3e096038	0.13415611
116	0xbdb6be90	-0.08923066
117	0x3e0c58a7	0.13705693
118	0x3ce3cf20	0.027808726
119	0x3e31d260	0.17365408
120	0x3c92d274	0.017922617
121	0xbcb0d82f	-0.02158746
122	0x3d91176b	0.07084545
123	0x3dba4dae	0.090968475
124	0x3dbfbb95	0.0936195
125	0x3cace527	0.021105362
126	0xbd4d37ac	-0.05010192
127	0x3d1e4bc0	0.03864646
128	0x3dc5a079	0.09649748
129	0xbdd41ab9	-0.103566594
130	0x3db55bf4	0.08855429
131	0xbc0d4862	-0.008623214
132	0xbd58676f	-0.052833017
133	0xbd570ac0	-0.052500486
134	0x3dbfc6b9	0.09364075
135	0xbdf66128	-0.1203025
136	0xbdf8f159	-0.121554084
137	0xbe0288e5	-0.12747534
138	0xbdf660b2	-0.12030162
139	0x3d0aea80	0.033915043
140	0xbdb43f0e	-0.08801089
141	0x3bccac07	0.006246093
142	0x3d4294d6	0.047505222
143	0xbdd71d29	-0.10503609
144	0x3d613a51	0.054987255
145	0xbd2b1769	-0.041770373
146	0xbe075479	-0.13215818
147	0x3cda3cf5	0.026640395
148	0x3dd1d655	0.10245959
149	0xbcfc2d77	-0.030783398
150	0xbb279f0e	-0.0025576982
151	0x3d7de844	0.061989084
152	0xbd88184e	-0.06645261
153	0x3bdf84bd	0.0068212436
154	0x3c0a8fcb	0.0084571345
155	0x3ad74dad	0.0016426347
156	0xbbf51ee6	-0.00748049
157	0xbde52170	-0.11188018
158	0xbdac2a61	-0.08406521
159	0xbcbcd62f	-0.02305135
160	0xbddef198	-0.10885924
161	0xbd80b494	-0.062844425
162	0x3c938f03	0.01801253
163	0xbc638f73	-0.013889181
164	0x3ca0677f	0.0195806
165	0xbd972e04	-0.07381824
166	0x3cf56fa7	0.029960467
167	0xbdf28afe	-0.11842917
168	0x3d85ca91	0.06532777
169	0x3c19b493	0.009381431
170	0x3d9f1b0a	0.07768829
171	0x3d6dd5af	0.058065113
172	0x3c83ee09	0.016104715
173	0xbcfc8e29	-0.030829506
174	0xbcadf329	-0.021234112
175	0x3d2422bf	0.0400722
176	0x3dcb1a6c	0.09917149
177	0x3d395ed3	0.045256447
178	0xbb5dbcd7	-0.003383448
179	0xbdc17342	-0.09445812
180	0x3d2c9b23	0.042140137
181	0x3d75a2a8	0.059969574
182	0x3d6cabb4	0.057780936
183	0xbc4b3d4d	-0.012404752
184	0x3db6a677	0.089184694
185	0x3d9b5992	0.075854436
186	0xbd435fd5	-0.047698814
187	0x3da5ccac	0.08095679
188	0x3d5d1070	0.053970754
189	0xbd0e900d	-0.034805346
190	0x3d44d815	0.048057634
191	0x3da10a7f	0.0786333
192	0x3d1def84	0.038558498
193	0xbd77b82c	-0.060478374
194	0xbccc21d0	-0.024918467
195	0xbb82c480	-0.00399071
196	0xbcc2f590	-0.023798734
197	0xbdad1d1c	-0.08452818
198	0xbd1d9fe0	-0.038482547
199	0x3d45289c	0.04813443
200	0x3da7856c	0.08179745
201	0xbca19658	-0.01972501
202	0x3bb7b9c0	0.00560686
203	0x3dfa70ee	0.12228571
204	0xbdc8a3ec	-0.097968906
205	0xbcdbd2e8	-0.026833966
206	0xbdeb24da	-0.11481638
207	0xbc3d05f0	-0.01153706
208	0xbd9faae2	-0.07796265
209	0xbdb82804	-0.089920074
210	0x3d36fb40	0.044673204
211	0xbd8cbb96	-0.06871717
212	0x3d87d8d2	0.06633152
213	0x3d9f9e8c	0.07793912
214	0x3d423ab0	0.04741925
215	0x3c948880	0.018131495
216	0x3d5ce244	0.05392672
217	0x3dc726d8	0.09724206
218	0xbc41c460	-0.011826605
219	0xbd98fb46	-0.074698016
220	0xbb88cd00	-0.0041748285
221	0xbda44ec2	-0.08022834
222	0x3d2aa38c	0.041659877
223	0xbc1121c0	-0.008858144
224	0xbdeb8620	-0.11500192
225	0xbdf43fe4	-0.11926249
226	0xbdad056c	-0.084483
227	0x3d892338	0.066961706
228	0xbd8d1df2	-0.06890477
229	0x3d891770	0.066939235
230	0x3d9f02b4	0.077641875
231	0x3c7253e0	0.014790505
232	0x3d8ce74e	0.06880055
233	0x3cc930e8	0.024559453
234	0xbcffe3a0	-0.03123647
235	0x3d844ac8	0.06459576
236	0x3d857198	0.06515807
237	0x3c20f640	0.009824336
238	0xbdc9aa2e	-0.09846912
239	0xbda99e7e	-0.08282183
240	0x3dcae422	0.09906794
241	0xbc0f41d0	-0.008743718
242	0xbd13d24c	-0.036089227
243	0xbdcb99be	-0.09941433
244	0x3d514d70	0.05109924
245	0x3da14ae8	0.07875615
246	0xbd9debc6	-0.07710986
247	0x3d2b78e4	0.041863337
248	0xbc52a860	-0.012857527
249	0xbdea0650	-0.11426985
250	0x3de32fb4	0.11093083
251	0xbdd390be	-0.10330342
252	0x3d4d03f4	0.050052598
253	0xbd12cc3c	-0.035839304
254	0xbd84b470	-0.06479728
255	0xbd8458ae	-0.06462227

placing_layer.0.bias f4 [4]
0	0x3db33627	0.08750563
1	0x3d001f3a	0.03127978
2	0xba6dd5b1	-0.0009072675
3	0xbcaede48	-0.021346226

placing_layer.1.weight f4 [4, 64]
0	0xbd62a1a6	-0.05532994
1	0x3d93d2fe	0.07217978
2	0xbce27a8d	-0.027646327
3	0x3e145e28	0.14489043
4	0x3dada1f8	0.08478159
5	0xbbcf46ed	-0.0063255937
6	0x3e490aa0	0.1963296
7	0x3dd15d01	0.10222817
8	0xbc56bf49	-0.013107129
9	0xbc3c2eae	-0.011485739
10	0x3e21f14c	0.15814704
11	0x3d6e225a	0.05813823
12	0xbc1d4921	-0.009599955
13	0x3e2031ca	0.15643993
14	0x3de8b02e	0.113617286
15	0x3e33f6eb	0.1757466
16	0x3d998840	0.07496691
17	0x3c94ed51	0.018179568
18	0x3e01bff5	0.12670882
19	0xbcc0e44d	-0.023546362
20	0x3e1d5e93	0.15368108
21	0x3d9f4ade	0.07777952
22	0xbdce99c7	-0.100879245
23	0x3e0dc858	0.13845956
24	0x3cc20409	0.023683565
25	0x3d5da3c0	0.054111242
26	0x3d0691db	0.032853942
27	0x3dd712c1	0.10501624
28	0x3db16585	0.086619414
29	0x3d07c2e6	0.033144854
30	0xbcbeede0	-0.023306787
31	0x3e0b18bc	0.13583654
32	0xbd253e10	-0.04034239
33	0x3e462f0a	0.19353881
34	0x3e2d4805	0.16922005
35	0x3d8e9bac	0.06963286
36	0x3e10b7f8	0.14132679
37	0x3d97e1e4	0.07416132
38	0x3e227309	0.15864195
39	0xbd661325	-0.0561706
40	0x3d43cf50	0.04780513
41	0xbd4e5795	-0.050376493
42	0x3dc666e8	0.096875966
43	0x3dad7215	0.08469025
44	0x3e3c82fe	0.18409345
45	0x3e32a00c	0.17443866
46	0x3dd7dd35	0.10540239
47	0x3d6e4eb7	0.058180537
48	0xbc5bbff3	-0.0134124635
49	0x3dc80c3b	0.09767958
50	0x3e45a817	0.19302402
51	0x3e4aed40	0.19817066
52	0x3df0a52f	0.11750256
53	0x3ca1643a	0.019701112
54	0x3ded2bdd	0.11580632
55	0xbd16dcf3	-0.036831807
56	0x3dc2ca32	0.09511222
57	0x3e2a4baa	0.16630426
58	0x3d9b440d	0.07581339
59	0x3e2b212f	0.16711877
60	0x3d6d1fc5	0.057891626
61	0x3e091128	0.13385451
62	0xbd9fce23	-0.07802989
63	0x3e002595	0.12514336
64	0x3cdac0d2	0.026703272
65	0x3d74e104	0.059784904
66	0xbd3962df	-0.045260306
67	0xbd27222e	-0.04080408
68	0x3dc704a0	0.09717679
69	0x3db4244d	0.08795986
70	0xbd9bd412	-0.076088086
71	0xbdd9cd0b	-0.10634812
72	0x3dcf2fa3	0.10116508
73	0x3ccce030	0.025009245
74	0x3d84bc98	0.06481284
75	0xbe090f30	-0.133847
76	0x3d2887c2	0.041145094
77	0xbdfe5d56	-0.12420146
78	0xbd28965e	-0.041159026
79	0xbd2f9f0d	-0.042876292
80	0xbdb0929b	-0.08621713
81	0xbdcb19b9	-0.099170156
82	0xbdcd5c3f	-0.1002736
83	0xbccd51d1	-0.025063427
84	0xbdda4bde	-0.10659002
85	0xbd778b8a	-0.06043581
86	0xbd85d16a	-0.06534083
87	0xbd323a29	-0.043512497
88	0x3bbe9409	0.005815987
89	0xbde1375f	-0.10996889
90	0x3dd86509	0.10566146
91	0xbe12ea5a	-0.1434721
92	0x3d338c8e	0.043835215
93	0xbe0b3c5a	-0.13597241
94	0xbd1cf997	-0.038323965
95	0xbcbc5a46	-0.022992264
96	0x3db9e1a5	0.090762414
97	0xbdf9b49e	-0.12192653
98	0xbdaebf08	-0.0853253
99	0xbcce1392	-0.025155816
100	0xbe029c20	-0.1275487
101	0x3bdd5f82	0.00675577
102	0xbc1c161b	-0.009526755
103	0x3d1a3f8a	0.03765825
104	0xbd008b24	-0.031382695
105	0x3cbe0bc3	0.023198968
106	0x3d241572	0.040059514
107	0x3d8f28b2	0.06990184
108	0x3d10d168	0.035355955
109	0x3da90b51	0.082541116
110	0x3d8e9bfa	0.06963344
111	0xbcf76031	-0.030197235
112	0x3d969c09	0.0735398
113	0x3c1d9b55	0.009619554
114	0x3d1526bc	0.036413893
115	0xbdeae9f6	-0.11470406
116	0x3d4dbec3	0.050230753
117	0xbc3a75b1	-0.011380599
118	0xbdcaf306	-0.09909634
119	0xbd85bd8d	-0.065302946
120	0xbd4be00d	-0.04977422
121	0xbd9aa36f	-0.07550704
122	0xbcc7bbdc	-0.02438157
123	0xbdcd8487	-0.10035043
124	0x3d6fde62	0.05856169
125	0xbd2472e6	-0.04014864
126	0xbc366962	-0.011133524
127	0x3d033598	0.032033533
128	0x3d47eea0	0.048811555
129	0xbdf6c579	-0.12049384
130	0xbd3ff2e0	-0.046862483
131	0xbdd4b94d	-0.10386906
132	0xbdeabece	-0.11462174
133	0x3da723c1	0.081611164
134	0x3dc8bd30	0.0980171
135	0xbdb5f552	-0.08884682
136	0xbd44e6d7	-0.04807171
137	0x3d849853	0.06474366
138	0x3df1a9c3	0.117999576
139	0x3ddd0ece	0.107938394
140	0x3d9e72ea	0.07736762
141	0xbdd97d0d	-0.10619555
142	0xbd8ca18f	-0.06866752
143	0x3dcbc18d	0.09949026
144	0xbde4f8d0	-0.1118027
145	0xbd4e89f0	-0.050424516
146	0xbdc92a4b	-0.0982252
147	0xbdc8d810	-0.09806836
148	0x3d06e62d	0.032934356
149	0xbd1efcb0	-0.0388152
150	0xbdeb7e10	-0.11498654
151	0xbdc3861b	-0.09547063
152	0x3dd9e74b	0.10639819
153	0x3dd6cef7	0.10488694
154	0x3d787ee8	0.060667902
155	0x3d6a7266	0.057238005
156	0xbd95aeaa	-0.07308705
157	0xbd364965	-0.04450359
158	0xbb6c9d80	-0.003610462
159	0x3d48a8fb	0.048989277
160	0x398d9ef6	0.0002701205
161	0x3d051fa0	0.032500863
162	0xbd858d7e	-0.06521128
163	0xbd379f9f	-0.04482996
164	0x3d3fbc30	0.04681033
165	0xbde9771f	-0.11399674
166	0x3bf43b52	0.0074533606
167	0x3de4a47a	0.11164184
168	0xbda2e2b8	-0.079533994
169	0xbcd1e229	-0.025620537
170	0xbcb9a948	-0.022663727
171	0xbd3ddae4	-0.04635133
172	0x3d9b8894	0.075944096
173	0x3cef1399	0.02918415
174	0x3df87042	0.121307865
175	0xbd00cb60	-0.031443954
176	0x3d3fb162	0.046800025
177	0x3d167923	0.03673662
178	0xbd8b5d01	-0.068048485
179	0xbdfa0673	-0.12208261
180	0x3d8f304e	0.06991635
181	0xbda8b7ba	-0.08238168
182	0xbd2abbb4	-0.041682914
183	0xbcc801ac	-0.02441486
184	0xbdef2800	-0.11677551
185	0x3da5d7ae	0.08097778
186	0xbcf9c9cd	-0.030491734
187	0xbd84b4a4	-0.06479767
188	0xbde435bd	-0.11143062
189	0x3c7d9560	0.015477508
190	0xba2389c7	-0.0006238487
191	0xbc989c3d	-0.018629188
192	0xbd4179ed	-0.047235418
193	0x3d18f1a6	0.03733983
194	0xbd139c14	-0.03603752
195	0x3b66fb72	0.0035245088
196	0x3d86ce03	0.06582262
197	0x3cd8527a	0.026406515
198	0xbdcd9e49	-0.10039956
199	0xbcc6d80b	-0.02427294
200	0xbd7b06e0	-0.061285853
201	0xbbf0b0c9	-0.007345293
202	0x3d7e0022	0.062011845
203	0xbcc40675	-0.02392886
204	0xbd7844c7	-0.060612466
205	0xbd905e94	-0.07049289
206	0x3d5d29c1	0.053994898
207	0xbd4036aa	-0.04692713
208	0xbbd51bb6	-0.0065035475
209	0xbd237248	-0.03990391
210	0xbdd5dc9d	-0.10442469
211	0x3d153d42	0.036435373
212	0x3dbbc534	0.09168473
213	0xbd9d2f98	-0.076750934
214	0x3c1b0ba0	0.009463221
215	0x3cb5e708	0.02220489
216	0xbd485f70	-0.04891914
217	0xbd06b8d0	-0.032891095
218	0xbc510c8e	-0.012759341
219	0x3d672ded	0.056440283
220	0xbc7a7108	-0.015285738
221	0xbe0ed3af	-0.13947938
222	0xbd4e6ed1	-0.05039865
223	0xbd804f93	-0.062651776
224	0xbcb78f40	-0.022407174
225	0xbda0c432	-0.07849921
226	0x3c5ce827	0.013483084
227	0xbd05cae0	-0.03266418
228	0xbd843318	-0.06455058
229	0xbcd2582c	-0.02567681
230	0xbddc06ec	-0.10743508
231	0xbd85b20d	-0.06528101
232	0x3d59c81a	0.053169347
233	0xbc18515e	-0.009296743
234	0x3d831a9f	0.06401562
235	0x3cd22d7d	0.025656456
236	0x3d832239	0.06403012
237	0x3dd15bbb	0.10222574
238	0x3db57f5a	0.08862181
239	0xbd35e3cd	-0.0444067
240	0xbd791e81	-0.060820106
241	0x3dac5a40	0.08415651
242	0x3d46aa3d	0.048502196
243	0x3dba375a	0.09092589
244	0x3dd571d3	0.10422101
245	0x3d99cd26	0.07509832
246	0x3bd8a009	0.0066108746
247	0xbc80f4a8	-0.015741661
248	0xbda71a07	-0.08159261
249	0x3dd57a8f	0.10423767
250	0xbdacd0d0	-0.08438265
251	0x3d8161cc	0.063174814
252	0xbcf12005	-0.029434213
253	0xbd8fc9b5	-0.070208944
254	0xbdc6a267	-0.096989445
255	0x3c86175c	0.01636856

placing_layer.1.bias f4 [4]
0	0x3cdba5ea	0.026812512
1	0x3d47479c	0.048652276
2	0xbd692685	-0.0569215
3	0xbd260374	-0.040530637

placing_layer.2.weight f4 [4, 64]
0	0x3d454d46	0.048169397
1	0x3e43a9bc	0.19107717
2	0xbd286a68	-0.041117102
3	0xbcf97173	-0.030449605
4	0x3a8281d9	0.000995691
5	0x3dce0ef3	0.10061445
6	0x3e3a0381	0.18165399
7	0x3d05f139	0.03270075
8	0x3dc90aad	0.09816489
9	0x3e298d16	0.16557726
10	0xbc58ef45	-0.01324064
11	0x3e3f4009	0.18676771
12	0x3e3e4cea	0.18584028
13	0xbd2b9727	-0.041892197
14	0x3d98da16	0.074634716
15	0x3df464ad	0.11933265
16	0xbd5aae5b	-0.053388935
17	0x3caad830	0.02085504
18	0x3e27bbbc	0.16380209
19	0x3e2bcd9d	0.16777654
20	0xbd532708	-0.051550895
21	0x3d8e2510	0.06940663
22	0xbd39133f	-0.04518437
23	0x3d38704a	0.045028962
24	0xbd8ca139	-0.06866688
25	0xbd440fdb	-0.047866683
26	0x3d31795a	0.04332862
27	0xbbbcea3f	-0.005765229
28	0x3bd3d451	0.006464519
29	0x3e0fbafc	0.14036173
30	0x3e0a5c7d	0.13511844
31	0xbce3a81e	-0.027790125
32	0x3e29c611	0.16579463
33	0x3e4af72c	0.19820851
34	0x3d035932	0.032067485
35	0x3dfb087a	0.12257476
36	0x3ccd2b60	0.025045097
37	0x3d81a9ac	0.063311905
38	0x3cb3b060	0.021934688
39	0x3d489dfd	0.048978794
40	0x3e32084a	0.17385975
41	0x3c4b4981	0.012407661
42	0xbcd85247	-0.02640642
43	0x3e36aaff	0.17838667
44	0x3e365fdd	0.17810006
45	0xbc8ef869	-0.017452436
46	0x3e1a65f9	0.15077962
47	0x3cd19b1f	0.025586663
48	0x3d5a05de	0.05322825
49	0x3daf7e30	0.0856899
50	0x3d777931	0.06041831
51	0xbb0a0d3d	-0.002106502
52	0x3ceffc4e	0.029295113
53	0xbd3f5d5d	-0.046719898
54	0xbc2aaa0a	-0.010416517
55	0x3e1570f0	0.14593863
56	0x3e28e49f	0.16493462
57	0x3b2dbe25	0.002651104
58	0x3e099b73	0.13438205
59	0x3d87c021	0.066284426
60	0x3e2e14ab	0.17000072
61	0x3e0cf958	0.13766992
62	0xba37a50a	-0.0007005489
63	0x3e03a047	0.1285411
64	0x3d47d5ad	0.04878776
65	0x3de1f8da	0.11033793
66	0xbcf3a2aa	-0.02974065
67	0x3d400c22	0.04688657
68	0xbd41677e	-0.04721784
69	0x3dec972a	0.1155227
70	0x3cf5c1bf	0.029999612
71	0x3d78b601	0.060720447
72	0x3e2299de	0.15879008
73	0x3da74fba	0.081695035
74	0xbd0a1e5d	-0.033720363
75	0xbd26d932	-0.040734477
76	0x3d849ae9	0.06474859
77	0xbdbe59bc	-0.09294459
78	0x3e07c808	0.132599
79	0x3c88fcef	0.01672217
80	0xbd95cd35	-0.07314531
81	0x3e126603	0.14296727
82	0x3d9be7b6	0.07612555
83	0x3e2dada0	0.16960764
84	0x3d0d6b96	0.03452643
85	0x3d83db0f	0.064382665
86	0x3dada5ba	0.084788755
87	0x3dd6fbf1	0.10497273
88	0xbc7f5e0c	-0.015586387
89	0xbd72174c	-0.05910425
90	0x3cfb57a9	0.030681448
91	0x3e382430	0.17982554
92	0x3e0a571c	0.13509792
93	0x3ca8b4fb	0.02059411
94	0x3b6625c6	0.003511773
95	0x3e0856bd	0.13314338
96	0x3e10b5d7	0.14131866
97	0x3def06d2	0.11671223
98	0xbd83259f	-0.0640366
99	0xbd6b197d	-0.057397354
100	0x3de576b6	0.11204283
101	0x3e233c3c	0.15940946
102	0x3e1a062c	0.15041417
103	0x3da347dc	0.079726905
104	0xbbaaee2e	-0.0052163815
105	0x3cd18688	0.025576845
106	0x3e04c1c7	0.12964545
107	0x3d23c63d	0.039983977
108	0xbb92a4ef	-0.004475228
109	0x3dd278b1	0.10276926
110	0xbd6e407c	-0.058166966
111	0x3d909a96	0.07060735
112	0xbd153324	-0.036425725
113	0x3cf9d38b	0.03049638
114	0x3deed503	0.116617225
115	0xbafe9aaa	-0.0019424756
116	0x3cb020dc	0.021500044
117	0xbd95555a	-0.0729167
118	0x3d0e5ab6	0.034754477
119	0x3c6c80fd	0.01443505
120	0x3dd4a7db	0.103835784
121	0x3e298bc9	0.1655723
122	0xbc793f15	-0.015212794
123	0x3e3009a1	0.17191173
124	0x3de7bd06	0.1131535
125	0x3e147ddc	0.14501137
126	0x3d1992e0	0.037493587
127	0xbcf1a0e8	-0.029495671
128	0xbdc5e760	-0.09663272
129	0x3dc38767	0.0954731
130	0xbd9269be	-0.07149075
131	0xbdb14210	-0.086551785
132	0xbd536257	-0.051607456
133	0xbdff08a4	-0.1245282
134	0xbc19cc86	-0.009387141
135	0x394cac00	0.00019519031
136	0x3c3758c8	0.011190601
137	0xbc59c73e	-0.013292132
138	0xbda717cd	-0.081588365
139	0x3dc932a5	0.09824113
140	0xbd89488b	-0.067032896
141	0xbde67d1e	-0.11254333
142	0x3daae299	0.08344001
143	0xbddf8502	-0.10914041
144	0xbdc68e50	-0.09695113
145	0xbe000f04	-0.12505728
146	0x3d77b06a	0.060470976
147	0x3c9cb259	0.019128012
148	0x3db01189	0.085970946
149	0x3d9fa4b8	0.077950895
150	0xbd94a358	-0.07257718
151	0x3ca955b2	0.020670746
152	0x3aed9823	0.0018127005
153	0x3d80eb92	0.062949315
154	0xbd656308	-0.056002647
155	0x3dc1bad1	0.094594605
156	0xbd117b43	-0.035517942
157	0xbda82283	-0.082097076
158	0xbcbda3b5	-0.02314935
159	0x3d534c8d	0.051586676
160	0x3c099e24	0.00839952
161	0x3db7f036	0.089813635
162	0x3d03d9aa	0.032190003
163	0x3dd0b597	0.101908855
164	0x3d118e86	0.03553631
165	0xbe04cd1b	-0.12968867
166	0xbc90ff2a	-0.017699797
167	0xbd0f1b61	-0.03493822
168	0x3dce1900	0.10063362
169	0x3ddf0c7b	0.10891052
170	0x3d0f6792	0.03501088
171	0xbd890496	-0.06690328
172	0xbd581c2e	-0.05276125
173	0xbda33baf	-0.07970368
174	0xbde6dba1	-0.1127236
175	0xbd825984	-0.0636473
176	0x3dbf7aa7	0.09349566
177	0x3d282dde	0.041059367
178	0x3c4b332e	0.012402339
179	0x3dcc52ce	0.09976731
180	0xbd58cf3b	-0.052932005
181	0x3de0b9dc	0.1097295
182	0xbd9cb3a3	-0.076514505
183	0x3c865622	0.016398493
184	0xbd33d1d3	-0.043901276
185	0x3d3bcc74	0.04584928
186	0x3cf2da41	0.029645087
187	0x3d5203d1	0.05127317
188	0x3c89c4cc	0.016817473
189	0xbdce0c2a	-0.10060914
190	0x3d922645	0.071362056
191	0x3ca94bcc	0.020666026
192	0x3d5097ec	0.050926134
193	0xbde2592d	-0.11052165
194	0xbe01b69a	-0.12667313
195	0x3d8d8e1d	0.069118716
196	0x3d9195f2	0.07108678
197	0xbd8b74d5	-0.06809393
198	0xbd4df612	-0.0502835
199	0x3d2890c1	0.041153673
200	0xbd1a703a	-0.037704684
201	0xbdd8892d	-0.10573039
202	0xbdef4e0a	-0.11684807
203	0x3ce24022	0.027618472
204	0x3dc40a45	0.09572271
205	0x3ddb1e04	0.106990844
206	0xbda2ed3e	-0.079554066
207	0x3db924e4	0.090402395
208	0xbc47d2fa	-0.012196297
209	0x3cad3cef	0.02114722
210	0xbde5188f	-0.11186325
211	0xbd0bc855	-0.0341266
212	0xbc805bfc	-0.015668862
213	0x3c3b926a	0.011448482
214	0x3cb671b4	0.022271015
215	0xbc5308f2	-0.012880551
216	0xbc6f96a2	-0.014623316
217	0x3b9a2562	0.0047041634
218	0xbd971a0e	-0.073780164
219	0x3d94483f	0.07240342
220	0xbdaec5b1	-0.085338004
221	0x3c451e25	0.012031113
222	0xbdd9b897	-0.10630911
223	0x3cb8caf5	0.022557715
224	0x3dc24eeb	0.09487709
225	0xbdd59aa7	-0.10429888
226	0x3d7cc6da	0.061713077
227	0x3d83e8b3	0.06440868
228	0x3d922636	0.071361944
229	0x3dd714b4	0.10501996
230	0xbdd5d486	-0.10440926
231	0x3df29e5d	0.11846612
232	0xbd6d95d5	-0.05800422
233	0xbd05a4df	-0.032627936
234	0x3d1e5dce	0.038663678
235	0xbdae756a	-0.08518489
236	0xbd07e3c2	-0.03317619
237	0x3decfe4c	0.11571941
238	0xba404201	-0.0007334054
239	0xbda7ea2d	-0.08198962
240	0xbd85b724	-0.06529072
241	0x3ced0378	0.028932318
242	0xbd2fc3d6	-0.042911373
243	0xbda7bd9d	-0.08190463
244	0x3d008ce0	0.03138435
245	0x3c877cc0	0.016538978
246	0x3d8999ce	0.06718789
247	0xbc601ca5	-0.013678704
248	0x3d4221b9	0.04739544
249	0xbd586c61	-0.052837733
250	0x3d6ad2a5	0.057329793
251	0xbca738a5	-0.020412752
252	0x3dc64592	0.09681238
253	0xbd0151e7	-0.03157225
254	0xbdf1ade8	-0.11800748
255	0xbc2bc5b7	-0.010484151

placing_layer.2.bias f4 [4]
0	0x3de477e6	0.11155681
1	0x3e258572	0.16164187
2	0xbdf81461	-0.12113262
3	0x3bc5f6f9	0.0060414043
