extra_baseline/log_res/4exp_2/ddpg_agent_env-20250104-163112/ddpg_actor.pth (torch, 813047 bytes, 248 tensors)

fc.0.weight f4 [64, 1835]
0.009643917 0.014441052 -0.018559964 -0.009268868 -0.0052557113 0.0093261115 -0.002066262 0.021264935
-0.0025832737 0.008029251 -0.022332424 -0.0016663127 -0.018207923 -0.006658047 -0.01259349 -0.004784971
0.010814959 0.011386092 -0.014700227 -0.019073527 0.01865365 0.013509451 -0.0027094178 0.024285022
-0.005188146 0.0017100701 0.02397269 -0.025188515 -0.028126048 -0.0054093963 -0.021252403 0.011876821
-0.034170248 -0.011244567 -0.027015917 -0.012880057 -0.013444805 0.008429145 0.00092538324 0.015875975
0.0061304616 -0.014824634 0.0069548194 -0.022363866 -0.018044725 -0.0013424281 0.024954844 0.004616333
-0.0012096246 0.0024280073 0.009687756 0.015750103 -0.0022998382 0.002422415 0.008371005 -0.0063310866
0.013183689 -0.018476805 -0.01816043 -0.014241711 0.016152196 0.0153494375 -0.012486279 -0.0088323215
0.02364807 -0.0042867516 -0.0013117307 0.006260681 -0.005059608 0.009912235 -0.02318647 -0.0025815011
-0.0043400214 0.011484181 0.02551048 0.019683301 0.012289158 -0.019729195 -0.0044762995 -0.020905659
-0.01924451 0.010828831 0.015246031 -0.017514393 -0.002878499 0.0031055955 -0.013105574 -0.014613092
0.010816965 -0.017896693 0.0057884455 0.013625258 0.030569436 0.00891947 -0.026756974 -0.013566317
0.0061312467 0.00033800345 -0.006982456 -0.012772251 0.012663434 0.008984907 -0.008295288 -0.009588476
-0.015177636 0.010635565 -0.021599952 -0.022652103 -0.005716987 0.005960339 -0.020437637 0.0138813155
-0.012944621 0.018412754 0.017423319 -0.01784159 -0.0026450397 -0.0017240371 0.009654771 0.0016177043
0.0032551938 0.0087188715 -0.009781175 0.017817736 -0.019249905 -0.020198328 -0.0041895914 -0.011161315
-0.016517736 -0.01362771 0.0012583152 0.009479691 -0.014440739 0.0068289717 0.008841862 -0.007690692
0.0089516435 0.005439563 0.019054823 0.017939433 0.008388378 0.009137844 0.024152495 0.0029280449
-0.018802848 -0.008714566 0.020594202 0.013050864 -0.0054663513 -0.0185657 -0.031145992 -0.013912815
0.00022148647 0.0044897697 0.003911797 -0.018839996 0.0051169307 -0.020333951 -0.012202086 -0.0061434484
0.0043631042 -0.007478643 -0.025543679 -0.011605917 -0.00031159745 -0.004588095 -0.0194545 0.0040584253
-0.016852347 -0.005247368 0.02899932 -0.023383293 0.016581165 -4.382482e-05 -0.025615849 0.01283975
-0.0037688138 -0.017034661 0.013091389 -0.020151582 -0.004666859 -1.9287669e-05 0.023747675 0.0128233945
0.009789822 0.00042856298 -0.007974346 -0.010627515 -0.01705638 0.011809069 0.01836627 0.009644254
-0.020040553 -0.0048536677 -0.024048727 -0.009436104 -0.007288895 -0.0061204643 -0.014819261 6.57077e-06
0.0030233115 0.0126468595 -0.004105756 -0.019313274 -0.01354464 0.013053273 -0.009209115 0.023786392
-0.0030461003 -0.010493274 -0.004128974 -0.010713741 -0.010907963 -0.0070172474 -0.004228027 0.004818104
-0.017221233 -0.01851275 0.030193703 -0.012500051 -0.00011574129 0.016019028 0.007686282 -0.0054514017
-0.024738418 -0.0023688446 -0.016716745 -0.0056537827 -0.012264766 0.0022234996 0.0057276892 0.023637656
0.0029325897 0.024236184 0.008292379 -0.019548846 -0.0010578894 -0.014511769 -0.016228363 0.00048283764
0.0009786375 0.0106081255 -0.0078057414 0.0026712466 0.0056103244 -0.024895558 0.021686288 -0.025028748
0.010074877 -0.0062626614 -0.016115991 0.003923675 0.026799077 -0.0083072595 -0.0018288965 -0.006985419
00000000: 8501 1e3c 2a9a 6c3c 110b 98bc 73dc 17bc
00000010: 1a38 acbb 8ccc 183c 206a 07bb cd33 ae3c
00000020: 244c 29bb 1f8d 033c 7df2 b6bc 2d68 daba
00000030: c828 95bc bf2b dabb ed54 4ebc 3fcb 9cbb
00000040: 3a31 313c bb8c 3a3c 39d9 70bc 1640 9cbc
00000050: 8acf 983c bf56 5d3c 7d90 31bb 62f1 c63c
00000060: 5301 aabb 6e24 e03a 6062 c43c 2558 cebc
00000070: 9968 e6bc 4e41 b1bb 8519 aebc ff96 423c
00000080: 1af6 0bbd 223b 38bc 7c50 ddbc e006 53bc
00000090: 9947 5cbc 661a 0a3c 6b95 723a 550e 823c
000000a0: 0ae2 c83b 06e3 72bc 41e5 e33b 6d34 b7bc
000000b0: 88d2 93bc 6af4 afba 1a6e cc3c 9c44 973b
000000c0: 448c 9eba 341f 1f3b 65b9 1e3c 5c06 813c
000000d0: e2b8 16bb 61c1 1e3b 8a26 093c 0175 cfbb
000000e0: 6600 583c ab5c 97bc 2fc5 94bc 1156 69bc
000000f0: 9c51 843c 357c 7b3c 4093 4cbc 71b5 10bc
00000100: 99b9 c13c e177 8cbb 61ee abba 6626 cd3b
00000110: 11cb a5bb ed66 223c 8df1 bdbc 672e 29bb
00000120: bd36 8ebb 2528 3c3c 5bfb d03c e03e a13c
00000130: 7758 493c 1f9f a1bc ecad 92bb 5842 abbc
00000140: aaa6 9dbc 696b 313c 7dca 793c 587a 8fbc
00000150: 33a5 3cbb 3f87 4b3b c3b8 56bc c06b 6fbc
00000160: a439 313c 169c 92bc 00ad bd3b 793c 5f3c
00000170: c16c fa3c f822 123c 7131 dbbc 4245 5ebc
00000180: a0e8 c83b 0e36 b139 16cd e4bb b442 51bc
00000190: 4b7a 4f3c 6e35 133c f6e8 07bc fc18 1dbc
000001a0: 9fab 78bc cb40 2e3c 62f2 b0bc e790 b9bc
000001b0: 9055 bbbb f34e c33b d56c a7bc 756e 633c
000001c0: ad15 54bc 58d6 963c 59bb 8e3c 8728 92bc
000001d0: 6758 2dbb 16f9 e1ba 0b2f 1e3c 2609 d43a
000001e0: 1755 553b 99d9 0e3c 3941 20bc 80f6 913c
000001f0: fab1 9dbc f776 a5bc d748 89bb f3dd 36bc
00000200: 3450 87bc c246 5fbc 0dee a43a b550 1b3c
00000210: d998 6cbc 91c5 df3b 75dd 103c 3302 fcbb
00000220: eaa9 123c 5d3e b23b dc18 9c3c b8f5 923c
00000230: 686f 093c e5b6 153c 74db c53c 71e4 3f3b
00000240: 6e08 9abc 8ac7 0ebc 2cb5 a83c 4bd3 553c
00000250: 141f b3bb 1817 98bc e125 ffbc 93f2 63bc
00000260: d23e 6839 eb1e 933b 882e 803b 5656 9abc
00000270: edab a73b 6393 a6bc 42eb 47bc fb4e c9bb
00000280: 5ff8 8e3b 680f f5bb fa40 d1bc be26 3ebc
00000290: e75d a3b9 bb57 96bb 0b5f 9fbc 8afc 843b
000002a0: ef0d 8abc 1df2 abbb fb8f ed3c 528e bfbc
000002b0: 39d5 873c 8bd0 37b8 54d8 d1bc d15d 523c
000002c0: 34fe 76bb 468c 8bbc 447d 563c ee14 a5bc
000002d0: 73ec 98bb f4cb a1b7 7c8a c23c 3719 523c
000002e0: 7d65 203c c0b0 e039 d5a6 02bc 071f 2ebc
000002f0: d2b9 8bbc d37a 413c dc74 963c ef02 1e3c
00000300: 162c a4bc 840b 9fbb d601 c5bc e499 1abc
00000310: afd7 eebb 2d8e c8bb 7ccc 72bc 7c7a dc36
00000320: c022 463b c634 4f3c 9489 86bb df36 9ebc
00000330: 56ea 5dbc 65dd 553c d4e1 16bc aedb c23c
00000340: 15a1 47bb fbeb 2bbc 584c 87bb b088 2fbc
00000350: 50b7 32bc f0f0 e5bb 438b 8abb 30e1 9d3b
00000360: 8b13 8dbc 0da8 97bc c958 f73c 04cd 4cbc
00000370: 22ba f2b8 563a 833c 35dd fb3b aca1 b2bb
00000380: 39a8 cabc 9e3e 1bbb 8ef1 88bc 5e43 b9bb
00000390: 28f2 48bc 22b8 113b 57af bb3b c2a3 c13c
000003a0: b130 403b f68a c63c c2dc 073c e724 a0bc
000003b0: e1a8 8aba c5c2 6dbc 58f1 84bc 5f25 fd39
000003c0: a045 803a b4cd 2d3c 4ec7 ffbb 1510 2f3b
000003d0: d0d6 b73b c5f1 cbbc 71a7 b13c 1709 cdbc
000003e0: 1911 253c 0337 cdbb af05 84bc 2c92 803b
000003f0: bd89 db3c 2c1b 08bc 95b7 efba f1e5 e4bb

fc.0.bias f4 [64]
-0.007509264 0.02440187 0.01525587 0.012459066 0.0053879903 -0.020455783 0.018860139 -0.01594307
-0.018933784 0.00068995345 0.018984377 -0.0058445553 -0.0058212965 0.016249495 -0.0067727184 0.0144634675
-0.022246765 0.011592866 -0.018237822 -0.001909649 0.013781628 0.0159674 -0.022855263 0.022567736
-0.011311641 0.002087691 -0.014875767 -0.02068211 0.016058382 -0.008777119 0.0030765263 -0.021712631
-0.012812178 -0.004919265 -0.0064374586 0.020101745 0.00318312 0.0069691865 0.010752144 0.016675116
-0.007990255 -0.021485182 -0.0052596703 -0.0060280133 0.0015421674 0.02146415 0.0061367564 -0.008024456
0.011786303 -0.012810681 0.014070009 -0.013750748 0.00029562926 -0.013464237 0.016268512 -0.00042445032
0.023331342 0.011739736 -0.0110979 -0.0027057875 0.014401575 0.022152413 0.0037105798 -0.00022985505
00000000: 4610 f6bb 6ee6 c73c c2f3 793c 1c21 4c3c
00000010: bd8d b03b e392 a7bc 9480 9a3c 0b9b 82bc
00000020: 061b 9bbc fedd 343a 2085 9b3c af83 bfbb
00000030: 93c0 bebb a91d 853c aeed ddbb 2ef8 6c3c
00000040: d93e b6bc 01f0 3d3c 7c67 95bc 304d faba
00000050: 56cc 613c 11ce 823c f63a bbbc f9df b83c
00000060: 7654 39bc a5d1 083b 7db9 73bc 876d a9bc
00000070: de8c 833c e8cd 0fbc 8c9f 493b b0de b1bc
00000080: 2bea 51bc c931 a1bb 51f1 d2bb 6aac a43c
00000090: e49b 503b c65d e43b c329 303c 419a 883c
000000a0: 8fe9 02bc b101 b0bc 5059 acbb a486 c5bb
000000b0: 8d22 ca3a 96d5 af3c d816 c93b 0279 03bc
000000c0: 561b 413c e4e3 51bc e585 663c d14a 61bc
000000d0: b0fe 9a39 1a99 5cbc 8b45 853c c288 deb9
000000e0: 5f21 bf3c 0658 403c f7d3 35bc 9553 31bb
000000f0: 95f4 6b3c fa78 b53c 332d 733b 3f05 71b9

fc.2.weight f4 [64]
1.0307287 1.0335096 1.0346453 1.0293019 1.0 1.0 1.0 1.0324098
1.0 1.0380331 1.0 1.0294068 1.0 1.0 1.0297269 1.0303466
1.0317914 1.0 1.0394967 1.0 1.0 1.0 1.0 1.0384575
1.0 1.0 1.0 1.0332787 1.0357033 1.0 1.0 1.0
1.0 1.0297028 1.0 1.0 1.0385424 1.0309353 1.0305012 1.0332557
1.0 1.036636 1.0357829 1.0458584 0.9993017 1.032284 1.0 1.0388052
1.0390669 1.0 1.0320947 1.031062 1.0 1.0 1.0 1.0360016
1.0 1.0323288 1.0 1.0 1.0 1.0 1.0366669 1.0364616
00000000: ebee 833f 0b4a 843f 426f 843f 2ac0 833f
00000010: 0000 803f 0000 803f 0000 803f 0126 843f
00000020: 0000 803f 45de 843f 0000 803f 9ac3 833f
00000030: 0000 803f 0000 803f 17ce 833f 66e2 833f
00000040: be11 843f 0000 803f 3a0e 853f 0000 803f
00000050: 0000 803f 0000 803f 0000 803f 2dec 843f
00000060: 0000 803f 0000 803f 0000 803f 7a42 843f
00000070: ed91 843f 0000 803f 0000 803f 0000 803f
00000080: 0000 803f 4dcd 833f 0000 803f 0000 803f
00000090: f5ee 843f b0f5 833f 77e7 833f b941 843f
000000a0: 0000 803f 7db0 843f 8994 843f b0de 853f
000000b0: 3cd2 7f3f e221 843f 0000 803f 92f7 843f
000000c0: 2500 853f 0000 803f ae1b 843f d7f9 833f
000000d0: 0000 803f 0000 803f 0000 803f b39b 843f
000000e0: 0000 803f 5a23 843f 0000 803f 0000 803f
000000f0: 0000 803f 0000 803f 80b1 843f c6aa 843f

fc.2.bias f4 [64]
-0.053492285 -0.028363312 -0.04195843 0.034286235 0.04437316 -0.04774044 0.035037477 0.039620444
0.049070366 0.044420406 0.030409012 0.037087757 -0.047436737 -0.032405194 -0.04573742 -0.036052752
-0.010891006 -0.052583992 -0.029373102 -0.05792 -0.05344974 0.040932067 -0.051448442 0.022622742
-0.05559842 -0.040433828 -0.03530676 -0.025408346 -0.014453429 -0.04950392 -0.055088338 0.053362805
-0.05194039 -0.039594937 0.050708216 0.033315904 0.0028949338 -0.033299636 -0.04447592 -0.042584702
-0.03609524 0.0002054424 -0.025056235 0.031012226 0.036722172 -0.036697485 -0.02643639 0.012056062
-0.040534686 0.054956604 0.015921071 0.009828469 -0.025395134 -0.02633297 -0.023144605 0.025541998
0.054142438 0.042929333 -0.04239923 0.05126791 0.045458656 -0.052210815 -0.016512966 0.009610442
00000000: ba1a 5bbd 2d5a e8bc 9adc 2bbd b96f 0c3d
00000010: a1c0 353d 7b8b 43bd 7583 0f3d 0c49 223d
00000020: 02fe 483d 2cf2 353d 521c f93c 55e9 173d
00000030: 064d 42bd 4fbb 04bd 2957 3bbd 0dac 13bd
00000040: 3170 32bc 5062 57bd dc9f f0bc 863d 6dbd
00000050: 1dee 5abd 62a8 273d 9abb 52bd 5453 b93c
00000060: 2bbb 63bd f19d 25bd d29d 10bd 2a25 d0bc
00000070: 13ce 6cbc 9fc4 4abd 4fa4 61bd f592 5a3d
00000080: 72bf 54bd 4d2e 22bd 6bb3 4f3d 4276 083d
00000090: eeb8 3d3b 3365 08bd 622c 36bd 4c6d 2ebd
000000a0: 9ad8 13bd 066c 5739 bc42 cdbc 5a0d fe3c
000000b0: fd69 163d 1a50 16bd 2191 d8bc ca86 453c
000000c0: b307 26bd 2d1a 613d e86c 823c 9607 213c
000000d0: 7509 d0bc 3eb8 d7bc c199 bdbc 743d d13c
000000e0: 76c4 5d3d abd6 2f3d d1aa 2dbd 4dfe 513d
000000f0: db32 3a3d 02db 55bd 3346 87bc 1e75 1d3c

fc.2.running_mean f4 [64]
33769.137 17740.395 14964.448 3940.8718 0.0 0.0 0.0 5813.0137
0.0 27847.746 0.0 22039.393 0.0 0.0 37936.547 20750.158
3267.1917 0.0 2485.9692 0.0 0.0 0.0 0.0 23686.402
0.0 0.0 0.0 18700.549 861.6987 0.0 0.0 0.0
0.0 19745.752 0.0 0.0 1697.3861 15257.838 18591.635 25695.004
0.0 3972.26 14381.426 15587.178 1.3060552e-24 3380.8137 0.0 44246.19
18553.295 0.0 22493.826 23436.916 0.0 0.0 0.0 13828.448
0.0 4009.4473 0.0 0.0 0.0 0.0 22650.605 4036.1172
00000000: 23e9 0347 ca98 8a46 cbd1 6946 f34d 7645
00000010: 0000 0000 0000 0000 0000 0000 1ca8 b545
00000020: 0000 0000 7e8f d946 0000 0000 c92e ac46
00000030: 0000 0000 0000 0000 8c30 1447 511c a246
00000040: 1133 4c45 0000 0000 825f 1b45 0000 0000
00000050: 0000 0000 0000 0000 0000 0000 ce0c b946
00000060: 0000 0000 0000 0000 0000 0000 1919 9246
00000070: b86c 5744 0000 0000 0000 0000 0000 0000
00000080: 0000 0000 8143 9a46 0000 0000 0000 0000
00000090: 5b2c d444 5a67 6e46 453f 9146 02be c846
000000a0: 0000 0000 2944 7845 b4b5 6046 b68c 7346
000000b0: 2d1a ca17 054d 5345 0000 0000 31d6 2c47
000000c0: 97f2 9046 0000 0000 a7bb af46 d519 b746
000000d0: 0000 0000 0000 0000 0000 0000 cb11 5846
000000e0: 0000 0000 2897 7a45 0000 0000 0000 0000
000000f0: 0000 0000 0000 0000 36f5 b046 e041 7c45

fc.2.running_var f4 [64]
49337.742 48105.57 79342.48 45499.965 1.4028505e-26 1.4028505e-26 1.4028505e-26 72768.414
1.4028505e-26 73855.63 1.4028505e-26 86333.14 1.4028505e-26 1.4028505e-26 75105.336 72351.09
74806.03 1.4028505e-26 60876.184 1.4028505e-26 1.4028505e-26 1.4028505e-26 1.4028505e-26 50790.113
1.4028505e-26 1.4028505e-26 1.4028505e-26 70241.34 58621.742 1.4028505e-26 1.4028505e-26 1.4028505e-26
1.4028505e-26 80869.516 1.4028505e-26 1.4028505e-26 54887.44 98556.65 69228.64 52766.742
1.4028505e-26 60702.33 89122.14 41695.62 1.7900639e-22 61334.297 1.4028505e-26 62620.938
57419.68 1.4028505e-26 85732.18 75948.99 1.4028505e-26 1.4028505e-26 1.4028505e-26 56634.21
1.4028505e-26 81054.445 1.4028505e-26 1.4028505e-26 1.4028505e-26 1.4028505e-26 61405.49 49513.1
00000000: beb9 4047 92e9 3b47 3df7 9a47 f7bb 3147
00000010: 7cee 8a14 7cee 8a14 7cee 8a14 3520 8e47
00000020: 7cee 8a14 d13f 9047 7cee 8a14 929e a847
00000030: 7cee 8a14 7cee 8a14 abb0 9247 8c4f 8d47
00000040: 041b 9247 7cee 8a14 2fcc 6d47 7cee 8a14
00000050: 7cee 8a14 7cee 8a14 7cee 8a14 1d66 4647
00000060: 7cee 8a14 7cee 8a14 7cee 8a14 ac30 8947
00000070: befd 6447 7cee 8a14 7cee 8a14 7cee 8a14
00000080: 7cee 8a14 c2f2 9d47 7cee 8a14 7cee 8a14
00000090: 7167 5647 537e c047 5236 8747 be1e 4e47
000000a0: 7cee 8a14 541e 6d47 1211 ae47 9fdf 2247
000000b0: cb67 581b 4c96 6f47 7cee 8a14 f09c 7447
000000c0: ae4b 6047 7cee 8a14 1772 a747 7f56 9447
000000d0: 7cee 8a14 7cee 8a14 7cee 8a14 363a 5d47
000000e0: 7cee 8a14 394f 9e47 7cee 8a14 7cee 8a14
000000f0: 7cee 8a14 7cee 8a14 7ddd 6f47 1a69 4147

fc.3.weight f4 [64, 64]
0.02195212 0.027728083 -0.09897318 -0.0022572477 0.16926898 -0.036492668 0.11185351 0.033600338
0.005544499 0.07154096 -0.089050144 -0.0006574524 0.05422 -0.13446979 -0.06609877 -0.14105783
0.09242254 -0.007870056 -0.037084967 -0.07145946 -0.11823468 -0.010468317 -0.037221134 0.07921815
0.059794843 -0.09049585 -0.09283584 0.041443024 0.0630531 -0.01931322 -0.050891887 0.14923963
-0.13722622 0.04819427 0.04878048 0.06479437 0.076832905 -0.0072390484 -0.016564898 -0.08613077
0.06534558 0.05408395 -0.060893297 0.13253354 -0.011348996 -0.16917491 -0.14681205 -0.08948313
-0.042491104 0.011361449 0.104355074 0.14712979 0.078590214 -0.09490983 0.0030308296 0.06355621
0.039852697 -0.07506972 -0.007856565 0.15193836 0.09811607 -0.09479687 0.059238926 0.026956502
0.0018116608 -0.12502447 0.03182119 0.012765769 0.103219055 -0.022218328 0.1166929 0.15172753
-0.051439136 0.12681456 0.0006459369 0.1569047 0.028076027 0.077619545 -0.057019413 -0.0523795
-0.0016512439 -0.04952239 -0.013817184 -0.020291466 -0.13131925 0.12349233 -0.18442932 0.098038636
-0.06265357 -0.054291144 -0.04383327 0.0054345033 -0.12543593 0.00047289865 -0.15567355 0.021769162
-0.021288373 0.06454657 -0.04565006 -0.06707167 0.100203775 -0.06152905 -0.10407868 -0.006978081
-0.056520633 0.03753092 0.043711174 0.069416165 -0.008204585 -0.07465948 -0.06503422 -0.12941833
-0.073139854 -0.06604521 -0.063017815 0.046034914 -0.102260254 -0.117707185 0.0846082 0.043124724
0.07106906 -0.06487543 -0.13018687 0.07338533 0.004656246 -0.13671157 0.017163055 0.10643617
0.0061869887 -0.13347112 -0.11534231 0.07244601 0.063101195 -0.050718773 0.1025421 0.12162503
0.14323294 0.15188734 -0.073961414 0.07339074 -0.09458434 -0.14257866 0.027089361 -0.15715824
-0.051294066 -0.16011189 -0.036091503 -0.053350203 -0.08948039 -0.03093177 -0.13595036 0.12521006
0.015587459 -0.10370381 -0.10052122 -0.13419364 0.06875661 -0.028568812 -0.11139741 0.08979984
0.08351822 0.02219973 -0.007411955 -0.055302147 0.014834132 0.041920815 -0.06759641 0.045559786
-0.01992553 -0.09834059 0.03883271 0.060548987 -0.080125235 0.011454959 0.038941886 -0.05899056
-0.052896734 0.05553554 0.13264032 -0.03384677 -0.08820687 0.010499899 -0.10420428 0.055867165
0.04999712 0.12619044 0.023226667 0.11698952 0.12433636 0.0076313494 -0.13855438 -0.072361365
-0.04876475 -0.047319632 0.061599113 -0.0065353406 -0.10719758 -0.0038827239 0.09457931 0.101145454
-0.096236624 0.08039636 0.08779866 0.056990527 0.054241974 0.0266531 0.08213317 -0.021999761
0.012676824 0.0994024 0.016160876 -0.014277865 0.044524692 -0.0020227598 -0.073051505 -0.09460128
-0.003128134 0.016893659 -0.10714321 0.025239004 0.120925486 0.025073403 0.10668795 0.04038218
-0.13213252 -0.011416981 -0.06116002 -0.047518764 -0.058496363 0.057573624 -0.05024451 0.03300335
0.012781697 0.10856802 0.0067347432 0.09468134 0.09103849 -0.07518108 0.029469337 -0.008793303
-0.14700262 0.13156198 -0.016823296 0.121473745 0.02982741 -0.09571309 -0.054647233 -0.016003381
-0.10176018 0.031115802 0.014158144 0.118473664 0.10142913 -0.020972751 0.08367523 0.00290554
00000000: efd4 b33c 0126 e33c 73b2 cabd 55ee 13bb
00000010: d954 2d3e 5679 15bd 7413 e53d 82a0 093d
00000020: a1ae b53b 1184 923d ec5f b6bd e258 2cba
00000030: ca15 5e3d 73b2 09be cb5e 87bd 7771 10be
00000040: 0748 bd3d 68f1 00bc 68e6 17bd 5659 92bd
00000050: 0625 f2bd 4e83 2bbc 3075 18bd 203d a23d
00000060: 70eb 743d e355 b9bd b820 bebd 29c0 293d
00000070: fc21 813d c236 9ebc 0374 50bd 46d2 183e
00000080: 0885 0cbe 5b67 453d 0ace 473d e9b2 843d
00000090: 925a 9d3d 8a35 edbb 1cb3 87bc 5465 b0bd
000000a0: e7d3 853d 2287 5d3d 406b 79bd dfb6 073e
000000b0: 24f1 39bc 303c 2dbe e655 16be ee42 b7bd
000000c0: 270b 2ebd 5f25 3a3c 1db8 d53d 31a9 163e
000000d0: e8f3 a03d 1660 c2bd e2a0 463b c229 823d
000000e0: 953c 233d 27be 99bd d2b8 00bc bb95 1b3e
000000f0: 14f1 c83d dd24 c2bd 84a4 723d e2d3 dc3c
00000100: 4075 ed3a 6a06 00be f056 023d 8427 513c
00000110: 8364 d33d 3603 b6bc b0fc ee3d 765e 1b3e
00000120: d8b1 52bd addb 013e 1754 293a a0ab 203e
00000130: b2ff e53c fff6 9e3d 308d 69bd e38b 56bd
00000140: 8d6e d8ba fdd7 4abd 7861 62bc 4a3a a6bc
00000150: 8e78 06be 8ce9 fc3d 0adb 3cbe 7bc8 c83d
00000160: 8450 80bd 6460 5ebd 848a 33bd eb13 b23b
00000170: 4772 00be 62ef f739 e368 1fbe 3e55 b23c
00000180: f464 aebc fe30 843d 8ffb 3abd df5c 89bd
00000190: a337 cd3d e305 7cbd 3427 d5bd 63a8 e4bb
000001a0: 2e82 67bd 06ba 193d 7d0a 333d 102a 8e3d
000001b0: 866c 06bc 12e7 98bd a930 85bd 3d86 04be
000001c0: 59ca 95bd b642 87bd 7c0f 81bd 1b8f 3c3d
000001d0: d36d d1bd 7710 f1bd 1047 ad3d 8da3 303d
000001e0: a88c 913d 69dd 84bd b54f 05be 0c4b 963d
000001f0: 6c93 983b 1efe 0bbe 8999 8c3c 35fb d93d
00000200: 39bc ca3b a7ac 08be 9738 ecbd 935e 943d
00000210: 333b 813d 7dbe 4fbd 9801 d23d 8b16 f93d
00000220: a8ab 123e 5b88 1b3e 1579 97bd e24d 963d
00000230: 6fb5 c1bd 2400 12be 82ea dd3c 17ee 20be
00000240: ba19 52bd 5ff4 23be afd4 13bd be85 5abd
00000250: 7f41 b7bd a064 fdbc 9236 0bbe 1137 003e
00000260: 8b62 7f3c aa62 d4bd 12de cdbd 0f6a 09be
00000270: 44d0 8c3d 2409 eabc 5324 e4bd fae8 b73d
00000280: 9a0b ab3d 35dc b53c fcdf f2bb 8184 62bd
00000290: dc0a 733c 29b5 2b3d fd6f 8abd e69c 3a3d
000002a0: dd3a a3bc cb66 c9bd 0c0f 1f3d 3702 783d
000002b0: b318 a4bd 95ad 3b3c 8781 1f3d 16a0 71bd
000002c0: 3faa 58bd 3c79 633d ddd2 073e e9a2 0abd
000002d0: cea5 b4bd c507 2c3c 0e69 d5bd f8d4 643d
000002e0: c8c9 4c3d 1138 013e da45 be3c 3498 ef3d
000002f0: 10a4 fe3d 6610 fa3b 33e1 0dbe 3232 94bd
00000300: 8cbd 47bd 3bd2 41bd 5a4f 7c3d 6926 d6bb
00000310: 688a dbbd 4c75 7ebb ccb2 c13d 5925 cf3d
00000320: b517 c5bd d9a6 a43d c9cf b33d e66e 693d
00000330: d52c 5e3d 9a57 da3c 6f35 a83d d838 b4bc
00000340: 74b2 4f3c 7c93 cb3d d063 843c b5ed 69bc
00000350: 865f 363d 4790 04bb 079c 95bd 51be c1bd
00000360: 6101 4dbb 9264 8a3c e66d dbbd 07c2 ce3c
00000370: c8a7 f73d bd66 cd3c 367f da3d c967 253d
00000380: bf4d 07be 4a0e 3bbc ee82 7abd 09a3 42bd
00000390: e299 6fbd 52d2 6b3d 30cd 4dbd 852e 073d
000003a0: 536a 513c e958 de3d 1faf dc3b 4ae8 c13d
000003b0: 6372 ba3d 8af8 99bd ae69 f13c c911 10bc
000003c0: db87 16be 2fb8 063e 02d1 89bc 3ac7 f83d
000003d0: 9d58 f43c 3905 c4bd c7d5 5fbd 8619 83bc
000003e0: a467 d0bd 91e6 fe3c 8ff7 673c 52a2 f23d
000003f0: 13ba cf3d 0ccf abbc eb5d ab3d df6a 3e3b

fc.3.bias f4 [64]
0.110276796 0.076752 0.06733863 -0.08191343 -0.08708394 -0.0011335274 0.1098066 -0.07347886
0.0045720614 0.092927285 -0.06622216 0.1186714 0.1270109 0.076461 0.024740297 0.09522736
0.018822292 0.07444177 0.13935302 0.12391166 -0.013019348 0.08631292 0.13485873 0.052709676
-0.08801937 0.17310491 -0.06310759 -0.06963267 0.035686933 0.08546202 0.07099345 0.08178798
0.14332213 -0.09556301 -0.02509944 -0.08580177 0.07133351 -0.020869918 -0.044001587 0.1604542
-0.04958725 -0.0048396084 0.018251702 0.0442431 0.11629949 -0.06032764 -0.026608111 0.09785409
-0.04280332 0.085706204 0.06961099 0.011934056 -0.024460241 0.010619897 -0.07255701 0.132293
0.14079031 0.14432831 0.0802244 0.07538795 -0.00919623 -0.042131484 0.14235857 -0.029589944
00000000: cdd8 e13d 2730 9d3d d6e8 893d 3ac2 a7bd
00000010: 1159 b2bd de92 94ba 48e2 e03d 167c 96bd
00000020: 3bd1 953b a950 be3d 7c9f 87bd fe09 f33d
00000030: 250f 023e 9697 9c3d 2aac ca3c 9006 c33d
00000040: 3531 9a3c ed74 983d 8fb2 0e3e 65c5 fd3d
00000050: 1a4f 55bc d4c4 b03d 6818 0a3e 1ae6 573d
00000060: 8043 b4bd 6a42 313e 8d3e 81bd 939b 8ebd
00000070: 762c 123d b606 af3d 0465 913d 7580 a73d
00000080: 09c3 123e 8ab6 c3bd 579d cdbc d7b8 afbd
00000090: 4e17 923d 64f7 aabc 023b 34bd 1b4e 243e
000000a0: 001c 4bbd 9495 9ebb 9884 953c 4138 353d
000000b0: 6d2e ee3d 1e1a 77bd 41f9 d9bc ba67 c83d
000000c0: 8952 2fbd bc86 af3d 3590 8e3d 0f87 433c
000000d0: d860 c8bc 14ff 2d3c c598 94bd d177 073e
000000e0: 562b 103e cdca 133e b14c a43d ff64 9a3d
000000f0: c9ab 16bc 1092 2cbd 72c6 113e 9c66 f2bc

placing_layer.0.weight f4 [8, 64]
-0.059490312 -0.09954174 -0.07870734 -0.07990842 0.03193881 -0.08292116 0.1183125 0.013687768
-0.04181956 0.031994782 -0.11171988 0.019192727 0.061279494 -0.08366771 -0.12160189 0.057737898
-0.042633038 -0.003907127 0.024243291 0.07792634 -0.08990141 0.05759397 0.039700564 0.064903155
-0.08216686 0.0025843282 0.012538138 -0.1034353 0.08714225 0.011281561 -0.1261895 0.07442476
0.05642894 -0.05648863 -0.07678869 0.11317198 -0.07148587 -0.06756413 -0.033021223 -0.008204838
-0.10310012 0.026083218 -0.08540763 -0.021096533 0.100190856 0.059424493 0.021649064 -0.074236095
-0.06050474 0.10436439 0.083074845 0.056076452 0.021667438 0.098459154 0.032010503 0.1149417
0.020950813 0.08743575 0.024275579 -0.055186328 -0.0316802 -0.119081505 0.008421649 0.0666648
-0.08133275 -0.12309721 0.022724919 -0.07750596 0.067883134 0.08733292 -0.05114169 0.07862326
-0.109434806 -0.0785089 -0.05942787 -0.087258846 -0.003901889 -0.06798381 -0.010802706 0.032654174
-0.009043496 0.03126098 -0.11750865 -0.09963811 0.016613647 0.065228954 -0.023330439 -0.101553574
-0.009717331 -0.06977542 0.022212703 -0.11092129 0.007905226 0.010077931 -0.029620487 0.04193665
0.010282928 -0.012486662 0.07294937 -0.08665357 0.0733962 0.03484106 0.075512834 0.07849677
-0.12499156 -0.122715704 -0.10553733 -0.0077938894 -0.064208485 0.07433339 0.07141403 0.02134568
0.075999394 0.069564916 0.07095966 -0.07881263 -0.014404869 -0.14399536 -0.15447953 -0.11054191
0.058608808 0.07617775 -0.14611422 -0.03698327 -0.08919697 -0.085751 0.045297537 -0.06763357
-0.092368394 -0.026843706 -0.1306688 0.0862898 -0.02683695 -0.044306327 0.039405115 0.0046714265
0.07857272 -0.1336737 -0.090877205 0.06726159 -0.06904735 -0.043532748 -0.0849585 0.03820193
0.103329085 -0.026432736 -0.108539715 -0.08189194 -0.014272357 -0.037429973 0.0712553 0.106458046
-0.0381056 -0.13694617 -0.012575854 -0.12506029 -0.005374284 -0.051836845 0.089770965 0.03117178
0.044817984 0.05376413 -0.095475584 0.09774954 -0.13762626 -0.11970968 -0.027709741 0.061723337
0.09150774 -0.093068264 0.04088439 -0.006478639 -0.019889755 -0.10461917 -0.042527422 -0.03444141
-0.038219046 0.0998845 0.08526568 -0.11820976 -0.089882635 -0.10236163 0.028041068 -0.10615816
-0.029804347 0.06486628 -0.05948167 0.006762406 -0.0024209607 -0.08677011 0.07720053 -0.092428066
0.092915595 0.06437193 0.103038706 -0.024691505 -0.07480144 0.039149266 -0.07516022 -0.018807974
-0.116081096 0.1366507 -0.13284194 0.09084749 0.094731726 -0.031873435 0.014085721 0.0062167803
-0.036425926 0.01565358 -0.0779596 0.06257714 -0.102172084 0.12829162 0.09211536 -0.090918824
-0.12726328 -0.08273198 -0.0054427376 -0.08489085 -0.08387494 0.13388962 -0.044001956 -0.06882619
-0.06386051 -0.032143313 0.09477279 -0.086507864 0.046463996 -0.021365583 0.10912144 0.019987121
0.09383078 -0.069308154 0.026039274 -0.092857175 -0.09070007 -0.07821503 0.098088294 0.13792102
-0.097105004 0.02797845 0.021338422 -0.027553065 0.0043434794 0.06934277 -0.019891297 -0.041542463
-0.05455478 0.051237013 -0.06396941 -0.009247544 -0.039849725 0.057578616 0.115946926 -0.0528495
00000000: 1dac 73bd 8adc cbbd 5031 a1bd 07a7 a3bd
00000010: 45d2 023d 92d2 a9bd d34d f23d a942 603c
00000020: fd4a 2bbd f60c 033d 64cd e4bd 113a 9d3c
00000030: 3500 7b3d fa59 abbd 690a f9bd 937e 6c3d
00000040: fb9f 2ebd 5b07 80bb de99 c63c d897 9f3d
00000050: 3b1e b8bd a8e7 6b3d 0f9d 223d f2eb 843d
00000060: 1947 a8bd d55d 293b c36c 4d3c e3d5 d3bd
00000070: a377 b23d 4cd6 383c d237 01be 026c 983d
00000080: 0822 673d 9f60 67bd 6443 9dbd b6c6 e73d
00000090: 2f67 92bd 105f 8abd 4341 07bd 966d 06bc
000000a0: 2826 d3bd 79ac d53c 32ea aebd a3d2 acbc
000000b0: dd30 cd3d 1967 733d 6159 b13c 1809 98bd
000000c0: d1d3 77bd ffbc d53d 2523 aa3d 6cb0 653d
000000d0: e97f b13c f4a4 c93d 721d 033d 8e66 eb3d
000000e0: 0aa1 ab3c 8411 b33d 94dd c63c 0f0b 62bd
000000f0: 19c3 01bd 01e1 f3bd f5fa 093c 8e87 883d
00000100: c991 a6bd 641a fcbd 9c29 ba3c 72bb 9ebd
00000110: 5006 8b3d 9adb b23d f379 51bd 3b05 a13d
00000120: 5b1f e0bd 46c9 a0bd a36a 73bd c4b4 b2bd
00000130: d6b6 7fbb 193b 8bbd d5fd 30bc 62c0 053d
00000140: 2c2b 14bc 830b 003d 60a8 f0bd 110f ccbd
00000150: 5819 883c c296 853d 7a1f bfbc 52fb cfbd
00000160: 7135 1fbc 6ae6 8ebd 6af7 b53c b42a e3bd
00000170: ec84 013c e81d 253c aaa6 f2bc c4c5 2b3d
00000180: ba79 283c db94 4cbc 7b66 953d 6d77 b1bd
00000190: bf50 963d 80b5 0e3d 79a6 9a3d eac2 a03d
000001a0: 93fb ffbd 5f52 fbbd f523 d8bd e263 ffbb
000001b0: bd7f 83bd 1b3c 983d 8541 923d 23dd ae3c
000001c0: 92a5 9b3d 0d78 8e3d 4c53 913d 8468 a1bd
000001d0: 6602 6cbc 8573 13be e22f 1ebe cc63 e2bd
000001e0: ca0f 703d 1503 9c3d f79e 15be c57b 17bd
000001f0: e7ac b6bd 389e afbd e989 393d 7883 8abd
00000200: a42b bdbd 55e7 dbbc 0bce 05be b5b8 b03d
00000210: 2ad9 dbbc 8d7a 35bd 4267 213d c412 993b
00000220: bcea a03d c2e1 08be d41d babd 72c0 893d
00000230: b268 8dbd 654f 32bd b9fe adbd a079 1c3d
00000240: 339e d33d 7789 d8bc 124a debd f6b6 a7bd
00000250: 9bd6 69bc 2c50 19bd 4cee 913d ad06 da3d
00000260: 9e14 1cbd 9e3b 0cbe f40a 4ebc ce0f 00be
00000270: c31a b0bb df52 54bd d7d9 b73d f65b ff3c
00000280: 1093 373d c737 5c3d b488 c3bd e930 c83d
00000290: e6ed 0cbe 592a f5bd 8aff e2bc 9cd1 7c3d
000002a0: 6968 bb3d 939a bebd 6476 273d c34a d4bb
000002b0: d7ef a2bc 9342 d6bd 3c31 2ebd 7012 0dbd
000002c0: 938b 1cbd 3f90 cc3d c69f ae3d f517 f2bd
000002d0: 6314 b8bd f9a2 d1bd 62b6 e53c 7369 d9bd
000002e0: 3f28 f4bc 9dd8 843d 0da3 73bd 2c97 dd3b
000002f0: fba8 1ebb 87b4 b1bd 501b 9e3d ed4a bdbd
00000300: 884a be3d 6ed5 833d f505 d33d d745 cabc
00000310: 7f31 99bd fb5a 203d 9aed 99bd 2e13 9abc
00000320: edbb edbd 29ee 0b3e b807 08be 400e ba3d
00000330: b502 c23d b88d 02bd ccc7 663c 22b6 cb3b
00000340: 5a33 15bd f03b 803c 48a9 9fbd 7228 803d
00000350: 993f d1bd e15e 033e faa6 bc3d a633 babd
00000360: 4e51 02be 626f a9bd fe58 b2bb 41db adbd
00000370: a0c6 abbd 5c1a 093e 653b 34bd bff4 8cbd
00000380: 4dc9 82bd b5a8 03bd 3d18 c23d 092b b1bd
00000390: 0851 3e3d e006 afbc 107b df3d 08bc a33c
000003a0: 5a2a c03d 6ff1 8dbd 5150 d53c e72b bebd
000003b0: f5c0 b9bd 342f a0bd 84e2 c83d 2b3b 0d3e
000003c0: fdde c6bd 1033 e53c eacd ae3c f7b6 e1bc
000003d0: bf53 8e3b 9503 8e3d 13f3 a2bc 6e28 2abd
000003e0: d574 5fbd e7dd 513d 6502 83bd 0383 17bc
000003f0: 7739 23bd 8ed7 6b3d 9575 ed3d b878 58bd

placing_layer.0.bias f4 [8]
-0.031544484 0.008141042 0.06122817 0.029815359 0.09145785 -0.034947116 -0.01455216 -0.03983341
00000000: ca34 01bd 0162 053c 64ca 7a3d 573f f43c
00000010: 414e bb3d b524 0fbd 2f6c 6ebc 5c28 23bd

placing_layer.1.weight f4 [8, 64]
0.091135524 0.093937516 -0.024183208 0.01773017 0.14237484 -0.0014653483 0.12500776 0.12573086
-0.07114786 -0.08520138 0.10611199 -0.0774487 -0.018617565 -0.085446164 0.010728542 0.12066404
0.0065468997 -0.03745665 0.10679627 -0.051052194 -0.08864778 -0.08068427 0.07441581 -0.016584728
-0.0227452 0.1098624 0.012058862 0.03426336 -0.004780082 0.06030756 -0.057446018 0.045128178
0.12665856 0.038820703 0.07488902 -0.012497633 0.11803424 -0.06894498 0.026591597 0.060401805
0.06515209 -0.04888803 0.1151828 -0.014801555 -0.056297228 0.04302109 0.119095445 -0.050615486
0.013291285 -0.056719672 0.06594308 -0.08257322 0.11720767 0.12047152 -0.010734017 -0.04433332
0.0072892266 -0.08879331 -0.06343727 -0.048806127 0.027789725 0.098183215 -0.021974279 0.041829266
-0.111756116 -0.055993397 -0.10349785 0.011157528 -0.053009644 0.06267451 -0.018836686 -0.09175621
-0.047166523 -0.0699913 0.029172953 -0.021088362 -0.10936682 -0.11373233 0.085630655 -0.010059245
-0.07402129 0.0067179217 -0.08166785 0.0050784526 0.051605195 0.10917858 0.085304245 -0.10151381
-0.05951062 -0.07863255 -0.027247116 0.11459666 0.03501507 -0.1244291 -0.05499706 0.033202186
-0.062213052 0.026507467 -0.09852397 -0.09677568 -0.07591766 -0.0058085336 -0.025277883 -0.08643283
0.042768165 -0.06330693 0.07804896 -0.10192245 -0.091649085 0.10096761 -0.090019986 -0.09974657
-0.11147241 0.11469403 -0.115922265 -0.025376081 0.025768368 -0.049496934 -0.094347924 -0.016924366
-0.11464724 0.089886725 -0.10294543 0.1209627 -0.042342603 -0.06847297 -0.055932615 -0.07277281
-0.076713316 -0.055980504 -0.09647411 -0.07704944 -0.06734178 -0.08818002 0.0019387687 -0.106451206
0.080055304 -0.08242155 -0.081892364 0.06160568 0.003212404 0.011759238 -0.11048806 0.07248548
-0.12128133 -0.04215663 -0.10835601 0.035751943 0.093725614 -0.13247034 -0.13882402 0.018805781
-0.06487227 -0.0648589 -0.0012184819 -0.053737473 -0.013715717 -0.026412142 -0.118125886 -0.093756534
-0.033341993 -0.02066782 -0.027449574 -0.10255063 -0.037536647 -0.0061002495 -0.06322175 -0.015007488
-0.03942703 0.07123628 -0.03201027 -0.09379405 0.07760858 -0.028308136 -0.11877195 0.049850147
0.09376643 -0.092793584 0.03988056 -0.0041031 0.10970511 0.03149664 0.019517994 0.0065308884
-0.09533512 -0.07901153 0.047084477 -0.022204679 0.024514236 0.054441202 -0.08749504 0.033281803
-0.06095399 -0.14723542 -0.12565808 0.09017482 0.05756457 -0.08795233 0.0468308 0.09107901
-0.044984244 0.040078994 -0.030869652 -0.06807032 -0.07884458 -0.10709474 0.039789587 0.07272943
-0.13987748 0.011845574 -0.09409413 -0.046141732 0.034494862 0.10115585 -0.03618933 -0.06459812
-0.08391762 -0.027920187 0.03412289 -0.09172784 0.0029627196 -0.119232126 0.028526438 -0.12984228
-0.12295142 -0.09453922 -0.062939845 -0.02786661 0.025193121 -0.034621716 -0.027474662 0.0659171
-0.08988412 0.067845106 0.08916179 0.09240463 -0.0898908 0.077283375 0.03981605 -0.12035183
-0.057643015 0.03951589 -0.015732849 0.014973891 -0.008685093 -0.026925838 -0.013729677 0.04388647
0.042558312 0.03045608 -0.014658033 0.021155471 -0.021673525 0.016902175 0.0836549 -0.005708611
00000000: 43a5 ba3d 5062 c03d dd1b c6bc dd3e 913c
00000010: b6ca 113e ee10 c0ba 0902 003e 97bf 003e
00000020: f8b5 91bd 107e aebd 3e51 d93d 6d9d 9ebd
00000030: dd83 98bc 66fe aebd c4c6 2f3c b51e f73d
00000040: 6087 d63b 256c 19bd 01b8 da3d 1b1c 51bd
00000050: f88c b5bd cb3d a5bd 5167 983d b2dc 87bc
00000060: 2454 babc 8aff e03d 8892 453c bd57 0c3d
00000070: 3ca2 9cbb 0f05 773d 844c 6bbd 53d8 383d
00000080: c8b2 013e 7502 1f3d 6a5f 993d dfc2 4cbc
00000090: f0bb f13d 0733 8dbd 9fd6 d93c e267 773d
000000a0: 756e 853d d13e 48bd f6e4 eb3d 3982 72bc
000000b0: ec97 66bd e236 303d 50e8 f33d 2f52 4fbd
000000c0: b1c3 593c e352 68bd 2a0d 873d 261c a9bd
000000d0: 930a f03d c6b9 f63d bbdd 2fbc db96 35bd
000000e0: 77da ee3b 44d9 b5bd 66eb 81bd efe8 47bd
000000f0: 47a7 e33c 4814 c93d 6703 b4bc 2a55 2b3d
00000100: 64e0 e4bd 5559 65bd aef6 d3bd 10ce 363c
00000110: a420 59bd 7e5b 803d 654f 9abc aeea bbbd
00000120: af31 41bd 9957 8fbd 1efc ee3c 80c1 acbc
00000130: b6fb dfbd 7fec e8bd 205f af3d 88cf 24bc
00000140: 7998 97bd 0322 dc3b 7941 a7bd 2669 a63b
00000150: f85f 533d 0599 df3d feb3 ae3d 79e6 cfbd
00000160: 68c1 73bd 1a0a a1bd 5835 dfbc a7b1 ea3d
00000170: f66b 0f3d afd4 febd 9944 61bd 04ff 073d
00000180: 1dd3 7ebd 3026 d93c efc6 c9bd 5432 c6bd
00000190: b87a 9bbd 8355 bebb 9013 cfbc b203 b1bd
000001a0: ac2d 2f3d 10a7 81bd 22d8 9f3d b8bc d0bd
000001b0: 84b2 bbbd 1bc8 ce3d 665c b8bd ee47 ccbd
000001c0: a64b e4bd b4e4 ea3d a768 edbd 80e1 cfbc
000001d0: 2f18 d33c 4cbd 4abd 7c39 c1bd f8a4 8abc
000001e0: 2ccc eabd 8816 b83d 0ed5 d2bd 4bbb f73d
000001f0: 706f 2dbd 8e3b 8cbd 9919 65bd e909 95bd
00000200: df1b 9dbd d04b 65bd 3894 c5bd 19cc 9dbd
00000210: 7dea 89bd ba97 b4bd 481e fe3a 1703 dabd
00000220: 09f4 a33d a1cc a8bd 2fb7 a7bd 3d56 7c3d
00000230: 3287 523b d2a9 403c 9047 e2bd 4473 943d
00000240: 5962 f8bd 6eac 2cbd c1e9 ddbd a170 123d
00000250: 37f3 bf3d 4ea6 07be e227 0ebe 950e 9a3c
00000260: c1db 84bd bed4 84bd 78b5 9fba d31b 5cbd
00000270: e3b7 60bc 475e d8bc fceb f1bd 6d03 c0bd
00000280: 9d91 08bd 8f4f a9bc eedd e0bc 1106 d2bd
00000290: 07c0 19bd 9ae4 c7bb 687a 81bd f8e1 75bc
000002a0: 3d7e 21bd 54e4 913d 331d 03bd 1817 c0bd
000002b0: 3ff1 9e3d 77e6 e7bc b53e f3bd ab2f 4c3d
000002c0: 9d08 c03d 900a bebd cc59 233d 4c73 86bb
000002d0: 13ad e03d 9f02 013d 33e4 9f3c 1001 d63b
000002e0: 0f3f c3bd ccd0 a1bd a7db 403d 96e6 b5bc
000002f0: 14d2 c83c bdfd 5e3d 9930 b3bd 8052 083d
00000300: e4aa 79bd e2c4 16be 83ac 00be 93ad b83d
00000310: d4c8 6b3d 5a20 b4bd a7d1 3f3d a287 ba3d
00000320: 6641 38bd df29 243d 5ae2 fcbc 7468 8bbd
00000330: 4479 a1bd 7d54 dbbd 68fa 223d 2bf3 943d
00000340: 0b3c 0fbe f013 423c 6cb4 c0bd 1dff 3cbd
00000350: 7c4a 0d3d cc2a cf3d 433b 14bd 054c 84bd
00000360: 00dd abbd e0b8 e4bc 72c4 0b3d cedb bbbd
00000370: 302a 423b f92f f4bd 47b0 e93c 60f5 04be
00000380: f4cd fbbd c79d c1bd 9be6 80bd 8448 e4bc
00000390: ce61 ce3c 80cf 0dbd 8b12 e1bc 8bff 863d
000003a0: 2a15 b8bd 60f2 8a3d 759a b63d a33e bd3d
000003b0: ab18 b8bd bf46 9e3d 2816 233d 057b f6bd
000003c0: 151b 6cbd 6adb 213d 2de2 80bc 0d55 753c
000003d0: ec4b 0ebc 9393 dcbc 70f2 60bc 4dc2 333d
000003e0: a051 2e3d 077f f93c 3f28 70bc 3d4e ad3c
000003f0: ad8c b1bc 6e76 8a3c 4353 ab3d 4d0f bbbb

placing_layer.1.bias f4 [8]
0.05743428 0.07299324 0.04685507 -0.029358184 0.1002599 0.0026399384 -0.07166705 -0.07197696
00000000: 3540 6b3d 7b7d 953d 1aeb 3f3d 9380 f0bc
00000010: 1055 cd3d d102 2d3b 2dc6 92bd a868 93bd

placing_layer.2.weight f4 [8, 64]
-0.1124525 0.025419071 0.011715182 -0.020039743 -0.069017336 0.06918096 -0.12137308 -0.029989073
0.015761785 0.13011698 -0.035203636 -0.058844995 0.03971774 0.08527557 -0.042117976 -0.006832732
0.088386595 -0.027434161 -0.104736656 -0.0988956 -0.028268192 -0.0499243 -0.08272438 0.033884063
0.11351198 -0.08123951 0.072291784 -0.041430976 -0.037469573 -0.041906003 0.123116486 0.093012676
0.015712082 -0.109600894 0.01685496 0.060001917 0.07170889 -0.09707205 -0.055146642 -0.025495272
-0.0023564114 -0.04647256 -0.08416614 -0.11569599 0.06544439 -0.075168476 -0.05739145 0.055973537
-0.013708772 0.0848723 -0.03981337 -0.077791505 -0.015844109 0.029691257 -0.0037601108 -0.052126303
0.104166575 0.072125405 0.0681869 0.06864831 -0.04860002 0.089095265 -0.025217459 -0.060060848
0.018241614 -0.032839715 -0.029381335 0.051291868 -0.045809492 -0.07025631 -0.021588132 -0.080243245
-0.07453345 -0.11384535 -0.045980573 -0.073511496 -0.03971252 -0.06596735 -0.055561304 -0.03221567
-0.004611194 -0.053615212 -0.040324748 0.032781556 -0.1040526 0.083608046 0.115567 -0.07602453
0.060309038 -0.044905722 0.10901956 0.022959322 0.0035345703 -0.042338133 -0.052233428 -0.021515623
-0.018518269 0.113760635 -0.08491671 0.051860034 0.058442235 0.04553765 0.051407084 -0.029804364
-0.086980924 -0.061275557 0.016191468 -0.01258871 0.024500445 0.061945185 -0.012304604 -0.007774681
-0.11022018 -0.0019004494 -0.057744876 -0.047446474 -0.078669935 0.06476499 0.06711179 0.01697594
-0.118832394 0.0025550872 -0.07765581 0.016568482 -0.114791736 -0.09437288 0.06916061 0.020165429
0.08248796 0.025938086 0.15057094 -0.05345003 0.13702068 0.09512487 -0.03595115 -0.08782355
0.014457523 0.13539258 0.11383002 0.045894265 0.07836798 -0.06603327 -0.09518312 0.08979963
0.15319179 -0.049447168 0.0015495344 0.123043925 0.12633547 0.0440358 0.07011539 -0.043140713
0.07534188 -0.0724616 -0.057318095 0.111420326 -0.032070495 0.09950917 0.09803758 -0.08518515
0.116497375 0.09137354 0.15206277 -0.0654703 0.04866736 -0.023659023 0.04725217 0.10156506
-0.07035235 0.12534918 0.13863744 -0.079226375 0.09409902 0.077160634 -0.020666806 0.09132696
0.04829374 -0.083044894 0.07139785 -0.056155894 0.0017406538 0.09606714 0.12992366 0.020426143
-0.07660398 0.13050605 -0.034584995 -0.03915231 0.1051531 -0.07918476 -0.041806895 0.09167686
-0.0048267297 -0.0541687 -0.08735502 -0.033542607 0.095026046 -0.02923823 0.07193292 0.066207245
0.05723822 -0.024301387 -0.0005659123 0.1022632 -0.09420337 0.09018179 0.1023477 0.03171545
0.123484656 0.0012561315 -0.10469937 0.011236545 0.057223655 -0.034151442 -0.09330917 -0.07489569
-0.068566434 0.05551343 0.066717155 -0.094749086 0.028940884 0.038367927 -0.10287057 -0.032289032
0.0064938227 -0.09615684 -0.061314218 0.06464997 0.122893184 0.106994174 -0.098672055 -0.027552733
0.031873453 0.10826194 0.062319268 -0.00024490856 0.067632064 0.07246273 0.078857176 0.12439413
0.051744644 0.047232438 0.082194604 0.09375134 0.020109437 0.051773015 0.115223065 0.046043664
0.1145928 0.04655315 -0.01900291 -0.015323728 -0.06460563 0.123542026 0.1342233 -0.07044006
00000000: 7f4d e6bd a83b d03c 09f1 3f3c 632a a4bc
00000010: f658 8dbd bfae 8d3d 7392 f8bd a5ab f5bc
00000020: dc1e 813c 633d 053e b031 10bd 7307 71bd
00000030: 12af 223d f5a4 ae3d e683 2cbd 1ce5 dfbb
00000040: 0804 b53d 9bbd e0bc 2c80 d6bd c789 cabd
00000050: b292 e7bc 6c7d 4cbd 666b a9bd 04ca 0a3d
00000060: f878 e83d e660 a6bd b70d 943d 87b3 29bd
00000070: b279 19bd a1a5 2bbd 7f24 fc3d 6e7d be3d
00000080: a0b6 803c 6f76 e0bd 6a13 8a3c 92c4 753d
00000090: 1cdc 923d b6cd c6bd 72e1 61bd 76db d0bc
000000a0: 066e 1abb 035a 3ebd 4c5f acbd 05f2 ecbd
000000b0: b507 863d eef1 99bd 4c13 6bbd 8244 653d
000000c0: c29a 60bc 87d1 ad3d 5813 23bd 2751 9fbd
000000d0: 81cb 81bc 143b f33c 316c 76bb 6482 55bd
000000e0: 4955 d53d 7cb6 933d 93a5 8b3d 7c97 8c3d
000000f0: d110 47bd 9477 b63d d894 cebc 5d02 76bd
00000100: 706f 953c f082 06bd 20b1 f0bc 6c17 523d
00000110: bca2 3bbd 8ae2 8fbd 98d9 b0bc 9256 a4bd
00000120: fea4 98bd c027 e9bd 2056 3cbd 328d 96bd
00000130: 98a9 22bd e419 87bd 4094 63bd 94f4 03bd
00000140: 8019 97bb a09b 5bbd 902b 25bd f445 063d
00000150: 8819 d5bd b23a ab3d 64ae ec3d c0b2 9bbd
00000160: 9c06 773d 10ef 37bd a645 df3d 3015 bc3c
00000170: 40a4 673b c06a 2dbd b8f2 55bd 8841 b0bc
00000180: a0b3 97bc 56fb e83d d0e8 adbd 306b 543d
00000190: 2061 6f3d b085 3a3d 3c90 523d 4828 f4bc
000001a0: 0e23 b2bd 14fc 7abd f8a3 843c e040 4ebc
000001b0: 28b5 c83c 3cba 7d3d 4099 49bc c0c2 febb
000001c0: 1ebb e1bd 8018 f9ba e485 6cbd 3c57 42bd
000001d0: b41d a1bd 82a3 843d e871 893d 2011 8b3c
000001e0: 665e f3bd 4073 273b 020a 9fbd a0ba 873c
000001f0: ee17 ebbd 9246 c1bd 14a4 8d3d f831 a53c
00000200: 73ef a83d 1c7c d43c 452f 1a3e 6bee 5abd
00000210: 264f 0c3e d4d0 c23d 8341 13bd d5dc b3bd
00000220: 3fdf 6c3c 5aa4 0a3e b71f e93d a0fb 3b3d
00000230: 647f a03d 733c 87bd 5eef c2bd dee8 b73d
00000240: 4fde 1c3e 1d89 4abd bf19 cb3a 74fe fb3d
00000250: 165e 013e e25e 343d a898 8f3d 51b4 30bd
00000260: d84c 9a3d bf66 94bd 61c6 6abd 5730 e43d
00000270: 5a5c 03bd 77cb cb3d edc7 c83d 8d75 aebd
00000280: 2d96 ee3d 0d22 bb3d 58b6 1b3e 4b15 86bd
00000290: 6d57 473d 91d0 c1bc 7e8b 413d 5801 d03d
000002a0: e514 90bd 895b 003e f9f6 0d3e 7041 a2bd
000002b0: fdb6 c03d 6506 9e3d 6f4d a9bc a109 bb3d
000002c0: a8cf 453d 7113 aabd 0939 923d b903 66bd
000002d0: a626 e43a d9be c43d b50a 053e ba54 a73c
000002e0: 8ce2 9cbd 61a3 053e ffa8 0dbd 2c5e 20bd
000002f0: 825a d73d 9f2b a2bd b53d 2bbd 14c1 bb3d
00000300: 8b29 9ebb 00e0 5dbd 30e7 b2bd f963 09bd
00000310: 049d c23d 0385 efbc 9151 933d aa97 873d
00000320: a072 6a3d b413 c7bc bb59 14ba 5e6f d13d
00000330: b2ed c0bd 3bb1 b83d ac9b d13d 0fe8 013d
00000340: 86e5 fc3d c7a4 a43a a06c d6bd 7c19 383c
00000350: 5a63 6a3d 62e2 0bbd e118 bfbd e962 99bd
00000360: 8f6c 8cbd 0d62 633d 01a3 883d cf0b c2bd
00000370: 6f15 ed3c b027 1d3d cead d2bd 8141 04bd
00000380: 22ca d43b e1ed c4bd 9e24 7bbd 3467 843d
00000390: 6caf fb3d c31f db3d 9314 cabd 45b6 e1bc
000003a0: bd8d 023d 70b8 dd3d 7d42 7f3d 1267 80b9
000003b0: ae82 8a3d 5767 943d df7f a13d 5ac2 fe3d
000003c0: 31f2 533d cd76 413d a555 a83d b400 c03d
000003d0: 8cbc a43c f10f 543d 12fa eb3d 4898 3c3d
000003e0: a1af ea3d 84ae 3e3d feab 9bbc 6010 7bbc
000003f0: f54f 84bd 9a03 fd3d d571 093e e142 90bd

placing_layer.2.bias f4 [8]
0.04064813 -0.05153303 -0.086903654 -0.08850832 -0.002576541 0.033032678 -0.12161697 -0.11263937
00000000: a77e 263d 4c14 53bd 8bfa b1bd da43 b5bd
00000010: 2fdb 28bb 464d 073d 5112 f9bd 78af e6bd

placing_layer.3.weight f4 [8, 64]
-0.04951477 -0.04715655 -0.0017993063 -0.10939719 0.07870574 0.083802715 0.06677618 -0.06481525
-0.0052559697 -0.118271634 0.058775846 -0.10601603 -0.060686685 -0.08631952 0.086766444 -0.015417206
-0.011613835 0.057466436 -0.12683712 -0.11239685 0.048658747 0.06225787 0.045582976 -0.08331978
-0.007829896 -0.12004032 0.047475882 -0.11991226 0.03909985 0.10974565 -0.14162134 -0.094457254
-0.0677498 -0.067563675 0.0029911413 0.022277279 -0.0058951452 0.057105 0.0840478 -0.079277836
-0.007419173 0.06189263 0.07009264 -0.0034933186 -0.08194522 0.07920645 0.0073871864 -6.67417e-05
0.03655193 -0.070355885 -0.032344818 -0.04422254 0.04219577 -0.032087028 -0.101392455 0.012341684
0.03139563 0.008857358 0.061173018 0.027228612 -0.052810073 -0.010676805 -0.08296915 -0.088112205
0.12352766 0.11803984 -0.0051438524 0.022923278 0.07540261 0.009515405 0.0021712761 -0.017063763
0.070722915 0.0034667507 -0.06456393 0.042588953 0.14775641 -0.0528213 -0.069384955 0.11947197
-0.0029055837 -0.08768833 0.11608511 -0.05604865 0.13338472 0.05303462 -0.022760961 -0.029988281
0.013789056 0.0914185 0.004113517 0.014523206 -0.034256235 -0.012863935 -0.015318482 -0.039783254
0.13660125 0.0733294 0.07973907 0.032336798 0.038163867 0.12074558 0.11099155 -0.029601838
-0.058912657 0.08076843 -0.036784977 0.13966097 0.12955791 -0.011219614 0.1400135 0.112717345
0.000558784 0.013011029 -0.07741942 -0.0507904 0.07571262 -0.0021706235 0.11066349 0.096439295
0.022024564 -0.02273028 0.046820506 -0.040695015 0.15293974 -0.07529529 0.059448734 0.11499827
0.03627119 -0.11343685 0.09153095 -0.11920407 0.051075913 -0.0056078327 -0.11535341 0.0203813
-0.05204476 -0.09500537 0.048772465 -0.08687357 0.018553823 -0.02138456 -0.034272015 0.048116043
0.09431893 -0.064955786 0.10806055 -0.008638862 0.09988531 0.0022599758 -0.11581351 -0.0007167884
-0.018468365 -0.06592348 0.035577342 0.007444023 -0.0048648184 0.024043145 -0.114976294 0.04331545
-0.034923915 -0.12009712 -0.093408756 -0.049839552 -0.01575641 -0.022623647 0.016468357 -0.021631936
0.033470646 0.06418867 0.080842644 0.05770707 0.033506047 0.003681943 -0.007789002 -0.11173713
-0.043757886 -0.018465407 -0.07955 -0.0806484 -0.06178943 0.06510184 -0.113251746 0.07864722
0.072615914 -0.11800622 0.028473662 -0.11306781 0.039017506 -0.01641318 -0.008372205 0.040464006
-0.046814825 0.04069386 0.09298171 -0.06576518 0.03031133 -0.09805849 0.100639574 0.012747219
-0.01065886 -0.093809985 -0.024065876 -0.05498352 0.020748725 0.0944975 0.08673414 -0.04960686
0.091536745 -0.14426783 -0.004466475 -0.0024655468 -0.01084536 0.06247408 -0.09119186 0.10435717
0.04121501 -0.004783224 -0.12149196 0.007792181 0.027326878 0.07994873 -0.05917323 -0.1403064
-0.05049741 -0.024022143 0.07678549 -0.11265183 -0.036583688 0.0016222585 -0.073802166 0.08739832
-0.13906293 0.05407474 0.08619895 -0.06809344 -0.13657556 0.007073323 0.08840076 0.04196553
-0.08094925 -0.038601894 -0.0821523 -0.14000157 0.02135899 -0.06253023 0.08786235 -0.1044294
-0.13910912 -0.042446095 0.09184497 0.07203737 0.023207193 -0.008339347 0.020274691 -0.0326927
00000000: 00d0 4abd 3a27 41bd b3d6 ebba a20b e0bd
00000010: 7a30 a13d c2a0 ab3d f3c1 883d dcbd 84bd
00000020: 453a acbb 6638 f2bd f1be 703d ef1e d9bd
00000030: 9a92 78bd 4ac8 b0bd 9bb2 b13d 7398 7cbc
00000040: f447 3ebc ed61 6b3d 97e1 01be 5230 e6bd
00000050: 654e 473d 1c02 7f3d 37b5 3a3d 90a3 aabd
00000060: f748 00bc b3d7 f5bd 1276 423d 8f94 f5bd
00000070: 2a27 203d 54c2 e03d 2f05 11be ce72 c1bd
00000080: 68c0 8abd d35e 8abd 0607 443b d77e b63c
00000090: 102c c1bb efe6 693d 4121 ac3d 6b5c a2bd
000000a0: 891c f3bb 2083 7d3d bb8c 8f3d 29f0 64bb
000000b0: e5d2 a7bd fe36 a23d 3610 f23b adf7 8bb8
000000c0: 7ab7 153d bf16 90bd 007c 04bd b222 35bd
000000d0: 79d5 2c3d b06d 03bd d9a6 cfbd c634 4a3c
000000e0: b498 003d 741e 113c 8f90 7a3d 8a0e df3c
000000f0: 604f 58bd c4ed 2ebc bbeb a9bd 2c74 b4bd
00000100: 12fc fc3d dfbe f13d c38d a8bb 99c9 bb3c
00000110: af6c 9a3d 80e6 1b3c f84b 0e3b 4ec9 8bbc
00000120: 2dd7 903d 6d32 633b 183a 84bd c171 2e3d
00000130: 754d 173e 265b 58bd b319 8ebd b8ad f43d
00000140: 9b6b 3ebb f095 b3bd 08be ed3d 4593 65bd
00000150: 0196 083e d43a 593d 3275 babc fca9 f5bc
00000160: 7eeb 613c 9f39 bb3d aeca 863b bef2 6d3c
00000170: 4450 0cbd 41c3 52bc 5ffa 7abc c4f3 22bd
00000180: 33e1 0b3e b92d 963d 3d4e a33d 9773 043d
00000190: b751 1c3d 7549 f73d 8a4f e33d 8e7f f2bc
000001a0: 664e 71bd eb69 a53d d8ab 16bd 4903 0f3e
000001b0: d4aa 043e 79d2 37bc b35f 0f3e 5ad8 e63d
000001c0: 5c7b 123a 362c 553c 138e 9ebd 9809 50bd
000001d0: 380f 9b3d 0541 0ebb 8aa3 e23d f781 c53d
000001e0: dc6c b43c da34 babc dcc6 3f3d d1af 26bd
000001f0: 3c9c 1c3e 6b34 9abd 8480 733d 3784 eb3d
00000200: 1991 143d 9451 e8bd 9474 bb3d 4321 f4bd
00000210: fa34 513d e9c1 b7bb 693e ecbd aff6 a63c
00000220: e32c 55bd 2d92 c2bd a3c5 473d c5ea b1bd
00000230: 30fe 973c ac2e afbc d060 0cbd 5415 453d
00000240: 482a c13d 8a07 85bd da4e dd3d 038a 0dbc
00000250: ab90 cc3d 1a1c 143b a22f edbd dbe6 3bba
00000260: f84a 97bc e402 87bd 8cb9 113d feec f33b
00000270: 0e69 9fbb 21f6 c43c b178 ebbd 8b6b 313d
00000280: 610c 0fbd 7bf5 f5bd 174d bfbd 8f24 4cbd
00000290: 9613 81bc 3a55 b9bc a6e8 863c 7535 b1bc
000002a0: 8418 093d 5975 833d d490 a53d 405e 6c3d
000002b0: a33d 093d c14c 713b e23a ffbb 70d6 e4bd
000002c0: 783b 33bd c444 97bc 1ceb a2bd fd2a a5bd
000002d0: ea16 7dbd 1d54 853d 88f0 e7bd cb11 a13d
000002e0: a7b7 943d 3fad f1bd 9941 e93c 1990 e7bd
000002f0: d2d0 1f3d ef74 86bc 932b 09bc 96bd 253d
00000300: e7c0 3fbd 9bae 263d 326d be3d e5af 86bd
00000310: 774f f83c e4d2 c8bd 1f1c ce3d b6d9 503c
00000320: 80a2 2ebc 731f c0bd cd25 c5bc 6636 61bd
00000330: 3bf9 a93c e887 c13d aba1 b13d 9030 4bbd
00000340: 9e77 bb3d f2ba 13be 825b 92bb 0395 21bb
00000350: bdb0 31bc d2e4 7f3d ccc2 babd 36b9 d53d
00000360: 12d1 283d 97bc 9cbb c7d0 f8bd 8d55 ff3b
00000370: 9edc df3c 29bc a33d a15f 72bd 7bac 0fbe
00000380: 5fd6 4ebd 16ca c4bc b641 9d3d 01b6 e6bd
00000390: c7d8 15bd f6a1 d43a 9725 97bd e4fd b23d
000003a0: 8366 0ebe 797d 5d3d 1389 b03d 9374 8bbd
000003b0: 77da 0bbe 55c7 e73b 750b b53d 0ce4 2b3d
000003c0: b8c8 a5bd 051d 1ebd 773f a8bd 925c 0fbe
000003d0: 0cf9 ae3c d90f 80bd 2df1 b33d 15df d5bd
000003e0: 9f72 0ebe f5db 2dbd 3719 bc3d 5488 933d
000003f0: 031d be3c c2a1 08bc 1c17 a63c c8e8 05bd

placing_layer.3.bias f4 [8]
0.08718035 -0.06402203 -0.08748495 0.06805336 -0.0499999 -0.07307101 -0.022690918 -0.09974228
00000000: 9d8b b23d fb1d 83bd 4f2b b3bd 8f5f 8b3d
00000010: b2cc 4cbd 41a6 95bd 4ee2 b9bc ae45 ccbd
