auto_src/log/z3exp_1/critic_learn/epoch0/imitation_learning_env-20240814-132537/bc_ddpg_actor.pth (torch, 275774 bytes, 108 tensors)

fc.0.weight f4 [64, 620]
00000000: 4298 acbb 5e44 fc3c 6338 bfbc 0919 26bd
00000010: 325d 9e3b 14bf 8a3b 8191 00bc 30b8 cd3c
00000020: 54be 9cbc d3a8 1bbc 86e2 61bc 9746 eabc
00000030: e40e b8bc d71d 0fbd 5507 eebb 5a53 4dbc
00000040: 101b 053d a743 e63c c7ff 4bbd d967 8abc
00000050: f042 ba3b 3360 a23c dfb6 cd3c a534 003d
00000060: f75b 7fbc 563c 0c3d bfa5 cc3c 4a3f e8bc
00000070: 6487 9abc c78c 1d3b a247 d6bc d702 1c3c
00000080: dce0 0a3c e193 dc3b b088 4abd 5ca8 2ebd
00000090: 8a35 23bd c6ee 933c c2ca bf3c 02ea b43b
000000a0: ff6f b63a aa4e d0bb 3573 483b 8725 44bd
000000b0: 4fe3 49bc 1e9b 6dbd c577 d3ba e23f d2ba
000000c0: 06c5 6abd 54b9 f339 be1a 0e3d 44fe 8e3d
000000d0: 9e80 e13b db24 3c3c 9ad4 dd3c 708d 09bd
000000e0: 9a46 0c3c 7c23 0fbd 638f cbbc b607 83bc
000000f0: 6df0 353c a5b9 e33c bce5 9cbb 01a5 853c
00000100: 53dd dc3c 19ce 26bd f397 a1bc 8bc3 ce3b
00000110: 9368 11bc 61bd e63c c170 11bc 1688 22bc
00000120: 8f8c 413d 56ef 343d 7b58 41bc f55b acbb
00000130: 0fba 613c 587b 20bd f205 fcbc 6980 d4bb
00000140: 0eea 0dbd 66cb 053d 18bd 3d3c 4b7b 3fbd
00000150: be52 613b 589d 37bc 19e4 9ebb 99cd 4d3c
00000160: 30d2 fa3c 27bf 34bc 41e1 96bb ebf2 0dbc
00000170: dc68 3fbc 3fc4 b13c 552e 1cbd 195d 53bc
00000180: df2c 413d 5707 31bc 2631 debc 8faf bbbb
00000190: 1aa0 ed3c 0c8a 853c 7912 7bbc 5a1b febc
000001a0: 447e 30bd 2eac 0fbd 4c53 34bd f073 77bd
000001b0: 527a 973b 3ab1 da3c f77f aebc f471 763c
000001c0: aa11 31bc e3d5 563d 2780 853d 2af2 d6bc
000001d0: 0005 71bc b73d 88bc d81f 5cbc 963b efbc
000001e0: 8b64 7e3c d7a2 90bc 7b09 21bd c4b6 8e3c
000001f0: ca10 38bd 9bbb e0bc 4503 4b3c 4810 08bd
00000200: 7b2b 04bd 12af c2bc e3b0 9cba 09fa c83c
00000210: a37a 20bd 27c1 093c c6c4 113d a91d ffbb
00000220: 6e8d 25bc f65a 5cbc b09c f6bb e3a8 a73b
00000230: ae96 263d 454e 7e3c a10c d43b 6b59 d13a
00000240: 2984 f9bc 4f54 bcbc 78c2 b23c b898 f2bc
00000250: 71a4 efbc 4831 13bd 992c 2bbd 3758 fcbc
00000260: 4f69 0cbd 13f5 a5bb 44d7 303c 1202 76bd
00000270: 847e fe3c e77d 0ebc bfb9 14bb f789 413a
00000280: 4c09 033b 4491 e9bb 8165 46bd f36e 05bd
00000290: ae97 debb fd34 723c 4b4c 63bc ff85 1f3c
000002a0: 34d3 52bc e076 0b3c cc89 813d ac7f 3bbc
000002b0: 81da a33c 6a0d 1b3c 81ba 3ebd d7c3 0b3c
000002c0: 3af3 a1bb c178 75bd 964a 2b3d 5e8d 05bd
000002d0: f00e f13c 5d80 763c 121f 8d3c 604b fdbb
000002e0: 9f72 fc3b 593d b93c 9702 51bc 1ecb 943b
000002f0: 1ab5 e9bc 11a8 3b3d 67fa 2c3d b39d 513d
00000300: e3c3 babc 3c4e f03b 0907 7dbd 948b cdbc
00000310: b123 e4bc 0999 483c 25a8 1abd f042 fcbb
00000320: addf b03c 3fb2 9d3c f033 e1bc 3dd8 86bc
00000330: 7c35 c6bc 4ddb 6b3c 3d1d 013d 2f5b 373d
00000340: b1f9 cc39 0adb 88bb a1ae a4bb be70 87bc
00000350: 1c13 51bc 7b6a b3bc 27ff 08bc 1513 a23c
00000360: b399 d2bc ab53 eebb c4ac 95ba cfa5 eebb
00000370: 3ca6 6dbc e977 033d 2ff6 9a3c 82b6 a73c
00000380: be14 7dbc b31e f63b bde7 1fbd 1a98 1dbd
00000390: 3fb0 b8bb fc03 90bc d659 263d 61ed 0fbc
000003a0: c1e3 0e3d cc50 8c3d 4188 373b b08c 4abd
000003b0: 203f cd3c efa9 36bd e2e6 f7bc 7f8b d33b
000003c0: f00d 923c c7ac c43c 8d52 4cbc 9463 29bc
000003d0: 7fe5 453c dc7c a8bc 67c4 143d 21c3 a0bc
000003e0: 0c92 96bc 77a4 aa3b 3598 99bc 528a fc3b
000003f0: 69d9 113d d228 19bc d79b afbc 3cf3 4bbc
-0.005267174 0.030794319 -0.023342317 -0.04055122 0.004832887 0.004234204 -0.007847191 0.025112242
-0.019133724 -0.0095007 -0.013786918 -0.028598113 -0.022468038 -0.034940567 -0.0072640576 -0.01253208
0.032496512 0.028108431 -0.049804475 -0.016895222 0.005684249 0.019821262 0.025111614 0.031300206
-0.015585891 0.03423723 0.024981378 -0.028350491 -0.018863387 0.0024040209 -0.026157204 0.009522161
0.008476462 0.0067314957 -0.04944676 -0.04264103 -0.03984598 0.018058192 0.023412112 0.00552106
0.0013918875 -0.0063570337 0.0030586247 -0.04788735 -0.012322261 -0.05800926 -0.0016133717 -0.0016040767
-0.057316802 0.00046486652 0.034693472 0.06982091 0.0068817874 0.011483396 0.027078915 -0.03358215
0.008561755 -0.03494595 -0.024848646 -0.015994888 0.011104685 0.027798483 -0.0047881287 0.016314032
0.026961004 -0.040723894 -0.019725775 0.0063099316 -0.00887503 0.028166475 -0.00887698 -0.009920141
0.047253188 0.04417356 -0.011800881 -0.0052599856 0.01377727 -0.03918013 -0.030764554 -0.0064850342
-0.03464704 0.03266468 0.011580728 -0.04674844 0.0034381594 -0.011206947 -0.0048489687 0.012561225
0.030617803 -0.011031902 -0.004604489 -0.008663873 -0.011682715 0.021700023 -0.038130123 -0.012900614
0.047161933 -0.010804973 -0.027123045 -0.0057277153 0.029007006 0.016301177 -0.015324228 -0.031018902
-0.043089166 -0.035076313 -0.04402475 -0.0604133 0.004622736 0.026695836 -0.021301253 0.015041817
-0.010807434 0.052450072 0.06518584 -0.02623852 -0.014710665 -0.01663099 -0.0134353265 -0.029203217
0.015526901 -0.017655773 -0.039315682 0.017421134 -0.044937886 -0.027433207 0.012390916 -0.033218652
-0.03226803 -0.02376512 -0.0011954572 0.024533289 -0.039179455 0.0084078675 0.03558805 -0.007785518
-0.01010452 -0.013449421 -0.007526003 0.0051165684 0.040671043 0.015521591 0.006471232 0.0015972083
-0.030458527 -0.02298942 0.021821246 -0.029613838 -0.029253216 -0.03593567 -0.04179058 -0.030803783
-0.034280118 -0.0050646155 0.010793511 -0.06006057 0.031066187 -0.00869701 -0.002269372 0.0007382924
0.0019994555 -0.0071279127 -0.048436645 -0.032576513 -0.006792984 0.014783141 -0.01387317 0.009736537
-0.012867738 0.008512229 0.06325111 -0.011444014 0.020001652 0.009463647 -0.046564583 0.008530579
-0.004942325 -0.059929613 0.041819178 -0.03260552 0.029426068 0.015045253 0.01722673 -0.0077299327
0.0077040936 0.02261226 -0.012756965 0.004540815 -0.028528739 0.045814577 0.04223099 0.051175784
-0.022798484 0.007333545 -0.061774287 -0.02509097 -0.02784905 0.012243518 -0.03775801 -0.0076984093
0.021591032 0.019250033 -0.027490586 -0.016460532 -0.024195425 0.014395547 0.031522024 0.044764694
0.00039095947 -0.004176502 -0.0050257 -0.016533252 -0.012760904 -0.02190136 -0.008361614 0.01978449
-0.025708055 -0.0072731576 -0.0011419286 -0.0072829495 -0.014504965 0.032096777 0.018916218 0.020472769
-0.01544684 0.007510984 -0.039039362 -0.038475133 -0.0056362445 -0.017580025 0.040613018 -0.008784623
0.03488517 0.06851348 0.0028004798 -0.049450576 0.025054514 -0.044595655 -0.03026146 0.006455838
0.017828912 0.024008168 -0.0124708535 -0.010338683 0.012078642 -0.02056735 0.036320116 -0.019624295
-0.018380187 0.005207594 -0.018749336 0.0077069188 0.03560773 -0.009348111 -0.021436615 -0.012448128

fc.0.bias f4 [64]
00000000: aa45 e13c 7367 61bc 2a47 69bc e88c 0b3d
00000010: 6341 8dbb 3d4d 21bd b1af 00bd 5c8c 1e3b
00000020: 80ac 1a3d 3ab9 b1bc 7a26 293c 5e70 19bd
00000030: f638 073d a2f3 823c 2802 ea3b 19c9 d93c
00000040: 5d4d 0f3d 1032 5eba 05cb 1fbd a99a 133d
00000050: 3b4b cb3b 9488 cabc f27a e83c 73a3 cebc
00000060: 9a4d c33c 7565 063d a548 a13c 3281 dc3b
00000070: e82c 1e3c 2eae 1fbc eaf6 9cbc 3fe9 2a3d
00000080: 5e50 51ba 4d00 a9bb 8cdf 48bc a40c 1a3b
00000090: fe47 c53c 7827 d23a e457 933c c12c 9ebc
000000a0: f126 fa3c 3415 af3c f940 a9bc 520d a3bc
000000b0: 70aa 21bd 6594 e63c 709b a5bb f6fd 053c
000000c0: b4a3 a9bc c63e a9ba c070 c2bc 23a7 443c
000000d0: aace 13bd 1f76 a8bc cc9c 0abd ef0a c53c
000000e0: 83ac d4bc acf1 80bc 7939 ebb9 9d44 7f3b
000000f0: 4fd6 48bc 07bf 6b3c 6c61 acbc 8291 473c
0.027499039 -0.013757574 -0.014238158 0.034069926 -0.004310773 -0.0393803 -0.031417552 0.0024192547
0.037762165 -0.021694768 0.010324115 -0.037460677 0.033013307 0.015985314 0.0071413703 0.026585149
0.03498589 -0.0008476088 -0.039011974 0.036036167 0.0062040365 -0.024723329 0.028378937 -0.025224423
0.023840714 0.0328116 0.01968796 0.0067292685 0.009654261 -0.0097461175 -0.019160707 0.041726347
-0.0007984693 -0.0051575066 -0.012260329 0.002350607 0.02408218 0.0016033491 0.017986245 -0.01930845
0.030536147 0.021372415 -0.020660864 -0.019903813 -0.039469182 0.028146932 -0.00505393 0.008178225
-0.020707943 -0.0012912385 -0.023735404 0.012002739 -0.036085762 -0.020564137 -0.03384094 0.024053065
-0.025961166 -0.015740238 -0.00044865513 0.0038950809 -0.012258126 0.014388806 -0.021042548 0.012180688

fc.2.weight f4 [64]
00000000: c1c5 863f 17eb 863f 6992 863f c003 873f
00000010: 240d 873f 0000 803f a068 863f 0000 803f
00000020: 4d26 863f 2211 873f 0000 803f 0000 803f
00000030: 2ba4 863f 0000 803f 1af3 863f 83df 863f
00000040: d227 873f 0000 803f 0000 803f 0000 803f
00000050: 0000 803f 0000 803f 0000 803f 0000 803f
00000060: 0000 803f 0000 803f 0000 803f f8cf 863f
00000070: 87ed 863f 74af 863f 0000 803f 1707 873f
00000080: 0000 803f e51d 883f 0000 803f 443f 873f
00000090: 50ca 863f 0000 803f 0000 803f 0000 803f
000000a0: 27fc 863f 0000 803f 0000 803f caa0 863f
000000b0: f875 873f 0000 803f cbb5 873f 0000 803f
000000c0: 571d 863f 0000 803f 77f5 863f 0000 803f
000000d0: 86c9 863f 0000 803f 0000 803f a265 863f
000000e0: 0000 803f 0000 803f a318 883f e39e 863f
000000f0: 0000 803f 0000 803f 0000 803f 0000 803f
1.05291 1.0540494 1.0513431 1.054802 1.0550885 1.0 1.0500679 1.0
1.0480438 1.0552104 1.0 1.0 1.051885 1.0 1.0542939 1.053696
1.0559027 1.0 1.0 1.0 1.0 1.0 1.0 1.0
1.0 1.0 1.0 1.0532217 1.0541238 1.0522294 1.0 1.0549039
1.0 1.0634123 1.0 1.0566182 1.0530491 1.0 1.0 1.0
1.0545701 1.0 1.0 1.0517819 1.0582876 1.0 1.0602354 1.0
1.0477704 1.0 1.054366 1.0 1.053025 1.0 1.0 1.0499766
1.0 1.0 1.0632519 1.0517238 1.0 1.0 1.0 1.0

fc.2.bias f4 [64]
00000000: 34e6 aa3c f732 26bd 560d 4ebd 04be 54bd
00000010: dda7 61bc 6cc1 80bd 5104 f1bc de41 843d
00000020: c154 333d 55db 573d 76c0 633d 7666 823d
00000030: 11ec f63c 5e18 5c3d 8ab6 333d aec6 37bd
00000040: 65ed 4b3d d334 803d 36df 7f3d 35c8 5fbd
00000050: 1957 84bd e285 753d 0095 82bd 5be3 7cbd
00000060: 0548 5abd cc8f 7c3d 244c 2d3d 584e 42bd
00000070: 7702 0a3d b608 b73c f1d0 5ebd 87fb 983c
00000080: 1e69 5b3d 9099 343d 7f47 803d fa90 7a3c
00000090: 1083 4abd 569c 60bd 4393 5a3d fdd5 823d
000000a0: fd9d 14bd b155 823d 258f 81bd 7458 373d
000000b0: a5b4 553d be43 7d3d d2e0 21bd 52e5 803d
000000c0: ac34 593d a638 833d 578e 21bc 3ec0 81bd
000000d0: 90a4 54bd 16ed 5bbd 030f 82bd 00ef 54bd
000000e0: 9a72 813d 7c0b 7e3d 7f3d 5cbd ddad 63bd
000000f0: d9f8 83bd e8ba 76bd 315c 5cbd 7f36 63bd
0.020861723 -0.040575948 -0.050305687 -0.051939026 -0.013772932 -0.06286892 -0.029421004 0.06457876
0.043782 0.052699406 0.055603467 0.06367199 0.030141862 0.053734176 0.043875255 -0.04486721
0.049786944 0.062600754 0.06246873 -0.05463429 -0.06461925 0.059942134 -0.06376076 -0.06174026
-0.05329134 0.061660573 0.04230894 -0.047437996 0.033693757 0.02234302 -0.05439848 0.018674625
0.053567044 0.04409176 0.06263637 0.015293354 -0.049441397 -0.054836594 0.053363096 0.06388471
-0.036283482 0.063640006 -0.06326131 0.04476209 0.05217423 0.061832182 -0.039521046 0.062937394
0.053028747 0.06407289 -0.009860597 -0.063354954 -0.05191475 -0.0536929 -0.063505195 -0.05198574
0.06320687 0.06202267 -0.053769585 -0.05558573 -0.06443948 -0.06023684 -0.053798858 -0.055471893

fc.2.running_mean f4 [64]
00000000: a3a4 ad46 1349 7a45 53d7 6946 3b37 e245
00000010: 3a4c 0046 0000 0000 1bc3 2847 0000 0000
00000020: 51b0 9744 a639 4946 0000 0000 0000 0000
00000030: 77d4 8346 0000 0000 8214 ee46 d86d 0343
00000040: bed1 0945 0000 0000 0000 0000 0000 0000
00000050: 0000 0000 0000 0000 0000 0000 0000 0000
00000060: 0000 0000 0000 0000 0000 0000 59bc 3246
00000070: 336b 4446 778c 7146 0000 0000 902e f546
00000080: 0000 0000 91eb 7145 0000 0000 90da cc46
00000090: c1b4 0547 0000 0000 0000 0000 0000 0000
000000a0: 55f9 0847 0000 0000 0000 0000 5a1d 8f46
000000b0: acde 4045 0000 0000 2b64 9e46 0000 0000
000000c0: b2d0 ec46 0000 0000 1484 dd46 0000 0000
000000d0: 4c07 e646 0000 0000 0000 0000 dea3 4343
000000e0: 0000 0000 0000 0000 5958 cd44 48a7 1447
000000f0: 0000 0000 0000 0000 0000 0000 0000 0000
22226.318 4004.5671 14965.831 7238.904 8211.057 0.0 43203.105 0.0
1213.5099 12878.412 0.0 0.0 16874.232 0.0 30474.254 131.42908
2205.109 0.0 0.0 0.0 0.0 0.0 0.0 0.0
0.0 0.0 0.0 11439.087 12570.8 15459.116 0.0 31383.281
0.0 3870.723 0.0 26221.281 34228.754 0.0 0.0 0.0
35065.332 0.0 0.0 18318.676 3085.917 0.0 20274.084 0.0
30312.348 0.0 28354.04 0.0 29443.648 0.0 0.0 195.6401
0.0 0.0 1642.7609 38055.28 0.0 0.0 0.0 0.0

fc.2.running_var f4 [64]
00000000: d07a 4247 784a 0347 9963 4347 b3ac 3b47
00000010: 3f9b 7247 63b7 5916 69e3 8847 63b7 5916
00000020: da64 3e47 9878 da46 63b7 5916 63b7 5916
00000030: f692 1e47 63b7 5916 e7f5 7747 5975 a346
00000040: ffb6 7947 63b7 5916 63b7 5916 63b7 5916
00000050: 63b7 5916 63b7 5916 63b7 5916 63b7 5916
00000060: 63b7 5916 63b7 5916 63b7 5916 05fb 4647
00000070: 28db 7a47 5b3a 3847 63b7 5916 c313 4c47
00000080: 63b7 5916 bbe3 2747 63b7 5916 f6c9 4547
00000090: a705 cf47 63b7 5916 63b7 5916 63b7 5916
000000a0: 8721 1147 63b7 5916 63b7 5916 5056 0d47
000000b0: bb6a 1447 63b7 5916 5fb6 7347 63b7 5916
000000c0: 0f5f fa46 63b7 5916 358f 3e47 63b7 5916
000000d0: a483 4547 63b7 5916 63b7 5916 8c5d f846
000000e0: 63b7 5916 63b7 5916 21cd 0a47 0752 0f48
000000f0: 63b7 5916 63b7 5916 63b7 5916 63b7 5916
49786.812 33610.47 50019.598 48044.7 62107.246 1.7586987e-25 70086.82 1.7586987e-25
48740.85 27964.297 1.7586987e-25 1.7586987e-25 40594.96 1.7586987e-25 63477.902 20922.674
63926.996 1.7586987e-25 1.7586987e-25 1.7586987e-25 1.7586987e-25 1.7586987e-25 1.7586987e-25 1.7586987e-25
1.7586987e-25 1.7586987e-25 1.7586987e-25 50939.02 64219.156 47162.355 1.7586987e-25 52243.76
1.7586987e-25 42979.73 1.7586987e-25 50633.96 105995.305 1.7586987e-25 1.7586987e-25 1.7586987e-25
37153.527 1.7586987e-25 1.7586987e-25 36182.312 37994.73 1.7586987e-25 62390.37 1.7586987e-25
32047.53 1.7586987e-25 48783.207 1.7586987e-25 50563.64 1.7586987e-25 1.7586987e-25 31790.773
1.7586987e-25 1.7586987e-25 35533.13 146760.11 1.7586987e-25 1.7586987e-25 1.7586987e-25 1.7586987e-25

fc.3.weight f4 [64, 64]
00000000: c070 e33d b46b c439 6912 d9bd 6db1 e63d
00000010: d115 f53d baed 073e 4512 6abc 1ce2 31bd
00000020: 766b fb3d 6e12 123d e6a2 0fbc 073e ea3c
00000030: 6a56 e53c c808 b9bd 36f3 913c 13bd a43d
00000040: 12ae a73d 5ef0 79bd 8f0e 953d 81a7 1b3c
00000050: 2ced 863d f088 b3bc 43ba c9bc 4bba 223e
00000060: 5c32 e3bd 6c94 1dbe df1b 5c3d cde9 9a3d
00000070: 4e09 0bbd 2e7f 8d3d 37e6 9fbc b019 d33d
00000080: 06aa b8bd 4d46 bf3d b730 1bbe d33e 82bc
00000090: 55c4 ba3d 27db 3a3d 04b5 30bd 5e52 ac3d
000000a0: 2e46 0c3c 558d 15be c4f7 9b3d ff54 6abd
000000b0: 4c9f d0bd 2326 b63d 0848 1ebc d6fa 06be
000000c0: 2b04 983d ad63 173d 11e1 71bd a05b 973d
000000d0: a821 903c d713 c93c d668 13bd 7e86 ed3d
000000e0: 9d5a ebbd b576 b53d 654f 023d 46d1 543d
000000f0: 96e2 f53b 1934 b03d 4b32 043e aac4 1c3b
00000100: 6a77 07be 52e4 0e3e be9e 96bd 979f ea3d
00000110: 40e0 92bd fcd5 2bbd bdad f73c e661 933d
00000120: a6b3 36bd 480a f6bc d0b1 743d 0964 df3c
00000130: cbb3 113e bf76 27bd c5dd d03d c25b 5e3d
00000140: f989 a4bd a507 013e 646f 203e 2546 32be
00000150: 601e 01bd e209 b2b9 16d9 b43c 4c59 9bbd
00000160: 0d65 6b3d c8b3 a33d ffce ec3d 6356 133e
00000170: 816a 273d 696f e3bd cfd8 a8bd 4c19 acbd
00000180: 54d1 943c d23c 003e 4bb1 0c3e 4f95 00bd
00000190: 076d 21bd 314f ec3b 3899 40bd fd40 1fbd
000001a0: 9a36 943d 3f30 893a f842 803d 826e 673d
000001b0: dfcc 85bc 922a 91bd c871 9a3d fd6d d83d
000001c0: 0572 dd3d 1579 153c fcf9 b93d 9b7f 0dbe
000001d0: 2d33 60bd 4d3c 18be 64ae ccbd 30e4 423b
000001e0: 4010 a93d 465c babd d68a 09be 9365 053d
000001f0: c354 66bc 8a21 f6bd b58e 80ba c01b e9ba
00000200: 2267 54bb 8caf 3dbc a693 0abd 0b12 16be
00000210: 675b d43d 54c9 3b3d 2262 d43d 71fa 4cbb
00000220: 8a5e 2abd f61c 7fbd 4e7d da3d 0298 e33d
00000230: 7030 cb3d abfa 903d 0f14 e43c d593 1fbe
00000240: 49e9 ac3c 0b5d 0d3d 4708 92bd 419d fdbd
00000250: 79fd 84bd 3274 653d 023d 5b3d 6d99 e5bd
00000260: d2c4 f8bd 00ec 8ebd d11e 9f3d b6c7 96bd
00000270: 1e4e 073d 567a 87bd 5fd3 3cbe fe43 263e
00000280: 4335 963c 1734 9c3d 20a5 963c 732e 993d
00000290: 3bfd f6bd 8a94 26be 280f b6bc 1409 243d
000002a0: d4a0 16be 074a 23bd e493 6e3d 321a 25be
000002b0: f416 0c3e 7366 3ebc 2c3c c6ba dc24 ce3d
000002c0: 4869 aabc dadc 6fbd 1c9d 8a3d 9861 7a3d
000002d0: ba61 1bbe 1d66 74bd b944 1c3d be16 063e
000002e0: 0c32 2f3d fabe ecbc 0cb6 423d c201 193d
000002f0: c4c9 3fbd 801b c73c 9345 31be c6e7 25be
00000300: a760 853c 4879 033e dac5 8c3d a14f d5bc
00000310: c5ff 963d dbdb 2abd bc67 12be fde5 ba3d
00000320: 90da 51bd a87e bb3c f8ba a63d 3e79 e23c
00000330: 390c 253e e5a6 d33d d4b0 a93d 2e0a 3a3e
00000340: f2cd 3b3b 3d60 2b3e 9509 3abb 508f 13be
00000350: d393 12be aa9a 063e b139 96bd 483a 34be
00000360: 066e bebb 2c89 cd3d 948a 333d 31c1 48bd
00000370: 4bcd 14be 9553 1fbe 3eed 03be 9100 61bd
00000380: f8e4 8bbd 0cd0 ea3d d649 553d 123a 12bc
00000390: ebee c1bc cff3 42bc 8a03 363e b415 283e
000003a0: e57a 693d bd89 2b3e 7805 433d d5f4 2e3e
000003b0: ed86 99bd 3113 d23d 4b46 fabc e579 f93b
000003c0: 875a 5c3c ccf2 9a3b bcec 893d d09e 0b3d
000003d0: a6c2 8cbd 089a 9dbd 7e1f 3fbd c00f 60bd
000003e0: f89d 9a3c a7da 1b3e 4cf4 d7bd a19d 2e3e
000003f0: f375 06be c626 40be bbf4 f5bd 95f4 d6bd
0.1110549 0.00037464278 -0.105992146 0.1126431 0.11967052 0.13274279 -0.014286582 -0.043428525
0.12276356 0.035662107 -0.008766865 0.02859403 0.027995307 -0.09034878 0.017816167 0.080438755
0.08187498 -0.061020248 0.072781675 0.009500385 0.06588206 -0.021915883 -0.02462495 0.15891378
-0.1109359 -0.1538865 0.053737517 0.07564125 -0.03394442 0.06909023 -0.019518955 0.10307634
-0.090168044 0.09339581 -0.15155302 -0.015899098 0.091194786 0.045619156 -0.04314138 0.08414148
0.008561654 -0.14604695 0.07615617 -0.057209965 -0.101866335 0.08893993 -0.009660728 -0.13181624
0.0742267 0.036960293 -0.05905253 0.07390523 0.017594174 0.024545593 -0.03598865 0.11597918
-0.114918925 0.08860532 0.031813998 0.05195739 0.007503818 0.08603687 0.1290981 0.0023920932
-0.13229147 0.13954285 -0.073544964 0.114562206 -0.071716785 -0.04195212 0.030234212 0.07196407
-0.04460492 -0.0300342 0.059739888 0.02726938 0.14228742 -0.04088473 0.10198549 0.054286726
-0.08034129 0.12600572 0.15667492 -0.1740957 -0.03152311 -0.0003395817 0.02207617 -0.075853914
0.057469416 0.07993275 0.11562919 0.14388423 0.040873054 -0.11105234 -0.08244478 -0.084032625
0.018166222 0.12523201 0.13739507 -0.03139239 -0.039410617 0.007211589 -0.04702112 -0.038880337
0.07236977 0.0010466649 0.06262773 0.056501873 -0.016333042 -0.07088198 0.07541233 0.105678536
0.10812763 0.0091231065 0.09080884 -0.13818209 -0.054736305 -0.14866753 -0.099942 0.002973806
0.082550526 -0.09099631 -0.13431868 0.03256757 -0.014058295 -0.12018116 -0.0009808155 -0.0017784759
-0.0032410105 -0.011577498 -0.033832215 -0.1465532 0.10368996 0.0458463 0.1037028 -0.0031277204
-0.041594066 -0.06228348 0.10668431 0.111129776 0.09921348 0.07079061 0.027841596 -0.15583737
0.021107333 0.03451256 -0.07130485 -0.123835094 -0.064936586 0.056019016 0.05352498 -0.11210904
-0.121469155 -0.06978607 0.0776955 -0.073623106 0.033033483 -0.066151306 -0.18440007 0.16236874
0.018335944 0.07627123 0.018389285 0.074795626 -0.12060019 -0.162676 -0.022224024 0.04004772
-0.14709789 -0.03986552 0.05824651 -0.16123274 0.13680631 -0.0116211055 -0.0015124134 0.10065624
-0.020802155 -0.05856023 0.067682475 0.06112823 -0.15173998 -0.059667695 0.038151477 0.13094613
0.042772338 -0.028899658 0.047536895 0.037355192 -0.046823278 0.024305105 -0.17311697 -0.16201696
0.016281439 0.12839234 0.06873675 -0.026038947 0.07373003 -0.041713577 -0.14297384 0.09125898
-0.051233828 0.022887543 0.0814113 0.027645703 0.16117944 0.10334567 0.082856804 0.18167946
0.0028656689 0.1673593 -0.002838706 -0.14410138 -0.14314203 0.13144937 -0.073352225 -0.17600358
-0.0058114557 0.10035929 0.04383333 -0.049012367 -0.14531438 -0.15559228 -0.1288347 -0.05493218
-0.06830782 0.11465463 0.05207237 -0.008924978 -0.023673495 -0.011898949 0.17774788 0.16414529
0.057001967 0.16751762 0.047612637 0.17085584 -0.07496438 0.10257567 -0.030551096 0.007613408
0.013449318 0.0047286507 0.067346066 0.034087002 -0.06873064 -0.07695395 -0.046660893 -0.05470252
0.018874153 0.15220128 -0.10544643 0.17052318 -0.13130932 -0.18764791 -0.12009569 -0.10495869

fc.3.bias f4 [64]
00000000: 5dae e6bb 3f94 58bb 38ee a73d 8dd3 cb3d
00000010: d8ea 503d d906 b93d 86c5 023e 335d 813c
00000020: acb7 ed3d dda4 f33c 39e5 2b3e 36c1 773d
00000030: 4270 2b3e 4ad3 773d fb88 d73c 9a9b 22bd
00000040: ef92 b43b 49e5 96bc 719b 043e 307e 2d3d
00000050: aa61 b63c fbda 433d 3951 233d 3ce3 27bd
00000060: c71c 3f3d fe6c 543d e7c6 9a3d 58f3 e83d
00000070: 0dbe c73d 6cc6 2b3e 2f2b 043e 6d88 233d
00000080: 04ad a33d c631 13bc 6cba 2e3e 88cc 993d
00000090: 2ca2 8bbd babd 373d 34a9 74ba 2fca dc3b
000000a0: 10cb fe3d c2b3 a43d 32e1 183e 3bf2 50bd
000000b0: 8cfb c93d 35cc a43d 4354 e03d dd85 ebbc
000000c0: 130b e33d a1f8 963d 8901 2eba 70a0 e93d
000000d0: 80ce b83d c7fe dd3d 60e2 4b3d e4e1 eb3d
000000e0: fbca d83d a12c 033e 0edb 82bb 965a 1b3e
000000f0: 800e cb3d 1e8c b13c fc9f b53d 8547 0f3e
-0.0070398287 -0.0033047346 0.081997335 0.099524595 0.051005214 0.09034509 0.12770662 0.015791511
0.11607298 0.029741699 0.1678666 0.060486995 0.16742042 0.060504235 0.026310435 -0.039699174
0.00551068 -0.018419879 0.12949921 0.04235667 0.022263367 0.047816258 0.03987238 -0.040988192
0.046658304 0.051861756 0.07557469 0.11374539 0.09753046 0.1677491 0.12907098 0.039925028
0.079919845 -0.008984035 0.17063302 0.07509714 -0.06818041 0.04485867 -0.00093330746 0.0067379694
0.12441075 0.080420986 0.14929655 -0.05101226 0.09862432 0.08046762 0.10953572 -0.028750354
0.110860966 0.07371641 -0.0006637802 0.11407554 0.09023762 0.108396105 0.049776435 0.115176946
0.105855905 0.12809993 -0.0039933985 0.15171275 0.09914875 0.021673258 0.08868405 0.13992126

placing_layer.0.weight f4 [5, 64]
00000000: 5b78 eebc 43b9 f83d 44ab 2dbc f65d dbba
00000010: 5447 cf3d 6e5a 6b3d 1683 343e ecbc 883c
00000020: f541 493d 8fd5 343d ba78 253d 67f8 b4bc
00000030: 132f ad3d 90d1 ab3d 6616 9a3d 8a32 9939
00000040: 5b07 043e 7498 e03d cd0f ee3d da32 e03c
00000050: 6106 953d 9e80 fc3d 6971 023c 9c29 d5bc
00000060: fb9f 683d 7022 aebc bc49 a63d 2eaa f03c
00000070: aa5e 46bb 218d db3d f0b0 ab3d d867 203c
00000080: 676e 1abd b314 75bd c686 3ebc 63e4 87bd
00000090: 7532 933d 1508 25bd ed56 903c ce4f b3bc
000000a0: afcb 083e 7194 b83d e036 b73d 8792 253e
000000b0: c1b3 163e d72b a43d efb3 383b 540d 343e
000000c0: ddf0 b73d 6426 cf3d 6b1f 303b bf5d 08bd
000000d0: 3028 a03d c312 d73d 4eec 4c3d 1c03 0f3d
000000e0: a5f8 293e 5538 233e 583b 613d 4d93 9c3c
000000f0: e3fb 8d3d 6794 b43d 0fb2 ea3d 4b1e 87bd
00000100: 58a9 fb3d 971f 943c 94c6 99bd 45b2 933d
00000110: 6e57 a13d 52a8 ad3d 7dbc 573d 3ef6 5fbd
00000120: 12ed 38bd 8825 a23d e3e8 4cbd e4ad 24bc
00000130: 8b9b 79bd 1ad9 90bd 66a6 1d3d 737a 4f3d
00000140: 9fd7 04bc 7d65 243d 3030 d2bd a295 00be
00000150: 6a6c ccbd 5f03 023d d958 cbbd ba63 a83c
00000160: 11c4 2fbb c118 6cbc b118 e73d c3cb 963d
00000170: 183d ebbd 6f68 f4bd 8302 5c3d 3ec9 703d
00000180: e750 d7bd 32e6 c13c d68f 0c3c 81b7 3c3d
00000190: 9ae0 893c f82b a13d 400d b23d 559c 133d
000001a0: 9e57 bf3d 341d fd3c e68d 3ebd 191b f0bc
000001b0: 933f 673d b53f c9bd c164 8fbd 74ab 16bd
000001c0: 3b94 7abc 6791 87bc 9e3d f7bd d6ae 273d
000001d0: 210d 223d e0ba 9f3d c68d 60bb b437 3e3c
000001e0: 4a59 ee3d 7508 fe3d 44a7 c7bd 7654 753c
000001f0: 2994 e3bd bc9b d7bd 2045 883d e9c5 b2bd
00000200: 86c9 86bb 94c9 bfbc 1766 3e3d a026 6bbd
00000210: a7fe 80bd 9748 e13d 1779 c1bd 47a2 f7bd
00000220: 1dca ed3c 9c14 8cbb 08d6 06be b04a 983d
00000230: cceb fcbd c814 013d 94f5 1f3d ddc6 b5bd
00000240: ba67 993c 0288 883c ba7e 04be 3d5a b53a
00000250: f397 483d 5a2b 83bb 8df2 913c 616a 103d
00000260: 10d8 e43d 8dbf 313d 6aaf edba b391 95bd
00000270: e666 523a a8ed ae3d c68b d0bd 59d2 883d
00000280: dc4f 1c3d 5100 e1bd edb4 13bd dc06 c8bd
00000290: ecd7 dcbd 9057 8f3d 289a 8dbd ac2b fa3c
000002a0: b270 b23d 2d7f cfbd 13f4 e63b 334c 10be
000002b0: e2b8 6cbd 467c 783d 19a3 d8bd 4ab3 a93c
000002c0: 0ff5 c83d 1138 903d 179b abbd 08b5 f4bd
000002d0: 61d9 1fbd 1f91 0c3d 1863 f43c f808 2ebd
000002e0: fd54 a93d 2e50 453d d9eb 853d 5370 263a
000002f0: de14 de3d 5547 e4bd 25aa c73b c440 9b3d
00000300: 52e9 ddbd e8e2 be3c 238c 95bd 50f4 a13c
00000310: 3379 733b 36b3 e5bd c5f7 78bd 5036 29bd
00000320: c84d adbc d361 d3bd 5827 f0bc 75a1 48bd
00000330: 5ad3 f7bd acf0 a1bd ace8 aebd 6195 da3d
00000340: a88f a43c c87d a8bd 348c fd3d 980c 10bd
00000350: d474 43bd 2377 ba3d 8003 f9bb 4030 5a3d
00000360: 505c 48bc 006a d6bb 5ce1 c93d 9805 21bd
00000370: 3734 b33d 29fd d93d a01a d1bd b2ba 16bc
00000380: 758b dabd 238f 3c3d 89da c5bd 2036 02bc
00000390: d755 cbbd e776 a13d 98f2 703d 3e61 3d3d
000003a0: c7aa 123d eae3 bebb 3d66 d9bd a342 c7bd
000003b0: 586e bdbd 9de3 8f3d 3718 a3bd 8291 96bd
000003c0: aaa7 713d 4437 cfbd 6f28 be3d 095f cbbd
000003d0: 8c88 a2bd 1ee9 95bc f056 91bc 5ebf d03d
000003e0: a0d4 eabb df86 233d a371 3e3d db43 b9bd
000003f0: a9e1 4d3d a8a5 c9bd fc5e b8bd 4f71 693c
-0.029110124 0.12144711 -0.010599915 -0.0016736377 0.10121027 0.057459287 0.1762813 0.016691647
0.049135167 0.044148978 0.040398337 -0.022091104 0.08456244 0.0838958 0.075238034 0.0002922009
0.12893431 0.10966578 0.116241075 0.027367998 0.07276607 0.12329219 0.007961609 -0.026020817
0.056793194 -0.021256655 0.081195325 0.029378023 -0.0030268827 0.107202776 0.083833575 0.009790383
-0.037702944 -0.059834193 -0.011628812 -0.06635358 0.07187358 -0.04029091 0.017619574 -0.02188864
0.13358949 0.09012688 0.089460135 0.16169177 0.14717008 0.08016174 0.002818342 0.1758321
0.08981488 0.10114744 0.0026874195 -0.03329253 0.07820165 0.105016254 0.050030045 0.034915075
0.16598757 0.15939458 0.054988235 0.019113207 0.06932809 0.08817368 0.11459743 -0.06597575
0.12288159 0.01808147 -0.07508579 0.072117366 0.07878004 0.0847937 0.05266999 -0.054678194
-0.045147963 0.07917315 -0.050026786 -0.010051224 -0.060939353 -0.07072659 0.038488768 0.050653886
-0.008108049 0.04013585 -0.10263097 -0.1255708 -0.09981616 0.031741496 -0.09929056 0.020555366
-0.0026819746 -0.014410199 0.112840064 0.07363083 -0.11486262 -0.119339816 0.053713333 0.05878567
-0.10513478 0.023669336 0.008579215 0.04607344 0.016830731 0.078697145 0.086939335 0.03603776
0.093428835 0.030897714 -0.046522044 -0.029309796 0.056457113 -0.09826604 -0.07001639 -0.036784604
-0.01529413 -0.016548825 -0.120722994 0.04093822 0.039563302 0.077993155 -0.003426419 0.01160996
0.11638124 0.12403957 -0.097487 0.01497375 -0.11112244 -0.10527751 0.066538095 -0.087291546
-0.004113379 -0.02341155 0.04648408 -0.057409883 -0.06298571 0.110001735 -0.09446924 -0.12091499
0.02902704 -0.0042749178 -0.13167584 0.074361205 -0.12349662 0.03151396 0.03905256 -0.08875821
0.018726218 0.016666416 -0.12938967 0.0013836097 0.048973035 -0.0040029706 0.017815853 0.0352577
0.11174023 0.043395568 -0.0018133943 -0.073031805 0.00080261973 0.08541423 -0.1018291 0.06680746
0.038162097 -0.109863885 -0.036061216 -0.09766933 -0.10783371 0.06999123 -0.069141686 0.030538402
0.08712901 -0.10131679 0.007048139 -0.14091568 -0.057793505 0.06066539 -0.105779834 0.020715374
0.09812366 0.07041944 -0.083791904 -0.119485915 -0.039025668 0.034318086 0.029832408 -0.042489022
0.08268163 0.04817217 0.06539125 0.0006349135 0.10843824 -0.11146418 0.006093281 0.075807124
-0.10835518 0.023301557 -0.073021196 0.019769818 0.0037151098 -0.112158224 -0.060783166 -0.041311562
-0.021155253 -0.10321393 -0.029315636 -0.048982102 -0.12100859 -0.07907233 -0.085404724 0.10673023
0.020088032 -0.08227116 0.12380257 -0.03516826 -0.047718838 0.09104755 -0.007599294 0.05326867
-0.01222904 -0.006543398 0.09857437 -0.039311975 0.087501936 0.106439896 -0.102101564 -0.009199785
-0.106711306 0.046034943 -0.09660823 -0.007947475 -0.09928482 0.07884007 0.058825105 0.046235316
0.035807397 -0.0058255093 -0.106152035 -0.09729507 -0.09249562 0.07025836 -0.07963603 -0.07351972
0.058997788 -0.10117963 0.09285056 -0.09930236 -0.079362005 -0.018299635 -0.01774165 0.101927504
-0.00716646 0.039923545 0.04649509 -0.090461455 0.050264034 -0.098460495 -0.09002492 0.014248206

placing_layer.0.bias f4 [5]
00000000: 1032 21bd 8df6 a3bd 3ce5 86bc 0729 90bd
00000010: 9add 133e
-0.039354384 -0.0800601 -0.01646673 -0.07039075 0.14440003

placing_layer.1.weight f4 [5, 64]
00000000: 87fa a83d bb13 b13d e569 9e3a b1f1 453d
00000010: 0172 bbbd 5742 05be 6beb b73d 4bca 913d
00000020: 57be 8f3d ca50 f7bc c519 5b3b 1c1b a13d
00000030: a8c7 e1bd 5066 94bd b720 0a3d d063 ad3d
00000040: 4a7d d0bd 6289 cf3d ee57 9abd 1609 893d
00000050: 7277 75bd 9068 703d 7010 9c3d e8fa b7bd
00000060: f84d 9cbd fc42 ac3d cfaa bf3d 3229 41bc
00000070: ee50 ec3c 58e9 7ebc 8332 813b 4161 2d3d
00000080: 31d5 0bbe abbe dfbc fd1c 5ebc 9698 e8bd
00000090: 0918 073d efca 11bd cc3d c5bd e7ca c03c
000000a0: fd74 473c 0267 0abe ced1 27bc adae 72bd
000000b0: 1bbe db3d 9a75 c7bd 20fc 863d ebf7 47bd
000000c0: 57a4 c03d bd83 b0bd 8479 04be cdaf a5bd
000000d0: 42a9 06be 89c9 bb3b 8099 b4bd c20f 91ba
000000e0: 6d20 25bd 646f c3bd 9731 b13d 5c68 c83a
000000f0: cccd 973d ef37 a33c b4cc 1e3d 8ab6 bd3d
00000100: 7ec8 dc3d c226 54bd e70d fe3d 589f 21bc
00000110: 0808 e63d 5bfc 03bd 74ed 78bd 3842 c83c
00000120: c361 1b3d 1765 93bd 5849 a4bd f4f1 2bbd
00000130: ba18 3b3d 9a23 f0bd 8810 153d c920 f2bd
00000140: 6c8b 273e 0dc1 c6bc ce2e d6bc 6e3b b739
00000150: ac57 1c3e 3873 b0bd 778c 933d 96dd 423d
00000160: 64e3 3abc 390d ff3c 96a1 36bc 0aae 813a
00000170: 281f 903d bf24 0a3e 053f 2f3d 874c 76bd
00000180: 9a9d 293d b20e ea3d 51dd 6ebc 5a43 6a3d
00000190: 46fd 2a3e bf04 7bbd 6e5c a3bd 07d1 d33d
000001a0: 4fb1 37ba 0fc8 7dbc f267 2dbd a121 bfbd
000001b0: 325a 83bd 3e3a ddbd 17a1 83bd 0878 923d
000001c0: 15ae c0bd bea8 ea3d 3fd9 123d 56c5 7e3c
000001d0: 4b4e 203e 5dc8 bd3d b4ac ae3d d234 f2bd
000001e0: d8fe 773d 2224 213e bd2c 9abc 5bae a03d
000001f0: 49a2 c83c 2179 55bd d842 083d a67e 253d
00000200: 249e c93d 751b 4fbd 922e c53d 22c5 ff3d
00000210: 945e 1b3c 914d cc3c 8dd9 44bd 09c5 b5bb
00000220: 14a9 72bd 8b6c 1d3d 1c03 453d 8976 12bc
00000230: 146a 3dbd e33a bd3b dff1 5d3d d764 d7bd
00000240: 85a3 94bd c540 f9bc b3d9 d9bd bcc1 aabd
00000250: 3f8c b23d e757 79bd bc0d 59bd a1c5 fabd
00000260: 22f6 333d 0c9e af3c c2bf c6bc c508 c6bd
00000270: c75f ccbd e186 613b 36af 40bd ab55 ce3c
00000280: f048 77bd a1a6 53bc bdaf dabc 1246 c2bd
00000290: 0a81 a0bd 2f8b cc3d 5b61 c53c ba45 63bd
000002a0: 291f 83bd bc1b e7bd 9918 643d 3512 073e
000002b0: 4af0 ebbd 7053 e3bd 7d28 a23d a550 d63d
000002c0: 8582 babc 906b f4bd e6f4 ebbd 149e d63d
000002d0: 0667 2c3d 9946 85bd 6cb0 f7bc e9ac 89bd
000002e0: ff51 7a3d 0c70 903d ac75 92bd 0d68 02bc
000002f0: f4fd de3c 79fe da3d 83ee 0b3d 016e 513d
00000300: f90a 8a3c 644a edbd c0cf da3d 0ca6 e5bd
00000310: fa0c bf3c 652d 02be 1238 cabd e700 11bc
00000320: 5f5a 083d a9fd aa3d 4727 a6bd aeaf 953c
00000330: cf6e b23d 93ba 413d 501f c73b 6fea f4bb
00000340: 632b 30bd b0d2 453c 77df 36bc a2dd cc3d
00000350: c41a 09bd 3788 a1bc 13c9 ac3d bdb2 d2bd
00000360: c7e0 1d3d 2a67 d7bd dc9f b2bd ef93 afbd
00000370: d078 903d 8bcb adbc 30b6 be3d 5b42 603d
00000380: 661a 56bd b8a1 19ba cfeb 2abd d2cb ccbd
00000390: 260a c03d 9125 09be e6ef f7bd a199 b23c
000003a0: 8b98 003d 31f6 81bd d6f8 3c3d a065 463d
000003b0: d084 b63c 4044 ad3d e26e 5abd a992 d9bc
000003c0: 41b4 b2bd d5c5 f1bc 4e6a 8bbd 5bc0 3ebd
000003d0: 1731 8dbd 69ef 95bd f185 0dbd aa80 82bb
000003e0: 09d1 05be 177a 553d 3d40 4cbd 5c7a 09be
000003f0: 3716 a7bd 7b34 a23d f4f0 fbbd 917d ebbd
0.08250909 0.086463414 0.0012086002 0.048326198 -0.09152604 -0.13013588 0.08980449 0.071186624
0.07018726 -0.03018989 0.0033432108 0.07866499 -0.110244095 -0.07246077 0.033722606 0.08466303
-0.10180147 0.101336256 -0.075363025 0.06691186 -0.059928365 0.05869347 0.07620323 -0.089834034
-0.07632059 0.08411214 0.09358751 -0.011789607 0.028847184 -0.015558563 0.003942789 0.042329077
-0.13655545 -0.027312597 -0.013556716 -0.113572285 0.032981906 -0.035593923 -0.096309274 0.023534251
0.012173888 -0.13515857 -0.010242892 -0.059248615 0.10729619 -0.097392276 0.06591058 -0.048820417
0.09406345 -0.08618877 -0.1293698 -0.08090172 -0.13150504 0.005730812 -0.0881834 -0.0011067318
-0.040314127 -0.095427305 0.08652037 0.001528989 0.074122995 0.019924132 0.03876944 0.09263332
0.10780428 -0.051794775 0.124049954 -0.009864651 0.112320006 -0.032223087 -0.060773328 0.024445638
0.03793503 -0.07197016 -0.08021802 -0.04197879 0.045677878 -0.117255405 0.03639272 -0.118226595
0.16361779 -0.024261976 -0.026145365 0.0003494876 0.15267819 -0.08615726 0.07204526 0.047574602
-0.011406753 0.031134235 -0.0111469235 0.0009893787 0.070371926 0.1349058 0.04278471 -0.060131576
0.041410066 0.11428584 -0.014579133 0.057193138 0.16698179 -0.061283823 -0.07976614 0.10342603
-0.0007007317 -0.015489592 -0.042335458 -0.09332586 -0.06413688 -0.108021244 -0.0642721 0.071518004
-0.094082035 0.11457966 0.035851713 0.015549978 0.15654866 0.09266732 0.08529034 -0.11826481
0.060545772 0.1573644 -0.018820161 0.07845756 0.024491446 -0.05211747 0.033266872 0.040403984
0.09844616 -0.050563294 0.09628023 0.12488772 0.009482998 0.02493933 -0.048059035 -0.00554717
-0.059243277 0.038433593 0.04809867 -0.008939394 -0.046243742 0.005774842 0.054185744 -0.105172805
-0.072577514 -0.030426392 -0.10637226 -0.08337733 0.08718156 -0.060874846 -0.052991614 -0.12244726
0.043935902 0.021437667 -0.02426136 -0.096696414 -0.099792056 0.003441267 -0.047042094 0.025187334
-0.060372293 -0.012918145 -0.026695127 -0.09486021 -0.07837112 0.09987485 0.024094274 -0.05548642
-0.06402428 -0.11284587 0.05568752 0.13190539 -0.11520441 -0.11099899 0.07917879 0.104646005
-0.022767315 -0.119345784 -0.1152132 0.1047937 0.04209044 -0.06507606 -0.030235492 -0.06722433
0.061113354 0.07052621 -0.071513504 -0.007959378 0.027220704 0.10693068 0.03416301 0.0511303
0.016850935 -0.115864545 0.106841564 -0.112133116 0.023321617 -0.12712629 -0.09873976 -0.008850313
0.03328931 0.08349163 -0.0811296 0.018272247 0.08712541 0.04729707 0.006076731 -0.0074742357
-0.043010127 0.012074158 -0.011161677 0.100032106 -0.03347279 -0.019718273 0.08436789 -0.10287998
0.038544443 -0.10517724 -0.08721897 -0.08573138 0.07054293 -0.02121522 0.09312093 0.05475078
-0.05227127 -0.0005860585 -0.04172879 -0.09999813 0.09376936 -0.13393237 -0.12106304 0.021801772
0.031395476 -0.063457854 0.046135746 0.04843676 0.022280127 0.08460283 -0.053328402 -0.02655919
-0.08725787 -0.029513279 -0.068073854 -0.046570163 -0.06894129 -0.073210545 -0.034551565 -0.003982623
-0.13068022 0.052118387 -0.04986595 -0.13425583 -0.08158534 0.07920166 -0.123018175 -0.11498559

placing_layer.1.bias f4 [5]
00000000: c417 0abc 4bc1 8f3d 459f 043e 5c03 8fbb
00000010: 2c78 9d3c
-0.008428518 0.070192896 0.12951382 -0.004364414 0.019222341

placing_layer.2.weight f4 [5, 64]
00000000: 5692 903d f24a 3dbd a209 f73b 0928 92bd
00000010: 36d9 043d c5ae 7abd ae64 ce3d 306e cabc
00000020: 5764 b4bd f56b 9cbd ed4f d93d 0f1f cbbc
00000030: 91de b63c e195 77bd 846d 8e3b e3c6 cd3d
00000040: 0c43 e8bb a6fc c33d 7cf6 cbbb 8885 dd3c
00000050: 538f c13d 09eb c03d 1ab4 b739 47ad 363d
00000060: 2cd2 213c 9912 293d 3c16 523d 78dc 9c3d
00000070: ef48 dbbc d64e 70bd a439 08be b267 eebd
00000080: 9f0e e03b 9a74 883d f1f4 823b 9450 b13d
00000090: dcdc 81bb 4742 1a3d de0b f1bc 1981 c83d
000000a0: d145 a5bb 112e 52bd 7798 c4bd 5cfa 6d3d
000000b0: 62b7 b93d add4 0abe 5979 00be 085f b03d
000000c0: c099 10be 2e98 10bb 8081 36bc 86fe 393d
000000d0: 329f 92bd 10fd fd3c cb0d d23d b97c 3c3b
000000e0: 2f7f edbb b060 0dbe de7d cfbb 17fb 973c
000000f0: 9f87 bf3c ef14 fe3c 427b a9bd a7c0 c3bd
00000100: f8c8 4d3b 3bcb 013d fb27 0bbc 6910 44bd
00000110: a212 0bbd 2d6f 1f3d 2a4b 643d bc12 de3d
00000120: 323d 203e e7f9 5f3d 81a4 a53d bdee 5abd
00000130: 5b08 febc 59b3 223e b77a 9a3d 88ce bf3d
00000140: b156 ad3d b6ca 5abc ef88 f63c a0b4 273e
00000150: 9d0b dd3b 437a f63d 6e3c 563c 6d45 40bd
00000160: e838 9a3c 1fb8 b9bc 69d8 c53c a7cd 363c
00000170: b17c a8bb 0752 2ebd c80a 8a3c c166 59bb
00000180: be1f 013c c3d3 c3bc d51f 013d a132 6b3c
00000190: e3dd ba3c 2a66 433d 5150 2ebd bbcd e83d
000001a0: e7ac 233d 82f3 95bb 0b39 d53d b492 233e
000001b0: 372c 963d 400b 6c3d 2bc1 a43c ac97 af3d
000001c0: fb86 f73d 54aa eb3d 4c0a 513d dd16 c7bc
000001d0: 7cb6 75bd d961 f83d 1c9c 003e df65 343e
000001e0: b883 df3d a8ad 56bd d62f 1c3d 12da 313e
000001f0: c4ab 773d 1833 1c3e f0cb 7cbd 5633 8c3a
00000200: 328e 6c3d 1233 98bd ee00 ea3c e8a0 05be
00000210: ac3e 933d e2e2 ca3b 69fa e13c 37b1 643d
00000220: 7414 2dbc 7f64 f2bd 65fb e03d 4504 8e3d
00000230: 90ab 1dbd 65fd 98bc e9d4 633c 287d 85bd
00000240: 8814 d9bc 4bd4 fdbd 2403 02bd 1e12 cabc
00000250: 661d f3bb 8bce 673d b299 8a3d 1b43 9e3d
00000260: 0ea5 08be ed7b 8c3d b848 bd3d f344 dcbd
00000270: 2dd5 853d 900a 42bd 04c1 64bd 7e43 8f3d
00000280: 7000 44bd f186 5b3c 348a 563d ee63 1bbd
00000290: 9433 c4bd 718a b536 110c 8d3c 1a0d cdbd
000002a0: bb59 383c 4405 2c3d 747b ac3c fc76 6c3d
000002b0: cf1b 933d 2af6 c63d ff97 873d 950f 88bd
000002c0: 17fa 45bd 02d0 2b3d 0ef6 a5bc 4df0 eabd
000002d0: e2f6 04be 9163 01bc 6282 f6bd ecb7 27bd
000002e0: 86e0 b93d 3427 c3bc 9cd8 d9bd 489b 00be
000002f0: 8953 9cbd f3ec af3d e4ab aebd 56df 3f3d
00000300: 4455 09be 4e24 e1bd b370 0f3d a870 32bd
00000310: 88da 933d be1f bdbd 3a84 e23d 748a 1d3c
00000320: b3be cfbd 2c5e 8bbc 68ab 4d3d 01fe c7bd
00000330: e4a0 73bd a3ae a03c 0598 19bd a7a9 e43c
00000340: faa0 f8bd ec00 493c 5f2b f5bc 4452 2bbb
00000350: b911 133d 0e23 fc3b 8999 a03d 3283 16bd
00000360: 06f7 0d3d afd6 d23c 55da cebd caa9 cd3d
00000370: 207d 27bd d10a 053d 4162 fd3c 41d2 2b3c
00000380: a463 febd 49a8 cabb 4314 513d 3880 c3bd
00000390: 8e0a 2c3d 90ff 04be 0e12 9a3d 9fa4 bf3d
000003a0: 8555 48bd 689a b7bc 161e bbbc ff6b a9bd
000003b0: 3e8e fcbd c586 8f3b 0c01 a03c b6a3 e3bc
000003c0: f099 343d ed2f 31bd 60e4 f5bd 04bd a53d
000003d0: 3a54 53bb 6c3e 933d 1e02 04be 81ce 123d
000003e0: 607e d63d 64cd 92bd 5701 6abd 0dd5 fabd
000003f0: 4b0e fe3a 74a4 233d 312f aabd df02 0ebe
0.07059161 -0.04621405 0.00753899 -0.07136542 0.03243371 -0.06120183 0.10077797 -0.024710745
-0.08808201 -0.07637779 0.10610948 -0.024795083 0.022322925 -0.06044567 0.0043465514 0.100477
-0.0070880707 0.09569673 -0.0062244516 0.027041212 0.09451165 0.094198294 0.00035038666 0.044598844
0.009876769 0.0412775 0.051290736 0.076592386 -0.026768176 -0.058668934 -0.13303238 -0.11640872
0.0068376805 0.06662865 0.0039964844 0.08657947 -0.003963096 0.037660863 -0.029424604 0.097902484
-0.005043723 -0.051313464 -0.09599393 0.05810009 0.090681806 -0.13557692 -0.1254629 0.08611876
-0.14121151 -0.0022063362 -0.011139274 0.045408748 -0.0715927 0.031004459 0.10256537 0.0028760864
-0.0072478275 -0.13806415 -0.006332143 0.018552346 0.023380099 0.031015841 -0.08275463 -0.0955823
0.0031400304 0.031687956 -0.008493419 -0.047867212 -0.033953317 0.038924385 0.055735745 0.10843417
0.15648344 0.054681685 0.08088017 -0.053450335 -0.031009844 0.15888728 0.07542937 0.093655646
0.08463801 -0.013353994 0.030094592 0.16377497 0.006745769 0.12035038 0.013075931 -0.04694121
0.018825963 -0.022670804 0.024151044 0.01115743 -0.0051418175 -0.042558696 0.016850844 -0.0033172818
0.007881103 -0.023904687 0.031524498 0.014355333 0.022810882 0.047704853 -0.042557064 0.11367365
0.039959814 -0.0045761475 0.10411271 0.15973932 0.07332652 0.057627916 0.02011164 0.08573851
0.12086292 0.11507097 0.05103521 -0.024302894 -0.059988484 0.12128038 0.12559551 0.17616986
0.10913795 -0.052411705 0.038131557 0.17368343 0.060466543 0.15253866 -0.061717927 0.0010696452
0.057752796 -0.07431616 0.028564896 -0.13049662 0.07189688 0.0061915973 0.027585225 0.055833068
-0.010563958 -0.11835574 0.1098545 0.06934408 -0.038493693 -0.018675515 0.013905742 -0.06518012
-0.026499048 -0.12394007 -0.031741276 -0.024666842 -0.007419276 0.05659346 0.06767596 0.07727643
-0.13344213 0.068595745 0.092423856 -0.107553385 0.06534801 -0.047373354 -0.055848137 0.06995295
-0.04785198 0.013398872 0.052377895 -0.037937097 -0.0958015 5.410337e-06 0.017217668 -0.100122645
0.011251862 0.04199721 0.02105496 0.05773066 0.071830384 0.09714921 0.06620788 -0.06643597
-0.048334207 0.04194642 -0.02025893 -0.11471615 -0.12984803 -0.007897274 -0.12036587 -0.040946886
0.090760276 -0.023822404 -0.10637018 -0.12559235 -0.076331206 0.08590116 -0.08528879 0.04684385
-0.13411433 -0.10993253 0.035019588 -0.04356447 0.07219416 -0.0923457 0.110603765 0.009615529
-0.10143795 -0.017012678 0.050212294 -0.09765244 -0.05947961 0.019614523 -0.037498493 0.027912928
-0.12140079 0.012268286 -0.029927908 -0.0026141563 0.035905574 0.0076946085 0.078417845 -0.03674621
0.034659408 0.025737135 -0.10100237 0.1004215 -0.040890813 0.03248102 0.03093064 0.01048714
-0.12421349 -0.006184612 0.051044714 -0.0954594 0.042002253 -0.12988114 0.07522975 0.09357571
-0.048909683 -0.022412494 -0.022841495 -0.08272552 -0.12331818 0.0043800795 0.01953175 -0.027788024
0.04409212 -0.043258596 -0.1200645 0.080926925 -0.0032246248 0.071896404 -0.12891433 0.03584147
0.10473323 -0.071680814 -0.057130184 -0.122476675 0.0019382922 0.039951757 -0.08309782 -0.13868283

placing_layer.2.bias f4 [5]
00000000: 4288 843d 324e e23d eb1a dfbc a881 733c
00000010: a2b6 bebd
0.064713016 0.11050071 -0.027234515 0.014862455 -0.09312178

placing_layer.3.weight f4 [5, 64]
00000000: 09ba dcbc 4c4a 4c3d 7ade 6b3d f8bf 0e3e
00000010: dd1a 3f3d 40bb fa3c 650c fb3d e839 c9bc
00000020: 65b7 51bd 0742 623d 1f34 23bd a6b5 093d
00000030: 7e4c a83d a1f6 4d3c 4d99 293e 23f7 f63c
00000040: 7e22 63bd e983 103d 7c85 b13d 3c1b 063e
00000050: 0268 a63d 34d0 bcbc eccb d13d deaf 743c
00000060: 844e 2c3b ab99 0cbc 18ed 0dbd ef51 95bc
00000070: 61d7 f83d c095 4a3d f0d4 213e 8a8d a23d
00000080: ada0 4fbd 4ee3 e3bc ed7e 803d b2b3 dabc
00000090: 516f 0fbd 98bc 9b3d 4526 ecbc 5e30 763d
000000a0: f388 1d3e 57d6 85bc 1a70 a73b 8010 fa3d
000000b0: 0583 a73d 6916 08bd 255c 143e 43e3 ae3c
000000c0: 1d2e 013d 1e70 a03a 1b73 223e 5c20 0f3e
000000d0: 91d7 10bd 484b 743d f617 f6bb 9bff cb3d
000000e0: e944 193d d77d dc3c 14b9 34bd e5bd 30bc
000000f0: 5fb3 50bd 956e bc3d 22a0 1c3d 7c87 a73d
00000100: 7f4f 02bd 600a a53b 08ea 8fbd 0f18 28bd
00000110: 9fbc 023e 8e9e 143e 0303 41bd 9eab c63d
00000120: b0c0 e13d a74c debc b40a 813d 6053 bd3d
00000130: 1404 bd3c 8484 cbbd 8988 b1bd e24a 913d
00000140: c2da 093e dc53 a3bc d49a 44bd 5ff6 b83d
00000150: 862f af3d b99d 75bd 917a ce3d e60d 18bd
00000160: 375b a0bd 8cd3 d63d 7641 803d 6fef 31bd
00000170: b4ea 2ebd b9fa c13c 80fb 053d 806d efbd
00000180: 008c c6b9 3a07 b73d 8230 d7bd c8b1 aa3c
00000190: c85c fb3d 7b5e 033e 7641 f73d 80e8 14bc
000001a0: 94fd 41bd 11d1 723d 1b24 5dbc 0c35 bfbd
000001b0: 694a 023c 149a cebd 142b 9abd cb73 93bc
000001c0: 40fe 84bd 54d5 5dbd a69e 9a3d 14a4 c33d
000001d0: 1e29 22bd a285 7fbd 1889 ef3c 0f16 bebd
000001e0: 36c1 6bbd 3160 003e f21e 92bc 7644 d0bd
000001f0: da66 013e 250f 833b fb77 59bd 1a8a fabc
00000200: c50a 16bd 2e18 b63d 3fa7 cebc 9f2c 403c
00000210: 251b 953d ba1f 163d 847b 0bbd 5874 58bc
00000220: 4a10 dbbc 49e5 15bd b9bd 293e e890 d03d
00000230: 7b98 a53d 1a22 efba 87b0 dc3d c585 3ebd
00000240: 681b f43d 70a3 f33d 5c49 083e 14e4 d7bb
00000250: 78c2 64bd 672f 953d 2f88 e3bc aecf 4dba
00000260: a8d5 f13c 2b8a 68bd 82a5 9b3d 6f2b 113e
00000270: f9ed 0c3e 87cc 6abc a3b6 023e 95c9 9a3c
00000280: 234d 3e3d c116 b03d a3a9 54bc fea9 b7bc
00000290: 5884 ed3d 4448 15bd f119 a2bc c0a3 eb3b
000002a0: 6c02 74bd 7618 213e 23ab 1e3e 393c 943d
000002b0: c045 cb3d 5058 79bd 47d6 c93d 0347 ff3d
000002c0: 839a 86bc ae92 58bd 6be2 373c 5b4d 2a3e
000002d0: edcb 333e 9d71 6c3d 40ea 2c3d d730 2e3c
000002e0: 3e01 603d f3ad 893c be4b 013e 7bda 96bd
000002f0: 4e9d 153d 0f37 a43d 9118 023e 9a04 d03d
00000300: 2bbf ffbc 9543 ac3c 976a 84bd 79e5 f4bd
00000310: 5d29 ab3d a6c4 eb3d 6099 e03d b27c eabd
00000320: aab8 703b 5ef0 483d 9bf6 8d3d 5c0d 623d
00000330: fdf9 3dbd 0d73 81bd d5df 6a3d 34c4 983c
00000340: bd97 e33d 87b0 20bc e327 20bd dab8 433c
00000350: 79f5 853d f9d7 983d ed0f 333d 136e e63d
00000360: eed8 d6bd 4c94 67bc 77f8 98bd b76b b03b
00000370: ab12 21bc ba21 de3b 4862 333d f091 1e3d
00000380: c78b b3bb 7f2b ffbc ab03 113d 0e57 f83b
00000390: 3ec7 4d3d 7cea ebbc b370 fabc 7391 9dbd
000003a0: 81f4 b2bd 1e21 013d 299c babd b0a0 8abc
000003b0: ad17 efbc a996 17bd b7c3 da3c b3c2 7bbd
000003c0: fce3 1fbd 5131 d8bb d2fd 06be a1f1 3a3d
000003d0: a57f 37bc 6ed6 a5bd 8fef 2dbd d370 d4bd
000003e0: d248 16bd 1d31 c6bc 69f7 d9bd b143 333d
000003f0: 16e7 9abc deb2 01bb 798a 52bd de50 a9bd
-0.026944177 0.049875543 0.057585217 0.13940418 0.04665648 0.030606866 0.122582234 -0.024563745
-0.05120029 0.05523875 -0.03984463 0.0336205 0.08217715 0.012571008 0.16562386 0.03014714
-0.055452816 0.03528205 0.08668038 0.13096327 0.08125307 -0.023048498 0.10243973 0.014934508
0.0026291916 -0.008581559 -0.03464994 -0.018227546 0.12150455 0.04945922 0.15803885 0.07937153
-0.05069034 -0.027818348 0.06274209 -0.026697014 -0.03501827 0.07604331 -0.028826842 0.06010472
0.15384273 -0.016337557 0.005109799 0.122101784 0.08179287 -0.033224497 0.14488275 0.021348601
0.031538118 0.0012240445 0.15864222 0.13977188 -0.03536183 0.059642106 -0.0075101806 0.09960862
0.037419233 0.026915474 -0.044121817 -0.010787462 -0.05095231 0.09200779 0.038238652 0.081801385
-0.031814095 0.005036637 -0.0702706 -0.04103857 0.12767266 0.14513609 -0.047122013 0.09700702
0.1102308 -0.02713616 0.063008696 0.09244418 0.023073234 -0.09937385 -0.0866862 0.07094361
0.13462356 -0.019937448 -0.047999218 0.090313666 0.08553986 -0.05996487 0.100819714 -0.03712263
-0.07829898 0.10489568 0.06262486 -0.043441232 -0.0427043 0.023679124 0.032710552 -0.11690807
-0.0003786981 0.08936925 -0.10507299 0.020836726 0.12273556 0.1282901 0.120730326 -0.009088635
-0.04736097 0.059281413 -0.013497378 -0.0933629 0.007952311 -0.10087982 -0.07527748 -0.01799955
-0.06493807 -0.054158524 0.07549791 0.0955278 -0.039589994 -0.0623833 0.029240176 -0.09281551
-0.057557307 0.12536694 -0.017837021 -0.10169308 0.12636891 0.003999608 -0.053092938 -0.03058343
-0.036631364 0.08891331 -0.025226234 0.0117293885 0.07280568 0.03665135 -0.03405334 -0.013211332
-0.026741166 -0.036595616 0.1657628 0.10183889 0.08085724 -0.0018244416 0.107758574 -0.04651429
0.1191929 0.118964076 0.13309234 -0.0065884683 -0.055849522 0.07284432 -0.027774898 -0.0007851076
0.029520825 -0.056772392 0.075999275 0.14176725 0.13762654 -0.01433099 0.12764983 0.01889495
0.046460282 0.0859809 -0.012979898 -0.022419926 0.11597508 -0.03644587 -0.01978776 0.0071911514
-0.059572622 0.15731987 0.15494971 0.07238049 0.09925413 -0.060875237 0.09855323 0.12464716
-0.016431099 -0.05287426 0.011223416 0.16631071 0.1755826 0.057725538 0.042215586 0.0106317615
0.054688685 0.016806578 0.1262655 -0.073658906 0.03652697 0.08018314 0.12704684 0.10157128
-0.031219086 0.02102832 -0.06465643 -0.11957831 0.08357499 0.11512117 0.10966754 -0.11449565
0.0036731162 0.049057357 0.06931802 0.05518852 -0.046380986 -0.06320772 0.05734237 0.018648244
0.11112926 -0.009807712 -0.03910054 0.0119459275 0.06540961 0.074630685 0.04371636 0.11251464
-0.10490595 -0.014134478 -0.07469266 0.0053839344 -0.009831111 0.006778923 0.0437949 0.038713396
-0.0054793092 -0.03114867 0.03540389 0.007578737 0.05023884 -0.028798334 -0.030571317 -0.07693758
-0.08738042 0.031525724 -0.091118164 -0.016922325 -0.029186094 -0.037008915 0.026704652 -0.061464977
-0.039035782 -0.006597676 -0.13182762 0.04564059 -0.011199866 -0.0809754 -0.04246479 -0.10373082
-0.03669054 -0.02419334 -0.10642893 0.043765727 -0.018909018 -0.001979045 -0.05140159 -0.08267377

placing_layer.3.bias f4 [5]
00000000: 84a5 203e da6e ddbc 2841 65bd 9a19 1e3d
00000010: caf0 7bbc
0.15688139 -0.027030397 -0.05597034 0.038598634 -0.015377233
