extra_baseline/log_res/temp/2exp_2/imitation_learning_env-20250108-201810/bc_ddpg_actor.pth (torch, 225849 bytes, 88 tensors)

fc.0.weight f4 [64, 500]
-0.0003348208 0.023990488 -0.036807697 -0.032912195 -0.017224628 0.011992362 -0.0008860724 0.035459097
-0.0039687543 0.0118338335 -0.01351538 -0.008790672 -0.042724486 -0.029618157 -0.018435178 0.0016566389
0.017679928 0.026833836 -0.030318448 -0.019474491 0.016243564 0.037136078 -0.009203664 0.03346552
-0.007208339 0.0047321506 0.04049413 -0.04148668 -0.028153794 -0.011321895 -0.017432384 0.038639292
-0.028987477 -0.020586712 -0.031244153 -0.04188428 -0.026105668 0.038442396 0.019955494 0.021675216
0.0023519662 -0.022927905 0.0075661694 -0.041756097 -0.032314148 -0.023055203 0.028216403 0.026221083
-0.019833703 -0.0016136535 0.028602025 0.044458985 0.017749112 0.0060415366 0.02998506 -0.026332041
0.008333558 -0.03467272 -0.030995756 -0.02310232 0.02023521 0.017985161 -0.026490811 0.013510641
0.024550775 -0.0056446125 0.0017075306 0.01036215 0.027744085 0.042941187 -0.034463335 -0.016389025
0.017575938 0.037053857 0.038916856 0.039460197 0.008900201 -0.03888892 0.00411403 -0.027977923
-0.041678257 0.03973459 0.034004323 -0.04461081 0.008370589 -0.007533761 -0.0073593985 -0.020471511
0.017197875 -0.026488619 0.016394464 0.022615954 0.03201475 0.016721815 -0.04426231 -0.029010609
0.022330048 0.009360242 -0.03488642 -0.025751432 0.04207159 0.030134052 -0.019499637 -0.011255686
-0.042601485 -0.00080382795 -0.03367782 -0.03449612 -0.0024641294 0.0067146914 -0.01831475 0.026536653
-0.027214697 0.040578827 0.030647542 -0.03771276 -0.011130446 0.002017945 0.006524895 0.010606756
0.017549926 0.002678817 -0.021820838 0.021161657 -0.042898916 -0.02650665 -0.0111950915 -0.021784373
-0.015645025 -0.0366546 -0.009512911 0.009559479 -0.029134436 -0.0022950717 0.032013822 -0.0045973673
0.0012429057 -0.0038580627 0.009050771 0.028435607 0.04236214 0.028400565 0.042459067 -0.0032343229
-0.04017416 -0.02120138 0.030451009 -0.0002899054 -0.02222859 -0.034270506 -0.04185258 -0.037745196
-0.009071136 0.024525464 0.024178205 -0.043130707 0.027896382 -0.03499489 -0.009454556 -0.018133288
-0.008614017 -0.008780713 -0.040130712 -0.038614117 -0.006997975 0.00057834474 -0.020315792 0.016846502
-0.040251836 -0.0030181212 0.039328836 -0.018241486 0.04038353 0.016196009 -0.04035928 0.028295087
-0.005160598 -0.019963922 0.035761584 -0.03613912 0.0047988226 -0.009363254 0.03193609 0.012483723
0.021488853 0.015793748 -0.010754356 -0.009405146 -0.036854044 0.024232008 0.03550778 0.030599466
-0.03154548 0.001994568 -0.031525612 -0.024618402 -0.026059384 0.015283302 -0.026650049 -0.0009756952
0.0018813438 0.02882842 -0.033805773 -0.030701762 -0.025967974 0.031301975 -0.016075764 0.03772196
0.016171582 0.005662888 -0.0003329069 -0.008840588 0.0056110257 -0.010211885 -0.0003142317 0.0057061343
-0.034981277 -0.023439871 0.036112174 -0.036293473 -0.0032112708 0.044240102 0.016155012 0.0012661978
-0.038755976 0.022153974 -0.031854164 -0.012694797 -0.015004748 -0.0066226693 0.0004891751 0.036886517
0.005582962 0.0400566 0.027356613 -0.028273469 0.020057714 -0.031613354 -0.018954037 0.013153567
0.01476664 0.03355122 -0.014396516 7.159271e-05 0.023023611 -0.043249678 0.032332677 -0.036981095
0.0006163722 -0.0076033813 -0.023553532 0.0059108688 0.03698093 -0.0130729275 -0.026550807 -0.016539697
00000000: e38a afb9 b387 c43c abc3 16bd f0ce 06bd
00000010: aa1a 8dbc 9d7b 443c 5047 68ba 8f3d 113d
00000020: 530c 82bb b2e2 413c 9d6f 5dbc c006 10bc
00000030: dfff 2ebd c7a1 f2bc 5f05 97bc 9423 d93a
00000040: 7fd5 903c a2d2 db3c 655e f8bc f888 9fbc
00000050: 3911 853c 001c 183d f7ca 16bc 2413 093d
00000060: ee33 ecbb 2810 9b3b 2cdd 253d f0ed 29bd
00000070: c9a2 e6bc 787f 39bc 5cce 8ebc 3c44 1e3d
00000080: 2577 edbc 77a5 a8bc bdf3 ffbc da8e 2bbd
00000090: 8edb d5bc c675 1d3d b479 a33c 3990 b13c
000000a0: 7223 1a3b 4dd3 bbbc a1ed f73b 7108 2bbd
000000b0: d75b 04bd 44de bcbc 1626 e73c 99cd d63c
000000c0: 4a7a a2bc 3a81 d3ba cb4e ea3c a01a 363d
000000d0: 9666 913c 15f8 c53b 3ba3 f53c 4bb6 d7bc
000000e0: 7a89 083c fb04 0ebd d0ea fdbc 1441 bdbc
000000f0: 50c4 a53c 9e55 933c 4203 d9bc bc5b 5d3c
00000100: b51e c93c 71f6 b8bb 38cf df3a 02c6 293c
00000110: 9047 e33c 19e3 2f3d 6d29 0dbd 4742 86bc
00000120: 6afb 8f3c c9c5 173d 4867 1f3d 04a1 213d
00000130: 26d2 113c fd49 1fbd fcce 863b f531 e5bc
00000140: d2b6 2abd bdc0 223d 1e48 0b3d d3b9 36bd
00000150: cc24 093c c5dd f6bb 1c27 f1bb dfb3 a7bc
00000160: 8fe2 8c3c a9fe d8bc af4d 863c 1845 b93c
00000170: e621 033d 30fc 883c 654c 35bd a8a7 edbc
00000180: 81ed b63c b35b 193c 10e5 0ebd abf4 d2bc
00000190: 4253 2c3d b0db f63c b4bd 9fbc c569 38bc
000001a0: e57e 2ebd fbb7 52ba c1f1 09bd ce4b 0dbd
000001b0: 3b7d 21bb ea06 dc3b d108 96bc 6563 d93c
000001c0: 5bf1 debc fc35 263d 8e10 fb3c b278 1abd
000001d0: 795c 36bc 803f 043b c9ce d53b f6c7 2d3c
000001e0: ddc4 8f3c 178f 2f3b 9dc1 b2bc 365b ad3c
000001f0: c6b6 2fbd 7924 d9bc 9e6b 37bc 2475 b2bc
00000200: ff29 80bc 2223 16bd 0adc 1bbc 5c9f 1c3c
00000210: 57ab eebc ea68 16bb ed20 033d 83a5 96bb
00000220: ffe8 a23a 8dd7 7cbb af49 143c caf1 e83c
00000230: ec83 2d3d 4da8 e83c 8fe9 2d3d eff6 53bb
00000240: a98d 24bd 84ae adbc 6574 f93c 72fe 97b9
00000250: bb18 b6bc 3b5f 0cbd 9c6d 2bbd b59a 1abd
00000260: 1a9f 14bc a0e9 c83c 5f11 c63c d3a9 30bd
00000270: f486 e43c cd56 0fbd 48e7 1abc 438c 94bc
00000280: ce21 0dbc fbdc 0fbc 1a60 24bd d629 1ebd
00000290: 454f e5bb 0f9c 173a 4e6d a6bc ad01 8a3c
000002a0: 1cdf 24bd accb 45bb 4617 213d 2b6f 95bc
000002b0: 3369 253d 7ead 843c c64f 25bd 19cb e73c
000002c0: 3c1a a9bb 618b a3bc bd7a 123d 9d06 14bd
000002d0: 713f 9d3b 5568 19bc 6bcf 023d 8888 4c3c
000002e0: 6409 b03c e461 813c 0a33 30bc 0b18 1abc
000002f0: 44f4 16bd 3482 c63c 9b70 113d bbab fa3c
00000300: d535 01bd 4cb7 023b 0021 01bd 88ac c9bc
00000310: 7d7a d5bc d166 7a3c 3451 dabc ccc5 7fba
00000320: 6c97 f63a 9429 ec3c ec77 0abd 4382 fbbc
00000330: caba d4bc 8036 003d 52b1 83bc 5882 1a3d
00000340: 447a 843c bf8f b93b 028a aeb9 1dd8 10bc
00000350: b2dc b73b c04f 27bc 77bf a4b9 86fa ba3b
00000360: 8748 0fbd f904 c0bc 5cea 133d 77a8 14bd
00000370: 2f74 52bb 1c35 353d 8457 843c 8cf6 a53a
00000380: 96be 1ebd 407c b53c 8379 02bd d6fd 4fbc
00000390: 79d6 75bc fa02 d9bb fc3b 003a 5116 173d
000003a0: 48f1 b63b 6412 243d fa1a e03c c39d e7bc
000003b0: 1350 a43c 017d 01bd 7f45 9bbc 0f82 573c
000003c0: c7ef 713c 016d 093d 5ddf 6bbc 0b24 9638
000003d0: 039c bc3c 9326 31bd 456f 043d 7d79 17bd
000003e0: 0a94 213a c925 f9bb 56f3 c0bc f6af c13b
000003f0: 5179 173d d52f 56bc 1481 d9bc 427e 87bc

fc.0.bias f4 [64]
-0.021683587 0.044606943 -0.03859664 -0.030641241 0.0011704813 0.00588658 -0.0076822103 -0.012880867
-0.025205733 0.03411067 0.042404987 -0.01938062 0.00076974556 -0.04060204 0.038835287 -0.02445032
-0.022160772 -0.02293554 0.011479202 0.0154625485 -0.03801405 -0.01062686 0.024038725 0.006942358
-0.03974949 0.023612114 0.03629915 -0.002731084 0.044493094 0.031915557 -0.035707578 -0.019013042
0.041304063 -0.0136756785 0.0388306 -0.032121014 0.037807688 0.012318978 -0.037240665 -0.04101139
-0.03358941 0.040174674 0.012330617 0.014050488 -0.013542798 -0.041994117 0.036342476 -0.022081275
-0.0061570634 -0.0037355465 0.03745336 0.017367627 -0.0041477447 0.038159132 0.03753101 -0.0048224516
0.03727274 -0.021849567 -0.039259214 0.03842141 -0.001606515 -0.005399429 -0.029170811 -0.01908844
00000000: c7a1 b1bc c5b5 363d 8317 1ebd 5703 fbbc
00000010: d66a 993a 36e4 c03b 0dbb fbbb 460a 53bc
00000020: 417c cebc a1b7 0b3d dab0 2d3d 1bc4 9ebc
00000030: c0c8 493a 534e 26bd c011 1f3d 0a4c c8bc
00000040: 828a b5bc 50e3 bbbc 4313 3c3c a156 7d3c
00000050: 9fb4 1bbd 481c 2ebc dcec c43c b87c e33b
00000060: 5cd0 22bd 316e c13c 6bae 143d fcfb 32bb
00000070: 643e 363d e3b9 023d 1c42 12bd 3dc1 9bbc
00000080: 732e 293d f40f 60bc d60c 1f3d 5391 03bd
00000090: 3cdc 1a3d 8ad5 493c ab89 18bd 8ffb 27bd
000000a0: 0d95 09bd 338e 243d 5b06 4a3c 0534 663c
000000b0: 9de2 5dbc 0602 2cbd d9db 143d cae3 b4bc
000000c0: 31c1 c9bb 12d0 74bb b268 193d 8e46 8e3c
000000d0: cee9 87bb c04c 1c3d 1eba 193d a805 9ebb
000000e0: 4dab 183d ddfd b2bc 45ce 20bd c55f 1d3d
000000f0: b391 d2ba b1ed b0bb a0f7 eebc 5c5f 9cbc

fc.2.weight f4 [64]
1.0 1.0 1.0 1.0127007 1.0 1.0 1.0142331 0.9935934
1.0110563 1.0 1.0095946 1.0 1.0 1.0125686 1.0112305 1.012271
1.0113287 1.0 1.0 1.0 1.0128149 1.0144714 1.0151439 1.0110317
1.0 1.0077574 1.0 1.0 1.0124145 1.0152681 1.0159014 1.016836
1.0154212 0.9969619 1.0 1.0095503 1.0073597 1.0 1.0 1.0157771
1.0 1.0 1.0 1.0 1.0 1.0092034 1.0 1.0107812
1.0 1.0 1.0 1.0113183 1.0148487 1.0 1.0 1.0106663
1.0 1.0 1.0149807 1.0 1.0083934 1.0137248 1.0 1.0145042
00000000: 0000 803f 0000 803f 0000 803f 2da0 813f
00000010: 0000 803f 0000 803f 64d2 813f 235c 7e3f
00000020: 4b6a 813f 0000 803f 653a 813f 0000 803f
00000030: 0000 803f d99b 813f 0070 813f 1992 813f
00000040: 3873 813f 0000 803f 0000 803f 0000 803f
00000050: eba3 813f 33da 813f 3cf0 813f 7d69 813f
00000060: 0000 803f 32fe 803f 0000 803f 0000 803f
00000070: cc96 813f 4ef4 813f 0f09 823f af27 823f
00000080: 52f9 813f e538 7f3f 0000 803f f238 813f
00000090: 2af1 803f 0000 803f 0000 803f fc04 823f
000000a0: 0000 803f 0000 803f 0000 803f 0000 803f
000000b0: 0000 803f 942d 813f 0000 803f 4761 813f
000000c0: 0000 803f 0000 803f 0000 803f e172 813f
000000d0: 90e6 813f 0000 803f 0000 803f 835d 813f
000000e0: 0000 803f 0000 803f e3ea 813f 0000 803f
000000f0: 0913 813f bcc1 813f 0000 803f 46db 813f

fc.2.bias f4 [64]
-0.013650879 0.015841732 -0.017467514 -0.011084219 0.01721225 -0.011956118 -0.015672425 -0.012594353
-0.017352859 0.013132351 -0.0041271634 0.0045020427 0.017515847 -0.0075043654 0.013861383 0.01206097
0.0043356963 0.015583189 -0.0126545625 0.012288844 0.0088006165 0.008549753 -0.015416327 -0.0013928572
0.0109524075 0.008775985 -0.013584386 -0.0104781985 0.00636999 -0.006638869 -0.013492441 0.015314935
-0.0151031865 -0.015402434 -0.013354525 0.0101751 0.0075448835 0.0066169067 -0.011350517 -0.0046180068
-0.0014856051 0.00840837 -0.018283254 0.012268011 -0.0156277 -0.013942048 0.014859835 -0.004259651
-0.016062435 0.009175174 -0.010188206 -0.009780387 -0.014713089 0.014749509 -0.0149688935 -0.006254984
0.0052956734 0.0054277102 0.0012590252 0.016648231 0.0023143468 0.016698983 -0.015601977 -0.005799511
00000000: f0a7 5fbc 85c6 813c 0818 8fbc 969a 35bc
00000010: b400 8d3c 98e3 43bc 7563 80bc 8c58 4ebc
00000020: 9527 8ebc 1329 573c 283d 87bb df85 933b
00000030: 657d 8f3c 2ee7 f5bb db1a 633c 609b 453c
00000040: 7512 8e3b a250 7f3c 1555 4fbc 2657 493c
00000050: 7630 103c 4314 0c3c c394 7cbc 8890 b6ba
00000060: ba71 333c 26c9 0f3c 0b91 5ebc c0ac 2bbc
00000070: 59bb d03b df8a d9bb 660f 5dbc 7eeb 7a3c
00000080: 5b73 77bc 7e5a 7cbc f0cc 5abc 76b5 263c
00000090: 123b f73b a3d2 d83b 85f7 39bc a652 97bb
000000a0: a3b8 c2ba 43c3 093c c3c6 95bc c5ff 483c
000000b0: aa05 80bc 306d 64bc aa76 733c 8b94 8bbb
000000c0: 5e95 83bc 7853 163c 6fec 26bc eb3d 20bc
000000d0: 2b0f 71bc eda7 713c 1740 75bc 9cf6 ccbb
000000e0: 5487 ad3b efda b13b e005 a53a df61 883c
000000f0: 4cac 173b 4ecc 883c 6f9f 7fbc d309 bebb

fc.2.running_mean f4 [64]
0.0 0.0 0.0 32743.588 0.0 0.0 10638.741 15378.791
23066.271 0.0 21018.055 0.0 0.0 17618.51 709.1156 13348.7
33826.188 0.0 0.0 0.0 6345.506 1583.8403 23580.402 7573.3535
0.0 3172.5693 2.9135403e-08 0.0 30342.354 27430.928 24815.387 19899.963
2766.6252 13319.068 0.0 19224.242 48230.914 0.0 0.0 769.8342
0.0 0.0 0.0 0.0 0.0 33492.8 0.0 26057.154
0.0 0.0 2.5609292e-08 7234.184 20552.393 0.0 0.0 28521.756
0.0 0.0 31789.473 0.0 11217.012 6721.915 0.0 14412.779
00000000: 0000 0000 0000 0000 0000 0000 2dcf ff46
00000010: 0000 0000 0000 0000 f73a 2646 2a4b 7046
00000020: 8b34 b446 0000 0000 1c34 a446 0000 0000
00000030: 0000 0000 05a5 8946 6647 3144 cd92 5046
00000040: 3022 0447 0000 0000 0000 0000 0000 0000
00000050: 0c4c c645 e4fa c544 ce38 b846 d4aa ec45
00000060: 0000 0000 1c49 4645 6e45 fa32 0000 0000
00000070: b50c ed46 db4d d646 c6de c146 ed77 9b46
00000080: 01ea 2c45 461c 5046 0000 0000 7c30 9646
00000090: ea66 3c47 0000 0000 0000 0000 6475 4044
000000a0: 0000 0000 0000 0000 0000 0000 0000 0000
000000b0: 0000 0000 cdd4 0247 0000 0000 4f92 cb46
000000c0: 0000 0000 0000 0000 6efb db32 7911 e245
000000d0: c990 a046 0000 0000 0000 0000 83d3 de46
000000e0: 0000 0000 0000 0000 f25a f846 0000 0000
000000f0: 0c44 2f46 520f d245 0000 0000 1e33 6146

fc.2.running_var f4 [64]
1.3073125e-10 1.3073125e-10 1.3073125e-10 81897.18 1.3073125e-10 1.3073125e-10 97119.07 111200.79
72248.31 1.3073125e-10 258761.72 1.3073125e-10 1.3073125e-10 123796.08 70074.76 6434.4185
91284.05 1.3073125e-10 1.3073125e-10 1.3073125e-10 150079.92 89759.38 143798.67 39378.58
1.3073125e-10 101814.04 1.3073125e-10 1.3073125e-10 272356.1 100798.625 176886.22 225573.22
247032.34 285218.66 1.3073125e-10 87561.85 9810.078 1.3073125e-10 1.3073125e-10 144054.88
1.3073125e-10 1.3073125e-10 1.3073125e-10 1.3073125e-10 1.3073125e-10 97148.32 1.3073125e-10 204285.22
1.3073125e-10 1.3073125e-10 1.3073125e-10 160046.38 604603.06 1.3073125e-10 1.3073125e-10 197503.02
1.3073125e-10 1.3073125e-10 88981.95 1.3073125e-10 42553.074 142567.78 1.3073125e-10 121444.49
00000000: 93bd 0f2f 93bd 0f2f 93bd 0f2f 97f4 9f47
00000010: 93bd 0f2f 93bd 0f2f 89af bd47 6530 d947
00000020: 281c 8d47 93bd 0f2f 6eb2 7c48 93bd 0f2f
00000030: 93bd 0f2f 0aca f147 61dd 8847 5913 c945
00000040: 064a b247 93bd 0f2f 93bd 0f2f 93bd 0f2f
00000050: fb8f 1248 b14f af47 ab6d 0c48 94d2 1947
00000060: 93bd 0f2f 05db c647 93bd 0f2f 93bd 0f2f
00000070: 83fc 8448 50df c447 8ebd 2c48 4e49 5c48
00000080: 163e 7148 5544 8b48 93bd 0f2f ed04 ab47
00000090: 5048 1946 93bd 0f2f 93bd 0f2f b8ad 0c48
000000a0: 93bd 0f2f 93bd 0f2f 93bd 0f2f 93bd 0f2f
000000b0: 93bd 0f2f 29be bd47 93bd 0f2f 4e7f 4748
000000c0: 93bd 0f2f 93bd 0f2f 93bd 0f2f 984b 1c48
000000d0: b19b 1349 93bd 0f2f 93bd 0f2f c1df 4048
000000e0: 93bd 0f2f 93bd 0f2f faca ad47 93bd 0f2f
000000f0: 1339 2647 f239 0b48 93bd 0f2f 3f32 ed47

fc.3.weight f4 [64, 64]
-0.053433437 -0.009655711 -0.09379745 0.06846907 0.015242976 -0.0019909097 -0.074376635 -0.11994315
-0.04736422 0.06278207 0.10331871 0.05895246 -0.06771128 -0.051451247 0.015720459 -0.118085265
0.065288745 0.08013193 0.062109694 0.10540856 -0.107326806 -0.03959069 0.037952177 -0.037827875
-0.02183135 0.09768559 -0.09639884 0.054278918 0.020986542 0.04018633 -0.11842949 0.07548342
0.10805949 -0.091927044 -0.06825826 0.041576017 0.042693913 0.06258125 0.022021258 -0.045918003
0.06501507 0.015128625 -0.06547725 -0.09336291 -0.0879103 0.034020472 0.0062512453 -0.008681607
0.07793956 0.041037165 0.052226163 -0.09726136 0.026926775 0.0103450045 0.01797735 0.12375315
0.08045437 -0.019412773 -0.10783498 0.11178166 -0.06235015 0.11821939 -0.0096120555 -0.025754327
-0.0012510538 0.049356878 -0.09982475 0.08426363 0.058551703 0.07793706 -0.02215025 0.016521977
-0.12016579 -0.070689455 -0.06468241 0.011932674 0.14144261 -0.0097260615 0.12633753 -0.111144245
0.01167321 0.04155459 -0.085822605 0.06450958 0.026707388 -0.0134756705 -0.056833204 0.08547343
-0.10275621 0.0783736 0.06900531 -0.04206015 0.0751385 -0.04546888 -0.107486576 0.067116
-0.08605813 0.07989278 0.053937156 -0.001651755 -0.021259652 -0.05119951 -0.013205102 0.032547805
-0.070165806 -0.026615381 0.033001892 0.015421626 0.10242525 -0.058585398 0.028296268 -0.069774285
-0.08465259 -0.10613979 -0.06068944 0.04438478 0.09334247 -0.0075769965 0.02951806 0.024692392
-0.0057683303 -0.018703068 -0.049147177 -0.006608822 -0.036130182 0.045046795 -0.0484649 -0.1257835
0.06569655 0.13053398 0.09124012 -0.0032963215 0.073415086 -0.11906128 0.089887835 -0.11014108
-0.095328875 -0.04074449 0.033855893 0.027916748 0.04176533 0.0518367 0.10000768 -0.04377612
-0.10792561 0.12627643 -0.13298394 0.0338835 -0.0802781 -0.072757855 -0.12137174 0.1177632
-0.10500638 0.11498203 -0.09737698 -0.08196586 0.12809026 -0.006913119 -0.03255102 -0.014380517
-0.11323322 0.012972934 -0.054957546 0.07557524 0.10514001 -0.036323484 0.09981132 0.018947367
0.005847241 -0.10020486 -0.0012474732 0.016229715 -0.1000374 -0.034243412 -0.036066286 -0.09735259
-0.06380492 0.011871351 -0.118200846 -0.09378098 -0.051145185 -0.0913619 0.019284623 -0.06975364
0.0056327824 -0.041433826 0.000561896 0.092537634 -0.035890713 0.13562816 -0.13145764 -0.115859695
-0.0033288095 -0.011617534 -0.101543404 -0.10371397 -0.0054810373 0.09364474 0.027431134 -0.08654352
0.1089127 -0.046857297 0.021381566 -0.048581943 -0.003993329 -0.01073274 -0.10550035 -0.012767214
0.050703626 -0.05571034 -0.0020442244 0.12296665 -0.09416188 -0.08457094 -0.062249202 0.031181544
0.0045978623 0.02093921 -0.10083687 0.055797882 -0.09877594 0.01713439 -0.02232989 -0.092978664
0.09491741 0.05796645 0.10487773 -0.12600958 0.07661852 0.043408096 -0.07382504 0.09646103
0.11622283 -0.059637565 -0.061985146 0.02841276 0.052183736 0.12304211 0.05559177 0.13008527
-0.012107538 0.10915583 -0.08700743 0.0024987068 0.06277916 0.059381947 -0.10763021 0.010702669
0.0728122 0.07867044 -0.103874564 -0.04124687 -0.07909098 -0.09132522 -0.050173327 -0.109002575
00000000: 05dd 5abd fd32 1ebc e118 c0bd 8339 8c3d
00000010: adbd 793c ec79 02bb c752 98bd c1a4 f5bd
00000020: fc00 42bd e393 803d c398 d33d 2278 713d
00000030: 36ac 8abd 8bbe 52bd 31c8 803c b0d6 f1bd
00000040: 1bb6 853d 361c a43d bc66 7e3d 71e0 d73d
00000050: 28ce dbbd d929 22bd be73 1b3d 67f1 1abd
00000060: a9d7 b2bc 620f c83d c16c c5bd 9253 5e3d
00000070: f8eb ab3c 6c9a 243d 298b f2bd 0d97 9a3d
00000080: 4b4e dd3d 3f44 bcbd fdca 8bbd 9d4b 2a3d
00000090: d0df 2e3d 992a 803d ed65 b43c 8414 3cbd
000000a0: 9f26 853d 0dde 773c f018 86bd 0e35 bfbd
000000b0: 510a b4bd 0d59 0b3d 3fd7 cc3b 4d3d 0ebc
000000c0: c79e 9f3d 9616 283d 1aeb 553d f730 c7bd
000000d0: 8a95 dc3c 187e 293c 3c45 933c 4b72 fd3d
000000e0: 43c5 a43d 8907 9fbc 96d8 dcbd c8ed e43d
000000f0: df62 7fbd 021d f23d e27b 1dbc bdfa d2bc
00000100: 66fa a3ba 702a 4a3d eb70 ccbd 6992 ac3d
00000110: e9d3 6f3d 779d 9f3d 7174 b5bc 1959 873c
00000120: 7b19 f6bd a2c5 90bd 3678 84bd 4381 433c
00000130: 55d6 103e 0f5a 1fbc a05e 013e 989f e3bd
00000140: fe40 3f3c 2535 2a3d c3c3 afbd 991d 843d
00000150: 74c9 da3c 0fc9 5cbc efc9 68bd b20c af3d
00000160: d971 d2bd 5782 a03d a852 8d3d 4447 2cbd
00000170: 37e2 993d 943d 3abd ec21 dcbd 1d74 893d
00000180: 3f3f b0bd d39e a33d 35ed 5c3d b37f d8ba
00000190: b928 aebc 94b6 51bd 365a 58bc d950 053d
000001a0: 17b3 8fbd 8008 dabc fe2c 073d fdaa 7c3c
000001b0: 54c4 d13d 3ef7 6fbd 93cd e73c d2e5 8ebd
000001c0: 565e adbd d15f d9bd 7e95 78bd d1cc 353d
000001d0: 562a bf3d 7448 f8bb dccf f13c b347 ca3c
000001e0: 4304 bdbb 2d37 99bc 8d4e 49bd d18e d8bb
000001f0: 3efd 13bd fd82 383d 2283 46bd 64cd 00be
00000200: ea8b 863d b3aa 053e 1adc ba3d 1907 58bb
00000210: a65a 963d 66d6 f3bd 1d17 b83d a691 e1bd
00000220: c93b c3bd b2e3 26bd 7aac 0a3d aab1 e43c
00000230: 1f12 2b3d b852 543d d4d0 cc3d 974e 33bd
00000240: 1a08 ddbd 9c4e 013e f12c 08be 6dc9 0a3d
00000250: d868 a4bd 1202 95bd bf91 f8bd d52d f13d
00000260: 960d d7bd b37b eb3d 956d c7bd b8dd a7bd
00000270: 182a 033e 7287 e2bb 3854 05bd 439c 6bbc
00000280: d2e6 e7bd 6e8c 543c 2a1b 61bd 31c7 9a3d
00000290: a553 d73d efc7 14bd e169 cc3d 8237 9b3c
000002a0: 369a bf3b 3538 cdbd 4182 a3ba 2ef4 843c
000002b0: 69e0 ccbd d242 0cbd 3eba 13bd cb60 c7bd
000002c0: 27ac 82bd 0e80 423c 4913 f2bd 3e10 c0bd
000002d0: 9d7d 51bd f31b bbbd c9fa 9d3c ffda 8ebd
000002e0: 3493 b83b 84b6 29bd 344c 133a 5f84 bd3d
000002f0: 2402 13bd 1ce2 0a3e d59c 06be d947 edbd
00000300: 2828 5abb 7857 3ebc fdf5 cfbd fd67 d4bd
00000310: 469a b3bb d0c8 bf3d 42b7 e03c bb3d b1bd
00000320: 9f0d df3d 70ed 3fbd 6528 af3c dcfd 46bd
00000330: 79da 82bb 60d8 2fbc 9110 d8bd 942d 51bc
00000340: 9bae 4f3d 8730 64bd 65f8 05bb f0d5 fb3d
00000350: f2d7 c0bd 8733 adbd 05f9 7ebd 7070 ff3c
00000360: aaa9 963b b588 ab3c 9083 cebd 528c 643d
00000370: 0a4b cabd 6c5d 8c3c 2ced b6bc 996b bebd
00000380: 0f64 c23d 3a6e 6d3d 23ca d63d a808 01be
00000390: 2cea 9c3d b0cc 313d 9531 97bd 5c8d c53d
000003a0: 3c06 ee3d 8546 74bd 23e4 7dbd e0c1 e83c
000003b0: 9dbe 553d 80fd fb3d 32b4 633d 1335 053e
000003c0: b25e 46bc 188d df3d f430 b2bd 58c1 233b
000003d0: 5c92 803d 7c3a 733d 3a6d dcbd 3f5a 2f3c
000003e0: 901e 953d f81d a13d 30bc d4bd 7af2 28bd
000003f0: 74fa a1bd b808 bbbd 8c82 4dbd be3c dfbd

fc.3.bias f4 [64]
0.018437186 -0.0587144 0.02171773 0.008452649 -0.04129652 -0.1085215 0.1088212 0.09018815
-0.057812735 -0.07043799 0.02175405 -0.0020730381 -0.08699384 0.0020166894 -0.015788764 0.091612436
0.055325042 0.08826428 0.068500414 -0.017753363 0.053634226 -0.0558031 0.105815485 0.0069693397
0.11658759 0.034884334 0.026599908 -0.006361058 -0.05635906 -0.07718508 -0.065559626 -0.0670031
0.11910386 -0.07424703 -0.080516666 -0.02882732 0.065836206 -0.049643826 -0.023769071 -0.107392885
-0.07788972 0.027419554 0.029837385 0.002827394 -0.027472101 0.0077145062 -0.08158644 0.06623498
-0.03684242 -0.06767107 -0.024136018 0.07869913 -0.04743907 -0.09570949 0.03413321 0.034086995
-0.11202715 0.0996635 -0.08531113 -0.10970496 0.0006089995 -0.07291888 0.044960883 -0.044999685
00000000: 9509 973c 837e 70bd 62e9 b13c fb7c 0a3c
00000010: 8a26 29bd 8540 debd a6dd de3d 91b4 b83d
00000020: 0ccd 6cbd cb41 90bd 8d35 b23c cfdb 07bb
00000030: d429 b2bd 6f2a 043b 7057 81bc 4d9f bb3d
00000040: 839c 623d e7c3 b43d f249 8c3d 806f 91bc
00000050: 90af 5b3d cb91 64bd cab5 d83d 0f5f e43b
00000060: 79c5 ee3d e0e2 0e3d 0de8 d93c 6c70 d0bb
00000070: c2d8 66bd 3613 9ebd 2044 86bd ec38 89bd
00000080: b9ec f33d d40e 98bd ece5 a4bd 4627 ecbc
00000090: 22d5 863d 5357 4bbd 5bb7 c2bc cdf0 dbbd
000000a0: a584 9fbd f99e e03c 886d f43c cd4b 393b
000000b0: 2c0d e1bc f8c9 fc3b cb16 a7bd 35a6 873d
000000c0: 14e8 16bd 2197 8abd e6b8 c5bc 022d a13d
000000d0: 784f 42bd 5603 c4bd 44cf 0b3d ce9e 0b3d
000000e0: 7e6e e5bd 611c cc3d 9ab7 aebd feac e0bd
000000f0: 44a5 1f3a 7e56 95bd e728 383d 9751 38bd

placing_layer.0.weight f4 [5, 64]
0.11952445 -0.09137147 0.120636806 -0.1149654 0.042825583 0.080944285 0.03751234 0.015279737
0.029392704 0.01674369 0.10296873 -0.07920975 -0.07879958 -0.07028572 -0.11787073 -0.004333632
-0.024620567 -0.08428707 -0.078533694 -0.059536397 0.057900753 0.0020655084 -0.06856544 0.029667346
-0.08705115 0.029237606 -0.037739467 0.042876083 0.041419618 0.0021059434 -0.09000597 0.09964677
0.03310295 0.016622007 0.07745081 0.010183192 0.0098052835 0.11858494 -0.08936824 0.05053469
-0.008664756 0.120915264 -0.0036010335 -0.07999938 0.038060375 -0.12289016 -0.113206446 -0.023588516
-0.058112767 0.020034561 -0.039404284 -0.12731099 0.11161675 -0.0014200422 0.06496511 -0.11102612
-0.027876208 0.01958473 0.08208489 0.053095307 0.107551575 0.090445004 -0.08115772 0.00078972324
-0.055189464 0.031908028 0.12576514 -0.07754342 -0.015542871 0.091416344 0.012905627 -0.10100876
-0.041071996 -0.06887433 -0.08695111 0.006314738 -0.027805166 -0.082867905 -0.108884715 0.028497871
0.015607256 -0.06640066 0.11677218 0.07017756 -0.019691491 0.064715624 0.09053191 0.122032024
0.10531588 0.098284744 0.10293079 0.053405005 0.10759634 0.084817745 0.055250786 -0.06912205
0.13420345 -0.09034256 -0.05447247 -0.013568547 0.025590815 -0.010797818 0.03487853 -0.017674414
-0.0026702883 0.11706426 -0.07399818 0.09080092 0.07586399 -0.040260457 -0.009124353 -0.0324935
0.016216567 -0.07256495 -0.019609254 0.081922136 -0.06287181 0.1290474 0.05293664 -0.012799598
-0.12095221 0.06402562 -0.027120132 -0.061502215 -0.0415655 0.09769426 0.13456686 0.01668979
0.10783255 -0.019999616 -0.09961417 -0.014938654 0.13783653 -0.103013955 0.029132096 -0.091940455
-0.09604014 0.03198167 0.069484256 0.0989304 -0.057611484 -0.04687262 -0.10220992 0.023042697
0.08280488 0.026973648 0.10028731 0.1117559 -0.007921058 -0.048027612 0.1027236 0.023803938
-0.04496604 -0.052699562 0.089787416 -0.03279047 -0.08403454 0.14049155 0.04883127 -0.07241862
0.015495366 -0.044277254 0.08166564 -0.07225592 0.063142866 -0.101406075 0.007963999 0.02102188
-0.06203559 0.06738403 -0.10999575 -0.11645003 0.08335277 -0.03949015 0.081049375 -0.08954485
0.05947695 0.019035533 0.064168096 -0.0681241 0.12606905 0.113886364 0.07633177 0.06415176
-0.117047146 0.033720195 -0.09442604 0.020948254 -0.05402369 0.051067572 -0.033921514 0.01706316
0.13022529 0.06995415 0.06036519 0.03479578 -0.099254996 -0.008405189 0.022359993 -0.0044324445
0.059107106 0.073267914 -0.027302643 0.084814414 -0.0034786232 -0.07051896 0.07017309 -0.0714557
0.037814822 0.025284458 0.067825906 -0.018775921 0.05032796 -0.10563626 -0.07822146 -0.08328946
-0.041850008 -0.03867207 0.0051941536 0.057848398 0.12741008 -0.03294551 0.01078492 0.10380059
0.099527486 0.018393943 -0.021362403 0.08193827 -0.031213226 -0.118278496 -0.06811543 0.038632624
0.122691505 0.06160387 -0.008295082 0.08131889 0.034195013 -0.09983328 0.022621917 -0.06997967
0.10765071 0.10215351 -0.05655763 0.051096477 0.04239218 -0.014114252 0.00016101482 0.0013647067
0.06393486 0.12309748 -0.10359278 0.1183293 -0.051183265 0.0021905424 -0.023165224 0.0030833487
00000000: 3cc9 f43d f720 bbbd 6e10 f73d fb72 ebbd
00000010: e169 2f3d 1ec6 a53d 8aa6 193d dd57 7a3c
00000020: f8c8 f03c 102a 893c 45e1 d23d b938 a2bd
00000030: ad61 a1bd f6f1 8fbd 3666 f1bd 2401 8ebb
00000040: 12b1 c9bc b39e acbd 46d6 a0bd 70dc 73bd
00000050: 5729 6d3d 7b5d 073b 0a6c 8cbd ef08 f33c
00000060: e047 b2bd b483 ef3c b394 1abd d59e 2f3d
00000070: 9ea7 293d de03 0a3b 0d55 b8bd 9b13 cc3d
00000080: f596 073d e02a 883c 889e 9e3d 67d7 263c
00000090: 57a6 203c a9dc f23d b206 b7bd 77fd 4e3d
000000a0: 9ff6 0dbc 6ca2 f73d 51ff 6bbb b7d6 a3bd
000000b0: 32e5 1b3d d6ad fbbd c8d8 e7bd b43c c1bc
000000c0: a707 6ebd 851f a43c 6366 21bd d05d 02be
000000d0: 5397 e43d b620 baba 6d0c 853d aa61 e3bd
000000e0: a55c e4bc 2870 a03c 1f1c a83d 777a 593d
000000f0: 0044 dc3d 3b3b b93d 0536 a6bd 6e05 4f3a
00000100: 590e 62bd feb1 023d 94c8 003e 16cf 9ebd
00000110: 87a7 7ebc 7e38 bb3d 1f72 533c aedd cebd
00000120: 1c3b 28bd fc0d 8dbd 6c13 b2bd ddeb ce3b
00000130: a9c7 e3bc a6b6 a9bd f3fe debd 5e74 e93c
00000140: 94b5 7f3c 12fd 87bd 4126 ef3d 41b9 8f3d
00000150: 0d50 a1bc a089 843d cb68 b93d edeb f93d
00000160: daaf d73d 8349 c93d 61cd d23d 35bf 5a3d
00000170: 785b dc3d edb4 ad3d a64e 623d dd8f 8dbd
00000180: a16c 093e 8505 b9bd 861e 5fbd 9c4e 5ebc
00000190: d4a3 d13c 55e9 30bc cadc 0e3d efc9 90bc
000001a0: 0100 2fbb 63bf ef3d 5c8c 97bd d5f5 b93d
000001b0: 945e 9b3d 26e8 24bd 4f7e 15bc e717 05bd
000001c0: 9bd8 843c ef9c 94bd 96a3 a0bc cbc6 a73d
000001d0: efc2 80bd 0025 043e 17d4 583d 68b5 51bc
000001e0: cbb5 f7bd dd1f 833d 0a2b debc bfe9 7bbd
000001f0: 9640 2abd ee13 c83d e5cb 093e 07b9 883c
00000200: 50d7 dc3d 3cd6 a3bc 8402 ccbd 42c1 74bc
00000210: 0525 0d3e fbf8 d2bd 6fa6 ee3c 474b bcbd
00000220: b1b0 c4bd 36ff 023d c34d 8e3d 069c ca3d
00000230: 05fa 6bbd 81fd 3fbd 6f53 d1bd 0ac4 bc3c
00000240: 9b95 a93d d7f7 dc3c 6f63 cd3d 47e0 e43d
00000250: 53c7 01bc 9ab8 44bd c060 d23d 7a00 c33c
00000260: 4f2e 38bd 7fdb 57bd 77e2 b73d 4d4f 06bd
00000270: 4d1a acbd 04dd 0f3e 4c03 483d 3750 94bd
00000280: 47e0 7d3c 115c 35bd 5140 a73d e9fa 93bd
00000290: 0c51 813d fdad cfbd 6f7b 023c 1436 ac3c
000002a0: 0819 7ebd a300 8a3d 7445 e1bd 5a7d eebd
000002b0: dbb4 aa3d 6cc0 21bd 37fd a53d 4a63 b7bd
000002c0: 1a9e 733d 68f0 9b3c 906a 833d a684 8bbd
000002d0: 3f18 013e 413d e93d d553 9c3d ff61 833d
000002e0: 6ab6 efbd 301e 0a3d 7162 c1bd ac9b ab3c
000002f0: f247 5dbd 3b2c 513d 49f1 0abd 0ac8 8b3c
00000300: c759 053e 1f44 8f3d 7d41 773d 0586 0e3d
00000310: 3446 cbbd ebb5 09bc 4e2c b73c 0a3e 91bb
00000320: 4b1a 723d 7d0d 963d cba9 dfbc 2eb3 ad3d
00000330: 9df9 63bb 3f6c 90bd e9b6 8f3d 5e57 92bd
00000340: b7e3 1a3d 5a21 cf3c 4fe8 8a3d f6cf 99bc
00000350: b124 4e3d d357 d8bd 9332 a0bd aa93 aabd
00000360: ea6a 2bbd 9b66 1ebd b833 aa3b 71f2 6c3d
00000370: ca77 023e dff1 06bd 3cb3 303c 6795 d43d
00000380: 11d5 cb3d e5ae 963c 3500 afbc 40cf a73d
00000390: e1b2 ffbc ff3b f2bd 1a80 8bbd 3e3d 1e3d
000003a0: af45 fb3d 5754 7c3d 18e8 07bc 858a a63d
000003b0: 1210 0c3d 6475 ccbd 9951 b93c 8051 8fbd
000003c0: fa77 dc3d dc35 d13d f9a8 67bd 8a4a 513d
000003d0: 6ca3 2d3d 773f 67bc 16d6 2839 f5df b23a
000003e0: 48f0 823d 881a fc3d 7428 d4bd a256 f23d
000003f0: 8ba5 51bd 348f 0f3b ffc4 bdbc 0212 4a3b

placing_layer.0.bias f4 [5]
-0.048949152 0.008309412 -0.022693882 -0.05783477 0.032763597
00000000: e87e 48bd 3324 083c 85e8 b9bc 27e4 6cbd
00000010: 1f33 063d

placing_layer.1.weight f4 [5, 64]
0.08583097 0.04225974 -0.0065599713 0.0014881244 -0.11805531 -0.090279706 0.111127615 -0.010381513
-0.08881006 -0.061700042 -0.06763156 -0.03268408 -0.075152256 0.0891284 -0.12683006 0.0563722
-0.020112572 -0.11920188 0.07386548 0.032573193 -0.11081883 0.018798698 -0.12054092 0.07610311
0.04880784 -0.01642191 0.0753014 0.07604416 0.010902342 -0.05361534 0.09128907 -0.12466748
-0.089954674 -0.061094802 -0.054792818 0.07573198 -0.121408045 -0.1044627 -0.095689945 0.0537887
0.015686253 -0.07053321 -0.039343532 -0.07693597 -0.11249072 -0.07122056 -0.059167255 -0.09179228
0.0963247 -0.07309797 -0.061073903 -0.085606486 0.0499922 -0.085516274 -0.01866274 0.06436895
-0.008796766 -0.033771534 -0.06673046 -0.047055237 0.09278597 -0.042123687 0.06691034 -0.09789196
0.116690695 0.13263978 0.063722454 0.024265246 0.062654845 -0.009497948 0.13236311 -0.10297834
0.08416815 -0.10545653 0.033223044 -0.059032377 -0.002621209 -0.06559734 -0.07209471 -0.061682712
-0.09445262 -0.10406233 -0.08385228 0.04779116 0.04626065 0.07660679 0.039092813 -0.110178515
-0.10520347 -0.02098455 -0.104658775 -0.028248763 -0.096423484 -0.059981994 0.0003456913 -0.0849194
0.092594504 0.12510942 0.05713999 -0.016000573 -0.07907397 0.031157717 -0.03783758 -0.040846784
0.036272436 -0.06791237 0.12688096 0.13254535 0.12902558 -0.035891283 0.12982593 0.11539543
0.11726621 0.026690034 0.08326618 -0.078727506 -0.059306227 0.09449658 0.014456396 -0.06852135
-0.066105664 0.081504315 -0.0994623 0.0958216 0.10056531 0.10462588 -0.008468325 0.01615917
-0.0104957335 0.001501004 0.088158324 -0.007913345 0.07268145 0.08566821 0.031538866 -0.091777846
-0.023628693 0.00718947 0.06866626 0.05390619 -0.07511339 0.07672072 -0.11397837 0.010078941
0.047139138 -0.034920134 0.0043574665 -0.022428544 -0.0747814 -0.094045736 -0.092772804 0.058755748
-0.040544383 -0.102051415 0.10481289 0.04209005 0.029477015 -0.030998448 0.08389917 0.12861872
0.08393329 0.06986086 -0.09547019 -0.10433962 -0.06918388 -0.026230436 -0.0071109417 0.09396661
-0.096571766 -0.045626346 -0.109594114 -0.107883245 0.09818949 -0.07683026 -0.08974524 -0.017574575
-0.11572973 -0.025202801 0.0053121187 0.12499277 -0.10941651 -0.014777634 0.0042358334 -0.08092349
0.09828764 -0.109539375 0.12716122 0.047771566 -0.09446968 0.05634581 -0.11500254 0.0945681
-0.06208837 0.052940294 -0.09906392 0.08133057 -0.119223475 0.05072911 0.0030357332 -0.07345804
0.043301057 0.08838552 0.09534721 -0.029093206 -0.056117877 0.08888571 -0.11546868 -0.05856223
-0.05622384 0.05618505 -0.0059976536 -0.02522102 0.00038719177 0.12100196 -0.1034666 -0.060458124
0.011617659 -0.015174016 -0.08816162 0.058705516 0.07859072 -0.050792504 0.103795305 -0.12196843
-0.0017225281 -0.014010627 -0.04114981 0.048806306 -0.1133473 -0.06570394 0.03549308 -0.07377274
0.0643657 -0.11948991 0.06513785 0.04659362 0.070437 -0.0739578 -0.117834166 0.0873386
-0.10704255 -0.036785096 -0.049325023 -0.107784376 0.08572359 -0.12218997 0.05673925 -0.019870153
0.06453803 -0.1215181 -0.07581711 -0.087063774 -0.043791488 -0.054298297 0.09857003 0.06832592
00000000: 26c8 af3d 8d18 2d3d 07f5 d6bb 2b0d c33a
00000010: fbc6 f1bd 91e4 b8bd e096 e33d 3917 2abc
00000020: 0ce2 b5bd 2fb9 7cbd 6a82 8abd bedf 05bd
00000030: 6de9 99bd f388 b63d bddf 01be 89e6 663d
00000040: 1fc3 a4bc 1e20 f4bd c946 973d 786b 053d
00000050: fcf4 e2bd baff 993c 28de f6bd f3db 9b3d
00000060: bbea 473d 3e87 86bc 9f37 9a3d 0abd 9b3d
00000070: bd9f 323c c29b 5bbd c4f5 ba3d aa51 ffbd
00000080: 283a b8bd 8b3e 7abd 6f6e 60bd 5e19 9b3d
00000090: c8a4 f8bd 8af0 d5bd 17f9 c3bd 8a51 5c3d
000000a0: 7580 803c b773 90bd af26 21bd 9b90 9dbd
000000b0: 8961 e6bd 16dc 91bd 5d59 72bd 97fd bbbd
000000c0: e245 c53d 63b4 95bd a128 7abd 7452 afbd
000000d0: 9fc4 4c3d 2823 afbd 9ae2 98bc ded3 833d
000000e0: 5020 10bc 0554 0abd fba9 88bd febc 40bd
000000f0: 9206 be3d e389 2cbd 4a08 893d 947b c8bd
00000100: 88fb ee3d b9d2 073e eb80 823d e9c7 c63c
00000110: 2f51 803d 489d 1bbc 328a 073e 4fe6 d2bd
00000120: 5a60 ac3d 98f9 d7bd e314 083d efcb 71bd
00000130: 97c8 2bbb e657 86bd 64a6 93bd 03a7 7cbd
00000140: 6070 c1bd a21e d5bd bfba abbd aac0 433d
00000150: cf7b 3d3d 05e4 9c3d c91f 203d 46a5 e1bd
00000160: eb74 d7bd cae7 abbc 5757 d6bd f369 e7bc
00000170: ad79 c5bd aeaf 75bd e73d b539 39ea adbd
00000180: 30a2 bd3d af1c 003e 9f0b 6a3d a213 83bc
00000190: 89f1 a1bd 783e ff3c 94fb 1abd f54e 27bd
000001a0: 6892 143d a415 8bbd 15ed 013e f8b9 073e
000001b0: 481f 043e bd02 13bd 17f1 043e 7054 ec3d
000001c0: 4429 f03d 0fa5 da3c 7587 aa3d e33b a1bd
000001d0: 16eb 72bd 6c87 c13d 85da 6c3c ec54 8cbd
000001e0: 6862 87bd bceb a63d e4b2 cbbd 1d3e c43d
000001f0: 2ff5 cd3d 1846 d63d bbbe 0abc 3c60 843c
00000200: 4cf6 2bbc 56bd c43a 5a8c b43d f9a6 01bc
00000210: 03da 943d d172 af3d e62e 013d 06f6 bbbd
00000220: f690 c1bc a595 eb3b e5a0 8c3d bdcc 5c3d
00000230: 0dd5 99bd c11f 9d3d 7e6d e9bd 2422 253c
00000240: f814 413d 6a08 0fbd 14c9 8e3b 11bc b7bc
00000250: fe26 99bd 0d9b c0bd abff bdbd dea9 703d
00000260: de11 26bd 5500 d1bd 24a8 d63d 9e66 2c3d
00000270: c879 f13c 75f0 fdbc 54d3 ab3d a0b4 033e
00000280: 37e5 ab3d 3613 8f3d e085 c3bd 03b0 d5bd
00000290: 47b0 8dbd 36e1 d6bc e702 e9bb 9171 c03d
000002a0: 6bc7 c5bd b1e2 3abd e172 e0bd e4f1 dcbd
000002b0: 9217 c93d 2f59 9dbd 5acc b7bd 8ef8 8fbc
000002c0: b503 edbd 1b76 cebc 4811 ae3b 36fc ff3d
000002d0: c315 e0bd e41d 72bc bfcc 8a3b 37bb a5bd
000002e0: 084b c93d 2e56 e0bd 8d36 023e 1eac 433d
000002f0: 5279 c1bd ddca 663d 7486 ebbd ecac c13d
00000300: 6050 7ebd ecd7 583d 06e2 cabd a490 a63d
00000310: 702b f4bd 54c9 4f3d 27f3 463b 2b71 96bd
00000320: 735c 313d 7803 b53d 6645 c33d e054 eebc
00000330: dcdb 65bd b609 b63d d87a ecbd f3de 6fbd
00000340: f84a 66bd 4c22 663d f787 c4bb 509c cebc
00000350: 0000 cb39 e0cf f73d 4ce6 d3bd f0a2 77bd
00000360: fe57 3e3c 709c 78bc 148e b4bd 3275 703d
00000370: 2cf4 a03d cd0b 50bd a292 d43d 96ca f9bd
00000380: 74c6 e1ba d48c 65bc b48c 28bd 1fe9 473d
00000390: a122 e8bd ca8f 86bd 3161 113d 2a16 97bd
000003a0: 2ad2 833d 20b7 f4bd fe66 853d f4d8 3e3d
000003b0: 4641 903d 3077 97bd 0a53 f1bd 94de b23d
000003c0: 2039 dbbd f8ab 16bd 0909 4abd 0ebe dcbd
000003d0: d98f af3d bc3e fabd 6a67 683d bbc6 a2bc
000003e0: 842c 843d 7bde f8bd 0046 9bbd 7e4e b2bd
000003f0: b45e 33bd e467 5ebd 15df c93d 76ee 8b3d

placing_layer.1.bias f4 [5]
-0.008994242 0.009479778 0.06950686 -0.11341661 -0.11415629
00000000: 965c 13bc 1251 1b3c 9d59 8e3d f846 e8bd
00000010: c6ca e9bd

placing_layer.2.weight f4 [5, 64]
0.08889525 0.05813779 -0.05495225 -0.043187995 0.036349025 -0.055184145 0.08768387 0.014629009
0.050699472 0.08806442 -0.012777361 0.120739385 -0.020056842 -0.10591243 0.114679955 -0.038353607
-0.016531778 0.11609562 -0.012319564 -0.1147597 -0.055626858 0.04254348 -0.05197084 0.038593143
-0.057758424 -0.09028378 -0.05767459 -0.07366177 -0.05514285 -0.032871753 0.053779174 0.025147267
-0.07514643 0.04445088 -0.049589287 -0.09517427 -0.07590469 -0.107734144 0.057001133 -0.09323123
-0.067534685 0.03280851 -0.064498305 -0.06386597 -0.104508124 0.0515357 -0.07435157 0.108456954
-0.012160495 0.05420521 -0.05307331 -0.09396656 0.0718667 -0.0401131 0.11815764 0.08100459
0.029809684 -0.026652412 -0.06490818 0.020465182 0.10397138 -0.095882215 0.11481238 -0.012091707
0.10739296 0.014067117 -0.009306171 0.0008615948 0.10251689 0.12212267 0.13658029 -0.0866273
-0.08870587 0.026420118 -0.07535802 0.06194103 0.058079526 0.117028445 0.07057617 0.079944484
-0.08397396 0.13395718 0.053356107 -0.011263968 0.059677914 0.08243638 -0.055025883 0.059012804
-0.031059956 -0.037427183 0.09856047 0.113891214 0.0431125 0.03995593 0.051570714 -0.05390037
0.07145687 0.04737654 0.04528895 0.102826625 -0.09640553 -0.024033634 0.07341193 -0.053136624
-0.041454494 -0.09589071 0.08059758 0.107043006 0.072918996 0.09364734 -0.036325745 0.1162053
-0.09479493 0.0074017807 0.07029851 0.13654402 0.067714565 0.07500155 0.08060662 -0.086096264
-0.07888637 0.09285682 0.13517064 -0.02869528 0.1254089 0.12978132 0.081685066 -0.058937956
0.086213544 -0.0059987633 -0.060197227 -0.10193023 0.025645386 0.09794682 -0.0767035 -0.074591465
0.07331838 0.0894842 -0.068869844 -0.00096350623 -0.122163795 -0.03434842 0.10411496 0.017491033
0.06765073 0.056657083 -0.009518051 0.03597775 0.03912118 -0.12805243 0.035334203 0.085144155
-0.04168377 0.042719558 -0.09457134 0.023485994 -0.118417725 -0.105071865 -0.0010946061 0.069546364
0.022886992 -0.09999841 -0.13092119 0.06391002 0.029759666 -0.0018218731 -0.12892962 0.023886727
0.06618274 0.065790646 0.012594951 -0.103821665 0.07033635 0.080925845 -0.06181497 0.018842546
-0.123331554 0.087306984 0.044096664 -0.09297392 -0.016481666 0.084929146 0.023938702 0.025933556
0.033520732 0.042681184 -0.09910675 0.005832826 -0.11400513 -0.03469747 -0.105230495 -0.07017889
0.110139035 0.020108193 0.096825495 0.10909907 0.06121453 0.10076656 -0.023951028 -0.092201635
0.012560821 -0.06714295 0.036977284 0.0367644 -0.04486976 0.023720454 0.073170185 -0.031102745
0.073067814 -0.035061393 0.056787733 0.06364473 -0.13016084 -0.080584735 -0.10863183 0.045474567
0.098631546 -0.038964115 -0.11230712 0.11289548 -0.030192846 -0.012947494 0.04333017 0.031939797
0.048923884 -0.11259944 0.06724164 -0.12882894 0.009537627 0.054506913 -0.035755947 0.06936748
-0.02535239 0.040604785 -0.0022468662 0.10815667 -0.110975124 0.0899232 -0.07255682 -0.04514783
0.033866476 -0.025339255 -0.0037584316 -0.06708492 -0.004865264 -0.12521541 0.015228158 -0.1078939
-0.047574785 0.10032315 -0.08919607 0.09429979 0.11647729 0.11840856 0.11410772 -0.07501334
00000000: b60e b63d e421 6e3d 9c15 61bd e5e5 30bd
00000010: b7e2 143d c508 62bd 9a93 b33d 83ae 6f3c
00000020: 40aa 4f3d 1e5b b43d 2358 51bc 3646 f73d
00000030: 3f4e a4bc 9ee8 d8bd 53dd ea3d ac18 1dbd
00000040: a76d 87bc 8ac3 ed3d ffd7 49bc 2207 ebbd
00000050: fdd8 63bd 1242 2e3d 60df 54bd d813 1e3d
00000060: 1994 6cbd b4e6 b8bd 313c 6cbd fbdb 96bd
00000070: 78dd 61bd 88a4 06bd 8d47 5c3d a401 ce3c
00000080: 5fe6 99bd 2012 363d 231e 4bbd baea c2bd
00000090: eb73 9bbd b8a3 dcbd 057a 693d 04f0 bebd
000000a0: a04f 8abd 3762 063d b017 84bd 29cc 82bd
000000b0: 5b08 d6bd 1917 533d a345 98bd ae1e de3d
000000c0: d03c 47bc 4806 5e3d 6663 59bd 8a71 c0bd
000000d0: d92e 933d a24d 24bd a2fc f13d bce5 a53d
000000e0: 7033 f43c 2956 dabc 94ee 84bd 99a6 a73c
000000f0: f2ee d43d e55d c4bd c122 eb3d 4c1c 46bc
00000100: d7f0 db3d c479 663c e978 18bc a6dc 613a
00000110: 60f4 d13d 731b fa3d b4db 0b3e a769 b1bd
00000120: 6cab b5bd 016f d83c 4e55 9abd e1b5 7d3d
00000130: cce4 6d3d 9cac ef3d 3d8a 903d efb9 a33d
00000140: 8afa abbd 122c 093e ef8b 5a3d 828c 38bc
00000150: d470 743d 68d4 a83d d262 61bd 69b7 713d
00000160: 7371 febc 3f4d 19bd 12da c93d cc3f e93d
00000170: bc96 303d d4a8 233d d03b 533d a2c6 5cbd
00000180: fb57 923d e70d 423d e880 393d c496 d23d
00000190: 4370 c5bd 2fe2 c4bc fe58 963d caa5 59bd
000001a0: 30cc 29bd 5962 c4bd 5810 a53d 5d39 db3d
000001b0: 8e56 953d 2dca bf3d 4eca 14bd 0bfd ed3d
000001c0: d823 c2bd a38a f23b aaf8 8f3d 32d2 0b3e
000001d0: efad 8a3d 6a9a 993d 1515 a53d 3d53 b0bd
000001e0: 2d8f a1bd b72b be3d 2c6a 0a3e 5d12 ebbc
000001f0: 316b 003e 65e5 043e 804a a73d ed68 71bd
00000200: ba90 b03d 4691 c4bb 5e91 76bd ccc0 d0bd
00000210: 4616 d23c 5898 c83d b916 9dbd 69c3 98bd
00000220: f227 963d 7e43 b73d a20b 8dbd cf93 7cba
00000230: 0331 fabd eeb0 0cbd 393a d53d 5b49 8f3c
00000240: 778c 8a3d 4211 683d 99f1 1bbc 685d 133d
00000250: 883d 203d 2d20 03be 99ba 103d 0f60 ae3d
00000260: 9abc 2abd b4fa 2e3d 9eae c1bd b365 c03c
00000270: fe84 f2bd eb2f d7bd e378 8fba 536e 8e3d
00000280: 807d bb3c f7cb ccbd 3410 06be 42e3 823d
00000290: 8bca f33c ebcb eeba 2006 04be 19ae c33c
000002a0: d18a 873d 3fbd 863d 0e5b 4e3c 74a0 d4bd
000002b0: 810c 903d 73bc a53d b231 7dbd af5b 9a3c
000002c0: 4195 fcbd 01ce b23d b49e 343d 1c69 bebd
000002d0: 8f04 87bc 55ef ad3d 191b c43c 9c72 d43c
000002e0: 094d 093d 77d2 2e3d 7bf8 cabd 4a21 bf3b
000002f0: 867b e9bd ef1e 0ebd 1683 d7bd f3b9 8fbd
00000300: 9390 e13d f0b9 a43c 724c c63d 556f df3d
00000310: 16bc 7a3d b35e ce3d f234 c4bc 36d4 bcbd
00000320: e7cb 4d3c 3e82 89bd 7e75 173d 4496 163d
00000330: 5ac9 37bd 6651 c23c 40da 953d 2fcb febc
00000340: 94a4 953d 899c 0fbd 419a 683d 2b58 823d
00000350: e248 05be 9c09 a5bd 5d7a debd 8a43 3a3d
00000360: 56ff c93d d698 1fbd 4601 e6bd bf35 e73d
00000370: fd56 f7bc ba21 54bc fa7a 313d 4ed3 023d
00000380: 6964 483d 899a e6bd fcb5 893d bceb 03be
00000390: b543 1c3c a442 5f3d d474 12bd 8a10 8e3d
000003a0: d1af cfbc 3451 263d 2940 13bb 3f81 dd3d
000003b0: ed46 e3bd a829 b83d ac98 94bd eeec 38bd
000003c0: 93b7 0a3d 4594 cfbc 0550 76bb d263 89bd
000003d0: cb6c 9fbb 7838 00be 867f 793c 7af7 dcbd
000003e0: c7dd 42bd 3976 cd3d 6eac b6bd 4020 c13d
000003f0: a58b ee3d 3080 f23d 4fb1 e93d 98a0 99bd

placing_layer.2.bias f4 [5]
-0.12037776 -0.0530536 0.041956186 -0.07307765 0.08056184
00000000: 9d88 f6bd bb4e 59bd 40da 2b3d bca9 95bd
00000010: 9bfd a43d

placing_layer.3.weight f4 [5, 64]
-0.045122985 -0.08887882 -0.0418338 -0.015569681 -0.049139038 0.039973762 0.098721944 0.056915656
-0.11684584 0.09328711 -0.046641774 -0.044222556 0.030184789 -0.12460802 -0.10591082 -0.08048156
-0.039891668 -0.022121714 -0.08019743 -0.07064753 0.031338528 -0.11034361 0.018830113 0.09315769
-0.11581187 0.06790054 -0.06699025 0.07453549 0.06784989 0.093071036 -0.012687934 0.09301355
0.01969772 0.046533104 0.03286705 0.016380396 0.058316644 -0.07742594 0.117689185 0.064943075
-0.038044237 -0.0010201617 0.016346984 0.07059966 0.0027553057 -0.030505579 -0.054869685 0.074211985
-0.08978522 0.1103735 -0.055265367 -0.08774966 0.1109773 -0.10544476 -0.09710245 0.062589295
0.0791672 0.058138043 -0.021585712 -0.009926903 -0.09253875 -0.03591605 -0.10058333 0.120331936
0.0018941909 -0.00041554868 0.035133243 0.019441187 -0.040591434 -0.047740117 -0.12024681 -0.043457434
-0.029717237 -0.007992119 -0.0025362372 0.041528925 -0.12142077 -0.115914255 -0.07723054 0.042264998
0.08430295 -0.105083734 -0.056252763 -0.024399817 -0.043227702 0.003477797 -0.04261349 -0.064522326
0.018109217 -0.033606544 0.103802666 0.07792412 -0.036543995 -0.07703021 0.10664104 0.0203747
-0.050724253 0.047373608 -0.00043825805 0.07139251 0.019342646 0.11473459 0.047501907 -0.048600465
-0.020410776 0.071627125 -0.07573454 -0.06517267 -0.04272844 0.1057581 0.026149064 0.038140833
-0.089148685 -0.11720626 -0.06761606 -0.062874585 0.09018327 0.021441981 0.10382961 -0.07321082
-0.014170185 -0.0673081 0.05453162 -0.07423644 0.046838805 0.039282605 -0.108759 -0.024596363
0.026972136 0.122508794 -0.12148842 -0.0867667 0.109821916 -0.104684815 -0.03342846 0.082146764
0.067581296 0.020680886 0.04413954 -0.044025257 -0.07980963 -0.0010958035 -0.12120997 0.08407777
0.045587912 0.10476889 -0.052178036 -0.06337692 0.01035522 -0.106507614 0.08806233 0.015465835
0.051372893 -0.08153667 0.07113487 -0.10536771 -0.10185942 -0.085980386 0.042529855 -0.03747146
0.05887939 0.012959215 -0.027564844 0.03555625 -0.057944085 -0.031064782 0.09002734 0.11462679
0.053212624 -0.019684307 -0.082666256 -0.005841629 -0.12063045 0.091399126 -0.02172382 0.022367971
-0.032039184 0.035011403 0.070445366 -0.034694538 0.082090594 -0.10075065 0.058394223 0.08031806
0.06495403 0.08015266 -0.106932044 -0.028354676 0.074958354 0.06830346 -0.12456366 -0.03887688
-0.008382235 -0.015636433 -0.044667173 -0.11793385 0.021497048 0.09723973 0.008915454 0.052569415
-0.10498546 -0.1404352 -0.09603132 -0.021303937 -0.11796469 0.10622876 0.0018879764 0.034636334
-0.030321866 0.1109983 -0.07437374 -0.06958006 0.04057663 -0.009645229 -0.06339495 -0.13382223
0.066072896 -0.06893922 0.084153704 -0.12642658 0.036851283 0.10344085 0.09679069 -0.11845373
-0.091253065 0.07693233 -0.03387754 -0.005310987 -0.010379014 -0.06210143 0.023182033 -0.048883084
0.06013708 -0.11429984 0.08615411 -0.019714054 -0.044601347 0.09962185 0.03851442 0.064030886
0.08447335 0.061646055 0.03342941 -0.03791252 -0.021740807 -0.061046027 -0.03097831 0.07440689
-0.1281427 -0.10911932 -0.035322133 0.061194506 0.041820653 0.0075745853 -0.012271547 -0.12182643
00000000: e1d2 38bd 1906 b6bd eb59 2bbd fa17 7fbc
00000010: 0446 49bd 87bb 233d bb2e ca3d 6420 693d
00000020: df4c efbd 500d bf3d 720b 3fbd b622 35bd
00000030: 1746 f73c 7d32 ffbd c6e7 d8bd 84d3 a4bd
00000040: 7265 23bd 9938 b5bc 8d3e a4bd a7af 90bd
00000050: d45c 003d d5fb e1bd 9c41 9a3c 75c9 be3d
00000060: c62e edbd 700f 8b3d 2f32 89bd 10a6 983d
00000070: e2f4 8a3d 079c be3d 0de1 4fbc e37d be3d
00000080: 1d5d a13c 7f99 3e3d 9a9f 063d 2e30 863c
00000090: 6fdd 6e3d 7e91 9ebd 0707 f13d e000 853d
000000a0: 46d4 1bbd f2b6 85ba 1cea 853c 8e96 903d
000000b0: 5c92 343b d6e6 f9bc 09bf 60bd 74fc 973d
000000c0: 50e1 b7bd 800b e23d f05d 62bd 18b6 b3bd
000000d0: 1148 e33d 6cf3 d7bd a6dd c6bd d12e 803d
000000e0: 6a22 a23d 2822 6e3d 85d4 b0bc 73a4 22bc
000000f0: f584 bdbd b51c 13bd a2fe cdbd 9770 f63d
00000100: 8046 f83a 00de d9b9 e0e7 0f3d 2043 9f3c
00000110: 3443 26bd 248b 43bd f643 f6bd 6c00 32bd
00000120: 9071 f3bc 60f1 02bc 0037 26bb 3c1a 2a3d
00000130: 74ab f8bd 7464 edbd 0c2b 9ebd 101e 2d3d
00000140: 06a7 ac3d 2436 d7bd 4c69 66bd 20e2 c7bc
00000150: 880f 31bd c0eb 633b 7c8b 2ebd 4824 84bd
00000160: c859 943c 04a7 09bd 7e96 d43d ae96 9f3d
00000170: 28af 15bd 04c2 9dbd 9e66 da3d d8e8 a63c
00000180: 3cc4 4fbd d40a 423d 00c6 e5b9 3c36 923d
00000190: 7874 9e3c f8f9 ea3d 5c91 423d 4811 47bd
000001a0: 8034 a7bc 3eb1 923d b61a 9bbd 4079 85bd
000001b0: 0404 2fbd b497 d83d 9036 d63c 9039 1c3d
000001c0: 9693 b6bd d609 f0bd 4a7a 8abd 64c4 80bd
000001d0: 02b2 b83d 18a7 af3c 9ea4 d43d 8eef 95bd
000001e0: 102a 68bc d4d8 89bd 8c5c 5f3d 4609 98bd
000001f0: 0cda 3f3d cce6 203d 0abd debd 507e c9bc
00000200: abf4 dc3c e4e5 fa3d ecce f8bd bdb2 b1bd
00000210: 50ea e03d fe64 d6bd 48ec 08bd 903c a83d
00000220: 1068 8a3d f66a a93c aacb 343d d453 34bd
00000230: 3b73 a3bd 10a1 8fba ef3c f8bd f730 ac3d
00000240: 64ba 3a3d 1291 d63d a3b8 55bd c2cb 81bd
00000250: f1a8 293c aa20 dabd 065a b43d 6a64 7d3c
00000260: 626c 523d b3fc a6bd 29af 913d 07cb d7bd
00000270: ac9b d0bd 7c16 b0bd c933 2e3d ac7b 19bd
00000280: 842b 713d e352 543c abcf e1bc 6ea3 113d
00000290: c756 6dbd 927b febc 4160 b83d 73c1 ea3d
000002a0: 7bf5 593d fc40 a1bc ed4c a9bd 236b bfbb
000002b0: 190d f7bd 772f bb3d 27f6 b1bc 093d b73c
000002c0: 853b 03bd 1e68 0f3d a945 903d dc1b 0ebd
000002d0: 1d1f a83d 5b56 cebd c82e 6f3d cc7d a43d
000002e0: 9e06 853d 1427 a43d 30ff dabd 1148 e8bc
000002f0: c483 993d afe2 8b3d 3b1b ffbd 5d3d 1fbd
00000300: a455 09bc fa17 80bc edf4 36bd 4d87 f1bd
00000310: 941a b03c a025 c73d 2012 123c 0753 573d
00000320: 9e02 d7bd 3fce 0fbe 12ac c4bd 9885 aebc
00000330: 7997 f1bd 778e d93d fa75 f73a d4de 0d3d
00000340: 9065 f8bc 1453 e33d 4251 98bd fe7f 8ebd
00000350: ae33 263d 0607 1ebc 36d5 81bd b208 09be
00000360: 3a51 873d 0130 8dbd c758 ac3d f875 01be
00000370: 5ff1 163d ccd8 d33d 333a c63d df97 f2bd
00000380: e3e2 babd b38e 9d3d 2dc3 0abd ca07 aebb
00000390: bd0c 2abc 125e 7ebd 3fe8 bd3c a139 48bd
000003a0: 4c52 763d 0916 eabd 9171 b03d 5e7f a1bc
000003b0: e7af 36bd 8a06 cc3d 4cc1 1d3d a022 833d
000003c0: 5d00 ad3d 9380 7c3d 47ed 083d 294a 1bbd
000003d0: c719 b2bc 660b 7abd 3ac6 fdbc a462 983d
000003e0: d737 03be f379 dfbd f1ad 10bd 17a7 7a3d
000003f0: 224c 2b3d 3a34 f83b 990e 49bc 2380 f9bd

placing_layer.3.bias f4 [5]
0.10269235 -0.057699263 -0.043484997 0.047327105 -0.06722734
00000000: 5e50 d23d 1056 6cbd 531d 32bd 11da 413d
00000010: 7dae 89bd
