auto_src/log_res/exp4/imitation_learning_td3_env-20240721-065239/itd3_actor.pth (torch, 356075 bytes, 108 tensors)

fc.0.weight f4 [64, 785]
0	0x3c68da38	0.014212184
1	0x3c9d9872	0.01923773
2	0xbd117959	-0.035516117
3	0xbc5de4ab	-0.013543288
4	0xbca9eb03	-0.020741945
5	0xbaef046b	-0.001823557
6	0xbbef9d2a	-0.0073124366
7	0x3c8902ef	0.016725032
8	0xbbebf32a	-0.0072006183
9	0x3c8f3d6a	0.01748534
10	0xbc0ff5a4	-0.008786593
11	0xbc97d975	-0.018536309
12	0xbd2342fe	-0.03985881
13	0xbc8b2a8e	-0.016988065
14	0xbc42adb9	-0.011882239
15	0x3b060f1b	0.002045578
16	0x3cb5b3e7	0.02218051
17	0x3d1530cb	0.036423486
18	0xbcd0082e	-0.025394525
19	0xbbe2c6cb	-0.0069206706
20	0x3c71b631	0.0147529105
21	0x3cebbbec	0.028776132
22	0xbca0bd69	-0.019621568
23	0x3cc60698	0.024173066
24	0xbc59e9a5	-0.013300334
25	0x3be22823	0.0069017573
26	0x3ce6ab09	0.028157728
27	0xbcf7729f	-0.030206023
28	0xbcfeea68	-0.031117633
29	0xbc041e56	-0.008063873
30	0xbcbb352e	-0.022852506
31	0x3ca1209d	0.019668872
32	0xbca7bc86	-0.020475637
33	0xbcb4f1d4	-0.022087969
34	0xbcb6c531	-0.022310825
35	0xbd3b001a	-0.045654394
36	0xbc169745	-0.009191339
37	0x3c924a68	0.017857745
38	0x3b5ff733	0.0034174442
39	0x3c3776e7	0.011197782
40	0x3bfec053	0.0077743917
41	0xbd0e6b5c	-0.034770355
42	0x3bace38a	0.005276148
43	0xbcb4fb90	-0.02209261
44	0xbcbe2cff	-0.023214815
45	0xbcb2048d	-0.021730686
46	0x3cfa57b0	0.03055939
47	0x3bbd6211	0.0057795127
48	0xbc89b1e6	-0.016808461
49	0x3af061a4	0.0018339646
50	0x3d126f8d	0.035750914
51	0x3cc24e07	0.023718847
52	0x3c39cb69	0.011340001
53	0x3a8f4810	0.001093151
54	0x3ce0ddd2	0.027449522
55	0xbc663f74	-0.014053214
56	0x3c72a484	0.014809731
57	0xbd17fef1	-0.037108365
58	0xbd02a56d	-0.031896044
59	0xbcb5716d	-0.022148812
60	0x3c66d829	0.014089623
61	0x3b9e3743	0.004828365
62	0xbcdd7c83	-0.02703691
63	0x3bda2be1	0.006658063
64	0x3c2ea4f7	0.010659448
65	0x3c096d28	0.008387841
66	0x3c5b14c0	0.013371646
67	0x3c262e1e	0.010142831
68	0x3c92efa1	0.01793653
69	0x3d44118e	0.047868304
70	0xbd1eab3b	-0.038737517
71	0xbca2638e	-0.019822862
72	0x3cccbe5b	0.024993112
73	0x3cfb95c8	0.03071107
74	0x3d20a52f	0.03922003
75	0x3d089107	0.033341434
76	0xbb1c9590	-0.0023892857
77	0xbcbbfa13	-0.022946393
78	0x3ac6cd29	0.0015167344
79	0xbbc26fb9	-0.0059337285
80	0xbce3f4ca	-0.027826685
81	0x3c9ea652	0.019366417
82	0x3ceeb800	0.029140472
83	0xbd03357b	-0.032033425
84	0xbaa73676	-0.001275732
85	0xbab27977	-0.0013616522
86	0xbc6b70fd	-0.0143702
87	0xbbd9c3bd	-0.0066456483
88	0x3cc78927	0.024357392
89	0xbb87d467	-0.0041451934
90	0x3bc2b48f	0.0059419344
91	0x3c475da4	0.012168322
92	0x3d155229	0.036455307
93	0x3cef7ebe	0.02923524
94	0xbd2ab8d3	-0.04168017
95	0xbce415fc	-0.027842514
96	0x3c41d7e4	0.0118312575
97	0x3bd30c54	0.0064406786
98	0xbd0b0410	-0.03393942
99	0xbcb4afea	-0.022056539
100	0x3cb1c1f1	0.021698924
101	0x3c2eb3d2	0.01066299
102	0x3b0af716	0.0021204404
103	0xbc2532e6	-0.010082936
104	0xbcdcb13f	-0.026939986
105	0xbb2bfaef	-0.0026242097
106	0xbd0b784f	-0.034050282
107	0xbd21172e	-0.039328746
108	0x38de4bf8	0.00010599935
109	0x3b7591e3	0.0037470988
110	0xbcf0c99a	-0.029393006
111	0x3ca5917b	0.020210972
112	0xbc3bf881	-0.011472822
113	0x3cca11c5	0.024666676
114	0x3c83cfba	0.016090263
115	0xbcb8aa01	-0.022542002
116	0xbcb2606d	-0.021774495
117	0xbc2798f6	-0.01022934
118	0x3c8d6ed8	0.017264768
119	0xbb0057fc	-0.0019583693
120	0x3c86b8e9	0.016445594
121	0x3c1e9fb4	0.009681631
122	0xbcda8d28	-0.026678637
123	0x3c84ede0	0.016226709
124	0xbd144475	-0.0361981
125	0xbd0fe614	-0.03513153
126	0xbc742c7c	-0.014903184
127	0xbc95d70c	-0.018291019
128	0xbbd0aede	-0.006368502
129	0xbcbbf12f	-0.022942154
130	0xba91885a	-0.0011103258
131	0x3ba59cdf	0.005054101
132	0xbcc8fe73	-0.024535393
133	0x394add44	0.00019346649
134	0x3d14e7b6	0.03635379
135	0xbb92d742	-0.004481227
136	0xbb848a43	-0.0040448024
137	0xbbe3ed20	-0.0069557577
138	0x3c675a4e	0.014120651
139	0x3cc84dce	0.024451163
140	0x3d27f636	0.04100629
141	0x3c142b98	0.009043597
142	0x3d388405	0.04504778
143	0x3af4861f	0.0018655694
144	0xbca082af	-0.019593565
145	0xbc66409e	-0.014053492
146	0x3ce4b54b	0.027918478
147	0x36063cc0	2.0002917e-06
148	0xbcc25a01	-0.023724558
149	0xbc8d52b9	-0.01725136
150	0xbc9e9a5a	-0.01936071
151	0xbce96d02	-0.028494362
152	0xbb0445e1	-0.0020183253
153	0x3cc0a002	0.023513798
154	0x3d0f0d7a	0.03492496
155	0xbd005424	-0.031330243
156	0x3ca899f6	0.020581227
157	0xbd149b3d	-0.03628086
158	0xbc2b124d	-0.010441375
159	0xbc029423	-0.007969889
160	0xbc9366db	-0.017993381
161	0xbc7c0fdf	-0.015384643
162	0xbd05d5e9	-0.032674704
163	0xbd1a2793	-0.037635397
164	0xbc7d53e7	-0.015461898
165	0x3b8f8310	0.0043796375
166	0xbc838303	-0.016053682
167	0x3cbfa716	0.023395102
168	0xbcfb19b4	-0.030651905
169	0xbb2fd4e5	-0.0026829776
170	0x3cecec68	0.028921321
171	0xbc9e6659	-0.019335913
172	0x3d20de80	0.039274693
173	0x3cd67779	0.026180016
174	0xbcb8ad0b	-0.02254345
175	0x3ca36ec2	0.019950274
176	0xbb45ea88	-0.0030199606
177	0xbc9c7845	-0.019100318
178	0x3c82ee66	0.015982818
179	0xbc6a081d	-0.014284161
180	0x3c548324	0.0129707195
181	0xbc897b59	-0.01678245
182	0x3c7072e2	0.014675828
183	0x3b51c9ee	0.0032011229
184	0x3cbf0694	0.023318566
185	0xbab42e0e	-0.0013746636
186	0xbae692a9	-0.0017591316
187	0xbc4db886	-0.012556201
188	0xbd044385	-0.032290954
189	0x3d0b8899	0.034065817
190	0x3d04f477	0.032459702
191	0x3ce8d784	0.028423078
192	0xbd0c6592	-0.034276552
193	0xbb2b8141	-0.002616957
194	0xbcf25d31	-0.029585453
195	0xbc8231cf	-0.015892891
196	0xbcab4254	-0.020905651
197	0x3b8404f1	0.0040289094
198	0xbc8bdf57	-0.01707427
199	0x3c4c309c	0.012462761
200	0xbc423bd9	-0.011855089
201	0x3c84d977	0.016216977
202	0xbcb15cdd	-0.021650726
203	0xbc7c4475	-0.015397181
204	0xbca3209e	-0.019913014
205	0x3d1b89a9	0.03797308
206	0xbca39472	-0.019968245
207	0x3d0d3371	0.034472886
208	0x3b743c40	0.0037267357
209	0x3a24b166	0.0006282538
210	0xbae5bd78	-0.001752778
211	0xbb24d6d6	-0.0025152466
212	0x39b8b438	0.00035229488
213	0xb91749e0	-0.00014428003
214	0x3c5ac22f	0.013351961
215	0x3ca0d52e	0.019632902
216	0xbccb3ff2	-0.024810765
217	0xbc53d3b3	-0.012928891
218	0x3cd024d4	0.025408186
219	0xbd25c5b3	-0.040471744
220	0xbb934974	-0.0044948403
221	0x3d0c0535	0.034184653
222	0x3caad364	0.020852752
223	0x3c1bddfe	0.009513376
224	0xbc9e5f93	-0.019332683
225	0x3bb3a32c	0.005482098
226	0xbc89978b	-0.016795894
227	0xbc98334c	-0.018579148
228	0xbca83486	-0.020532858
229	0xbbe3d91e	-0.0069533726
230	0xbc011cfd	-0.0078804465
231	0x3c94175d	0.018077547
232	0x3c0894a5	0.008336221
233	0x3d04b2f8	0.03239724
234	0x3d02e57b	0.03195713
235	0xbc322e22	-0.010875257
236	0x3bc2b7bc	0.005942313
237	0xbc6f7cb2	-0.014617132
238	0xbc519353	-0.0127914725
239	0xba1e0531	-0.0006027995
240	0x3ab8f450	0.0014110897
241	0x3c9969bf	0.018727181
242	0xbbb249a3	-0.005440907
243	0x3bfc70cd	0.0077038766
244	0x3c1e2a3f	0.009653627
245	0xbca50aff	-0.020146845
246	0x3d023dff	0.031797405
247	0xbcc736b5	-0.024318079
248	0x3c20371c	0.009778764
249	0xbb6db4ba	-0.0036271052
250	0xbc8fd69e	-0.017558392
251	0x3bc2eac1	0.005948395
252	0x3cfc18d2	0.030773554
253	0xbc167afe	-0.009184597
254	0xbca344ec	-0.019930325
255	0xbc43cf14	-0.011951227

fc.0.bias f4 [64]
0	0xbc964369	-0.01834269
1	0xbbf93813	-0.0076055615
2	0xbc758596	-0.014985463
3	0x3c39713b	0.0113185
4	0x3be089f5	0.0068523833
5	0xbc5ce357	-0.013481936
6	0xbc58e94f	-0.013239219
7	0x3c05e5ea	0.008172492
8	0xbc1f5754	-0.0097254105
9	0x3ca0ca6f	0.019627778
10	0x3a8a41dd	0.0010548193
11	0x3c98905b	0.018623522
12	0xbcd8b5bf	-0.02645385
13	0xbccf9677	-0.025340302
14	0x3c8d6b8a	0.017263193
15	0x3cc0f0a9	0.023552256
16	0x3cac0b8b	0.021001598
17	0x3a0ed013	0.00054478756
18	0x3cd43c4f	0.025907664
19	0xbbeaddb5	-0.007167543
20	0xbcf5a92c	-0.029987894
21	0xbcd360bf	-0.025802968
22	0x3cb89898	0.0225337
23	0xbcbe9e03	-0.023268705
24	0xb97c4241	-0.00024057274
25	0x3c806726	0.015674185
26	0xbc345a42	-0.011007847
27	0x3cc3804c	0.023864888
28	0x3c2a0912	0.010378139
29	0x3bde3800	0.006781578
30	0x3bb864ba	0.005627242
31	0xbc6c1fb6	-0.014411857
32	0x3bd78bc8	0.0065779425
33	0xbca165fa	-0.019701947
34	0xbc35d65b	-0.01109847
35	0x3cdd89e3	0.027043289
36	0xbb20abfd	-0.0024516576
37	0x3cccb2f0	0.024987668
38	0xbbefe6aa	-0.0073211985
39	0x3c8f2c67	0.017477227
40	0xbb2a1dd0	-0.002595771
41	0x3ca68d6e	0.02033111
42	0x3c120f9b	0.008914853
43	0xbc89fa7b	-0.016843071
44	0x3c978db5	0.018500188
45	0xbd005c88	-0.031338245
46	0x3c867288	0.016412035
47	0xbd0461ec	-0.032319948
48	0x3bef3ab4	0.007300699
49	0xbc9e2fa7	-0.019309832
50	0x3a97fd56	0.0011595886
51	0xbd07c91e	-0.033150785
52	0x3a9d61e2	0.0012007321
53	0xbc35c0b1	-0.0110933045
54	0xbb4948d2	-0.003071357
55	0xbc8cf6c5	-0.017207513
56	0x3b42ad3a	0.0029705302
57	0xbaadc5a3	-0.0013257753
58	0xbd0035fd	-0.031301487
59	0x3d1266a0	0.035742402
60	0x3c96d17e	0.01841044
61	0xbc6b5deb	-0.0143656535
62	0x3cd090f1	0.025459738
63	0xbc4b7dd4	-0.0124201365

fc.2.weight f4 [64]
0	0x3f813144	1.009316
1	0x3f800000	1.0
2	0x3f800000	1.0
3	0x3f800000	1.0
4	0x3f800000	1.0
5	0x3f800000	1.0
6	0x3f800000	1.0
7	0x3f81ff6e	1.0156076
8	0x3f7f869f	0.9981479
9	0x3f800000	1.0
10	0x3f800000	1.0
11	0x3f800000	1.0
12	0x3f800000	1.0
13	0x3f817352	1.0113318
14	0x3f8225ee	1.0167825
15	0x3f800000	1.0
16	0x3f81c367	1.0137757
17	0x3f8206b1	1.0158292
18	0x3f812001	1.0087892
19	0x3f818a19	1.0120269
20	0x3f800000	1.0
21	0x3f800000	1.0
22	0x3f800000	1.0
23	0x3f800000	1.0
24	0x3f800000	1.0
25	0x3f800000	1.0
26	0x3f800000	1.0
27	0x3f800000	1.0
28	0x3f825760	1.0182915
29	0x3f7f7444	0.9978678
30	0x3f800000	1.0
31	0x3f800000	1.0
32	0x3f800000	1.0
33	0x3f800000	1.0
34	0x3f800000	1.0
35	0x3f800000	1.0
36	0x3f800000	1.0
37	0x3f800000	1.0
38	0x3f800000	1.0
39	0x3f800000	1.0
40	0x3f82cd9d	1.0218998
41	0x3f800000	1.0
42	0x3f800000	1.0
43	0x3f820360	1.015728
44	0x3f80a924	1.0051618
45	0x3f814ecf	1.0102175
46	0x3f81bdb7	1.0136021
47	0x3f800000	1.0
48	0x3f800000	1.0
49	0x3f800000	1.0
50	0x3f800000	1.0
51	0x3f81d60e	1.0143449
52	0x3f800000	1.0
53	0x3f800000	1.0
54	0x3f825988	1.0183573
55	0x3f82a1d1	1.0205632
56	0x3f800000	1.0
57	0x3f800000	1.0
58	0x3f800000	1.0
59	0x3f824b37	1.0179204
60	0x3f800000	1.0
61	0x3f81f0f6	1.015166
62	0x3f800000	1.0
63	0x3f827894	1.0193048

fc.2.bias f4 [64]
0	0xbabde548	-0.0014487887
1	0x3cf4fa5a	0.029904533
2	0x3cdc8f64	0.026923843
3	0xbcbac33c	-0.022798173
4	0x3c4629da	0.012094939
5	0xbca1289e	-0.019672688
6	0x3ca9b53f	0.020716308
7	0x3bd05aa6	0.0063584624
8	0xbc300e7f	-0.010745644
9	0x3c668e2e	0.014071984
10	0xbcdd649c	-0.027025513
11	0x3ca2049c	0.019777589
12	0xbc385a57	-0.011252007
13	0x3cfe7beb	0.031064948
14	0xbcf104f6	-0.02942131
15	0xbc90f97b	-0.017697087
16	0xbc869368	-0.01642771
17	0x3cd43bf5	0.025907496
18	0xbc216608	-0.009850986
19	0xbbd26c9f	-0.00642164
20	0x3cfbdfd1	0.030746372
21	0xbcb456d5	-0.022014061
22	0xbcc464b1	-0.023973795
23	0xbcc67dbb	-0.024229875
24	0xbc9cd1e5	-0.019143054
25	0xbca0ed0d	-0.019644285
26	0x3cf6c610	0.03012374
27	0x3c257bee	0.010100348
28	0x3bd614d7	0.006533246
29	0x3b1ce2c3	0.0023938871
30	0xbc859d23	-0.01631028
31	0xbcd0a17e	-0.02546763
32	0xbc62ad23	-0.013835224
33	0xbcc077f2	-0.023494694
34	0x3d078ec6	0.033095144
35	0x3cd9b55a	0.026575733
36	0xbcb77f61	-0.022399606
37	0x3cf5556f	0.029947964
38	0xbcc1577a	-0.023601282
39	0xbd00b315	-0.031420786
40	0x3cf489a1	0.029850783
41	0xbcf8672e	-0.030322637
42	0xbcf4709c	-0.029838853
43	0xbc6aa88d	-0.014322412
44	0x3bb9f932	0.0056754583
45	0xbcfccb4b	-0.030858656
46	0xbc663544	-0.014050785
47	0x3beab92d	0.007163188
48	0x3c454785	0.012040977
49	0x3bf198b2	0.007372939
50	0xbc2cfddb	-0.010558571
51	0x3c2fc0ba	0.010727102
52	0x3ced3677	0.028956635
53	0x3c71383d	0.014722881
54	0xbcba57f4	-0.022747017
55	0xbc506a73	-0.012720692
56	0x3d07609e	0.033051126
57	0x3be45e90	0.0069692805
58	0x3c7bf752	0.01537879
59	0xbc706db9	-0.014674597
60	0xbcd6d557	-0.026224775
61	0x3a25ce06	0.00063249504
62	0xbc9a4bc3	-0.018834954
63	0xbc671fd3	-0.014106709

fc.2.running_mean f4 [64]
0	0x46b04add	22565.432
1	0x00000000	0.0
2	0x00000000	0.0
3	0x00000000	0.0
4	0x00000000	0.0
5	0x00000000	0.0
6	0x00000000	0.0
7	0x472fdf6e	45023.43
8	0x46328916	11426.271
9	0x00000000	0.0
10	0x00000000	0.0
11	0x00000000	0.0
12	0x00000000	0.0
13	0x461705c1	9665.438
14	0x44922630	1169.1934
15	0x00000000	0.0
16	0x46903a3f	18461.123
17	0x472d1176	44305.46
18	0x46314adf	11346.718
19	0x45c7af64	6389.924
20	0x00000000	0.0
21	0x2f2b4fbb	1.5580685e-10
22	0x00000000	0.0
23	0x00000000	0.0
24	0x00000000	0.0
25	0x00000000	0.0
26	0x00000000	0.0
27	0x00000000	0.0
28	0x461cd562	10037.346
29	0x470ee452	36580.32
30	0x00000000	0.0
31	0x00000000	0.0
32	0x00000000	0.0
33	0x00000000	0.0
34	0x00000000	0.0
35	0x00000000	0.0
36	0x00000000	0.0
37	0x00000000	0.0
38	0x00000000	0.0
39	0x2fa7d8c5	3.0531147e-10
40	0x468598f4	17100.477
41	0x00000000	0.0
42	0x00000000	0.0
43	0x45d5b66a	6838.802
44	0x467ae386	16056.881
45	0x44d588eb	1708.2787
46	0x468009e8	16388.953
47	0x00000000	0.0
48	0x00000000	0.0
49	0x00000000	0.0
50	0x00000000	0.0
51	0x47461935	50713.207
52	0x00000000	0.0
53	0x00000000	0.0
54	0x46b0f8c7	22652.389
55	0x46645ef4	14615.738
56	0x00000000	0.0
57	0x00000000	0.0
58	0x00000000	0.0
59	0x46476736	12761.803
60	0x00000000	0.0
61	0x4723db8a	41947.54
62	0x00000000	0.0
63	0x44e2b32f	1813.5995

fc.2.running_var f4 [64]
0	0x46431cc9	12487.196
1	0x29e3b80c	1.0112752e-13
2	0x29e3b80c	1.0112752e-13
3	0x29e3b80c	1.0112752e-13
4	0x29e3b80c	1.0112752e-13
5	0x29e3b80c	1.0112752e-13
6	0x29e3b80c	1.0112752e-13
7	0x477e973f	65175.246
8	0x470abc17	35516.09
9	0x29e3b80c	1.0112752e-13
10	0x29e3b80c	1.0112752e-13
11	0x29e3b80c	1.0112752e-13
12	0x29e3b80c	1.0112752e-13
13	0x4718bc9c	39100.61
14	0x469f3425	20378.072
15	0x29e3b80c	1.0112752e-13
16	0x47d26a39	107732.445
17	0x47dd6ede	113373.734
18	0x4724556f	42069.434
19	0x471fc28e	40898.555
20	0x29e3b80c	1.0112752e-13
21	0x29e3b80c	1.0112752e-13
22	0x29e3b80c	1.0112752e-13
23	0x29e3b80c	1.0112752e-13
24	0x29e3b80c	1.0112752e-13
25	0x29e3b80c	1.0112752e-13
26	0x29e3b80c	1.0112752e-13
27	0x29e3b80c	1.0112752e-13
28	0x471b8069	39808.41
29	0x4647f6d7	12797.71
30	0x29e3b80c	1.0112752e-13
31	0x29e3b80c	1.0112752e-13
32	0x29e3b80c	1.0112752e-13
33	0x29e3b80c	1.0112752e-13
34	0x29e3b80c	1.0112752e-13
35	0x29e3b80c	1.0112752e-13
36	0x29e3b80c	1.0112752e-13
37	0x29e3b80c	1.0112752e-13
38	0x29e3b80c	1.0112752e-13
39	0x29e3b80c	1.0112752e-13
40	0x48450818	201760.38
41	0x29e3b80c	1.0112752e-13
42	0x29e3b80c	1.0112752e-13
43	0x4711f372	37363.445
44	0x45ea450b	7496.6304
45	0x4581e5f6	4156.745
46	0x45b54fd0	5801.9766
47	0x29e3b80c	1.0112752e-13
48	0x29e3b80c	1.0112752e-13
49	0x29e3b80c	1.0112752e-13
50	0x29e3b80c	1.0112752e-13
51	0x47229261	41618.38
52	0x29e3b80c	1.0112752e-13
53	0x29e3b80c	1.0112752e-13
54	0x46d44c47	27174.139
55	0x47cba100	104258.0
56	0x29e3b80c	1.0112752e-13
57	0x29e3b80c	1.0112752e-13
58	0x29e3b80c	1.0112752e-13
59	0x46c7abf0	25557.969
60	0x29e3b80c	1.0112752e-13
61	0x4712adbd	37549.74
62	0x29e3b80c	1.0112752e-13
63	0x468f9377	18377.732

fc.3.weight f4 [64, 64]
0	0x3db4f77e	0.08836268
1	0xbd402b4a	-0.046916284
2	0xbd94a16f	-0.072573535
3	0x3d936f00	0.07198906
4	0x3dee01c9	0.11621434
5	0x3da95034	0.08267251
6	0x3d7332de	0.059374683
7	0x3d982524	0.07428959
8	0xbd9e8ee1	-0.07742096
9	0x3d1ffe3b	0.039060812
10	0xbdd93570	-0.106058955
11	0xbdd2703b	-0.102753125
12	0xbd66825c	-0.056276664
13	0xbdcad6bd	-0.09904239
14	0x3d9d9db5	0.07696096
15	0xbc53f4d1	-0.012936787
16	0x3d010058	0.03149447
17	0xbde02ff7	-0.109466486
18	0x3c12dcc7	0.00896377
19	0xbd8a0e7f	-0.06741046
20	0xbd46feb5	-0.04858275
21	0xbdd509c2	-0.10402252
22	0x3be3691d	0.0069400207
23	0x3cdce31c	0.026963763
24	0xbd389e32	-0.04507274
25	0x3db6a862	0.08918835
26	0xbb7c8812	-0.0038533253
27	0xbd747342	-0.05968023
28	0xbcf75c70	-0.030195445
29	0x3cc4e389	0.024034278
30	0xbde1150d	-0.10990343
31	0x3de9fad2	0.11424793
32	0x3d19afbb	0.037521105
33	0xbd629d85	-0.055326004
34	0xbd1b7a16	-0.037958227
35	0x3dd827a1	0.105544336
36	0x3df3f188	0.11911303
37	0xbdcfe1cb	-0.101504885
38	0xbd07d0a9	-0.03315798
39	0x3db41240	0.087925434
40	0xbd9774e2	-0.073953405
41	0xbdf0aa00	-0.11751175
42	0xbd3c2343	-0.045932066
43	0xbc449301	-0.011997939
44	0x3cf78a00	0.03021717
45	0x3d3b2108	0.045685798
46	0xbd08131b	-0.033221345
47	0xbdca18a3	-0.0986798
48	0x3d7623b6	0.06009265
49	0x3df19ef5	0.11797897
50	0x3d572cb2	0.05253286
51	0xbc6340ff	-0.013870477
52	0x3d8caa76	0.0686845
53	0x3cb7c2c2	0.022431735
54	0x3dab72ee	0.083715305
55	0xbd6ec25f	-0.058290835
56	0xbdebdf15	-0.11517159
57	0x3c9c88dc	0.019108228
58	0xbc90952a	-0.017649252
59	0x3da7ca37	0.08192866
60	0xbcf2e515	-0.02965025
61	0xbd1a3b32	-0.03765411
62	0xbdd86cc6	-0.10567622
63	0xbc118065	-0.008880709
64	0xbd96f9f0	-0.073718905
65	0xbcdf0d41	-0.027228
66	0xbd9029fe	-0.070392594
67	0xbd5c4df5	-0.053785283
68	0x3dd42462	0.10358502
69	0xbe0ef99f	-0.1396241
70	0x3bdf109f	0.0068074013
71	0xbd997226	-0.07492475
72	0x3e003b02	0.1252251
73	0x3d8a8618	0.067638576
74	0xbdce798c	-0.10081777
75	0x3ca976d6	0.020686548
76	0xbda71683	-0.08158591
77	0x3d752405	0.059848804
78	0x3bc5de7f	0.0060384865
79	0x3d92b962	0.07164265
80	0xbd8ec251	-0.06970657
81	0x3daa9f63	0.08331182
82	0xbe01e5a2	-0.12685254
83	0xbd48aa14	-0.048990324
84	0x3dd419db	0.10356494
85	0x3d93277a	0.07185264
86	0x3d69dce3	0.05709542
87	0xbd30e097	-0.043182936
88	0xbd535752	-0.051596947
89	0xbdd22c2a	-0.1026233
90	0x3e1de12c	0.15417928
91	0x3dbd56f1	0.092450984
92	0x3e165ab1	0.14683034
93	0xbdbd3c39	-0.09240002
94	0x3d97cce3	0.07412126
95	0xbdc66693	-0.09687533
96	0xbdcc2d53	-0.099695824
97	0x3c7a22fc	0.01526713
98	0xbd0f0b27	-0.034922745
99	0x3e1db8c3	0.15402512
100	0x3d31321c	0.04326068
101	0x3de08ad8	0.10963982
102	0x3d1f269e	0.038855188
103	0xbe025c87	-0.12730609
104	0x3dd24137	0.10266345
105	0x3daace78	0.08340162
106	0xbc9089b8	-0.017643794
107	0xbdfaa151	-0.122378
108	0x3dbb92b7	0.09158843
109	0xbd9ca9df	-0.07649588
110	0x3d61c772	0.055121846
111	0x3b928095	0.0044708946
112	0x3db50c58	0.08840245
113	0x3cc2568e	0.023722913
114	0xbc6c49b5	-0.01442187
115	0xbdbbb7f7	-0.09165948
116	0xbd908e5a	-0.070584014
117	0x3d203c8c	0.039120242
118	0xbd9a7920	-0.07542634
119	0xbd9032c6	-0.07040934
120	0x3e09245e	0.13392779
121	0xbd13bbb6	-0.036067687
122	0x3d1d84f8	0.038456887
123	0xbd8745a8	-0.06605083
124	0x3da5620c	0.080753416
125	0xbc4a8b76	-0.012362352
126	0xbc9be23a	-0.019028772
127	0x3bfb2857	0.007664721
128	0xbd19e0fa	-0.03756807
129	0x3d037b80	0.0321002
130	0x3d324857	0.04352602
131	0xbdc17f1b	-0.094480716
132	0xbd4833a0	-0.04887736
133	0xbe14000c	-0.14453143
134	0x3d0a3654	0.033743218
135	0xbd15d2ba	-0.036577918
136	0xbd7bf798	-0.06151542
137	0x3db42f53	0.08798089
138	0xbe0a60ef	-0.1351354
139	0xbd71d2fa	-0.059039094
140	0x3dbd0dd3	0.092311524
141	0x3c030110	0.007995859
142	0xbdf6fff3	-0.12060537
143	0x3da133e3	0.07871225
144	0xbcfd6d64	-0.03093595
145	0xbdadae32	-0.08480491
146	0x3dc8ce1f	0.098049395
147	0x3d2b620a	0.041841544
148	0x3debd1b6	0.115146086
149	0xbc7a627c	-0.01528227
150	0xbd2c7b84	-0.04210998
151	0xbd37cdef	-0.044874128
152	0x3d76ca08	0.060251266
153	0x3d8be23a	0.06830259
154	0x3d8fc7b4	0.07020512
155	0x3d6048d5	0.054756958
156	0x3d07c1bf	0.033143755
157	0xbd4183f5	-0.047244985
158	0xbd36f5cc	-0.044668004
159	0xbc9431d9	-0.018090175
160	0xbdc23c04	-0.09484103
161	0x3dd863ae	0.105658874
162	0x3deeac36	0.116539404
163	0xbd64b22f	-0.05583399
164	0x3d584d13	0.05280788
165	0xb689e2c0	-4.1093153e-06
166	0x3d88a2f3	0.06671705
167	0xbd9f10aa	-0.0776685
168	0x3dd0599f	0.10173344
169	0xbd48a7c7	-0.04898813
170	0x3d910bfc	0.07082364
171	0x3df82125	0.12115697
172	0x3cc63281	0.024194004
173	0xbc2bb36a	-0.010479787
174	0xbc82657e	-0.015917536
175	0xbe000215	-0.12500794
176	0x3ce50d4c	0.027960442
177	0x3d1a53b0	0.037677467
178	0xbd825459	-0.06363744
179	0x3c90a7a8	0.01765807
180	0x3ddf3a43	0.108997844
181	0xbdd0a3a1	-0.1018746
182	0x3df12270	0.117741466
183	0x3cfccdc1	0.03085983
184	0x3d975892	0.0738994
185	0x3cf3f574	0.029780127
186	0x3dfb4462	0.12268902
187	0x3dddc2e8	0.10828191
188	0x3d2e36b4	0.042532638
189	0xbba40f61	-0.005006716
190	0xbd5db732	-0.054129787
191	0xbdb73264	-0.08945158
192	0xbe00fce2	-0.12596467
193	0xbdd993be	-0.10623883
194	0x3e02b0fe	0.1276283
195	0xbe0f0432	-0.13966444
196	0x3dd25e72	0.1027192
197	0xbe09f2cf	-0.1347153
198	0x3e05c0b8	0.13061798
199	0x3d502477	0.050816026
200	0x3d3709ff	0.044687267
201	0xbc8b50a9	-0.017006235
202	0xbd0468b0	-0.0323264
203	0x3e01144f	0.12605403
204	0xbb82ef90	-0.003995843
205	0x3cb07f0a	0.021544952
206	0x3d3888c8	0.04505232
207	0x3da4bda0	0.080439806
208	0xbd8be88d	-0.06831465
209	0x3d94149c	0.072304934
210	0xbcd406d6	-0.025882166
211	0xbd98fbb8	-0.074698865
212	0x3d85bb0e	0.065298185
213	0x3c9ec306	0.019380104
214	0xbd9bb680	-0.076031685
215	0xbde68d59	-0.11257429
216	0xbdf4c5b5	-0.11951772
217	0xbdcda633	-0.100414656
218	0x3e074c50	0.13212705
219	0x3dc144cd	0.09436951
220	0xbdb7db7b	-0.089774095
221	0x3dccce67	0.100003056
222	0xbd14ecd9	-0.036358688
223	0xbc5a81fc	-0.013336655
224	0x3d618198	0.05505523
225	0x3db34d46	0.08754973
226	0x3c8d3099	0.017235087
227	0x3cf30585	0.029665718
228	0x3a6a6053	0.0008940745
229	0xbdd672ae	-0.10471092
230	0xbc8ede45	-0.01743997
231	0xbe032c5c	-0.1280989
232	0x3dd8e1f8	0.10589975
233	0xbde84547	-0.113413386
234	0x3c62218f	0.013801946
235	0x3daf32dd	0.08554623
236	0x3dafb64b	0.085796915
237	0xbdfb3a39	-0.122669645
238	0xbd17965c	-0.03700863
239	0x3d8fb86a	0.07017596
240	0xbda50f2c	-0.080595344
241	0x3c3ff79e	0.011716751
242	0xbd78b0f8	-0.060715646
243	0x3cb84ffe	0.02249908
244	0x3d86dae5	0.065847196
245	0x3d26888d	0.04065757
246	0x3ce2b8af	0.027675955
247	0xbd30932c	-0.043109104
248	0xbdaa446e	-0.08313833
249	0x3d986497	0.07441061
250	0x3df2219c	0.11822817
251	0x3d97fed4	0.074216515
252	0xbe0d0e48	-0.13774979
253	0xbd711778	-0.058860272
254	0xbdca8d5b	-0.09890243
255	0xbdc8aa5a	-0.09798117

fc.3.bias f4 [64]
0	0x3cd0b9ec	0.02547928
1	0x3c781c7f	0.015143513
2	0xbc1a8025	-0.009429966
3	0xbd7cc0e6	-0.0617074
4	0xbd2408b8	-0.040047377
5	0x3df3b27a	0.11899276
6	0xbd68c14d	-0.05682497
7	0xbdf1c324	-0.11804798
8	0x3d5f7bc7	0.054561403
9	0x3d8c2593	0.06843104
10	0x3da417ea	0.08012374
11	0x3dd6261e	0.10456489
12	0x3d425430	0.04744357
13	0x3d001cba	0.031277396
14	0x3d08a754	0.0333627
15	0x3d05d46b	0.03267328
16	0xbd07c5b2	-0.03314752
17	0x3c828673	0.015933251
18	0x3d53c094	0.05169733
19	0x3d1e5735	0.038657386
20	0x3d6329f3	0.055459928
21	0x3db4f4bf	0.08835744
22	0xbaa201a5	-0.0012360109
23	0x3d89eb4a	0.06734331
24	0x3dc61488	0.09671885
25	0x3dcbc38b	0.09949406
26	0xbd7be427	-0.06149688
27	0xbc50abe9	-0.012736299
28	0x3d9a27d8	0.07527131
29	0x3c174c7b	0.009234543
30	0x3df08b46	0.11745314
31	0xbd02f526	-0.031972073
32	0xbda8e9ba	-0.08247705
33	0x3d59c8a4	0.05316986
34	0xbd912ff4	-0.070892245
35	0xbdd28b50	-0.10280478
36	0xbc92c217	-0.017914815
37	0x3da60d59	0.081080146
38	0x3e0c9bf9	0.13731374
39	0x3c8b2e13	0.016989743
40	0x3da6dc82	0.08147527
41	0xbd9d9357	-0.076941185
42	0x3de4826e	0.1115769
43	0x3bf509c5	0.0074779713
44	0xbd0ef49d	-0.03490125
45	0xbc221b11	-0.009894148
46	0x3e077e29	0.1323172
47	0x3db0fb46	0.086416766
48	0xbd1d6c7a	-0.03843353
49	0x3daba230	0.08380544
50	0x3d83a40a	0.06427772
51	0x3dd1bc86	0.10241036
52	0x3db8aea3	0.09017684
53	0x3d8ce9fc	0.068805665
54	0x3ccaf5df	0.024775444
55	0x3d222133	0.039582442
56	0xbdb8df2c	-0.09026942
57	0x3da78a74	0.08180705
58	0x3d3b80ab	0.045777004
59	0x3d91fedb	0.07128688
60	0x3d1cf27d	0.038317192
61	0xbd7b917a	-0.061418034
62	0xbd9429b6	-0.07234518
63	0xbbbc7de4	-0.005752312

placing_layer.0.weight f4 [8, 64]
0	0x3dbbd2ca	0.09171064
1	0x3d1c0184	0.038087383
2	0xbdbffaa1	-0.093739755
3	0xbd2cb602	-0.042165764
4	0xbd3e3090	-0.04643303
5	0xbdef6f73	-0.11691179
6	0xbda038d0	-0.07823336
7	0xbdaa4ce4	-0.08315447
8	0xbdf2e261	-0.118595846
9	0x3aaa2023	0.0012979548
10	0x3cb54de0	0.02213186
11	0xbdbb8b84	-0.0915747
12	0xbd6cd9e5	-0.057824988
13	0xbc93f6fb	-0.018062105
14	0xbd8446b6	-0.064587995
15	0xbd582c97	-0.0527769
16	0xbdde1699	-0.10844154
17	0x3db838b8	0.08995193
18	0xbe0dac1b	-0.13835184
19	0x3d165840	0.036705256
20	0xbdfb355f	-0.12266039
21	0xbdd3cf9a	-0.10342331
22	0x3d65690a	0.056008376
23	0x3db40358	0.087897
24	0x3db86845	0.09004263
25	0x3da3b790	0.07993996
26	0xbe01db66	-0.1268135
27	0x3d46cd8d	0.048535872
28	0xbddbd6aa	-0.10734303
29	0x3c56bb96	0.013106247
30	0xbdc4e286	-0.096135184
31	0xbcbbe434	-0.022935964
32	0xbd8e04f2	-0.06934537
33	0xbd16e4b4	-0.036839202
34	0x3da5afa8	0.080901444
35	0x3deaa091	0.11456407
36	0xbb2a40aa	-0.0025978484
37	0xbdfaba35	-0.122425474
38	0x3dc98dd0	0.09841502
39	0xbccc9a98	-0.02497606
40	0xbd808dbd	-0.062770344
41	0x3d802ae3	0.0625818
42	0x3daa7b36	0.08324282
43	0xbd8de619	-0.06928653
44	0x3c315a6a	0.010824779
45	0xbde123ea	-0.10993178
46	0xbd402a6d	-0.04691546
47	0x3d5631f5	0.052293736
48	0xbcbe1f0d	-0.023208166
49	0xbdfe5db0	-0.12420213
50	0xbdcfe89f	-0.10151791
51	0x3d9e5da2	0.07732703
52	0xbd723ab3	-0.05913801
53	0xbd7d1e94	-0.06179674
54	0x3d17c92c	0.037057087
55	0xbdb4d4f6	-0.088296816
56	0xbc97c60b	-0.018527051
57	0x3d711c01	0.058864597
58	0xbd48b62a	-0.04900185
59	0x3d3a3038	0.04545614
60	0xbc7540e4	-0.014969084
61	0xbcef9d21	-0.02924973
62	0xbd283ab4	-0.04107161
63	0xbdc87c42	-0.09789325
64	0x3dfaa1a6	0.12237863
65	0x3d7bada2	0.061444886
66	0x3d301cb1	0.042996112
67	0x3d12a1a4	0.035798684
68	0xbdaab479	-0.08335204
69	0x3db9852e	0.09058605
70	0x3d5a37ea	0.05327598
71	0xbcd68b3c	-0.026189439
72	0x3e07bd45	0.13255794
73	0xbd717382	-0.058948047
74	0x3db1a63c	0.08674285
75	0xbd76621d	-0.060152162
76	0xbd34fe56	-0.044187866
77	0xbd0891ca	-0.03334216
78	0xbc94c2cd	-0.018159295
79	0x3db1ce09	0.08681876
80	0x3e02c9b0	0.1277225
81	0x3c28dbf5	0.010306348
82	0x3e010c5d	0.12602372
83	0xbba7ccbf	-0.005120843
84	0xbd8fc0f6	-0.07019226
85	0xbd47de1e	-0.04879581
86	0xbd631fa4	-0.055450097
87	0xbdd6020a	-0.10449608
88	0xbb8fec63	-0.004392193
89	0x3dcf4661	0.101208456
90	0x3df457ae	0.11930786
91	0x3d773e6b	0.06036226
92	0x3dac9f33	0.08428802
93	0xbd3a0c23	-0.04542173
94	0xbd3d10a7	-0.04615846
95	0xbd7b146f	-0.061298784
96	0x3e10b79e	0.14132544
97	0x3da08432	0.07837714
98	0xbcd5bc3f	-0.02609074
99	0x3dc90c45	0.09816793
100	0x3d01e4fa	0.03171251
101	0x3c1affec	0.009460431
102	0xbac6a101	-0.0015154184
103	0x3db3c381	0.08777524
104	0x3d7b1028	0.061294705
105	0x3d1aaaaa	0.037760414
106	0xbca48884	-0.020084627
107	0x3dd83aa9	0.105580635
108	0xbd4f7af4	-0.050654367
109	0xbc0c779a	-0.008573437
110	0x3b40effc	0.0029439917
111	0xbcd2b95d	-0.025723154
112	0xbd23bb9b	-0.039973836
113	0x3c5cf09f	0.013485103
114	0xbc3a3640	-0.011365473
115	0xbc78a547	-0.015176124
116	0x3d292f92	0.041305132
117	0xbdc7a9a8	-0.09749156
118	0x3c898ea4	0.01679165
119	0xbdc764f9	-0.09736056
120	0x3cae886d	0.021305287
121	0x3c27a5e2	0.010232421
122	0x3e0ce5fe	0.1375961
123	0x3e0c0289	0.13672842
124	0x3d98ba5e	0.07457422
125	0xbcff2e55	-0.031150023
126	0x3ddfef39	0.109343
127	0xba83b563	-0.0010048564
128	0xbe01d4fd	-0.12678905
129	0xbd51308d	-0.051071692
130	0x3d56e1d2	0.052461453
131	0x3dabca39	0.0838818
132	0xbdd9d123	-0.10635593
133	0xbdc1dc13	-0.09465804
134	0xbc2ea84d	-0.010660243
135	0xbca8dfd8	-0.02061455
136	0x3dcd7060	0.100311995
137	0xbdf775f2	-0.12083043
138	0xbd91c81a	-0.071182445
139	0xbdb3da3c	-0.08781859
140	0x3c8f24b1	0.01747355
141	0xbd2679a6	-0.040643357
142	0xbbddbb58	-0.006766718
143	0xbdb622b5	-0.088933386
144	0x3d0ff5b9	0.03514645
145	0xbc3e6160	-0.011619896
146	0x3debd446	0.11515097
147	0xbdc72d6c	-0.097254604
148	0xbc525534	-0.012837697
149	0xbdbc3e92	-0.09191622
150	0x3b4ea7af	0.0031533053
151	0x3d34b58d	0.044118453
152	0x3d09f33b	0.03367923
153	0xbdc301c6	-0.09521823
154	0xbda144e3	-0.07874467
155	0xbdd0ded1	-0.10198749
156	0xbd9b7a68	-0.075917065
157	0xbb59d2a6	-0.0033237129
158	0xbccb6720	-0.024829447
159	0x3d89645a	0.06708594
160	0x3d23270c	0.03983216
161	0xbc71b8bf	-0.01475352
162	0xbd6ca073	-0.057770204
163	0xbddada89	-0.106862135
164	0x3ccad52a	0.024759848
165	0xbde93589	-0.11387164
166	0xbc1d7ab4	-0.009611774
167	0x3cb11785	0.02161766
168	0x3ccc5139	0.024941074
169	0x3d9047d6	0.070449516
170	0x3d6d091f	0.057870027
171	0xbda47d0b	-0.080316626
172	0xbd7846aa	-0.060614266
173	0xbbdc1bea	-0.006717195
174	0xbdb2dccb	-0.08733519
175	0x3d3c1463	0.04591788
176	0xbd85f60b	-0.065410696
177	0x3d8a52a2	0.06754042
178	0x3d827ebc	0.06371829
179	0x3dbf144a	0.09330042
180	0x3d93d8ef	0.07219111
181	0x3d4de324	0.050265446
182	0xbe022ff3	-0.12713604
183	0x3deae2ff	0.11469077
184	0x3dc172b7	0.09445708
185	0xbcba62c4	-0.022752173
186	0xbd8b6e37	-0.06808131
187	0xbdbb4df8	-0.09145731
188	0x3dcbf281	0.09958363
189	0x3ab32328	0.0013667094
190	0xbd4ec133	-0.050477218
191	0xbcc2125f	-0.0236904
192	0x3d0dad88	0.03458932
193	0xbc3752d0	-0.011189178
194	0xbcdc017f	-0.026856182
195	0xbdeb45da	-0.114879325
196	0xbde067e4	-0.109573156
197	0xbcc7a665	-0.024371335
198	0x3c989ca7	0.018629385
199	0xbc4a9319	-0.012364172
200	0xbddfe2c1	-0.10931922
201	0x3dd433ad	0.10361419
202	0x3d8b9df2	0.06817235
203	0xbd91b3bf	-0.07114362
204	0xbd36a695	-0.04459246
205	0x3d9273dc	0.07151005
206	0xbdb0e776	-0.08637898
207	0x39f1b58a	0.0004610236
208	0x3d81eda6	0.06344156
209	0x3d016dc6	0.03159883
210	0xbd89d8d2	-0.06730808
211	0x3dc53558	0.09629315
212	0xbdd4ad9a	-0.10384674
213	0x3dac18c8	0.08403164
214	0xbd8650ca	-0.06558378
215	0xbd96e56b	-0.07367977
216	0x3cb2a8c8	0.021808997
217	0xbc159d98	-0.009131812
218	0xbdc2067c	-0.09473893
219	0xbd09ee42	-0.033674486
220	0xbcf8c73a	-0.030368436
221	0x3d7537a7	0.059867527
222	0xbdd55daa	-0.104182556
223	0xbb15e680	-0.0022872984
224	0x3dd2c18f	0.102908246
225	0xbc1f5343	-0.009724441
226	0x3b592708	0.0033134837
227	0xbd31d8df	-0.043419715
228	0xbd396b37	-0.045268264
229	0xbcebbe10	-0.028777152
230	0xbd5f71e4	-0.054551974
231	0x3dbd6ee1	0.09249664
232	0x3ddd1829	0.10795624
233	0xbdeb3b62	-0.11485936
234	0xbd95c6ac	-0.07313284
235	0xbdf1a342	-0.11798717
236	0xbcb65c1d	-0.02226072
237	0x3c599cc8	0.0132820085
238	0x3dcb7572	0.0993451
239	0xbb072336	-0.0020620353
240	0xbde6d537	-0.11271136
241	0xbcc299ef	-0.023755042
242	0xbdf741b6	-0.1207308
243	0xbc8aab51	-0.016927393
244	0x3d345387	0.04402497
245	0x3d81166d	0.063031055
246	0x3da51f57	0.08062618
247	0x3dc5bb9c	0.09654924
248	0xbd3ef6dc	-0.046622142
249	0x3df61682	0.12016012
250	0xbc9acebe	-0.01889741
251	0xbcb21308	-0.02173759
252	0x3d05daa8	0.03267923
253	0xbbcff068	-0.0063457973
254	0x3b276eba	0.0025548176
255	0xbdf82242	-0.12115909

placing_layer.0.bias f4 [8]
0	0x3d8a9311	0.06766332
1	0xbc1a2bd2	-0.009409862
2	0xbc92de5e	-0.017928299
3	0xbd89d3c7	-0.067298464
4	0xbcaf5168	-0.021401122
5	0x3dc20a84	0.09474662
6	0xbdae61b2	-0.08514728
7	0x3d8b210c	0.067934126

placing_layer.1.weight f4 [8, 64]
0	0xbb8624e8	-0.004093755
1	0xbdae4d1e	-0.08510803
2	0x3d10f9b3	0.03539438
3	0x3ce8d620	0.028422415
4	0x3dd678a7	0.10472231
5	0x3d12f3e3	0.03587712
6	0x3dca459e	0.0987656
7	0x3bb3ee6f	0.00549107
8	0x3c0af45c	0.008481111
9	0xbdf49fb0	-0.119445205
10	0xbd8a32f5	-0.067480005
11	0x3d8da928	0.069170296
12	0xbd3e4794	-0.04645498
13	0x3cb903ec	0.022584878
14	0xbdf3331d	-0.118749835
15	0xbdfa285d	-0.1221473
16	0xbd898fef	-0.06716906
17	0x3da3e037	0.0800175
18	0x3d9b355a	0.075785354
19	0xbd97988b	-0.07402142
20	0x3ca75391	0.02042559
21	0xbd9bfe88	-0.07616907
22	0x3d044277	0.03228995
23	0xbd8d6c7e	-0.06905459
24	0xbe0cdc30	-0.1375587
25	0xbd90878c	-0.070571035
26	0xbc010dcd	-0.0078768255
27	0xbcc7893e	-0.024357434
28	0xbd710561	-0.05884302
29	0x3c9c4331	0.019075008
30	0xbde0159b	-0.10941621
31	0x3c28aef0	0.010295615
32	0xbdec3526	-0.11533575
33	0x3d12ad47	0.03580978
34	0xbde211fc	-0.110385865
35	0xbe0366d4	-0.12832195
36	0x3cddcff1	0.027076693
37	0xbcb7cd42	-0.022436742
38	0xbc612d75	-0.013743748
39	0xbdcd9d45	-0.100397624
40	0xbdbdcf45	-0.09268049
41	0xbdeaedb0	-0.114711165
42	0x3d9552e1	0.072911985
43	0xbdfe5483	-0.12418463
44	0x3bc47a02	0.00599599
45	0xbcee781e	-0.02911001
46	0x3db7c1db	0.08972522
47	0xbd45ac00	-0.048259735
48	0xbd8dd565	-0.069254674
49	0x3cd43b72	0.025907252
50	0x3dc33ac0	0.0953269
51	0x3dbfb291	0.09360231
52	0xbd881a6a	-0.06645663
53	0x3cd6514c	0.026161812
54	0x3cee222a	0.029069025
55	0xbc1d048f	-0.009583606
56	0xbd9a978b	-0.07548436
57	0x3c8bcc35	0.017065147
58	0x3a90483e	0.0011007858
59	0xbda94a97	-0.0826618
60	0x3d0c5155	0.03425725
61	0x3da12408	0.078682005
62	0xbd52519c	-0.05134736
63	0xbcac0656	-0.020999115
64	0x3cfa760b	0.030573865
65	0xbdf827a1	-0.121169336
66	0x3daa8f12	0.0832807
67	0xbd7ee9f3	-0.06223483
68	0x3db54645	0.088512935
69	0xbe0a1e52	-0.13488129
70	0xbd407182	-0.04698325
71	0x3cb35dac	0.021895252
72	0x3d18ef9b	0.03733788
73	0x3db23a5e	0.08702539
74	0xbd6637d6	-0.056205593
75	0x3c4580cf	0.012054636
76	0xbcb153f4	-0.021646477
77	0x38bba971	8.948416e-05
78	0xbddcd45e	-0.10782693
79	0x3d9114ee	0.0708407
80	0xbdef6e12	-0.11690916
81	0xbd08615c	-0.033295974
82	0x3dd37764	0.10325506
83	0xbd132a3f	-0.03592896
84	0xbd693ca8	-0.056942612
85	0xbd97e247	-0.07416206
86	0x3dbd3562	0.092386976
87	0xbd42bd42	-0.04754377
88	0xbd1e19b4	-0.03859873
89	0x3d3d7cd9	0.046261642
90	0xbd990be6	-0.074729726
91	0xbd9adaa7	-0.07561236
92	0xbc68cc46	-0.014208859
93	0xbcc698af	-0.024242727
94	0xbddf71aa	-0.109103516
95	0xbcb91956	-0.022595089
96	0x3d0c3ebd	0.03423952
97	0x3d2ead0b	0.042645495
98	0xbddb9b03	-0.107229255
99	0x3cd80a18	0.026372
100	0x3db5c8cb	0.08876189
101	0x3dd6fa48	0.10496956
102	0xbdb1aad3	-0.0867516
103	0xbd1f97f7	-0.038963284
104	0xbcf56bb4	-0.029958583
105	0xbdbbf785	-0.0917807
106	0x3d1c9126	0.03822436
107	0x3d33cdcf	0.043897446
108	0xbdc576f4	-0.09641829
109	0xbbdda4d7	-0.006764035
110	0x3db6e27b	0.089299165
111	0xb9bc25ab	-0.0003588622
112	0x3c16d028	0.009204902
113	0xbd9e4cb1	-0.077294715
114	0xbd17220b	-0.0368977
115	0xbde68c0d	-0.11257181
116	0x3d1dbbb4	0.038509086
117	0xbceda642	-0.029009942
118	0x3dad47c3	0.08460953
119	0x3ce4843f	0.027895091
120	0x3da897a2	0.08232047
121	0xbd01887d	-0.031624306
122	0x3d81cd81	0.06338025
123	0x3da4623a	0.08026548
124	0xbd27dc10	-0.040981352
125	0x3ddbb96a	0.10728724
126	0xbd308ed0	-0.043104947
127	0x3cc80f31	0.024421306
128	0xbdcb3e1f	-0.09923958
129	0xbda4c1f4	-0.08044806
130	0x3dd76387	0.1051703
131	0x3be6a082	0.007038177
132	0x3e1070f8	0.14105594
133	0x3d36a21f	0.044588204
134	0x3d88983d	0.06669662
135	0x3d81b81f	0.063339464
136	0xbaf040bc	-0.0018329839
137	0xbde3a029	-0.111145325
138	0x3c1a194d	0.009405446
139	0x3d119355	0.035540897
140	0x3da2a8dc	0.079423636
141	0x3ccca203	0.024979597
142	0xbdf18ab4	-0.11794034
143	0x3d391155	0.045182545
144	0x3ca28170	0.019837111
145	0x3c10d48c	0.008839738
146	0x3d714fc9	0.05891398
147	0x3e0705b4	0.1318577
148	0xbd61b29e	-0.055101983
149	0xbd8aa6e2	-0.067701116
150	0x3cc3b4e5	0.023889968
151	0xbdaf02f4	-0.08545485
152	0xbd007a1c	-0.031366453
153	0xbd606269	-0.05478135
154	0x3d978d04	0.073999435
155	0x3cdd103f	0.026985286
156	0x3e031918	0.12802541
157	0xbd16e5ca	-0.036840238
158	0x3c9056d3	0.017619526
159	0xbd5b880e	-0.05359655
160	0x3d84800e	0.06469737
161	0x3d957c43	0.07299092
162	0x3dc5b8c5	0.096543826
163	0x3c273c0a	0.0102071855
164	0x3db219a9	0.086963005
165	0x3d47e7ba	0.048804976
166	0xbd3d697a	-0.04624317
167	0xbd34cdb3	-0.044141483
168	0xbdd0535a	-0.10172148
169	0xbd6e3868	-0.058159262
170	0xbdc95495	-0.09830586
171	0xbbe543a0	-0.006996587
172	0xbb91900c	-0.0044422206
173	0x3dab326b	0.08359226
174	0x3df4f8b8	0.11961502
175	0x3cd896da	0.02643912
176	0xbc61599b	-0.013754274
177	0x3d341a49	0.04397038
178	0x3de9c9d9	0.114154525
179	0x3dcd2c9a	0.10018273
180	0xbde7e559	-0.113230415
181	0xbde0c870	-0.109757304
182	0x3d02a920	0.03189957
183	0x3da83813	0.0821382
184	0x3df9e8b5	0.122025885
185	0x3e059457	0.13044868
186	0xbcf258cf	-0.029583363
187	0x3d1b1976	0.03786608
188	0x3db4b969	0.08824427
189	0x3cc55b26	0.024091315
190	0x3dd5b5e8	0.104350865
191	0x3d0ddb40	0.03463292
192	0xbcc0527b	-0.02347683
193	0x3d6dda71	0.05806965
194	0xbdca2f63	-0.098723195
195	0x3dd1f270	0.102513194
196	0x3dad1104	0.08450511
197	0xbcf8381e	-0.030300196
198	0xbd463954	-0.048394516
199	0xbd290e97	-0.04127368
200	0xbdf7cfd2	-0.121001855
201	0xbd6fd1a0	-0.058549523
202	0x3988bc00	0.00026080012
203	0x3c2827ce	0.010263396
204	0xbdc681d6	-0.09692733
205	0x3de131be	0.10995816
206	0xbb15c965	-0.0022855636
207	0xb9b8a779	-0.00035219992
208	0x3df2d68a	0.11857326
209	0x3d46396b	0.0483946
210	0xbc3d3020	-0.011547118
211	0x3dd46720	0.10371232
212	0x3d9d741a	0.0768816
213	0xbccc20fb	-0.02491807
214	0x3d02a1f7	0.031892743
215	0xbdf7441e	-0.12073539
216	0x3da532ab	0.08066305
217	0x3d9c6172	0.07635774
218	0x3cd15628	0.025553778
219	0xbc4d72fe	-0.012539623
220	0xbdcb68a3	-0.09932067
221	0x3dbedf96	0.093199894
222	0xbd301f34	-0.042998508
223	0xbdd1d74f	-0.10246145
224	0xbc66e365	-0.014092301
225	0xbd8dc62d	-0.06922565
226	0x3d9e2b9a	0.0772316
227	0x3d97c4cb	0.07410582
228	0xbd61fce4	-0.055172816
229	0x3dd9a7dc	0.1062772
230	0x3d40364b	0.046926778
231	0x3dcf62d4	0.10126272
232	0xbdd9be39	-0.10631985
233	0x3dc24fc7	0.094878726
234	0xbc57ca47	-0.013170785
235	0x3ddbe072	0.10736169
236	0xbd870c70	-0.06594169
237	0xbdf218a3	-0.11821105
238	0xbc636990	-0.0138801485
239	0xbd23704e	-0.039902024
240	0xbdcb4e98	-0.099271
241	0xbd28c2dc	-0.041201457
242	0x3d0e52eb	0.034747045
243	0xbd21e8c5	-0.039528627
244	0xbd92b858	-0.07164067
245	0x3d55e6ab	0.052221935
246	0xbd082edc	-0.033247814
247	0x3dd01612	0.101604596
248	0xbcc616b8	-0.024180755
249	0xbde3b3f0	-0.11118305
250	0xbda8aef7	-0.08236497
251	0xbdfed2a2	-0.12442519
252	0x3b139870	0.002252128
253	0x3d539ebb	0.05166505
254	0xbdfbb37a	-0.12290092
255	0xbcac3240	-0.021020055

placing_layer.1.bias f4 [8]
0	0x3dc66b82	0.09688474
1	0x3bc1aac8	0.0059102513
2	0x3dc7a132	0.097475424
3	0xbe018ef3	-0.12652187
4	0xbdfed7b3	-0.12443485
5	0x3deb3932	0.114855185
6	0x3d9ae597	0.07563322
7	0xbc8bebcc	-0.01708021

placing_layer.2.weight f4 [8, 64]
0	0xbd4841dd	-0.048890937
1	0xbccb1d74	-0.024794318
2	0xbd9d1b1b	-0.076711856
3	0x3dfda047	0.12384086
4	0x3db997a0	0.09062123
5	0x3e00a39b	0.1256241
6	0x3d8c1925	0.068407334
7	0xbbfd2d96	-0.0077263815
8	0x3d6c1b72	0.05764336
9	0xbd9bbc0d	-0.07604227
10	0xbdad0137	-0.08447497
11	0x3d7701de	0.060304515
12	0x3c187d25	0.0093071805
13	0xbd0a818b	-0.033814948
14	0xbd2990cd	-0.04139786
15	0xbd008dc7	-0.03138521
16	0x3df68267	0.12036591
17	0x3d494445	0.049137373
18	0xbd99fc73	-0.07518854
19	0x3cbe3248	0.023217335
20	0x3c924aba	0.017857898
21	0x3d20e832	0.03928394
22	0x3d8f1089	0.06985576
23	0x3dc0af38	0.0940842
24	0x3d65cecd	0.056105424
25	0x3df0c843	0.11756947
26	0x3df51a7c	0.11967942
27	0x3deb0231	0.11475027
28	0xbbb6522e	-0.005563996
29	0x3dca16fb	0.098676644
30	0xbd3ac708	-0.045599967
31	0x3d1f051b	0.03882323
32	0xbd525955	-0.051354725
33	0x3df0c44f	0.11756193
34	0x3d31b7d8	0.043388218
35	0x3d7f490e	0.06232553
36	0x3db20172	0.08691682
37	0xbdbe1ec3	-0.09283211
38	0xbd90bc28	-0.07067138
39	0x3d9454eb	0.07242759
40	0xbd88f3f7	-0.066871576
41	0x3d35fa34	0.044428065
42	0x3d5f9b3f	0.054591414
43	0x3da5b4ec	0.08091149
44	0xbdabf971	-0.083971865
45	0x3d6c21b4	0.05764933
46	0xbd3f26c0	-0.046667814
47	0x3d04484c	0.03229551
48	0x3b9b4e8f	0.0047395895
49	0xbd823ab6	-0.063588545
50	0x3e0642bc	0.13111395
51	0x3cfe63cb	0.031053444
52	0x3dec092e	0.115251884
53	0xbdc9b6cb	-0.09849318
54	0xbd23fcbe	-0.040035956
55	0xbdcc1202	-0.09964372
56	0xbd603c8b	-0.05474524
57	0x3dae41ee	0.08508669
58	0x3cb7e85a	0.022449661
59	0x3dc7ef58	0.09762448
60	0x3def6b72	0.116904154
61	0xbbedfc68	-0.007262755
62	0xbdb44b72	-0.088034526
63	0x3d5c0ecf	0.05372506
64	0xbbe8fc7b	-0.007110176
65	0xbdfbf616	-0.123027965
66	0x3cfb06b2	0.030642841
67	0x3da14268	0.07873994
68	0x3cc8bd84	0.02450443
69	0xbd6342cb	-0.05548362
70	0x3d8b8431	0.06812323
71	0x3c560491	0.013062612
72	0xbe0976d6	-0.13424239
73	0xbb2fb25e	-0.0026809196
74	0x3ddf3cfd	0.109003045
75	0xbd93f16c	-0.07223782
76	0x3cd12d37	0.025534255
77	0xbd74b4d2	-0.059742756
78	0xbde5364e	-0.111919984
79	0x3d80f487	0.0629664
80	0x3dd9e32b	0.10639032
81	0x3cddb51b	0.027063897
82	0x3d728bf1	0.05921549
83	0xbd587f50	-0.05285579
84	0xbdbbb754	-0.091658264
85	0xbda188f4	-0.0788745
86	0xbdb092d0	-0.08621752
87	0x3dc4cc84	0.09609321
88	0xbd315c83	-0.043301117
89	0xbe04b8ec	-0.12961167
90	0x3d836693	0.06416049
91	0xbbfc8aba	-0.007706967
92	0xbd64860c	-0.0557919
93	0x3d588a67	0.052866366
94	0xbdb88213	-0.09009185
95	0x3d429816	0.04750832
96	0xb97c99f2	-0.00024089942
97	0x3db3eb91	0.08785165
98	0xbdd91b1e	-0.10600875
99	0xbd9756ad	-0.07389579
100	0xbc5171cf	-0.012783482
101	0x3dc69a14	0.09697357
102	0x3dd47a3a	0.10374875
103	0x3c07845a	0.008271301
104	0xbd78734c	-0.06065683
105	0x3c636262	0.013878437
106	0xbd10aac3	-0.0353191
107	0xbcd9abb0	-0.026571125
108	0x3d628723	0.055304658
109	0xbd52e939	-0.05149195
110	0x3dcb21e3	0.09918573
111	0x3c23b5f8	0.009992115
112	0xbc45c3b3	-0.012070584
113	0x3da3e390	0.080023885
114	0xbde281a0	-0.1105988
115	0x3d097bb7	0.03356525
116	0xbdd58eae	-0.104276046
117	0xbad785de	-0.0016443094
118	0x3dc59a63	0.096485876
119	0x3d544962	0.051827796
120	0x3dc4a53a	0.09601827
121	0x3cf705d0	0.030154139
122	0xbd5ff3cb	-0.05467586
123	0xbdd03db2	-0.101680174
124	0x3d12f4cc	0.035877988
125	0x3d539586	0.05165627
126	0x3df13ea0	0.11779523
127	0xbddcaaef	-0.107747905
128	0xbbab67af	-0.005230866
129	0x3dcbf59f	0.09958958
130	0xbcf54b06	-0.029943
131	0xbd7dbd64	-0.061948195
132	0x3d28c07d	0.041199196
133	0xbde9ce77	-0.11416333
134	0xbc998e1d	-0.018744523
135	0xbac74237	-0.0015202229
136	0xbdcebb16	-0.100942776
137	0x3dcde4f9	0.10053439
138	0x3d363569	0.04448453
139	0x3ddfd625	0.10929517
140	0xbddc6556	-0.10761516
141	0xbd2366a6	-0.039892815
142	0xbc5c49f8	-0.01344537
143	0xbca20bf5	-0.019781092
144	0xbd540515	-0.05176266
145	0xbdbc762b	-0.09202226
146	0x3cdafe18	0.02673249
147	0xbdceafd7	-0.100921325
148	0xbdc7c379	-0.0975408
149	0xbd358593	-0.04431684
150	0x3db8108a	0.089875296
151	0x3db98dfa	0.09060283
152	0xbdcc2f76	-0.0996999
153	0xbdccb479	-0.0999536
154	0xbd99482b	-0.07484468
155	0xbd31fdc5	-0.043454904
156	0xbc2c3dde	-0.010512797
157	0xbd29b3ac	-0.041431114
158	0x3da227f3	0.07917776
159	0x3db627e9	0.08894331
160	0xbc791483	-0.015202644
161	0xbd848148	-0.06469971
162	0x3da453bb	0.08023783
163	0xba655a7b	-0.00087491394
164	0xbdc17a01	-0.094470985
165	0xbdd2f7c4	-0.10301164
166	0xbdb6aebe	-0.08920048
167	0xbd5e1254	-0.054216698
168	0x3c885970	0.01664421
169	0x3cc0facc	0.02355709
170	0x3dcadf32	0.099058524
171	0x3d1e7d67	0.03869381
172	0x3d016ea9	0.031599674
173	0x3d4fbc3b	0.05071662
174	0xbdacaef8	-0.0843181
175	0x3d6ed4cb	0.058308404
176	0x3c4afefd	0.0123898955
177	0x3dbf8e07	0.093532614
178	0xbe02fdc7	-0.12792121
179	0xbceeb00a	-0.029136676
180	0xbdc4ce1f	-0.09609627
181	0xbddeeeed	-0.10885415
182	0x3d4610b8	0.048355788
183	0x3c8f7db8	0.017516002
184	0xbc4e2836	-0.012582829
185	0xbd09f037	-0.033676352
186	0xbdc0a24d	-0.094059564
187	0x3db550bd	0.0885329
188	0xbc3eb01d	-0.011638668
189	0x3d374a2d	0.044748474
190	0xbc9d5bc2	-0.019208793
191	0xbd485b60	-0.048915267
192	0xbc93ad15	-0.018026868
193	0xbd172a8d	-0.036905814
194	0xbe02a612	-0.12758663
195	0xbdd53afe	-0.104116425
196	0x3ca6c134	0.020355798
197	0x3d86241c	0.06549856
198	0xbd7ceacd	-0.06174736
199	0xbd375028	-0.044754177
200	0xbdbfa08e	-0.09356795
201	0xbc417304	-0.011807207
202	0xbc6eee0f	-0.014583125
203	0xbd548844	-0.051887766
204	0xbda7595a	-0.08171339
205	0x3c7b3c72	0.0153342355
206	0xbd799085	-0.06092884
207	0xbceb584e	-0.02872863
208	0xbdf48f12	-0.11941351
209	0xbb17e4c5	-0.0023177129
210	0x3c114247	0.008865899
211	0x3ddcc223	0.10779216
212	0x3c6bbd97	0.014388463
213	0x3d509b00	0.05092907
214	0x3d138428	0.036014706
215	0xbdad46c3	-0.08460762
216	0xbbd99bcc	-0.006640887
217	0x3c367d82	0.011138322
218	0x3d0bca26	0.03412833
219	0x3dd37310	0.10324681
220	0xbdeee45e	-0.11664651
221	0x3d31b4f3	0.043385457
222	0x3d077a7d	0.0330758
223	0x3cccb56d	0.024988854
224	0xbe083144	-0.13300043
225	0x3da4d76f	0.08048903
226	0x3bc674c1	0.0060563986
227	0xbda567ba	-0.08076425
228	0x3ddedda8	0.10882121
229	0xbdc58055	-0.09643618
230	0xbd82936c	-0.06375775
231	0x3d305cf0	0.043057382
232	0x3d42a6c8	0.047522336
233	0x3df88846	0.12135367
234	0xbd60a277	-0.05484244
235	0x3c8de3bc	0.017320506
236	0x3ddcf89f	0.10789608
237	0xbd997966	-0.07493858
238	0xbdc1ed25	-0.0946906
239	0xbcb61342	-0.02222598
240	0xbddf738d	-0.109107114
241	0xbd9f6900	-0.07783699
242	0x3d23d730	0.04000014
243	0xbdfeac69	-0.124352284
244	0x3db63f14	0.0889875
245	0xbdf2660a	-0.11835869
246	0xbdbca550	-0.09211218
247	0x3ddebc8f	0.108758084
248	0xbd4b7f32	-0.04968185
249	0xbde320ce	-0.110902414
250	0x3de27d9c	0.11059114
251	0x3d9fbafa	0.07799335
252	0x3d09cbf2	0.033641763
253	0x3c3bc9d6	0.011461696
254	0x3dd9cff8	0.1063537
255	0xbdb788d5	-0.089616455

placing_layer.2.bias f4 [8]
0	0x3be07ad1	0.0068505784
1	0x3da7d04a	0.08194025
2	0xbc3e3e3d	-0.011611518
3	0xbbc8ceb4	-0.0061281566
4	0xbde92aa3	-0.113850854
5	0x3db0b921	0.086290605
6	0xbdad5f59	-0.08465452
7	0xbd138dfa	-0.03602407
