extra_baseline/log_res/2exp_2/imitation_learning_env-20250111-160630/bc_ddpg_actor.pth (torch, 225849 bytes, 88 tensors)

fc.0.weight f4 [64, 500]
0	0xb9af8ae3	-0.0003348208
1	0x3cc487b3	0.023990488
2	0xbd16c3ab	-0.036807697
3	0xbd06cef0	-0.032912195
4	0xbc8d1aaa	-0.017224628
5	0x3c447b9d	0.011992362
6	0xba684750	-0.0008860724
7	0x3d113d8f	0.035459097
8	0xbb820c53	-0.0039687543
9	0x3c41e2b2	0.0118338335
10	0xbc5d6f9d	-0.01351538
11	0xbc1006c0	-0.008790672
12	0xbd2effdf	-0.042724486
13	0xbcf2a1c7	-0.029618157
14	0xbc97055f	-0.018435178
15	0x3ad92394	0.0016566389
16	0x3c90d57f	0.017679928
17	0x3cdbd2a2	0.026833836
18	0xbcf85e65	-0.030318448
19	0xbc9f88f8	-0.019474491
20	0x3c851139	0.016243564
21	0x3d181c00	0.037136078
22	0xbc16caf7	-0.009203664
23	0x3d091324	0.03346552
24	0xbbec33ee	-0.007208339
25	0x3b9b1028	0.0047321506
26	0x3d25dd2c	0.04049413
27	0xbd29edf0	-0.04148668
28	0xbce6a2c9	-0.028153794
29	0xbc397f78	-0.011321895
30	0xbc8ece5c	-0.017432384
31	0x3d1e443c	0.038639292
32	0xbced7725	-0.028987477
33	0xbca8a577	-0.020586712
34	0xbcfff3bd	-0.031244153
35	0xbd2b8eda	-0.04188428
36	0xbcd5db8e	-0.026105668
37	0x3d1d75c6	0.038442396
38	0x3ca379b4	0.019955494
39	0x3cb19039	0.021675216
40	0x3b1a2372	0.0023519662
41	0xbcbbd34d	-0.022927905
42	0x3bf7eda1	0.0075661694
43	0xbd2b0871	-0.041756097
44	0xbd045bd7	-0.032314148
45	0xbcbcde44	-0.023055203
46	0x3ce72616	0.028216403
47	0x3cd6cd99	0.026221083
48	0xbca27a4a	-0.019833703
49	0xbad3813a	-0.0016136535
50	0x3cea4ecb	0.028602025
51	0x3d361aa0	0.044458985
52	0x3c916696	0.017749112
53	0x3bc5f815	0.0060415366
54	0x3cf5a33b	0.02998506
55	0xbcd7b64b	-0.026332041
56	0x3c08897a	0.008333558
57	0xbd0e04fb	-0.03467272
58	0xbcfdead0	-0.030995756
59	0xbcbd4114	-0.02310232
60	0x3ca5c450	0.02023521
61	0x3c93559e	0.017985161
62	0xbcd90342	-0.026490811
63	0x3c5d5bbc	0.013510641
64	0x3cc91eb5	0.024550775
65	0xbbb8f671	-0.0056446125
66	0x3adfcf38	0.0017075306
67	0x3c29c602	0.01036215
68	0x3ce34790	0.027744085
69	0x3d2fe319	0.042941187
70	0xbd0d296d	-0.034463335
71	0xbc864247	-0.016389025
72	0x3c8ffb6a	0.017575938
73	0x3d17c5c9	0.037053857
74	0x3d1f6748	0.038916856
75	0x3d21a104	0.039460197
76	0x3c11d226	0.008900201
77	0xbd1f49fd	-0.03888892
78	0x3b86cefc	0.00411403
79	0xbce531f5	-0.027977923
80	0xbd2ab6d2	-0.041678257
81	0x3d22c0bd	0.03973459
82	0x3d0b481e	0.034004323
83	0xbd36b9d3	-0.04461081
84	0x3c0924cc	0.008370589
85	0xbbf6ddc5	-0.007533761
86	0xbbf1271c	-0.0073593985
87	0xbca7b3df	-0.020471511
88	0x3c8ce28f	0.017197875
89	0xbcd8fea9	-0.026488619
90	0x3c864daf	0.016394464
91	0x3cb94518	0.022615954
92	0x3d0321e6	0.03201475
93	0x3c88fc30	0.016721815
94	0xbd354c65	-0.04426231
95	0xbceda7a8	-0.029010609
96	0x3cb6ed81	0.022330048
97	0x3c195bb3	0.009360242
98	0xbd0ee510	-0.03488642
99	0xbcd2f4ab	-0.025751432
100	0x3d2c5342	0.04207159
101	0x3cf6dbb0	0.030134052
102	0xbc9fbdb4	-0.019499637
103	0xbc3869c5	-0.011255686
104	0xbd2e7ee5	-0.042601485
105	0xba52b7fb	-0.00080382795
106	0xbd09f1c1	-0.03367782
107	0xbd0d4bce	-0.03449612
108	0xbb217d3b	-0.0024641294
109	0x3bdc06ea	0.0067146914
110	0xbc9608d1	-0.01831475
111	0x3cd96365	0.026536653
112	0xbcdef15b	-0.027214697
113	0x3d2635fc	0.040578827
114	0x3cfb108e	0.030647542
115	0xbd1a78b2	-0.03771276
116	0xbc365c79	-0.011130446
117	0x3b043f80	0.002017945
118	0x3bd5cec9	0.006524895
119	0x3c2dc7f6	0.010606756
120	0x3c8fc4dd	0.017549926
121	0x3b2f8f17	0.002678817
122	0xbcb2c19d	-0.021820838
123	0x3cad5b36	0.021161657
124	0xbd2fb6c6	-0.042898916
125	0xbcd92479	-0.02650665
126	0xbc376b9e	-0.0111950915
127	0xbcb27524	-0.021784373
128	0xbc8029ff	-0.015645025
129	0xbd162322	-0.0366546
130	0xbc1bdc0a	-0.009512911
131	0x3c1c9f5c	0.009559479
132	0xbceeab57	-0.029134436
133	0xbb1668ea	-0.0022950717
134	0x3d0320ed	0.032013822
135	0xbb96a583	-0.0045973673
136	0x3aa2e8ff	0.0012429057
137	0xbb7cd78d	-0.0038580627
138	0x3c1449af	0.009050771
139	0x3ce8f1ca	0.028435607
140	0x3d2d83ec	0.04236214
141	0x3ce8a84d	0.028400565
142	0x3d2de98f	0.042459067
143	0xbb53f6ef	-0.0032343229
144	0xbd248da9	-0.04017416
145	0xbcadae84	-0.02120138
146	0x3cf97465	0.030451009
147	0xb997fe72	-0.0002899054
148	0xbcb618bb	-0.02222859
149	0xbd0c5f3b	-0.034270506
150	0xbd2b6d9c	-0.04185258
151	0xbd1a9ab5	-0.037745196
152	0xbc149f1a	-0.009071136
153	0x3cc8e9a0	0.024525464
154	0x3cc6115f	0.024178205
155	0xbd30a9d3	-0.043130707
156	0x3ce486f4	0.027896382
157	0xbd0f56cd	-0.03499489
158	0xbc1ae748	-0.009454556
159	0xbc948c43	-0.018133288
160	0xbc0d21ce	-0.008614017
161	0xbc0fdcfb	-0.008780713
162	0xbd24601a	-0.040130712
163	0xbd1e29d6	-0.038614117
164	0xbbe54f45	-0.006997975
165	0x3a179c0f	0.00057834474
166	0xbca66d4e	-0.020315792
167	0x3c8a01ad	0.016846502
168	0xbd24df1c	-0.040251836
169	0xbb45cbac	-0.0030181212
170	0x3d211746	0.039328836
171	0xbc956f2b	-0.018241486
172	0x3d256933	0.04038353
173	0x3c84ad7e	0.016196009
174	0xbd254fc6	-0.04035928
175	0x3ce7cb19	0.028295087
176	0xbba91a3c	-0.005160598
177	0xbca38b61	-0.019963922
178	0x3d127abd	0.035761584
179	0xbd14069d	-0.03613912
180	0x3b9d3f71	0.0047988226
181	0xbc196855	-0.009363254
182	0x3d02cf6b	0.03193609
183	0x3c4c8888	0.012483723
184	0x3cb00964	0.021488853
185	0x3c8161e4	0.015793748
186	0xbc30330a	-0.010754356
187	0xbc1a180b	-0.009405146
188	0xbd16f444	-0.036854044
189	0x3cc68234	0.024232008
190	0x3d11709b	0.03550778
191	0x3cfaabbb	0.030599466
192	0xbd0135d5	-0.03154548
193	0x3b02b74c	0.001994568
194	0xbd012100	-0.031525612
195	0xbcc9ac88	-0.024618402
196	0xbcd57a7d	-0.026059384
197	0x3c7a66d1	0.015283302
198	0xbcda5134	-0.026650049
199	0xba7fc5cc	-0.0009756952
200	0x3af6976c	0.0018813438
201	0x3cec2994	0.02882842
202	0xbd0a77ec	-0.033805773
203	0xbcfb8243	-0.030701762
204	0xbcd4baca	-0.025967974
205	0x3d003680	0.031301975
206	0xbc83b152	-0.016075764
207	0x3d1a8258	0.03772196
208	0x3c847a44	0.016171582
209	0x3bb98fbf	0.005662888
210	0xb9ae8a02	-0.0003329069
211	0xbc10d81d	-0.008840588
212	0x3bb7dcb2	0.0056110257
213	0xbc274fc0	-0.010211885
214	0xb9a4bf77	-0.0003142317
215	0x3bbafa86	0.0057061343
216	0xbd0f4887	-0.034981277
217	0xbcc004f9	-0.023439871
218	0x3d13ea5c	0.036112174
219	0xbd14a877	-0.036293473
220	0xbb52742f	-0.0032112708
221	0x3d35351c	0.044240102
222	0x3c845784	0.016155012
223	0x3aa5f68c	0.0012661978
224	0xbd1ebe96	-0.038755976
225	0x3cb57c40	0.022153974
226	0xbd027983	-0.031854164
227	0xbc4ffdd6	-0.012694797
228	0xbc75d679	-0.015004748
229	0xbbd902fa	-0.0066226693
230	0x3a003bfc	0.0004891751
231	0x3d171651	0.036886517
232	0x3bb6f148	0.005582962
233	0x3d241264	0.0400566
234	0x3ce01afa	0.027356613
235	0xbce79dc3	-0.028273469
236	0x3ca45013	0.020057714
237	0xbd017d01	-0.031613354
238	0xbc9b457f	-0.018954037
239	0x3c57820f	0.013153567
240	0x3c71efc7	0.01476664
241	0x3d096d01	0.03355122
242	0xbc6bdf5d	-0.014396516
243	0x3896240b	7.159271e-05
244	0x3cbc9c03	0.023023611
245	0xbd312693	-0.043249678
246	0x3d046f45	0.032332677
247	0xbd17797d	-0.036981095
248	0x3a21940a	0.0006163722
249	0xbbf925c9	-0.0076033813
250	0xbcc0f356	-0.023553532
251	0x3bc1aff6	0.0059108688
252	0x3d177951	0.03698093
253	0xbc562fd5	-0.0130729275
254	0xbcd98114	-0.026550807
255	0xbc877e42	-0.016539697

fc.0.bias f4 [64]
0	0xbcb1a1c7	-0.021683587
1	0x3d36b5c5	0.044606943
2	0xbd1e1783	-0.03859664
3	0xbce2f17d	-0.027703041
4	0x3a996ad6	0.0011704813
5	0x3bc0e436	0.00588658
6	0xbc13f835	-0.009031345
7	0xbc583f55	-0.013198693
8	0xbcecfd18	-0.028929278
9	0x3d0bb7a1	0.03411067
10	0x3d35b825	0.044365067
11	0xbc9ec41b	-0.01938062
12	0x3a49c8c0	0.00076974556
13	0xbd31496d	-0.043282915
14	0x3d1bf354	0.038073853
15	0xbcc7dc19	-0.024396943
16	0xbc988c9c	-0.018621735
17	0xbcbbe350	-0.02293554
18	0x3c3c1343	0.011479202
19	0x3c7d56a1	0.0154625485
20	0xbd1ae573	-0.037816476
21	0xbc2f5195	-0.010700603
22	0x3cba703f	0.022758601
23	0x3c07f612	0.008298414
24	0xbd22d05c	-0.03974949
25	0x3cc4565f	0.023966966
26	0x3d1a14d1	0.03761751
27	0xbb32fbfc	-0.002731084
28	0x3d385865	0.045006175
29	0x3ceff926	0.029293608
30	0xbd113ee8	-0.035460383
31	0xbca71fec	-0.020400964
32	0x3d2939ff	0.041315075
33	0xbc56a0c6	-0.013099855
34	0x3d1f0cd6	0.0388306
35	0xbd07e56a	-0.03317777
36	0x3d29de99	0.04147205
37	0x3c49d58a	0.012318978
38	0xbd1889ab	-0.037240665
39	0xbd2bfc12	-0.04198844
40	0xbd09950d	-0.03358941
41	0x3d248e33	0.040174674
42	0x3c4a065b	0.012330617
43	0x3c663405	0.014050488
44	0xbc5de29d	-0.013542798
45	0xbd26aedb	-0.0406941
46	0x3d14dbd9	0.036342476
47	0xbcd9ab09	-0.026570814
48	0xbbc9c131	-0.0061570634
49	0xbb74d012	-0.0037355465
50	0x3d1c67a6	0.038184784
51	0x3c912737	0.017718894
52	0xbada3067	-0.0016646505
53	0x3d1c4cc0	0.038159132
54	0x3d19ba1e	0.03753101
55	0xbba7df36	-0.0051230444
56	0x3d18ab4d	0.03727274
57	0xbcb2fddd	-0.021849567
58	0xbd26c128	-0.040711552
59	0x3d1d5fc5	0.03842141
60	0xbb84f85a	-0.004057926
61	0xbba57464	-0.0050492752
62	0xbceef7a0	-0.029170811
63	0xbcb05adf	-0.021527706

fc.2.weight f4 [64]
0	0x3f800000	1.0
1	0x3f800000	1.0
2	0x3f800000	1.0
3	0x3f8786ca	1.0588009
4	0x3f800000	1.0
5	0x3f800000	1.0
6	0x3f882814	1.0637231
7	0x3f873713	1.0563682
8	0x3f87df32	1.0614989
9	0x3f800000	1.0
10	0x3f879e49	1.059518
11	0x3f800000	1.0
12	0x3f800000	1.0
13	0x3f87fab7	1.0623387
14	0x3f8039ae	1.0017602
15	0x3f88306b	1.0639776
16	0x3f876218	1.0576811
17	0x3f800000	1.0
18	0x3f800000	1.0
19	0x3f800000	1.0
20	0x3f88ce1f	1.0687903
21	0x3f87d3af	1.0611476
22	0x3f87de3c	1.0614696
23	0x3f87f9ba	1.0623085
24	0x3f800000	1.0
25	0x3f86d4af	1.0533656
26	0x3f879a3d	1.0593945
27	0x3f800000	1.0
28	0x3f878a17	1.0589017
29	0x3f87e9b9	1.0618201
30	0x3f880fd0	1.0629826
31	0x3f87eb94	1.0618768
32	0x3f867fc5	1.0507742
33	0x3f885826	1.0651901
34	0x3f800000	1.0
35	0x3f880630	1.0626888
36	0x3f879657	1.0592755
37	0x3f800000	1.0
38	0x3f800000	1.0
39	0x3f7fa003	0.99853534
40	0x3f800000	1.0
41	0x3f800000	1.0
42	0x3f800000	1.0
43	0x3f800000	1.0
44	0x3f800000	1.0
45	0x3f870f05	1.0551459
46	0x3f800000	1.0
47	0x3f87d678	1.0612326
48	0x3f800000	1.0
49	0x3f800000	1.0
50	0x3f881d80	1.0634003
51	0x3f85b8b4	1.0446992
52	0x3f88457c	1.0646205
53	0x3f800000	1.0
54	0x3f800000	1.0
55	0x3f881540	1.0631485
56	0x3f800000	1.0
57	0x3f800000	1.0
58	0x3f874d46	1.0570457
59	0x3f800000	1.0
60	0x3f882ec0	1.0639267
61	0x3f87e768	1.0617495
62	0x3f800000	1.0
63	0x3f87bc80	1.0604401

fc.2.bias f4 [64]
0	0xbd8a041c	-0.06739065
1	0x3d87fbc8	0.0663982
2	0xbd7b4c25	-0.061351914
3	0x3d8196d1	0.06327594
4	0x3d829021	0.06375147
5	0xbd87221a	-0.06598301
6	0xbd595b24	-0.053065434
7	0xba93d642	-0.0011279064
8	0xbd6f8cb5	-0.058483798
9	0x3d873b64	0.06603125
10	0xbd0f1747	-0.03493431
11	0xbd8024a4	-0.06256989
12	0x3d7e960e	0.062154822
13	0xbd68feca	-0.05688361
14	0x3d369e47	0.04458454
15	0xbd545e5d	-0.051847804
16	0x3d626bcc	0.055278584
17	0x3d7a7b2c	0.061152622
18	0x3d860298	0.065434635
19	0x3d800f4a	0.06252916
20	0x3d8063ea	0.06269057
21	0x3d76cbd4	0.06025298
22	0xbd70430c	-0.05865769
23	0x3d4fc171	0.05072159
24	0x3d6aaf0d	0.057295848
25	0xbd416e4b	-0.047224324
26	0x3d7aecfa	0.061261155
27	0x3d881691	0.06644929
28	0x3d415c98	0.047207445
29	0x3d1e5d34	0.038663104
30	0xbd676362	-0.056491263
31	0x3d874653	0.0660521
32	0xbcccfcaa	-0.025022823
33	0xbd78be66	-0.060728453
34	0xbd8681da	-0.06567736
35	0x3d804b59	0.062643714
36	0x3d65c1ed	0.056093145
37	0x3d867aaa	0.06566365
38	0xbd879838	-0.0662083
39	0xbd83eadd	-0.06441281
40	0xbd805993	-0.06267085
41	0x3ced13c7	0.028940095
42	0x3d8221fe	0.0635414
43	0x3d8a8ace	0.06764756
44	0xbd84bcce	-0.06481324
45	0x3d19c610	0.037542403
46	0x3d883807	0.06651311
47	0xbd6e8576	-0.058232747
48	0xbd8533a8	-0.06503993
49	0x3d846a3e	0.064655766
50	0xbd707550	-0.058705628
51	0xbd4407ee	-0.047859125
52	0x3d7b177d	0.061301697
53	0x3d8b02f7	0.06787675
54	0x3d8b7591	0.068095334
55	0xbd2e3385	-0.0425296
56	0xbd4a35fc	-0.04936789
57	0x3d80191d	0.0625479
58	0x3d5a5578	0.053304166
59	0xbd87e719	-0.06635875
60	0xbd80eba5	-0.062949456
61	0x3d77230c	0.060336158
62	0xbd687c44	-0.056759134
63	0xbd646e47	-0.05576923

fc.2.running_mean f4 [64]
0	0x00000000	0.0
1	0x00000000	0.0
2	0x00000000	0.0
3	0x471c7185	40049.52
4	0x00000000	0.0
5	0x00000000	0.0
6	0x454fc414	3324.255
7	0x46345c49	11543.071
8	0x4604ac28	8491.039
9	0x00000000	0.0
10	0x46a89cb2	21582.348
11	0x00000000	0.0
12	0x00000000	0.0
13	0x464222a0	12424.656
14	0x1ab19b09	7.345596e-23
15	0x46874f09	17319.518
16	0x4720b58c	41141.547
17	0x00000000	0.0
18	0x00000000	0.0
19	0x00000000	0.0
20	0x45c5d431	6330.524
21	0x44fc731f	2019.5975
22	0x4696b3f6	19289.98
23	0x46720e7c	15491.621
24	0x00000000	0.0
25	0x45e88531	7440.649
26	0x44f274b7	1939.6473
27	0x00000000	0.0
28	0x46c3bee0	25055.438
29	0x46a59b6a	21197.707
30	0x46cc46b2	26147.348
31	0x4662d971	14518.36
32	0x4634a27a	11560.619
33	0x469f88aa	20420.332
34	0x00000000	0.0
35	0x4699456e	19618.715
36	0x4764e6f9	58598.973
37	0x00000000	0.0
38	0x00000000	0.0
39	0x152afad0	3.4529083e-26
40	0x00000000	0.0
41	0x00000000	0.0
42	0x00000000	0.0
43	0x00000000	0.0
44	0x00000000	0.0
45	0x46fdc84e	32484.152
46	0x00000000	0.0
47	0x46890739	17539.611
48	0x00000000	0.0
49	0x00000000	0.0
50	0x44a739f8	1337.8115
51	0x4635cc69	11635.103
52	0x47091a73	35098.45
53	0x00000000	0.0
54	0x00000000	0.0
55	0x46d8e325	27761.572
56	0x00000000	0.0
57	0x00000000	0.0
58	0x46df81c1	28608.877
59	0x00000000	0.0
60	0x452bf788	2751.4707
61	0x45b48b21	5777.391
62	0x00000000	0.0
63	0x461fcceb	10227.2295

fc.2.running_var f4 [64]
0	0x11f74d0b	3.901721e-28
1	0x11f74d0b	3.901721e-28
2	0x11f74d0b	3.901721e-28
3	0x46c416a9	25099.33
4	0x11f74d0b	3.901721e-28
5	0x11f74d0b	3.901721e-28
6	0x47723015	62000.082
7	0x4739c267	47554.402
8	0x472d4102	44353.008
9	0x11f74d0b	3.901721e-28
10	0x475f9ffc	57247.984
11	0x11f74d0b	3.901721e-28
12	0x11f74d0b	3.901721e-28
13	0x470ccb5f	36043.37
14	0x1d3baa65	2.4837336e-21
15	0x46fe04b3	32514.35
16	0x469da76f	20179.717
17	0x11f74d0b	3.901721e-28
18	0x11f74d0b	3.901721e-28
19	0x11f74d0b	3.901721e-28
20	0x471cc20d	40130.05
21	0x472cd384	44243.516
22	0x46e42d40	29206.625
23	0x47239533	41877.2
24	0x11f74d0b	3.901721e-28
25	0x479dafc6	80735.55
26	0x4731803a	45440.227
27	0x11f74d0b	3.901721e-28
28	0x471e4eff	40526.996
29	0x47060178	34305.47
30	0x472ca51f	44197.12
31	0x472f1d8e	44829.555
32	0x48b8e3ec	378655.38
33	0x47a75a4b	85684.586
34	0x11f74d0b	3.901721e-28
35	0x47670e82	59150.508
36	0x4736961a	46742.1
37	0x11f74d0b	3.901721e-28
38	0x11f74d0b	3.901721e-28
39	0x1880e2b5	3.331614e-24
40	0x11f74d0b	3.901721e-28
41	0x11f74d0b	3.901721e-28
42	0x11f74d0b	3.901721e-28
43	0x11f74d0b	3.901721e-28
44	0x11f74d0b	3.901721e-28
45	0x46ea0554	29954.664
46	0x11f74d0b	3.901721e-28
47	0x47845db1	67771.38
48	0x11f74d0b	3.901721e-28
49	0x11f74d0b	3.901721e-28
50	0x46562efd	13707.747
51	0x473fb321	49075.13
52	0x4790759f	73963.24
53	0x11f74d0b	3.901721e-28
54	0x11f74d0b	3.901721e-28
55	0x470d254a	36133.29
56	0x11f74d0b	3.901721e-28
57	0x11f74d0b	3.901721e-28
58	0x4740e040	49376.25
59	0x11f74d0b	3.901721e-28
60	0x46ca5a4e	25901.152
61	0x4725b058	42416.344
62	0x11f74d0b	3.901721e-28
63	0x46e51cc5	29326.385

fc.3.weight f4 [64, 64]
0	0xbe02f0b2	-0.1278713
1	0x3d86af46	0.065763995
2	0xbe313cc6	-0.1730834
3	0x3dda3001	0.10653687
4	0x3dc7a14d	0.097475626
5	0xbd9facdf	-0.077966444
6	0xbe0ada64	-0.13559872
7	0xbd865c77	-0.06560605
8	0xbdd5f8c9	-0.10447843
9	0x3e0c5045	0.13702495
10	0x3d3f3973	0.046685647
11	0xbc01b3cb	-0.007916401
12	0x3bafb15f	0.0053617205
13	0xbde7a51d	-0.1131079
14	0x3d8af32c	0.067846626
15	0xbe2de213	-0.16980772
16	0x3e027bb2	0.12742499
17	0x3e1ea4e0	0.15492582
18	0x3de87602	0.11350633
19	0x3e3906a0	0.18068933
20	0xbd480d5b	-0.04884086
21	0x3c787ac4	0.015165988
22	0xbc8fcb7f	-0.01755309
23	0x3c969ef5	0.018386343
24	0x3d27d478	0.04097411
25	0x3d635242	0.05549837
26	0xbd4ed8de	-0.05049979
27	0x3ddfba23	0.10924175
28	0x3da14971	0.07875336
29	0x3dc8e028	0.098083794
30	0xbd745068	-0.059646994
31	0x3e03ef96	0.12884364
32	0x3d900ceb	0.07033714
33	0xbe1a4d27	-0.15068494
34	0xbe125c7a	-0.1429309
35	0x3dc63083	0.096772216
36	0x3dceb6f9	0.10093493
37	0x3e072359	0.13197078
38	0xbd3a9605	-0.045553226
39	0xbdb81279	-0.089878984
40	0x3c2ff759	0.010740125
41	0x3da2ab9b	0.079428874
42	0xbc626093	-0.01381697
43	0xbc9e8be2	-0.01935381
44	0xbe2f1184	-0.17096525
45	0x3d9b60de	0.07586835
46	0x3dafbdd4	0.08581129
47	0xbd82906b	-0.06375202
48	0x3b29598d	0.002584073
49	0x3df49e16	0.11944215
50	0xbbb35f10	-0.005473979
51	0xbe1d4740	-0.15359211
52	0x3daaa1e9	0.08331663
53	0x3dad9ba3	0.08476951
54	0x3d908ecd	0.07058487
55	0x3d8d9987	0.06914049
56	0x3ca2f2bd	0.019891137
57	0x3d4d3173	0.050095987
58	0xbd4957d6	-0.049156033
59	0x3d76d579	0.060262177
60	0xbdfaabf6	-0.1223983
61	0x3e30eb0f	0.17277168
62	0xbda027c9	-0.078200884
63	0xbdadab38	-0.08479923
64	0xbd38f24a	-0.04515294
65	0x3dc2ebe6	0.0951765
66	0xbe1b4b28	-0.15165389
67	0x3e1c3a1c	0.15256542
68	0x3ddd9844	0.10820058
69	0x3d092fa8	0.033492714
70	0xbd8251e8	-0.063632786
71	0x3d682e65	0.05668487
72	0xbe25122d	-0.16120215
73	0xbcdb2e38	-0.026755437
74	0xbdd6a647	-0.10480934
75	0xbd2ba2ea	-0.041903414
76	0x3e3fa77f	0.18716238
77	0xbd4c824f	-0.04992896
78	0x3e1ab1e5	0.15106924
79	0xbe1bdd5c	-0.1522116
80	0x3d4dd102	0.050248154
81	0x3db4801e	0.08813499
82	0xbbe02a96	-0.006841014
83	0x3ddf943c	0.10916945
84	0x3d871bf0	0.065971255
85	0x3d0784d3	0.033085655
86	0xbdc56106	-0.096376464
87	0x3dff2b57	0.12459438
88	0xbd5686c4	-0.052374616
89	0x3c68b364	0.014202926
90	0x3e135db6	0.14391217
91	0x3ce65881	0.028118374
92	0x3debe807	0.11518865
93	0xbb4aae81	-0.0030926766
94	0xbd8d0024	-0.068847924
95	0x3ddc7f06	0.10766415
96	0xbdfc9c23	-0.12334468
97	0x3d2632ad	0.040575672
98	0x3c17550c	0.009236585
99	0x3d335f18	0.04379186
100	0x3ca1d281	0.019753696
101	0x393230d0	0.00016993587
102	0xbd89eea6	-0.06734972
103	0xbd02364f	-0.031790074
104	0xbe194ff0	-0.149719
105	0x3c336919	0.01095035
106	0x3de77957	0.113024406
107	0x3d80678d	0.06269751
108	0x3d631326	0.055438183
109	0x3bb6a3a8	0.0055737086
110	0x3d963718	0.07334727
111	0xbdddbc11	-0.108268864
112	0xbe042e1e	-0.12908217
113	0xbd7a18fd	-0.061058987
114	0xbdd2e5b5	-0.102977194
115	0x3b9d40f5	0.0047990032
116	0x3e070d49	0.13188662
117	0x3d19f15f	0.037583705
118	0x3dd8cd93	0.10586085
119	0xbc7ac914	-0.01530673
120	0xbd856c28	-0.0651477
121	0x3d3fd0f1	0.04683012
122	0xbbc4c17e	-0.0060045114
123	0xbdac3359	-0.08408231
124	0xbdb28dde	-0.08718465
125	0x3dae1cf0	0.08501613
126	0xbdb1f870	-0.08689964
127	0xbe29d126	-0.1658369
128	0x3d9be540	0.07612085
129	0x3df44b15	0.11928383
130	0x3ddec92f	0.108782165
131	0xbd0dd0ef	-0.034623083
132	0x3d831950	0.06401312
133	0xbddc9fe6	-0.10772686
134	0x3e13d1f7	0.14435564
135	0xbe278975	-0.1636103
136	0xbd2523d3	-0.040317368
137	0xbd508c2f	-0.05091494
138	0x3db7b4e4	0.08970049
139	0x3cf2617f	0.029587505
140	0x3c99163a	0.018687356
141	0x3dd7ee8d	0.10543547
142	0x3ddd267a	0.107983544
143	0xbb133c38	-0.0022466313
144	0xbe232e79	-0.15935697
145	0x3dd20449	0.102547236
146	0xbded3c3d	-0.11583755
147	0x3ccd90ce	0.025093462
148	0xbdfe04ae	-0.12403236
149	0xbe009000	-0.12554932
150	0xbd91b04a	-0.071137026
151	0x3d800bde	0.062522635
152	0xbdef7de5	-0.11693934
153	0x3e1cc391	0.15308978
154	0xbe09988d	-0.134371
155	0xbd8e03ce	-0.069343194
156	0x3d9bb633	0.07603111
157	0xbd7cbccf	-0.0617035
158	0xbda69370	-0.0813359
159	0xbd93ef93	-0.072234295
160	0xbd803564	-0.062601835
161	0x3d84778f	0.064681165
162	0xbd34ea4c	-0.044168755
163	0x3cee9043	0.029121524
164	0x3d44d811	0.04805762
165	0xbd2c9104	-0.042130485
166	0x3dcf2e88	0.10116297
167	0xbc1eee20	-0.009700328
168	0xb8f5f1c2	-0.00011727541
169	0xbdc00a78	-0.09376997
170	0x3c87f474	0.016596057
171	0x3bea67cf	0.007153488
172	0xbdbab385	-0.09116272
173	0xbd7daf2a	-0.061934628
174	0xbd4d0efd	-0.050063122
175	0xbd456118	-0.0481883
176	0xbd5affcf	-0.053466614
177	0x3b5b11b6	0.0033427305
178	0xbd882c16	-0.06649034
179	0xbd19e444	-0.037571207
180	0xbdd12768	-0.10212594
181	0xbdd0d046	-0.10195975
182	0x3d2bc86d	0.041939188
183	0xbc876da6	-0.016531777
184	0xbb6aac34	-0.0035808207
185	0xbd476ac0	-0.04868579
186	0xbd7c2a63	-0.06156386
187	0x3d94ca57	0.07265156
188	0x3c891587	0.016733898
189	0x3da4ca9f	0.080464594
190	0xbde1961d	-0.1101496
191	0xbd7eedb1	-0.0622384
192	0xbd5d6887	-0.054054763
193	0x3d240f83	0.040053856
194	0xbe22edff	-0.15911101
195	0xbe2d37ec	-0.16915864
196	0x3d574053	0.05255158
197	0x3d2ede68	0.042692572
198	0x3d8d84ed	0.06910119
199	0xbe0b81ff	-0.13623808
200	0x3e20994d	0.1568348
201	0x3b83197c	0.0040008407
202	0x3d8bb6a7	0.068219475
203	0xbddf43d1	-0.10901607
204	0x3d4d2bc7	0.050090577
205	0x3d15171c	0.036398992
206	0xbd8b683d	-0.06806991
207	0x3d199373	0.037494134
208	0x3baf8456	0.005356352
209	0xbb2db727	-0.0026506872
210	0x3d907598	0.07053679
211	0x3e2eea46	0.17081556
212	0xbe112482	-0.14174083
213	0xbe06dfcd	-0.1317131
214	0xbc8e120b	-0.017342588
215	0xbca27d4b	-0.019835135
216	0x3d6613cb	0.05617122
217	0x3da34b6d	0.07973371
218	0xbe17119b	-0.1475281
219	0x3e02b115	0.12762864
220	0xbe144251	-0.14478423
221	0xbd0ae2d9	-0.033907745
222	0xbd8f2759	-0.06989927
223	0xbe0d720b	-0.13813035
224	0x3e10e4fa	0.14149848
225	0x3dd8dc97	0.10588949
226	0x3d5cb6d9	0.053885315
227	0xbe32153b	-0.17390911
228	0x3ce8e28a	0.028428335
229	0x3dc0cce1	0.094140776
230	0xbdfaa523	-0.122385286
231	0x3d88f60d	0.066875555
232	0x3d3a9fcb	0.045562547
233	0xbc95e30b	-0.01829674
234	0x3c064590	0.008195296
235	0x3d981057	0.074249916
236	0xbbbe79ce	-0.00581286
237	0x3d45eb9d	0.0483204
238	0x3dd9cfaa	0.10635312
239	0x3e374381	0.17896844
240	0xbd81f785	-0.06346039
241	0x3e28fd10	0.16502786
242	0xbc53cb90	-0.012926951
243	0x3d4f0789	0.050544295
244	0x3c8e430f	0.01736596
245	0x3de2fb05	0.110830344
246	0xbd0993c1	-0.033588175
247	0x3d701d0f	0.058621462
248	0x3c4dc313	0.012558716
249	0x3e135cbb	0.14390843
250	0xbe12bf3a	-0.1433076
251	0xbde2f6ce	-0.110822305
252	0xbd0311b3	-0.0319993
253	0xbe107488	-0.14106953
254	0xbdbd8177	-0.09253209
255	0xbd7a4733	-0.061103057

fc.3.bias f4 [64]
0	0x3da2125f	0.0791366
1	0xbc99a503	-0.018755442
2	0x3ca5b388	0.020227209
3	0x3d531b4c	0.051539704
4	0x3ac949aa	0.0015357037
5	0xbd82b8ac	-0.063828796
6	0x3e229740	0.1587801
7	0x3e0a9fef	0.13537572
8	0xbcc48e96	-0.023993772
9	0xbd00e927	-0.03147235
10	0x3d80167b	0.06254288
11	0x3d4e4af5	0.050364453
12	0xbdb70d4e	-0.089380845
13	0x3d621128	0.055192143
14	0x39bd1832	0.00036066916
15	0x3e0c032e	0.13673088
16	0x3dd0b21e	0.10190223
17	0x3e042b61	0.12907173
18	0x3de44996	0.11146848
19	0x3c9e1e77	0.019301636
20	0x3dcff199	0.10153503
21	0x39e0699e	0.000428033
22	0x3e187bb7	0.14890943
23	0x3d605be6	0.05477514
24	0x3e2b47c7	0.167266
25	0x3d9701e3	0.07373407
26	0x3da2d89d	0.07951472
27	0x3d267406	0.040637992
28	0xbc354289	-0.0110632265
29	0xbd1006e4	-0.03516282
30	0xbcce0d7b	-0.025152912
31	0xbcdd6025	-0.027023384
32	0x3e291827	0.1651312
33	0xbd9f15e8	-0.0776785
34	0xbd061e49	-0.032743726
35	0xbc91132c	-0.017709337
36	0x3dcc108c	0.099640936
37	0xbbdaa6de	-0.006672724
38	0x3c9b38ab	0.01894792
39	0xbd82852a	-0.06373055
40	0xbd0c536d	-0.03425925
41	0x3da2db4b	0.07951983
42	0x3d8f4d98	0.06997222
43	0x3d40809e	0.04699766
44	0x3c9ab3f5	0.018884638
45	0x3d5c2d58	0.05375418
46	0xbd128a4b	-0.035776418
47	0x3dda0d48	0.106470644
48	0x3ba0ff60	0.0049132556
49	0xbd11967b	-0.0355439
50	0x3cbb5fd7	0.022872848
51	0x3dff8a0f	0.124775045
52	0xbbfabb1b	-0.0076516992
53	0xbd2fdeef	-0.042937215
54	0x3d93de6d	0.07220159
55	0x3da9a82e	0.08284031
56	0xbdf30846	-0.118668124
57	0x3e180baf	0.14848207
58	0xbda5a840	-0.08088732
59	0xbd5b12af	-0.053484615
60	0x3bff931d	0.0077995197
61	0xbd077cd8	-0.033078045
62	0x3dadd8da	0.08488627
63	0xbd31ed56	-0.04343923

placing_layer.0.weight f4 [5, 64]
0	0x3df0e244	0.11761907
1	0xbdc0449c	-0.09388086
2	0x3df38e2b	0.11892351
3	0xbded29ed	-0.11580262
4	0x3d253b8b	0.040339988
5	0x3da5bf02	0.080930725
6	0x3d11aaff	0.035563465
7	0x3c606630	0.013696238
8	0x3ce4bb05	0.02792121
9	0x3c937361	0.017999353
10	0x3dd581f1	0.10425175
11	0xbda8e3ad	-0.08246551
12	0xbda630a6	-0.08114748
13	0xbd93ed61	-0.07223011
14	0xbdf302ce	-0.11865769
15	0xbbb6e80f	-0.0055818628
16	0xbcd9a7e2	-0.02656931
17	0xbdaf74a7	-0.085671715
18	0xbda90b7c	-0.082541436
19	0xbd78f926	-0.06078448
20	0x3d6497d0	0.055808842
21	0xbb650e60	-0.0034951195
22	0xbd8c5c3e	-0.06853531
23	0x3ccbdb07	0.024884714
24	0xbdb5944f	-0.08866178
25	0x3ce05f5c	0.02738922
26	0xbd258483	-0.040409576
27	0x3d247077	0.040146317
28	0x3d200027	0.039062645
29	0xba8484dd	-0.0010110397
30	0xbdb97b33	-0.090567015
31	0x3dca2cf5	0.09871856
32	0x3d025af8	0.031825036
33	0x3c6f9a2e	0.014624162
34	0x3d9b54dc	0.07584545
35	0x3c05effb	0.008174892
36	0x3bd4fe29	0.006500025
37	0x3df20245	0.11816839
38	0xbdc3262d	-0.09528766
39	0x3d480708	0.04883483
40	0xbc12d98a	-0.008962998
41	0x3df2e16d	0.11859403
42	0xbb8b5597	-0.0042521465
43	0xbda79fbe	-0.08184765
44	0x3d123a7f	0.035700317
45	0xbe008c7c	-0.1255359
46	0xbdebaa27	-0.11507063
47	0xbcd81ba8	-0.026380375
48	0xbd75df0a	-0.06002716
49	0x3c9b61d3	0.018967545
50	0xbd22da9c	-0.039759263
51	0xbe045de9	-0.12926449
52	0x3ddd1286	0.10794549
53	0xba28f14c	-0.00064446474
54	0x3d7ec584	0.062200084
55	0xbde81807	-0.11332708
56	0xbcfcd34a	-0.03086247
57	0x3c852f3d	0.016257877
58	0x3da4591a	0.08024807
59	0x3d4d3ab0	0.050104797
60	0x3dd90526	0.10596685
61	0x3db763de	0.08954595
62	0xbdab2e21	-0.08358408
63	0xbaf73ced	-0.0018862762
64	0xbc6f93fd	-0.0146226855
65	0x3d877296	0.066136524
66	0x3e238453	0.15968446
67	0xbd0f30f6	-0.034958802
68	0x3cd0499b	0.025425723
69	0x3e054ab0	0.13016772
70	0x3d6b006e	0.057373457
71	0xbd7cbe4a	-0.06170491
72	0x3b134177	0.002246944
73	0xbd005b02	-0.03133679
74	0xbd3065c1	-0.04306579
75	0x3d30cb52	0.04316265
76	0xbcffe055	-0.0312349
77	0xbd38dd66	-0.045133017
78	0xbd906a79	-0.07051558
79	0x3d92598f	0.07145988
80	0x3d55e3f4	0.052219346
81	0xbcb81950	-0.022473007
82	0x3e24e60b	0.1610338
83	0x3ddbdd2a	0.10735543
84	0x3cc442a6	0.023957562
85	0x3dcbc93a	0.0995049
86	0x3e097d26	0.13426647
87	0x3e22e91f	0.15909241
88	0x3e18482d	0.14871283
89	0x3e098a19	0.13431586
90	0x3e134d7e	0.1438503
91	0x3db94678	0.09046644
92	0x3e11b2e8	0.14228404
93	0x3dff7c33	0.12474861
94	0x3dc6feaf	0.09716546
95	0xbcd2b5ff	-0.025721548
96	0x3e35b43e	0.17744538
97	0xbd8177e4	-0.063216954
98	0xbc6f581d	-0.01460841
99	0x3ca49461	0.020090284
100	0x3d8f3970	0.06993377
101	0x3cfb3baf	0.030668108
102	0x3d993898	0.074814975
103	0x3c97076a	0.018436152
104	0x3d275f86	0.040862583
105	0x3e209706	0.15682611
106	0xbd13c5be	-0.036077254
107	0x3e04ad17	0.12956654
108	0x3de80c0c	0.11330423
109	0xba3b7219	-0.0007150486
110	0x3ceedaa1	0.029156985
111	0x3c2426b3	0.010018992
112	0x3d4e8029	0.05041519
113	0xbd0f6c71	-0.035015527
114	0x3cb658e6	0.022259187
115	0x3df118a0	0.11772275
116	0xbce64f64	-0.028114028
117	0x3e2ee395	0.17079003
118	0x3dc62dc9	0.096767016
119	0x3cf83665	0.030299375
120	0xbdef9f1f	-0.11700272
121	0x3dce8b66	0.10085182
122	0xbc8184bc	-0.015810363
123	0xbcbf63fa	-0.023363102
124	0xbbcc67cb	-0.006237959
125	0x3e09c495	0.13453896
126	0x3e35b3ec	0.17744416
127	0x3cf34a07	0.029698385
128	0x3e2599f5	0.16172011
129	0x3d2aaa9e	0.04166662
130	0xbd489ec3	-0.048979532
131	0x3cfb5b97	0.030683322
132	0x3e3bbfaa	0.18334833
133	0xbd2197fa	-0.039451577
134	0x3d9dfb38	0.07713932
135	0xbd13778e	-0.036002688
136	0xbd438172	-0.04773087
137	0x3db73c76	0.08947079
138	0x3e05769f	0.13033532
139	0x3e206b46	0.15665922
140	0xbd43adb8	-0.047773093
141	0x3c57a764	0.013162468
142	0xbd1ef47d	-0.03880738
143	0x3d8c5859	0.068527885
144	0x3e05857e	0.13039204
145	0x3d9a74d8	0.075418174
146	0x3e189dca	0.14903942
147	0x3e3310ca	0.17486873
148	0x3d2018c4	0.03908612
149	0x3c30116d	0.010746342
150	0x3e267280	0.16254616
151	0x3da6b3d8	0.08139771
152	0x3c5279a3	0.012846383
153	0x3c0b95dc	0.008519616
154	0x3e199b1d	0.15000577
155	0x3ced3067	0.028953744
156	0xbcb431cc	-0.021996401
157	0x3e41d9cf	0.18930744
158	0x3de122eb	0.10992988
159	0xbcc116ca	-0.023570437
160	0x3d81457f	0.063120835
161	0xbc07bcc9	-0.008284756
162	0x3e024002	0.1271973
163	0xbc90ebfb	-0.01769065
164	0x3de292b4	0.11063138
165	0xbd658164	-0.0560316
166	0x3d68d1af	0.056840595
167	0x3d8c9e14	0.068660885
168	0x3a58639b	0.00082545885
169	0x3dfdb265	0.12387542
170	0xbd4ea0ea	-0.05044643
171	0xbd5dd537	-0.054158416
172	0x3e15aca1	0.14616634
173	0x3c2a698c	0.010401141
174	0x3e14ac4a	0.14518848
175	0xbd2b28a5	-0.04178681
176	0x3df42230	0.11920583
177	0x3da6d9af	0.081469886
178	0x3de0bf21	0.10973955
179	0xbc0293dc	-0.007969823
180	0x3e305767	0.17220841
181	0x3e3367af	0.17520021
182	0x3e06be4c	0.1315853
183	0x3de20d93	0.11037745
184	0xbddb9b7d	-0.107230164
185	0x3dbed4bf	0.09317922
186	0xbd797c2b	-0.06090943
187	0x3dac49ac	0.08412489
188	0x3b9937bc	0.0046758335
189	0x3de7deb4	0.11321774
190	0x3c3ad84a	0.011404106
191	0x3d775217	0.06038102
192	0x3dd968ca	0.1061569
193	0x3d2afde7	0.041746046
194	0x3d5178fb	0.051140767
195	0x3d098da9	0.033582363
196	0xbdc7a590	-0.097483754
197	0xbd228e17	-0.03968629
198	0x3c25619c	0.010094073
199	0xbcff16a6	-0.03113873
200	0x3d5129f2	0.051065393
201	0x3d2c85ed	0.04211991
202	0xbd2d8ce7	-0.042370703
203	0x3d6a0910	0.05713755
204	0xbc1c686d	-0.009546381
205	0xbdc4c777	-0.096083574
206	0x3d29e07c	0.04147385
207	0xbda3ba6c	-0.079945415
208	0x3c70bba7	0.014693177
209	0x3caab2dd	0.020837242
210	0x3d720b49	0.059092794
211	0xbd3b9f7b	-0.04580639
212	0x3d401365	0.046893496
213	0xbe07a298	-0.13245618
214	0xbdb46aa6	-0.08809404
215	0xbde23c4e	-0.110466585
216	0xbd524606	-0.05133631
217	0xbd86544d	-0.06559048
218	0xbc95ade6	-0.018271398
219	0x3ce460f7	0.027878268
220	0x3dcd04f6	0.10010712
221	0xbd4a92b6	-0.04945632
222	0xbc036f7f	-0.008022188
223	0x3dc4ed36	0.09615557
224	0x3dc29bf4	0.09502402
225	0x3bd40cd2	0.006471255
226	0xbcc53961	-0.024075212
227	0x3d97fe3a	0.07421537
228	0xbd080a03	-0.033212673
229	0xbdf79cac	-0.1209043
230	0xbdb369bf	-0.08760404
231	0x3ca1b497	0.019739432
232	0x3dde3004	0.10849002
233	0x3d0fe0ef	0.035126623
234	0xbd0ec079	-0.034851525
235	0x3d6aa067	0.057281878
236	0x3b982f77	0.00464433
237	0xbdf644e6	-0.1202486
238	0xbb92c5f7	-0.0044791657
239	0xbda04edd	-0.07827542
240	0x3da65573	0.08121767
241	0x3d99b89b	0.07505914
242	0xbd7d9413	-0.061908793
243	0x3cc84e02	0.02445126
244	0x3cb193e0	0.021676958
245	0xbcf0c485	-0.029390583
246	0xbcf56db0	-0.02995953
247	0xbb857a57	-0.004073422
248	0x3d64524b	0.055742543
249	0x3dc5e87e	0.09663485
250	0xbdeb7aa8	-0.11498004
251	0x3dbe65c6	0.092967555
252	0xbd7cee89	-0.061750922
253	0xbcd0e0d0	-0.025497824
254	0xbcc8a13d	-0.024490947
255	0xbc015c08	-0.007895477

placing_layer.0.bias f4 [5]
0	0xbd4ee6d5	-0.050513107
1	0x3d36536f	0.044513162
2	0x3ca4a54c	0.020098351
3	0xbda9465a	-0.082653716
4	0x3ce34b65	0.027745912

placing_layer.1.weight f4 [5, 64]
0	0x3da968fd	0.08271978
1	0x3d22042b	0.039554756
2	0xbc21ede1	-0.009883375
3	0x383445ef	4.2980475e-05
4	0xbdf09bec	-0.1174849
5	0xbdbbcb16	-0.09169595
6	0x3dd6fc0d	0.104972936
7	0xbc50118a	-0.012699494
8	0xbdb8f5bc	-0.09031245
9	0xbd8136e6	-0.06309299
10	0xbd8a826a	-0.06763156
11	0xbd1c6279	-0.03817985
12	0xbd9ff84f	-0.07811033
13	0x3dabfd40	0.08397913
14	0xbe0549e5	-0.1301647
15	0x3d638c64	0.05555381
16	0xbccc92de	-0.024972375
17	0xbdfbfce3	-0.12304094
18	0x3d944166	0.07239036
19	0x3ceb45f8	0.028719887
20	0xbdeb6d75	-0.11495487
21	0x3c6fbfea	0.014633158
22	0xbdfb4857	-0.12269657
23	0x3d929336	0.071569845
24	0x3d39c549	0.04535416
25	0xbcae66f7	-0.021289332
26	0x3d912b1b	0.070883
27	0x3d954050	0.07287657
28	0x3bcb243f	0.006199389
29	0xbd664c25	-0.05622496
30	0x3db881af	0.0900911
31	0xbdff51aa	-0.12466748
32	0xbdbd275a	-0.09236021
33	0xbd85101b	-0.064972125
34	0xbd61b1b6	-0.05510112
35	0x3d919013	0.07107558
36	0xbdff890f	-0.12477314
37	0xbdd5f08a	-0.1044627
38	0xbdcb172a	-0.099165276
39	0x3d4d65fd	0.05014609
40	0x3c928059	0.017883467
41	0xbd9a6f9e	-0.075408205
42	0xbd2ed4b9	-0.042683337
43	0xbda6b3b6	-0.08139746
44	0xbdf24a6c	-0.11830601
45	0xbd9dbc86	-0.077019736
46	0xbd80a474	-0.06281367
47	0xbdc73244	-0.09726384
48	0x3dbffb24	0.09374073
49	0xbd933f5a	-0.07189818
50	0xbd77c9c6	-0.06049516
51	0xbdba0526	-0.09083013
52	0x3d3f9eff	0.04678249
53	0xbdaf2328	-0.085516274
54	0xbccfa772	-0.025348399
55	0x3d7c390a	0.061577834
56	0xbc44e23e	-0.012016831
57	0xbd222459	-0.039585445
58	0xbd916661	-0.07099605
59	0xbd55d2dc	-0.052203044
60	0x3db56d9c	0.08858797
61	0xbd3559cc	-0.04427509
62	0x3d89084a	0.06691034
63	0xbdce4f3a	-0.10073705
64	0x3de3a54d	0.11115513
65	0x3dfe8dd2	0.12429394
66	0x3d9e43ab	0.077277504
67	0x3d16f079	0.036850426
68	0x3d93657b	0.0719709
69	0xbc536388	-0.012902148
70	0x3e15fe72	0.14647844
71	0xbde1900d	-0.11013804
72	0x3dbf4baf	0.093406074
73	0xbde74c7b	-0.11293884
74	0x3d3438c4	0.04399945
75	0xbd8338c5	-0.06407312
76	0xbba4a2ff	-0.0050243135
77	0xbd9735ef	-0.07383334
78	0xbda2e651	-0.079540856
79	0xbd488c98	-0.048962206
80	0xbdd26e03	-0.10274889
81	0xbdb7489e	-0.089493975
82	0xbd92a21f	-0.071598284
83	0x3d168d0f	0.036755618
84	0x3d74ceab	0.059767406
85	0x3d8c000f	0.06835949
86	0x3d545df5	0.051847417
87	0xbdf3f135	-0.11911241
88	0xbdc24ed3	-0.09487691
89	0xbcf7de6a	-0.030257422
90	0xbde5556b	-0.11197933
91	0xbd0e9301	-0.034808163
92	0xbdd90657	-0.10596912
93	0xbd8dfb00	-0.0693264
94	0x3c46d281	0.012135149
95	0xbd96100c	-0.073272794
96	0x3dd67911	0.1047231
97	0x3e114c8d	0.14189358
98	0x3d8875da	0.066631034
99	0x39f9f78d	0.0004767742
100	0xbd86dcc8	-0.065850794
101	0x3d2c1abf	0.042017695
102	0xbd39df7e	-0.045379154
103	0xbd4fc11a	-0.050721265
104	0x3d453a85	0.04815151
105	0xbd9178c6	-0.07103114
106	0x3df02c37	0.11727183
107	0x3dfc87ca	0.12330587
108	0x3dffc58e	0.124888524
109	0xbd40f083	-0.04710437
110	0x3df3b7ca	0.11900289
111	0x3e01630d	0.12635441
112	0x3dde95b5	0.10868398
113	0x3c4d4712	0.0125291515
114	0x3dc2a8af	0.0950483
115	0xbdb39f8c	-0.087706655
116	0xbd8e0003	-0.06933596
117	0x3dd4e573	0.103953265
118	0x3bfa0f04	0.0076311845
119	0xbd6aea88	-0.057352573
120	0xbd80ca83	-0.06288626
121	0x3d96dd09	0.07366378
122	0xbddfe84d	-0.1093298
123	0x3db3f3f2	0.08786763
124	0x3ddac1a0	0.10681462
125	0x3dc44da7	0.095851235
126	0x3a369a7e	0.000696577
127	0x3d102c07	0.035198238
128	0x3d27dc96	0.04098185
129	0x3d4e3f57	0.050353374
130	0x3e0a8321	0.13526584
131	0x3ceb12c7	0.028695477
132	0x3dee5446	0.11637168
133	0x3e0b846f	0.13624738
134	0x3da0a780	0.07844448
135	0xbd29b6ee	-0.04143422
136	0x3caaa532	0.020830724
137	0x3d7bccc9	0.061474595
138	0x3df20971	0.11818207
139	0x3dd89d84	0.10576919
140	0xbd81d6e1	-0.06339813
141	0x3e0225d2	0.1270974
142	0xbd817dea	-0.06322844
143	0x3d705136	0.0586712
144	0x3dc8dd3d	0.09807823
145	0x3c021142	0.007938685
146	0x3d5fc5fc	0.054632172
147	0x3ce57cc0	0.028013587
148	0xbca6039c	-0.020265393
149	0xbd38ade2	-0.045087703
150	0xbd2a3b59	-0.041560505
151	0x3de086ec	0.10963234
152	0x3bd1d222	0.0064032236
153	0xbd5b7e44	-0.053587213
154	0x3e20aa80	0.1569004
155	0x3dc24638	0.094860494
156	0x3d9f3b56	0.07774989
157	0x3cd55c5c	0.026045017
158	0x3e0a327f	0.13495825
159	0x3e2a0e1e	0.16606948
160	0x3e09bb90	0.13450456
161	0x3dd3b322	0.10336901
162	0xbd4cf91a	-0.05004225
163	0xbd740742	-0.059577234
164	0xbcb85442	-0.022501115
165	0x3c4cde85	0.012504225
166	0x3d406fd6	0.046981655
167	0x3e19571f	0.1497464
168	0xbd3f9f09	-0.046782527
169	0x3bb987b3	0.0056619286
170	0xbd76aa03	-0.06022073
171	0xbd550f1d	-0.052016366
172	0x3e18b93e	0.14914414
173	0xbcab212a	-0.020889837
174	0xbd1700e6	-0.03686609
175	0x3cfe0288	0.031007066
176	0xbd8be919	-0.06831569
177	0x3cd731e0	0.0262689
178	0x3d69701b	0.056991678
179	0x3e31bd48	0.17357361
180	0xbd61c795	-0.055121977
181	0x3d01ab10	0.03165728
182	0x3d84955e	0.06473802
183	0xbd283f34	-0.0410759
184	0x3dd083e7	0.101814084
185	0xbd6ddbe3	-0.05807103
186	0x3e1bab3a	0.15202036
187	0x3dca11c0	0.09866667
188	0xbd4483af	-0.047977146
189	0x3ddbc422	0.10730769
190	0xbd7518a8	-0.059837967
191	0x3e045a31	0.1292503
192	0xbd815a29	-0.06316025
193	0x3d58d7ec	0.052940294
194	0xbdcae206	-0.09906392
195	0x3da3f056	0.08004825
196	0xbdf5c9f1	-0.12001408
197	0x3d499858	0.049217552
198	0x3b43fb90	0.0029904582
199	0xbd98530d	-0.07437716
200	0x3d30124a	0.04298619
201	0x3db070ca	0.08615263
202	0x3dc26fce	0.09493981
203	0xbcee54e0	-0.029093206
204	0xbd6c6656	-0.057714783
205	0x3db609b6	0.08888571
206	0xbdefc6b9	-0.11707825
207	0xbd72f07b	-0.05931137
208	0xbd69759a	-0.05699692
209	0x3d5ebc1b	0.05437861
210	0xbbd17e6b	-0.006393244
211	0xbcce9c50	-0.02522102
212	0xb9babbeb	-0.00035616694
213	0x3df7ef35	0.12106172
214	0xbdd7cccf	-0.10537111
215	0xbd794a45	-0.060861845
216	0x3c28f1e8	0.010311581
217	0xbc789c70	-0.015174016
218	0xbdb56b9f	-0.08858418
219	0x3d7060ab	0.05868594
220	0x3da0f42c	0.07859072
221	0xbd506819	-0.050880525
222	0x3dd28040	0.10278368
223	0xbdfa5162	-0.12222554
224	0xbb37b42d	-0.0028030977
225	0xbc674ff3	-0.0141181825
226	0xbd2ce107	-0.04220679
227	0x3d4b59e4	0.049646273
228	0xbde8732d	-0.11350093
229	0xbd868fca	-0.06570394
230	0x3d113c27	0.035457756
231	0xbd956eaa	-0.07296498
232	0x3d83c706	0.06434445
233	0xbdf4b720	-0.11948991
234	0x3d8566fe	0.06513785
235	0x3d3ed8f4	0.04659362
236	0x3d8e614d	0.069521524
237	0xbd977d1d	-0.0739691
238	0xbdf2a3d7	-0.11847656
239	0x3db0d4a9	0.08634312
240	0xbddb3920	-0.10704255
241	0xbd1e3832	-0.03862781
242	0xbd4fb634	-0.05071087
243	0xbddcbe0e	-0.107784376
244	0x3dafbf56	0.08581416
245	0xbdfcc08e	-0.123414144
246	0x3d681d98	0.056668848
247	0xbca5a7ee	-0.020221677
248	0x3d84477b	0.06458946
249	0xbdf90a0f	-0.12160122
250	0xbd9b4600	-0.07581711
251	0xbdb42624	-0.08796337
252	0xbd335eb4	-0.043791488
253	0xbd5e67e4	-0.054298297
254	0x3dc9177b	0.09818932
255	0x3d8bee76	0.06832592

placing_layer.1.bias f4 [5]
0	0xbc6b0e82	-0.014346721
1	0x3cb075d6	0.021540564
2	0x3def10db	0.11673137
3	0xbde97272	-0.11398782
4	0xbdf42c2d	-0.11922488

placing_layer.2.weight f4 [5, 64]
0	0x3db59e0f	0.08868038
1	0x3d6e21e4	0.05813779
2	0xbd61159c	-0.05495225
3	0xbd3c240e	-0.045932822
4	0x3d0b711d	0.03404342
5	0xbd645f29	-0.055754814
6	0x3db2a3a9	0.08722622
7	0x3c6bc776	0.014390817
8	0x3d450a2d	0.048105408
9	0x3dabb7cc	0.08384666
10	0xbc6ca26b	-0.01444302
11	0x3dfa5c94	0.12224689
12	0xbcdff903	-0.027340418
13	0xbdd8e89e	-0.10591243
14	0x3de6e6ae	0.112744674
15	0xbd2907b2	-0.041267104
16	0xbc9befb5	-0.0190352
17	0x3ddfa3ab	0.10919889
18	0xbc6b24e0	-0.014352053
19	0xbdeb0722	-0.1147597
20	0xbd6f251d	-0.058385003
21	0x3d3002a9	0.042971287
22	0xbd695997	-0.056970205
23	0x3d2390ff	0.0399332
24	0xbd7457db	-0.059654098
25	0xbdb8e6b4	-0.09028378
26	0xbd86111d	-0.06546233
27	0xbd95510f	-0.07290851
28	0xbd61dd78	-0.05514285
29	0xbd0fd58b	-0.03511576
30	0x3d582e29	0.052778397
31	0x3cba0ac1	0.022710206
32	0xbda13632	-0.07871665
33	0x3d361b00	0.044459343
34	0xbd575c62	-0.052578337
35	0xbdc45ddc	-0.09588215
36	0xbda15c95	-0.07878987
37	0xbde0d5b1	-0.109782584
38	0x3d5f9921	0.054589394
39	0xbdc5d17a	-0.09659095
40	0xbd8ad41f	-0.0677874
41	0x3d19c618	0.037542433
42	0xbd8417b0	-0.064498305
43	0xbd80ce34	-0.0628933
44	0xbddc4a35	-0.10756341
45	0x3d483e60	0.04888761
46	0xbd98cd78	-0.07461065
47	0x3dd534a3	0.1041043
48	0xbc473cd0	-0.012160495
49	0x3d500835	0.050789077
50	0xbd6b0154	-0.057374313
51	0xbdc0718a	-0.09396656
52	0x3d90809e	0.07055782
53	0xbd2acf01	-0.04170132
54	0x3df3fcdc	0.119134635
55	0x3da04eda	0.0782754
56	0x3cfb9716	0.030711692
57	0xbcdf0bab	-0.027227243
58	0xbd84ee94	-0.06490818
59	0x3c98d558	0.018656418
60	0x3dd006d6	0.10157554
61	0xbdc45d71	-0.09588135
62	0x3de6abaa	0.11263211
63	0xbc3ba470	-0.011452779
64	0x3daa02a1	0.08301283
65	0xbc6e38d4	-0.014539916
66	0xbd1a1940	-0.037621737
67	0xbcd8830a	-0.026429672
68	0x3d9b083a	0.075699285
69	0x3dc5d750	0.09660208
70	0x3de29df5	0.11065284
71	0xbde02ed8	-0.10946435
72	0xbdf11661	-0.117718466
73	0xbc331946	-0.010931319
74	0xbdd51e8a	-0.104062155
75	0x3d17d41a	0.03706751
76	0x3d6bf83c	0.05760978
77	0x3dbe71a2	0.092990175
78	0x3d2c3efd	0.042052258
79	0x3d59b004	0.053146377
80	0xbde2b5d8	-0.1106984
81	0x3dd9abe3	0.10628488
82	0x3cd81039	0.026374923
83	0xbd1b638c	-0.037936732
84	0x3d07ff52	0.033202477
85	0x3d6a1ee4	0.057158366
86	0xbda7e899	-0.08198661
87	0x3d0ce04d	0.034393597
88	0xbd757d88	-0.05993417
89	0xbd819398	-0.063269794
90	0x3d97960a	0.074016646
91	0x3daeaacb	0.0852867
92	0x3c8a656a	0.016894061
93	0x3c83195f	0.016003309
94	0x3cbcb328	0.023034647
95	0xbdb1a8db	-0.08674785
96	0x3d321e3e	0.043485872
97	0x3d1fbc2f	0.038997825
98	0x3c8d1de0	0.01722616
99	0x3d9dde37	0.077084
100	0xbdfd7d51	-0.12377418
101	0xbd53d434	-0.051716045
102	0x3d402833	0.046913337
103	0xbda2d32c	-0.07950434
104	0xbd8d2746	-0.068922564
105	0xbdf7bc92	-0.12096514
106	0x3d62b388	0.055346996
107	0x3da73bc8	0.08165699
108	0x3d404d7b	0.04694889
109	0x3d8a8908	0.06764418
110	0xbd8330b9	-0.064057775
111	0x3db0c180	0.08630657
112	0xbdf7258d	-0.12067709
113	0xbc93fa3f	-0.018063663
114	0x3d2d997c	0.042382702
115	0x3de453b3	0.11148777
116	0x3d28a5af	0.041173633
117	0x3d411ffa	0.047149636
118	0x3d4c739f	0.049914952
119	0xbde73e33	-0.112911604
120	0xbd8fdf5c	-0.07025024
121	0x3d8b6f04	0.06808284
122	0x3de47838	0.111557424
123	0xbd5b50e9	-0.05354396
124	0x3db62f25	0.08895711
125	0x3dd63bca	0.104606226
126	0x3d62a9cf	0.055337723
127	0xbdb4fb43	-0.08836987
128	0x3e1cb134	0.15301973
129	0x3d80fcb6	0.06298201
130	0xbb0ee3c1	-0.0021803232
131	0xbd206a9c	-0.03916417
132	0x3db0c07a	0.08630462
133	0x3e2ac3b5	0.16676219
134	0xbc4ffaa0	-0.012694031
135	0xbc02efbe	-0.007991729
136	0x3e0b4174	0.13599187
137	0x3e17f546	0.14839658
138	0xbb695a01	-0.0035606625
139	0x3d882eea	0.06649573
140	0xbddb9bed	-0.107231
141	0x3d00e741	0.03147054
142	0x3e30dda1	0.17272045
143	0x3da25f87	0.07928377
144	0x3e0a89f7	0.13529192
145	0x3df8b577	0.12143987
146	0x3d5b1e5b	0.053495746
147	0x3dcd96ba	0.100385144
148	0x3dd1c1a1	0.1024201
149	0xbd7e4a2b	-0.06208245
150	0x3dcd7611	0.10032285
151	0x3e1b7306	0.15180597
152	0x3ca92b7e	0.020650622
153	0x3ddeb4b9	0.10874314
154	0xbced437d	-0.028962845
155	0x3dc0f701	0.09422112
156	0xbd54a65e	-0.051916473
157	0xbd2dd4a6	-0.042439125
158	0x3d851789	0.064986296
159	0x3e06307f	0.13104437
160	0x3db1c4f9	0.08680148
161	0xbd87a624	-0.06623486
162	0xbd8c1634	-0.068401724
163	0x3dee7633	0.116436385
164	0x3dc0703b	0.09396406
165	0x3d7a4067	0.061096575
166	0xbd77878e	-0.06043201
167	0x3db10f9a	0.08645554
168	0x3e073a97	0.13205944
169	0x3e086d0c	0.13322848
170	0x3da698c0	0.081346035
171	0xbd28808b	-0.041138213
172	0x3e0ee963	0.13956217
173	0x3e19b925	0.15012033
174	0x3c38b9c1	0.011274756
175	0x3da81204	0.08206561
176	0xbd660dac	-0.056165382
177	0x3e20562a	0.15657869
178	0x3ddb5f83	0.10711577
179	0xbcd72c20	-0.026266158
180	0x3d51c2eb	0.05121128
181	0x3e18cf32	0.14922789
182	0x3db45599	0.08805389
183	0x3db54907	0.088518195
184	0x3d3c8374	0.0460238
185	0x3de18382	0.11011411
186	0xbd8499a7	-0.06474619
187	0x3d94f535	0.07273332
188	0xbd4706ca	-0.04859046
189	0x3d08467c	0.033270344
190	0xbd34b3a0	-0.044116616
191	0xbcaeb9da	-0.021328855
192	0x3e201dcf	0.15636371
193	0x3d846ac2	0.06465675
194	0x3e0de723	0.13857703
195	0x3e206e0b	0.15666978
196	0x3ddc56c6	0.10758738
197	0x3e196962	0.14981607
198	0x3cbdebad	0.023183668
199	0xbd40f02c	-0.047104046
200	0x3d7fccdc	0.06245123
201	0xbcc1f96b	-0.023678502
202	0x3da98f28	0.08279258
203	0x3da36d28	0.07979804
204	0xbd348cf3	-0.044079732
205	0x3d8b772f	0.06809842
206	0x3df891d8	0.121371925
207	0x3c6dd732	0.014516639
208	0x3df562ae	0.11981712
209	0x3c581c7f	0.013190388
210	0x3dda8736	0.10670321
211	0x3de12e82	0.10995199
212	0xbda7d5a7	-0.08195048
213	0xbd1b84a1	-0.03796828
214	0xbd83f344	-0.064428836
215	0x3db59dfd	0.088680245
216	0x3e11e995	0.1424926
217	0x3bb62d31	0.0055595865
218	0xbd86ef28	-0.06588584
219	0x3e21b771	0.15792634
220	0x3c6904e6	0.014222359
221	0x3d13f584	0.036122814
222	0x3db90728	0.09034568
223	0x3da431e9	0.08017332
224	0x3dc70f2f	0.09719693
225	0xbdb6f90f	-0.08934223
226	0x3dec5583	0.115397476
227	0xbdaf2535	-0.085520186
228	0x3d706f02	0.058699615
229	0x3dd25866	0.10270767
230	0x3c55f1fb	0.013058181
231	0x3de5b43a	0.11216016
232	0x3cd42f74	0.025901534
233	0x3db173c8	0.08664662
234	0x3d3a42a7	0.04547372
235	0x3e1d04a5	0.15333803
236	0xbd822799	-0.06355209
237	0x3e115e3d	0.14196105
238	0xbcc51929	-0.024059849
239	0x3b42ee72	0.0029744175
240	0x3d9ed6f5	0.077558435
241	0x3cdb793a	0.026791204
242	0x3d2e6f2c	0.04258649
243	0xbcbe5657	-0.02323453
244	0x3d296e27	0.041364815
245	0xbda32b12	-0.079671994
246	0x3d80f46c	0.0629662
247	0xbd7a798b	-0.06115107
248	0xbd40e4d8	-0.047093242
249	0x3e130fca	0.14361492
250	0xbd8fd1f2	-0.07022466
251	0x3e0ea3b7	0.1392964
252	0x3e25c190	0.1618712
253	0x3e297547	0.16548644
254	0x3e2438c1	0.16037275
255	0xbd43cb95	-0.047801573

placing_layer.2.bias f4 [5]
0	0xbdfa0b82	-0.12209226
1	0xbd99e9e0	-0.07515311
2	0x3dcf68d5	0.10127417
3	0xbd0709ee	-0.032968454
4	0x3da4fc49	0.08055932
