auto_src/log_res/exp9/imitation_learning_env-20240720-045915/bc_ddpg_actor.pth (torch, 204089 bytes, 88 tensors)

fc.0.weight f4 [64, 455]
000000 c0 04 b8 b9 fd 04 ce 3c 41 0b 1e bd 4a 51 0d bd
       -0.00035098754 0.025148863 -0.03858495 -0.03450135
000010 d6 ea 93 bc 52 f8 4d 3c 7c 7e 73 ba dc 40 18 3d
       -0.018056314 0.012571411 -0.0009288562 0.03717123
000020 d6 53 88 bb 4c 3f 4b 3c c3 20 68 bc 0c fb 16 bc
       -0.0041603846 0.012405228 -0.014167967 -0.009215128
000030 05 73 37 bd ee 58 fe bc 20 50 9e bc 9d 9f e3 3a
       -0.044787426 -0.031048264 -0.019325316 0.0017366294
000040 c6 d3 97 3c d7 6f e6 3c 3a 2e 02 bd f7 3c a7 bc
       0.018533599 0.028129501 -0.031782366 -0.020414812
000050 0e 7e 8b 3c 36 74 1f 3d e6 12 1e bc 82 b1 0f 3d
       0.017027881 0.038929187 -0.00964806 0.035081394
000060 9d 9b f7 bb e0 8c a2 3b 66 df 2d 3d 6b 22 32 bd
       -0.0075563923 0.0049606413 0.042449377 -0.043489855
000070 a7 c5 f1 bc 63 74 42 bc 92 b3 95 bc 8d e8 25 3d
       -0.029513193 -0.011868569 -0.018274102 0.04050498
000080 6e ee f8 bc 16 ca b0 bc c5 27 06 bd 77 d7 33 bd
       -0.03038713 -0.021580737 -0.03275277 -0.043906655
000090 07 2f e0 bc 1f 10 25 3d 68 5e ab 3c 11 23 ba 3c
       -0.027366174 0.040298577 0.02091904 0.0227218
0000a0 bc 94 21 3b fe e4 c4 bc 1f f3 01 3c 91 4a 33 bd
       0.0024655303 -0.024034973 0.0079315 -0.043772284
0000b0 e9 bf 0a bd d9 fc c5 bc 4b 4f f2 3c c2 2c e1 3c
       -0.033874426 -0.024168419 0.029578825 0.027487163
0000c0 a8 52 aa bc 9e b7 dd ba 0d 9f f5 3c 98 e5 3e 3d
       -0.020791367 -0.0016915684 0.029983068 0.046605676
0000d0 de 6b 98 3c 28 87 cf 3b c4 bf 00 3d b1 20 e2 bc
       0.018606123 0.0063332506 0.031432882 -0.02760348
0000e0 33 21 0f 3c 78 e0 14 bd bb 16 05 bd 6e 64 c6 bc
       0.008735943 -0.036346883 -0.03249238 -0.02421781
0000f0 57 c5 ad 3c cd 72 9a 3c bb 7d e3 bc ec 0b 68 3c
       0.021212263 0.01885357 -0.027769914 0.014162999
000100 bb d4 d2 3c bf e4 c1 bb b5 9d ea 3a 90 f8 31 3c
       0.025736203 -0.0059171612 0.0017899784 0.010862485
000110 f2 40 ee 3c 39 61 38 3d 50 fa 13 bd d7 bd 8c bc
       0.029083703 0.045014594 -0.03612739 -0.017180366
000120 29 ef 96 3c d5 19 1f 3d a7 19 27 3d e5 6e 29 3d
       0.018424587 0.038842995 0.04079595 0.041365523
000130 a1 dc 18 3c f2 fa 26 bd 56 51 8d 3b 04 43 f0 bc
       0.009329946 -0.040766664 0.0043126745 -0.02932883
000140 00 f5 32 bd 83 9c 2a 3d c4 01 12 3d 7b 8c 3f bd
       -0.04369068 0.041653167 0.035646215 -0.046764832
000150 04 c4 0f 3c a1 64 01 bc fa cb fc bb d3 cc af bc
       0.008774761 -0.007897527 -0.0077147456 -0.021459972
000160 06 b0 93 3c ea 78 e3 bc cb c9 8c 3c 33 37 c2 3c
       0.01802827 -0.027767617 0.017186066 0.023707962
000170 d1 76 09 3d 73 99 8f 3c 68 0d 3e bd 49 21 f9 bc
       0.033560578 0.017529225 -0.046399504 -0.03041138
000180 a8 c2 bf 3c 58 c3 20 3c 5f cb 15 bd 45 24 dd bc
       0.023408249 0.009812199 -0.036570903 -0.026994834
000190 5a a5 34 3d 8a 63 01 3d 3f 74 a7 bc 48 51 41 bc
       0.044103004 0.03158907 -0.020441173 -0.011799164
0001a0 d1 eb 36 bd a7 e4 5c ba df 9a 10 bd 5a 1e 14 bd
       -0.044658486 -0.0008426406 -0.035303947 -0.036161758
0001b0 62 49 29 bb a5 a6 e6 3b 61 47 9d bc 83 e2 e3 3c
       -0.0025831093 0.0070389085 -0.019199075 0.02781797
0001c0 21 b5 e9 bc 80 3c 2e 3d f9 97 03 3d 1a ee 21 bd
       -0.028528752 0.042538166 0.032127354 -0.039533712
0001d0 9f 2a 3f bc 35 a2 0a 3b a5 21 e0 3b 0d 2c 36 3c
       -0.0116678765 0.0021153812 0.0068399482 0.011118901
0001e0 fb b5 96 3c 28 09 38 3b 34 63 bb bc 0d ba b5 3c
       0.018397322 0.002808163 -0.022874452 0.022183442
0001f0 c2 32 38 bd 8d a0 e3 bc dc 46 40 bc 09 13 bb bc
       -0.04497028 -0.027786518 -0.011735644 -0.022836225
000200 38 5a 86 bc f6 62 1d bd 9b 62 23 bc 5b 2f 24 3c
       -0.016400442 -0.038424455 -0.00997224 0.010021056
000210 82 31 fa bc 1d ac 1d bb cc 75 09 3d a3 eb 9d bb
       -0.030541185 -0.0024058886 0.033559605 -0.00481935
000220 b6 c6 aa 3a 74 86 84 bb a7 72 1b 3c 31 31 f4 3c
       0.0013029191 -0.0040443484 0.0094877845 0.029808613
000230 ba e4 35 3d 28 e4 f3 3c 45 4f 36 3d 01 33 5e bb
       0.044407584 0.02977188 0.04450919 -0.0033904912
000240 b0 7f 2c bd 60 11 b6 bc f0 bf 02 3d 3b 55 9f b9
       -0.04211396 -0.022225082 0.031921327 -0.00030390345
000250 9c e3 be bc 5b 26 13 bd 9d b4 33 bd c1 11 22 bd
       -0.023301892 -0.03592525 -0.043873418 -0.039567713
000260 32 cc 1b bc 16 9d d2 3c ab a1 cf 3c 8b 31 39 bd
       -0.009509133 0.02570967 0.025345644 -0.045213263
000270 c1 8f ef 3c 99 42 16 bd 07 62 22 bc 73 b8 9b bc
       0.029243352 -0.036684606 -0.009911067 -0.01900885
000280 53 f2 13 bc 42 cf 16 bc ee 4f 2c bd e1 cc 25 bd
       -0.009029943 -0.009204688 -0.042068414 -0.04047859
000290 bf 61 f0 bb 17 ee 1e 3a 7e 76 ae bc 8f ab 90 3c
       -0.007335871 0.00060627 -0.021296736 0.01765993
0002a0 12 d5 2c bd 9b 58 4f bb 80 de 28 3d 4f a6 9c bc
       -0.042195387 -0.0031638506 0.041227818 -0.01912227
0002b0 d4 65 2d 3d 83 15 8b 3c 2d 4b 2d bd 46 fc f2 3c
       0.04233344 0.016978031 -0.04230802 0.029661309
0002c0 7e 44 b1 bb ef 70 ab bc 5b 8d 19 3d 58 2c 1b bd
       -0.0054097762 -0.020927874 0.037488323 -0.037884086
0002d0 2b d7 a4 3b 96 d0 20 bc 59 20 09 3d bf 68 56 3c
       0.005030533 -0.009815356 0.033478115 0.013086497
0002e0 5d 89 b8 3c 2d a1 87 3c 05 b5 38 bc c8 88 21 bc
       0.022526437 0.016556347 -0.011273627 -0.009859271
0002f0 32 3e 1e bd f3 17 d0 3c 60 76 18 3d 20 63 03 3d
       -0.038633533 0.025402045 0.037222266 0.032076955
000300 fc 72 07 bd 10 07 09 3b 27 5d 07 bd 67 69 d3 bc
       -0.033068642 0.002090875 -0.03304782 -0.025807096
000310 46 c9 df bc 01 3f 83 3c cd db e4 bc b0 0f 86 ba
       -0.027317654 0.016021254 -0.02793684 -0.0010228064
000320 c2 3f 01 3b c2 90 f7 3c 85 27 11 bd 91 d3 03 bd
       0.001972184 0.030220393 -0.03543808 -0.032184187
000330 52 00 df bc 54 67 06 3d 29 0d 8a bc 38 f8 21 3d
       -0.027221832 0.032813385 -0.016851978 0.03954336
000340 cf df 8a 3c 74 85 c2 3b 78 f7 b6 b9 85 d6 17 bc
       0.016952423 0.005936319 -0.00034898124 -0.009267454
000350 66 bd c0 3b df 63 2f bc e5 b3 ac b9 c0 01 c4 3b
       0.005881953 -0.0107049635 -0.00032940428 0.005981654
000360 a3 33 16 bd 81 4a c9 bc ba 0e 1b 3d 03 d6 1b bd
       -0.03667034 -0.024571659 0.03785584 -0.038045894
000370 95 9d 5c bb ff f4 3d 3d 62 bb 8a 3c 00 fa ad 3a
       -0.0033663262 0.046376225 0.016935054 0.0013273358
000380 d0 68 26 bd 93 3f be 3c 4c c6 08 bd cc 08 5a bc
       -0.0406273 0.023223674 -0.033392236 -0.013307761
000390 a0 da 80 bc 70 7d e3 bb 13 6d 06 3a e3 61 1e 3d
       -0.015729249 -0.0069424435 0.00051279477 0.03866757
0003a0 9e c6 bf 3b 78 fe 2b 3d 1f ed ea 3c bf cc f2 bc
       0.0058525344 0.041990727 0.028677521 -0.029638646
0003b0 21 3f ac 3c 99 bd 07 bd cb c4 a2 bc ef e9 61 3c
       0.021026196 -0.0331398 -0.019869229 0.013788684
0003c0 55 9e 7d 3c b6 0f 10 3d f6 42 77 bc eb 63 9d 38
       0.015479644 0.035171233 -0.015091648 7.5049546e-05
0003d0 65 b7 c5 3c 51 b4 39 bd 48 d4 0a 3d da c9 1e bd
       0.0241353 -0.04533798 0.033893853 -0.03876672
0003e0 4b 61 29 3a bd 96 02 bc 61 44 ca bc 1c 0a cb 3b
       0.0006461336 -0.007970509 -0.024690809 0.0061962735
0003f0 ac c9 1e 3d 60 87 60 bc a1 01 e4 bc 13 09 8e bc
       0.038766548 -0.013704151 -0.027832808 -0.017338311

fc.0.bias f4 [64]
000000 af ee 44 bc ca f4 0c 3d 75 6a 85 3c 4e 1e 3f 3c
       -0.012019797 0.034413137 0.016286114 0.01166494
000010 b7 0a bc bc 7a 52 03 3d 79 e1 42 bd 3f b3 1a bd
       -0.022954328 0.032061078 -0.04757831 -0.0377686
000020 6f 75 80 bc 37 95 36 3d 06 dd 25 3c f6 bc db 3b
       -0.015680997 0.044575896 0.010123497 0.0067058755
000030 d0 56 a8 3c 20 fc c9 ba 50 76 89 bb 84 ff 20 3c
       0.020549208 -0.0015410222 -0.004195012 0.009826545
000040 8c 91 0e bd 7f af ab bc a0 79 ab 3c e3 3b 99 bb
       -0.034806773 -0.020957706 0.020932019 -0.0046763285
000050 ea 6d 3c bd 3e 55 b5 bc c2 d3 81 bc e4 d0 1b bd
       -0.04600326 -0.022135373 -0.015848044 -0.03804101
000060 6a c3 a8 bc 8e e1 5b bd 26 c0 b1 3c 2a 3b 93 bc
       -0.020600993 -0.053681903 0.021698069 -0.017972548
000070 5e 6e 5f bb 54 7c c0 3b 80 15 ef bb 08 9e d4 3c
       -0.0034092884 0.005874196 -0.007296264 0.025954261
000080 2b 3f af bc 54 3f 14 3c d0 0a 15 3b 4e 6d bc bc
       -0.021392426 0.009048302 0.002274204 -0.02300134
000090 0e be c4 bb 96 37 db 3c c4 41 35 3d 95 70 9f 3c
       -0.0060041016 0.026759904 0.044252172 0.019462863
0000a0 21 ed 50 3c 0a 18 36 3d f1 23 cb 3c b4 8f f4 bc
       0.012751848 0.04445652 0.024797412 -0.02985368
0000b0 87 1b 41 3b cb 64 93 3c d9 99 01 bc 8e 05 28 bd
       0.002946587 0.017992398 -0.007910215 -0.041020922
0000c0 89 48 1c 3d cf 94 1f 3d 63 8d 73 3c 70 51 99 3b
       0.038155112 0.038960274 0.014865252 0.0046788976
0000d0 39 d6 3a 3c eb a6 66 bc 64 5c ed bc a5 cd 21 bd
       0.011403614 -0.014077882 -0.02897472 -0.03950276
0000e0 3b 39 99 bc 3f 00 92 bc 9f d3 e5 3c f4 70 d1 3c
       -0.018704047 -0.017822383 0.02805501 0.025566556
0000f0 e3 39 ec bb 83 ef c0 3c af 7f dc bc 0e bb 6d 3d
       -0.007209049 0.023551708 -0.026916353 0.058039717

fc.2.weight f4 [64]
000000 00 00 80 3f 00 00 80 3f 00 00 80 3f ae 01 ca 3f
       1.0 1.0 1.0 1.5781763
000010 e9 af c8 3f 00 00 80 3f 3f a8 c7 3f ba ab ca 3f
       1.5678684 1.0 1.559822 1.5833657
000020 c7 aa c9 3f 00 00 80 3f b0 1c c9 3f 8e be c8 3f
       1.5755242 1.0 1.571188 1.5683153
000030 74 00 cb 3f 00 00 80 3f 00 00 80 3f b6 db c7 3f
       1.5859513 1.0 1.0 1.5613925
000040 a8 c9 c8 3f 00 00 80 3f 10 d0 c6 3f 4c b6 c8 3f
       1.5686541 1.0 1.5532246 1.5680633
000050 ab 2e b2 3f 2e 1a ca 3f 00 00 80 3f 00 00 80 3f
       1.3920492 1.578924 1.0 1.0
000060 ba 50 c8 3f 7f a9 c9 3f 2a 50 c9 3f 00 00 80 3f
       1.5649636 1.5754851 1.5727589 1.0
000070 63 c9 c8 3f 00 00 80 3f 00 00 80 3f d6 8b c9 3f
       1.5686458 1.0 1.0 1.57458
000080 fd b7 c8 3f 00 00 80 3f 00 00 80 3f 58 77 c9 3f
       1.5681149 1.0 1.0 1.5739546
000090 f5 aa ca 3f 08 f3 c8 3f 00 00 80 3f 00 00 80 3f
       1.5833422 1.5699167 1.0 1.0
0000a0 3d 3b c9 3f 00 00 80 3f 00 00 80 3f 6a e1 c9 3f
       1.5721203 1.0 1.0 1.5771916
0000b0 60 2a c9 3f 00 00 80 3f e7 bd c8 3f f0 95 c2 3f
       1.5716057 1.0 1.5682954 1.5202007
0000c0 00 00 80 3f 00 00 80 3f 9b 28 c9 3f 41 87 c9 3f
       1.0 1.0 1.5715517 1.5744401
0000d0 00 00 80 3f 00 00 80 3f 00 00 80 3f 00 00 80 3f
       1.0 1.0 1.0 1.0
0000e0 00 00 80 3f c3 49 c7 3f 00 00 80 3f 00 00 80 3f
       1.0 1.5569385 1.0 1.0
0000f0 13 64 c9 3f 00 00 80 3f af b0 c9 3f 2a 7a c9 3f
       1.5733665 1.0 1.5757045 1.5740407

fc.2.bias f4 [64]
000000 6b 6e 14 3f e9 76 13 bf 22 88 11 3f fa 51 fc 3e
       0.57980984 -0.5760332 0.5684835 0.49281293
000010 36 56 f2 be 78 51 14 bf 5d d2 f9 be f4 28 00 bf
       -0.473314 -0.5793681 -0.48793307 -0.5006249
000020 a4 55 f2 3e 45 bf 15 3f 73 f1 e3 be 9c e9 e3 3e
       0.47330964 0.5849498 -0.4452015 0.44514167
000030 ac 68 00 3f 99 6f 14 3f 2c 4e 14 3f 3d cc f1 3e
       0.50159717 0.57982785 0.5793178 0.47226134
000040 6c f8 f3 be 2e a1 12 3f 47 97 e9 3e cc 50 00 bf
       -0.47650468 0.5727719 0.45623228 -0.50123286
000050 1d ce f5 3e 01 fd fc be 8a 70 11 3f a1 9b 14 bf
       0.48008814 -0.49411777 0.56812346 -0.5804997
000060 65 32 f9 3e 64 1d e9 be 5d 37 f7 be 23 41 16 bf
       0.4867126 -0.45530236 -0.48284426 -0.5869314
000070 52 c9 f9 be 27 97 10 3f 97 e9 15 bf 00 d9 fd 3e
       -0.48786408 0.5648064 -0.58559555 0.4957962
000080 72 e9 f8 3e 13 e6 14 bf 73 78 13 bf cf e8 fb 3e
       0.48615605 -0.58163565 -0.57605666 0.49201056
000090 ae 16 ff 3e 29 de f4 3e 1d e1 10 bf 3a 07 15 bf
       0.4982199 0.47825745 -0.56593496 -0.5821415
0000a0 a8 7d fa 3e 81 d6 16 bf ec dc 11 3f 08 3a fb be
       0.48923993 -0.58921057 0.56977725 -0.49067712
0000b0 0a 4f e9 3e 7d 05 17 bf e1 d2 ed 3e 35 78 e7 3e
       0.45568115 -0.5899275 0.4644995 0.45208898
0000c0 d5 45 17 3f d5 25 13 3f b1 28 f2 3e e2 e4 f7 be
       0.5909093 0.574796 0.4729667 -0.4841681
0000d0 2a 56 14 bf 3a 6b 16 bf c2 d2 14 3f c1 13 16 3f
       -0.57943976 -0.58757365 0.5813409 0.5862389
0000e0 8b 2a 14 bf 7c 82 fd be 00 6c 12 3f 7f 7b 12 3f
       -0.57877415 -0.49513614 0.57196045 0.5721969
0000f0 b9 41 f6 be b2 73 10 3f c4 45 ea be ae 02 e5 3e
       -0.48097017 0.5642654 -0.45756352 0.44728607

fc.2.running_mean f4 [64]
000000 00 00 00 00 00 00 00 00 00 00 00 00 24 d8 86 46
       0.0 0.0 0.0 17260.07
000010 5d f2 0e 47 00 00 00 00 5c 6f 70 45 12 06 88 45
       36594.363 0.0 3846.96 4352.759
000020 68 42 15 47 00 00 00 00 c6 86 26 45 c2 17 27 46
       38210.406 0.0 2664.4233 10693.939
000030 8d 5f 2b 47 00 00 00 00 00 00 00 00 30 e9 02 45
       43871.55 0.0 0.0 2094.5742
000040 74 5b 46 3a 00 00 00 00 6a d1 93 46 87 a0 95 46
       0.0007566728 0.0 18920.707 19152.264
000050 04 00 00 00 96 2a 45 46 00 00 00 00 00 00 00 00
       6e-45 12618.646 0.0 0.0
000060 56 d5 6b 46 66 fd c0 45 4e a5 d9 46 00 00 00 00
       15093.334 6175.675 27858.652 0.0
000070 fa 74 28 45 00 00 00 00 00 00 00 00 f1 4b 2b 45
       2695.311 0.0 0.0 2740.7463
000080 f4 1e fd 46 00 00 00 00 00 00 00 00 04 93 4c 46
       32399.477 0.0 0.0 13092.754
000090 c7 cf 05 45 ed 19 dd 46 04 00 00 00 00 00 00 00
       2140.986 28300.963 6e-45 0.0
0000a0 5d 4a 60 46 00 00 00 00 00 00 00 00 50 f3 26 47
       14354.591 0.0 0.0 42739.312
0000b0 fd 77 ee 46 00 00 00 00 0b ce 39 47 3b 83 f3 0b
       30523.994 0.0 47566.043 9.379765e-32
0000c0 00 00 00 00 00 00 00 00 7b e3 7d 46 1f 52 56 46
       0.0 0.0 16248.87 13716.53
0000d0 00 00 00 00 04 00 00 00 00 00 00 00 00 00 00 00
       0.0 6e-45 0.0 0.0
0000e0 04 00 00 00 58 6c d0 45 00 00 00 00 00 00 00 00
       6e-45 6669.543 0.0 0.0
0000f0 32 a2 f1 46 00 00 00 00 4c 04 1d 45 cb 06 c7 46
       30929.098 0.0 2512.2686 25475.396

fc.2.running_var f4 [64]
000000 04 00 00 00 04 00 00 00 04 00 00 00 f6 09 ed 45
       6e-45 6e-45 6e-45 7585.245
000010 e4 c1 e4 45 04 00 00 00 7e 71 ba 45 f6 a7 cd 45
       7320.2363 6e-45 5966.1865 6580.995
000020 9b 82 09 46 04 00 00 00 bf 74 88 45 ca 27 07 46
       8800.651 6e-45 4366.5933 8649.947
000030 61 67 c2 45 04 00 00 00 04 00 00 00 2b 3b 20 46
       6220.9224 6e-45 6e-45 10254.792
000040 d3 c9 3b 3d 04 00 00 00 5a 29 f7 45 9a d2 f9 45
       0.04584677 6e-45 7909.169 7994.325
000050 04 00 00 00 9b fc d4 45 04 00 00 00 04 00 00 00
       6e-45 6815.5757 6e-45 6e-45
000060 94 d3 e1 45 d7 d6 e8 45 67 35 df 45 04 00 00 00
       7226.4473 7450.855 7142.6753 6e-45
000070 2e 6e d7 45 04 00 00 00 04 00 00 00 56 4d e2 45
       6893.7725 6e-45 6e-45 7241.667
000080 9f 5b cb 45 04 00 00 00 04 00 00 00 f0 4f 16 46
       6507.4526 6e-45 6e-45 9619.984
000090 58 53 cb 45 cd 40 a7 45 04 00 00 00 04 00 00 00
       6506.418 5352.1 6e-45 6e-45
0000a0 f8 fc 08 46 04 00 00 00 04 00 00 00 0e 3e d9 45
       8767.242 6e-45 6e-45 6951.757
0000b0 e0 ac fe 45 04 00 00 00 75 bf 09 46 f1 59 dc 0e
       8149.6094 6e-45 8815.864 5.4320798e-30
0000c0 04 00 00 00 04 00 00 00 ff 08 91 45 88 dd d4 45
       6e-45 6e-45 4641.1245 6811.6914
0000d0 04 00 00 00 04 00 00 00 04 00 00 00 04 00 00 00
       6e-45 6e-45 6e-45 6e-45
0000e0 04 00 00 00 d0 ef 0e 46 04 00 00 00 04 00 00 00
       6e-45 9147.953 6e-45 6e-45
0000f0 c7 7a b8 45 04 00 00 00 40 7a cb 45 5b d5 f2 45
       5903.347 6e-45 6511.2812 7770.6694

fc.3.weight f4 [64, 64]
000000 4c 70 f2 3e 22 e5 e5 be 34 c1 2b 3f 75 f5 1b 3f
       0.473513 -0.44901377 0.6709168 0.6092141
000010 78 50 11 bf a1 d6 2b bf 41 e1 c9 be 4a ff 01 bf
       -0.5676341 -0.6712437 -0.39429668 -0.50780165
000020 ea 1b ff 3e 32 5d 1c 3f fe a1 06 bf d6 d8 07 3f
       0.49825984 0.61079705 -0.5259093 0.5306524
000030 c1 29 cb 3e cf f1 0f 3f 9d bc 0b 3f 0e f6 16 3f
       0.39680293 0.56228346 0.54584676 0.589692
000040 f5 7f 1f bf 75 d1 22 3f f4 74 e4 3e 01 eb 0b bf
       -0.6230462 0.63600856 0.44620478 -0.5465546
000050 f9 d3 df 3e af f8 f6 be 00 2a 0b 3f a2 bc fe be
       0.4371641 -0.48236606 0.5436096 -0.4975329
000060 0b 28 f1 3e 35 8b d9 be 27 36 02 bf 69 07 1e bf
       0.47100863 -0.4248902 -0.5086388 -0.61730057
000070 95 d9 03 bf 68 99 02 3f 0b ff 1c bf 28 0f f4 3e
       -0.5150388 0.5101533 -0.61326665 0.47667813
000080 89 96 0a 3f 4f a8 26 bf 34 6d 0f bf ae c2 ea 3e
       0.5413595 -0.6510057 -0.56026006 0.45851654
000090 42 4e cd 3e af f8 cb 3e 2b 2e 2a bf fe 28 24 bf
       0.40098768 0.39838168 -0.66476697 -0.6412505
0000a0 26 23 f3 3e de 94 02 bf fa 30 0d 3f d0 9e f9 be
       0.47487754 -0.51008403 0.5515286 -0.48753977
0000b0 7c d2 1c 3f 6e c4 e5 be 83 1c 06 3f ff e1 cf 3e
       0.61258674 -0.44876426 0.52387255 0.4060211
0000c0 d5 f8 29 3f 3d 70 12 3f 11 dd 1c 3f b1 2f 1b bf
       0.6639531 0.5720251 0.6127482 -0.60619646
0000d0 32 82 23 bf 7b 02 01 bf f6 e1 28 3f fd a8 17 3f
       -0.6387054 -0.5039441 0.6596979 0.5924223
0000e0 78 a0 ec be 92 57 15 bf 25 40 27 3f fa f0 1e 3f
       -0.46216178 -0.58336747 0.6533225 0.6208645
0000f0 1f 2a 18 bf d9 32 20 3f e8 c1 16 bf 12 8f 1f 3f
       -0.5943927 0.6257759 -0.5888963 0.6232768
000100 00 b4 3a 3f e6 0d 1d bf 65 29 34 3f cb 98 22 bf
       0.7293091 -0.6134933 0.70375663 -0.63514394
000110 03 ac 05 3f 4a 3c 15 bf ee 81 13 3f 42 99 14 3f
       0.52215594 -0.5829512 0.5762013 0.5804635
000120 d3 0b 12 bf 14 0b 36 3f 64 a8 1c 3f d7 db 13 bf
       -0.5704929 0.71110654 0.61194444 -0.57757324
000130 35 6f 1f bf 37 67 2f 3f 38 a3 0a 3f d9 d5 fb be
       -0.62279063 0.6851687 0.541553 -0.4918659
000140 02 f0 d1 3e 6b 78 f0 3e 6b 31 18 bf 6f 72 d8 3e
       0.41003424 0.46966872 -0.59450406 0.42274806
000150 d6 fa 17 be ac 8d 11 3f 84 e7 35 3f 22 57 21 bf
       -0.1484178 0.568568 0.7105639 -0.6302358
000160 04 41 e7 be c5 61 f6 3e 44 f9 16 3f 5b 14 1a bf
       -0.4516679 0.48121467 0.589741 -0.6018731
000170 6a a0 f8 3e 65 a6 1b 3f 76 2a f4 be cf 96 12 bf
       0.48559886 0.6080077 -0.47688645 -0.57261366
000180 4b ac 15 bf dc 52 08 bf a1 b4 22 bf 7a 64 18 bf
       -0.58466023 -0.53251433 -0.6355687 -0.59528315
000190 2a 54 d5 be e0 9f 18 bf fc c3 32 bf 51 b6 fe be
       -0.41665775 -0.5961895 -0.698303 -0.4974847
0001a0 ad 52 1b bf 56 90 28 bf a8 95 20 3f aa ee 17 3f
       -0.6067303 -0.6584524 0.6272836 0.5934855
0001b0 51 72 06 bf 43 10 37 bf a6 c9 e1 be 77 84 03 bf
       -0.52518183 -0.7150919 -0.44099158 -0.51374
0001c0 2e 39 39 3f 13 93 04 3f 99 75 26 bf cd 25 16 3f
       0.72352874 0.5178692 -0.6502319 0.5865143
0001d0 e8 ed 30 bf 3f 0d 25 bf a8 d5 11 3f 26 24 f4 3e
       -0.69113016 -0.64473337 0.5696664 0.4768383
0001e0 44 c7 05 bf da c1 0c 3f 9e 38 27 3f a3 65 21 3f
       -0.5225718 0.54983294 0.65320766 0.6304571
0001f0 74 81 02 3f c0 70 25 3f a0 7b 02 3f 9d 4c 24 bf
       0.5097878 0.6462517 0.50969887 -0.641794
000200 2a 8e 0f 3f ce 51 19 bf b4 c7 f2 3e 19 2f 15 bf
       0.560763 -0.5989045 0.47417986 -0.5827499
000210 03 19 eb 3e d0 78 2b bf 90 e1 1c 3f 67 7b 04 3f
       0.4591752 -0.6698122 0.6128168 0.517508
000220 9a 96 27 bf f3 b6 05 3f 6b 14 01 3f cb bb 07 bf
       -0.65464175 0.52232283 0.5042178 -0.53020924
000230 3b a0 ec be 95 39 30 3f 3d 67 20 3f d3 62 1a bf
       -0.46215996 0.68837863 0.6265753 -0.60307044
000240 ce 38 1d 3f 1e 98 19 3f 0f 62 00 bf b3 cd 0e 3f
       0.614148 0.5999774 -0.50149626 0.5578262
000250 c9 fc be be 53 15 06 3f 9e 25 08 3f 14 a7 36 bf
       -0.37302235 0.5237629 0.531824 -0.7134869
000260 8b aa 00 bf c3 cc ff 3e d3 be 19 3f 29 ef 02 bf
       -0.5026023 0.49960908 0.600568 -0.5114618
000270 04 14 08 3f 83 33 03 3f 8a a8 08 bf 3f 5e de be
       0.5315554 0.51250476 -0.5338217 -0.4343128
000280 53 81 f8 be c8 a3 38 bf 2a 53 01 bf 29 d6 20 bf
       -0.48536167 -0.7212491 -0.50517523 -0.6282678
000290 b5 17 fd be 14 78 22 bf d3 3e f0 be e9 da f3 be
       -0.4943215 -0.63464475 -0.4692293 -0.47627953
0002a0 84 ec d0 be 03 66 14 bf 61 f6 16 3f 96 ea d3 3e
       -0.40805447 -0.5796816 0.58969694 0.41389912
0002b0 fd ce f8 be 94 87 15 bf 10 da ea be 86 e3 1a bf
       -0.4859542 -0.5841 -0.45869493 -0.60503423
0002c0 b2 f6 1a 3f 47 9a 22 3f 85 6c f7 be 3e cc 24 3f
       0.6053268 0.6351666 -0.4832498 0.6437415
0002d0 d3 fa 2a bf 39 57 f5 be 8b f0 03 3f a6 9e 32 3f
       -0.6678898 -0.47918108 0.51538914 0.6977333
0002e0 50 cc 02 bf 65 96 fd 3e fa 6f 00 3f 49 b1 35 3f
       -0.51093006 0.49528804 0.5017086 0.7097364
0002f0 c7 20 0e 3f 4e 6d 21 3f b0 ab 20 3f 11 09 04 bf
       0.55518764 0.6305741 0.62761974 -0.51576334
000300 47 51 0e 3f bc 76 20 bf 6f ee 13 3f 9d fa cb 3e
       0.5559277 -0.62681174 0.57785696 0.3983964
000310 a0 b1 1b bf 7a 65 23 bf fd 99 f2 be 1b 50 ec be
       -0.6081791 -0.63826716 -0.4738311 -0.46154866
000320 c7 56 00 3f 83 a9 13 3f f3 2c 22 bf 1b 7e 21 3f
       0.5013241 0.5768053 -0.6334984 0.63083047
000330 f9 2f 14 3f df ae 0d 3f dd e0 1c 3f 74 37 ff 3e
       0.578857 0.5534496 0.61280614 0.49846995
000340 c0 28 22 bf fa b7 e4 3e db 3c f4 3e 84 fd e7 be
       -0.6334343 0.44671613 0.4770268 -0.45310605
000350 f7 42 fd 3e 91 3a e5 be 00 c9 fa 3e a6 69 fd be
       0.49465153 -0.44771245 0.48981476 -0.49494666
000360 71 e4 21 3f 7e df e4 be 55 e5 de be bb be 0f bf
       0.632392 -0.4470176 -0.4353434 -0.56150407
000370 37 bb 0a bf a5 92 00 3f c0 3f e9 be 59 76 09 3f
       -0.5419192 0.5022376 -0.4555645 0.5369621
000380 8d ad 1f 3f 76 1a d4 be 28 c3 06 bf a0 f1 fb 3e
       0.6237419 -0.41426438 -0.52641535 0.49207783
000390 b4 55 cf 3e 69 a2 12 3f 06 5f 1d bf db 09 fa be
       0.40495074 0.5727907 -0.6147312 -0.48835644
0003a0 92 1c 0f 3f c9 d0 09 bf fa f0 1d 3f 0e 87 16 bf
       0.5590297 -0.53834206 0.61695826 -0.5879983
0003b0 dd 64 cc 3e f6 cf f2 be 9f d5 01 3f e8 c8 e3 3e
       0.39920703 -0.47424287 0.50716585 0.44489217
0003c0 db d7 dc 3e e4 a0 05 3f 33 2b 14 3f b5 c6 f3 be
       0.43133435 0.52198625 0.57878417 -0.4761254
0003d0 88 7c 14 bf d0 f2 fa be 83 e3 0f 3f be 1b 10 3f
       -0.5800252 -0.49013376 0.5620653 0.5629233
0003e0 b8 ef 19 bf 3b 47 0a bf 76 0f 08 3f cf ef 18 3f
       -0.60131407 -0.5401494 0.5314859 0.5974092
0003f0 00 57 e5 be a2 fc e6 3e e9 53 07 bf c4 cc 0d 3f
       -0.44792938 0.4511462 -0.5286241 0.5539057

fc.3.bias f4 [64]
000000 0c 88 e5 3e 67 4b d8 3e 4c f0 19 3f 97 8e db 3e
       0.44830358 0.42245027 0.6013229 0.42882225
000010 75 d3 e5 3e 1e 16 12 3f 36 c8 10 3f ee e0 ff 3e
       0.4488789 0.57065 0.565555 0.49976295
000020 af da 02 3f ac 64 05 3f 8e fa b8 3e c6 98 14 3f
       0.51114935 0.5210674 0.36128658 0.58045614
000030 51 7b 14 3f 7a 0f c9 3e 35 a9 e2 3e 67 bd 0a 3f
       0.58000666 0.3926962 0.4426972 0.54195255
000040 26 cd 0c 3f 64 3d f7 3e 49 83 19 3d 45 13 d1 3e
       0.5500053 0.48289025 0.03747872 0.40835014
000050 39 8e 18 3f 93 4b 16 3f 71 fa d6 3e 61 00 d8 3e
       0.59592015 0.5870907 0.41987947 0.4218779
000060 41 0b fe 3e 09 1c fc 3e 91 2c 02 3f 8f 28 fc 3e
       0.4961796 0.4924014 0.5084925 0.49249694
000070 63 79 15 3f f3 e3 1a 3f 98 47 c0 3e 64 bc 1b 3f
       0.58388346 0.6050407 0.37554622 0.60834336
000080 95 82 f1 3e 29 af ea 3e c7 1e f5 3e 9f 63 d8 3e
       0.4716994 0.45836762 0.47875044 0.42263505
000090 16 68 17 3f 6b c1 d7 3e 67 6d 0e 3f 7f 87 f8 3e
       0.591432 0.42139754 0.55635685 0.48540875
0000a0 23 bd 02 3f d7 92 a6 bd 15 60 de 3e 5a ef e2 3e
       0.5106985 -0.08133476 0.4343268 0.44323236
0000b0 4d d9 fe 3e 1b 36 f0 3e e2 f4 15 3f 01 5b db 3e
       0.49775162 0.4691628 0.58576787 0.42842868
0000c0 35 c1 e6 3e e9 00 08 be a4 7b 16 3f 11 e2 0d 3f
       0.4506928 -0.13281597 0.5878241 0.55423075
0000d0 e9 66 fe 3e d1 c1 e8 3e 27 ef d5 3e c5 07 10 3f
       0.4968789 0.4546037 0.4178402 0.56261855
0000e0 75 cf 20 3f b4 61 1a 3f ec 22 cf 3e d3 28 0a 3f
       0.62816554 0.60305333 0.4045633 0.5396854
0000f0 1c 7e 08 3f dd eb 06 3f fa e6 ea 3e 39 30 f2 3e
       0.5331743 0.5270365 0.45879346 0.47302416

placing_layer.0.weight f4 [4, 64]
000000 6e af ac bd ad 75 e2 bd 22 64 d8 3d 2f 57 b9 bb
       -0.08431898 -0.11057601 0.10565974 -0.005656145
000010 2d e5 99 3d 0c a8 b7 3d 76 6e 0e 3e 5a b5 77 bc
       0.07514415 0.08967599 0.13909325 -0.015118921
000020 c1 6e e2 3c 80 98 87 bc e0 60 f2 bc 98 64 fa 3b
       0.027640702 -0.01655221 -0.02958721 0.0076413862
000030 6d 18 c9 bd 20 9b aa 3d 01 00 15 3d 0a 6d 92 3d
       -0.09819112 0.08330369 0.036376957 0.07149704
000040 f5 26 da 3c 9a 97 a0 3d aa a0 48 bd e7 f5 99 bd
       0.026629904 0.07841416 -0.048981346 -0.07517605
000050 3a 13 d5 3d 79 80 8d 3d 5f 2a 85 bd a0 60 16 be
       0.10404058 0.0690927 -0.06502222 -0.14685297
000060 e2 df e3 bd a9 9e 90 3d 36 0b 57 3d bb 31 2c 3d
       -0.11126687 0.07061512 0.052500926 0.042039614
000070 4d b0 c4 bd ce 01 a4 bc 10 50 f5 bd 1f 51 02 3d
       -0.09603939 -0.020020392 -0.11978161 0.031815644
000080 58 52 2a bd 3d 3e 14 3d 58 5b de ba 90 85 f2 bb
       -0.041582435 0.036192168 -0.0016964478 -0.007401176
000090 d4 36 9a bd 63 bc 9f bd 55 9d df bd fc 4a 57 3c
       -0.07529989 -0.07799604 -0.109186806 0.013140436
0000a0 2b 4b 40 3d b8 31 f9 3c 63 86 00 3e c8 5a af bd
       0.046946686 0.030419216 0.12551264 -0.08562237
0000b0 7d 1d c3 bc 80 53 bb 3d 1c 23 b7 3c 43 e4 a3 3d
       -0.023817772 0.09146786 0.022355609 0.08002522
0000c0 46 a7 8c bc 44 31 4f 3d c1 7d 20 bd 4f 84 80 bc
       -0.017169606 0.050584093 -0.03918243 -0.01568809
0000d0 b8 db c4 bd 87 fb d3 3d a0 fa dc bd f2 44 d1 bd
       -0.096122205 0.103507094 -0.107899904 -0.102182284
0000e0 37 70 8a bd ce e7 1f 3d 30 72 67 bd 90 3c 67 bb
       -0.067596845 0.039039426 -0.056505382 -0.00352839
0000f0 9b 3e df 3c af a2 10 3d 59 d8 40 3d eb 52 cf bd
       0.027251532 0.035311397 0.047081325 -0.10123237
000100 43 7d 54 bd 85 45 09 be 4c 3e 2b bd d6 43 92 3d
       -0.05187727 -0.13405426 -0.041807458 0.07141845
000110 0b 63 d2 3d e3 14 cf bb 4b 45 9c ba 1c f0 a1 3d
       0.10272797 -0.0063196286 -0.0011922506 0.07907125
000120 8d 1f d1 bd d7 82 4a bd ad 48 8e 3d 61 cb 02 be
       -0.10211096 -0.049441185 0.069474556 -0.12772895
000130 3c 78 45 bd e6 21 3f bd 0e 6c b4 bd 6d 87 d0 bd
       -0.048210368 -0.046663187 -0.08809672 -0.101820804
000140 9d 65 54 3d 42 1d 62 3d aa bd cc 3d c5 22 b0 bd
       0.05185472 0.055203684 0.09997113 -0.08600382
000150 81 8e 2d 3d 1e a9 67 3d f2 38 37 bd 3f eb fb 3c
       0.04237223 0.056557767 -0.04473204 0.030751823
000160 8d 3a 3b 3d 9d 09 f2 bd 0a 09 60 bc 7e 12 48 bd
       0.045710135 -0.1181824 -0.01367403 -0.04884576
000170 b2 3b 55 3d cd 72 1b 3d 18 6c 9b bd 1a 08 43 bd
       0.052058883 0.03795128 -0.075889766 -0.047615148
000180 74 17 85 3d 31 12 95 3d 15 df c4 bd c7 8d a7 bc
       0.06498614 0.0727886 -0.09612862 -0.020453347
000190 c0 46 ff bc 65 9c 3b bb 09 96 57 bb 17 47 f6 bc
       -0.031161666 -0.0028627154 -0.0032895824 -0.030063195
0001a0 94 dd 05 bd 87 f2 cd bd 9e ff 9e 3d d1 00 4c 3d
       -0.032682016 -0.10056024 0.07763599 0.049805466
0001b0 4c 94 46 bd 3c 60 3f bc a1 cf 8d bc 1f f0 d4 bc
       -0.04848127 -0.011680659 -0.01731092 -0.025993405
0001c0 28 e7 00 bd f1 b9 65 3c 3d a1 fb bd f0 6d 1e 3d
       -0.031470448 0.014021383 -0.12286613 0.038679063
0001d0 d1 82 a6 3d f3 88 09 3b d2 86 90 bd 22 76 94 3d
       0.0813042 0.002098617 -0.07056965 0.072490945
0001e0 f6 29 c8 3d f0 b8 7d 3d 05 c8 77 3c 56 0e d6 bc
       0.097736284 0.06194395 0.015123372 -0.026129883
0001f0 3e 1f 39 3d d8 f3 d0 3d 49 20 b9 3d 87 6e b8 3b
       0.04519581 0.102027595 0.09039361 0.0056284103
000200 6a ba ff 3e 98 7b 20 3f 5f 35 ff 3e 38 3d eb 3e
       0.4994691 0.6268859 0.49845406 0.45945144
000210 00 66 0d 3f 20 2a 0d 3f 11 f1 d3 3e de 22 05 3f
       0.55233765 0.551424 0.41394857 0.5200633
000220 9c 66 03 3f 0d 84 1f 3f 5f 72 14 3f 2b 83 e1 3e
       0.51328444 0.6231087 0.57987016 0.44045386
000230 3c 39 20 3f 7c 5b e0 3e 5a 48 1f 3f cc ab f7 3e
       0.6258733 0.43819797 0.62219775 0.48373258
000240 d6 34 fc 3e 2b 4f fa 3e 16 8d a5 3d cd 10 17 3f
       0.4925906 0.48888525 0.08083551 0.5901001
000250 bb 74 ec 3e 1a f2 10 3f af 25 db 3e 11 d2 00 3f
       0.46182808 0.5661942 0.42802188 0.50320536
000260 28 99 d6 3e 06 d1 1f 3f 92 ac 04 3f bc 0c f5 3e
       0.41913724 0.6242832 0.5182582 0.47861278
000270 aa 7d 1a 3f b2 01 d1 3e 0b 72 17 3f 75 89 07 3f
       0.60348 0.40821606 0.5915839 0.5294412
000280 d8 08 cc 3e 5b 7e 10 3f ae c7 fb 3e 2a 7c f7 3e
       0.39850497 0.56442803 0.4917578 0.48336917
000290 2c 3d 0e 3f 3d 4a 0b 3f 8b 10 e8 3e 7b 9c f3 3e
       0.5556209 0.54410154 0.4532512 0.47580323
0002a0 3a 34 20 3f 50 60 a7 3d fb 5e ce 3e 1c 72 f7 3e
       0.6257969 0.08172667 0.4030684 0.48329246
0002b0 58 fb dc 3e 6f e9 03 3f ec 3c 0d 3f b5 56 12 3f
       0.4316051 0.51528066 0.55171084 0.57163554
0002c0 bd 11 02 3f 54 f7 3e bd 90 5f 20 3f 99 a1 26 3f
       0.50808316 -0.04662259 0.62645817 0.6509033
0002d0 b6 1e dd 3e 85 3c ef 3e 79 0e fd 3e b7 02 ee 3e
       0.43187493 0.4672586 0.49425104 0.46486446
0002e0 c0 fa 0a 3f a7 b9 fa 3e e9 5b 00 3f c5 d7 1e 3f
       0.54288864 0.48969766 0.50140244 0.6204799
0002f0 33 89 12 3f 65 3b ff 3e 4b db 0b 3f 42 d5 04 3f
       0.572406 0.49850002 0.5463149 0.51887906
000300 13 8b 5d 3c c1 f5 8a bd 2c bd e5 bd 18 95 1f 3d
       0.013521927 -0.06785155 -0.11217722 0.038960546
000310 38 b8 ca bd 30 44 d1 bd 23 c0 a1 bd c9 6b e0 3c
       -0.09898418 -0.10218084 -0.07897975 0.027395146
000320 d0 cb e4 3c 08 11 ce bd a6 4a 3d bd 63 2e ed 3c
       0.027929217 -0.10061842 -0.04621377 0.028952783
000330 93 87 b3 bd 03 ff 4c 3d 1c c1 f8 bd e4 84 b7 bd
       -0.08766093 0.050047886 -0.12146208 -0.08960894
000340 6d 47 ba 3c 2b 82 e6 bc 6f 3b dd bd a1 23 f5 bd
       0.022739137 -0.02813824 -0.10802352 -0.11969686
000350 a6 3b d7 3a d1 30 72 3d 9e f4 c0 bd 0f af d4 3c
       0.0016420975 0.059128586 -0.09421657 0.02596238
000360 79 37 b7 bd 98 37 41 bd 50 94 80 3d 3b a5 d7 3c
       -0.089461274 -0.04717216 0.06278288 0.026323905
000370 38 55 b3 3d 7d 00 e7 3d cc fa ca 3d 38 16 9c 3d
       0.087564886 0.1127939 0.09911117 0.076214254
000380 84 93 9a 3d 50 3f b8 bd 1f 13 9d 3d 31 d1 a8 3d
       0.075476676 -0.08996451 0.07669663 0.08243025
000390 73 ab d3 bc e3 f3 68 bd 75 a0 30 3d 42 1c 0a bc
       -0.02583859 -0.056873213 0.043121774 -0.008429589
0003a0 62 cc a4 bd e7 21 9b bd fc 2d 80 3d 12 88 c9 3d
       -0.080467954 -0.07574826 0.06258771 0.098404065
0003b0 3f db a2 3b 2c 88 c4 3d ef c7 07 be e7 90 ab bd
       0.004969984 0.09596285 -0.13259862 -0.08377247
0003c0 d5 11 d4 3d 69 4c 0c 3d b3 db 31 3d 48 d2 b5 bb
       0.10354964 0.034252558 0.043422412 -0.005548749
0003d0 4c b6 ff bd cf d1 ec 3d 53 d7 8e bd c3 ce e4 3d
       -0.12485942 0.11563455 -0.069746636 0.11172249
0003e0 c9 ed b0 3d 2b f3 05 bc 16 02 92 3d f9 88 29 bd
       0.08639104 -0.008175652 0.07129304 -0.041390393
0003f0 ba 50 89 bd a1 1b 02 be d5 5c b0 bd 0f 9f ec bb
       -0.067048505 -0.12705852 -0.08611456 -0.0072211097

placing_layer.0.bias f4 [4]
000000 ac ef d1 bd bd 3e 87 bd 5a 6d f0 3e bc e3 fc bd
       -0.10250792 -0.06603763 0.4695843 -0.123481244

placing_layer.1.weight f4 [4, 64]
000000 bc f9 0b 3f 2c ec f2 3e af 67 a7 3e 08 24 e3 3e
       0.5467794 0.4744581 0.32696292 0.44363427
000010 bf ee 13 3f 21 2a b8 3e c0 e0 04 3f 96 4b da 3e
       0.5778617 0.35969642 0.5190544 0.42635792
000020 ca bd e9 3e 85 a4 cf 3e b6 33 0f 3f 2b b6 14 3f
       0.4565261 0.40555206 0.5593828 0.58090466
000030 57 a9 fa 3e df c5 0f 3f bb ce 08 3f 58 10 20 3f
       0.4895732 0.561613 0.53440446 0.6252494
000040 81 85 f7 3e 06 fa 17 3f ab 59 06 3e a0 0a 03 3f
       0.48344043 0.5936588 0.13120143 0.5118809
000050 8a 01 0c 3f b7 fe 01 3f 90 8b 13 3f 6b cd 20 3f
       0.5468985 0.5077929 0.5763483 0.6281344
000060 fd 72 12 3f da 1b e5 3e d8 cf e4 3e b2 06 c5 3e
       0.5720671 0.44747812 0.44689822 0.3848167
000070 f8 e4 d7 3e fd ce e1 3e 31 7f 08 3f ae 5e 9a 3e
       0.42166877 0.44103232 0.5331908 0.3015036
000080 fc ec 05 3f b8 75 b8 3e 64 54 96 3e 00 39 02 3f
       0.52314734 0.36027312 0.2936126 0.50868225
000090 d0 77 05 3f 57 5f 92 3e ea f6 cb 3e 33 4b ce 3e
       0.52135944 0.28588364 0.39836818 0.40291747
0000a0 9b 07 df 3e b1 12 a5 bd a0 7a ec 3e fb b3 01 3f
       0.4356049 -0.08060206 0.46187305 0.50665253
0000b0 fa f7 c1 3e 4f 1e 0c 3f 1c 3a b1 3e 17 f7 c6 3e
       0.37884504 0.5473375 0.34614646 0.3886039
0000c0 6a 60 e9 3e fa 57 4e bd 6e 85 01 3f 25 8c a7 3e
       0.4558137 -0.05037687 0.5059422 0.3272411
0000d0 61 df ac 3e 64 b0 d1 3e c6 27 fc 3e 77 af d3 3e
       0.33764175 0.40954888 0.49249095 0.41344807
0000e0 8b 8c 9e 3e 4a 60 c9 3e aa 53 dc 3e f3 0c 10 3f
       0.309666 0.39331275 0.4303258 0.5626976
0000f0 6c 36 0d 3f 0b 1b ff 3e 6a 23 ce 3e e4 24 e5 3e
       0.55161166 0.4982532 0.40261394 0.44754708
000100 a5 8c be bc f2 56 44 3c 06 2b 80 3b 04 c3 f9 bd
       -0.023260424 0.01198362 0.003911379 -0.121953994
000110 dc fb e2 bd b9 35 9c 3d bc 39 1a bd 0a 6b 22 bd
       -0.110831946 0.07627434 -0.037652716 -0.03965286
000120 11 26 cb bb b4 3d e8 bd 20 9e 0c bc ed 20 5c 3d
       -0.006199606 -0.11339894 -0.008582622 0.053742338
000130 4d ab 04 3d cf 60 d2 bd d4 93 04 3d 8b d0 88 3d
       0.032389928 -0.10272371 0.032367542 0.066804014
000140 a8 a6 92 3d 8c 71 75 bd bd 38 55 bd b2 74 ac bd
       0.071606934 -0.05992274 -0.052056063 -0.08420695
000150 71 cb 20 3d 47 0a 9b 3d 68 d5 b9 bd 7f 7e 35 3d
       0.039256517 0.075703196 -0.09073907 0.04431009
000160 a8 d3 dc 3c b9 13 f2 ba 3c a5 b7 3d 9c 9c ec bc
       0.026956394 -0.0018469013 0.08967063 -0.02888327
000170 66 70 1e bd 00 da c3 bd 82 c1 be 3d e9 81 5d 3d
       -0.03868141 -0.095630646 0.093142524 0.05407897
000180 a8 30 c2 3d 72 46 95 bd 21 ef c0 bc 73 3b a7 3c
       0.09481937 -0.07288827 -0.023551526 0.02041409
000190 3e 4c 04 be 29 31 fe bd 40 58 80 bd af 49 ab bd
       -0.12919709 -0.1241172 -0.06266832 -0.083636634
0001a0 b3 60 e0 3d 11 6a c2 3d 32 12 82 bd f6 58 fe bd
       0.10955944 0.09492887 -0.06351127 -0.12419312
0001b0 a9 9b fd bd 3a 38 87 bc 6b 42 df bd 33 ab 9a bd
       -0.123832054 -0.016506303 -0.1090134 -0.07552185
0001c0 f6 d6 11 3d 03 7c 59 bd 52 19 96 bd 99 44 e6 bc
       0.035605393 -0.053096782 -0.07329048 -0.028108882
0001d0 4c e8 de 3d be 1f 7d 3d 5b 66 4f 3c 87 d9 96 3d
       0.10884151 0.06179785 0.012658681 0.07365709
0001e0 61 9d 12 bd 2a d9 21 bd 52 91 94 bc d6 82 83 bc
       -0.03579462 -0.039513744 -0.0181357 -0.016053598
0001f0 36 5f 6e bd 17 5a 96 3d 97 9d 65 3d 6c 54 ed 3d
       -0.05819627 0.07341402 0.056058493 0.11588368
000200 26 13 f5 bd 9e 8c e3 bd 81 35 86 bd 80 46 20 3b
       -0.11966543 -0.11110805 -0.06553174 0.0024456084
000210 60 4f bf 3c a6 5a 8d 3d fe c0 e7 bd 5d 23 a5 bd
       0.023353279 0.069020554 -0.11316107 -0.08063386
000220 d0 00 9b 3d 58 7e 94 bc 7c c2 c8 bd e2 8e db bd
       0.07568514 -0.018126652 -0.0980272 -0.10720612
000230 22 f6 e9 3d 40 6a a8 bb 3a 0c a0 3d ea e8 de bd
       0.11423899 -0.005139619 0.07814832 -0.108842686
000240 78 b0 fd bb 59 7c 01 3d c2 f2 cb bd 88 57 e7 3c
       -0.007741984 0.031612728 -0.09958412 0.02823998
000250 a4 95 cc bd 40 40 f8 bd c0 29 49 3b 01 39 97 3d
       -0.09989479 -0.1212163 0.003069505 0.073839195
000260 41 03 28 bb ec f4 01 bd ff 71 83 3d 22 04 a5 3d
       -0.0025636705 -0.031727716 0.064182274 0.08057429
000270 c1 37 1c bc 4d 61 6b 3d a8 80 89 bd 24 e3 db bd
       -0.009534777 0.05746584 -0.06713992 -0.10736683
000280 d0 37 35 3c ab dd 8f bd f6 c2 82 3d e4 3f d4 bc
       0.01106067 -0.07024702 0.06384842 -0.025909372
000290 70 43 a2 bc 91 2e ab bd b0 82 af bc 28 64 ba 3c
       -0.019807547 -0.08358491 -0.021424621 0.022752836
0002a0 4b 4d 90 3d 7d da 8a bd f8 2b e5 bc 32 07 9b bd
       0.070459925 -0.067799546 -0.027975067 -0.07569732
0002b0 62 4d 7c bc e1 cf 0f bd 9c e0 46 3d 38 88 21 3b
       -0.015399309 -0.03511036 0.048554048 0.0024647843
0002c0 ac 5e 74 3d ba 38 8e 3d fc f6 f9 bd ea 1b ee 3c
       0.0596606 0.069444135 -0.12205312 0.029066045
0002d0 b5 54 fb bc da 94 f7 bb fa 6f 87 3a a7 54 c3 3d
       -0.03068004 -0.0075555863 0.0010333054 0.095376305
0002e0 01 76 e0 bc 9b 5d fd bd 85 82 a3 3c e0 42 00 bd
       -0.027400019 -0.123713695 0.019959697 -0.031313777
0002f0 c0 07 2e 3c 3c 53 be bd dc 6a 74 bd ba 44 0e 3c
       0.010621965 -0.092932194 -0.05967222 0.008683378
000300 33 65 d6 3e 8f 0e 05 3e 5a 27 a4 3e 2f 78 ac 3e
       0.41874084 0.12993835 0.32061273 0.33685443
000310 85 39 5b 3e 97 2d b9 3e b3 49 3a 3e 18 41 6c 3e
       0.2140866 0.36167595 0.18192177 0.23071706
000320 61 a1 a0 3e 25 f0 b7 3e 15 67 8d 3e 78 7b cd 3e
       0.31373122 0.35925403 0.27617708 0.40133262
000330 06 82 54 3e ac 6a 58 3e d5 7f 5c 3e dc c3 9e 3e
       0.20752725 0.21134442 0.21533139 0.31008804
000340 45 b7 4b 3e 8f ea b4 3e 80 f3 c1 bd 4c 7e a3 3e
       0.1989413 0.35335204 -0.09470272 0.31932294
000350 a4 32 86 3e 24 41 ca 3e 7b 61 ba 3e de a2 98 3e
       0.2621051 0.39502823 0.36402497 0.29811758
000360 90 29 98 3e 27 1f 83 3e f4 fc 4d 3e 5e 6d c6 3e
       0.2971921 0.25609705 0.20116025 0.38755316
000370 bd 39 3e 3e 4a 23 ba 3e 3c 77 42 3e da bc 8d 3e
       0.18576713 0.36355048 0.18990797 0.27683145
000380 21 d3 73 3e 05 1b b0 3e a8 72 7a 3e a8 61 83 3e
       0.23811008 0.34395614 0.244578 0.25660443
000390 de 25 bf 3e 62 59 64 3e 77 ed 04 3e 62 c1 c5 3e
       0.37333578 0.22299722 0.1298121 0.38624102
0003a0 32 1a a5 3e 70 dd bf bb 29 b3 36 3e 75 77 a8 3e
       0.32246548 -0.005855255 0.17841782 0.32903638
0003b0 35 25 a0 3e d1 5e 5e 3e c6 d2 52 3e 78 3b 98 3e
       0.31278387 0.21715857 0.20588216 0.2973287
0003c0 5b ea 2a 3e c6 e6 c9 3d 72 23 ce 3e b8 1f 57 3e
       0.16690962 0.0985847 0.40261418 0.21008193
0003d0 84 48 b4 3e 1e a2 2e 3e 4c 3a 7d 3e 21 0a 5c 3e
       0.35211575 0.1705403 0.2472927 0.21488239
0003e0 c6 fd 95 3e 87 93 a8 3e 53 ab 2d 3e d9 e2 56 3e
       0.29295176 0.32925054 0.16959886 0.20984973
0003f0 a2 89 b7 3e b1 bd ba 3e 87 89 52 3e af 16 79 3e
       0.35847193 0.36472848 0.20560275 0.2432506

placing_layer.1.bias f4 [4]
000000 84 a5 aa 3e 50 65 85 3c 76 2b aa bd c1 65 9c 3e
       0.33329403 0.016283661 -0.08309071 0.30546382

placing_layer.2.weight f4 [4, 64]
000000 cd c8 ef bd 81 cb 14 3f 84 88 d6 3e 0e 47 14 be
       -0.117082216 0.5812302 0.41901028 -0.1448023
000010 6b c2 cc bd ed a7 14 3f 58 b7 0a 3f 0f 50 f0 3e
       -0.0999802 0.58068734 0.5418601 0.4693608
000020 58 61 1a be 59 9e d4 bd b9 cc 31 3d 6d a1 3a bd
       -0.15076196 -0.10381765 0.04340813 -0.045564104
000030 83 c8 11 3f 2f 3e e4 3a 2f 5c 85 bd a3 9a 28 be
       0.5694658 0.0017413552 -0.06511723 -0.16465239
000040 b0 a3 1e 3d 14 a6 6c bd bd a9 ba 3c ce cf 1c be
       0.038730323 -0.057775572 0.022786016 -0.15313646
000050 8b df 1f bd 87 42 c4 bd 31 30 30 be 58 a3 1a 3d
       -0.039031547 -0.095830016 -0.17205884 0.037753433
000060 2c d8 d2 bd 0e b5 14 be 89 13 be 3e 21 86 4c 3d
       -0.10295138 -0.14522192 0.3712428 0.049932603
000070 31 27 17 3f 45 fe 16 3f 8f be 33 3d e8 17 cf 3e
       0.59044176 0.58981735 0.043882903 0.40447927
000080 51 26 45 be 54 50 13 3f dd 11 bc 3e db db e7 3e
       -0.19252898 0.57544446 0.3673238 0.45284924
000090 57 f0 9d bd 31 0c d7 3e e9 d3 d6 3e 45 f2 ec bd
       -0.07711857 0.4200149 0.4195855 -0.11569647
0000a0 26 44 41 3c 94 e8 ee 3d 56 ed 05 3f 00 dd 33 be
       0.011796033 0.116654545 0.5231527 -0.17564774
0000b0 ac ec d0 3e 9e 96 b3 bd fb 60 03 3f 13 18 c7 3e
       0.40805566 -0.08768962 0.51319855 0.38885555
0000c0 5d 27 19 3f ba ad 68 bd 3a 3b 16 be 83 2c b9 3e
       0.5982569 -0.056806304 -0.1467103 0.36166772
0000d0 19 cc c0 3e a5 09 03 3f 42 20 d3 3e 35 95 15 be
       0.37655714 0.5118659 0.41235548 -0.14607699
0000e0 46 a7 00 3f 88 18 17 3f b8 24 06 3f ec c3 04 3d
       0.5025524 0.59021807 0.5239978 0.03241341
0000f0 96 c2 44 bd 3b 9c 14 be e7 ce 1a bd da 0b 0a 3f
       -0.048037134 -0.14512722 -0.037794974 0.53924334
000100 75 d1 e7 3e 2d 6e 08 3f eb dc 1f 3f d8 0f f0 3e
       0.4527699 0.53293115 0.6244647 0.46887088
000110 b2 ee 1d 3f 6f 9c 1e 3f 55 b8 f9 3e 92 e5 20 3f
       0.61692345 0.6195745 0.48773447 0.62850296
000120 3f 89 22 3f d4 f3 0d 3f d8 4f f8 3e f4 82 e9 3e
       0.6349067 0.5545018 0.48498416 0.45607722
000130 c9 fb 15 3f fc d2 d4 3e 0c 18 0d 3f 20 5a dd 3e
       0.5858732 0.41567218 0.5511482 0.43232822
000140 a1 08 12 3f e9 5d 19 3f a6 8a f2 3d a5 70 21 3f
       0.57044417 0.5990892 0.11842851 0.63062507
000150 c9 94 cc 3e 25 29 25 3f 27 09 16 3f 91 99 e8 3e
       0.39957264 0.64515907 0.58607715 0.45429662
000160 62 65 27 3f 7c a9 de 3e 78 86 1d 3f 17 a2 15 3f
       0.6538907 0.4348868 0.6153331 0.58450454
000170 80 cb e4 3e b7 68 0c 3f 36 32 ed 3e fe 61 d6 3e
       0.44686508 0.5484728 0.4632737 0.41871637
000180 77 b7 0f 3f 29 1b fc 3e e8 76 ed 3e 50 33 1c 3f
       0.5613932 0.49239472 0.4637978 0.61015797
000190 91 60 fd 3e c2 88 15 3f 5e 8f fe 3e 74 7b ee 3e
       0.49487737 0.584118 0.49718755 0.46578562
0001a0 36 22 18 3f cf 76 b6 3d 10 92 e4 3e ac 65 0b 3f
       0.594272 0.0890938 0.44642687 0.54452014
0001b0 7c 7f 15 3f 49 55 f7 3e a7 88 f1 3e aa 79 25 3f
       0.5839765 0.48307255 0.4717457 0.6463877
0001c0 2b c5 24 3f ae 5c 38 3d 17 60 1c 3f e6 07 e8 3e
       0.64363354 0.04501026 0.6108412 0.45318526
0001d0 92 c3 02 3f 48 58 28 3f 27 0a ef 3e 79 e4 01 3f
       0.51079667 0.65759706 0.46687433 0.50739247
0001e0 2b 31 ec 3e 4c 0e e9 3e e1 4c 13 3f 68 45 d0 3e
       0.46131262 0.4551872 0.5753918 0.40677953
0001f0 76 24 24 3f 39 01 02 3f ef f0 d8 3e 26 16 ec 3e
       0.64118135 0.50783116 0.42371318 0.46110648
000200 f7 65 b9 bd b6 ce aa 3d b2 40 e2 3d 81 68 3c 3d
       -0.090526514 0.08340208 0.11047496 0.0459981
000210 19 56 81 bc 52 01 4d bc 71 6d 96 bd bb 7d b1 3d
       -0.015788125 -0.012512522 -0.07345093 0.08666559
000220 d4 0b 68 3d 0b 75 ef 3c d8 1a 6e 3d 23 1b d9 3d
       0.056651905 0.029230615 0.05813107 0.10600879
000230 44 62 c6 bd 5b 37 37 bd c6 40 9a bd a3 eb 8c bd
       -0.096867114 -0.044730525 -0.07531886 -0.06880882
000240 2f e9 31 3b 47 f5 dc 3d 2a 81 88 3d b8 d2 4a bd
       0.0027147045 0.107889704 0.06665261 -0.049517363
000250 43 db 09 be 39 27 64 3c a0 44 97 3d 06 77 aa 3d
       -0.13462548 0.013925367 0.07386136 0.08323483
000260 d3 63 c6 bd 4e 9a 8f 3d 25 2a e6 bd 03 82 3f bc
       -0.09687009 0.07011853 -0.11238507 -0.011688712
000270 93 6b 04 be be b9 7e bd eb db 8e bd 7d 1b eb bd
       -0.12931661 -0.062188856 -0.0697554 -0.11479852
000280 55 3b 97 bd 5b 8f 80 3d 56 81 93 bd eb a1 fe 39
       -0.073843636 0.06277343 -0.07202403 0.00048567294
000290 3c ef 00 be a9 ef 93 3c e7 50 82 3d 13 f1 7b 3c
       -0.1259126 0.018058615 0.06363087 0.015377301
0002a0 57 d4 80 3d 95 f4 06 bd 90 67 07 3d ff d6 42 bd
       0.062905006 -0.032948095 0.03305775 -0.047568318
0002b0 29 8c 95 3d ad 5d 89 bd 45 09 f1 3c cd d7 d5 bc
       0.07302124 -0.0670732 0.029423365 -0.026103878
0002c0 65 43 ee 3c 59 96 2b 3c fc a8 ce 3d b3 fe 2e 3d
       0.02908487 0.010472857 0.10090825 0.04272337
0002d0 e4 7c 5d 3d da 96 95 3c 8e e8 ef 3c b6 70 86 bd
       0.054074183 0.018260408 0.029285695 -0.06564467
0002e0 a8 f3 50 3d 02 5d 42 3c 58 5f 33 bd 77 45 4f ba
       0.05101362 0.011862995 -0.0437921 -0.00079067744
0002f0 87 54 7f 3b 83 06 d2 3d 7d 5f 83 3d 9c f1 b7 bd
       0.0038960294 0.10255148 0.06414697 -0.0898163
000300 fc 31 b8 3d a7 a7 84 bc 34 24 a2 3d 91 ed aa bd
       0.08993909 -0.016193224 0.079170614 -0.083460934
000310 4f 29 17 bd da 75 e4 bc f8 fc 9d 3d 50 77 99 bd
       -0.03690463 -0.027888227 0.077142656 -0.0749346
000320 8b 71 01 be 89 97 06 be e5 bf b1 3d bc e0 96 3d
       -0.1264097 -0.13143744 0.08679179 0.073670834
000330 48 57 87 bc 4b 00 f5 3c 10 f5 60 bd 13 8d c2 bd
       -0.016521111 0.029907366 -0.05492121 -0.09499564
000340 91 11 09 be b0 51 3f bc 20 91 40 3d 9b f3 8d bc
       -0.13385607 -0.011677191 0.047013402 -0.017328074
000350 e5 8b ad 3d f6 2a 10 be a7 d8 10 be 21 0a d9 3d
       0.084739484 -0.14078888 -0.14145146 0.10597635
000360 3c 85 ab bb 80 11 70 bc c8 fe ec bd df cd ac 3d
       -0.0052343886 -0.01465261 -0.11572033 0.08437704
000370 35 48 ba 3d fa 36 90 bc 22 41 33 3d 4e 78 90 3d
       0.09095804 -0.01760434 0.043763287 0.07054196
000380 4e b7 0e bd 63 e2 d3 bd 24 76 8d bc 7d 10 ba 3d
       -0.03484278 -0.10345914 -0.017268248 0.09085176
000390 56 f8 83 bd 71 93 ab bd 28 40 06 be ae fc ab 3d
       -0.06443851 -0.083777316 -0.13110411 0.08397804
0003a0 bf 1a 89 3d 0c 2b ab 3d ff 51 3e bd 6a 96 6a 3d
       0.066945545 0.0835782 -0.046464916 0.057272352
0003b0 46 74 db bd 58 79 89 3d e0 cc ba 3b 4a 94 9e bd
       -0.10715537 0.067125976 0.0057006925 -0.07743128
0003c0 06 68 d9 bd ca ff 91 bd 30 cb ff bd 29 e1 34 3d
       -0.10615544 -0.07128866 -0.12489927 0.044160042
0003d0 cd a1 e6 3a 55 35 9d 3d 7a 2d c3 bd df 88 f2 bd
       0.0017595828 0.07676188 -0.09530158 -0.11842512
0003e0 09 fe 14 bd bd 41 a5 3d 8e b5 2c bd 42 97 c3 3d
       -0.03637508 0.08069179 -0.04216533 0.095503345
0003f0 36 1d 98 3d ee c6 16 3d 01 db ad 3d fc 27 fc bd
       0.074274465 0.036810808 0.08489037 -0.12312314

placing_layer.2.bias f4 [4]
000000 05 ca ed 3e a7 ee 9b 3e e4 77 05 be 7c e9 81 bb
       0.4644319 0.30455515 -0.13034016 -0.003964601
