auto_src/log/x3exp_1/critic_learn/td3/epoch92/imitation_learning_td3_env-20240814-235146/itd3_actor.pth (torch, 275435 bytes, 108 tensors)

fc.0.weight f4 [64, 620]
0.012577937 0.056753933 -0.011303672 -0.031063177 0.006462232 0.0069811493 -0.0007414834 0.022564152
-0.023609508 0.009769253 -0.011010614 0.0028015613 -0.030707434 -0.019211078 0.0075293896 -0.030284068
0.032266226 0.039580468 -0.039693665 -0.024861962 -0.0044885236 0.035095807 0.0025476518 0.060069315
0.020906888 0.03685252 0.038934182 -0.04842932 -0.003306228 -0.0033259674 -0.024004217 0.046187636
0.01040911 0.003417095 -0.004318001 -0.028895099 -0.008653853 0.05967328 0.0031581216 0.03646436
0.03334078 0.013912857 0.020743039 -0.06776083 -0.009315358 -0.0029114229 0.01873617 0.010742932
-0.02605689 0.009232647 0.05727512 0.031080512 0.034608793 0.0013508331 0.019206436 -0.02208368
0.009656572 -0.0393102 -0.010342288 -0.009539443 0.019063262 0.031400483 0.004425811 0.03152667
0.02990055 -0.020296251 0.008130499 -0.012445073 0.03592358 0.04856516 -0.026159428 0.019176327
-0.008454365 0.046191026 0.014862446 0.0007190933 -0.0011811637 -0.029648233 -0.013793026 0.0046283235
-0.0127651775 0.040583976 0.059113327 -0.043042548 0.005439002 -0.020225838 -0.008094197 0.016058948
0.0478849 0.0047406335 0.003447124 0.032335155 0.0507782 0.018079408 -0.02796598 -0.0050308276
0.047338914 0.006598966 -0.024078071 0.0072078216 0.03195384 0.04479008 0.0055075395 -0.0026755938
-0.0074652215 -0.03331656 0.005872738 -0.034149908 -0.017829234 -0.008190028 -0.035523206 0.038271703
0.01173021 0.038330693 0.017959349 -0.008430431 -0.015274134 -0.004868522 -0.001752641 0.018527672
-0.0013216694 -0.0049680425 -0.010213208 0.023681406 -0.030661449 -0.0326359 0.01589975 -0.021765694
-0.0023702728 -0.021864725 -0.021285275 0.04669583 -0.021703988 0.012244269 0.057938203 -0.011314599
0.02439413 0.009725027 -0.0056875343 0.0145567 0.056354906 0.02450173 0.05687974 -0.0073796464
-0.0015279191 -0.03135954 0.03955201 -0.028581938 -0.0004771518 -0.035023373 -0.019026797 -0.0066557876
0.002059125 0.039851822 0.013406666 -0.018295716 0.007842391 -0.000985167 -0.004510081 -0.008941829
0.008569703 -0.003028794 -0.03105139 -0.037933093 0.015697893 0.01879391 0.013369166 0.0068955706
-0.010211075 0.002774892 0.069118634 -0.025330584 0.017862787 0.03736617 -0.047640134 0.028483346
-0.0029733013 -0.035968304 0.061257485 -0.03277601 0.026548175 0.017201891 0.06402182 -0.015272733
0.002287273 0.022158256 -0.0043272753 0.024623765 0.0033210611 0.04774 0.0301816 0.059470296
0.010616973 0.031501133 -0.0371437 -0.039944243 -0.032749355 0.0143597545 -0.011445088 0.0044764574
0.0019178796 0.02300742 -0.017264502 -0.009731646 -0.013278289 0.02787013 0.009785987 0.05564955
0.054597337 -0.020957775 1.0714648e-05 0.0026353893 0.013644177 -0.004835532 -0.020758744 -0.01658216
-0.011158813 0.019144055 0.0056986874 0.004527618 0.0027380683 0.011900774 0.045832064 0.026052145
-0.0022261934 0.033616 -0.03820864 -0.014704755 0.018383812 -0.0044075507 0.035216823 0.009231357
0.039548997 0.060732454 0.0057569477 -0.02536463 0.031733435 -0.007850296 -0.0141411405 0.036568206
0.042447206 0.057286948 0.0076624397 -0.018288242 0.026772143 -0.027016139 0.0561185 0.002461384
0.0063718134 0.0021227384 -0.01400718 0.012444962 0.038137127 -0.006850975 -0.020464657 -0.011465338
00000000: b113 4e3c d076 683d 0933 39bc 3478 febc
00000010: 22c1 d33b 20c2 e43b 1c60 42ba 75d8 b83c
00000020: ba68 c1bc 380f 203c dd65 34bc 669a 373b
00000030: 288e fbbc 8d60 9dbc 19b9 f63b 4b16 f8bc
00000040: 9729 043d 211f 223d d395 22bd 50ab cbbc
00000050: 7714 93bb 9fc0 0f3d 81f6 263b 3e0b 763d
00000060: ec44 ab3c abf2 163d 7379 1f3d d35d 46bd
00000070: 4dad 58bb 79f8 59bb 7ea4 c4bc 3f2f 3d3d
00000080: f98a 2a3c 57f1 5f3b 057e 8dbb 6ab5 ecbc
00000090: e4c8 0dbc f86b 743d 7df8 4e3b a75b 153d
000000a0: 5790 083d c0f2 633c 4eed a93c 31c6 8abd
000000b0: 719f 18bc 92cd 3ebb 997c 993c 1f03 303c
000000c0: 4275 d5bc 8744 173c 5199 6a3d 8f9c fe3c
000000d0: f3c1 0d3d 700e b13a d156 9d3c d5e8 b4bc
000000e0: 9936 1e3c bb03 21bd b372 29bc 534b 1cbc
000000f0: 8f2a 9c3c cb9d 003d 6506 913b 1c22 013d
00000100: 00f2 f43c 5344 a6bc c935 053c 6be6 4bbc
00000110: 9b24 133d 43ec 463d 4c4c d6bc ac17 9d3c
00000120: 2d84 0abc cd32 3d3d 9e81 733c 8981 3c3a
00000130: 47d1 9aba dae0 f2bc 25fc 61bc 31a9 973b
00000140: 0925 51bc 623b 263d d120 723d 624d 30bd
00000150: a839 b23b a8b0 a5bc 869d 04bc 0e8e 833c
00000160: f522 443d 5157 9b3b 25e9 613b de71 043d
00000170: cdfc 4f3d 441b 943c e918 e5bc a4d9 a4bb
00000180: 73e6 413d 243c d83b 603f c5bc 972f ec3b
00000190: 08e2 023d ce75 373d 9778 b43b 0459 2fbb
000001a0: d19e f4bb f276 08bd 1970 c03b c6e0 0bbd
000001b0: 9d0e 92bc 782f 06bc c880 11bd cac2 1c3d
000001c0: 1130 403c a500 1d3d 7c1f 933c ca1f 0abc
000001d0: 5d40 7abc 1f88 9fbb e0b8 e5ba 58c7 973c
000001e0: de3b adba f6ca a2bb 4d55 27bc 82ff c13c
000001f0: b82d fbbc 39ad 05bd 3140 823c f84d b2bc
00000200: 9456 1bbb a71d b3bc 755e aebc 2044 3f3d
00000210: 90cc b1bc 309c 483c 9c50 6d3d de60 39bc
00000220: 33d6 c73c b855 1f3c 7f5e babb 3a7f 6e3c
00000230: 67d4 663d dab7 c83c bbfa 683d f6d0 f1bb
00000240: 7544 c8ba dc72 00bd 4a01 223d ab24 eabc
00000250: 3b2a fab9 ab74 0fbd 16de 9bbc cb18 dabb
00000260: 63f2 063b aa3b 233d a2a7 5b3c e6e0 95bc
00000270: 5f7d 003c b820 81ba 4dc9 93bb c080 12bc
00000280: f167 0c3c bb7e 46bb 7c5f febc bb5f 1bbd
00000290: de98 803c b0f5 993c 590a 5b3c 3df4 e13b
000002a0: 5a4c 27bc f6da 353b 128e 8d3d 1682 cfbc
000002b0: fb54 923c 450d 193d 4d22 43bd e855 e93c
000002c0: b8db 42bb 8053 13bd 21e9 7a3d 2340 06bd
000002d0: 8f7b d93c fbea 8c3c df1d 833d 7c3a 7abc
000002e0: 13e6 153b 3b85 b53c d1cb 8dbb c7b7 c93c
000002f0: 29a6 593b 058b 433d 673f f73c 2097 733d
00000300: d0f2 2d3c 5507 013d fe23 18bd 939c 23bd
00000310: 3024 06bd 2d45 6b3c 2e84 3bbc 3faf 923b
00000320: 5c61 fb3a 0f7a bc3c 496e 8dbc 7b71 1fbc
00000330: 2e8d 59bc e64f e43c 6855 203c c8f0 633d
00000340: 75a1 5f3d a4af abbc 10c3 3337 7fb6 2c3b
00000350: d38b 5f3c 6273 9ebb 3e0e aabc 4fd7 87bc
00000360: 74d3 36bc fed3 9c3c 0ebc ba3b 6a5c 943b
00000370: 2a71 333b 77fb 423c 67ba 3b3d 4f6b d53c
00000380: 54e5 11bb eeb0 093d aa80 1cbd 36ec 70bc
00000390: a699 963c 376d 90bb 843f 103d 1e3f 173c
000003a0: 21fe 213d 98c2 783d c7a4 bc3b 7cc9 cfbc
000003b0: ebfa 013d 879e 00bc 3eb0 67bc 8bc8 153d
000003c0: 1fdd 2d3d b8a5 6a3d 3415 fb3b 39d1 95bc
000003d0: 4151 db3c f350 ddbc 83dc 653d 2c4f 213b
000003e0: a5ca d03b a41d 0b3b 5f7e 65bc f4e5 4b3c
000003f0: ad35 1c3d 257e e0bb 7fa5 a7bc 1dd9 3bbc

fc.0.bias f4 [64]
0.027819147 -0.015112705 -0.011100173 0.029570563 -0.003824148 -0.0393803 -0.03589943 0.0024192547
0.036382604 -0.01336749 0.010324115 -0.037460677 0.031852216 0.015985314 0.007065147 0.027497664
0.038927868 -0.0008476088 -0.039011974 0.036036167 0.0062040365 -0.024723329 0.028378937 -0.025224423
0.023840714 0.0328116 0.01968796 0.0037361074 0.012567054 -0.009273861 -0.019160707 0.03398664
-0.0007984693 -0.009325634 -0.012260329 0.0011669567 0.019888107 0.0016033491 0.017986245 -0.01930845
0.021547059 0.021372415 -0.020660864 -0.010866643 -0.036371317 0.028146932 -0.0058367923 0.008178225
-0.011633182 -0.0012912385 -0.021349452 0.012002739 -0.03382267 -0.020564137 -0.03384094 0.023832357
-0.025961166 -0.015740238 0.0012560036 0.0029162436 -0.012258126 0.014388806 -0.021042548 0.012180688
00000000: fbe4 e33c 479b 77bc 80dd 35bc f73d f23c
00000010: 8f9e 7abb 3d4d 21bd 480b 13bd 5c8c 1e3b
00000020: ed05 153d 5103 5bbc 7a26 293c 5e70 19bd
00000030: 7877 023d a2f3 823c c082 e73b c842 e13c
00000040: d472 1f3d 1032 5eba 05cb 1fbd a99a 133d
00000050: 3b4b cb3b 9488 cabc f27a e83c 73a3 cebc
00000060: 9a4d c33c 7565 063d a548 a13c 7bd9 743b
00000070: 0be6 4d3c 64f1 17bc eaf6 9cbc 9335 0b3d
00000080: 5e50 51ba 8bca 18bc 8cdf 48bc 92f4 983a
00000090: 62ec a23c 7827 d23a e457 933c c12c 9ebc
000000a0: 7583 b03c 3415 af3c f940 a9bc 010a 32bc
000000b0: 17fa 14bd 6594 e63c 9042 bfbb f6fd 053c
000000c0: 1a99 3ebc c63e a9ba 0ce5 aebc 23a7 443c
000000d0: a489 0abd 1f76 a8bc cc9c 0abd 133c c33c
000000e0: 83ac d4bc acf1 80bc 7da0 a43a 731e 3f3b
000000f0: 4fd6 48bc 07bf 6b3c 6c61 acbc 8291 473c

fc.2.weight f4 [64]
1.0412201 1.0 1.0417674 1.0 1.0416673 1.0 1.0432986 1.0
1.0 1.0424334 1.0 1.0 1.043802 1.0 1.0420686 1.0425992
1.04446 1.0 1.0 1.0 1.0 1.0 1.0 1.0
1.0 1.0 1.0 1.0 1.0415348 1.0437165 1.0 1.0427657
1.0 1.0 1.0 1.0433966 1.044283 1.0 1.0 1.0
1.0436139 1.0 1.0 1.0437402 1.0418696 1.0 1.0356957 1.0
1.0426112 1.0 1.0424429 1.0 1.0438585 1.0 1.0 1.0427258
1.0 1.0 1.0422847 1.0435643 1.0 1.0 1.0 1.0
00000000: b346 853f 0000 803f a258 853f 0000 803f
00000010: 5b55 853f 0000 803f cf8a 853f 0000 803f
00000020: 0000 803f 756e 853f 0000 803f 0000 803f
00000030: 4e9b 853f 0000 803f 8162 853f e473 853f
00000040: deb0 853f 0000 803f 0000 803f 0000 803f
00000050: 0000 803f 0000 803f 0000 803f 0000 803f
00000060: 0000 803f 0000 803f 0000 803f 0000 803f
00000070: 0351 853f 8198 853f 0000 803f 5979 853f
00000080: 0000 803f 0000 803f 0000 803f 058e 853f
00000090: 11ab 853f 0000 803f 0000 803f 0000 803f
000000a0: 2495 853f 0000 803f 0000 803f 4799 853f
000000b0: fc5b 853f 0000 803f ad91 843f 0000 803f
000000c0: 4974 853f 0000 803f c56e 853f 0000 803f
000000d0: 289d 853f 0000 803f 0000 803f 0a78 853f
000000e0: 0000 803f 0000 803f 9669 853f 8493 853f
000000f0: 0000 803f 0000 803f 0000 803f 0000 803f

fc.2.bias f4 [64]
0.08714159 0.10499031 -0.002110307 0.09611909 0.08538532 0.10457078 -0.09931602 -0.10231512
0.10698917 0.092125736 0.09482359 0.103720546 0.056798264 0.106165774 0.085841864 0.08995969
0.08442327 0.106812604 -0.104574606 -0.107525386 -0.103453256 -0.101958916 -0.10463289 -0.1041641
0.10337257 0.1016017 0.10668729 -0.07602872 -0.038343582 -0.09918022 -0.106215015 0.08582404
-0.105648234 0.10144947 -0.100131884 -0.100718595 -0.09119492 0.09702613 0.10622115 -0.10417884
0.098346 0.10609715 0.102852836 0.09954014 0.10298964 -0.08957545 0.04181462 -0.1064449
0.07955536 -0.0955503 -0.07972912 -0.09240841 -0.072666116 -0.10390603 0.10598077 -0.100635946
0.100879066 0.107210845 -0.083949946 -0.032063115 0.103256434 0.10101079 -0.106345125 0.10556545
00000000: 4a77 b23d 2905 d73d 144d 0abb 16da c43d
00000010: 80de ae3d 3529 d63d 3366 cbbd 978a d1bd
00000020: 231d db3d 6bac bc3d df32 c23d 706b d43d
00000030: 4ca5 683d 716d d93d dccd af3d c93c b83d
00000040: 1be6 ac3d 91c0 da3d 362b d6bd 4536 dcbd
00000050: 4ddf d3bd d6cf d0bd c549 d6bd fd53 d5bd
00000060: ffb4 d33d 8d14 d03d de7e da3d f2b4 9bbd
00000070: 290e 1dbd 001f cbbd 4287 d9bd 84c4 af3d
00000080: 1a5e d8bd bdc4 cf3d f211 cdbd 8d45 cebd
00000090: 67c4 babd a3b5 c63d 798a d93d b75b d5bd
000000a0: a169 c93d 7649 d93d 82a4 d23d b3db cb3d
000000b0: 3bec d23d 5573 b7bd cf45 2b3d c9ff d9bd
000000c0: eced a23d e0af c3bd 0549 a3bd 9f40 bdbd
000000d0: f9d1 94bd afcc d4bd 720c d93d 381a cebd
000000e0: af99 ce3d 5c91 db3d f3ed abbd 9d54 03bd
000000f0: 1c78 d33d bfde ce3d 79cb d9bd b332 d83d

fc.2.running_mean f4 [64]
24946.781 4.2696823e-22 24264.229 1.8686219e-18 20478.951 0.0 27015.926 0.0
1.3832002e-22 29237.676 0.0 0.0 16361.873 0.0 31559.729 13172.114
7234.3213 0.0 0.0 0.0 0.0 0.0 0.0 0.0
0.0 0.0 0.0 1.9945428e-18 24366.297 7813.85 0.0 14578.798
0.0 1.7260427e-18 0.0 20109.848 11844.275 0.0 0.0 0.0
26523.76 0.0 0.0 42002.582 12209.936 0.0 22780.178 0.0
48927.945 0.0 35199.117 0.0 28229.592 0.0 0.0 8050.6597
0.0 0.0 6530.8633 25722.184 0.0 0.0 0.0 0.0
00000000: 90e5 c246 110b 011c 7590 bd46 45e1 0922
00000010: e7fd 9f46 0000 0000 da0f d346 0000 0000
00000020: f937 271b 5a6b e446 0000 0000 0000 0000
00000030: 7ea7 7f46 0000 0000 758f f646 75d0 4d46
00000040: 9212 e245 0000 0000 0000 0000 0000 0000
00000050: 0000 0000 0000 0000 0000 0000 0000 0000
00000060: 0000 0000 0000 0000 0000 0000 d92b 1322
00000070: 985c be46 cd2e f445 0000 0000 31cb 6346
00000080: 0000 0000 0db8 fe21 0000 0000 b21b 9d46
00000090: 1a11 3946 0000 0000 0000 0000 0000 0000
000000a0: 8537 cf46 0000 0000 0000 0000 9512 2447
000000b0: bec7 3e46 0000 0000 5bf8 b146 0000 0000
000000c0: f21f 3f47 0000 0000 1e7f 0947 0000 0000
000000d0: 2f8b dc46 0000 0000 0000 0000 4795 fb45
000000e0: 0000 0000 0000 0000 e816 cc45 5ef4 c846
000000f0: 0000 0000 0000 0000 0000 0000 0000 0000

fc.2.running_var f4 [64]
68820.14 7.687701e-25 109560.75 7.687701e-25 138997.25 7.687701e-25 109714.016 7.687701e-25
7.687701e-25 44091.945 7.687701e-25 7.687701e-25 27037.014 7.687701e-25 94245.59 64780.56
61071.91 7.687701e-25 7.687701e-25 7.687701e-25 7.687701e-25 7.687701e-25 7.687701e-25 7.687701e-25
7.687701e-25 7.687701e-25 7.687701e-25 7.687701e-25 66071.62 54002.598 7.687701e-25 65510.727
7.687701e-25 7.687701e-25 7.687701e-25 41600.844 111747.9 7.687701e-25 7.687701e-25 7.687701e-25
30433.303 7.687701e-25 7.687701e-25 54880.332 29100.455 7.687701e-25 70599.67 7.687701e-25
135936.44 7.687701e-25 57781.27 7.687701e-25 63777.516 7.687701e-25 7.687701e-25 35515.47
7.687701e-25 7.687701e-25 26891.207 207546.4 7.687701e-25 7.687701e-25 7.687701e-25 7.687701e-25
00000000: 126a 8647 3eec 6d17 60fc d547 3eec 6d17
00000010: 50bd 0748 3eec 6d17 0249 d647 3eec 6d17
00000020: 3eec 6d17 f23b 2c47 3eec 6d17 3eec 6d17
00000030: 073a d346 3eec 6d17 cc12 b847 8f0c 7d47
00000040: e98f 6e47 3eec 6d17 3eec 6d17 3eec 6d17
00000050: 3eec 6d17 3eec 6d17 3eec 6d17 3eec 6d17
00000060: 3eec 6d17 3eec 6d17 3eec 6d17 3eec 6d17
00000070: cf0b 8147 99f2 5247 3eec 6d17 bae6 7f47
00000080: 3eec 6d17 3eec 6d17 3eec 6d17 d880 2247
00000090: f341 da47 3eec 6d17 3eec 6d17 3eec 6d17
000000a0: 9bc2 ed46 3eec 6d17 3eec 6d17 5560 5647
000000b0: e958 e346 3eec 6d17 d6e3 8947 3eec 6d17
000000c0: 1cc0 0448 3eec 6d17 45b5 6147 3eec 6d17
000000d0: 8421 7947 3eec 6d17 3eec 6d17 78bb 0a47
000000e0: 3eec 6d17 3eec 6d17 6a16 d246 9aae 4a48
000000f0: 3eec 6d17 3eec 6d17 3eec 6d17 3eec 6d17

fc.3.weight f4 [64, 64]
0.08439686 0.075302966 -0.15768671 0.16867976 0.16613196 0.16828428 -0.06326794 -0.07916359
0.19567135 0.059589557 0.09754598 0.13300583 0.063827544 -0.006347865 0.035812818 0.052780643
0.13444658 0.04312855 0.038129415 -0.07274493 -0.038371198 -0.056530304 -0.12875713 0.054898176
-0.054330435 -0.045982257 0.110030375 0.014482265 -0.06393751 0.0719235 -0.10511208 0.14909703
-0.12414911 0.16318303 -0.18676953 0.013552931 0.11644126 0.09950381 0.039954778 0.04885593
-0.014825378 -0.04256388 0.11150119 -0.062763974 -0.0631322 0.055453543 -0.0037455712 -0.166619
0.10639466 -0.0042494675 -0.109980375 -0.036428485 -0.032815423 -0.05762634 -0.0008147052 0.15749751
-0.010777259 0.19305769 0.042349514 0.09037044 0.043090988 0.12861997 0.046938255 0.05552068
-0.07377737 0.1892073 -0.07481747 0.1575889 -0.06625749 0.07924955 0.04637211 -0.049025305
0.0027889844 0.028732829 0.11123875 0.081570305 0.16047083 -0.0011892959 0.11852074 0.07816566
0.007002454 0.18029238 0.035431303 -0.21149272 -0.086606026 -0.12244546 -0.032351427 -0.13049605
0.19587106 0.13433896 0.15031381 0.05743998 0.043890845 -0.12348235 -0.12489648 -0.08197364
-0.10671514 0.13349034 0.015653813 -0.1270917 -0.11711644 0.13948387 -0.008277367 -0.15941282
0.07398002 0.05535242 0.18443026 0.06391532 0.069570154 -0.18051998 0.0286437 -0.014722387
0.11015859 -0.11232188 0.012461705 -0.18886012 -0.13997887 -0.18639095 0.020777756 0.0020271721
0.13706142 -0.036676653 -0.15217245 -0.036636323 0.10645409 -0.0030999559 -0.038844973 0.13171098
-0.08599965 0.14472975 -0.015167183 -0.024508571 0.10887254 0.20034695 0.012231004 -0.15831356
0.11029384 -0.11591378 0.15742905 0.16187304 0.122838974 0.111902796 0.0786859 -0.13704999
0.01967971 0.084121026 -0.22584549 -0.16606489 -0.11584127 -0.09859359 0.0027863446 -0.16262491
0.040335864 -0.021424644 0.14823061 -0.08632203 -0.047629546 -0.10456338 -0.22465326 0.16579607
-0.13605095 0.16640432 -0.13682914 0.13649096 -0.060684755 0.003341313 0.019253824 -0.114073694
-0.13103165 0.010491456 0.21330003 -0.13998704 0.1383891 -0.15050878 0.0728205 -0.053773437
0.014638664 -0.2072736 0.0626123 0.024104446 -0.14694409 -0.102565475 0.19245538 0.11353597
0.093554184 0.020658905 0.02364597 0.104550675 0.10749402 0.18786679 -0.21508965 0.0019292935
0.083424054 0.18499173 0.07687975 0.010330826 0.09230883 0.12109184 -0.14442757 -0.07202304
0.011631743 0.09235175 0.13357095 0.08049816 0.14993168 0.15669027 0.09671862 0.16439459
0.09854518 0.21923332 -0.16565958 -0.19961765 -0.19632101 -0.032278676 -0.12629014 -0.22890577
0.15302461 0.15131551 0.12460436 -0.12370144 -0.15516654 -0.15560445 -0.18013677 -0.02680726
-0.23128235 0.1280526 -0.11168723 -0.11836947 -0.09346775 0.15452924 0.23213862 0.0022060808
0.046201933 0.21999064 0.21132176 0.15594515 0.039334167 -0.04135486 -0.0781776 -0.15451396
0.010385891 -0.1556219 -0.03132467 -0.0044670496 -0.14502282 -0.1335074 0.115599364 -0.056400716
0.07193495 0.20372157 -0.10156791 0.08207566 0.030707259 -0.016122103 -0.17538515 0.058505747
00000000: 43d8 ac3d 7138 9a3d a078 21be 63ba 2c3e
00000010: 7f1e 2a3e b752 2c3e 9f92 81bd 8520 a2bd
00000020: 125e 483e 2e14 743d 30c6 c73d ae32 083e
00000030: 04b8 823d c001 d0bb 76b0 123d 8430 583d
00000040: 5dac 093e 90a7 303d 972d 1c3d 4bfb 94bd
00000050: 1e2b 1dbd 528c 67bd e9d8 03be e9dc 603d
00000060: 9789 5ebd e457 3cbd 9b57 e13d 0647 6d3c
00000070: abf1 82bd a14c 933d 0145 d7bd e4ac 183e
00000080: e341 febd 7419 273e 8340 3fbe 1d0d 5e3c
00000090: c178 ee3d a7c8 cb3d 9fa7 233d 281d 483d
000000a0: 24e6 72bc 7757 2ebd bc5a e43d 668a 80bd
000000b0: 744b 81bd 4123 633d 4278 75bb 2c9e 2abe
000000c0: 72e5 d93d 1e3f 8bbb 643d e1bd 0936 15bd
000000d0: 7769 06bd 9909 6cbd f191 55ba 0747 213e
000000e0: 1a93 30bc eab0 453e af76 2d3d 2314 b93d
000000f0: 2d80 303d f4b4 033e 5442 403d a769 633d
00000100: 9718 97bd 8fbf 413e e739 99bd fc5e 213e
00000110: 02b2 87bd 974d a23d aef0 3d3d c2ce 48bd
00000120: 65c7 363b 1c61 eb3c 24d1 e33d 550e a73d
00000130: 7752 243e 26e2 9bba 00bb f23d 5115 a03d
00000140: d774 e53b 919e 383e 6a20 113d 8c91 58be
00000150: 805e b1bd afc4 fabd ee82 04bd c2a0 05be
00000160: 6c92 483e 2790 093e ddeb 193e 2f46 6b3d
00000170: e3c6 333d 50e4 fcbd bac9 ffbd cce1 a7bd
00000180: 788d dabd b1b1 083e 6d3c 803c 5424 02be
00000190: beda efbd dcd4 0e3e cb9d 07bc 1d3d 23be
000001a0: d682 973d 38b9 623d 49db 3c3e 09e6 823d
000001b0: cc7a 8e3d 3bda 38be 31a6 ea3c 2b36 71bc
000001c0: d49a e13d 0409 e6bd 2e2c 4c3c 8c64 41be
000001d0: 9f56 0fbe 45dd 3ebe 1d36 aa3c 4eda 043b
000001e0: d459 0c3e 423a 16bd 18d3 1bbe f80f 16bd
000001f0: 9a04 da3d a128 4bbb e81b 1fbd 3edf 063e
00000200: 9620 b0bd 0934 143e c77f 78bc 33c6 c8bc
00000210: 91f8 de3d c027 4d3e 8d64 483c f31c 22be
00000220: bde1 e13d 3464 edbd 1535 213e 0cc2 253e
00000230: 0093 fb3d 4b2d e53d 1326 a13d d556 0cbe
00000240: 5837 a13c a547 ac3d 0a44 67be ea0c 2abe
00000250: 303e edbd 70eb c9bd 1b9b 363b 2587 26be
00000260: 3837 253d bc82 afbc c4c9 173e 9bc9 b0bd
00000270: 3317 43bd 5325 d6bd 810b 66be 72c6 293e
00000280: f150 0bbe e565 2a3e f01c 0cbe 49c4 0b3e
00000290: 9490 78bd eef9 5a3b 32ba 9d3c 789f e9bd
000002a0: 292d 06be 5be4 2b3c 536b 5a3e c358 0fbe
000002b0: dfb5 0d3e f91e 1abe ea22 953d 8941 5cbd
000002c0: 02d7 6f3c 883f 54be e13a 803d b076 c53c
000002d0: 8378 16be d90d d2bd 0613 453e 8c85 e83d
000002e0: 5699 bf3d dd3c a93c 31b5 c13c aa1e d63d
000002f0: d325 dc3d 2760 403e 7640 5cbe 59e0 fc3a
00000300: 3bda aa3d 796e 3d3e 2173 9d3d a042 293c
00000310: 690c bd3d 00ff f73d d2e4 13be d180 93bd
00000320: 1193 3e3c ea22 bd3d d3c6 083e 38dc a43d
00000330: b187 193e 6a73 203e 6914 c63d 0e57 283e
00000340: 0ed2 c93d b37e 603e aaa2 29be 9268 4cbe
00000350: 6008 49be a536 04bd 3452 01be 4666 6abe
00000360: 7cb2 1c3e 74f2 1a3e 9230 ff3d 2e57 fdbd
00000370: fae3 1ebe c656 1fbe c675 38be e69a dbbc
00000380: 48d5 6cbe 3920 033e 46bc e4bd b16b f2bd
00000390: 056c bfbd ea3c 1e3e bfb5 6d3e e593 103b
000003a0: 3d3e 3d3d 3a45 613e bb64 583e 16b0 1f3e
000003b0: dd1c 213d b763 29bd 941b a0bd e838 1ebe
000003c0: 9629 2a3c 595b 1fbe 4c4e 00bd 5460 92bb
000003d0: dd80 14be 2ab6 08be 5cbf ec3d 7004 67bd
000003e0: a252 933d 639c 503e d602 d0bd 4917 a83d
000003f0: ca8d fb3c 8012 84bc 2a98 33be b9a3 6f3d

fc.3.bias f4 [64]
0.0831536 0.04630566 0.13204993 0.14838119 0.031222142 0.063841954 0.17416793 0.002169633
0.1269259 0.0142252315 0.21416931 0.1104001 0.20980066 0.04681621 0.09625352 -0.050148226
-0.031888906 -0.04116736 0.17014952 0.07315035 0.04052817 0.08558318 0.07476978 0.036442
0.048120808 0.019054139 0.112869054 0.14891529 0.15580565 0.20564543 0.17322573 0.07241514
0.11829091 0.066314526 0.21148382 0.10732395 -0.08465139 0.07635152 -0.034148213 0.027077593
0.11055913 0.12681308 0.19584253 -0.04406225 0.15688396 0.07359827 0.14885071 -0.048562206
0.14733621 0.11781305 0.03190752 0.15577173 0.13421287 0.1806588 0.086706474 0.14343563
0.18130797 0.16737007 0.040299132 0.2039686 0.15464939 0.017332295 0.13044593 0.17603822
00000000: 6f4c aa3d 01ab 3d3d 1938 073e 3df1 173e
00000010: 94c5 ff3c 92bf 823d 1459 323e 6730 0e3b
00000020: ddf8 013e f210 693c 334f 5b3e 7319 e23d
00000030: fcd5 563e 5bc2 3f3d 9120 c53d 3a68 4dbd
00000040: f19d 02bd 1b9f 28bd ad3b 2e3e dacf 953d
00000050: de00 263d 3c46 af3d e620 993d 3544 153d
00000060: 531a 453d 6d17 9c3c e427 e73d 407d 183e
00000070: 848b 1f3e b794 523e 1662 313e 644e 943d
00000080: 8142 f23d e9cf 873d 378f 583e a9cc db3d
00000090: b55d adbd 305e 9c3d ffde 0bbd d4d1 dd3c
000000a0: d36c e23d 4adb 013e f28a 483e 9e7a 34bd
000000b0: 30a6 203e b1ba 963d 526c 183e 2ae9 46bd
000000c0: 4edf 163e f847 f13d 76b1 023d a082 1f3e
000000d0: 196f 093e 9ffe 383e 2a93 b13d cae0 123e
000000e0: cca8 393e 0f63 2b3e b410 253d 25dd 503e
000000f0: 695c 1e3e 75fc 8d3c 9e93 053e 5d43 343e

placing_layer.0.weight f4 [5, 64]
-0.059240475 0.070692696 -0.080538094 -0.05389118 0.037029166 0.009229787 0.11240048 -0.036380574
-0.0046748947 -0.024779396 -0.011984646 -0.074386954 0.03256907 0.014829736 0.0115719335 -0.046644896
0.07577086 0.052965205 0.06364635 -0.023959227 0.018731082 0.05406228 -0.059463944 -0.0350561
-0.012760108 -0.09344752 0.013325079 -0.02816988 -0.067751 0.037671745 0.03227267 -0.04045278
-0.086920075 -0.117552206 -0.06191786 -0.13757804 0.0011165756 -0.09467274 -0.04516689 -0.06975308
0.06885117 0.034915637 0.02216573 0.09976054 0.09421771 0.01573642 -0.051574156 0.117667966
0.02304189 0.039276764 -0.06808606 -0.10417218 0.026894517 0.03728313 -0.0042517846 -0.016102832
0.101199605 0.10015647 -0.0018692972 -0.030124169 0.014811101 0.034613673 0.051416412 -0.11791094
0.10795003 0.033728097 -0.09260471 0.07501846 0.08544898 0.09362921 0.04290941 -0.052963924
-0.051251937 0.08540903 -0.04369311 -0.008197507 -0.06964263 -0.06501988 0.043445252 0.059721176
-0.012551945 0.047722917 -0.11513936 -0.12680575 -0.098592296 0.03248397 -0.11043658 0.015084345
-0.013636089 -0.029389048 0.09811834 0.06706692 -0.11286486 -0.13199593 0.05841218 0.063106835
-0.10254428 0.018729702 0.010417323 0.031862315 0.009431002 0.08395511 0.09037476 0.040791843
0.09390619 0.03087953 -0.05705891 -0.027864864 0.050014667 -0.096807376 -0.06896897 -0.046859466
-0.018717024 -0.018163426 -0.11786789 0.030354766 0.0328218 0.06561679 -0.00060732104 0.012570396
0.10886281 0.11289309 -0.103742704 0.01809912 -0.11578491 -0.105821475 0.05805775 -0.0828378
0.061577182 0.03619627 0.121109605 0.024371376 0.0053886953 0.17729884 -0.009591437 -0.05523715
0.104706764 0.06647066 -0.044211265 0.16057841 -0.050506122 0.10344995 0.104765385 -0.022574922
0.080441415 0.08044892 -0.052180056 0.07165129 0.11027614 0.071463235 0.08960485 0.09224129
0.17842083 0.10846072 0.0661335 0.014124738 0.08196513 0.159714 -0.016770871 0.14699887
0.11611932 -0.03442492 0.04799803 -0.023593217 -0.051506814 0.1403966 -0.008787988 0.102155626
0.16021346 -0.020349832 0.084506206 -0.06922743 0.01689234 0.13751198 -0.018642543 0.07527549
0.17731069 0.1483541 -0.011982391 -0.041724794 0.034138303 0.10459278 0.11215487 0.034610644
0.15183266 0.12438319 0.13285233 0.082764804 0.18533552 -0.0494264 0.08472056 0.16113046
-0.10776627 0.023301557 -0.072432205 0.019769818 0.004304096 -0.112158224 -0.060194194 -0.041311562
-0.021155253 -0.10262494 -0.029315636 -0.04839313 -0.12100859 -0.07848337 -0.085404724 0.10731922
0.020088032 -0.08227116 0.12380257 -0.03516826 -0.047718838 0.09163651 -0.007599294 0.05326867
-0.01222904 -0.006543398 0.09857437 -0.039311975 0.0880909 0.10702889 -0.102101564 -0.0086108
-0.106122315 0.046623766 -0.09601924 -0.007947475 -0.09869589 0.07942906 0.058825105 0.04682429
0.03639637 -0.0052365214 -0.105563045 -0.09670608 -0.09190671 0.07084735 -0.07904704 -0.07351972
0.059586763 -0.10117963 0.09343955 -0.09871343 -0.079362005 -0.017710656 -0.017152667 0.101927504
-0.00716646 0.040512517 0.047084063 -0.08987734 0.05085261 -0.098460495 -0.08943614 0.0148371905
00000000: 24a6 72bd 55c7 903d 28f1 a4bd ffbc 5cbd
00000010: e5ab 173d 8838 173c 3932 e63d cc03 15bd
00000020: dc2f 99bb 29fe cabc 405b 44bc 3058 98bd
00000030: 2567 053d 6cf8 723c 3598 3d3c b80e 3fbd
00000040: c12d 9b3d 0bf2 583d 0459 823d 2446 c4bc
00000050: ed71 993c 6970 5d3d 7790 73bd fc96 0fbd
00000060: c60f 51bc 6a61 bfbd 6f51 5a3c 85c4 e6bc
00000070: 09c1 8abd b04d 1a3d 5930 043d d0b1 25bd
00000080: 2703 b2bd 36bf f0bd 959d 7dbd 42e1 0cbe
00000090: 0f5a 923a c8e3 c1bd eb00 39bd b4da 8ebd
000000a0: d801 8d3d b303 0f3d e894 b53c 414f cc3d
000000b0: 37f5 c03d aae9 803c 6c3f 53bd e7fb f03d
000000c0: 58c2 bc3c ace0 203d b470 8bbd 3958 d5bd
000000d0: e451 dc3c 32b6 183d 8e52 8bbb 16ea 83bc
000000e0: bd41 cf3d d61e cd3d 3503 f5ba f6c6 f6bc
000000f0: 43aa 723c 11c7 0d3d 049a 523d 4a7b f1bd
00000100: e814 dd3d 7926 0a3d 8aa7 bdbd 47a3 993d
00000110: e0ff ae3d acc0 bf3d c7c1 2f3d b3f0 58bd
00000120: 8ded 51bd eeea ae3d 8cf7 32bd d64e 06bc
00000130: cca0 8ebd 2529 85bd a6f3 313d 319e 743d
00000140: aca6 4dbc 1b79 433d 2fce ebbd 5ed9 01be
00000150: c2ea c9bd e90d 053d 932c e2bd 5424 773c
00000160: e769 5fbc 4dc1 f0bc 45f2 c83d 625a 893d
00000170: b125 e7bd f129 07be 9c41 6f3d 283e 813d
00000180: bc02 d2bd 086f 993c 6bad 2a3c 0f82 023d
00000190: 7d84 1a3c a8f0 ab3d 6716 b93d 5915 273d
000001a0: e351 c03d 11f7 fc3c 9bb6 69bd db44 e4bc
000001b0: 2edc 4c3d f242 c6bd 9a3f 8dbd b6ef 3fbd
000001c0: 7254 99bc 77cb 94bc b864 f1bd 8faa f83c
000001d0: 2770 063d 1862 863d a034 1fba 10f4 4d3c
000001e0: 77f3 de3d 7e34 e73d 0e77 d4bd 9b44 943c
000001f0: a420 edbd eeb8 d8bd f7cd 6d3d dda6 a9bd
00000200: 5b38 7c3d 8a42 143d 5008 f83d 7ba6 c73c
00000210: a793 b03b d48d 353e 6725 1dbc 5a40 62bd
00000220: 8070 d63d c521 883d df16 35bd ab6e 243e
00000230: 82df 4ebd 91dd d33d 3c8f d63d 0bef b8bc
00000240: 78be a43d 67c2 a43d c1ba 55bd e9bd 923d
00000250: 75d8 e13d 515b 923d bf82 b73d 00e9 bc3d
00000260: f3b3 363e a720 de3d 0071 873d 726b 673c
00000270: 56dd a73d 118c 233e 1163 89bc df86 163e
00000280: f7cf ed3d 2501 0dbd 9599 443d 9046 c1bc
00000290: cff8 52bd 20c4 0f3e 7efb 0fbc f836 d13d
000002a0: ff0e 243e b1b4 a6bc 9711 ad3d 1cc7 8dbd
000002b0: ce61 8a3c f1cf 0c3e 3fb8 98bc 092a 9a3d
000002c0: ef90 353e 23ea 173e ca51 44bc 9ee7 2abd
000002d0: 9bd4 0b3d bd34 d63d 74b1 e53d e4c3 0d3d
000002e0: 057a 1b3e 9dbc fe3d 710a 083e 9880 a93d
000002f0: 98c8 3d3e 5673 4abd f981 ad3d 62ff 243e
00000300: 90b4 dcbd e8e2 be3c 5657 94bd 50f4 a13c
00000310: 6009 8d3b 36b3 e5bd 308e 76bd 5036 29bd
00000320: c84d adbc 062d d2bd 5827 f0bc e037 46bd
00000330: 5ad3 f7bd e4bb a0bd ace8 aebd 2eca db3d
00000340: a88f a43c c87d a8bd 348c fd3d 980c 10bd
00000350: d474 43bd ecab bb3d 8003 f9bb 4030 5a3d
00000360: 505c 48bc 006a d6bb 5ce1 c93d 9805 21bd
00000370: 0069 b43d f631 db3d a01a d1bd 5014 0dbc
00000380: a856 d9bd 90f8 3e3d bca5 c4bd 2036 02bc
00000390: 1221 cabd b4ab a23d 98f2 703d d4ca 3f3d
000003a0: 5c14 153d 2097 abbb 7031 d8bd d60d c6bd
000003b0: 9639 bcbd 6a18 913d 6ae3 a1bd 8291 96bd
000003c0: 4011 743d 4437 cfbd 3c5d bf3d 442a cabd
000003d0: 8c88 a2bd f015 91bc c083 8cbc 5ebf d03d
000003e0: a0d4 eabb 74f0 253d 38db 403d 9c11 b8bd
000003f0: d44a 503d a8a5 c9bd 4c2a b7bd b017 733c

placing_layer.0.bias f4 [5]
-0.10034716 -0.08280456 0.061995737 -0.06980176 0.076927304
00000000: d082 cdbd 7095 a9bd 3eef 7d3d 3af4 8ebd
00000010: 108c 9d3d

placing_layer.1.weight f4 [5, 64]
0.16291325 0.17407049 0.10041365 0.15706927 -0.015842685 -0.050914798 0.20430094 0.15414955
0.16935407 0.05270553 0.11561044 0.18714401 -0.011748263 0.011439261 0.12360237 0.16207682
-0.024736846 0.18169229 0.024413912 0.15378617 0.025224254 0.15339468 0.17749871 -0.015095881
0.016339544 0.16849618 0.19264595 0.10521753 0.13664386 0.091501854 0.11339832 0.14976645
-0.031776123 0.069487594 0.09744648 -0.010058402 0.10885951 0.057869233 -0.030856716 0.1135297
0.103671975 -0.027352327 0.09500842 0.022236444 0.20526683 -0.006530205 0.17768171 0.02014604
0.19973876 0.017621072 -0.040437654 0.026429014 -0.034601096 0.10610758 0.017507946 0.10477076
0.05755713 0.016425213 0.17917635 0.11134997 0.17853121 0.09685226 0.14470933 0.20493641
0.09695234 -0.05400158 0.06533557 -0.033441365 0.098028384 -0.06772401 -0.120341845 -0.02583211
-0.019694503 -0.08714913 -0.09497292 -0.050373446 -0.013611301 -0.12927717 0.032853484 -0.11584636
0.11413449 -0.046976015 -0.08633931 -0.05642179 0.09910383 -0.10166306 0.01437128 0.040212676
-0.06540095 -0.020722082 -0.06272112 -0.060632214 0.055235557 0.07552854 0.029718053 -0.06979923
0.032105383 0.056361485 -0.029332772 -0.0015737244 0.11490418 -0.08977451 -0.095388725 0.0974778
-0.007240751 -0.07442837 -0.098770276 -0.11419703 -0.12344239 -0.1269008 -0.076005474 0.022622153
-0.103081085 0.108520724 0.032295845 -0.04401456 0.0976214 0.03532215 0.064033285 -0.13746496
0.0062010963 0.09666764 -0.071385056 0.06303467 -0.03213585 -0.10324216 -0.023629908 0.017509893
0.0900111 -0.05527408 0.07692379 0.10624351 0.0065668984 0.024455667 -0.08205056 -0.021221394
-0.075125195 0.028900515 0.032028925 -0.031908683 -0.06892031 -0.005604507 0.04377448 -0.10963281
-0.08556562 -0.04825211 -0.12848513 -0.096018896 0.06635929 -0.07345638 -0.07318292 -0.12331317
0.024350649 0.0005498886 -0.04805219 -0.12819296 -0.111171424 -0.020455236 -0.06448484 0.007988163
-0.07142359 -0.03562478 -0.052203804 -0.116 -0.08102468 0.08673554 0.01977031 -0.073939286
-0.07165435 -0.12878542 0.026088826 0.10340558 -0.1346838 -0.12940237 0.06503341 0.097898826
-0.041476723 -0.12883608 -0.11171165 0.074583806 0.02798726 -0.086380474 -0.060160726 -0.088663146
0.041370045 0.044241454 -0.093981475 -0.03148762 0.0010372427 0.1012425 0.007638409 0.018985664
0.011425054 -0.10872451 0.10015617 -0.11313902 0.0289102 -0.12184705 -0.095579326 -0.00080237776
0.03335884 0.0904661 -0.07420625 0.03312868 0.08714846 0.052444126 0.0064428686 0.01413995
-0.04468046 0.01882126 -0.0065046274 0.09853647 -0.03260045 -0.016061878 0.07665966 -0.09634393
0.03233644 -0.11159291 -0.09194813 -0.07587679 0.07739522 -0.021684244 0.10062718 0.06769492
-0.03408764 0.010813827 -0.031099329 -0.110621355 0.09384403 -0.12507536 -0.12950376 0.037816092
0.034771256 -0.06077208 0.049000304 0.05911443 0.02564275 0.09261669 -0.041613612 -0.020302547
-0.082310736 -0.022485105 -0.061513137 -0.04539239 -0.069007516 -0.081134334 -0.017577462 -0.005404473
-0.1329989 0.05149221 -0.039982207 -0.13163508 -0.079960726 0.07568257 -0.114399694 -0.103846416
00000000: bbd2 263e 893f 323e aca5 cd3d c4d6 203e
00000010: 85c8 81bc 098c 50bd 4434 513e 61d9 1d3e
00000020: 276b 2d3e c1e1 573d 2bc5 ec3d aea2 3f3e
00000030: c97b 40bc bd6b 3b3c 3d23 fd3d 77f7 253e
00000040: eda4 cabc 8b0d 3a3e afff c73c 1f7a 1d3e
00000050: 18a3 ce3c 7f13 1d3e 39c2 353e b754 77bc
00000060: 82da 853c 438a 2c3e fb44 453e 4a7c d73d
00000070: 5eec 0b3e 5365 bb3d 613d e83d 605c 193e
00000080: ae27 02bd 834f 8e3d 0592 c73d ffcb 24bc
00000090: bcf1 de3d 4a08 6d3d 39c7 fcbc 4282 e83d
000000a0: f951 d43d fd11 e0bc c693 c23d 3429 b63c
000000b0: 7831 523e 54fb d5bb 32f2 353e 4f09 a53c
000000c0: 5188 4c3e 115a 903c f4a1 25bd a981 d83c
000000d0: e1b9 0dbd ee4e d93d d36c 8f3c 0d92 d63d
000000e0: 06c1 6b3d 2b8e 863c 017a 373e 740b e43d
000000f0: e3d0 363e 7a5a c63d af2e 143e dada 513e
00000100: f38e c63d c330 5dbd a8ce 853d d0f9 08bd
00000110: 1bc3 c83d e3b2 8abd c975 f6bd dc9d d3bc
00000120: 5e56 a1bc 3e7b b2bd 2a81 c2bd 6354 4ebd
00000130: ef01 5fbc 3c61 04be 6091 063d db40 edbd
00000140: 58bf e93d ec69 40bd aad2 b0bd 891a 67bd
00000150: f3f6 ca3d b934 d0bd 8475 6b3c 0cb6 243d
00000160: eff0 85bd 5bc1 a9bc ee73 80bd 7c59 78bd
00000170: ae3e 623d b5ae 9a3d 4673 f33c e6f2 8ebd
00000180: ef80 033d 4ddb 663d 484b f0bc 6e45 ceba
00000190: e252 eb3d b3db b7bd 2a5b c3bd 71a2 c73d
000001a0: d243 edbb e76d 98bd 1248 cabd 22e0 e9bd
000001b0: 5dcf fcbd 49f2 01be c2a8 9bbd 1852 b93c
000001c0: 2d1c d3bd 1d40 de3d a648 043d 9c48 34bd
000001d0: bbed c73d f5ad 103d e223 833d 9dc3 0cbe
000001e0: 9132 cb3b aff9 c53d 5432 92bd 5218 813d
000001f0: e2a0 03bd a070 d3bd 8293 c1bc e870 8f3c
00000200: bd57 b83d 1367 62bd 388a 9d3d 3396 d93d
00000210: 232f d73b 4057 c83c 200a a8bd 7dd8 adbc
00000220: 3ddb 99bd c6c0 ec3c c330 033d aeb2 02bd
00000230: 1726 8dbd 03a6 b7bb de4c 333d 2b87 e0bd
00000240: 073d afbd 01a4 45bd 9b91 03be 8ea5 c4bd
00000250: 61e7 873d 4c70 96bd ede0 95bd 9e8b fcbd
00000260: 037b c73c 6626 103a 60d2 44bd 0445 03be
00000270: d8ad e3bd bd91 a7bc a110 84bd c9e0 023c
00000280: 8846 92bd 4aeb 11bd a8d3 55bd 6891 edbd
00000290: 44f0 a5bd 67a2 b13d 58f5 a13c 7b6d 97bd
000002a0: 84bf 92bd 53e0 03be 3cb8 d53c 4ec6 d33d
000002b0: 8dea 09be 0e82 04be 3d30 853d 2e7f c83d
000002c0: 7fe3 29bd 9bed 03be 14c9 e4bd 65bf 983d
000002d0: 8a45 e53c 3fe8 b0bd 186b 76bd 0695 b5bd
000002e0: a373 293d 8736 353d 5c79 c0bd 2af9 00bd
000002f0: 17f4 873a 3a58 cf3d 9e4b fa3b d387 9b3c
00000300: 2630 3b3c f5aa debd ae1e cd3d 6eb5 e7bd
00000310: 15d5 ec3c f28a f9bd 18bf c3bd a956 52ba
00000320: 47a3 083d 4a46 b93d 72f9 97bd f0b1 073d
00000330: e47a b23d a7cf 563d b31e d33b 40ab 673c
00000340: dc02 37bd 0b2f 9a3c c524 d5bb 7dcd c93d
00000350: 0d88 05bd 3394 83bc bdff 9c3d f74f c5bd
00000360: 3773 043d d38a e4bd 4d4f bcbd 4a65 9bbd
00000370: 6381 9e3d 28a3 b1bc 9f15 ce3d a2a3 8a3d
00000380: 7b9f 0bbd 7a2c 313c 05c4 febc 738d e2bd
00000390: 4c31 c03d c113 00be a29c 04be 0ce5 1a3d
000003a0: 4e6c 0e3d 25ec 78bd 8bb4 483d f921 723d
000003b0: bf10 d23c d2ad bd3d 0973 2abd 8751 a6bc
000003c0: 8892 a8bd af32 b8bc 33f5 7bbd 5fed 39bd
000003d0: d053 8dbd c229 a6bd 9cfe 8fbc 0118 b1bb
000003e0: dd30 08be 7fe9 523d 62c4 23bd 59cb 06be
000003f0: 73c2 a3bd 77ff 9a3d 634a eabd 6ead d4bd

placing_layer.1.bias f4 [5]
0.0934689 0.015580363 0.104862094 -0.0017476892 -0.048756618
00000000: 9f6c bf3d c744 7f3c f0c1 d63d b812 e5ba
00000010: 05b5 47bd

placing_layer.2.weight f4 [5, 64]
0.15245764 0.035706323 0.113106236 0.03438177 0.10444255 0.023985831 0.21290976 0.055393286
0.014058783 0.0007880054 0.2121312 0.07569681 0.13323005 0.016148727 0.08960903 0.17084654
0.06894161 0.17060588 0.10309886 0.12074392 0.18067938 0.1858255 0.102777846 0.120626725
0.101961404 0.12778541 0.15115091 0.19191281 0.074396834 0.050077528 -0.031658553 -0.016957117
0.10346752 0.16476767 0.10820171 0.19037369 0.07197151 0.1329689 0.04117716 0.1804496
0.07947613 0.05703432 0.0074433624 0.13401523 0.20059423 -0.048973914 -0.02206705 0.1674331
-0.04128769 0.094621226 0.07040055 0.15090555 0.035526488 0.13366576 0.20072539 0.10707838
0.09208736 -0.025658652 0.091092676 0.12243719 0.12891236 0.112120815 0.022534506 0.012103816
-0.024172774 -0.032049052 -0.08209495 -0.11827067 -0.10000856 -0.021706555 -0.016141532 0.040824734
0.08974588 -0.012419989 0.012141177 -0.122551546 -0.100236535 0.09158845 0.0077025727 0.034644004
0.02093081 -0.07491793 -0.03766977 0.09881578 -0.05940479 0.049467325 -0.058883727 -0.066115305
-0.04893636 -0.08626091 -0.04101112 -0.062441014 -0.07236303 -0.11402848 -0.052090663 -0.07317866
-0.054914627 -0.086062245 -0.038620636 -0.05325844 -0.040509246 -0.018555483 -0.10742794 0.05330412
-0.029238893 -0.07276766 0.03591798 0.10011429 0.006618771 -0.0088923015 -0.04719855 0.027482137
0.05222185 0.04652471 -0.013370971 -0.098089635 -0.1257352 0.049323473 0.056881566 0.10769682
0.035868753 -0.11969955 -0.014580971 0.102833934 -0.005430694 0.08720107 -0.12950099 -0.070102096
0.04876422 -0.07350573 0.018367099 -0.13623786 0.061521817 -0.0021811088 0.015052312 0.06316457
-0.0109508755 -0.12677726 0.10211689 0.06947999 -0.045124266 -0.03396553 -0.0023019712 -0.06267775
-0.017306628 -0.12678836 -0.040115472 -0.026226569 -0.0009443892 0.04380266 0.06169733 0.07618764
-0.13805813 0.059979495 0.07917897 -0.11884624 0.046537697 -0.059169002 -0.065002896 0.06517163
-0.051051665 0.0006196053 0.03997455 -0.036906973 -0.1040052 0.003217122 0.018087948 -0.096965834
-0.00013695295 0.043853577 0.009507047 0.048404567 0.0652531 0.092176326 0.055939015 -0.06538965
-0.065531194 0.02877452 -0.025097417 -0.12523557 -0.13044257 -0.015999192 -0.12092996 -0.041296102
0.07624718 -0.034367472 -0.109031096 -0.1305757 -0.07764819 0.08575311 -0.09472958 0.04277533
-0.13741355 -0.10568034 0.02214208 -0.049429975 0.06647446 -0.091221265 0.099285536 0.01785643
-0.10668882 -0.020330051 0.04394981 -0.10518503 -0.06377255 0.004015253 -0.048779402 0.03796983
-0.11822025 0.004716454 -0.039343752 -0.004899964 0.037099626 0.005892281 0.07440725 -0.037444245
0.033826914 0.026126808 -0.11081838 0.097150095 -0.051476 0.02113704 0.026158378 0.0015878985
-0.12754595 -0.0126849925 0.038442798 -0.098268315 0.033898365 -0.1319928 0.08036893 0.09524418
-0.059651222 -0.02508079 -0.0293628 -0.08115558 -0.12769589 0.0033169466 0.0077728345 -0.020994656
0.030559825 -0.055201676 -0.12427446 0.07354317 -0.006033795 0.06138725 -0.12657426 0.03532419
0.08959071 -0.0830766 -0.056904063 -0.12699497 0.006331573 0.043783255 -0.089386456 -0.1399335
00000000: db1d 1c3e cb40 123d 3ea4 e73d e6d3 0c3d
00000010: fae5 d53d ef7d c43c 0405 5a3e 12e4 623d
00000020: cf56 663c 2692 4e3a ec38 593e ee06 9b3d
00000030: 756d 083e 564a 843c f084 b73d 65f2 2e3e
00000040: 4231 8d3d 4fb3 2e3e 7f25 d33d 9748 f73d
00000050: 0404 393e 0a49 3e3e 317d d23d 250b f73d
00000060: 24d1 d03d 2eda 023e 4ec7 1a3e cb84 443e
00000070: 5e5d 983d 181e 4d3d 66ac 01bd a7e9 8abc
00000080: c7e6 d33d dbb8 283e dc98 dd3d 52f1 423e
00000090: cd65 933d 0029 083e 62a9 283d c8c7 383e
000000a0: 62c4 a23d d29c 693d 73e7 f33b 4a3b 093e
000000b0: 9368 4d3e df98 48bd f5c5 b4bc 9573 2b3e
000000c0: 481d 29bd c6c8 c13d 2a2e 903d fc86 1a3e
000000d0: 3984 113d addf 083e f58a 4d3e e94b db3d
000000e0: 4c98 bc3d 1832 d2bc cc8e ba3d 59c0 fa3d
000000f0: 9a01 043e 999f e53d 499a b83c 154f 463c
00000100: fb05 c6bc de45 03bd 6621 a8bd e537 f2bd
00000110: 4ad1 ccbd f2d1 b1bc 3f3b 84bc d637 273d
00000120: b0cc b73d 367d 4bbc caeb 463c 4efc fabd
00000130: d048 cdbd ba92 bb3d dd65 fc3b dfe6 0d3d
00000140: 1777 ab3c 926e 99bd 9e4b 1abd ed5f ca3d
00000150: 7052 73bd 409e 4a3d 1030 71bd 7667 87bd
00000160: 7e71 48bd 8fa9 b0bd 47fb 27bd 26c2 7fbd
00000170: 1133 94bd c487 e9bd 055d 55bd b1de 95bd
00000180: 29ee 60bd 6741 b0bd ac30 1ebd 8625 5abd
00000190: 06ed 25bd ab01 98bc 2e03 dcbd 6c55 5a3d
000001a0: 6786 efbc 3607 95bd bb1e 133d b908 cd3d
000001b0: 46e2 d83b 04b1 11bc 4453 41bd 3822 e13c
000001c0: 94e6 553d b290 3e3d eb11 5bbc 38e3 c8bd
000001d0: bac0 00be 6907 4a3d a5fc 683d 2690 dc3d
000001e0: 1deb 123d 0a25 f5bd 06e5 6ebc 999a d23d
000001f0: f7f3 b1bb 7996 b23d e89b 04be b091 8fbd
00000200: febc 473d 2c8a 96bd 9976 963c f081 0bbe
00000210: 4dfe 7b3d eff0 0ebb f99d 763c 6d5c 813d
00000220: 4d6b 33bc e6d1 01be a922 d13d 864b 8e3d
00000230: 39d4 38bd 711f 0bbd abdc 16bb 315d 80bd
00000240: a1c6 8dbc cfd4 01be 1f50 24bd 1ad9 d6bc
00000250: e390 77ba 6b6a 333d 57b6 7c3d 4408 9c3d
00000260: 1c5f 0dbe 0fad 753d 9528 a23d a865 f3bd
00000270: 509e 3e3d 325b 72bd 3d20 85bd b478 853d
00000280: 8d1b 51bd 026d 223a 5bbc 233d c42b 17bd
00000290: ae00 d5bd 5ad6 523b 2d2d 943c 0696 c6bd
000002a0: 079b 0fb9 cf9f 333d 72c3 1b3c de43 463d
000002b0: 6ba3 853d f1c6 bc3d 4f20 653d 02eb 85bd
000002c0: 3835 86bd 8bb8 eb3c 1999 cdbc c13d 00be
000002d0: bd92 05be bd10 83bc 20aa f7bd 1a26 29bd
000002e0: 7b27 9c3d e8c4 0cbd b24b dfbd a3b5 05be
000002f0: 0406 9fbd 549f af3d 9501 c2bd 2f35 2f3d
00000300: 23b6 0cbe ef6e d8bd 4f63 b53c 1677 4abd
00000310: c323 883d 37d2 babd 3756 cb3d a647 923c
00000320: ab7f dabd 358b a6bc b704 343d 406b d7bd
00000330: 2f9b 82bd 6292 833b e9cc 47bd 4186 1b3d
00000340: 751d f2bd 7c8c 9a3b ea26 21bd e18f a0bb
00000350: c7f5 173d 0914 c13b d462 983d 235f 19bd
00000360: 178e 0a3d e307 d63c bff4 e2bd a1f6 c63d
00000370: 80d8 52bd 9627 ad3c 184a d63c 0821 d03a
00000380: 689b 02be b7d4 4fbc 3276 1d3d e640 c9bd
00000390: 03d9 0a3d 1f29 07be 7798 a43d 610f c33d
000003a0: d754 74bd 3b76 cdbc 418a f0bc e634 a6bd
000003b0: b6c2 02be 2161 593b 43b3 fe3b fcfc abbc
000003c0: 9958 fa3c 271b 62bd 9c83 febd cd9d 963d
000003d0: 24b7 c5bb 3271 7b3d af9c 01be 19b0 103d
000003e0: 567b b73d 1124 aabd 3c14 69bd f80a 02be
000003f0: 1579 cf3b 1256 333d 3f10 b7bd ba4a 0fbe

placing_layer.2.bias f4 [5]
0.16675456 0.04239076 -0.04027009 0.0034197825 -0.09162101
00000000: b5c1 2a3e efa1 2d3d 40f2 24bd 6e1e 603b
00000010: cca3 bbbd

placing_layer.3.weight f4 [5, 64]
0.01675348 0.055381067 0.08367183 0.16727929 0.03817904 0.038109493 0.15192872 -0.035873435
-0.03534163 0.04883201 -0.012066227 0.052197218 0.1105117 0.008637113 0.17699793 0.016260471
-0.063685894 0.036387995 0.11579848 0.14654848 0.083122 -0.014962366 0.11859085 0.06280694
0.009623984 -0.0043843156 -0.021296937 0.010423989 0.14369605 0.074329995 0.180924 0.09809076
-0.0314034 -0.006089876 0.08925145 -0.009529066 -0.041778266 0.08835962 -0.036541786 0.063138224
0.16136152 0.010345221 0.02781471 0.11361195 0.10933072 -0.029643444 0.16872613 0.014701772
0.05227393 0.020175582 0.16233374 0.16073899 -0.00979653 0.08460965 0.0060006506 0.12464881
0.064337336 0.0517686 -0.021406783 0.015042022 -0.02313598 0.08856344 0.057875056 0.10751912
-0.03809531 0.005036637 -0.1129003 -0.048487887 0.114438 0.119401574 -0.09065813 0.055082723
0.06791484 -0.038015828 0.063008696 0.09244418 -0.017814815 -0.10951689 -0.08803168 0.07094361
0.09373954 -0.04191196 -0.090192795 0.04618901 0.04273963 -0.06959058 0.059299648 -0.04905863
-0.120133534 0.062099323 0.021638557 -0.08720398 -0.0427043 -0.018167421 0.032710552 -0.11690807
-0.0003786981 0.04489562 -0.10507299 -0.020832732 0.08073573 0.10993378 0.107404575 -0.009088635
-0.04736097 0.017001346 -0.057824835 -0.1080641 -0.033002123 -0.116871774 -0.07677893 -0.06082891
-0.06493807 -0.054158524 0.07549791 0.052043557 -0.0808987 -0.10573609 0.016745836 -0.10119523
-0.101829916 0.084145814 -0.060369477 -0.10637191 0.08148268 -0.038621724 -0.095537156 -0.045603007
-0.060981404 0.02978433 -0.08660391 -0.05094329 0.014315456 -0.015993707 -0.10050039 -0.07472977
-0.08979345 -0.09256991 0.1075822 0.05099576 0.022175306 -0.055395138 0.050883457 -0.092685774
0.05926683 0.07033178 0.06896582 -0.06646291 -0.121635556 0.013410793 -0.09274613 -0.027405959
-0.029639805 -0.11915079 0.017179418 0.07741159 0.080178194 -0.072788514 0.07109216 -0.034646045
-0.003525528 0.024402667 -0.06257704 -0.08455369 0.057375308 -0.093810976 -0.075867385 -0.04310889
-0.11913555 0.09535631 0.095452555 0.023627037 0.03936413 -0.119942024 0.042821955 0.06133413
-0.07463443 -0.10545679 -0.04444877 0.10328315 0.11422417 -0.0055182693 -0.017551012 -0.04333041
-0.004861473 -0.04395412 0.06139252 -0.12603979 -0.024971852 0.01698966 0.06656897 0.03727585
-0.03784551 0.017634904 -0.07370745 -0.13110068 0.0803078 0.10787259 0.09441194 -0.109698124
-0.009277404 0.049498703 0.053109407 0.04897664 -0.056720514 -0.06739548 0.048151292 0.02603435
0.11123566 -0.0072408905 -0.05064789 0.002584474 0.063738085 0.0707238 0.034970086 0.10788791
-0.10665667 -0.021697955 -0.08239998 -0.011571026 -0.02488652 -0.0037449845 0.032090023 0.033183172
-0.01312592 -0.041058846 0.027583461 0.0047688917 0.049876843 -0.032269012 -0.029418293 -0.07164985
-0.09524407 0.022756135 -0.095156506 -0.017421085 -0.038890254 -0.041838244 0.01698104 -0.059194144
-0.04511795 -0.019061714 -0.12924749 0.029148698 -0.01919268 -0.09459166 -0.04992411 -0.111205384
-0.053085823 -0.03874751 -0.11060606 0.027459048 -0.027053146 -0.0054460326 -0.065116785 -0.0882393
00000000: 983e 893c 42d7 623d 235c ab3d 434b 2b3e
00000010: a061 1c3d b318 1c3d 3493 1b3e 06f0 12bd
00000020: 63c2 10bd 1304 483d 6db1 45bc c0cc 553d
00000030: f553 e23d ad82 0d3c f23e 353e ae34 853c
00000040: c06d 82bd 940b 153d c127 ed3d ce10 163e
00000050: de3b aa3d b624 75bc c2df f23d eda0 803d
00000060: eaad 1d3c 4eaa 8fbb ea76 aebc 61c9 2a3c
00000070: 0f25 133e 533a 983d 2444 393e cfe3 c83d
00000080: daa0 00bd 958d c7bb 77c9 b63d cd1f 1cbc
00000090: b01f 2bbd e3f5 b43d d7ac 15bd 9d4e 813d
000000a0: f43b 253e 007f 293c addb e33c 62ad e83d
000000b0: c9e8 df3d cfd6 f2bc 8bc6 2c3e b3df 703c
000000c0: 301d 563d 4347 a53c d13a 263e c398 243e
000000d0: a081 20bc d347 ad3d 1ba1 c43b e047 ff3d
000000e0: 4bc3 833d 500b 543d 475d afbc d072 763c
000000f0: ab87 bdbc c060 b53d 650e 6d3d fc32 dc3d
00000100: d409 1cbd 600a a53b 4638 e7bd 3c9b 46bd
00000110: 785e ea3d d088 f43d f8aa b9bd 6c9e 613d
00000120: f016 8b3d 7cb6 1bbd b40a 813d 6053 bd3d
00000130: 60f0 91bc 644a e0bd f449 b4bd e24a 913d
00000140: 84fa bf3d e0ab 2bbd 00b7 b8bd b030 3d3d
00000150: c00f 2f3d 8285 8ebd 30e4 723d b4f1 48bd
00000160: 9208 f6bd dc5b 7e3d 5843 b13c 0098 b2bd
00000170: b4ea 2ebd d8d3 94bc 80fb 053d 806d efbd
00000180: 008c c6b9 78e4 373d 8230 d7bd 68a9 aabc
00000190: c658 a53d f624 e13d eef6 db3d 80e8 14bc
000001a0: 94fd 41bd 6846 8b3c bcd9 6cbd b650 ddbd
000001b0: 3c2d 07bd 785a efbd 463e 9dbd bc27 79bd
000001c0: 40fe 84bd 54d5 5dbd a69e 9a3d a02b 553d
000001d0: 38ae a5bd 2a8c d8bd 902e 893c 723f cfbd
000001e0: 348c d0bd a454 ac3d fc45 77bd 84d9 d9bd
000001f0: 64e0 a63d d031 1ebd fca8 c3bd 38ca 3abd
00000200: a3c7 79bd 44fe f33c 645d b1bd e9a9 50bd
00000210: 608b 6a3c 3c05 83bc 26d3 cdbd ec0b 99bd
00000220: a1e5 b7bd 4b95 bdbd 0e54 dc3d eee0 503d
00000230: fda8 b53c 03e6 62bd 2c6b 503d 0ad2 bdbd
00000240: c7c1 723d 1c0a 903d f43d 8d3d b51d 88bd
00000250: 101c f9bd f1b8 5b3c aff1 bdbd 7682 e0bc
00000260: 2dcf f2bc 5405 f4bd dabb 8c3c f889 9e3d
00000270: 7734 a43d 2512 95bd c498 913d 03e9 0dbd
00000280: 8b0c 67bb 1ae8 c73c 6428 80bd 7c2a adbd
00000290: 5f02 6b3d f81f c0bd 5c60 9bbd f392 30bd
000002a0: 57fd f3bd 2b4a c33d a17c c33d 7d8d c13c
000002b0: 483c 213d 2aa4 f5bd 1366 2f3d 7f39 7b3d
000002c0: f0d9 98bd bbf9 d7bd ea0f 36bd 1e86 d33d
000002d0: 5dee e93d 99d2 b4bb 24c7 8fbc 3a7b 31bd
000002e0: fe4c 9fbb 3c09 34bd b976 7b3d 9310 01be
000002f0: c591 ccbc e62d 8b3c 5055 883d 90ae 183d
00000300: e503 1bbd 1377 903c eef3 96bd 423f 06be
00000310: 6a78 a43d 4eec dc3d 0c5b c13d 69a9 e0bd
00000320: 4100 18bc 27bf 4a3d 4089 593d bb9b 483d
00000330: c553 68bd a406 8abd 4a3a 453d fd45 d53c
00000340: 86cf e33d fe44 edbb 2974 4fbd 4760 293b
00000350: 1d89 823d a4d7 903d cb3c 0f3d 56f4 dc3d
00000360: d06e dabd e9bf b1bc 52c1 a8bd 6794 3dbc
00000370: d1de cbbc 6a6e 75bb d470 033d 14eb 073d
00000380: 190e 57bc 522d 28bd b6f6 e13c 5d44 9c3b
00000390: a94b 4c3d 832c 04bd a2fe f0bc 28bd 92bd
000003a0: 530f c3bd 136b ba3c 6ae1 c2bd aab6 8ebc
000003b0: 634b 1fbd 945e 2bbd d21b 8b3c 8f75 72bd
000003c0: 99cd 38bd 5027 9cbc 7459 04be 40c9 ee3c
000003d0: f839 9dbc 46b9 c1bd 397d 4cbd a6bf e3bd
000003e0: 8570 59bd b6b5 1ebd 6e85 e2bd ccf1 e03c
000003f0: 8f9e ddbc a274 b2bb f35b 85bd ceb6 b4bd

placing_layer.3.bias f4 [5]
0.18288441 -0.06644915 -0.114859976 0.021731833 -0.07079701
00000000: 0d46 3b3e 7e16 88bd b53b ebbd f506 b23c
00000010: 06fe 90bd
