auto_src/log_res/temp/3exp_3/imitation_learning_env-20240811-081002/bc_ddpg_actor.pth (torch, 275774 bytes, 108 tensors)

fc.0.weight f4 [64, 620]
0	0x3c14784d	0.009061885
1	0x3d138230	0.03601283
2	0xbcd7e0ac	-0.02635225
3	0xbcc7fdc4	-0.024412997
4	0xbc0ed424	-0.00871757
5	0x3c9b5ba0	0.018964589
6	0x3b6a4a8f	0.0035750007
7	0x3ce8d31a	0.028420974
8	0xbacc5cec	-0.0015591658
9	0x3bc89f70	0.006122522
10	0xbc9cce64	-0.019141383
11	0xbc168570	-0.009187087
12	0xbd373b13	-0.044734072
13	0xbd2ff3eb	-0.042957228
14	0xbc314995	-0.010820766
15	0x3c2027e1	0.009775133
16	0x3c7c75a9	0.015408912
17	0x3ce69970	0.028149337
18	0xbd0d48cd	-0.034493256
19	0xbbf34af4	-0.0074247066
20	0x3c27d41c	0.010243442
21	0x3cadcb4f	0.02121511
22	0xbb3a607f	-0.0028438864
23	0x3d43a6a3	0.04776634
24	0xbb077a22	-0.0020672162
25	0x3cd0aa7f	0.025471924
26	0x3d3c449e	0.045963876
27	0xbc754c46	-0.014971798
28	0xbc782be9	-0.015147188
29	0x3aa77203	0.0012775067
30	0xbb9b87fd	-0.0047464357
31	0x3cfd266f	0.030902116
32	0xbc614007	-0.013748175
33	0xbbcd89b8	-0.006272521
34	0xba57f32b	-0.0008237834
35	0xbd08f808	-0.033439666
36	0xbccbcfaf	-0.024879305
37	0x3d4168a5	0.047218937
38	0x3cce734b	0.02520146
39	0x3c662ee5	0.014049266
40	0x3c9ba69b	0.019000342
41	0xbbcb0d18	-0.0061966293
42	0x3c1e5226	0.00966314
43	0xbc99e09c	-0.01878386
44	0xbc40b9b3	-0.011763024
45	0xbcd58d65	-0.026068399
46	0x3d0eab09	0.03483108
47	0x3d2fe297	0.042940702
48	0xbd08b4f1	-0.033375684
49	0xbc941514	-0.018076457
50	0x3c15e782	0.009149434
51	0x3d3a5aec	0.045496866
52	0x3cd0fa98	0.025510117
53	0x3bd5f246	0.0065291254
54	0x3d05b4f6	0.03264328
55	0xbd0f06f4	-0.03491874
56	0x3cabb860	0.02096194
57	0xbd49dc7a	-0.04928253
58	0xbb4b3214	-0.003100519
59	0x3bcf41df	0.006324991
60	0x3d012b86	0.031535648
61	0x3d10f2e1	0.035387877
62	0xbc4c39ea	-0.01246498
63	0x3cf872c1	0.030328156
64	0x3d1ad26e	0.037798338
65	0x3c96ad6e	0.018393245
66	0x3cab326c	0.020898066
67	0x3c6372bc	0.013882335
68	0x3ccea42a	0.025224764
69	0x3d2b092a	0.041756786
70	0xbbdd9437	-0.0067620534
71	0xbc456b0b	-0.012049447
72	0x3d13784a	0.03600339
73	0x3ccd979f	0.025096713
74	0x3d3a243f	0.045444723
75	0x3d224824	0.03961958
76	0xba9749dd	-0.0011542399
77	0xbd162135	-0.036652762
78	0xbc033cde	-0.008010117
79	0xbc7e8353	-0.01553424
80	0xbd0bd60c	-0.034139678
81	0x3d0d35b0	0.03447503
82	0x3d10d01b	0.035354715
83	0xbd056427	-0.032566216
84	0x3bf9fac7	0.007628772
85	0xbb51d4ef	-0.0032017787
86	0xbc7c1d3a	-0.0153878275
87	0xbce4ad7b	-0.027914753
88	0x3cd42974	0.025898673
89	0xbc8c3f47	-0.017120017
90	0x3d18fde4	0.037351504
91	0x3d170e89	0.036879096
92	0x3d2ed743	0.04268576
93	0x3c9489fa	0.018132199
94	0xbc4aff5f	-0.012389987
95	0xbcef3be8	-0.02920337
96	0x3d0264d4	0.03183444
97	0xbb0e9d8f	-0.0021761393
98	0xbd1af696	-0.03783282
99	0xbb3c8c70	-0.002877023
100	0x3d5773b1	0.052600566
101	0x3d32dfb3	0.043670367
102	0xbc4cc616	-0.012498399
103	0xba6da8e3	-0.00090659986
104	0xbcf561dc	-0.02995389
105	0xbac08f38	-0.001469112
106	0xbc94cc7d	-0.018163914
107	0xbca3b43b	-0.019983402
108	0x3b08474f	0.0020794456
109	0x3b8c6128	0.004284043
110	0xbcbdcbcc	-0.023168467
111	0x3d08a08d	0.03335624
112	0xbc2ec4cc	-0.010667037
113	0x3d4daeb8	0.050215453
114	0x3d2c92ac	0.042132065
115	0xbd3be3b1	-0.04587144
116	0xbc288bab	-0.010287206
117	0xbc019e9f	-0.007911353
118	0x3bfa6708	0.007641677
119	0x3cb04018	0.021514937
120	0x3d018793	0.031623434
121	0x3c7a4bda	0.0152768735
122	0xbc9dc2af	-0.019257871
123	0x3c9fce64	0.019507594
124	0xbd0fe31b	-0.035128694
125	0xbcac5377	-0.021035893
126	0xbb0c2fc1	-0.0021390768
127	0xbca7e002	-0.020492557
128	0x3bb69ec1	0.005573124
129	0xbd5d1e6b	-0.053984087
130	0xbc8d84bb	-0.017275205
131	0x3c27eb59	0.010248982
132	0xbcbedf35	-0.023299793
133	0xbc0982c4	-0.008392993
134	0x3d125e9d	0.03573476
135	0x3c660538	0.01403933
136	0xbb68ae5b	-0.0035504315
137	0x3c948167	0.01812811
138	0x3ce15b3c	0.027509324
139	0x3ce7d25f	0.028298555
140	0x3d7124c4	0.058872953
141	0x3d32e21d	0.04367267
142	0x3d5e95b8	0.054342
143	0x3c80d69f	0.01572734
144	0xbc93cb6e	-0.018041339
145	0x3aba1998	0.0014198301
146	0x3d193923	0.037408005
147	0x3c577bdb	0.013152088
148	0xbc4ee04d	-0.01262672
149	0xbc38b5f7	-0.011273853
150	0xbd51833b	-0.05115054
151	0xbd1d0d62	-0.03834284
152	0xbb9bec06	-0.004758361
153	0x3c337396	0.010952851
154	0x3cade6b5	0.021228174
155	0xbc93bb86	-0.018033754
156	0x3d217ec3	0.03942753
157	0xbc983a17	-0.018582387
158	0x3c0bf7a0	0.008542925
159	0xbc986d07	-0.018606676
160	0x3bc9b973	0.0061561405
161	0xbb321520	-0.0027173236
162	0xbc97292b	-0.018452248
163	0xbcd8538c	-0.026407026
164	0x3c2f71c7	0.010708279
165	0xbb981be9	-0.004641999
166	0xbca24fca	-0.019813437
167	0xbba236b8	-0.0049503706
168	0xbcaac232	-0.020844553
169	0xbc38ec4a	-0.011286804
170	0x3d68f9b5	0.056878764
171	0x386c0eb2	5.628047e-05
172	0x3d4252d8	0.047442287
173	0x3cc683b6	0.024232727
174	0xbd084516	-0.03326901
175	0x3cc1a988	0.02364041
176	0x3c6ab37b	0.014325018
177	0xbbd6b57e	-0.0065523973
178	0x3d39afb8	0.045333594
179	0xbc9e35ec	-0.019312821
180	0x3c624c3e	0.013812123
181	0xbc762a2b	-0.015024702
182	0x3cf0a492	0.029375348
183	0x3c8feda5	0.017569372
184	0x3d1573e8	0.03648749
185	0xbb5ccfab	-0.0033693116
186	0xbc97ec4d	-0.018545294
187	0xba686658	-0.0008865348
188	0xbcfdf2b1	-0.030999513
189	0x3d1560f8	0.03646943
190	0x3d3d8e29	0.046278153
191	0x3d49d493	0.049274992
192	0xbc896ae1	-0.016774597
193	0x3ccb2356	0.024797123
194	0xbbaf9bf9	-0.0053591696
195	0xbd1f2e8b	-0.038862746
196	0xbc3b3939	-0.011427217
197	0xbba454ee	-0.005015007
198	0xbce73bd7	-0.028226776
199	0xbc0a5818	-0.008443855
200	0x3bba8d2d	0.005693099
201	0x3d24e983	0.040261757
202	0xbd03c596	-0.032170855
203	0xbc97fa00	-0.018551826
204	0xbc9158ba	-0.017742503
205	0x3d05edce	0.03269749
206	0xbca7fe21	-0.02050692
207	0x3d3a334d	0.04545908
208	0x3c91d113	0.01779989
209	0x3c9cadd8	0.019125864
210	0xbc3a94aa	-0.011387983
211	0xbc8d04db	-0.01721423
212	0x3b456f03	0.0030125983
213	0xbc0eb097	-0.0087090945
214	0x3ac6e8b1	0.0015175549
215	0x3c9f38c6	0.019436251
216	0xbc38fd86	-0.011290913
217	0xbaf2d22f	-0.0018525774
218	0x3d5ef225	0.054430146
219	0xbc7021a0	-0.014656454
220	0xbb552e52	-0.003252883
221	0x3cf9f413	0.030511891
222	0x3ceabe16	0.028655093
223	0xbc8e588f	-0.017376212
224	0xbcda73ba	-0.02666651
225	0x3c657ee5	0.014007305
226	0xbb82f872	-0.003996902
227	0xbb55bfac	-0.0032615466
228	0xba6da027	-0.0009064697
229	0x3c151923	0.009100231
230	0x3ae521e6	0.0017481416
231	0x3c9b2953	0.018940603
232	0xb9e7e08d	-0.00044227057
233	0x3d4db6ea	0.05022327
234	0x3c39acbf	0.01133269
235	0xbc8496c6	-0.016185176
236	0x3bf208aa	0.0073862867
237	0xbcc3c8c0	-0.023899436
238	0xbcf446c4	-0.0298189
239	0x3c882060	0.016617
240	0x3c013e1b	0.007888342
241	0x3d21364f	0.039358433
242	0xbc1cf952	-0.009580927
243	0x3c26b0ad	0.010173959
244	0x3d149383	0.03627349
245	0xbd370b8a	-0.04468874
246	0x3ca1d3fa	0.019754399
247	0xbc9f28d1	-0.019428642
248	0xbba8fd3a	-0.00515714
249	0xbbf677df	-0.007521614
250	0xbcb64c56	-0.022253197
251	0x3b8911bf	0.0041830237
252	0x3d09c91a	0.03363905
253	0xbc39bd70	-0.011336669
254	0xbcc7f2b7	-0.024407728
255	0xbc7cfa5b	-0.015440549

fc.0.bias f4 [64]
0	0x3cd8be74	0.026458003
1	0xbc6d547d	-0.014485476
2	0xbc4e5d5e	-0.012595503
3	0x3d01ebc5	0.031718988
4	0xbc140ea3	-0.009036693
5	0xbd214d3d	-0.0393803
6	0xbd2528b0	-0.040322006
7	0x3b1e8c5c	0.0024192547
8	0x3d16decf	0.03683358
9	0xbccccf99	-0.025001334
10	0x3c29267a	0.010324115
11	0xbd19705e	-0.037460677
12	0x3d21fe47	0.03954914
13	0x3c82f3a2	0.015985314
14	0x3be6685a	0.0070314826
15	0x3cfbbf3c	0.030730836
16	0x3d2c7833	0.04210682
17	0xba5e3210	-0.0008476088
18	0xbd1fcb05	-0.039011974
19	0x3d139aa9	0.036036167
20	0x3bcb4b3b	0.0062040365
21	0xbcca8894	-0.024723329
22	0x3ce87af2	0.028378937
23	0xbccea373	-0.025224423
24	0x3cc34d9a	0.023840714
25	0x3d066575	0.0328116
26	0x3ca148a5	0.01968796
27	0x3aa60e81	0.0012669117
28	0x3c159989	0.009130844
29	0xbc2f27b4	-0.010690618
30	0xbc9cf6ea	-0.019160707
31	0x3d286b88	0.041118175
32	0xba51505e	-0.0007984693
33	0xbbca6d1c	-0.0061775576
34	0xbc48df8c	-0.012260329
35	0x3c2fa52c	0.010720532
36	0x3cc34ff2	0.023841832
37	0x3ad22778	0.0016033491
38	0x3c9357e4	0.017986245
39	0xbc9e2cc1	-0.01930845
40	0x3cd7d238	0.026345357
41	0x3caf1534	0.021372415
42	0xbca940f9	-0.020660864
43	0xbcb6aeaa	-0.022300083
44	0xbcee9fb9	-0.029128896
45	0x3ce69465	0.028146932
46	0xbb28bc79	-0.0025747104
47	0x3c05fdf6	0.008178225
48	0xbcb92ead	-0.022605265
49	0xbaa93ec6	-0.0012912385
50	0xbcbc2a52	-0.022969399
51	0x3c44a723	0.012002739
52	0xbd09ecfc	-0.03367327
53	0xbca8761f	-0.020564137
54	0xbd0a9ccc	-0.03384094
55	0x3ccc114a	0.024910588
56	0xbcd4ac83	-0.025961166
57	0xbc80f1ac	-0.015740238
58	0x3b8f0bae	0.004365406
59	0x3bacbdc9	0.0052716476
60	0xbc48d64f	-0.012258126
61	0x3c6bbf07	0.014388806
62	0xbcac616c	-0.021042548
63	0x3c479182	0.012180688

fc.2.weight f4 [64]
0	0x3f82eeb5	1.0229098
1	0x3f800000	1.0
2	0x3f8164bf	1.010887
3	0x3f800000	1.0
4	0x3f800000	1.0
5	0x3f800000	1.0
6	0x3f835ee2	1.0263331
7	0x3f800000	1.0
8	0x3f800000	1.0
9	0x3f83504a	1.0258877
10	0x3f800000	1.0
11	0x3f800000	1.0
12	0x3f80b508	1.0055246
13	0x3f800000	1.0
14	0x3f837157	1.0268964
15	0x3f83fea5	1.0312086
16	0x3f8384c5	1.0274893
17	0x3f800000	1.0
18	0x3f800000	1.0
19	0x3f800000	1.0
20	0x3f800000	1.0
21	0x3f800000	1.0
22	0x3f800000	1.0
23	0x3f800000	1.0
24	0x3f800000	1.0
25	0x3f800000	1.0
26	0x3f800000	1.0
27	0x3f819019	1.01221
28	0x3f800000	1.0
29	0x3f837c04	1.0272222
30	0x3f800000	1.0
31	0x3f83a9ac	1.0286155
32	0x3f800000	1.0
33	0x3f800000	1.0
34	0x3f800000	1.0
35	0x3f836961	1.0266534
36	0x3f8358e2	1.02615
37	0x3f800000	1.0
38	0x3f800000	1.0
39	0x3f800000	1.0
40	0x3f839261	1.0279046
41	0x3f800000	1.0
42	0x3f800000	1.0
43	0x3f82f510	1.0231037
44	0x3f834303	1.0254825
45	0x3f800000	1.0
46	0x3f836ce0	1.0267601
47	0x3f800000	1.0
48	0x3f830cde	1.0238302
49	0x3f800000	1.0
50	0x3f83acb6	1.0287082
51	0x3f800000	1.0
52	0x3f837a4f	1.0271701
53	0x3f800000	1.0
54	0x3f800000	1.0
55	0x3f800000	1.0
56	0x3f800000	1.0
57	0x3f800000	1.0
58	0x3f83960b	1.0280164
59	0x3f839084	1.0278478
60	0x3f800000	1.0
61	0x3f800000	1.0
62	0x3f800000	1.0
63	0x3f800000	1.0

fc.2.bias f4 [64]
0	0x3da49d8c	0.08037862
1	0x3dabc300	0.08386803
2	0xbdb258c9	-0.08708341
3	0x3d933227	0.071873
4	0x3db13c22	0.086540475
5	0x3dbb945d	0.091591574
6	0xbda95b5a	-0.08269377
7	0x3dbb5f6c	0.0914906
8	0x3d991916	0.07475488
9	0x3c642207	0.013924128
10	0xbdac16f5	-0.08402816
11	0xbdb83efc	-0.08996388
12	0xbd9f061a	-0.07764836
13	0x3db668cb	0.089067064
14	0x3dad8e6c	0.084744304
15	0x3d889e20	0.06670785
16	0x3da6a8a8	0.081376374
17	0xbdb74ceb	-0.08950218
18	0xbdb05a07	-0.08610921
19	0xbda95ef9	-0.08270068
20	0x3db3c82a	0.08778413
21	0x3dbadcc0	0.09124136
22	0xbdbc2453	-0.09186616
23	0x3dab3240	0.08359194
24	0xbdb9daad	-0.09074912
25	0xbdbd98cf	-0.092576616
26	0x3dbc1ef6	0.09185593
27	0xbda55161	-0.080721624
28	0x3d878bcd	0.06618462
29	0x3d4fafd3	0.05070479
30	0xbdbb6ac3	-0.091512226
31	0x3da894ab	0.08231481
32	0xbdb73997	-0.08946531
33	0x3db36724	0.08759907
34	0xbdb32468	-0.08747178
35	0x3daf77b9	0.08567757
36	0xbda5724e	-0.080784425
37	0xbdbc70f2	-0.0920123
38	0xbda2a7a2	-0.0794213
39	0xbdb2f23a	-0.08737607
40	0x3d8b08fe	0.067888245
41	0xbdb88f24	-0.09011677
42	0x3dbb3069	0.09140093
43	0x3d5314ae	0.051533394
44	0x3daeab03	0.08528712
45	0x3db3bc3f	0.087761395
46	0x3daca187	0.084292464
47	0x3db973f7	0.09055322
48	0x3d81457b	0.063120805
49	0xbdb4f1ef	-0.08835208
50	0xbd6c5f13	-0.057707857
51	0x3db5b8b4	0.0887312
52	0xbd9fafa2	-0.07797171
53	0xbdbaf33b	-0.09128424
54	0x3db8d7d3	0.0902554
55	0xbdb964bc	-0.09052417
56	0xbdb914a4	-0.0903714
57	0x3db863f2	0.09003438
58	0x3da64616	0.081188366
59	0x3d98d404	0.07462314
60	0xbdbb35be	-0.0914111
61	0xbdbd0833	-0.092300795
62	0xbdb6f5e9	-0.089336224
63	0xbda21e09	-0.07915885

fc.2.running_mean f4 [64]
0	0x46aa2432	21778.098
1	0x22081fc8	1.8448262e-18
2	0x46d0ada4	26710.82
3	0x2583f408	2.289024e-16
4	0x25d4fe9c	3.6948668e-16
5	0x00000000	0.0
6	0x46f63b64	31517.695
7	0x00000000	0.0
8	0x23e85250	2.5188351e-17
9	0x45d4f26f	6814.304
10	0x00000000	0.0
11	0x00000000	0.0
12	0x47016792	33127.57
13	0x00000000	0.0
14	0x4715bd69	38333.41
15	0x4634ad04	11563.254
16	0x462e78b9	11166.181
17	0x00000000	0.0
18	0x00000000	0.0
19	0x00000000	0.0
20	0x00000000	0.0
21	0x00000000	0.0
22	0x00000000	0.0
23	0x00000000	0.0
24	0x00000000	0.0
25	0x00000000	0.0
26	0x00000000	0.0
27	0x39c18799	0.00036912857
28	0x29a1b597	7.181337e-14
29	0x469193b9	18633.861
30	0x00000000	0.0
31	0x46d7734e	27577.652
32	0x00000000	0.0
33	0x231938a5	8.3061416e-18
34	0x00000000	0.0
35	0x473f6c2b	49004.168
36	0x46e9c606	29923.012
37	0x00000000	0.0
38	0x00000000	0.0
39	0x00000000	0.0
40	0x469d60b6	20144.355
41	0x00000000	0.0
42	0x00000000	0.0
43	0x463992b1	11876.673
44	0x46e5b5c2	29402.879
45	0x00000000	0.0
46	0x46bea159	24400.674
47	0x00000000	0.0
48	0x469bd412	19946.035
49	0x00000000	0.0
50	0x46bbd4c0	24042.375
51	0x00000000	0.0
52	0x46e9184f	29836.154
53	0x00000000	0.0
54	0x00000000	0.0
55	0x24f5d44d	1.06611464e-16
56	0x00000000	0.0
57	0x00000000	0.0
58	0x464cd39a	13108.9
59	0x47155ab0	38234.688
60	0x00000000	0.0
61	0x00000000	0.0
62	0x00000000	0.0
63	0x00000000	0.0

fc.2.running_var f4 [64]
0	0x471409aa	37897.664
1	0x1d575bae	2.850241e-21
2	0x46a771d9	21432.924
3	0x1d575bae	2.850241e-21
4	0x1d575bae	2.850241e-21
5	0x1d575bae	2.850241e-21
6	0x46b900f5	23680.479
7	0x1d575bae	2.850241e-21
8	0x1d575bae	2.850241e-21
9	0x4748f8ca	51448.79
10	0x1d575bae	2.850241e-21
11	0x1d575bae	2.850241e-21
12	0x47ce3417	105576.18
13	0x1d575bae	2.850241e-21
14	0x46e20a23	28933.068
15	0x46fa3d10	32030.531
16	0x47111edb	37150.855
17	0x1d575bae	2.850241e-21
18	0x1d575bae	2.850241e-21
19	0x1d575bae	2.850241e-21
20	0x1d575bae	2.850241e-21
21	0x1d575bae	2.850241e-21
22	0x1d575bae	2.850241e-21
23	0x1d575bae	2.850241e-21
24	0x1d575bae	2.850241e-21
25	0x1d575bae	2.850241e-21
26	0x1d575bae	2.850241e-21
27	0x3c8a57e0	0.016887605
28	0x1d575bae	2.850241e-21
29	0x46871f4d	17295.65
30	0x1d575bae	2.850241e-21
31	0x470ac929	35529.16
32	0x1d575bae	2.850241e-21
33	0x1d575bae	2.850241e-21
34	0x1d575bae	2.850241e-21
35	0x47c812af	102437.37
36	0x46af7632	22459.098
37	0x1d575bae	2.850241e-21
38	0x1d575bae	2.850241e-21
39	0x1d575bae	2.850241e-21
40	0x47122b53	37419.324
41	0x1d575bae	2.850241e-21
42	0x1d575bae	2.850241e-21
43	0x4704353d	33845.24
44	0x470ec799	36551.598
45	0x1d575bae	2.850241e-21
46	0x471f62ef	40802.934
47	0x1d575bae	2.850241e-21
48	0x46b132c3	22681.38
49	0x1d575bae	2.850241e-21
50	0x47279ca6	42908.65
51	0x1d575bae	2.850241e-21
52	0x470f2b7f	36651.496
53	0x1d575bae	2.850241e-21
54	0x1d575bae	2.850241e-21
55	0x1d575bae	2.850241e-21
56	0x1d575bae	2.850241e-21
57	0x1d575bae	2.850241e-21
58	0x46b2ecec	22902.46
59	0x46d42c05	27158.01
60	0x1d575bae	2.850241e-21
61	0x1d575bae	2.850241e-21
62	0x1d575bae	2.850241e-21
63	0x1d575bae	2.850241e-21

fc.3.weight f4 [64, 64]
0	0x3e114e80	0.14190102
1	0x3db8f4d7	0.090310745
2	0xbe0970fd	-0.13422008
3	0x3e35bcaf	0.17747758
4	0x3e38f60b	0.18062608
5	0x3e409a4b	0.18808858
6	0xbd710c2c	-0.0588495
7	0x3da57d49	0.08080537
8	0x3e483675	0.19552024
9	0x3d0c9bb7	0.03432819
10	0xbd840fe7	-0.06448346
11	0xbcd95d2b	-0.026533684
12	0x3d839f30	0.06426847
13	0x3c6f271f	0.01459673
14	0x3da00a48	0.07814461
15	0x3e06e260	0.13172293
16	0x3e0a64a8	0.1351496
17	0xbdeed72f	-0.11662137
18	0x3c933562	0.01796979
19	0xbdc1e493	-0.09467425
20	0x3df927d7	0.12165802
21	0x3dd2b9e8	0.10289365
22	0xbe18495d	-0.14871736
23	0x3e5d083d	0.21585174
24	0xbe5ab91e	-0.21359679
25	0xbe5619a5	-0.2090822
26	0x3e058e23	0.13042502
27	0x3d0dafdc	0.03459154
28	0xbb50d65a	-0.0031866045
29	0x3ddfb556	0.10923259
30	0xbe00543e	-0.12532136
31	0x3e191dbb	0.14952748
32	0xbe12e6ee	-0.14345905
33	0x3e37a299	0.1793312
34	0xbe53f6d5	-0.20699628
35	0x3d1917c0	0.037376165
36	0x3d7ae598	0.061254114
37	0xbd7a373b	-0.061087828
38	0xbdf72966	-0.12068443
39	0x3ce4672b	0.027881226
40	0x3ca6294e	0.020283367
41	0xbe4ee4ba	-0.2020444
42	0x3e066d9c	0.1312775
43	0xbdaa57a3	-0.08317497
44	0xbd42462c	-0.047430202
45	0x3e5a8528	0.21339858
46	0x3c42a649	0.011880466
47	0xbbf4d5ce	-0.0074717766
48	0x3dd55708	0.104169905
49	0xbc9e8a45	-0.019353041
50	0xbdb17609	-0.086650915
51	0x3e042a32	0.12906721
52	0xbd25e27a	-0.040499188
53	0xbd9f1787	-0.07768159
54	0x3ca1406d	0.01968404
55	0x3d31e08a	0.043427028
56	0xbe2cb474	-0.16865712
57	0x3e5ad554	0.2137044
58	0x3dadb91f	0.08482575
59	0x3da799c5	0.08183626
60	0xbdee4d32	-0.116358176
61	0xbcfd55f1	-0.03092477
62	0x3cd5374f	0.02602735
63	0xbdd8d3d6	-0.105872795
64	0xbde73901	-0.112901695
65	0x3de06c0e	0.1095811
66	0xbdbbc8af	-0.09169137
67	0x3dd89110	0.105745435
68	0xbce64195	-0.028107444
69	0xbc091c72	-0.008368598
70	0x3dc4d044	0.09610036
71	0x3d211da5	0.03933491
72	0xbd94cd63	-0.07265737
73	0x3c269b87	0.010168917
74	0x3cc21454	0.023691334
75	0xbbd42916	-0.0064746244
76	0x3d95a426	0.073066995
77	0xbdb5aaa7	-0.0887044
78	0x3d168bcb	0.03675441
79	0x394d7fe8	0.00019597972
80	0xbd944f4b	-0.072416864
81	0x3dbe3045	0.092865504
82	0x3dfa60dd	0.122255065
83	0xbdfe2dc8	-0.12411076
84	0x3aa7c440	0.0012799576
85	0xbd0cc25b	-0.03436504
86	0x3d61957e	0.055074207
87	0xbd2fbbc5	-0.04290368
88	0x3ddcd93f	0.10783624
89	0x3d3cc16c	0.0460829
90	0x3d81569d	0.06315348
91	0x3de88856	0.11354129
92	0x3dcde3db	0.100532256
93	0xbdb77945	-0.08958677
94	0xbd1a7def	-0.037717756
95	0xbd969890	-0.07353318
96	0xbcacfb5a	-0.021115948
97	0x3dafe81f	0.085891955
98	0x3dd46fff	0.10372924
99	0xbdae3e1c	-0.0850794
100	0xbcf47570	-0.029841155
101	0x3d4fef4e	0.050765328
102	0xbdc3ee88	-0.095669806
103	0xbd934fd8	-0.07192963
104	0x3b2bc012	0.0026207012
105	0xbd03a5c2	-0.0321405
106	0x3dc59cf7	0.09649079
107	0x3d0a7145	0.03379943
108	0xbafb543f	-0.0019174888
109	0xbdd55b7e	-0.104178414
110	0x3d042a12	0.032266684
111	0x3d95635e	0.072943434
112	0x3d2a024e	0.041506104
113	0xbcc28767	-0.023746205
114	0x3d8549e4	0.06508234
115	0xbdd6394b	-0.104601465
116	0xbd922bf7	-0.07137292
117	0xbdca7af7	-0.09886735
118	0xbd887f13	-0.066648625
119	0x3ce8abf6	0.02840231
120	0x3d3fd839	0.046837065
121	0xbdfe00c9	-0.124024935
122	0xbdf02fe4	-0.117278844
123	0xbc4c9055	-0.012485583
124	0x3c97d8ea	0.01853605
125	0xbdbb73a0	-0.09152913
126	0x3d474c8f	0.048656996
127	0x3d356f0b	0.044295352
128	0xbcb54d04	-0.02213145
129	0x3dfef378	0.12448782
130	0xbba1c0ca	-0.0049363123
131	0xbcf4f86e	-0.029903617
132	0x3df5737e	0.11984919
133	0x3e3755d6	0.17903838
134	0x3c69212b	0.014229099
135	0x3cd6826c	0.026185237
136	0x3daa5794	0.083174855
137	0xbe010b11	-0.12601878
138	0xbce6e3cd	-0.028184796
139	0xbcb5f96c	-0.02221366
140	0x3e090cbe	0.13383767
141	0x3dbbef06	0.091764495
142	0x3deee0ab	0.11663946
143	0xbda1f74c	-0.07908496
144	0x3ce31eb6	0.027724605
145	0xbdcc55b7	-0.09977286
146	0xbe52f6a6	-0.20601901
147	0xbe1573c5	-0.14594944
148	0x3d8c6cc0	0.0685668
149	0x3daf0c3f	0.08547258
150	0x3cc3ef36	0.023917776
151	0x3cb6862e	0.022280779
152	0xbe12f8a4	-0.14352661
153	0xbe501f83	-0.20324521
154	0x3e02a3be	0.12757775
155	0xbd6ca26a	-0.057772078
156	0x3cb23bb8	0.021756992
157	0xbdc00256	-0.093754455
158	0xbe50b32f	-0.20380853
159	0x3e116723	0.141995
160	0xbdecd1bc	-0.11563441
161	0x3e33d6f1	0.17562462
162	0xbdecce07	-0.11562734
163	0x3e24d558	0.16097009
164	0xbdcef046	-0.10104422
165	0xbe3a1335	-0.1817139
166	0xbe29458a	-0.16530433
167	0xbdbf8c24	-0.093529016
168	0xbd83b8a1	-0.064316995
169	0xbe317c86	-0.17332658
170	0x3e448ae8	0.19193614
171	0xbe05ff52	-0.13085678
172	0x3e0c8f52	0.13726547
173	0x3c901d94	0.017592229
174	0x3dad8b94	0.08473888
175	0x3e04ee83	0.1298161
176	0x3d58888c	0.052864596
177	0xbe451da7	-0.19249593
178	0x3d98175f	0.07426333
179	0x3e46f4cb	0.19429319
180	0xbe08d32b	-0.13361804
181	0xbda6c83c	-0.081436604
182	0x3e2fbc7e	0.17161748
183	0x3c103033	0.008800554
184	0xbdb9a1d7	-0.090640716
185	0x39bccc42	0.00036010338
186	0x3d59c1b8	0.05316326
187	0x3dda379b	0.10655137
188	0xbd9cff06	-0.07665829
189	0x3b625882	0.0034537618
190	0xbe47762f	-0.19478677
191	0xbe3b9096	-0.18316874
192	0x3d6977f5	0.056999166
193	0x3e24b570	0.16084838
194	0xbc1ebb44	-0.009688202
195	0x3a78c4e4	0.0009489788
196	0x3e2f7e81	0.17138101
197	0x3dd2d611	0.10294736
198	0xbdf3d20f	-0.119053
199	0x3e01710f	0.12640785
200	0xbccc6117	-0.02494864
201	0x3d4a0345	0.049319524
202	0xbd8756a7	-0.066083245
203	0xbdf00326	-0.117193505
204	0x3dc0e811	0.09419263
205	0x3e0fce89	0.1404363
206	0x3da8e608	0.08247
207	0x3e235810	0.15951562
208	0x3dbb0986	0.09132676
209	0x3cb093df	0.021554885
210	0xbe184170	-0.14868712
211	0xbe3d3969	-0.18478931
212	0x3af9dd95	0.0019063229
213	0x3e293266	0.16523132
214	0xbdde05cd	-0.1084095
215	0xbcf21854	-0.029552616
216	0xbd3583c4	-0.044315115
217	0xbd3696cc	-0.044577405
218	0x3ddc2d3d	0.10750816
219	0xbdc5b9cc	-0.096545786
220	0xbd9fd0f2	-0.07803525
221	0xbd8de53f	-0.06928491
222	0xbe26a61f	-0.16274308
223	0x3d205074	0.039139226
224	0xbe59d98f	-0.21274398
225	0x3e11cfe4	0.1423946
226	0xbdc08f8f	-0.09402382
227	0xbd05af95	-0.03263815
228	0xbda5ee95	-0.081021465
229	0xbd36ebdd	-0.04465853
230	0x3d09263f	0.03348374
231	0x3c9a3e56	0.018828552
232	0x3cb156e2	0.021647874
233	0x3cb95b3e	0.022626515
234	0x3e45c0c6	0.19311818
235	0x3dcb37ae	0.099227294
236	0x3cd942b0	0.026521057
237	0x3e0c815e	0.13721225
238	0xbc6a6566	-0.014306402
239	0x3d2dcdb2	0.042432494
240	0xbaa497af	-0.0012557412
241	0xbe10af7b	-0.1412944
242	0xbb1fe566	-0.0024398207
243	0x3e36ddb1	0.17858006
244	0xbe118a7b	-0.14212982
245	0xbdecef4a	-0.11569078
246	0x3dc990d8	0.0984208
247	0xbdb2c274	-0.08728495
248	0xbdfdfd89	-0.124018736
249	0x3e3f9617	0.18709598
250	0x3b2a06e3	0.0025944046
251	0x3e1ca352	0.15296677
252	0xbe2af754	-0.1669591
253	0xbe5b2bea	-0.2140347
254	0xbe22d14b	-0.15900151
255	0xbe10bde8	-0.14134943

fc.3.bias f4 [64]
0	0x3dcca242	0.09991886
1	0xbcfdcacf	-0.030980496
2	0x3de2c2e7	0.11072331
3	0x3e04e7e8	0.1297909
4	0x3d74166b	0.059591692
5	0x3de88448	0.11353356
6	0x3e2744b3	0.163348
7	0xbd0da4e3	-0.034581076
8	0x3e1a7a72	0.15085772
9	0xbc45ee53	-0.012080747
10	0x3e114732	0.14187315
11	0x3dbf470f	0.09339725
12	0x3e3c4ec4	0.18389422
13	0x3d58a271	0.05288929
14	0x3d78a0e3	0.06070031
15	0xbddad4de	-0.106851324
16	0xbbb2763f	-0.005446225
17	0xbba65bb1	-0.0050768484
18	0x3df47e02	0.119380966
19	0x3c5d70ad	0.0135156335
20	0xbc6fd452	-0.014638023
21	0x3daaff4d	0.08349476
22	0x3d8e456c	0.06946835
23	0x3d525cc4	0.051358
24	0x3d93f80e	0.07225047
25	0x3c5fcbe0	0.013659447
26	0x3d88c86b	0.06678852
27	0x3e0e2a90	0.13883424
28	0x3de94906	0.11390881
29	0x3e495fb1	0.1966541
30	0x3e23deb2	0.1600292
31	0x3d8af867	0.0678566
32	0x3cf57d37	0.029966934
33	0xbc251b22	-0.01007727
34	0x3e438a41	0.19095708
35	0x3d917264	0.071018964
36	0xbd9f40b9	-0.07776017
37	0x3d55d09c	0.0522009
38	0x3b84056c	0.0040289667
39	0x3c3eb236	0.0116391685
40	0x3daeb7b1	0.0853113
41	0x3dec6846	0.11543326
42	0x3e44ccc9	0.19218744
43	0xbd802c0d	-0.06258402
44	0x3e04312b	0.12909381
45	0x3de2d38b	0.11075505
46	0x3d86b59e	0.065776095
47	0xbc4b5887	-0.012411243
48	0x3e112682	0.14174846
49	0x3dd7d9bc	0.105395764
50	0x3cc2a905	0.023762235
51	0x3e215e11	0.1575854
52	0x3df69562	0.12040211
53	0x3e16daf4	0.14731961
54	0x3d694fcc	0.056960866
55	0x3df2f443	0.118629955
56	0x3e2a6429	0.1663977
57	0x3e261c40	0.16221714
58	0xbd15b57c	-0.03655003
59	0x3e327203	0.17426305
60	0x3d60114b	0.05470399
61	0x3caacd9b	0.020849993
62	0x3dfaab3d	0.12239692
63	0x3e24f0cf	0.16107486

placing_layer.0.weight f4 [5, 64]
0	0xbd68999b	-0.056787115
1	0x3d8a20ce	0.06744538
2	0xbd9be811	-0.076126225
3	0xbd896672	-0.06708993
4	0x3d1f88c1	0.038948778
5	0xbb9747fe	-0.0046167364
6	0x3de0caf7	0.109762125
7	0xbd41ae0a	-0.047285117
8	0xbc8f9e03	-0.0175314
9	0xbc7ac4dd	-0.015305725
10	0xbcc551f7	-0.024086935
11	0xbda8648d	-0.082223035
12	0x3ca78769	0.02045031
13	0x3c92478e	0.017856386
14	0x3c8edd7b	0.017439594
15	0xbd46355e	-0.04839074
16	0x3d847f39	0.06469578
17	0x3d4ce7d5	0.05002578
18	0x3d49abb8	0.04923603
19	0xbcdb6fed	-0.026786769
20	0x3c6c3aa0	0.014418274
21	0x3d61dc56	0.05514177
22	0xbd636fa0	-0.055526376
23	0xbd35f90b	-0.04442696
24	0xbbda4970	-0.0066615865
25	0xbdad8e17	-0.08474367
26	0x3c7feed3	0.015620905
27	0xbd20ef46	-0.03929069
28	0xbd845e17	-0.06463259
29	0x3d28913f	0.041154142
30	0x3ca0ac3a	0.019613374
31	0xbd5c2110	-0.05374247
32	0xbdb499af	-0.08818375
33	0xbdfde890	-0.123978734
34	0xbd968b1f	-0.07350754
35	0xbe0432e6	-0.12910041
36	0x3ba6621c	0.0050776135
37	0xbdd9f38e	-0.106421575
38	0xbd2de86e	-0.04245799
39	0xbd924ff2	-0.071441546
40	0x3d9002b3	0.07031765
41	0x3cc9a3e8	0.02461429
42	0x3cd632e1	0.026147308
43	0x3de409a6	0.11134653
44	0x3daa5e25	0.08318738
45	0x3c9050b5	0.01761661
46	0xbd831ad2	-0.064016
47	0x3ddf463d	0.10902069
48	0x3cc689e8	0.02423568
49	0x3d1e8f84	0.038711086
50	0xbd77ac34	-0.06046696
51	0xbdccc280	-0.099980354
52	0x3c4e653f	0.012597381
53	0x3d292cff	0.041302677
54	0xbc4d7264	-0.01253948
55	0xbce73f07	-0.028228296
56	0x3dd86a9f	0.10567211
57	0x3dbf88e1	0.093522795
58	0xbb75885b	-0.0037465307
59	0xbd2b9f29	-0.041899834
60	0x3b9e5c40	0.0048327744
61	0x3ce9d8d2	0.02854577
62	0x3d4a1fe7	0.04934683
63	0xbe081052	-0.13287476
64	0x3dc3b546	0.095560595
65	0x3d13e7c0	0.036109686
66	0xbdc539e5	-0.09630183
67	0x3d834541	0.064096935
68	0x3d9f89b4	0.07789937
69	0x3d9dc244	0.07703069
70	0x3d0185e6	0.031621836
71	0xbd577e20	-0.052610517
72	0xbd878248	-0.06616646
73	0x3daa9741	0.08329631
74	0xbd510b5e	-0.05103623
75	0xbcad62af	-0.02116522
76	0xbda8d7be	-0.082442746
77	0xbd6f7d40	-0.058469057
78	0x3d30ccec	0.04316418
79	0x3d65aa8c	0.05607085
80	0xbcaa62e3	-0.020799106
81	0x3d51f98a	0.05126337
82	0xbdf1fcd9	-0.11815805
83	0xbe0a0268	-0.1347748
84	0xbdd190d2	-0.102327004
85	0x3cc65b50	0.024213463
86	0xbdf37a4f	-0.11888563
87	0x3ad54dfb	0.001627385
88	0xbca65b8e	-0.020307329
89	0xbce12b69	-0.02748652
90	0x3ddbd3c6	0.10733752
91	0x3d606590	0.054784358
92	0xbde6e7fd	-0.11274717
93	0xbe10eaf6	-0.1415213
94	0x3d2d09f5	0.042245824
95	0x3d5a6386	0.05331757
96	0xbdd57801	-0.104232796
97	0x3ce7ed04	0.02831126
98	0xba8d083d	-0.0010759901
99	0x3cf74113	0.030182397
100	0x3c84760d	0.016169572
101	0x3d96e1e7	0.07367306
102	0x3db578a0	0.08860898
103	0x3d01d824	0.03170027
104	0x3db83971	0.08995331
105	0x3c86efec	0.016471826
106	0xbd83cce7	-0.064355664
107	0xbcf75b90	-0.030195028
108	0x3d1abeb7	0.037779536
109	0xbdde0b92	-0.108420506
110	0xbd8d6069	-0.069031544
111	0xbd523972	-0.051324315
112	0xbcd5a472	-0.02607939
113	0xbcd11fa7	-0.025527788
114	0xbdfc8e89	-0.12331874
115	0x3cc0f362	0.023553554
116	0x3c99ad28	0.018759325
117	0x3d713bdb	0.058894973
118	0xbc0c4f38	-0.008563809
119	0x3b6b697c	0.0035921028
120	0x3dcb345c	0.09922096
121	0x3dd08d60	0.10183215
122	0xbdcacea8	-0.09902698
123	0x3b9d8791	0.0048074205
124	0xbddf184e	-0.108933076
125	0xbdf70a87	-0.12062555
126	0x3d4334d4	0.047657803
127	0xbdc38457	-0.09546726
128	0x3da4adb7	0.08040946
129	0x3ca81644	0.02051843
130	0x3e0523f7	0.13002001
131	0x3cf2a5be	0.029620048
132	0x3cb10d4a	0.021612782
133	0x3e438a86	0.19095811
134	0xba41aef7	-0.00073884375
135	0xbd8de502	-0.069284454
136	0x3deddd95	0.11614529
137	0x3d5abb54	0.053401306
138	0xbd625e28	-0.055265576
139	0x3e2ddde3	0.16979174
140	0xbd15c7b9	-0.036567423
141	0x3dc89473	0.097939394
142	0x3dea0f0c	0.11428651
143	0xbd7086f9	-0.05872247
144	0x3da7325d	0.08163903
145	0x3d972eb9	0.073819585
146	0xbd689301	-0.05678082
147	0x3d750f16	0.05982884
148	0x3dc62d71	0.09676636
149	0x3dba9f73	0.09112444
150	0x3ddd541b	0.108070575
151	0x3dd11b22	0.10210253
152	0x3e485e16	0.19567141
153	0x3dd1a170	0.1023587
154	0x3d8720fa	0.06598087
155	0x3cd76b91	0.026296409
156	0x3db24afe	0.0870571
157	0x3e34978e	0.17635939
158	0xbb9a662a	-0.004711886
159	0x3e219eac	0.15783185
160	0x3dd2db2b	0.10295709
161	0xbd705b1d	-0.058680642
162	0x3d6ce75a	0.05783782
163	0xbcb8c16c	-0.022553168
164	0xbd7569c8	-0.059915334
165	0x3e1542d9	0.14576282
166	0xbad009bb	-0.001587204
167	0x3dd63d57	0.104609184
168	0x3e26f7e9	0.16305508
169	0xbc8a0835	-0.016849617
170	0x3dcda4c8	0.10041195
171	0xbdaaf093	-0.08346667
172	0x3cc2f478	0.023798212
173	0x3e22d93f	0.15903185
174	0xbcf298bd	-0.029613847
175	0x3dab9cc9	0.08379514
176	0x3e41e4fe	0.1893501
177	0x3e26b959	0.16281642
178	0xbc2a1fda	-0.010383571
179	0xbccdb3fa	-0.025110234
180	0x3d2c52d9	0.042071197
181	0x3df8c0b8	0.12146133
182	0x3dec122c	0.115269035
183	0x3d1e0dd5	0.03858741
184	0x3e2d0cc9	0.16899408
185	0x3e079e6a	0.13244024
186	0x3de1991e	0.11015533
187	0x3db5c266	0.08874969
188	0x3e24152a	0.16023698
189	0xbd4a8cb2	-0.049450584
190	0x3dc99247	0.09842353
191	0x3e2bb70c	0.16769046
192	0xbddcb490	-0.10776627
193	0x3cbee2e8	0.023301557
194	0xbd945756	-0.072432205
195	0x3ca1f450	0.019769818
196	0x3b8d0960	0.004304096
197	0xbde5b336	-0.112158224
198	0xbd768e30	-0.060194194
199	0xbd293650	-0.041311562
200	0xbcad4dc8	-0.021155253
201	0xbdd22d06	-0.10262494
202	0xbcf02758	-0.029315636
203	0xbd4637e0	-0.04839313
204	0xbdf7d35a	-0.12100859
205	0xbda0bbe4	-0.07848337
206	0xbdaee8ac	-0.085404724
207	0x3ddbca2e	0.10731922
208	0x3ca48fa8	0.020088032
209	0xbda87dc8	-0.08227116
210	0x3dfd8c34	0.12380257
211	0xbd100c98	-0.03516826
212	0xbd4374d4	-0.047718838
213	0x3dbbabec	0.09163651
214	0xbbf90380	-0.007599294
215	0x3d5a3040	0.05326867
216	0xbc485c50	-0.01222904
217	0xbbd66a00	-0.006543398
218	0x3dc9e15c	0.09857437
219	0xbd210598	-0.039311975
220	0x3db46900	0.0880909
221	0x3ddb31f6	0.10702889
222	0xbdd11aa0	-0.102101564
223	0xbc0d1450	-0.0086108
224	0xbdd956a8	-0.106122315
225	0x3d3ef890	0.046623766
226	0xbdc4a5bc	-0.09601924
227	0xbc023620	-0.007947475
228	0xbdca2112	-0.09869589
229	0x3da2abb4	0.07942906
230	0x3d70f298	0.058825105
231	0x3d3fcad4	0.04682429
232	0x3d15145c	0.03639637
233	0xbbab9720	-0.0052365214
234	0xbdd83170	-0.105563045
235	0xbdc60dd6	-0.09670608
236	0xbdbc3996	-0.09190671
237	0x3d91186a	0.07084735
238	0xbda1e36a	-0.07904704
239	0xbd969182	-0.07351972
240	0x3d741140	0.059586763
241	0xbdcf3744	-0.10117963
242	0x3dbf5d3c	0.09343955
243	0xbdca2a44	-0.09871343
244	0xbda2888c	-0.079362005
245	0xbc9115f0	-0.017710656
246	0xbc8c83c0	-0.017152667
247	0x3dd0bf5e	0.101927504
248	0xbbead4a0	-0.00716646
249	0x3d25f074	0.040512517
250	0x3d40db38	0.047084063
251	0xbdb8119c	-0.08987734
252	0x3d504ad4	0.05085261
253	0xbdc9a5a8	-0.098460495
254	0xbdb72a4c	-0.08943614
255	0x3c7317b0	0.0148371905

placing_layer.0.bias f4 [5]
0	0xbdd49083	-0.10379126
1	0xbdbd9fb5	-0.09258977
2	0x3d8d27d5	0.06892363
3	0xbd8ef43a	-0.06980176
4	0x3d8fdf76	0.07025044

placing_layer.1.weight f4 [5, 64]
0	0x3d924428	0.07141906
1	0x3dc3eeeb	0.09567054
2	0xbbf2ef84	-0.0074138064
3	0x3d306081	0.043060783
4	0xbdbaf667	-0.09129029
5	0xbe0ef41e	-0.13960311
6	0x3daf7ac6	0.08568339
7	0x3db3b652	0.08775009
8	0x3d7f2d4d	0.06229906
9	0xbc84e2d4	-0.016221441
10	0xbab4a09e	-0.0013780778
11	0x3d9d26b7	0.076734
12	0xbe008c1b	-0.12553446
13	0xbd916f39	-0.07101292
14	0x3cde8323	0.02716214
15	0x3dd11b82	0.10210325
16	0xbdb125d6	-0.08649795
17	0x3de0623f	0.10956239
18	0xbda96786	-0.08271699
19	0x3d8e8023	0.06958034
20	0xbd4358a1	-0.047691945
21	0x3d52cc42	0.051464327
22	0x3da2d8a9	0.07951481
23	0xbdd0bbbb	-0.10192057
24	0xbd8b3d41	-0.06798793
25	0x3db968c3	0.09053185
26	0x3dc4a395	0.09601513
27	0xbc80e9d3	-0.015736496
28	0x3ccad283	0.024758583
29	0xbcc106f3	-0.023562884
30	0xbaef707d	-0.0018267777
31	0x3d1bc9a6	0.038034104
32	0xbe00ccd0	-0.1257813
33	0xbcd64dd3	-0.026160156
34	0xbcbb5d07	-0.022871507
35	0xbdd9d664	-0.10636595
36	0x3d4648c0	0.048409224
37	0xbd0edcb1	-0.034878436
38	0xbdc6f5bf	-0.09714841
39	0x3ceb077e	0.028690096
40	0x3c65b4da	0.014020169
41	0xbe0666cd	-0.13125153
42	0xbc383531	-0.011243151
43	0xbd32e36f	-0.04367393
44	0x3dc5792d	0.09642253
45	0xbdcc3ac4	-0.09972146
46	0x3d84454a	0.06458528
47	0xbd2ae32d	-0.041720558
48	0x3db4f887	0.08836465
49	0xbdb4bc51	-0.08824981
50	0xbdf21e5f	-0.11822199
51	0xbdae274c	-0.08503589
52	0xbe0cb835	-0.13742144
53	0xbb8f1f2a	-0.0043677287
54	0xbdac218a	-0.084048346
55	0x3a2d9a51	0.0006622421
56	0xbd604a36	-0.054758273
57	0xbdca9e52	-0.098934785
58	0x3dc3d7ae	0.09562622
59	0xbb9c2c01	-0.004765988
60	0x3d9e899b	0.0774109
61	0x3cfb992d	0.030712688
62	0x3d113865	0.035454173
63	0x3db4f8da	0.08836527
64	0x3dbaa888	0.09114176
65	0xbd5bdf2b	-0.053679626
66	0x3d8b8a85	0.0681353
67	0xbd0385b9	-0.03210995
68	0x3dbeabc5	0.09310106
69	0xbd9576b8	-0.072980344
70	0xbdff042a	-0.12451966
71	0xbcde65e0	-0.027148187
72	0xbcbaaaf3	-0.022786593
73	0xbdb2cde8	-0.0873068
74	0xbdbc16de	-0.09184049
75	0xbd63a700	-0.055579185
76	0xbc8323e9	-0.016008334
77	0xbe023079	-0.12713803
78	0x3cf65ba6	0.030072998
79	0xbdf08c01	-0.117454536
80	0x3de9d9de	0.11418508
81	0xbd3c68f5	-0.045998532
82	0xbdaffffd	-0.08593748
83	0xbd666532	-0.05624885
84	0x3dcd2e3a	0.10018583
85	0xbde0750a	-0.109598234
86	0x3c2d25a3	0.010568055
87	0x3d0db2c6	0.03459432
88	0xbd8f5b0b	-0.06999787
89	0xbcc14ddc	-0.023596697
90	0xbd808494	-0.06275287
91	0xbd833f79	-0.06408591
92	0x3d5af516	0.05345639
93	0x3d8fcb80	0.070212364
94	0x3cd93c3c	0.02651798
95	0xbd905043	-0.07046559
96	0x3d094eed	0.033522535
97	0x3d70f963	0.058831584
98	0xbd07b720	-0.033133626
99	0xbb4da3a1	-0.0031378048
100	0x3de416e9	0.11137182
101	0xbdbb7c04	-0.091545135
102	0xbdc4a3bb	-0.096015416
103	0x3dbfac09	0.09358985
104	0xbc3b7a72	-0.011442767
105	0xbd9e4de6	-0.07729702
106	0xbdd48895	-0.103776135
107	0xbde26a4c	-0.11055431
108	0xbdfae740	-0.12251139
109	0xbe087b62	-0.13328317
110	0xbd9dd815	-0.0770723
111	0x3c887f31	0.016662212
112	0xbdd6987d	-0.104783036
113	0x3dd77f87	0.10522371
114	0x3ce6afea	0.028160054
115	0xbd48f4f4	-0.04906173
116	0x3dc8234d	0.09772358
117	0x3d04362c	0.032278225
118	0x3d886c85	0.066613235
119	0xbe09dd00	-0.13463211
120	0x3a220118	0.00061799726
121	0x3dc16728	0.094435036
122	0xbd929b75	-0.07158557
123	0x3d813c92	0.06310381
124	0xbcf1fffd	-0.02954101
125	0xbdd8aae7	-0.10579472
126	0xbcf2b6ea	-0.029628236
127	0x3c92a977	0.017903073
128	0x3e32031e	0.17384002
129	0xbc0d66be	-0.008630453
130	0x3e287a13	0.16452818
131	0x3e4c2c88	0.19938862
132	0x3da2ae84	0.079434425
133	0x3dced34d	0.10098896
134	0x3c8dccf0	0.017309636
135	0x3c921067	0.017830087
136	0x3c578d21	0.013156206
137	0x3d9ac914	0.07557884
138	0x3de00e60	0.10940242
139	0x3d84a205	0.06476215
140	0x3cbf82c0	0.023377776
141	0x3d5d0503	0.053959858
142	0x3e00dcc5	0.12584217
143	0xbdbef868	-0.093247235
144	0xbce82555	-0.028338114
145	0x3c87c4ba	0.016573299
146	0xbd50ece6	-0.051007174
147	0xbd1fc647	-0.03900745
148	0x3dec87ce	0.1154934
149	0x3c9c30c7	0.019066228
150	0x3c82b83c	0.01595699
151	0xbd566f8f	-0.052352484
152	0x3dd538ab	0.10411199
153	0x3d74b208	0.059740096
154	0x3ca669cf	0.020314125
155	0xbcd9da22	-0.026593272
156	0xbcf0924f	-0.02936664
157	0x3d949bc8	0.072562754
158	0x3cf4168c	0.029795907
159	0x3dc506e4	0.09620455
160	0xbc38c09d	-0.011276391
161	0x3cb711db	0.022347381
162	0x3d22f11e	0.03978073
163	0xbd40e8ea	-0.047097124
164	0xbd11d03e	-0.035598986
165	0x3e2711e7	0.16315423
166	0x3da4b9c5	0.08043245
167	0xbc3ee95e	-0.011652319
168	0x3b465145	0.0030260843
169	0xbd391b7e	-0.045192234
170	0x3df3f2df	0.11911558
171	0x3e198588	0.14992344
172	0xbd414498	-0.047184557
173	0xbd32dcf3	-0.043667745
174	0x3e0eae44	0.13933665
175	0x3e2014ac	0.15632886
176	0x3d443ce9	0.04790965
177	0xbd1788f1	-0.036995832
178	0xbd4697a6	-0.048484467
179	0x3e3289ef	0.1743543
180	0x3de28833	0.11061134
181	0x3bbf1779	0.0058316556
182	0x3c9566b4	0.01823745
183	0xbbe5822e	-0.007004044
184	0x3e0de8be	0.13858315
185	0x3e085eb4	0.13317376
186	0xbd2d1440	-0.04225564
187	0x3d73192c	0.059350178
188	0x3d7734de	0.060353152
189	0x3e1bd8f7	0.15219484
190	0x3dd42c18	0.10359973
191	0x3de52b29	0.11189873
192	0x3c9b7633	0.01897726
193	0xbde5b51c	-0.112161845
194	0x3ddfb21f	0.10922646
195	0xbde4836f	-0.111578815
196	0x3d0ca81a	0.03434
197	0xbe036f98	-0.12835538
198	0xbdb8a4ee	-0.09015833
199	0xbbae4b4f	-0.005319036
200	0x3d0724ed	0.0329942
201	0x3dc7dfb8	0.09759468
202	0xbd9261c9	-0.07147557
203	0x3d185964	0.037194625
204	0x3dad4758	0.08460873
205	0x3d82e9dc	0.063922614
206	0x3c75883a	0.014986092
207	0x3c6c5f00	0.014426947
208	0xbd232394	-0.03982885
209	0x3cc8eda5	0.02452738
210	0xbc35445e	-0.011063663
211	0x3dd0a1bc	0.101870984
212	0xbcf03a11	-0.029324563
213	0xbc100637	-0.008790544
214	0x3dab4224	0.08362225
215	0xbdd1479d	-0.10218737
216	0x3d25f5ec	0.040517733
217	0xbdca8f14	-0.09890571
218	0xbdb24292	-0.087041035
219	0xbd9bb7e6	-0.07603435
220	0x3dad02f8	0.08447832
221	0xbc8961ff	-0.016770361
222	0x3dd18f7a	0.10232444
223	0x3d926016	0.07147233
224	0xbd005a70	-0.031336248
225	0x3c27bdf1	0.010238157
226	0xbcf4cd8e	-0.029883172
227	0xbdd1a844	-0.10237172
228	0x3dc95cd7	0.09832161
229	0xbe00dfdf	-0.125854
230	0xbdf9b670	-0.12193
231	0x3d1b6800	0.03794098
232	0x3d293041	0.041305784
233	0xbd6e1686	-0.05812695
234	0x3d71925d	0.058977474
235	0x3d846a0d	0.0646554
236	0x3ccd2213	0.025040662
237	0x3dc69a41	0.0969739
238	0xbd243f4f	-0.04009944
239	0xbcb855d4	-0.022501864
240	0xbd95c6bf	-0.073132984
241	0xbc8e3b91	-0.017362388
242	0xbd55d740	-0.05220723
243	0xbd1f1007	-0.038833644
244	0xbd94cbcd	-0.072654344
245	0xbd92e2d8	-0.07172173
246	0xbc897649	-0.016780036
247	0xbb9293fe	-0.0044732084
248	0xbdffadfc	-0.12484357
249	0x3d605cf9	0.054776166
250	0xbd1894f4	-0.037251428
251	0xbe0747b2	-0.13210943
252	0xbda176d8	-0.07883996
253	0x3d9e7f2d	0.077391006
254	0xbddd902a	-0.10818513
255	0xbdd1eae4	-0.1024988

placing_layer.1.bias f4 [5]
0	0xbca706de	-0.020389017
1	0x3c44f8b8	0.01202219
2	0x3e46beb6	0.19408688
3	0x3b99c81f	0.0046930457
4	0xbd64d529	-0.055867348

placing_layer.2.weight f4 [5, 64]
0	0x3da73b5b	0.08165618
1	0xbce63250	-0.028100163
2	0x3cf37306	0.029717933
3	0xbd5c8a81	-0.053843025
4	0x3d66cd4c	0.05634813
5	0xbd36f526	-0.044667386
6	0x3df7ffb2	0.12109317
7	0x3c056617	0.008142016
8	0xbd7cf3c5	-0.061755914
9	0xbd23f55d	-0.04002892
10	0x3e078e3b	0.1323785
11	0xbc49121b	-0.012272383
12	0x3d42b7a4	0.047538415
13	0xbd1b1516	-0.037861906
14	0x3c6daa97	0.014506004
15	0x3debeec0	0.11520147
16	0x3d0bea47	0.03415897
17	0x3df31adb	0.11870357
18	0x3cc87512	0.024469886
19	0x3d84aa13	0.064777516
20	0x3e061f56	0.13097891
21	0x3de04a47	0.10951667
22	0x3cbe8e42	0.023261193
23	0x3d4db37e	0.050220005
24	0x3d0d2ff0	0.034469545
25	0x3da76151	0.081728585
26	0x3da23e58	0.079220474
27	0x3dccdcf9	0.10003085
28	0xbbdbe315	-0.00671042
29	0xbcfd45fd	-0.030917162
30	0xbdebdf66	-0.11517219
31	0xbdd05ce9	-0.10173971
32	0x3d0dae36	0.03458997
33	0x3dca945d	0.09891579
34	0x3cba638f	0.022752551
35	0x3dfd4150	0.12365973
36	0x3d01d8af	0.031700786
37	0x3d838442	0.064217106
38	0xbbe86e20	-0.007093206
39	0x3dfd221c	0.123600215
40	0x3cd2b599	0.025721358
41	0xbcc5bc99	-0.024137782
42	0xbd930a37	-0.07179683
43	0x3da6acd1	0.08138431
44	0x3dea684e	0.11445676
45	0xbded9555	-0.116007484
46	0xbdc97a0e	-0.09837733
47	0x3dea0886	0.11427407
48	0xbe018b62	-0.12650827
49	0x3c4ca440	0.012490332
50	0x3c2e659b	0.010644342
51	0x3d8be49b	0.068307124
52	0xbd399509	-0.045308147
53	0x3d65ade8	0.056074053
54	0x3df9cf2e	0.121977195
55	0x3cf642a1	0.030061068
56	0x3bc777d4	0.0060872827
57	0xbdde7a07	-0.108631186
58	0x3d24f3f0	0.0402717
59	0x3d1946d4	0.037421063
60	0x3d8fea42	0.07027103
61	0x3d77cd5f	0.06049859
62	0xbd7cb210	-0.06169325
63	0xbd966627	-0.07343703
64	0xbcc272fd	-0.023736471
65	0xbcf94be1	-0.03043169
66	0xbda08072	-0.07836999
67	0xbde7ed16	-0.113245174
68	0xbdd12bdb	-0.10213443
69	0xbcc2289c	-0.023701005
70	0xbc2673ce	-0.010159446
71	0x3d36b360	0.04460466
72	0x3db52b0a	0.088461
73	0xbbccd989	-0.006251518
74	0x3c62b9ec	0.013838273
75	0xbdf18ebb	-0.11794802
76	0xbdc63b95	-0.09679333
77	0x3dbea00b	0.093078695
78	0x3c38d3d6	0.011280974
79	0x3d0d7865	0.034538645
80	0x3c9b89ea	0.018986661
81	0xbd94bbda	-0.07262392
82	0xbd0b9fa7	-0.034087803
83	0x3dd51f23	0.104063295
84	0xbd6cb72f	-0.057791885
85	0x3d53b6c3	0.051687967
86	0xbd60b845	-0.054863233
87	0xbd8aefef	-0.06784045
88	0xbd390d70	-0.04517883
89	0xbdac0bb6	-0.08400671
90	0xbd2c953b	-0.042134505
91	0xbd6b28ef	-0.057412084
92	0xbd93c307	-0.07214933
93	0xbde457b2	-0.11149539
94	0xbd4a3fa4	-0.0493771
95	0xbd8d9ed6	-0.06915061
96	0xbd55a0cb	-0.052155297
97	0xbda75737	-0.08170932
98	0xbd0dfe8c	-0.034666583
99	0xbd404b18	-0.046946615
100	0xbd1ac871	-0.037788812
101	0xbc7f932f	-0.015599056
102	0xbdd44b36	-0.10365908
103	0x3d67c18c	0.056581065
104	0xbcdb012c	-0.026733957
105	0xbd920652	-0.07130112
106	0x3d21822b	0.03943078
107	0x3dd12ac5	0.10213236
108	0x3c151bef	0.009100898
109	0xbbe47218	-0.006971609
110	0xbd39bca8	-0.045345932
111	0x3ce12238	0.027482137
112	0x3d5c36bd	0.05376314
113	0x3d4ca613	0.04996307
114	0xbc0b2b9e	-0.008494286
115	0xbdbc5a0b	-0.09196862
116	0xbe000bce	-0.12504503
117	0x3d590b82	0.05298949
118	0x3d7ac2f2	0.06122107
119	0x3de3aa59	0.111164756
120	0x3d25d331	0.04048461
121	0xbdf42bd3	-0.11922421
122	0xbc684d68	-0.014178611
123	0x3ddce7af	0.10786378
124	0xbb9bc517	-0.0047537195
125	0x3db7f1a1	0.08981634
126	0xbe014718	-0.12624776
127	0xbd85e026	-0.065368935
128	0x3e0b7b27	0.13621198
129	0xbd28158e	-0.04103618
130	0x3ddb3460	0.10703349
131	0xbd52372f	-0.05132216
132	0x3e109bf0	0.14121985
133	0x3da2cdfb	0.07949444
134	0x3ddde4f7	0.10834687
135	0x3dcc4095	0.099732555
136	0x3d8b376b	0.067976795
137	0xbda6cf58	-0.081450164
138	0x3e2ce202	0.1688309
139	0x3e137def	0.14403509
140	0x3d25f206	0.040514015
141	0x3cfa1342	0.030526761
142	0x3d9fb6bf	0.07798528
143	0xbd5b9228	-0.053606182
144	0x3d072bbf	0.033000704
145	0xbd95a178	-0.07306188
146	0x3cfcba64	0.030850597
147	0x3ccc5815	0.024944345
148	0x3d1703a7	0.036868718
149	0x3e0898b0	0.13339496
150	0x3e18c3dc	0.14918464
151	0x3e0f179d	0.13973852
152	0xbd662ad1	-0.056193177
153	0x3df6b675	0.1204652
154	0x3e1b2cc6	0.15153798
155	0xbcc19bfc	-0.02363395
156	0x3e09c537	0.13454138
157	0x3d1c1b01	0.03811169
158	0x3cc56bd7	0.024099274
159	0x3e110f60	0.14166021
160	0x3bd01270	0.006349854
161	0x3d49e6e6	0.049292468
162	0x3e035dea	0.12828794
163	0x3d20a0a0	0.039215684
164	0xbd645e84	-0.0557542
165	0x3d86fae0	0.06590819
166	0x3da2e293	0.07953372
167	0xbd2ec428	-0.042667538
168	0x3d8f967a	0.07011123
169	0x3dfc6376	0.12323658
170	0x3dd03f85	0.101683654
171	0x3dbf1d16	0.093317196
172	0x3e1517bf	0.1455984
173	0x3e35e8e9	0.1776463
174	0x3dfaa41f	0.12238335
175	0xbc4ec42f	-0.012620016
176	0x3cc39603	0.023875242
177	0x3dee043a	0.116219
178	0x3d1f8faf	0.038955387
179	0xbd06eaa9	-0.032938633
180	0xbd609be7	-0.05483618
181	0x3d9d6cff	0.07686805
182	0xbd755f08	-0.059905082
183	0x3d0c9341	0.03432012
184	0x3e2dfa2d	0.16989966
185	0x3d4c4dda	0.049878933
186	0xbd9223f2	-0.07135762
187	0xbd3bb0bb	-0.04582284
188	0xbcfe9f0a	-0.031081695
189	0x3e0f2e06	0.139824
190	0xbc1b4f27	-0.009479321
191	0x3dfc4d2c	0.12319407
192	0xbe0e56b2	-0.13900259
193	0xbdd59a9f	-0.10429882
194	0x3ce346e1	0.027743759
195	0xbd491476	-0.04909178
196	0x3d88d247	0.06680732
197	0xbdc8dd64	-0.09807852
198	0x3dd65d95	0.10467068
199	0x3ca215ef	0.01978585
200	0xbddc079d	-0.107436396
201	0xbc1017a3	-0.008794698
202	0x3d44953b	0.04799388
203	0xbdd771d1	-0.10519756
204	0xbd86a847	-0.06575065
205	0x3c49dff6	0.012321463
206	0xbd2ffa26	-0.04296317
207	0x3d24d644	0.040243402
208	0xbde6a773	-0.11262407
209	0x3c4b96b3	0.012426066
210	0xbd08053d	-0.03320812
211	0x3baf9d07	0.0053592953
212	0x3d305ed4	0.043059185
213	0x3ba1ed0a	0.0049415873
214	0x3d96aa65	0.07356719
215	0xbd21e9ec	-0.039529726
216	0x3d14d32d	0.036334205
217	0x3d05c00a	0.032653846
218	0xbddbd412	-0.107338086
219	0x3dc76211	0.097355016
220	0xbd4a31e0	-0.04936397
221	0x3cbd33ea	0.023096044
222	0x3cc90a06	0.024540912
223	0x3ba496d3	0.0050228625
224	0xbe013381	-0.12617303
225	0xbbe7ebf7	-0.0070776897
226	0x3d24d01c	0.04023753
227	0xbdbad9ae	-0.0912355
228	0x3d35f979	0.04442737
229	0xbe05feda	-0.130855
230	0x3d9f6f28	0.07784873
231	0x3dc42545	0.09577421
232	0xbd65cac6	-0.056101583
233	0xbcb6b698	-0.022303864
234	0xbcc84a41	-0.02444947
235	0xbd91e0ca	-0.07122953
236	0xbe02494f	-0.12723278
237	0x3b67a621	0.0035346823
238	0x3c811a38	0.015759572
239	0xbcca97bd	-0.024730558
240	0x3d172368	0.036899
241	0xbd56f7b9	-0.05248234
242	0xbdedeb0c	-0.11617097
243	0x3d9d19c3	0.07670929
244	0xbc0966d5	-0.0083863335
245	0x3d843756	0.06455867
246	0xbdfeca1d	-0.12440894
247	0x3d11e487	0.03561833
248	0x3dbf4c06	0.09340672
249	0xbda38304	-0.079839736
250	0xbd569291	-0.05238587
251	0xbe01928e	-0.12653562
252	0x3bf75ff8	0.007549282
253	0x3d3d8301	0.046267513
254	0xbdae2bc2	-0.0850444
255	0xbe0d4760	-0.13796759

placing_layer.2.bias f4 [5]
0	0x3db3b995	0.08775631
1	0x3d3e36ab	0.046438854
2	0x3d4145b1	0.047185604
3	0x3bfb9804	0.007678034
4	0xbdbba3cc	-0.09162101
