extra_baseline2/log_res/2exp_2/experiment_epochs_env-20250108-200349/best_actor.pth (torch, 225570 bytes, 88 tensors)

fc.0.weight f4 [64, 500]
00000000: e38a afb9 b387 c43c abc3 16bd f0ce 06bd
00000010: aa1a 8dbc 9d7b 443c 5047 68ba 8f3d 113d
00000020: 530c 82bb b2e2 413c 9d6f 5dbc c006 10bc
00000030: dfff 2ebd c7a1 f2bc 5f05 97bc 9423 d93a
00000040: 7fd5 903c a2d2 db3c 655e f8bc f888 9fbc
00000050: 3911 853c 001c 183d f7ca 16bc 2413 093d
00000060: ee33 ecbb 2810 9b3b 2cdd 253d f0ed 29bd
00000070: c9a2 e6bc 787f 39bc 5cce 8ebc 3c44 1e3d
00000080: 2577 edbc 77a5 a8bc bdf3 ffbc da8e 2bbd
00000090: 8edb d5bc c675 1d3d b479 a33c 3990 b13c
000000a0: 7223 1a3b 4dd3 bbbc a1ed f73b 7108 2bbd
000000b0: d75b 04bd 44de bcbc 1626 e73c 99cd d63c
000000c0: 4a7a a2bc 3a81 d3ba cb4e ea3c a01a 363d
000000d0: 9666 913c 15f8 c53b 3ba3 f53c 4bb6 d7bc
000000e0: 7a89 083c fb04 0ebd d0ea fdbc 1441 bdbc
000000f0: 50c4 a53c 9e55 933c 4203 d9bc bc5b 5d3c
00000100: b51e c93c 71f6 b8bb 38cf df3a 02c6 293c
00000110: 9047 e33c 19e3 2f3d 6d29 0dbd 4742 86bc
00000120: 6afb 8f3c c9c5 173d 4867 1f3d 04a1 213d
00000130: 26d2 113c fd49 1fbd fcce 863b f531 e5bc
00000140: d2b6 2abd bdc0 223d 1e48 0b3d d3b9 36bd
00000150: cc24 093c c5dd f6bb 1c27 f1bb dfb3 a7bc
00000160: 8fe2 8c3c a9fe d8bc af4d 863c 1845 b93c
00000170: e621 033d 30fc 883c 654c 35bd a8a7 edbc
00000180: 81ed b63c b35b 193c 10e5 0ebd abf4 d2bc
00000190: 4253 2c3d b0db f63c b4bd 9fbc c569 38bc
000001a0: e57e 2ebd fbb7 52ba c1f1 09bd ce4b 0dbd
000001b0: 3b7d 21bb ea06 dc3b d108 96bc 6563 d93c
000001c0: 5bf1 debc fc35 263d 8e10 fb3c b278 1abd
000001d0: 795c 36bc 803f 043b c9ce d53b f6c7 2d3c
000001e0: ddc4 8f3c 178f 2f3b 9dc1 b2bc 365b ad3c
000001f0: c6b6 2fbd 7924 d9bc 9e6b 37bc 2475 b2bc
00000200: ff29 80bc 2223 16bd 0adc 1bbc 5c9f 1c3c
00000210: 57ab eebc ea68 16bb ed20 033d 83a5 96bb
00000220: ffe8 a23a 8dd7 7cbb af49 143c caf1 e83c
00000230: ec83 2d3d 4da8 e83c 8fe9 2d3d eff6 53bb
00000240: a98d 24bd 84ae adbc 6574 f93c 72fe 97b9
00000250: bb18 b6bc 3b5f 0cbd 9c6d 2bbd b59a 1abd
00000260: 1a9f 14bc a0e9 c83c 5f11 c63c d3a9 30bd
00000270: f486 e43c cd56 0fbd 48e7 1abc 438c 94bc
00000280: ce21 0dbc fbdc 0fbc 1a60 24bd d629 1ebd
00000290: 454f e5bb 0f9c 173a 4e6d a6bc ad01 8a3c
000002a0: 1cdf 24bd accb 45bb 4617 213d 2b6f 95bc
000002b0: 3369 253d 7ead 843c c64f 25bd 19cb e73c
000002c0: 3c1a a9bb 618b a3bc bd7a 123d 9d06 14bd
000002d0: 713f 9d3b 5568 19bc 6bcf 023d 8888 4c3c
000002e0: 6409 b03c e461 813c 0a33 30bc 0b18 1abc
000002f0: 44f4 16bd 3482 c63c 9b70 113d bbab fa3c
00000300: d535 01bd 4cb7 023b 0021 01bd 88ac c9bc
00000310: 7d7a d5bc d166 7a3c 3451 dabc ccc5 7fba
00000320: 6c97 f63a 9429 ec3c ec77 0abd 4382 fbbc
00000330: caba d4bc 8036 003d 52b1 83bc 5882 1a3d
00000340: 447a 843c bf8f b93b 028a aeb9 1dd8 10bc
00000350: b2dc b73b c04f 27bc 77bf a4b9 86fa ba3b
00000360: 8748 0fbd f904 c0bc 5cea 133d 77a8 14bd
00000370: 2f74 52bb 1c35 353d 8457 843c 8cf6 a53a
00000380: 96be 1ebd 407c b53c 8379 02bd d6fd 4fbc
00000390: 79d6 75bc fa02 d9bb fc3b 003a 5116 173d
000003a0: 48f1 b63b 6412 243d fa1a e03c c39d e7bc
000003b0: 1350 a43c 017d 01bd 7f45 9bbc 0f82 573c
000003c0: c7ef 713c 016d 093d 5ddf 6bbc 0b24 9638
000003d0: 039c bc3c 9326 31bd 456f 043d 7d79 17bd
000003e0: 0a94 213a c925 f9bb 56f3 c0bc f6af c13b
000003f0: 5179 173d d52f 56bc 1481 d9bc 427e 87bc
-0.0003348208 0.023990488 -0.036807697 -0.032912195 -0.017224628 0.011992362 -0.0008860724 0.035459097
-0.0039687543 0.0118338335 -0.01351538 -0.008790672 -0.042724486 -0.029618157 -0.018435178 0.0016566389
0.017679928 0.026833836 -0.030318448 -0.019474491 0.016243564 0.037136078 -0.009203664 0.03346552
-0.007208339 0.0047321506 0.04049413 -0.04148668 -0.028153794 -0.011321895 -0.017432384 0.038639292
-0.028987477 -0.020586712 -0.031244153 -0.04188428 -0.026105668 0.038442396 0.019955494 0.021675216
0.0023519662 -0.022927905 0.0075661694 -0.041756097 -0.032314148 -0.023055203 0.028216403 0.026221083
-0.019833703 -0.0016136535 0.028602025 0.044458985 0.017749112 0.0060415366 0.02998506 -0.026332041
0.008333558 -0.03467272 -0.030995756 -0.02310232 0.02023521 0.017985161 -0.026490811 0.013510641
0.024550775 -0.0056446125 0.0017075306 0.01036215 0.027744085 0.042941187 -0.034463335 -0.016389025
0.017575938 0.037053857 0.038916856 0.039460197 0.008900201 -0.03888892 0.00411403 -0.027977923
-0.041678257 0.03973459 0.034004323 -0.04461081 0.008370589 -0.007533761 -0.0073593985 -0.020471511
0.017197875 -0.026488619 0.016394464 0.022615954 0.03201475 0.016721815 -0.04426231 -0.029010609
0.022330048 0.009360242 -0.03488642 -0.025751432 0.04207159 0.030134052 -0.019499637 -0.011255686
-0.042601485 -0.00080382795 -0.03367782 -0.03449612 -0.0024641294 0.0067146914 -0.01831475 0.026536653
-0.027214697 0.040578827 0.030647542 -0.03771276 -0.011130446 0.002017945 0.006524895 0.010606756
0.017549926 0.002678817 -0.021820838 0.021161657 -0.042898916 -0.02650665 -0.0111950915 -0.021784373
-0.015645025 -0.0366546 -0.009512911 0.009559479 -0.029134436 -0.0022950717 0.032013822 -0.0045973673
0.0012429057 -0.0038580627 0.009050771 0.028435607 0.04236214 0.028400565 0.042459067 -0.0032343229
-0.04017416 -0.02120138 0.030451009 -0.0002899054 -0.02222859 -0.034270506 -0.04185258 -0.037745196
-0.009071136 0.024525464 0.024178205 -0.043130707 0.027896382 -0.03499489 -0.009454556 -0.018133288
-0.008614017 -0.008780713 -0.040130712 -0.038614117 -0.006997975 0.00057834474 -0.020315792 0.016846502
-0.040251836 -0.0030181212 0.039328836 -0.018241486 0.04038353 0.016196009 -0.04035928 0.028295087
-0.005160598 -0.019963922 0.035761584 -0.03613912 0.0047988226 -0.009363254 0.03193609 0.012483723
0.021488853 0.015793748 -0.010754356 -0.009405146 -0.036854044 0.024232008 0.03550778 0.030599466
-0.03154548 0.001994568 -0.031525612 -0.024618402 -0.026059384 0.015283302 -0.026650049 -0.0009756952
0.0018813438 0.02882842 -0.033805773 -0.030701762 -0.025967974 0.031301975 -0.016075764 0.03772196
0.016171582 0.005662888 -0.0003329069 -0.008840588 0.0056110257 -0.010211885 -0.0003142317 0.0057061343
-0.034981277 -0.023439871 0.036112174 -0.036293473 -0.0032112708 0.044240102 0.016155012 0.0012661978
-0.038755976 0.022153974 -0.031854164 -0.012694797 -0.015004748 -0.0066226693 0.0004891751 0.036886517
0.005582962 0.0400566 0.027356613 -0.028273469 0.020057714 -0.031613354 -0.018954037 0.013153567
0.01476664 0.03355122 -0.014396516 7.159271e-05 0.023023611 -0.043249678 0.032332677 -0.036981095
0.0006163722 -0.0076033813 -0.023553532 0.0059108688 0.03698093 -0.0130729275 -0.026550807 -0.016539697

fc.0.bias f4 [64]
00000000: c7a1 b1bc c5b5 363d 8317 1ebd b29c f1bc
00000010: d66a 993a 36e4 c03b cf97 06bc 6be7 2ebc
00000020: 3858 c6bc a1b7 0b3d 4030 2b3d 1bc4 9ebc
00000030: c0c8 493a 0ba1 20bd e649 193d 06cb c1bc
00000040: 7986 c3bc 50e3 bbbc 4313 3c3c a156 7d3c
00000050: 9a2b 13bd f9a9 3dbc 8dbe bb3c 5d22 d43b
00000060: 5cd0 22bd b64e c13c f160 133d fcfb 32bb
00000070: a059 403d ddd8 003d 165f 0ebd 03cc a0bc
00000080: 371d 283d 5e9a 7ebc d60c 1f3d 9f85 07bd
00000090: 390a 1d3d 8ad5 493c ab89 18bd 95a4 2abd
000000a0: 0d95 09bd 338e 243d 5b06 4a3c 0534 663c
000000b0: 9de2 5dbc 9738 26bd d9db 143d 6393 b5bc
000000c0: 31c1 c9bb 12d0 74bb 67d7 183d b9e4 963c
000000d0: 31e2 91bb c04c 1c3d 1eba 193d 857d a9bb
000000e0: 4dab 183d ddfd b2bc 26d8 1ebd c55f 1d3d
000000f0: 3e66 96ba 900f c5bb a0f7 eebc 61e7 95bc
-0.021683587 0.044606943 -0.03859664 -0.029493663 0.0011704813 0.00588658 -0.008214905 -0.0106752915
-0.024211988 0.03411067 0.04179406 -0.01938062 0.00076974556 -0.039216083 0.03742399 -0.02365638
-0.023867832 -0.02293554 0.011479202 0.0154625485 -0.035930254 -0.011576169 0.02291801 0.006473823
-0.03974949 0.023597103 0.035981122 -0.002731084 0.046960473 0.031456817 -0.03475865 -0.01962853
0.041043486 -0.015539734 0.0388306 -0.033086415 0.038339827 0.012318978 -0.037240665 -0.041660864
-0.03358941 0.040174674 0.012330617 0.014050488 -0.013542798 -0.040581312 0.036342476 -0.022165006
-0.0061570634 -0.0037355465 0.0373148 0.01841961 -0.004452013 0.038159132 0.03753101 -0.005172434
0.03727274 -0.021849567 -0.038780354 0.03842141 -0.0011474562 -0.006013818 -0.029170811 -0.018298807

fc.2.weight f4 [64]
00000000: 0000 803f 0000 803f 0000 803f 0000 803f
00000010: 0000 803f 0000 803f 0000 803f 0000 803f
00000020: 0000 803f 0000 803f 0000 803f 0000 803f
00000030: 0000 803f 0000 803f 0000 803f 0000 803f
00000040: 0000 803f 0000 803f 0000 803f 0000 803f
00000050: 0000 803f 0000 803f 0000 803f 0000 803f
00000060: 0000 803f 0000 803f 0000 803f 0000 803f
00000070: 0000 803f 0000 803f 0000 803f 0000 803f
00000080: 0000 803f 0000 803f 0000 803f 0000 803f
00000090: 0000 803f 0000 803f 0000 803f 0000 803f
000000a0: 0000 803f 0000 803f 0000 803f 0000 803f
000000b0: 0000 803f 0000 803f 0000 803f 0000 803f
000000c0: 0000 803f 0000 803f 0000 803f 0000 803f
000000d0: 0000 803f 0000 803f 0000 803f 0000 803f
000000e0: 0000 803f 0000 803f 0000 803f 0000 803f
000000f0: 0000 803f 0000 803f 0000 803f 0000 803f
1.0 1.0 1.0 1.0 1.0 1.0 1.0 1.0
1.0 1.0 1.0 1.0 1.0 1.0 1.0 1.0
1.0 1.0 1.0 1.0 1.0 1.0 1.0 1.0
1.0 1.0 1.0 1.0 1.0 1.0 1.0 1.0
1.0 1.0 1.0 1.0 1.0 1.0 1.0 1.0
1.0 1.0 1.0 1.0 1.0 1.0 1.0 1.0
1.0 1.0 1.0 1.0 1.0 1.0 1.0 1.0
1.0 1.0 1.0 1.0 1.0 1.0 1.0 1.0

fc.2.bias f4 [64]
00000000: 9a16 4ebc c264 953c 641d 91bc 45df 2f3c
00000010: 7ec6 993c 2c36 fc39 164c 8bbc 171e 65bc
00000020: fca0 8fbc e2f1 6e3c 4a32 813b 083f 3cbc
00000030: 1725 873c 8d14 32bc 7417 673c 1c59 b43b
00000040: f6d9 b53b 88f6 463c ca59 d338 8608 39bb
00000050: 601e e23b 62b9 8bbc f5d0 97bb afca 1ebc
00000060: 2228 f53b 6659 883c 1325 91bc c046 e0bb
00000070: 1975 5abc f11e 793c d93e 783b a926 6d3c
00000080: be53 46bc 2192 aa3b 4e08 e6bb 1356 39bc
00000090: 8ecb 773c 7eb6 81bc 90f4 793c 5400 83bc
000000a0: bff2 b53b 717a 5c3c b082 82bc 60a1 7bbc
000000b0: 8c13 33bb 4f20 21bc d2a8 6a3c 8bf1 183b
000000c0: f389 75bc 4462 8a3c 0699 f7bb a0a9 043c
000000d0: 1cc8 5ebc ae48 523c 8a5a 77bc b5ab 393c
000000e0: f79e 713c 2451 8d3c 0080 01bc 5ce8 783c
000000f0: af90 8a3c 14f2 363c b12d 21bc 1dfa 07bc
-0.012578631 0.018236522 -0.01771421 0.010734384 0.018771406 0.00048105547 -0.017004054 -0.013984225
-0.017532818 0.014584037 0.0039427625 -0.011489637 0.016497178 -0.0108691575 0.014104713 0.0055037867
0.0055496646 0.012143739 0.000100779886 -0.002823384 0.0069005936 -0.01705617 -0.004633064 -0.009691878
0.007481591 0.016644191 -0.017717874 -0.0068443716 -0.013333582 0.015205131 0.0037879257 0.014474549
-0.012104927 0.005205408 -0.007020033 -0.011312026 0.015124215 -0.01583409 0.015256062 -0.015991367
0.005552619 0.013456927 -0.015931457 -0.015358299 -0.0027324883 -0.009834363 0.014322476 0.002333733
-0.014986503 0.01689256 -0.0075560836 0.008097082 -0.0135975145 0.012834711 -0.01509727 0.011332442
0.014747373 0.017250605 -0.007904053 0.015192118 0.016914694 0.011166114 -0.009837554 -0.008299378

fc.2.running_mean f4 [64]
00000000: 0000 0000 0000 0000 0000 0000 319e 0447
00000010: 0000 0000 0000 0000 a083 7c46 79a1 a646
00000020: f340 fb46 0000 0000 5f9a 9646 0000 0000
00000030: 0000 0000 1630 a346 2315 8b43 e2fb 8046
00000040: 6fbf d746 0000 0000 0000 0000 0000 0000
00000050: 1064 6046 f2c8 b343 ff83 bc46 331c a745
00000060: 0000 0000 e5fd 1546 3caa a040 0000 0000
00000070: 233f 1047 56cb e646 b882 e046 b2b4 5246
00000080: a077 7845 7f88 5d46 0000 0000 b01f 7a46
00000090: 0a61 2247 0000 0000 0000 0000 0000 0000
000000a0: 0000 0000 0000 0000 0000 0000 0000 0000
000000b0: 0000 0000 1ee0 ee46 0000 0000 649b d046
000000c0: 0000 0000 0000 0000 7138 8d40 f0df 1746
000000d0: f010 7546 0000 0000 0000 0000 f72c 9a46
000000e0: 0000 0000 0000 0000 3144 dd46 0000 0000
000000f0: 6d8b 7446 066d 2e45 0000 0000 64aa 9546
0.0 0.0 0.0 33950.19 0.0 0.0 16160.906 21328.736
32160.475 0.0 19277.186 0.0 0.0 20888.043 278.16513 16509.941
27615.717 0.0 0.0 0.0 14361.016 359.5699 24129.998 5347.525
0.0 9599.474 5.0207806 0.0 36927.137 29541.668 28737.36 13485.174
3975.4766 14178.124 0.0 16007.922 41569.04 0.0 0.0 0.0
0.0 0.0 0.0 0.0 0.0 30576.059 0.0 26701.695
0.0 0.0 4.41314 9719.984 15684.234 0.0 0.0 19734.482
0.0 0.0 28322.096 0.0 15650.856 2790.814 0.0 19157.195

fc.2.running_var f4 [64]
00000000: 6f8d b83c 6f8d b83c 6f8d b83c 6f8d b83c
00000010: 6f8d b83c 6f8d b83c 6f8d b83c 6f8d b83c
00000020: 6f8d b83c 6f8d b83c 6f8d b83c 6f8d b83c
00000030: 6f8d b83c 6f8d b83c 6f8d b83c 6f8d b83c
00000040: 6f8d b83c 6f8d b83c 6f8d b83c 6f8d b83c
00000050: 6f8d b83c 6f8d b83c 6f8d b83c 6f8d b83c
00000060: 6f8d b83c 6f8d b83c 6f8d b83c 6f8d b83c
00000070: 6f8d b83c 6f8d b83c 6f8d b83c 6f8d b83c
00000080: 6f8d b83c 6f8d b83c 6f8d b83c 6f8d b83c
00000090: 6f8d b83c 6f8d b83c 6f8d b83c 6f8d b83c
000000a0: 6f8d b83c 6f8d b83c 6f8d b83c 6f8d b83c
000000b0: 6f8d b83c 6f8d b83c 6f8d b83c 6f8d b83c
000000c0: 6f8d b83c 6f8d b83c 6f8d b83c 6f8d b83c
000000d0: 6f8d b83c 6f8d b83c 6f8d b83c 6f8d b83c
000000e0: 6f8d b83c 6f8d b83c 6f8d b83c 6f8d b83c
000000f0: 6f8d b83c 6f8d b83c 6f8d b83c 6f8d b83c
0.022528378 0.022528378 0.022528378 0.022528378 0.022528378 0.022528378 0.022528378 0.022528378
0.022528378 0.022528378 0.022528378 0.022528378 0.022528378 0.022528378 0.022528378 0.022528378
0.022528378 0.022528378 0.022528378 0.022528378 0.022528378 0.022528378 0.022528378 0.022528378
0.022528378 0.022528378 0.022528378 0.022528378 0.022528378 0.022528378 0.022528378 0.022528378
0.022528378 0.022528378 0.022528378 0.022528378 0.022528378 0.022528378 0.022528378 0.022528378
0.022528378 0.022528378 0.022528378 0.022528378 0.022528378 0.022528378 0.022528378 0.022528378
0.022528378 0.022528378 0.022528378 0.022528378 0.022528378 0.022528378 0.022528378 0.022528378
0.022528378 0.022528378 0.022528378 0.022528378 0.022528378 0.022528378 0.022528378 0.022528378

fc.3.weight f4 [64, 64]
00000000: 6bb8 a4bd d7fc 8d3c 0954 f8bd d2bb 833d
00000010: b334 2f3d 4572 2fbc 42fc b7bd 4caf e9bd
00000020: c5af 5dbd bf3d b73d 05e0 bc3d 8c03 233d
00000030: 5fd4 23bd 3ab8 69bd 961c fb3c 6675 01be
00000040: c098 a03d 6e35 e03d 9e99 273d 99f5 d63d
00000050: 8eac c7bd 0c2c 31bd e16d 013d 102c 05bd
00000060: b63f ceba 8450 e63d d329 fbbd 654b 413d
00000070: f3aa f63c 9a21 563d 8f3d d6bd 2a88 a43d
00000080: 8668 cb3d 7656 c7bd ebd0 c2bd 978b 613d
00000090: 027b 603d 98bc 573d b32e 083d 2720 6dbd
000000a0: a227 ae3d 54df 273d 2601 bfbd 4ccc c8bd
000000b0: 8d07 c2bd 818d f03c 515e 0a3d cdd4 4ebc
000000c0: 71cf 503d f78d 8a3d 1c9e 1b3d 5a99 d7bd
000000d0: cfb9 1d3d 1430 173d aee8 31bc b570 f13d
000000e0: a329 ca3d 0a7b 563a ff85 dfbd 6870 0e3e
000000f0: c807 94bd 2cf5 023e b9c0 dbbc d2b3 f5bc
00000100: 5c04 933c d829 f83c ee1f a5bd 5e95 c53d
00000110: 015a 213d 4c15 c03d 1bf2 5abc be83 a33b
00000120: f85f d9bd 0a2d b8bd 49ca 44bd 2e88 b13c
00000130: e302 fa3d ac8a da3b 31a4 eb3d fe4c c4bd
00000140: ea05 89bb 91ab b63c fb0e 8bbd 319d 503d
00000150: 9273 303c 7ff7 c7bc a9a4 3abd 65e1 8d3d
00000160: 87fa e6bd d744 7f3d 20aa b33d 642d 12bd
00000170: 1341 703d ced5 74bd 8748 febd 6637 503d
00000180: c65f 8ebd e406 c63d 9e47 953d 558b 10bc
00000190: 117f 13bd ee5b 72bd 51d7 12bc ca95 ae3c
000001a0: e4da acbd 1f10 37bd 52cc 563d 1fa2 893b
000001b0: e867 f23d fd81 3ebd 93e1 0d3c e1ce 6fbd
000001c0: 4e6d 86bd cc14 ffbd 3542 44bd db07 663d
000001d0: f1d8 9c3d 50e7 d7bc d17e 473d d12e 273d
000001e0: 2cb0 1fbc 8037 c0bc a2a1 6cbd d57b d2bc
000001f0: a883 10bd bf5c ed3c 4992 0fbd 4b63 eabd
00000200: 0413 973d 15cd fb3d 3e1f cb3d 3476 1e3c
00000210: 0f45 863d 03f2 c8bd 4e51 ca3d be2b fbbd
00000220: e29f b5bd b623 47bd 559b 3a3d 999b dd3c
00000230: 13a5 093d 29ab 823d 2689 ba3d 65cd 20bd
00000240: eb39 f8bd c8ca ef3d 0185 f2bd ddd3 173c
00000250: d0a0 c1bd 6e2f bcbd e43b dcbd d0ec e23d
00000260: 5391 d5bd ee6c d83d b1e6 b6bd 1c86 9ebd
00000270: 5fac f03d 2fae a3bc f237 38bd 714a dcbc
00000280: 1d04 d8bd 3bee c93c 17a3 3dbd a74f 853d
00000290: dd7c c43d 149a 5bbd f20d e83d 3a90 61ba
000002a0: 3db4 883b 90d1 dabd 5f7a e63b 1ad2 9ebb
000002b0: 6df3 9bbd 5412 c5bc 60ba 31bd 7707 a9bd
000002c0: 07e2 65bd ef96 763b b851 eebd f8a2 a6bd
000002d0: db65 7ebd 3332 cabd 33f9 e73c 656b 6bbd
000002e0: 98bb 513c c3f6 11bd b51c 4fbc a994 ad3d
000002f0: fcde 8fbc f22c fd3d ea49 fbbd 7b1a cbbd
00000300: 825f 5ebb d4a0 3dbc a160 cfbd 80f3 f4bd
00000310: 3a15 babb 685d dc3d e88c 933c 472c 95bd
00000320: d90a dd3d 7ec5 3fbd 5b28 5d3b 59d6 6dbd
00000330: 4fc4 8dbb 3010 c7bc d9fa babd 5190 9ebc
00000340: 9037 803d b90f 6bbd ef04 033c a4de cd3d
00000350: 805a a9bd 363c 9abd c359 94bd bbd0 293d
00000360: 4ecf 803b b0b5 193d ea02 ccbd e017 843d
00000370: 4541 b5bd 7ef8 ed3c 3a40 a8bb e037 a5bd
00000380: 68fa a23d 273e 2e3d 5c17 d73d fba7 fbbd
00000390: 93ad b23d 63ef c33c a272 58bd 60b6 cc3d
000003a0: 0549 f83d 4fa4 6fbd d035 7cbd 166b 9c3b
000003b0: fe8b 873d 5420 dd3d c631 623d 8653 fa3d
000003c0: 4946 47bc 8c5f e03d 6a20 abbd 4a97 2fbc
000003d0: 918b a63d b05b 743d 3b5a d9bd 851f 903a
000003e0: 9c43 a53d 1ed9 b13d a350 bcbd 1614 29bd
000003f0: a52a bbbd 6320 a8bd 182e 27bd e391 fcbd
-0.080429874 0.017332477 -0.121254034 0.06432308 0.042774867 -0.010708396 -0.08983661 -0.11410388
-0.054122705 0.08947324 0.09222416 0.039798304 -0.039997455 -0.057060458 0.03065328 -0.1264244
0.07841635 0.10947691 0.040917985 0.10496063 -0.09749709 -0.043254897 0.03159893 -0.032512724
-0.001573554 0.11245826 -0.12263837 0.047191042 0.030110812 0.05227814 -0.1046096 0.08033784
0.09932046 -0.09733288 -0.09512504 0.055064764 0.05480481 0.05267009 0.03324766 -0.05789199
0.08503653 0.040984467 -0.09326391 -0.098045915 -0.094740964 0.02936435 0.033781353 -0.012623978
0.05097908 0.06765359 0.03799258 -0.10527296 0.03850728 0.036911085 -0.010858698 0.11789075
0.09871223 0.00081817864 -0.109142296 0.13910067 -0.07228047 0.12788838 -0.026825296 -0.029992972
0.017946415 0.03029339 -0.08062731 0.0964763 0.039392475 0.09379062 -0.0133633865 0.00499007
-0.10614008 -0.089929655 -0.048044477 0.02167138 0.12207582 0.006669363 0.115059264 -0.095849976
-0.004181613 0.022298606 -0.06789967 0.05093116 0.010769742 -0.024410008 -0.04556719 0.06927756
-0.11278253 0.06232151 0.08772683 -0.03568782 0.05865581 -0.059774213 -0.12416177 0.050834082
-0.06951861 0.09669283 0.072890505 -0.008822282 -0.03600985 -0.059169702 -0.008962468 0.02131166
-0.084401876 -0.04469311 0.05244095 0.0042002345 0.11836225 -0.046510685 0.008659738 -0.058546904
-0.06563817 -0.124551386 -0.047914702 0.056159835 0.07658566 -0.026355416 0.048704926 0.040816132
-0.0097465925 -0.023463964 -0.057771333 -0.025693813 -0.035281807 0.028974889 -0.035051618 -0.1144472
0.07376674 0.12294976 0.09918068 0.0096717365 0.06556141 -0.09811785 0.09878789 -0.122642025
-0.08868386 -0.04861804 0.045558292 0.027051734 0.033604693 0.063803025 0.0910819 -0.03925838
-0.12120422 0.11708599 -0.11841775 0.009266821 -0.09454501 -0.09188734 -0.10753611 0.11080325
-0.10428109 0.10567652 -0.0893072 -0.07740423 0.11751627 -0.019980518 -0.04497523 -0.026890965
-0.105476595 0.02464973 -0.046298113 0.06509333 0.09594128 -0.053613737 0.11330785 -0.000860456
0.0041718767 -0.10684502 0.0070336307 -0.0048468234 -0.07614789 -0.024056591 -0.04339063 -0.08253377
-0.05612376 0.0037626585 -0.1163668 -0.081365526 -0.062108856 -0.09872856 0.02831707 -0.057475466
0.0128010735 -0.03563572 -0.012641122 0.0847562 -0.017562382 0.12362088 -0.12269957 -0.0991716
-0.0033931439 -0.011573989 -0.101258524 -0.119605064 -0.0056788 0.10760003 0.018011525 -0.07283836
0.10793085 -0.046819203 0.0033745978 -0.058065746 -0.0043263803 -0.024299711 -0.09129877 -0.019355925
0.06260598 -0.05738804 0.007996782 0.10052231 -0.08269215 -0.075310156 -0.07243683 0.041458827
0.0039309626 0.037526786 -0.09961493 0.06449866 -0.0885034 0.029049154 -0.0051346095 -0.08067298
0.079579175 0.04253974 0.10502502 -0.12287899 0.08724513 0.02391786 -0.052843697 0.09995723
0.12123302 -0.058506306 -0.061574757 0.004773508 0.06618498 0.10797182 0.05522325 0.12222962
-0.012162753 0.10955724 -0.08355792 -0.0107172225 0.08132089 0.059657753 -0.10612913 0.0010995722
0.08069536 0.0868399 -0.09195068 -0.04127892 -0.09138993 -0.08209302 -0.040815443 -0.12332513

fc.3.bias f4 [64]
00000000: 111c 273d 4367 9abd d7b8 683c 9bc3 1b3c
00000010: 7db1 36bd 0e30 f0bd 9c92 fa3d c0a9 de3d
00000020: 4e3e 81bd 0ae4 9ebd c373 d63c 7002 87bc
00000030: a07d 88bd df67 9d3c c95f 8abc 567e bb3d
00000040: f531 043d 8abd c03d 42bc 903d d2a1 69bc
00000050: 6687 733d 0ca2 76bd b2e1 df3d 17fe 46bc
00000060: 0390 dd3d c939 233d f253 103d 4610 b6bc
00000070: b5c4 81bd 86fa 99bd 59a0 95bd 8df1 a5bd
00000080: dac8 f03d 1c1c 8fbd 3f90 b4bd 1f31 1abd
00000090: 43e7 8b3d 88bc 67bd 8a1b c2bc 5107 f1bd
000000a0: 0285 abbd eac5 ce3b e6d0 003d 58ca 19bc
000000b0: 44c5 0dbd 09ee 85bb 3915 c2bd 7c9b 8b3d
000000c0: d4e1 54bd 88ea a2bd a28c bebc a065 763d
000000d0: 03bb 6abd e001 dbbd bc3b 1f3d cb2a 283d
000000e0: 2589 ddbd 7b1e d03d 259b 9dbd 5bce d5bd
000000f0: 8e63 5639 0d64 acbd f1be 2c3d 4b8f 5fbd
0.04079825 -0.07539227 0.0142042255 0.009507085 -0.04460286 -0.11727916 0.12234995 0.10872221
-0.06310712 -0.07758339 0.026178246 -0.016480654 -0.06664586 0.019214569 -0.016891377 0.09154956
0.032274205 0.09411152 0.07067157 -0.014259772 0.059455298 -0.060213134 0.1093172 -0.012145541
0.10818484 0.03985003 0.035236306 -0.022224557 -0.06336347 -0.07518487 -0.073059745 -0.08102713
0.117570594 -0.06987783 -0.08816575 -0.0376445 0.06831219 -0.05657628 -0.023694772 -0.117689736
-0.083749786 0.0063102143 0.03144922 -0.009386621 -0.034611955 -0.004087214 -0.09476704 0.06816766
-0.05197318 -0.079548895 -0.023260418 0.06015551 -0.057307255 -0.10693717 0.038875327 0.041056436
-0.10817174 0.10162064 -0.07695607 -0.1043975 0.00020445717 -0.08417521 0.042174283 -0.054580014

placing_layer.0.weight f4 [5, 64]
00000000: b654 fb3d f2a8 b2bd b410 ff3d 662e e5bd
00000010: 641f 353d bc00 ac3d b067 283d 28c2 983c
00000020: f8c8 f03c 903b b23c eca4 dc3d 4c06 9bbd
00000030: 9661 9dbd 6068 89bd 6808 e8bd 80c3 9fba
00000040: 302f a9bc 8c9c a5bd 68f8 9cbd a0f3 64bd
00000050: 3048 773d 4048 733b d678 84bd bc92 013d
00000060: 1808 adbd f475 063d 6cdf 0dbd 8471 403d
00000070: 2c7e 383d 40df 3e3b aa3a b6bd 5690 d43d
00000080: f8bb 163d e02a 883c 889e 9e3d a002 683c
00000090: 80e4 2c3c 8a19 fa3d e05d b5bd 2c4f 5f3d
000000a0: 60c2 8fbb 28c7 fd3d 00f0 e139 5e90 9dbd
000000b0: acd4 2e3d fc7f f5bd f05c e1bd 58aa abbc
000000c0: 74dc 5abd b0e5 c13c eceb 14bd 9239 fcbd
000000d0: 88ad ea3d c0a0 3a3b 881c 8a3d aedc dcbd
000000e0: 305c d5bc 90cb c03c 209e ae3d c81f 6b3d
000000f0: c0e9 e33d e6e6 c13d 08a9 a3bd 80d4 753b
00000100: 58bd 9cbd a8df 843c 87d5 d33d fd8f ccbd
00000110: 32b8 11bd b8bc 963d b005 3cbc 9778 00be
00000120: f2fc 79bd 091e b5bd 27a9 dfbd afef 77bc
00000130: 4fcd 27bd e5dc d6bd f7ab 05be 9583 6a3b
00000140: 710e febb f188 babd c8ce c03d c0da 483d
00000150: 2e0b 31bd 4237 3c3d edc2 833d 7d41 cd3d
00000160: 3c7e a53d f038 963d 2c95 aa3d 20f2 033d
00000170: d78e b33d 901d 863d f902 0e3d 9b6b b0bd
00000180: f95d de3d 6dfa d4bd 5a6e 91bd 998f f8bc
00000190: 39ce e53a 01c6 01bd 2146 5d3c 3ec2 0bbd
000001a0: f92c 9fbc 4902 c43d 9fc2 c3bd b52a 923d
000001b0: ff08 653d 7d00 81bd 1b2f e6bc 1412 6bbd
000001c0: 3174 5fba edf5 b9bd 689d 25bd e9c2 6e3d
000001d0: 5f69 aabd e443 e13d ad27 0b3d 2a46 15bd
000001e0: 28e6 02be 783f 1f3d 507d 37bd 387b 9bbd
000001f0: d57c 81bd ae79 a23d ab12 e43d e88d 2cbb
00000200: 980c c33d 28e8 bbbc f2cc d7bd e890 00bd
00000210: ded0 f93d 707f d8bd e06f 4a3c 9698 d0bd
00000220: da03 e6bd 0092 ef3c e8ff 883d 191d ba3d
00000230: 598a 89bd 789f 55bd 489d d7bd e021 e93b
00000240: d0da 863d e264 f83b 2156 a83d d8d7 de3d
00000250: 682b c6bc 44f6 53bd 499c c73d a772 803c
00000260: b3ed 51bd b178 6bbd 3bdf a83d a508 1fbd
00000270: fe57 b0bd aedb fe3d 106f 3a3d 00c1 b3bd
00000280: 5caf 3cbb acd4 45bd 24ab 843d c897 97bd
00000290: 7193 363d e07e f3bd 70da 07bc c090 883b
000002a0: aa6a 83bd 7729 693d b838 e8bd 686a f5bd
000002b0: dc2e a23d 45ed 6fbd 10f7 9f3d 7294 ddbd
000002c0: c8c0 673d 6041 803c 9040 423d ca10 91bd
000002d0: 32f2 df3d 8899 e33d 314d 803d 74fe 443d
000002e0: c4bd f9bd b041 e53c 369f c4bd 6086 9f3c
000002f0: afe0 72bd 9828 493d 2e5b 55bd 6002 663c
00000300: d457 f63d 34be 673d 94ca 423d e8f6 fc3c
00000310: 4456 cbbd c816 bebc b0df 193c a8df 8dbc
00000320: fcd3 553d 8490 743d 1461 22bd ea12 913d
00000330: 408c 1cbc a2ae a8bd e049 6b3d b235 a1bd
00000340: 7843 ef3c 782f 953c a4c7 723d a47f 00bd
00000350: 0010 3f3d 20f5 f3bd 163f bcbd 0c87 c5bd
00000360: 28f0 5ebd f803 53bd a07a 8dbb 3c25 333d
00000370: 0c1e ea3d dc1c 12bd 6010 95bb 18d4 c13d
00000380: 6e5c c03d e0f5 b53b f048 c5bc 86c6 923d
00000390: dc50 13bd ccbd f9bd a2ac 91bd c417 083d
000003a0: ae2a de3d b47d 4a3d 1002 adbc 2016 913d
000003b0: 60b4 a93c 6877 d9bd 80d3 123c 4432 a1bd
000003c0: 581c c23d 2083 b43d 1805 79bd 80e4 1c3d
000003d0: e498 113d c810 f2bc e02b 3ebc 40de 69bb
000003e0: a0ea 6c3d c851 e13d 90dc eabd 44a0 dc3d
000003f0: f488 84bd e0c8 3abc 50d0 c3bc 3013 22bc
0.12272017 -0.0872363 0.12454358 -0.111904904 0.04421939 0.083985776 0.04111451 0.018647268
0.029392704 0.021756917 0.10773644 -0.075695604 -0.07684629 -0.06709361 -0.11329728 -0.0012189001
-0.020652384 -0.080864996 -0.07664567 -0.0558964 0.060371578 0.0037121922 -0.0646836 0.031634077
-0.084488094 0.032827333 -0.0346369 0.046983257 0.045042202 0.0029124767 -0.08897908 0.103790924
0.036800355 0.016622007 0.07745081 0.014160782 0.0105525255 0.122119024 -0.08855796 0.054518864
-0.004387185 0.12391502 0.00043094158 -0.076935515 0.04268329 -0.11987302 -0.110040545 -0.02095525
-0.053432897 0.023669094 -0.036357805 -0.12315668 0.1145888 0.0028477162 0.06743723 -0.10784279
-0.026044935 0.023534566 0.08526254 0.057403356 0.11128569 0.094678685 -0.079912245 0.0037510693
-0.07653302 0.016219929 0.103434615 -0.09988401 -0.035576053 0.07360214 -0.011475965 -0.12546001
-0.061032243 -0.088436194 -0.10920935 -0.015132829 -0.040967282 -0.10491351 -0.1305388 0.0035783995
-0.0077531864 -0.09108151 0.094144404 0.04903674 -0.043223552 0.045951135 0.064336635 0.100222565
0.08080718 0.07335079 0.083292335 0.03221333 0.08767479 0.06548607 0.034670804 -0.08614274
0.108577676 -0.103993274 -0.07101126 -0.03034191 0.0017532773 -0.031682972 0.01350549 -0.03412079
-0.019430624 0.09570748 -0.095586054 0.07137052 0.055916782 -0.06298921 -0.028098634 -0.057390288
-0.0008524089 -0.0908011 -0.040433317 0.05829135 -0.08320879 0.10999277 0.033973385 -0.036443867
-0.1278311 0.038878888 -0.04479724 -0.075918615 -0.06322638 0.07933365 0.11136373 -0.00263297
0.095238864 -0.02293785 -0.10537137 -0.031388193 0.121980414 -0.10571182 0.012355775 -0.101853535
-0.112312034 0.029244423 0.06689435 0.09087581 -0.06715841 -0.052154034 -0.10528046 0.007114634
0.06584704 0.0075803855 0.08219553 0.10881013 -0.02419062 -0.05174853 0.09746606 0.01567967
-0.05125208 -0.057488147 0.08245703 -0.038826603 -0.08610533 0.12444244 0.045516074 -0.08777046
-0.0028791046 -0.048298523 0.06477955 -0.07401997 0.044574205 -0.11889434 -0.008291826 0.004167646
-0.06416829 0.05692431 -0.11338943 -0.11983186 0.07919094 -0.058575887 0.07810795 -0.10819329
0.056580335 0.015656173 0.047424853 -0.070832804 0.10934867 0.11113268 0.06264723 0.048094228
-0.12194398 0.027985424 -0.096006796 0.019473255 -0.059296306 0.04911098 -0.05208891 0.014038652
0.12028471 0.056577876 0.047556475 0.030879453 -0.09928563 -0.023204222 0.00939171 -0.017318562
0.052204117 0.059708133 -0.039643362 0.07083686 -0.009554923 -0.082364336 0.0574435 -0.0787157
0.029206976 0.018211111 0.059272423 -0.031371728 0.04664612 -0.11911988 -0.0919172 -0.09644899
-0.05442825 -0.051517457 -0.0043175966 0.04373668 0.11431512 -0.035672054 -0.004549071 0.09464282
0.093926296 0.005552992 -0.02408263 0.071667716 -0.035965785 -0.12194404 -0.07113005 0.03322579
0.10847984 0.049436286 -0.021119148 0.07084298 0.020715892 -0.10618478 0.008961558 -0.078709155
0.094780624 0.088140726 -0.060795873 0.038303852 0.0355462 -0.029549018 -0.01160714 -0.003568545
0.057840943 0.11001927 -0.1146785 0.10772756 -0.06471434 -0.011400431 -0.023903042 -0.00989227

placing_layer.0.bias f4 [5]
00000000: ec2c 39bd 05b3 90bc d4d0 22bd b643 8fbd
00000010: 4e87 073d
-0.045208856 -0.017663488 -0.039749935 -0.06995337 0.03308802

placing_layer.1.weight f4 [5, 64]
00000000: 44aa bf3d f079 3b3d 425d b83a 9710 103c
00000010: 6f4f e9bd 10da b4bd 7dbd f53d d217 56ba
00000020: a9ed acbd 5c4f 73bd 7392 83bd 7864 e3bc
00000030: 941e 93bd cf6f c83d aafa efbd aaba 843d
00000040: 48b6 5dbc e506 e2bd 22b2 a93d 4bdb 1e3d
00000050: 6a79 d7bd d171 c33c 34bd e5bd 1fe6 ab3d
00000060: acdb 683d b4fd 02bc b36e ac3d 65cf a43d
00000070: afa0 853c 9464 4bbd 7a85 c33d aa51 ffbd
00000080: 3b50 a6bd 3cab 72bd c40c 59bd 1813 a63d
00000090: 72fb e8bd c684 d3bd 60f3 bdbd f333 6c3d
000000a0: 00af 9b3c 8df3 87bd 25d8 f8bc 353a 8fbd
000000b0: 7be9 ddbd 766a 88bd 9c8e 68bd 6e10 aabd
000000c0: b478 cb3d b404 8fbd 34c9 60bd c9ab 9dbd
000000d0: 1b45 6f3d 2823 afbd 90f0 65bc 1181 933d
000000e0: 5020 10bc 43bc c8bc fd9a 7fbd 1479 39bd
000000f0: 08be d03d 501a 22bd 8111 913d 320a bdbd
00000100: 4b60 cc3d 8a51 f43d aa06 3e3d ce32 df3b
00000110: 1830 403d 0027 d0bc 78f6 e93d 3b45 f5bd
00000120: 9dc3 8c3d 551a fabd 45b7 9d3c ec3e 96bd
00000130: c06d 55bc 918b a8bd 1ee1 b3bd db55 a1bd
00000140: 307d e3bd 1f9c fabd b93e cdbd 8259 fc3c
00000150: f116 ee3c 38f4 823d 5d43 a83c c86d febd
00000160: e403 fcbd 48b8 1fbd 58ed f3bd f20a 36bd
00000170: d48d e5bd cee6 97bd 2b90 6cbc 807d cabd
00000180: 0c39 9b3d 29cd e53d d4cd 313d c66a eebc
00000190: 0248 c3bd a8fb 733c 3cc3 54bd 0064 5fbd
000001a0: c06d b23c c477 adbd 9dc0 df3d f5f5 ee3d
000001b0: 8e69 eb3d 747a 4cbd ba67 e93d 7920 c83d
000001c0: c269 d53d f057 533c 59ce 873d 22f0 c5bd
000001d0: fca0 96bd 6ae5 a43d f09d e9ba c5a2 aebd
000001e0: 8831 8ebd 1bcb 813d b2c2 e3bd 9eac a83d
000001f0: 47c7 ad3d cadc ba3d bd3b cbbc ecb2 313a
00000200: 4df2 e4bc c0bb f1bb 03ba 993d 1ca3 a5bc
00000210: 956c 843d b0c5 9b3d 7e50 563c ddb4 dfbd
00000220: c9a5 0abd 1a7a 4bbb efdd 653d c678 333d
00000230: 6a4e abbd d6b1 773d 0274 04be d755 d3bb
00000240: 0549 023d 59f5 49bd 4d6f 31bc 431c 10bd
00000250: eeaf adbd 889b d3bd 7bc1 e1bd 4947 3a3d
00000260: 4675 67bd ffef f3bd c6f4 b73d 810e f43c
00000270: a710 863c 878a 1abd c218 9b3d eff9 ee3d
00000280: c3e1 8c3d f052 773d 166a c6bd 4d1c eebd
00000290: b0dc a1bd 8d21 0ebd 4b2b 94bc e8d7 bc3d
000002a0: 96b6 d0bd 397d 78bd ea4a 01be 8c6d f4bd
000002b0: 158e b03d 0b64 b0bd 2b32 cebd 56d0 0bbd
000002c0: a338 02be 4259 0fbd 17be 18bb 3912 db3d
000002d0: 5e46 edbd 6cf5 b3bc 2bc9 8dbb cb35 b8bd
000002e0: 9c9e bd3d 6f10 00be 0943 ed3d d7c5 203d
000002f0: 1b45 e0bd c143 453d 2ef7 f9bd b388 a53d
00000300: 6050 7ebd ecd7 583d 06e2 cabd a490 a63d
00000310: 6c70 f2bd 54c9 4f3d 8033 7c3b 86c0 94bd
00000320: c0b2 343d 7803 b53d 1cec c43d e054 eebc
00000330: dcdb 65bd b609 b63d d87a ecbd c46b 6cbd
00000340: f84a 66bd 4c22 663d 409d a9bb 509c cebc
00000350: 0000 cb39 ea44 f93d 4ce6 d3bd f0a2 77bd
00000360: 5042 433c 709c 78bc 148e b4bd bccf 733d
00000370: 2cf4 a03d 1caf 4cbd 5615 d63d 88c3 f8bd
00000380: 00dd 7dba 4023 58bc b48c 28bd e459 4b3d
00000390: 5273 e6bd ca8f 86bd 50c6 143d aa6e 95bd
000003a0: 527d 853d 20b7 f4bd fe66 853d f4d8 3e3d
000003b0: 6cef 903d 94cd 95bd 0a53 f1bd 2892 b43d
000003c0: 2039 dbbd f8ab 16bd 4892 46bd 0ebe dcbd
000003d0: 2e4a b13d bc3e fabd e8c6 6b3d 60e9 9bbc
000003e0: 00e4 853d ea3e f7bd 0046 9bbd 7e4e b2bd
000003f0: b45e 33bd e467 5ebd 7290 cb3d 76ee 8b3d
0.093586475 0.045770586 0.0014065879 0.008793018 -0.11392104 -0.088306546 0.11999033 -0.00081670017
-0.084437676 -0.059401855 -0.06424417 -0.027757868 -0.07183567 0.09786951 -0.11717732 0.06480916
-0.013532229 -0.11036471 0.08285929 0.038783353 -0.10521205 0.023857983 -0.11217728 0.083935015
0.05685012 -0.007995058 0.08419552 0.0804737 0.016311971 -0.049656466 0.09546943 -0.12466748
-0.081207715 -0.059245333 -0.05299069 0.081091106 -0.113760844 -0.10328059 -0.09274936 0.05766673
0.019004345 -0.066382505 -0.030376503 -0.06993524 -0.108355485 -0.06660931 -0.056776628 -0.08303915
0.09935132 -0.06983319 -0.054879382 -0.07698781 0.058415513 -0.085516274 -0.014034405 0.07202352
-0.008796766 -0.024503833 -0.062403668 -0.045281485 0.101924956 -0.039575875 0.07083417 -0.0923046
0.09979304 0.11929615 0.046393074 0.0068114763 0.046920866 -0.025409222 0.11423963 -0.11976095
0.06873248 -0.12212054 0.019252429 -0.0733622 -0.013026655 -0.08229745 -0.08783172 -0.07877704
-0.11107862 -0.12236809 -0.10021729 0.0308044 0.029063674 0.06394237 0.020539934 -0.12423283
-0.123054296 -0.038994104 -0.11910504 -0.044444032 -0.11208692 -0.074170694 -0.014438669 -0.098872185
0.0757924 0.11220772 0.043409184 -0.029103648 -0.09535219 0.0148915425 -0.051944003 -0.054538727
0.021780849 -0.08470109 0.1092541 0.11668006 0.11494742 -0.049921468 0.113967374 0.09771819
0.10420562 0.012899384 0.066311546 -0.09664942 -0.07354924 0.0805157 -0.0017823558 -0.085271396
-0.06943041 0.063375674 -0.111211196 0.08236049 0.08485275 0.091241434 -0.024808759 0.00067786756
-0.02794757 -0.007377118 0.07506182 -0.020219378 0.06466023 0.07606065 0.013080714 -0.10923169
-0.03384951 -0.003104812 0.056119855 0.04381635 -0.08364566 0.060472332 -0.12934878 -0.006449442
0.031807918 -0.049306247 -0.010829759 -0.035183202 -0.084808215 -0.103323996 -0.110232316 0.04547814
-0.056508325 -0.1191101 0.08982234 0.029792072 0.016365362 -0.037729766 0.075730816 0.11668765
0.06878998 0.06038183 -0.09688203 -0.11626492 -0.07903421 -0.034699965 -0.01808705 0.09220868
-0.101910755 -0.060666297 -0.12626234 -0.11934957 0.0862085 -0.08612832 -0.100681625 -0.03413423
-0.12716918 -0.034997232 -0.0023306662 0.10696835 -0.11585687 -0.021967612 -0.0043269596 -0.08994635
0.09258768 -0.12506269 0.115850516 0.039251175 -0.10950681 0.04816032 -0.12205349 0.08082714
-0.06208837 0.052940294 -0.09906392 0.08133057 -0.11837849 0.05072911 0.0038482845 -0.072632834
0.04411578 0.08838552 0.09615347 -0.029093206 -0.056117877 0.08888571 -0.11546868 -0.05771996
-0.05622384 0.05618505 -0.0051762164 -0.02522102 0.00038719177 0.121713474 -0.1034666 -0.060458124
0.011917666 -0.015174016 -0.08816162 0.059524283 0.07859072 -0.049971685 0.10453288 -0.121466696
-0.00096841156 -0.013191998 -0.04114981 0.049646273 -0.11252464 -0.06570394 0.036321938 -0.07296498
0.065180436 -0.11948991 0.06513785 0.04659362 0.07076916 -0.073146015 -0.117834166 0.088169396
-0.10704255 -0.036785096 -0.04847935 -0.107784376 0.08656727 -0.12218997 0.05756274 -0.01903218
0.06537628 -0.12072547 -0.07581711 -0.087063774 -0.043791488 -0.054298297 0.0993966 0.06832592

placing_layer.1.bias f4 [5]
00000000: 7c43 483a 8a47 07bc 493d 4f3d 0097 e6bd
00000010: 1e62 f1bd
0.00076394505 -0.008256802 0.050595555 -0.1125927 -0.117862925

placing_layer.2.weight f4 [5, 64]
00000000: 9e26 ba3d e421 6e3d 9c15 61bd 7431 2fbd
00000010: ac95 183d f892 57bd 881e b73d 5029 923c
00000020: 5490 4f3d 1e5b b43d 10c7 3dbc 14fe ff3d
00000030: 60b2 c3bc 9ee8 d8bd a6fa eb3d e886 1bbd
00000040: 28fb 8abc dacb e83d d04a 3fbc 2207 ebbd
00000050: 3c87 62bd 7401 333d 60df 54bd 6094 2f3d
00000060: e416 67bd b4e6 b8bd 9c1d 7ebd 28ae 91bd
00000070: 78dd 61bd e4c9 06bd 488c 653d 40fc d63c
00000080: ae50 98bd 585b 3f3d 0881 4bbd 82a9 bfbd
00000090: eadb 9bbd 2a4e debd 4c45 683d 6405 c5bd
000000a0: c2fa 87bd 18c6 193d b017 84bd 34ce 80bd
000000b0: 5618 d5bd e4a5 4f3d 6c60 95bd d251 dd3d
000000c0: d03c 47bc 4806 5e3d 3c7d 5abd 8a71 c0bd
000000d0: e249 923d 3cf7 1dbd a873 f83d fe63 a63d
000000e0: b0c1 053d d858 ccbc 94ee 84bd 481c aa3c
000000f0: f2ee d43d aa10 c3bd 861c ec3d 70a4 3bbc
00000100: 74bd b33d 2411 30bb 59db edbc 2852 8fbc
00000110: d0ab ac3d 9901 d63d b878 ee3d 7a7c dabd
00000120: f4e0 dabd 9c85 133c cd66 bcbd 1070 313d
00000130: aa9c 3a3d 403c c63d 2e48 4b3d fece 783d
00000140: dc35 d2bd 9705 e83d b2a5 083d 3bc3 f2bc
00000150: 420e 253d c456 863d 7680 9bbd cbb9 203d
00000160: b3a1 53bd 8873 6fbd 3d6e a23d 77b7 c13d
00000170: 52f2 cf3c fab6 b73c dc02 0b3d d89a 90bd
00000180: 2f1b 4b3d c874 183d e0f9 f73c 857a b03d
00000190: ad2e ecbd 90bd 1ebd 63d6 603d 34a1 89bd
000001a0: 68fd 66bd b38e e6bd 2b35 763d 5982 bb3d
000001b0: c999 653d 4296 9a3d 9884 4fbd 8d2b c23d
000001c0: 2bf6 e3bd 4d71 1dbc 3598 593d d387 ee3d
000001d0: d86e 4d3d 5c5b 763d 6508 843d 189f d7bd
000001e0: 0283 a5bd fc48 913d 54a3 fa3d e0e3 2cbd
000001f0: 28c1 d53d 0440 e53d b424 803d 5250 9fbd
00000200: 1c49 a83d 0294 0b3b 3606 72bd b859 d1bd
00000210: 76fc eb3c f55f d93d 3959 a6bd 5486 a0bd
00000220: 0918 983d 91fd c13d 80ce 89bd 0a7e 7e3a
00000230: 0b00 ffbd 6e5b 19bd ec7e d53d c1cc 5c3c
00000240: 44ca 873d 89d2 563d e431 57bc 8f7a 143d
00000250: dc28 183d bdb6 febd 23c1 013d 2729 ad3d
00000260: 662e 35bd 0ddd 233d 872f c8bd 0b1c d83c
00000270: b221 edbd f932 d8bd f5ea c63b 894d 953d
00000280: bea2 9b3c 906f d0bd ce1f fcbd c619 863d
00000290: 7f7f e03c 0d9c d93a 1b19 02be 531d de3c
000002a0: 7413 943d bcb6 873d 31af 563c 241e d9bd
000002b0: bdf3 9d3d d52e a73d 86f7 59bd d9a2 7d3c
000002c0: 901b efbd dd7b c23d 632b 3e3d 9cee c0bd
000002d0: 51c7 65bc a90b bf3d 0ca4 a93c 8846 c63c
000002e0: eeab 063d 2da9 203d 5aa3 c0bd 35f7 5f3c
000002f0: 39e5 e9bd 6b6f e8bc 855a d8bd 0f5b 84bd
00000300: 137b f13d 5091 d43c 83dc d43d d6dc f03d
00000310: 74cc 8e3d d5d8 dc3d 3226 85bc 8f6b adbd
00000320: 6c98 aa3c 7ce8 77bd 8f3c 303d 8f08 343d
00000330: c8fa 25bd 6584 fe3c 8a8d a63d 5091 b6bc
00000340: 953d a73d 5684 dbbc f3b9 843d 7520 8f3d
00000350: 93a7 f7bd c63b 95bd bf44 cfbd 6dc2 563d
00000360: f068 d73d 9b7c 02bd e648 d7bd 4ee3 f53d
00000370: 7828 c8bc b90d aebb 18c0 513d 7807 1e3d
00000380: d5fc 723d a6f7 e0bd a806 9c3d 34f2 fbbd
00000390: 14aa 943c a0d6 7f3d ac54 ddbc 661f 953d
000003a0: 2830 9ebc c81c 353d f423 cd3b 62ec e23d
000003b0: 422c d5bd 0944 cb3d 7861 8abd 31ec 17bd
000003c0: 48ca 223d 60ed a0bc 4075 c13b 7f0b 74bd
000003d0: 8097 3b3b 6846 f4bd 1057 b83c 6f04 cabd
000003e0: 10c7 34bd b013 dd3d 602e aabd e4ac ca3d
000003f0: 5e33 ff3d f42e 013e 86de fb3d cec0 8cbd
0.09089397 0.05813779 -0.05495225 -0.04277177 0.037252113 -0.052630395 0.0894137 0.017841965
0.05067475 0.08806442 -0.011583105 0.124996334 -0.023888767 -0.10591243 0.11522417 -0.037970454
-0.016965464 0.113670066 -0.0116755515 -0.1147597 -0.05530475 0.043702558 -0.05197084 0.04286611
-0.056418315 -0.09028378 -0.062039956 -0.07113296 -0.05514285 -0.03290738 0.056041986 0.026243329
-0.074372634 0.04671797 -0.0496836 -0.09358503 -0.07610305 -0.10854752 0.05670671 -0.09620169
-0.06639625 0.037542433 -0.064498305 -0.0628933 -0.10405032 0.050695315 -0.07293782 0.108066216
-0.012160495 0.05420521 -0.05334209 -0.09396656 0.07142998 -0.03856586 0.12131435 0.08124541
0.032655418 -0.024944708 -0.06490818 0.020765439 0.10397138 -0.09524663 0.11528878 -0.011452779
0.0877637 -0.0026865685 -0.029035257 -0.01749523 0.08431208 0.104495235 0.11644119 -0.10668273
-0.10687438 0.009004023 -0.09199295 0.04331976 0.045559563 0.096794605 0.049629383 0.060744278
-0.10264179 0.11329191 0.033361144 -0.029634109 0.0402968 0.06559518 -0.07592861 0.039239686
-0.05166788 -0.05845979 0.079311825 0.09458821 0.025384102 0.022426117 0.033938274 -0.07060784
0.04958647 0.037220746 0.030270517 0.08617119 -0.1153234 -0.038755 0.054891955 -0.067202
-0.05639401 -0.112576865 0.0601093 0.09155721 0.056054864 0.07548191 -0.05066356 0.09480963
-0.11130937 -0.009609533 0.05312367 0.11647 0.050154537 0.06014572 0.06446914 -0.105283916
-0.080816284 0.07093999 0.122381836 -0.042209506 0.10437232 0.11193851 0.062570006 -0.07778992
0.082170695 0.0021297936 -0.059087954 -0.102221906 0.028806906 0.106140055 -0.081224866 -0.07838121
0.07426459 0.09472192 -0.0672884 0.00097081123 -0.1245118 -0.03744071 0.10424599 0.0134765515
0.06630376 0.052446876 -0.013134453 0.036249693 0.03714834 -0.12437198 0.03167833 0.08455115
-0.044233702 0.040005732 -0.0977469 0.02638056 -0.115786925 -0.10556597 0.0060704895 0.07290179
0.0189985 -0.10177529 -0.12310754 0.06547885 0.027404545 0.0016602293 -0.1270489 0.027113592
0.07230273 0.06626651 0.013103292 -0.10601452 0.07712505 0.081632294 -0.053214572 0.01548072
-0.11675179 0.09496281 0.046428096 -0.09420511 -0.0140245715 0.09328396 0.020708106 0.024203554
0.03287881 0.03922384 -0.09406157 0.013669779 -0.11420674 -0.02837344 -0.1056414 -0.064626805
0.11791053 0.025948197 0.10393622 0.11760871 0.0697259 0.10783545 -0.016253565 -0.08467781
0.020824634 -0.06052445 0.043026503 0.043953475 -0.040522367 0.03106899 0.08132465 -0.022286087
0.08166043 -0.026796501 0.064807795 0.069886126 -0.12092509 -0.072867915 -0.10120534 0.052431513
0.10518062 -0.031857114 -0.10511951 0.120062456 -0.02443336 -0.0053116945 0.051208586 0.03858134
0.05932315 -0.10984735 0.07618457 -0.12302056 0.018147506 0.06246054 -0.027017914 0.072813794
-0.019310072 0.0442169 0.0062603895 0.11080243 -0.10408832 0.09925086 -0.06756872 -0.037090484
0.03974369 -0.01964444 0.00590387 -0.059581276 0.0028624237 -0.119274914 0.022502452 -0.09864127
-0.044135153 0.10794771 -0.083096266 0.098962575 0.124609694 0.12615567 0.12298302 -0.06872712

placing_layer.2.bias f4 [5]
00000000: fcec f3bd ebe2 98bd c96b 143d 1c31 85bd
00000010: 0c7c 7e3d
-0.119104356 -0.07465156 0.036235604 -0.065035075 0.06213002

placing_layer.3.weight f4 [5, 64]
00000000: 7cf2 61bd 0f68 bebd 1d78 53bd baa1 c3bc
00000010: 1329 5abd 4b3a 1b3d ceb6 af3d 487a 333d
00000020: b0f8 f8bd 6eb0 b53d 9544 67bd 3eaa 51bd
00000030: cb14 da3c 3a74 0abe e89a eebd 9cf5 babd
00000040: 860b 4cbd a602 0bbd 3704 b8bd 9bc4 a0bd
00000050: f602 b43c 7952 ecbd 77f5 733b b05d ae3d
00000060: d829 03be 0a9e 613d 6de3 9dbd 24b8 8b3d
00000070: f33e 793d 94f5 b63d 080d 85bc af39 b93d
00000080: 1a19 fc3b ccc7 2e3d 5a74 093d 0765 313c
00000090: 2c9b 4b3d 1bbe a8bd 20c7 e63d fbcb 853d
000000a0: d1d8 24bd 08ce 10bc e133 b53b ed81 823d
000000b0: b299 9dba a54e 15bd 6fbc 70bd faff 803d
000000c0: 8e99 c4bd e086 dc3d 7c8b 72bd 7f04 d0bd
000000d0: f453 d73d 07d7 d8bd 49cc d6bd 4f30 613d
000000e0: bb84 9f3d 6a8c 3c3d 670d d8bc e8c1 2bbc
000000f0: d86b d3bd 06a1 24bd 41ea debd f5fd e93d
00000100: 8046 f83a 00de d9b9 e0e7 0f3d 2043 9f3c
00000110: 3443 26bd 248b 43bd f643 f6bd 6c00 32bd
00000120: 9071 f3bc 60f1 02bc 0037 26bb 3c1a 2a3d
00000130: 74ab f8bd 7464 edbd 0c2b 9ebd 101e 2d3d
00000140: 06a7 ac3d 2436 d7bd 4c69 66bd 20e2 c7bc
00000150: 880f 31bd c0eb 633b 7c8b 2ebd 4824 84bd
00000160: c859 943c 04a7 09bd 7e96 d43d ae96 9f3d
00000170: 28af 15bd 04c2 9dbd 9e66 da3d d8e8 a63c
00000180: 3cc4 4fbd d40a 423d 00c6 e5b9 3c36 923d
00000190: 7874 9e3c f8f9 ea3d 5c91 423d 4811 47bd
000001a0: 8034 a7bc 3eb1 923d b61a 9bbd 4079 85bd
000001b0: 0404 2fbd b497 d83d 9036 d63c 9039 1c3d
000001c0: 9693 b6bd d609 f0bd 4a7a 8abd 64c4 80bd
000001d0: 02b2 b83d 18a7 af3c 9ea4 d43d 8eef 95bd
000001e0: 102a 68bc d4d8 89bd 8c5c 5f3d 4609 98bd
000001f0: 0cda 3f3d cce6 203d 0abd debd 507e c9bc
00000200: d30d bd3c add5 f63d 3ffc 01be 62b3 b1bd
00000210: e382 e43d 8235 d5bd 404c 17bd 73e5 9d3d
00000220: 64d9 8b3d 199a 8b3c 3f2f 243d c306 37bd
00000230: 2462 9bbd 88af dfbb 242a 02be 5bad a63d
00000240: cf1e 2e3d de9f ce3d 8259 63bd 259e 89bd
00000250: d600 1a3c f408 dabd 715a a73d eeb2 5a3c
00000260: 55f8 3b3d f09e b6bd 073e 833d 9cac dbbd
00000270: dc2e d8bd 5858 a9bd 445b 2f3d 5063 16bd
00000280: 8c20 653d d9f7 1c3c 50e7 b9bc f8cd f73c
00000290: 5f8e 76bd 158b e8bc f194 b73d 2ca6 ec3d
000002a0: 349d 4c3d 3ad5 97bc 6aa6 b3bd dc9c 05bc
000002b0: a657 f9bd 1f40 b93d 0084 b0bc 2295 a13c
000002c0: e014 02bd 3ba6 063d 524e 913d c945 2dbd
000002d0: c7a7 a73d 6ade cfbd 1c62 6b3d a3b3 9f3d
000002e0: a8ab 813d abcf 933d 328a dabd b04a e8bc
000002f0: 9518 8e3d 9724 883d 3035 00be 38d5 26bd
00000300: f68b 8b3c 4e04 453b af85 a3bc 8927 bdbd
00000310: 7950 323d 2cc0 ee3d 0095 173d 3144 a53d
00000320: d624 abbd f321 f5bd b7ba 92bd ba29 f63a
00000330: 0728 d3bd 7f4b 073e 126f e43c cc56 7e3d
00000340: 1c6d b0bb 2a8d 0d3e 6eb1 4bbd 34ac 3fbd
00000350: 46f1 883d 284a 273c 75c0 08bd 50fe debd
00000360: 25d8 bf3d c7dd 25bd c8cf db3d b4c1 d0bd
00000370: 1f06 763d ce67 ff3d 6882 f33d 9bcb ccbd
00000380: 7f26 81bd 9e3b ba3d b10d 82bc a796 6b3c
00000390: 501c 733c a7ab 22bd 1751 383d 69d8 06bd
000003a0: 3422 a23d fe5d bbbd 5b7d e53d 1a40 373a
000003b0: cd2a c1bc 2a67 fb3d 2f8c 6d3d d064 ba3d
000003c0: 0833 d63d c8a1 a53d 8b4f 613d d097 23bc
000003d0: ecfc 0b3a 04bf 2cbd f0c2 2cbc ebba cb3d
000003e0: fd23 f6bd 77bb a3bd 3f66 82bc cd14 9f3d
000003f0: 7b6b 8b3d b049 e43c aab9 3e3c aeb7 cbbd
-0.05516289 -0.09297191 -0.05162822 -0.023880828 -0.053261828 0.03789739 0.08579789 0.04381779
-0.121568084 0.08871542 -0.05646189 -0.051187746 0.026621243 -0.135209 -0.1165064 -0.091288775
-0.049815677 -0.033938073 -0.08985179 -0.078499995 0.021974068 -0.11539168 0.0037225166 0.08513963
-0.12808931 0.05508236 -0.07709394 0.068222314 0.06085105 0.08933559 -0.016241565 0.090442054
0.007693422 0.04267101 0.033558227 0.010827309 0.04970853 -0.08239385 0.11268449 0.06533047
-0.040245835 -0.008838184 0.005529866 0.063724376 -0.0012023954 -0.036451954 -0.058773454 0.06298824
-0.09599601 0.10767913 -0.059215054 -0.101571076 0.1051406 -0.10587888 -0.10488183 0.05497771
0.07788988 0.046032347 -0.026373578 -0.010483243 -0.10323304 -0.040192626 -0.10884524 0.114253916
0.0018941909 -0.00041554868 0.035133243 0.019441187 -0.040591434 -0.047740117 -0.12024681 -0.043457434
-0.029717237 -0.007992119 -0.0025362372 0.041528925 -0.12142077 -0.115914255 -0.07723054 0.042264998
0.08430295 -0.105083734 -0.056252763 -0.024399817 -0.043227702 0.003477797 -0.04261349 -0.064522326
0.018109217 -0.033606544 0.103802666 0.07792412 -0.036543995 -0.07703021 0.10664104 0.0203747
-0.050724253 0.047373608 -0.00043825805 0.07139251 0.019342646 0.11473459 0.047501907 -0.048600465
-0.020410776 0.071627125 -0.07573454 -0.06517267 -0.04272844 0.1057581 0.026149064 0.038140833
-0.089148685 -0.11720626 -0.06761606 -0.062874585 0.09018327 0.021441981 0.10382961 -0.07321082
-0.014170185 -0.0673081 0.05453162 -0.07423644 0.046838805 0.039282605 -0.108759 -0.024596363
0.023077881 0.12052474 -0.1269388 -0.08676793 0.11157777 -0.104105964 -0.036937952 0.077097796
0.06828573 0.017041253 0.04008412 -0.044684183 -0.07587078 -0.006826345 -0.12711388 0.08138534
0.04250985 0.10089086 -0.055505283 -0.06719617 0.009399613 -0.10646239 0.08171547 0.013348324
0.045891125 -0.08917034 0.06408315 -0.10726282 -0.10555813 -0.08268803 0.042811647 -0.036715806
0.055939242 0.009580576 -0.022693306 0.03024958 -0.06019437 -0.028386632 0.08963955 0.11555132
0.049954608 -0.018534292 -0.08771975 -0.008155074 -0.12174921 0.09045433 -0.021547318 0.019724432
-0.03175819 0.032873373 0.070950165 -0.04230288 0.08186298 -0.10149844 0.05746661 0.07797935
0.06331569 0.07217344 -0.1067089 -0.028355926 0.069382824 0.06647604 -0.1252029 -0.040730685
0.017034512 0.003006238 -0.019961206 -0.09236056 0.043533776 0.116577476 0.03700733 0.08069647
-0.08356635 -0.11969366 -0.07164519 0.0018780746 -0.10310369 0.13212393 0.027884994 0.062094495
-0.0053841006 0.13823381 -0.049729757 -0.046795085 0.06686644 0.010210551 -0.033386666 -0.1088835
0.09367398 -0.040494706 0.107329905 -0.10193196 0.06006443 0.12470971 0.118901074 -0.09999772
-0.06306171 0.09093402 -0.01587567 0.01437918 0.014838293 -0.03971448 0.04499921 -0.03292123
0.0791668 -0.09148787 0.1120555 0.0006990448 -0.02357998 0.12275536 0.057995018 0.0910126
0.10458952 0.08087498 0.0550075 -0.009984925 0.00053401175 -0.042174354 -0.010544524 0.09947761
-0.12018583 -0.079947405 -0.015917895 0.07767639 0.0680761 0.027867168 0.011640945 -0.099471435

placing_layer.3.bias f4 [5]
00000000: 8167 b23d 1056 6cbd cdfc 44bd b373 9e3d
00000010: 09dd 89bd
0.08711148 -0.057699263 -0.048092652 0.077369116 -0.06731612
