auto_src/log/x3exp_1/set_epoch/buffer500/imitation_learning_env-20240815-141951/bc_ddpg_actor.pth (torch, 275774 bytes, 108 tensors)

fc.0.weight f4 [64, 620]
00000000: b916 ee3b 559c f33c e823 c7bc 5644 a4bc
00000010: 477f 94bb c154 7b3c d13f 463c 59a3 223d
00000020: 8fd5 f83a e490 483c 65dc f5bb 45c4 e5ba
00000030: ab14 08bd 07f3 a6bc 2cb9 1cbc 80c8 763b
00000040: ac53 be3c 1da1 9b3c 994b 0dbd 0c8b 46bc
00000050: 2706 b73c 570b 283d 8a88 85bb ff80 183d
00000060: 4ede 323b e2ae 243c 5f6e 373d 0074 e9bc
00000070: 79b4 afbc 24f2 0fbc 642c 28bc dfe6 2f3d
00000080: b4f2 78bc b0da 17bc ec09 96bc ef52 0abd
00000090: feaa 95bc 508a 293d b471 d63c 355b eb3c
000000a0: c7dd 1b3c eb1c 80bc ad9a 863b 4b1f 34bd
000000b0: 7177 babc 9f67 cabc 6789 ad3c 38ef 923c
000000c0: 48ad b0bc 77c5 abbb 7796 f73c 26ea 283d
000000d0: 1b5d a73c 3fa9 493c 856f f43c a27f 8fbc
000000e0: c973 483c e66b edbc 93f3 a5bc e6e0 82bc
000000f0: 5148 ba3c 7598 cf3c d759 42bc d648 973c
00000100: d2b8 ed3c f2a0 0dbc 8357 b1ba 4128 063c
00000110: 4fe1 ce3c 3f8b 163d 26df c8bc 5055 16bc
00000120: 774c a23c e115 193d a25a 163d 0397 fb3c
00000130: 6fbc 0e3c 8801 10bd cbd8 473b 5288 4ebc
00000140: 6e56 0fbd c1a0 2c3d 276f 103d a965 0dbd
00000150: 220c 693c e793 b2b9 6dda a8bb 6287 7abc
00000160: a68c 9b3c 6ad7 85bc d354 3c3c fc5a a23c
00000170: ccf3 d93c 13b3 443c 4569 1dbd 5cc0 9bbc
00000180: caf0 fa3c 9839 7c3c 9495 c6bc f91e 83bc
00000190: a7b7 2a3d 8ae0 093d f0ff 28bc e3f8 82bb
000001a0: 68a3 09bd d06d 6fbb a712 0ebd fb63 e2bc
000001b0: 0add 9539 1fad 893b 8bc4 42bc 0bbc d03c
000001c0: 2094 afbc ff7d 203d 2c42 093d 0a95 22bd
000001d0: 1ce1 6ebc 4f7d ac3a aa5a f9b9 5964 eb3b
000001e0: b31c b43c e656 443c 836c 4fbc f475 d83c
000001f0: 713d 16bd 297c 93bc 7118 74bb aaa3 2bbc
00000200: 932c a6bb f340 b8bc e5af b7b9 d874 993c
00000210: 77ba 86bc fbbe 4c3b 6b2a 0b3d 4385 db39
00000220: f64e b83b bade 3e3b 9634 613c 28c4 073d
00000230: 957d 0f3d 41dc c33c 3db1 1b3d dbfc c3b9
00000240: 418b 0abd 9e6d 7abc 7571 073d bdfe 92ba
00000250: 139d 42bc 43e5 d1bc 306a 2dbd 0fff 1ebd
00000260: 00ac 11bc 9599 943c 91ab 833c 7217 34bd
00000270: 3fec e93c 33e6 1cbd 5ba3 e5bb 4435 9ebb
00000280: cd6e 7fba cac7 203a 4a52 f8bc 5f9e e6bc
00000290: d400 ecbb 2258 023c 433c 1bbc 3b21 bb3c
000002a0: 25d0 e0bc f0a6 193c 62b8 2c3d f443 09bc
000002b0: 02c1 133d 67ab a63c 3aa3 13bd 830f c23c
000002c0: ad6f e3bb 9f38 9fbc 8000 053d 4db6 05bd
000002d0: 23ce 323c 55bf 36bc db75 bb3c 9acd 983c
000002e0: 24cf a03c 1269 a53c 0701 a3bb 02c0 4f3a
000002f0: 5cd2 bebc e8ea ee3c db70 253d 0150 133d
00000300: 9439 c5bc 6075 b33b 3b4a e5bc 69c3 69bc
00000310: 6403 94bc c764 a53c f514 afbc c6ad 9a3b
00000320: 4d52 ec3b 8f4e 153d 2f32 bbbc b782 b0bc
00000330: 6114 81bc 614d f23c e474 23bc 4a9b 243d
00000340: e0e4 b83c b609 3cba 9b81 babb 8eb4 efbb
00000350: 31e9 003b c7fe 37bc 88f9 a1bb df8e 993b
00000360: dc7e 91bc 550e 10bc a6bc 283d 202e 16bd
00000370: 5b62 9cbb 7b66 143d cf56 793c a26c d43b
00000380: 0052 10bd a3a8 863c 4f7e 06bd abb7 4dbc
00000390: a45c 04bc 95a3 7cbb cf8a ac3b f33d 1b3d
000003a0: 7f6a 543b 7f6b 433d 4db3 f43c b390 f4bc
000003b0: 5305 8f3c dc93 d0bc 2187 babc 0bda 033c
000003c0: 552d 663c d337 1b3d 5dfd 07bc 91ec d83b
000003d0: 9731 aa3c 6779 08bd 9235 153d 8fe3 fabc
000003e0: 15e6 ea3b 3982 f1bb 6903 9dbc 5d5b ef3b
000003f0: cb94 0d3d ff83 2abc 2c7b d6bc bd9d 8cbc
0.0072658923 0.02973763 -0.024309114 -0.020052116 -0.004531774 0.015340031 0.012100176 0.03970656
0.0018984544 0.012241576 -0.0075030797 -0.0017529806 -0.033222836 -0.020379556 -0.009565633 0.0037656128
0.023233257 0.018997723 -0.034495924 -0.012118112 0.0223418 0.04102644 -0.0040751146 0.037232395
0.0027293148 0.010051461 0.044782992 -0.028497696 -0.02144836 -0.008785758 -0.01026449 0.042944785
-0.015194584 -0.009268448 -0.018315278 -0.033770498 -0.018270012 0.04139167 0.026177265 0.028730014
0.009513325 -0.01563879 0.0041077943 -0.043975156 -0.022762032 -0.024707614 0.021183683 0.017936334
-0.021567002 -0.0052420455 0.030223114 0.041238926 0.020430138 0.012308418 0.029838333 -0.017516915
0.012234637 -0.028982114 -0.020257747 -0.01597638 0.022739561 0.025341252 -0.01186224 0.018467348
0.029018793 -0.008644329 -0.0013530109 0.008188308 0.02525392 0.03675389 -0.024520468 -0.0091756135
0.019811852 0.03737438 0.036707528 0.030711656 0.008711918 -0.03515771 0.003049421 -0.0126057435
-0.034994535 0.042145494 0.035262253 -0.03452078 0.014224084 -0.00034061001 -0.0051529915 -0.015291067
0.018987965 -0.016338069 0.011494833 0.019818775 0.02660551 0.012005585 -0.03843047 -0.019012623
0.030632395 0.015394591 -0.024241246 -0.01600598 0.04167905 0.033661403 -0.0103149265 -0.0039969548
-0.033603102 -0.003653396 -0.034685757 -0.027635565 0.00028584182 0.004201546 -0.01188768 0.02548029
-0.021432936 0.03918266 0.033510372 -0.039692916 -0.014580037 0.0013159903 -0.0004756053 0.007183593
0.021986341 0.011983609 -0.012660149 0.026423432 -0.03667969 -0.01800354 -0.0037246014 -0.010476032
-0.0050712316 -0.022491908 -0.00035035532 0.018732473 -0.016446335 0.0031241763 0.033976 0.00041870223
0.0056246473 0.0029124455 0.013745448 0.033146054 0.035031874 0.023908736 0.038010824 -0.0003738169
-0.03382421 -0.015284924 0.033067185 -0.0011214834 -0.01187827 -0.025622016 -0.042337596 -0.03881746
-0.008891106 0.01813964 0.01607302 -0.04396767 0.028555034 -0.038305473 -0.007007999 -0.004828127
-0.00097439886 0.00061332865 -0.030312676 -0.02815169 -0.007202247 0.007955583 -0.009474817 0.022842994
-0.027443001 0.00937818 0.04216803 -0.008378018 0.03607274 0.020345403 -0.036044337 0.023689037
-0.006940803 -0.019436179 0.03247118 -0.03264456 0.010913405 -0.011154016 0.022883346 0.018652726
0.019630022 0.020191703 -0.0049744877 0.0007925035 -0.023293667 0.029164746 0.04039083 0.03596497
-0.024075307 0.0054766387 -0.027989497 -0.014267781 -0.018068023 0.020189656 -0.021372298 0.0047204224
0.0072119595 0.036451872 -0.022851078 -0.021546705 -0.015756788 0.029577913 -0.009976599 0.040187158
0.022570074 -0.0007173078 -0.0056917197 -0.007315225 0.0019670243 -0.011230177 -0.0049430765 0.004686221
-0.017760687 -0.0087924795 0.041195534 -0.036665082 -0.004772467 0.036230545 0.015218451 0.0064826766
-0.03523445 0.016437834 -0.0328353 -0.012555997 -0.008078728 -0.003854965 0.0052655707 0.037900876
0.003241211 0.04770994 0.029870654 -0.029854154 0.017458593 -0.02546113 -0.022769513 0.008047591
0.014048894 0.037895035 -0.008300153 0.006619998 0.0207756 -0.033318903 0.03642804 -0.030626087
0.007168541 -0.00737026 -0.019166665 0.0073045925 0.03456573 -0.010407447 -0.02618178 -0.01716506

fc.0.bias f4 [64]
00000000: 8237 d43c 0c97 77bc e222 7ebc 2006 003d
00000010: e1e0 d4bb 3d4d 21bd adf3 13bd 5c8c 1e3b
00000020: 9b06 153d a937 9abc 7a26 293c 5e70 19bd
00000030: ce95 053d a2f3 823c b100 e23b 0d51 d73c
00000040: 30e7 203d 1032 5eba 05cb 1fbd a99a 133d
00000050: 3b4b cb3b 9488 cabc f27a e83c 73a3 cebc
00000060: 9a4d c33c 7565 063d a548 a13c 12d2 a93b
00000070: 320c 603c 6e56 32bc eaf6 9cbc 5085 223d
00000080: 5e50 51ba 5fde dfbb 8cdf 48bc 9163 543b
00000090: 01ea c03c 7827 d23a e457 933c c12c 9ebc
000000a0: f4de c53c 3415 af3c f940 a9bc 728c 55bc
000000b0: dd46 0bbd 6594 e63c d1ce 36bb f6fd 053c
000000c0: feb9 49bc c63e a9ba b4d2 acbc 23a7 443c
000000d0: 6446 11bd 1f76 a8bc cc9c 0abd 90bd d33c
000000e0: 83ac d4bc acf1 80bc 0dc5 1e3b 120a 923a
000000f0: 4fd6 48bc 07bf 6b3c 6c61 acbc 8291 473c
0.025905374 -0.015111696 -0.015511246 0.03125584 -0.006496534 -0.0393803 -0.03612106 0.0024192547
0.036383253 -0.018825369 0.010324115 -0.037460677 0.032613568 0.015985314 0.006897055 0.026283765
0.039282978 -0.0008476088 -0.039011974 0.036036167 0.0062040365 -0.024723329 0.028378937 -0.025224423
0.023840714 0.0328116 0.01968796 0.005182513 0.013674783 -0.010884864 -0.019160707 0.039677918
-0.0007984693 -0.0068319286 -0.012260329 0.003240798 0.023549082 0.0016033491 0.017986245 -0.01930845
0.024154164 0.021372415 -0.020660864 -0.013033973 -0.034003127 0.028146932 -0.0027894268 0.008178225
-0.01231241 -0.0012912385 -0.021096565 0.012002739 -0.03546752 -0.020564137 -0.03384094 0.025847226
-0.025961166 -0.015740238 0.0024226338 0.0011141917 -0.012258126 0.014388806 -0.021042548 0.012180688

fc.2.weight f4 [64]
00000000: 86a1 7f3f 0000 803f 1dff 7f3f acf9 7f3f
00000010: 5fde 7f3f 0000 803f 7011 803f 0000 803f
00000020: 0000 803f 9153 803f 0000 803f 0000 803f
00000030: 7c29 7f3f 0000 803f d916 803f d920 803f
00000040: 8a1e 803f 0000 803f 0000 803f 0000 803f
00000050: 0000 803f 0000 803f 0000 803f 0000 803f
00000060: 0000 803f 0000 803f 0000 803f 8e80 803f
00000070: dffe 7f3f 17ba 7f3f 0000 803f 2c0c 803f
00000080: 0000 803f f263 803f 0000 803f a2dd 7f3f
00000090: b10a 803f 0000 803f 0000 803f 0000 803f
000000a0: a24b 803f 0000 803f 0000 803f a345 803f
000000b0: ae35 803f 0000 803f 183e 803f 0000 803f
000000c0: 62c3 803f 0000 803f ff77 803f 0000 803f
000000d0: 8f0f 803f 0000 803f 0000 803f fe74 7f3f
000000e0: 0000 803f 0000 803f 43be 7f3f c00e 803f
000000f0: 0000 803f 0000 803f 0000 803f 0000 803f
0.9985584 1.0 0.99998647 0.99990344 0.99948686 1.0 1.0005322 1.0
1.0 1.0025502 1.0 1.0 0.99672675 1.0 1.0006973 1.0010024
1.000932 1.0 1.0 1.0 1.0 1.0 1.0 1.0
1.0 1.0 1.0 1.0039232 0.9999828 0.99893326 1.0 1.0003715
1.0 1.0030501 1.0 0.9994756 1.0003263 1.0 1.0 1.0
1.0023081 1.0 1.0 1.0021251 1.0016382 1.0 1.001895 1.0
1.0059626 1.0 1.003662 1.0 1.0004748 1.0 1.0 0.9978789
1.0 1.0 0.9989969 1.0004501 1.0 1.0 1.0 1.0

fc.2.bias f4 [64]
00000000: 2573 d53c 03ab 203d 71e8 6f3c 098e 8e3c
00000010: fbb3 c23c e9c7 1d3d 37ca 20bd 3145 0ebd
00000020: 2622 2b3d 4ec6 163d 5ba4 e63c a52b 183d
00000030: 192d 483b 73a2 253d c6b1 ac3c 2b3b e53c
00000040: dc38 a83c d269 273d 5549 1ebd 0630 24bd
00000050: 5072 14bd 16f2 07bd 3924 1ebd bb44 1fbd
00000060: e9de 0e3d 8f91 123d bd52 2a3d 97a2 9bbc
00000070: 6ee3 d13c f593 1abd ce4b 24bd 1667 113d
00000080: 1a4e 20bd c379 0e3d b526 08bd 0edc 27bd
00000090: a591 debc efaf 043d 39f5 263d bfbc 14bd
000000a0: b60d 193d 6fe4 253d c4f5 0e3d 4163 1c3d
000000b0: 4c87 1d3d 3e02 9bbc 77cd eb3c c525 22bd
000000c0: 6a6d af3c 4b87 efbc a2a9 c3bc 0706 e5bc
000000d0: efbf bdbb 04aa 18bd 8567 1e3d c8de 06bd
000000e0: 3327 083d 3aad 2e3d ba05 a7bc a296 58b9
000000f0: ee2f 0c3d 80ef 103d 8357 26bd b7b7 223d
0.026055882 0.03922559 0.014642821 0.017401712 0.023767462 0.038520727 -0.039255347 -0.034733955
0.041780613 0.03681021 0.028154543 0.037150998 0.0030544458 0.040438127 0.021080863 0.027982315
0.020534925 0.040872402 -0.038644154 -0.04008486 -0.03624183 -0.033189856 -0.038608763 -0.038883906
0.034880552 0.035783347 0.04158281 -0.018998427 0.025621142 -0.03773876 -0.040111355 0.0354987
-0.039136983 0.03478409 -0.03324004 -0.040981345 -0.027169058 0.032394346 0.040761206 -0.036312815
0.03736659 0.040501054 0.03490235 0.038180593 0.038459107 -0.018921968 0.028784497 -0.0395868
0.021414477 -0.029239317 -0.023884598 -0.027956976 -0.0057907025 -0.037271515 0.038672943 -0.032927305
0.03324051 0.04264567 -0.020388473 -0.0002065548 0.034225397 0.035384655 -0.0406108 0.039725985

fc.2.running_mean f4 [64]
00000000: 6f5d 9246 5fff 2234 152b 7546 3f92 3c45
00000010: c436 7646 0000 0000 507b da46 0000 0000
00000020: b837 5333 3665 9e46 0000 0000 0000 0000
00000030: a81c 8d46 0000 0000 1da7 d146 b16f bb45
00000040: d5ca 9945 0000 0000 0000 0000 0000 0000
00000050: 0000 0000 0000 0000 0000 0000 0000 0000
00000060: 0000 0000 0000 0000 0000 0000 9f0f 7b44
00000070: f64e cf46 e420 1346 0000 0000 6eab 0b47
00000080: 0000 0000 38eb a644 0000 0000 0a5d a446
00000090: 4bc7 c146 0000 0000 0000 0000 0000 0000
000000a0: 6354 f046 0000 0000 0000 0000 0615 2647
000000b0: 350f 6846 0000 0000 bad7 d746 0000 0000
000000c0: dd93 3a47 0000 0000 f0d0 0547 0000 0000
000000d0: a925 b146 0000 0000 0000 0000 5ebc 1546
000000e0: 0000 0000 0000 0000 4181 2c46 f124 c346
000000f0: 0000 0000 0000 0000 0000 0000 0000 0000
18734.717 1.5180329e-07 15690.7705 3017.1404 15757.691 0.0 27965.656 0.0
4.917794e-08 20274.605 0.0 0.0 18062.328 0.0 26835.557 5997.9614
4921.354 0.0 0.0 0.0 0.0 0.0 0.0 0.0
0.0 0.0 0.0 1004.2441 26535.48 9416.223 0.0 35755.43
0.0 1335.3506 0.0 21038.52 24803.646 0.0 0.0 0.0
30762.193 0.0 0.0 42517.023 14851.802 0.0 27627.863 0.0
47763.863 0.0 34256.938 0.0 22674.83 0.0 0.0 9583.092
0.0 0.0 11040.313 24978.47 0.0 0.0 0.0 0.0

fc.2.running_var f4 [64]
00000000: 2977 a446 4d43 962f c8e2 2b47 136f d546
00000010: b203 8947 4d43 962f a8df 5447 4d43 962f
00000020: 4d43 962f 49a0 8146 4d43 962f 4d43 962f
00000030: 5fc6 9447 4d43 962f 5a77 db47 cf15 f946
00000040: a787 2547 4d43 962f 4d43 962f 4d43 962f
00000050: 4d43 962f 4d43 962f 4d43 962f 4d43 962f
00000060: 4d43 962f 4d43 962f 4d43 962f 5ca6 cd46
00000070: 6b0e 0647 8b34 aa46 4d43 962f f2f0 c947
00000080: 4d43 962f c513 8947 4d43 962f b25f e946
00000090: 467c 5d47 4d43 962f 4d43 962f 4d43 962f
000000a0: 7740 2c47 4d43 962f 4d43 962f 0b67 bd47
000000b0: 6168 3147 4d43 962f b78a 4247 4d43 962f
000000c0: 54a7 ff47 4d43 962f fe66 f846 4d43 962f
000000d0: 8b2e 7647 4d43 962f 4d43 962f 802d c146
000000e0: 4d43 962f 4d43 962f 1cc1 7d46 592e fb47
000000f0: 4d43 962f 4d43 962f 4d43 962f 4d43 962f
21051.58 2.733266e-10 44002.78 27319.537 70151.39 2.733266e-10 54495.656 2.733266e-10
2.733266e-10 16592.143 2.733266e-10 2.733266e-10 76172.74 2.733266e-10 112366.7 31882.904
42375.652 2.733266e-10 2.733266e-10 2.733266e-10 2.733266e-10 2.733266e-10 2.733266e-10 2.733266e-10
2.733266e-10 2.733266e-10 2.733266e-10 26323.18 34318.418 21786.271 2.733266e-10 103393.89
2.733266e-10 70183.54 2.733266e-10 29871.848 56700.273 2.733266e-10 2.733266e-10 2.733266e-10
44096.465 2.733266e-10 2.733266e-10 96974.086 45416.38 2.733266e-10 49802.715 2.733266e-10
130894.66 2.733266e-10 31795.496 2.733266e-10 63022.543 2.733266e-10 2.733266e-10 24726.75
2.733266e-10 2.733266e-10 16240.277 128604.695 2.733266e-10 2.733266e-10 2.733266e-10 2.733266e-10

fc.3.weight f4 [64, 64]
00000000: 12cb df3d 09f5 d83b db23 e5bd 03f0 db3d
00000010: ff32 e53d 06b7 cb3d e048 03bd ca6b 26bc
00000020: 552c 023e db89 433d a130 e73c 596b 833d
00000030: f930 7b3d 548e 99bd 2165 c83c 3024 bc3d
00000040: 185f b23d 1cb8 d0bc 09d6 da3d e3b7 85bb
00000050: 53a7 f93c 3cfd 4b3c 9fb9 75bd ff3a fd3d
00000060: 0065 fcbd 775e ebbd f4c5 293d 9e64 7b3d
00000070: fb9c c9bc 708a 7f3d e353 15bd 01b7 dc3d
00000080: f210 63bd c1aa c73d fb12 f1bd 3af9 42bb
00000090: c7a3 a83d e98a f83c f5dc eabc 57f3 f03d
000000a0: c5e1 de3b 71a7 e3bd 1f26 2e3d 4bd4 22bd
000000b0: b7a7 e3bd 9f3f 003e bb84 83bb 54a5 c8bd
000000c0: 3104 bc3d 4b2a 853d 3189 6bbd 91aa 063d
000000d0: 6ac2 53bb 2da9 373c b179 8ebd 97b6 003e
000000e0: a94d a3bd 7df7 fe3d c092 bb3c 309d 5d3d
000000f0: 349d d3bc 7e49 743d d0b5 ec3d cf35 58bc
00000100: fc55 e1bd 4eea e63d 4d2f f4bd 7bb8 aa3d
00000110: 184c 37bd 0e99 323b 6ad5 c43d c638 e23c
00000120: 6ea6 96bd 32d7 87bc 8fa3 0b3d 4ddc a43b
00000130: c4e5 d23d 37b4 9ebd e4ea 743d 5081 a93c
00000140: c156 0dbd b5ee d43d ac1e e53d 986f 0abe
00000150: 6306 25bc bfec 3bbd 8ba7 343d 2e05 5dbd
00000160: f389 f43d 1f19 6c3d 2a8f 973d 8745 fc3d
00000170: 3e5c 963d 3ffd 7dbd 5bd2 46bd 00d0 80bd
00000180: de52 f8bc a52e a93d d652 bd3d b3de 8bbd
00000190: 2f2b 69bd 646d 7f3d 0353 adbd 11f1 a9bd
000001a0: d7b8 a53c 9ffb abbc 31bb dc3d e950 4c3b
000001b0: 51b2 da3c 0995 d3bd da22 5d3d 1e57 7c3d
000001c0: 0c15 5f3d 7054 10bd 0fb1 7a3d 6e55 e4bd
000001d0: 54dd a3bd db32 e1bd 87e6 63bd a608 0b3d
000001e0: 1676 773d 737e e7bd 78eb bdbd 1d5a 043c
000001f0: d571 f53c 7297 a3bd 7770 193d 1356 623d
00000200: b37c 39bd bcf5 983d 0087 703c 0b92 bfbd
00000210: 9096 773d 6e5b 053e d373 6d3d 0d2a b4bd
00000220: af6d 253d b5f2 e0bd 7d7b b13d f8cd bb3d
00000230: fa6d 063e 8df3 2b3d 7f9e 9e3d 19e3 d3bd
00000240: 7830 75bc fbce 683c a787 1fbe 3cca c4bd
00000250: 5ef2 3abd f43d e7bc 6036 953d 898a bdbd
00000260: 2d2f f5bc 28d6 bbbd 3f76 a03d 9a1d 02bd
00000270: 3b1c b4bc d26c e3bd e166 1ebe 9cd3 e33d
00000280: e63a 87bd 2648 ec3d 23f2 87bd c613 f13d
00000290: a7f5 9cbd 76af 89bd 318e 4fbd cfe6 33bd
000002a0: 87c3 d6bd 875a 73bd 5166 123e f4f0 00be
000002b0: 9b0d bd3d c521 a2bd c750 0c3d a1ab 843c
000002c0: 281f d23a 62d9 0bbe 2fb4 d73d 5a56 c23d
000002d0: 867e cfbd 35d5 04bd d99f fa3d 01e5 9f3d
000002e0: e3ee bd3c 877e 49bd 877a 973b fe36 9a3d
000002f0: 9568 183d 67b2 f03d a1a1 14be eb72 8bbd
00000300: c320 183d 512a f23d 78e7 233d 269c 4fbd
00000310: e6a6 053e f8e4 5d3d f0e6 cebd 55d4 9bbb
00000320: 40d0 60bd 4b3f 4e3d bb03 863d 0abd 5d3c
00000330: 7359 d33d 44b5 b83d 397a 533d 5215 f73d
00000340: cb46 3c3d 5867 1c3e 1492 cabd a93c 08be
00000350: 5b6f 04be 660c 0f3d 60a8 73bd 8cf6 25be
00000360: 382e b03d 413c ac3d c728 6e3d b254 8ebd
00000370: 494d e5bd 2805 d7bd 158d e8bd d17b 75bb
00000380: ef89 28be bd2c 933d 900a 35bd e88d 8dbd
00000390: 164d 26bd 819a b13d 2d92 293e 8267 8d3d
000003a0: 4d93 2abb a630 1d3e 0a86 133e 21e2 e23d
000003b0: dae1 26bc 290f e13c 24c0 0dbd ab1f b4bd
000003c0: 88b2 06bd f76b b3bd f97e a63c c78e 823d
000003d0: 73b1 cebd 6f7f 88bd 11fa 473d 3443 b5bc
000003e0: 4702 9a3b 1090 0c3e a5e8 6cbd 660d f13d
000003f0: 0bcd 14bd 0ded aabd 54ea debd a7b7 06bc
0.109274045 0.0066210073 -0.111884795 0.10739138 0.11191367 0.09947018 -0.03205192 -0.010157535
0.12712224 0.04773889 0.02822143 0.06416959 0.061326 -0.0749785 0.024462285 0.0918659
0.08709544 -0.025478415 0.10685355 -0.004080759 0.030475294 0.0124505125 -0.059991475 0.12364768
-0.12323952 -0.11492627 0.04144855 0.061375253 -0.024610987 0.062387884 -0.036456954 0.10777093
-0.055436082 0.097493656 -0.11771198 -0.0029750601 0.08234363 0.030339675 -0.028669814 0.117651634
0.006801816 -0.11115921 0.042516824 -0.03975324 -0.111159734 0.1252427 -0.0040136254 -0.09797159
0.09180487 0.06502207 -0.057503883 0.03287751 -0.0032311925 0.011209768 -0.069568045 0.12569652
-0.07973797 0.124495484 0.022897124 0.054104984 -0.025831796 0.0596404 0.115581155 -0.013196423
-0.11002728 0.11275159 -0.119230844 0.08335968 -0.044750303 0.0027251872 0.09611018 0.027614962
-0.07355963 -0.016582105 0.03409153 0.0050311447 0.102977306 -0.07749217 0.05979432 0.020691544
-0.034506563 0.10397092 0.11187491 -0.13519132 -0.0100723235 -0.045880076 0.044105094 -0.053960018
0.11940374 0.057641145 0.07400353 0.12317949 0.073418126 -0.062009092 -0.048540454 -0.06289673
-0.030312952 0.0826085 0.09244315 -0.06829586 -0.05692595 0.062360182 -0.08463099 -0.08297933
0.02022974 -0.020994006 0.107778914 0.0031176156 0.026696356 -0.103311606 0.053988315 0.06160652
0.05446343 -0.035236776 0.061204012 -0.11149107 -0.08001199 -0.10996028 -0.05563977 0.033943795
0.06041535 -0.11303415 -0.09273428 0.008078125 0.029961506 -0.0798787 0.03746077 0.055257868
-0.045284938 0.07468745 0.014680624 -0.09354027 0.060446322 0.13023159 0.057971787 -0.08797083
0.040387806 -0.10983793 0.08666132 0.09170145 0.1312789 0.041980315 0.077450745 -0.1034605
-0.014965169 0.014209504 -0.15579091 -0.09608886 -0.045641296 -0.028227784 0.07285762 -0.09254939
-0.029929722 -0.091717064 0.07835054 -0.03176651 -0.021986118 -0.1110474 -0.15468933 0.11124346
-0.06603031 0.11537199 -0.06637981 0.117713496 -0.07664042 -0.0672292 -0.050672714 -0.043921288
-0.10486513 -0.059412505 0.14296843 -0.12591916 0.09231111 -0.07916597 0.034256723 0.01619512
0.0016031014 -0.13657144 0.10532414 0.094891265 -0.10131554 -0.032429893 0.1223752 0.07807351
0.0231852 -0.04919293 0.0046227607 0.0753002 0.037209112 0.117527775 -0.14514782 -0.06809028
0.03714062 0.118244775 0.040015668 -0.050686024 0.13051948 0.05417344 -0.101026416 -0.0047555366
-0.054886103 0.05035333 0.0654368 0.01353384 0.103197955 0.09018949 0.051630232 0.120646134
0.04596595 0.15273798 -0.098911434 -0.1330439 -0.12933104 0.034923933 -0.059486747 -0.16207331
0.086025655 0.0840993 0.058144357 -0.06949748 -0.111963816 -0.1049903 -0.11355034 -0.0037457834
-0.16458867 0.071862675 -0.044199526 -0.06911832 -0.04060086 0.086720474 0.16559668 0.06904508
-0.002602774 0.15350589 0.144066 0.11078287 -0.010185683 0.02747305 -0.034607068 -0.08795103
-0.032885104 -0.08760827 0.020324217 0.06374889 -0.100924395 -0.06664931 0.048822466 -0.022126772
0.0046999785 0.1372683 -0.057839055 0.11770134 -0.036328357 -0.08345995 -0.10884538 -0.008222497

fc.3.bias f4 [64]
00000000: 3040 a03c 1985 dabc a3fa 863d 0f3c b43d
00000010: 5aa7 34bc 9340 843c 7c23 e33d c935 39bd
00000020: 2542 9c3d a1c1 18bd 4411 1e3e 3391 493d
00000030: 01c9 193e 7e4a 883c f41f f53c 619e bfbd
00000040: 7733 60bd 1299 50bd 1a8d dd3d 27bd 5c3c
00000050: b29b 60bc d426 bd3c 9c39 9a3c cd34 28bc
00000060: ea2c c2bb a5a0 1bbc bc50 613d b01c c23d
00000070: af74 cd3d fc39 173e ece2 ea3d 07df aa3c
00000080: 078a 7b3d 25f9 1e3c 6984 1e3e 4028 543d
00000090: 50b4 e4bd 2409 993c 4337 60bd 802f dbbc
000000a0: fe80 843d 3787 863d af65 083e b670 cabd
000000b0: 2077 cb3d 1ad0 c33c baff b93d 9330 90bd
000000c0: 30c7 b53d 1c58 653d 5299 f1bc af5e d33d
000000d0: ca44 9a3d 7642 f63d 5772 d03c f53f 9e3d
000000e0: 5c39 f43d 31e9 ea3d d763 a8bc 707e 0f3e
000000f0: 9a72 bf3d bcd9 d2bc 01e9 8b3d 1ffc eb3d
0.019561857 -0.026674794 0.06590774 0.08800518 -0.011026228 0.016144073 0.110907525 -0.04521731
0.076298036 -0.037294034 0.15436274 0.04921074 0.15018083 0.016637083 0.029922463 -0.0935638
-0.05473658 -0.05092723 0.108179286 0.013472832 -0.013708996 0.023089804 0.018826298 -0.010266495
-0.0059257643 -0.00949875 0.055008635 0.09478128 0.10032021 0.14768213 0.11469063 0.0208583
0.06141093 0.009702955 0.15480198 0.051796198 -0.111672044 0.018681116 -0.0547402 -0.026756048
0.06469916 0.06568759 0.13320039 -0.09884779 0.09934831 0.023902941 0.09081979 -0.07040515
0.088758826 0.05599223 -0.029492054 0.10320794 0.07532652 0.12024395 0.025445146 0.077270426
0.11925003 0.11470259 -0.02055542 0.14013076 0.093480304 -0.02573859 0.06831551 0.11522698

placing_layer.0.weight f4 [5, 64]
00000000: 9c55 5bbd e601 813d 3d29 90bd ad33 7abd
00000010: 2e9a 323d a04f 3d3b cc72 ec3d c520 34bd
00000020: f435 55bc 166f 76bc 4c2f 9bbc 00d1 a5bd
00000030: ecdc cd3c 9926 c83c db85 943c 271e 63bd
00000040: 5a5d 8c3d 5163 653d e809 683d 01c8 fdbc
00000050: 9ca2 3d3c eeb1 7d3d 39f2 53bd 6a3a 2cbd
00000060: fe07 42bb c2a5 aabd f2dd b73c aa82 08bd
00000070: 6bd9 77bd eeba 393d c3d4 c83c 2625 41bd
00000080: 41c5 c1bd d32a f4bd 6896 8bbd 4dca 04be
00000090: 15e5 433c 4007 d1bd 284c 28bd cad3 9bbd
000000a0: b984 9a3d 253f e93c ad71 fb3c cea2 e73d
000000b0: 1963 b13d f909 b43c 0f88 66bd ed87 e13d
000000c0: 4203 003d 82bf 373d aabb 73bd b32a c0bd
000000d0: 3979 9e3c b2d6 3a3d cd30 2abc 7991 c0bc
000000e0: a803 e13d 411d cc3d 4361 0ebc 640b 1abd
000000f0: a8f1 e73b ed00 eb3c 943c 633d d581 00be
00000100: fc51 e23d 53c0 f43c bad0 b3bd 82e0 953d
00000110: 760a ae3d 8bed b33d ccfc 2f3d 3d8c 78bd
00000120: f584 58bd 1cc4 ae3d bae3 44bd 9d8c 3fbc
00000130: 9b18 8ebd a6ed 85bd e7eb 373d ac22 603d
00000140: 9f73 80bc 547b 3e3d a0e4 eebd 88ee 05be
00000150: 0c92 d7bd 411f 0e3d de61 dabd 619a 253c
00000160: cd13 2cbc 9ee7 d6bc 7a8b d43d 9409 863d
00000170: ebab e1bd 393d 03be 54c6 613d 2a98 743d
00000180: c2f0 cdbd 23e7 9c3c 3d09 183c 1d5d 183d
00000190: 8c45 263c 3c71 a83d 7af6 bc3d d4ec 343d
000001a0: 0e25 c63d 6741 dd3c e6ab 5bbd 5a19 cbbc
000001b0: cf9c 493d d644 c9bd 806a 92bd c674 34bd
000001c0: cf5c 88bc 77a9 95bc 9ade f2bd 24c9 093d
000001d0: 77bb 063d 0333 8c3d e1f0 8cbb 1594 273c
000001e0: 6995 e23d 9ef9 e63d 933b e1bd 7b02 863c
000001f0: 9dd8 f2bd c6c3 e7bd e800 6b3d cafb adbd
00000200: e2b6 be3c c211 003b 1c3f a73d c72d 87bc
00000210: a67c fcbc b252 0f3e ed16 4abd c077 c0bd
00000220: 2e69 873d 084f fc3c 795e acbd 6a6e f93d
00000230: 1d9a b6bd 9559 8a3d 1f27 8d3d 1ac7 71bd
00000240: 0336 353d f501 303d 2302 bdbd d4ea 0a3d
00000250: bba7 983d 199d 083d ad50 553d 9ff1 653d
00000260: ab78 103e 60bd 933d caef e63c cb31 d4bc
00000270: 98be 323d 1719 fa3d 2ecb 6bbd 1322 de3d
00000280: 8cc4 9e3d c7d7 97bd e39f 133c f1d1 7dbd
00000290: 25d2 b5bd b7c7 d23d ac42 40bd 5614 873d
000002a0: 6044 fe3d 3571 80bd d43b 413d 9c6c dabd
000002b0: 10e5 aebc e2b1 d03d b9fa 70bd 3cbd 2a3d
000002c0: ab04 0f3e 4ced e23d ea0e 57bd 0f30 a0bd
000002d0: 26d7 afbb c789 893d e39a 973d 03bf a3bb
000002e0: 53d9 ea3d 7654 af3d fa66 bf3d f2df 2f3d
000002f0: 4436 163e dbe0 b5bd c4a7 403d 2853 fa3d
00000300: 90b4 dcbd e8e2 be3c 5657 94bd 50f4 a13c
00000310: 6009 8d3b 36b3 e5bd 308e 76bd 5036 29bd
00000320: c84d adbc 062d d2bd 5827 f0bc e037 46bd
00000330: 5ad3 f7bd e4bb a0bd ace8 aebd 2eca db3d
00000340: a88f a43c c87d a8bd 348c fd3d 980c 10bd
00000350: d474 43bd ecab bb3d 8003 f9bb 4030 5a3d
00000360: 505c 48bc 006a d6bb 5ce1 c93d 9805 21bd
00000370: 0069 b43d f631 db3d a01a d1bd 5014 0dbc
00000380: a856 d9bd 90f8 3e3d bca5 c4bd 2036 02bc
00000390: 1221 cabd b4ab a23d 98f2 703d d4ca 3f3d
000003a0: 5c14 153d 2097 abbb 7031 d8bd d60d c6bd
000003b0: 9639 bcbd 6a18 913d 6ae3 a1bd 8291 96bd
000003c0: 4011 743d 4437 cfbd 3c5d bf3d 442a cabd
000003d0: 8c88 a2bd f015 91bc c083 8cbc 5ebf d03d
000003e0: a0d4 eabb 74f0 253d 38db 403d 9c11 b8bd
000003f0: d44a 503d a8a5 c9bd 4c2a b7bd b017 733c
-0.05354844 0.0629919 -0.070391156 -0.061084438 0.04360407 0.0028886572 0.11545333 -0.043976564
-0.013013352 -0.015041133 -0.018943451 -0.08096504 0.025129758 0.024432467 0.018130234 -0.055448677
0.06853743 0.05600292 0.056650072 -0.030979158 0.011574414 0.061937265 -0.051744673 -0.042047895
-0.0029606814 -0.08332397 0.022444699 -0.033327736 -0.06051008 0.045344286 0.024515515 -0.047154568
-0.09461451 -0.119222306 -0.06815797 -0.12967797 0.011956473 -0.10206461 -0.041088253 -0.07608755
0.07544846 0.028472492 0.030693853 0.113103494 0.086614795 0.021977412 -0.0562821 0.11012254
0.031253107 0.04486037 -0.059505142 -0.09383144 0.019344913 0.045614906 -0.010387612 -0.023506867
0.109870255 0.09966517 -0.008690181 -0.03760852 0.007078368 0.028686965 0.055477694 -0.12549527
0.110507935 0.029876864 -0.08780046 0.07318212 0.08498089 0.08785542 0.042965695 -0.060680617
-0.052861173 0.08533499 -0.04806874 -0.01169124 -0.06938287 -0.065394685 0.04490271 0.054720566
-0.015680132 0.046504334 -0.116647005 -0.13079274 -0.10525903 0.034697775 -0.10663198 0.010107608
-0.010502768 -0.02623349 0.103781655 0.06544796 -0.11019119 -0.12816323 0.05512078 0.059715427
-0.100556865 0.019153183 0.009279546 0.037198175 0.010148417 0.08224723 0.09226699 0.04417117
0.09675036 0.027008725 -0.053630732 -0.024792362 0.04922181 -0.098275825 -0.071492195 -0.044056676
-0.016645817 -0.018269284 -0.11858864 0.03363909 0.032893624 0.06845667 -0.004301176 0.010228177
0.11063654 0.112780795 -0.10997691 0.016358605 -0.11857722 -0.11316638 0.05737391 -0.084952906
0.023280565 0.0019541834 0.08166334 -0.01650132 -0.030821156 0.1399639 -0.04933827 -0.093978405
0.06611858 0.030799404 -0.08416457 0.12179263 -0.089161135 0.06755368 0.068922274 -0.05902777
0.044240963 0.042970616 -0.09228923 0.033915356 0.07453867 0.033352945 0.05207889 0.05613863
0.14108531 0.07213855 0.028190512 -0.02590265 0.043638796 0.12211817 -0.057566814 0.10846343
0.07752332 -0.07414203 0.009010288 -0.061967794 -0.088779725 0.10291999 -0.046938583 0.06595676
0.12415385 -0.062715925 0.047176197 -0.10665247 -0.02134946 0.101901785 -0.058832858 0.041684374
0.13966624 0.11080417 -0.052504458 -0.078216664 -0.005366224 0.06715732 0.07402589 -0.0049971356
0.114672326 0.085610315 0.09345813 0.04293818 0.14669138 -0.088807784 0.047034994 0.12222892
-0.10776627 0.023301557 -0.072432205 0.019769818 0.004304096 -0.112158224 -0.060194194 -0.041311562
-0.021155253 -0.10262494 -0.029315636 -0.04839313 -0.12100859 -0.07848337 -0.085404724 0.10731922
0.020088032 -0.08227116 0.12380257 -0.03516826 -0.047718838 0.09163651 -0.007599294 0.05326867
-0.01222904 -0.006543398 0.09857437 -0.039311975 0.0880909 0.10702889 -0.102101564 -0.0086108
-0.106122315 0.046623766 -0.09601924 -0.007947475 -0.09869589 0.07942906 0.058825105 0.04682429
0.03639637 -0.0052365214 -0.105563045 -0.09670608 -0.09190671 0.07084735 -0.07904704 -0.07351972
0.059586763 -0.10117963 0.09343955 -0.09871343 -0.079362005 -0.017710656 -0.017152667 0.101927504
-0.00716646 0.040512517 0.047084063 -0.08987734 0.05085261 -0.098460495 -0.08943614 0.0148371905

placing_layer.0.bias f4 [5]
00000000: c427 c3bd 33d2 a9bd 3363 d53c 3af4 8ebd
00000010: b4c2 9a3d
-0.09529069 -0.082920454 0.026048278 -0.06980176 0.07556668

placing_layer.1.weight f4 [5, 64]
00000000: d450 e83d 73dd f53d 969f 383d 3a5f cc3d
00000010: d4a4 5fbd 7b5f c3bd adad 173e 48d1 e23d
00000020: 961a f33d 2925 283c dfb1 703d 7654 073e
00000030: 7d0a 8bbd 1587 e5bc c4e8 923d 0ca4 f23d
00000040: 8381 80bd d774 0f3e 1889 f3bc be39 d23d
00000050: 02cb a4bc 7a60 ce3d 841f fc3d 4054 83bd
00000060: 2c19 09bd efb1 003e 0253 103e 3180 423d
00000070: b5f9 a43d c202 1c3d 0ecd 6d3d 5846 be3d
00000080: 4a48 b2bd 8f00 8f3c 4ced 2b3d 2c36 81bd
00000090: f753 8f3d fa20 933b 9149 93bd 2d12 853d
000000a0: 8eb9 6d3d ee47 a9bd 856f 2b3d 5936 a8bc
000000b0: f252 183e b4dc 4bbd 4507 f93d 1f1c c0bc
000000c0: 706e 143e e039 1bbd 03cf bcbd 8bc1 d0bc
000000d0: d6d3 b8bd 8444 563d 0493 15bd 6901 403d
000000e0: c089 3a3b c99e 1cbd 79b1 013e 8006 603d
000000f0: 7a99 fa3d 0cd6 4f3d b621 bb3d 682e 193e
00000100: b785 bc3d 965b 74bd 7d1d 813d 9232 1abd
00000110: 0181 bf3d f2d9 89bd 8ab9 01be 8bbe 02bd
00000120: f5b4 d6bc 429a b1bd d57c c9bd 9fb7 56bd
00000130: 8add 9dbc 6844 09be 2d59 e43c ce24 f9bd
00000140: fa2a db3d d159 53bd 82c2 b8bd 6c17 62bd
00000150: 5a31 c43d 3e46 d4bd 4b75 123c 900d 143d
00000160: 3224 90bd ac65 a9bc 2cf7 89bd 1401 73bd
00000170: a691 513d 2ad4 8f3d fec3 d43c b43e 9abd
00000180: 2ba7 d73c 1a20 5a3d 5b80 0dbd e14b c4bb
00000190: 024c ed3d 8f9c bfbd 311f d2bd a568 c03d
000001a0: 4392 33bc 7773 9fbd cb13 d6bd 4acb edbd
000001b0: c979 03be fb85 05be 7ee4 99bd 31b9 713c
000001c0: bb43 ddbd 7a14 d83d 9a63 f03c c5f1 3cbd
000001d0: 16b3 c03d 1f61 f93c 2ce9 723d 1297 0fbe
000001e0: 2fb2 e03a 36bb bb3d 14fa 9bbd dc9e 6e3d
000001f0: dade 17bd 5999 dcbd acbf e8bc b9ec 503c
00000200: 0be1 ba3d df16 61bd 2a3e 9c3d f895 da3d
00000210: 0634 913b a73d b73c 09ab a7bd c3de c0bc
00000220: 1bd3 96bd caaa e03c c492 0b3d f495 02bd
00000230: e161 88bd fc0c eabb 946b 303d 8e37 e0bd
00000240: 51fc aebd 74ee 4abd 311d 03be 4236 c5bd
00000250: 37ae 863d ec57 98bd b846 95bd cb52 00be
00000260: 6288 c73c b8eb c039 4457 46bd d21f 01be
00000270: b212 e5bd bf8c 9dbc 7b6c 7abd 8572 f53b
00000280: d548 8dbd 11b7 0cbd 2e52 4ebd f826 eebd
00000290: 6538 a9bd e148 b03d 00c4 9e3c cabd 93bd
000002a0: dc23 90bd 73b8 03be ed35 ee3c fd14 d63d
000002b0: c758 07be 22c0 03be 2f3b 843d 6cf4 c83d
000002c0: aa7e 26bd 7fd9 04be 6335 e6bd c0e1 983d
000002d0: 7409 f33c 71b1 b0bd c9b9 73bd c001 b1bd
000002e0: 358b 283d dd7d 363d 3a4e c0bd 909d febc
000002f0: be68 8b3b 0d32 cb3d 5eea 0e3c 1595 ad3c
00000300: 7bdf 853c 6de7 e3bd 6bc5 d53d 0cce ebbd
00000310: e53d 0b3d 1c40 02be 2b49 bebd 50b8 58bb
00000320: 7e34 0a3d d4c3 c33d cb92 97bd 7532 013d
00000330: b755 af3d acc9 6c3d 2a3d 453c 40ab 673c
00000340: 9e7e 2fbd e71f ba3c 0248 e3bb a1a3 ca3d
00000350: 6658 09bd 9817 35bc e220 a73d 2851 d0bd
00000360: f212 173d 6895 d8bd a44c afbd 804d 9abd
00000370: 4381 a93d 65ba 76bc 47ec d33d 9857 883d
00000380: 7a92 0bbd e78e 413c d1a5 eabc c651 d9bd
00000390: 348c ca3d 029b 01be 07b4 febd b918 2b3d
000003a0: b495 223d c428 75bd 9e6f 673d 11e4 873d
000003b0: 6bbb c53c 15e7 c73d 1132 2cbd 5070 b9bc
000003c0: 7df7 99bd 7710 93bc 0d60 4bbd cda1 27bd
000003d0: 7a12 92bd c19a 9abd cf6d 9abc e37e dbbb
000003e0: 1b31 02be 1401 5b3d 5d4f 27bd 2dc8 08be
000003f0: aa25 a6bd c987 983d de6e e5bd d3d1 d2bd
0.11343542 0.12005129 0.045074068 0.099791005 -0.05460055 -0.09539696 0.14812346 0.110750735
0.11870305 0.010262766 0.05876338 0.13215813 -0.0678911 -0.028018514 0.07173303 0.11847696
-0.062747024 0.14009415 -0.029728457 0.1026492 -0.020116333 0.10076995 0.12310699 -0.06412554
-0.03347127 0.12567876 0.14094165 0.047485534 0.0805544 0.038088568 0.058056884 0.09290761
-0.08705194 0.017456321 0.04197435 -0.063091606 0.06998437 0.004490015 -0.07191766 0.064976074
0.058038287 -0.082656726 0.0418544 -0.020533727 0.14875391 -0.049771026 0.1215959 -0.02345091
0.14495254 -0.03789699 -0.09219172 -0.025482913 -0.090247795 0.052311435 -0.03651716 0.046876345
0.0028463453 -0.038237367 0.12665357 0.0546937 0.122363046 0.05074124 0.09137289 0.14959109
0.092051916 -0.059657656 0.063044526 -0.037645884 0.093507774 -0.06731023 -0.12668434 -0.031919997
-0.026209334 -0.086720005 -0.09838263 -0.05242121 -0.019270677 -0.13405001 0.027874554 -0.12165223
0.107015565 -0.051599327 -0.090214744 -0.055198118 0.095797256 -0.1036496 0.008939098 0.036145747
-0.07038154 -0.020678364 -0.067365974 -0.0593272 0.05116429 0.07022889 0.025972363 -0.07531491
0.02632483 0.05325327 -0.034546237 -0.005990491 0.11586763 -0.09356033 -0.102598555 0.09394959
-0.0109601645 -0.07785695 -0.10452994 -0.1161104 -0.12839426 -0.1303939 -0.075142846 0.014753626
-0.10803934 0.105507806 0.029344369 -0.046129007 0.09409158 0.030441819 0.0593044 -0.14022473
0.0017142947 0.09166567 -0.07616058 0.05825697 -0.037077762 -0.10771436 -0.028411709 0.012751752
0.09124955 -0.054953452 0.07629044 0.106731355 0.0044312505 0.022368265 -0.08186919 -0.023543721
-0.07364484 0.027425189 0.034075513 -0.031881288 -0.06659294 -0.007142661 0.043071344 -0.10948096
-0.08544219 -0.049543813 -0.12804104 -0.096294895 0.065761976 -0.07438645 -0.07288879 -0.12531583
0.024357025 0.00036796718 -0.048423067 -0.12609795 -0.111852065 -0.019232152 -0.06113861 0.0074904584
-0.06898657 -0.034354273 -0.05037134 -0.116285264 -0.082627095 0.086076505 0.01938057 -0.07213934
-0.0703809 -0.1286333 0.029078448 0.10453222 -0.1321746 -0.12866262 0.06456601 0.09812245
-0.04064814 -0.12973593 -0.112406515 0.074649334 0.029667594 -0.08627594 -0.05950335 -0.08642912
0.041148383 0.044553626 -0.093899205 -0.031080991 0.0042544296 0.09921656 0.00872287 0.021189252
0.016341915 -0.11128125 0.10438045 -0.1151391 0.033994574 -0.12719768 -0.092912994 -0.0033068843
0.033741467 0.095588356 -0.074010454 0.03154226 0.08561271 0.057809517 0.012038508 0.01413995
-0.04284536 0.02272029 -0.0069360742 0.09894491 -0.03353157 -0.0110529885 0.08160569 -0.10171729
0.036883302 -0.10575372 -0.0855954 -0.07534313 0.08276608 -0.015059088 0.10347801 0.06657332
-0.034075238 0.011813856 -0.02864352 -0.106113 0.09890023 -0.12656787 -0.12436681 0.041771624
0.03969355 -0.05985333 0.05650293 0.06635297 0.02413722 0.09760872 -0.042039935 -0.022636563
-0.07517908 -0.017952187 -0.049652148 -0.04092579 -0.071324304 -0.07549048 -0.018851189 -0.0066984757
-0.12714045 0.053467825 -0.04084717 -0.13357611 -0.081126526 0.07447774 -0.11202787 -0.10293927

placing_layer.1.bias f4 [5]
00000000: 066a 363d 39ac 273c fa20 d73d a203 593b
00000010: b401 5fbd
0.044534706 0.010233932 0.10504337 0.0033113738 -0.054444984

placing_layer.2.weight f4 [5, 64]
00000000: 6795 d43d 476a 90bc 24d9 6e3d d5da b3bc
00000010: a30a 873d 7e46 a1bc e14c 213e f661 503c
00000020: b83c 12bd e488 27bd f6f7 1f3e b40b b13c
00000030: 19f0 9f3d 4510 b8bc 108d 1d3d 69e3 023e
00000040: 90b7 003d 4255 043e c4f2 4b3d b23d 903d
00000050: b589 0b3e 2615 093e 3c54 493d e55d 943d
00000060: e819 593d 9c96 af3d 811d cd3d 4651 0a3e
00000070: 6c5c 9d3c dffd 1ebb 7762 b0bd aabf 95bd
00000080: 5e85 493d a24a e83d 5124 5b3d a5a5 0d3e
00000090: 1865 093d 66a2 a43d b465 193a 9be9 073e
000000a0: d395 0d3d fa31 263b 22c9 37bd 4f07 bc3d
000000b0: 6771 143e 3621 bbbd dd55 9ebd 030c 003e
000000c0: 0c8e c3bd 46ec 233d a112 9f3c 2ca2 cc3d
000000d0: d668 9dbc 8b6a a53d 573d 173e 3bfa 4c3d
000000e0: 4b70 1c3d 6ac1 a2bd 22c6 203d dd92 883d
000000f0: 6618 973d c74a 883d 4668 f6bc 7ad7 2dbd
00000100: e816 dabc adaf 03bd 3263 adbd 3293 f1bd
00000110: 59ba d5bd 56b2 b8bc 3d7e 93bc 2bc5 1f3d
00000120: 8211 b23d 82de 7dbc 6428 1e3c 1f48 00be
00000130: 24cb d0bd 5e4d b63d 6bd3 9c3b 9352 053d
00000140: c1d0 a23c c50d 9cbd 552d 1fbd ef5b c53d
00000150: e15e 7fbd e06c 3f3d e1e5 7bbd df85 8dbd
00000160: 31c7 53bd 611f b7bd 5c53 2cbd 5d86 83bd
00000170: 9c4d 99bd 4b60 efbd 91c6 58bd e8fa 9abd
00000180: d1a6 67bd d018 b0bd 2a94 27bd 0d7d 5fbd
00000190: b553 34bd 2737 afbc b65c e1bd 23bb 613d
000001a0: 1468 01bd de0e 96bd 1897 093d ad1d cf3d
000001b0: 0baf 893b 2e98 1cbc 8215 42bd 7a06 c63c
000001c0: 429e 513d 95ed 343d 4dfc 4fbc 1e91 cebd
000001d0: 3314 ffbd ca47 403d 4fcc 5e3d 6759 d83d
000001e0: 36ec 063d d6d1 f7bd 1d16 6ebc 82a2 cd3d
000001f0: a22b f9bb 0209 ae3d 3c71 06be 6c07 94bd
00000200: 54da 5c3d d860 98bd 3ede cf3c bc06 0dbe
00000210: 08fd 853d 3771 96bb e545 a53c e60b 643d
00000220: a16f 76bc 9fc1 fdbd f0d7 c73d 8063 7d3d
00000230: c1bc 31bd 9e17 f7bc 69f4 e63a a87f 7ebd
00000240: e7bb 95bc 1a52 02be 418d 2cbd 28a0 dfbc
00000250: 2100 113b 1cfd 3c3d 95f7 893d fcf8 8f3d
00000260: a8cc 04be 2fbf 833d 00d4 ae3d 9e5f edbd
00000270: f1cd 593d 631e 55bd d843 88bd b759 803d
00000280: 86d3 50bd 51b3 153b 589b 2c3d 386a fcbc
00000290: 99f6 cebd a1bd 5dba 4657 a73c 641f cabd
000002a0: 37d1 253b fd5c 2d3d b6e7 a53c 8bd2 5d3d
000002b0: e83d 863d 84b2 c63d 2701 5c3d dc47 83bd
000002c0: a4aa 58bd 8307 fe3c 0f4f c7bc 1360 f8bd
000002d0: 40f0 05be 1add 3fbc 562c 00be 88ff 2cbd
000002e0: 6eda a53d ccd4 0abd e716 ebbd 660e 09be
000002f0: af0c a3bd 7773 a73d 8126 bfbd 357c 2c3d
00000300: 12b6 09be db13 d7bd e776 ea3c 0cf8 48bd
00000310: 17dd 923d 1244 c1bd 6e5d d83d 1743 873c
00000320: 2389 d6bd e219 73bc 70b9 393d 8675 d4bd
00000330: 3963 82bd c536 3e3c 8196 30bd d104 183d
00000340: 2412 edbd 0930 1a3c 520f 0cbd 3edd e7ba
00000350: df02 283d d047 3d3c 1531 a33d 7ed0 24bd
00000360: 2763 213d 5af1 ef3c 94a4 d4bd 633e cd3d
00000370: f1da 3bbd 7eab e43c 645b e83c 0f1b bf3b
00000380: e856 03be df4f 4fbc c2ca 313d 46a2 bcbd
00000390: a785 253d b542 07be 8edd 9c3d 66db c93d
000003a0: b7d4 63bd e361 9fbc 2008 b7bc 880b 97bd
000003b0: faf4 02be 70b4 073c 15b6 5e3c 7351 bcbc
000003c0: 90f0 1b3d 4a7a 4abd caa7 f0bd 038f a03d
000003d0: 972e c8bb b5f6 8b3d 8b00 00be abc8 0f3d
000003e0: a171 c53d ea45 9cbd 84e0 5dbd ffed 00be
000003f0: d8e0 d43b e474 373d 0f4d abbd d8d1 0ebe
0.10380059 -0.017628802 0.05831255 -0.021954933 0.06593826 -0.019686934 0.15751983 0.012718668
-0.035702437 -0.040902033 0.15621933 0.021612026 0.07809467 -0.022468695 0.038464606 0.12782063
0.03142506 0.12923148 0.049792066 0.070430174 0.1362675 0.13386974 0.049152598 0.072444715
0.05300322 0.08573648 0.10015393 0.13507566 0.01920911 -0.0024260206 -0.08612531 -0.07311948
0.049199454 0.1134236 0.05350143 0.1383272 0.033543676 0.080387875 0.0005851642 0.13272707
0.03456671 0.0025359378 -0.04486955 0.091810815 0.14496385 -0.09137194 -0.07731221 0.12504582
-0.09548578 0.04002025 0.019418063 0.09991869 -0.019215029 0.08076962 0.14769493 0.050043326
0.03819303 -0.07947047 0.039251454 0.06668637 0.073777005 0.06654888 -0.030079018 -0.042441823
-0.02662225 -0.03214996 -0.08466186 -0.117956534 -0.104359336 -0.022545975 -0.018004531 0.039006393
0.086947456 -0.0154949445 0.009653185 -0.12527512 -0.10194996 0.08901475 0.004785945 0.032549452
0.019874932 -0.07619814 -0.03886159 0.096366756 -0.062346343 0.04673469 -0.061498526 -0.069102995
-0.051703636 -0.08941532 -0.042071685 -0.06422112 -0.07485506 -0.11688288 -0.052923743 -0.07567388
-0.056555573 -0.085984826 -0.040912785 -0.054562617 -0.04402514 -0.021388603 -0.11004011 0.055110108
-0.031593397 -0.073270544 0.03359136 0.10113082 0.004201775 -0.009557767 -0.047383793 0.02417301
0.051176317 0.04417189 -0.012694431 -0.10086273 -0.124550246 0.046943463 0.054394063 0.10563927
0.032940112 -0.1210057 -0.014531639 0.100407615 -0.0076040784 0.08497812 -0.13129133 -0.07227978
0.05391915 -0.074403465 0.025374528 -0.137721 0.065424025 -0.004591133 0.02017493 0.05567541
-0.015041263 -0.12390446 0.09757984 0.06186247 -0.0433929 -0.030162629 0.0017620447 -0.06213346
-0.018278075 -0.12726632 -0.042126898 -0.027298048 0.002212532 0.04613982 0.06736676 0.07029912
-0.12968695 0.0643295 0.085365295 -0.11590503 0.053174917 -0.052030932 -0.06653565 0.06267112
-0.050982974 0.0022842477 0.042140335 -0.030812368 -0.101056285 -0.0008458738 0.020427357 -0.098692685
0.0025301704 0.04232501 0.02025209 0.054155868 0.065547764 0.09702018 0.053712036 -0.064101905
-0.05289711 0.031009441 -0.02432969 -0.121277 -0.1307993 -0.01171043 -0.12516913 -0.04223588
0.08098303 -0.033894345 -0.11478978 -0.13384399 -0.079614036 0.0817632 -0.09333516 0.04211064
-0.1344836 -0.10501834 0.02862115 -0.04906468 0.07171076 -0.094368115 0.10564695 0.016511483
-0.104753755 -0.014837714 0.045342863 -0.10373978 -0.063665815 0.011609738 -0.04311228 0.03711397
-0.11575726 0.009410867 -0.034194298 -0.0017689837 0.041018363 0.011552766 0.07968346 -0.040237896
0.0394012 0.02928989 -0.10382953 0.10021665 -0.045863096 0.027913805 0.028363891 0.005832083
-0.12826121 -0.01265332 0.043406256 -0.09210639 0.040410664 -0.1320904 0.07659446 0.098563
-0.055622783 -0.019455856 -0.022342741 -0.07375246 -0.12788764 0.008282766 0.013593216 -0.022988057
0.038071215 -0.04943303 -0.11750753 0.07839777 -0.0061090696 0.06834165 -0.12500207 0.03510348
0.096408136 -0.076305225 -0.054169193 -0.12590788 0.00649653 0.04478921 -0.08364307 -0.13947237

placing_layer.2.bias f4 [5]
00000000: b20f f33d 450f 243d 8bd2 17bd 2f45 153c
00000010: cca3 bbbd
0.11868228 0.040053625 -0.037066024 0.009110733 -0.09162101

placing_layer.3.weight f4 [5, 64]
00000000: b9f9 08bd 0259 3339 02a6 d33c 6747 dc3d
00000010: 55c9 0cbb 514c 0fbc 7296 bf3d 69fe 9bbd
00000020: 356b b3bd 56d0 893b c42e 91bd 43cf aebb
00000030: 4e72 543d 0c6f 0abd 04d9 fb3d 549c debc
00000040: e48a d2bd 79b4 46bc b849 743d 4266 c23d
00000050: e093 0f3d 82ea 8ebd 5f7d 7e3d 6c9a 4e3c
00000060: 14e3 2bbd a732 47bd 1bbe 99bd c70a 4cbd
00000070: 5164 ae3d 5846 923c 3d48 fe3d cd5b 213d
00000080: 69cc b5bd b39b 75bd 5bb1 013d 1023 86bd
00000090: b47c a4bd 53e1 063d 5794 a3bd 8ca0 513c
000000a0: 11ad e63d c160 41bd f030 e2bc bb21 903d
000000b0: 8b4b 4e3d 0b07 9cbd 7355 e13d 5bae ffbc
000000c0: bd52 97bb ee15 1fbd a6dd dc3d 87a2 d93d
000000d0: 50e7 8abd cea8 e53c fc80 4abd 44c3 843d
000000e0: 1beb ee3b c76c b8bb 29ee 9bbd 0d9d 32bd
000000f0: ff91 a7bd 7e1a 283d 8d3d 083b 10f1 4c3d
00000100: d409 1cbd 600a a53b 4638 e7bd 3c9b 46bd
00000110: 785e ea3d d088 f43d f8aa b9bd 6c9e 613d
00000120: f016 8b3d 7cb6 1bbd b40a 813d 6053 bd3d
00000130: 60f0 91bc 644a e0bd f449 b4bd e24a 913d
00000140: 84fa bf3d e0ab 2bbd 00b7 b8bd b030 3d3d
00000150: c00f 2f3d 8285 8ebd 30e4 723d b4f1 48bd
00000160: 9208 f6bd dc5b 7e3d 5843 b13c 0098 b2bd
00000170: b4ea 2ebd d8d3 94bc 80fb 053d 806d efbd
00000180: 008c c6b9 78e4 373d 8230 d7bd 68a9 aabc
00000190: c658 a53d f624 e13d eef6 db3d 80e8 14bc
000001a0: 94fd 41bd 6846 8b3c bcd9 6cbd b650 ddbd
000001b0: 3c2d 07bd 785a efbd 463e 9dbd bc27 79bd
000001c0: 40fe 84bd 54d5 5dbd a69e 9a3d a02b 553d
000001d0: 38ae a5bd 2a8c d8bd 902e 893c 723f cfbd
000001e0: 348c d0bd a454 ac3d fc45 77bd 84d9 d9bd
000001f0: 64e0 a63d d031 1ebd fca8 c3bd 38ca 3abd
00000200: b459 6cbd f154 f93c f8ff aebd 3216 4cbd
00000210: 39b8 583c cb5c a9bc a51c cbbd b7a0 97bd
00000220: 9848 b5bd 8bbe c4bd 5be0 dd3d af4e 553d
00000230: f001 bd3c 88d6 74bd 1e8c 493d ac9d bdbd
00000240: f889 733d 5e2a 833d 4291 8f3d 7476 89bd
00000250: a135 f6bd c0f5 803c 2e4e b6bd be0f e0bc
00000260: e0ac fabc b44f eebd 44b1 813c 45b9 a13d
00000270: 053f a43d e0bc 94bd faec 933d f8f2 0ebd
00000280: 9057 deba 290a ce3c d854 7cbd ab90 aabd
00000290: 1b5c 6d3d 0aa9 bebd e727 a4bd 4919 2abd
000002a0: 4582 f2bd 3c80 c53d e3bd c03d bd30 c13c
000002b0: d640 243d 288a f5bd f811 403d ae6f 7f3d
000002c0: 903f 9bbd 4045 d0bd d517 3bbd 431e d73d
000002d0: 53c7 ec3d 98b0 98bb a93f 88bc 662b 2cbd
000002e0: fc09 d9bb 69ee 31bd 0dbb 813d 970b fcbd
000002f0: 74cf c4bc 06f8 ac3c 6f2f 883d bc54 1e3d
00000300: 0f63 1bbd a6f8 9f3c ef2c 9fbd 5bd2 09be
00000310: c876 a13d 12c3 d13d 9e3f c03d 3558 e8bd
00000320: 9a30 d2bb 8dc0 3f3d 89d1 563d fc79 333d
00000330: df00 70bd 2989 95bd c7be 413d 743f d93c
00000340: a397 de3d b7a9 29bc e6e0 60bd 194c 023b
00000350: cd14 6f3d 062f 8e3d 9a2a 0b3d 4ec5 cd3d
00000360: 9983 dcbd 42c4 b8bc a1cc a7bd 5ea2 46bc
00000370: 0118 c2bc b323 dcbb a8d5 0c3d 5d56 f33c
00000380: 729c 3bbc 9793 26bd 0219 e83c e1d7 2eb8
00000390: 1051 453d 88c2 15bd 676e efbc 0ece 91bd
000003a0: 6923 c6bd f379 c03c fa47 c4bd cc7e 90bc
000003b0: 3a2b 1abd 1868 2ebd 43e8 663c 72c5 71bd
000003c0: 6d6f 3cbd 7e3b 9fbc b19d 04be b405 e23c
000003d0: 6caa 8ebc c0ce c4bd bfc4 53bd 3791 e1bd
000003e0: ab96 59bd edbf 1abd 6ff9 ecbd 9d9d de3c
000003f0: 7917 d4bc 4a7c f9bb efd4 86bd 9c18 b4bd
-0.03344128 0.00017103928 0.025835995 0.107558064 -0.0021482308 -0.008746223 0.09354867 -0.07616884
-0.087606825 0.004205744 -0.07088998 -0.005334766 0.051866822 -0.03379731 0.12297252 -0.027174152
-0.102803975 -0.012127989 0.059640616 0.094921604 0.035053134 -0.069783226 0.062131282 0.012610059
-0.041964605 -0.04863229 -0.07506963 -0.049814966 0.085152276 0.017855808 0.12416122 0.03939419
-0.08876879 -0.05996294 0.03166328 -0.065496564 -0.08031598 0.03292973 -0.07987278 0.012794625
0.112634785 -0.047211412 -0.027611226 0.070376836 0.050365012 -0.07618531 0.11002626 -0.031211069
-0.0046180175 -0.038839273 0.107844636 0.10626703 -0.067824006 0.028034594 -0.049439415 0.064825565
0.0072912103 -0.0056282016 -0.07613785 -0.043606807 -0.081821434 0.04104089 0.002078864 0.050034583
-0.03809531 0.005036637 -0.1129003 -0.048487887 0.114438 0.119401574 -0.09065813 0.055082723
0.06791484 -0.038015828 0.063008696 0.09244418 -0.017814815 -0.10951689 -0.08803168 0.07094361
0.09373954 -0.04191196 -0.090192795 0.04618901 0.04273963 -0.06959058 0.059299648 -0.04905863
-0.120133534 0.062099323 0.021638557 -0.08720398 -0.0427043 -0.018167421 0.032710552 -0.11690807
-0.0003786981 0.04489562 -0.10507299 -0.020832732 0.08073573 0.10993378 0.107404575 -0.009088635
-0.04736097 0.017001346 -0.057824835 -0.1080641 -0.033002123 -0.116871774 -0.07677893 -0.06082891
-0.06493807 -0.054158524 0.07549791 0.052043557 -0.0808987 -0.10573609 0.016745836 -0.10119523
-0.101829916 0.084145814 -0.060369477 -0.10637191 0.08148268 -0.038621724 -0.095537156 -0.045603007
-0.057702735 0.030436011 -0.08544916 -0.049825855 0.013227516 -0.02067413 -0.09917573 -0.07403701
-0.08851737 -0.09606656 0.10833808 0.05207699 0.023072213 -0.059774905 0.04920589 -0.09258589
0.05945775 0.06404565 0.070101276 -0.06712046 -0.12021948 0.015742183 -0.0890163 -0.027351256
-0.030600011 -0.11636296 0.015831597 0.078966655 0.080198325 -0.072625875 0.07222934 -0.03489968
-0.0016963352 0.02515133 -0.06160435 -0.083283745 0.057949167 -0.093095854 -0.08015423 -0.04152802
-0.11841253 0.096435994 0.09411218 0.02358281 0.040100895 -0.11989242 0.046892136 0.062362365
-0.07580483 -0.101694584 -0.045677025 0.10503819 0.115614556 -0.0046597235 -0.016631918 -0.042033575
-0.0066235047 -0.043440256 0.06334505 -0.12306898 -0.024024703 0.02111436 0.06649672 0.038655028
-0.037936267 0.019527745 -0.07772242 -0.1345915 0.07883984 0.10242285 0.09387134 -0.11344949
-0.006414485 0.04681449 0.052445922 0.043817505 -0.05859458 -0.07301552 0.04730108 0.026519515
0.10868766 -0.010355405 -0.05490198 0.0019881784 0.058369447 0.06942563 0.033976175 0.100473985
-0.10767288 -0.02255452 -0.08193327 -0.012123672 -0.023693087 -0.006718123 0.034383446 0.029704267
-0.011450874 -0.040668096 0.028332237 -4.1685886e-05 0.04817301 -0.036562473 -0.029227449 -0.0711938
-0.09674723 0.02349565 -0.09584041 -0.017638586 -0.03763888 -0.04257974 0.014093461 -0.05902619
-0.0460047 -0.019437548 -0.1295078 0.02759061 -0.017415248 -0.09609747 -0.051701304 -0.11014026
-0.053122204 -0.03778069 -0.11571013 0.027174765 -0.025890099 -0.0076136934 -0.065835826 -0.08793756

placing_layer.3.bias f4 [5]
00000000: ffdc 053e 7e16 88bd 27ad e9bd 964e a83c
00000010: 6674 70bd
0.13072585 -0.06644915 -0.11409979 0.020545285 -0.058704756
