extra_baseline2/log_res/6exp_2/ddpg_agent_env-20250301-181752/ddpg_actor.pth (torch, 275435 bytes, 108 tensors)

fc.0.weight f4 [64, 620]
000000 b8 fa 00 bd f6 a0 1c 3d 70 dc 36 bd 5d 3e 84 bd
       -0.031489104 0.03823944 -0.04464382 -0.06457207
000010 ef 39 42 bd 12 e6 cb bc 9b 58 e0 bc 8c e3 0f 3c
       -0.04741853 -0.02488998 -0.027386 0.008782279
000020 a3 40 ed bc 6e 86 f7 3c c5 5a c3 bc d4 d4 5a 3c
       -0.028961485 0.030215468 -0.023846993 0.013356406
000030 d2 15 a1 bd ea b7 3e bb 7a 28 09 ba ea 8f dc bc
       -0.0786549 -0.002910132 -0.0005232167 -0.026924092
000040 39 42 3f 3b ec ee 0b 3d 2b 1f 5b bd 65 7e a1 bc
       0.002918376 0.0341634 -0.05349652 -0.01971359
000050 c1 35 b4 3c f9 87 94 bb 91 d5 21 3a 86 83 c2 3c
       0.021998288 -0.0045328108 0.00061734865 0.023744356
000060 6d bc 0c bd 97 58 0a bc 4f 8d b0 bb 23 ff 69 bd
       -0.034359384 -0.008443973 -0.005387939 -0.057128083
000070 26 8c 5a bd 0e 59 03 bd 91 02 3c bd a8 79 86 3c
       -0.053356312 -0.03206735 -0.045900885 0.016415432
000080 35 59 0d bd e6 01 97 bc 71 04 d5 bc b9 62 eb bc
       -0.034508903 -0.018433522 -0.026003094 -0.028733598
000090 ff bd 16 bd 26 48 ee ba 4e 73 e3 bc 33 f2 8b bc
       -0.03680229 -0.0018179461 -0.027764942 -0.017083263
0000a0 ce 2a f0 3c 1a a8 d4 b9 eb 0f 0a 3c c3 2d 9c bc
       0.029317286 -0.00040561036 0.008426647 -0.01906479
0000b0 31 5f 4d bc c2 07 20 b9 d1 fb 4a 3d e3 37 24 3d
       -0.012534902 -0.00015261679 0.049556557 0.04009236
0000c0 e1 b5 1b bd a8 b8 2d 3b 58 2b 25 bc 23 24 0a ba
       -0.03801525 0.0026507769 -0.010081135 -0.0005269667
0000d0 b2 71 c0 3c 8c 5e 5f bc ad ff 63 3d 12 64 8f 3c
       0.023491714 -0.013633382 0.055663753 0.017503772
0000e0 15 ec 5d 3c 3a f9 d8 bc 7a 26 86 bc f1 82 81 bc
       0.013545056 -0.026486028 -0.016375769 -0.015809508
0000f0 4b 67 e3 bb d2 1c 69 3c ac 50 78 bc 50 52 58 bc
       -0.0069398037 0.014228063 -0.015155952 -0.013203219
000100 5a 64 59 3c f3 a7 c1 bc ed 28 1d bc 00 42 37 3c
       0.013268555 -0.023639655 -0.009592277 0.011185169
000110 01 ac 2d 3d 41 fd ed 3c 4e 92 9e 3a 0b 27 64 3c
       0.042400364 0.029051425 0.0012098046 0.013925324
000120 d1 f2 47 bc 06 a1 06 3d de 76 42 3c 10 71 9c 3c
       -0.012203888 0.032868408 0.01186916 0.019096881
000130 22 2e ba 3b 63 21 cd bc ac 7c 74 bb 3e 41 2a bd
       0.005681769 -0.025040334 -0.0037305756 -0.041566126
000140 2a 3b 56 3b 30 1a 1d 3d a9 c4 30 3d 1a ed a6 bd
       0.0032689073 0.038355052 0.0431563 -0.08150692
000150 da 5a ab 3b 06 15 24 bd b7 14 3d 39 c6 a8 64 bd
       0.005229336 -0.040059112 0.00018032161 -0.055825017
000160 43 ac 01 bc 92 93 e4 3b 5d ed 0a 3d be 7f 6b 3c
       -0.007914606 0.0069755996 0.033917774 0.014373718
000170 35 d0 26 3d 31 32 2d 3c 8e 1f b2 bc 5e ff f3 bc
       0.040725905 0.010571049 -0.021743562 -0.029784855
000180 fa 24 eb ba 4e 1e 01 3d bf e2 75 bd cd a0 d3 bc
       -0.0017940097 0.03152304 -0.060030695 -0.025833512
000190 87 85 61 3d 4a 47 0b 3c 8c d1 29 bd 00 fe 02 bd
       0.055058982 0.008500883 -0.041459605 -0.031980515
0001a0 f8 2b 71 bc fb 4a b6 bb e7 0e 9d bb 0c df 17 bd
       -0.014719956 -0.0055631376 -0.0047930363 -0.03707795
0001b0 13 ca 76 3b 68 5b fa 3c a3 7f 1b 3c 82 da 1b 3d
       0.0037657067 0.030561164 0.00949088 0.038050182
0001c0 71 7a 3d bd e5 03 65 3d 6d 52 21 3d 75 74 28 bd
       -0.046259347 0.055911917 0.039385248 -0.041126687
0001d0 fa 5e 23 bb 1c 35 5b 3c 19 f1 e3 bb 8f 50 39 bc
       -0.0024928437 0.0133793615 -0.0069562313 -0.011310711
0001e0 9f d0 0c 3d 62 a2 2d 3c 84 0e 47 bd 80 9c dc bc
       0.034378644 0.010597797 -0.048597828 -0.026930094
0001f0 3a 76 d7 bb 29 88 0e 3a d4 18 9f bc 9b cb 66 bc
       -0.006575373 0.00054371596 -0.019421019 -0.014086629
000200 b7 5e 98 bc b7 7d 93 3a 8a 02 3d bd 63 7d 93 3c
       -0.018599851 0.0011252676 -0.046145 0.018004125
000210 85 be 1a bd 1a 09 d1 3b b5 89 57 bc 0f db 60 bc
       -0.03777935 0.006379259 -0.0131553905 -0.013724103
000220 1f 33 af bc fe 71 22 bd b7 c2 a2 ba 3c d3 a8 bb
       -0.021386681 -0.039659493 -0.0012417649 -0.005152134
000230 12 84 6e 3d e3 bf 78 3d 62 6b 6b 3d 45 20 2b bd
       0.05823142 0.060729872 0.057475455 -0.04177882
000240 4f 0e 96 bc a9 80 ae bc b1 16 25 3c eb 5d 0e ba
       -0.01831737 -0.021301584 0.010076211 -0.0005430865
000250 e9 e7 0b bb 8a 8d 63 bc 57 fb ff bc 4c 2a 70 bd
       -0.0021347946 -0.013888726 -0.031247778 -0.058634087
000260 b8 d8 e3 bc 60 f0 8a 3b 35 ec 93 3a 30 f7 80 bd
       -0.0278133 0.0042400807 0.0011285605 -0.06297147
000270 00 27 91 3a 52 4b 17 bd 2b 15 84 bc 0d b8 50 3b
       0.0011074245 -0.036937065 -0.016123375 0.0031847984
000280 ba 65 15 3d a6 56 ee 3b 2e 9e 5b bd 4e 53 f0 3b
       0.036473967 0.007273513 -0.05361765 0.0073341494
000290 44 57 ae 3c 84 2a 67 3c be 8e d6 bc d6 9c 94 bb
       0.021281846 0.014109258 -0.026191112 -0.004535298
0002a0 76 3a e4 bc 17 92 f9 bc 60 28 53 bc ef de 0b bc
       -0.027859908 -0.030465169 -0.012888044 -0.008537038
0002b0 45 c4 54 3d 7c ff ba 3c 30 c6 7c bc c2 bf 42 bc
       0.05194499 0.022826903 -0.015428111 -0.011886539
0002c0 4e 83 30 3c fa a0 89 3c 0e f9 53 3d 88 dd 34 bb
       0.010773493 0.016800392 0.05175119 -0.0027597863
0002d0 c9 04 58 bc 98 3a 9b 3c d6 db 39 3d 80 7e c6 3c
       -0.013184735 0.018948838 0.045375668 0.024230242
0002e0 0a bd 8f 3b 60 bf cf 3c 5f 31 f2 3b 13 ba bb 3c
       0.004386549 0.02535981 0.0073911394 0.022915876
0002f0 ef 8a 30 bc a4 08 e6 3a 3b 63 4a 3d a0 75 a7 bc
       -0.010775312 0.0017550183 0.04941104 -0.02044183
000300 54 df ed bc f5 06 bb 3b b1 8a 24 bc ed bf 20 bd
       -0.029037155 0.0057076165 -0.010042832 -0.039245535
000310 20 55 7d 3b a3 0a f8 3c 3b f8 32 bd 57 f6 e0 3b
       0.0038655475 0.03027851 -0.043693762 0.0068653035
000320 46 02 4b 3c c4 17 54 3c 73 23 8f bd b5 6b 6d bc
       0.012390679 0.012945119 -0.06989183 -0.014491011
000330 ad 37 94 3a 7b f8 49 bc 8b e5 01 bc 49 1e 91 3c
       0.0011308097 -0.012327309 -0.007928262 0.017714636
000340 63 f8 c8 3b 84 4d a2 bc 41 81 7b bc 35 4f 5a bd
       0.0061331256 -0.019812353 -0.015350641 -0.053298194
000350 e7 8f 42 3b ff d6 3a bc fe a1 4d bc 59 75 40 bc
       0.0029687823 -0.011403798 -0.012550829 -0.011746728
000360 9b 2c 83 bc 64 2f 18 bb ce 1a 63 3b c2 cb 93 bc
       -0.01601248 -0.0023221606 0.0034653428 -0.018041495
000370 47 b5 a7 3c c9 7e 21 3d 93 8d bb 3b 08 fe 45 3c
       0.020472182 0.039427552 0.005723664 0.012084492
000380 18 2d e2 bc 29 3e 6f 3c ae bb 2c bd a8 da c0 bc
       -0.027609393 0.0146022225 -0.042171173 -0.023541763
000390 ba 12 90 bc d8 4e ed bc bc 00 12 bd f1 ff 51 3d
       -0.017587055 -0.02896826 -0.03564523 0.051269475
0003a0 15 04 53 3b b9 ed 60 bb 61 14 0f 3c a3 33 02 bd
       0.0032198478 -0.0034321381 0.008732886 -0.031787526
0003b0 f7 84 9c 3c 40 d2 30 bd e6 12 0d bb 2a 0d 4e 3c
       0.019106371 -0.04316926 -0.0021526157 0.012576381
0003c0 3c 69 30 3c c1 ba fd 3b 14 38 a0 bb 0f 2f 13 bd
       0.010767277 0.00774321 -0.0048894975 -0.03593355
0003d0 75 56 ad bc 77 9e 8a bd 72 de 10 3d fe 1c ea ba
       -0.02115939 -0.06768506 0.03536839 -0.0017861424
0003e0 fb fb 89 39 69 9a 16 bc 65 7c 85 bc 2c c5 25 3c
       0.00026318416 -0.009192088 -0.016294667 0.01011781
0003f0 2a 0b 1c 3d 96 47 e1 bb fd 3d 9b bc 6a 82 23 bc
       0.038096584 -0.006874989 -0.018950457 -0.009979824

fc.0.bias f4 [64]
000000 b7 18 ea 3c 73 22 0a bc b8 5c 8e bc 7c a2 07 3d
       0.028576238 -0.008431065 -0.017378196 0.03311394
000010 85 1f cf bb 3d 4d 21 bd 9b cf 14 bd 5c 8c 1e 3b
       -0.006320896 -0.0393803 -0.0363308 0.0024192547
000020 78 04 18 3d 9e 03 bb bc a2 eb 49 3c 5e 70 19 bd
       0.037113637 -0.022828873 0.012324246 -0.037460677
000030 a2 6e e9 3c d9 4d 86 3c c7 14 10 3c 86 ad da 3c
       0.028495137 0.016394543 0.008794016 0.02669407
000040 bb 5b 18 3d 10 32 5e ba 05 cb 1f bd a9 9a 13 3d
       0.037196856 -0.0008476088 -0.039011974 0.036036167
000050 3b 4b cb 3b 94 88 ca bc f2 7a e8 3c 73 a3 ce bc
       0.0062040365 -0.024723329 0.028378937 -0.025224423
000060 9a 4d c3 3c 75 65 06 3d a5 48 a1 3c c2 d6 09 3c
       0.023840714 0.0328116 0.01968796 0.008413019
000070 17 42 3c 3c 1e be a2 bb ea f6 9c bc 00 fb 0c 3d
       0.011490366 -0.0049665114 -0.019160707 0.03441906
000080 08 2f a7 39 72 45 ee bb 8c df 48 bc 99 30 d2 3b
       0.00031887763 -0.007271462 -0.012260329 0.0064144847
000090 44 e1 ca 3c 78 27 d2 3a e4 57 93 3c c1 2c 9e bc
       0.024765618 0.0016033491 0.017986245 -0.01930845
0000a0 de d3 95 3c 34 15 af 3c cb eb a1 bc f1 f5 92 bc
       0.018289503 0.021372415 -0.019765755 -0.01793954
0000b0 ab ee 1f bd 65 94 e6 3c ce c9 09 bb 16 65 2d 3c
       -0.03904597 0.028146932 -0.0021024826 0.010583183
0000c0 20 82 6a bc c6 3e a9 ba de 3c 94 bc 23 a7 44 3c
       -0.014313251 -0.0012912385 -0.01809543 0.012002739
0000d0 a5 03 1f bd 1f 76 a8 bc cc 9c 0a bd 21 c5 e6 3c
       -0.038821835 -0.020564137 -0.03384094 0.02817017
0000e0 83 ac d4 bc 5e 3c 7e bc 39 a7 d7 3a 5f 63 8a 3b
       -0.025961166 -0.015517322 0.0016453034 0.0042232717
0000f0 4f d6 48 bc 07 bf 6b 3c de 16 aa bc 82 91 47 3c
       -0.012258126 0.014388806 -0.020762857 0.012180688

fc.2.weight f4 [64]
000000 c5 00 89 3f db 94 88 3f 7c 1d 89 3f 00 00 80 3f
       1.070336 1.0670427 1.0712123 1.0
000010 00 00 80 3f 00 00 80 3f 2f 1b 89 3f 00 00 80 3f
       1.0 1.0 1.0711421 1.0
000020 00 00 80 3f 4f e8 88 3f 5e 21 88 3f 00 00 80 3f
       1.0 1.0695895 1.0635183 1.0
000030 c4 6d 89 3f e1 f9 88 3f 53 7b 88 3f 00 00 80 3f
       1.0736623 1.0701257 1.0662636 1.0
000040 4b 28 89 3f 00 00 80 3f 00 00 80 3f 00 00 80 3f
       1.0715421 1.0 1.0 1.0
000050 00 00 80 3f 00 00 80 3f 00 00 80 3f 00 00 80 3f
       1.0 1.0 1.0 1.0
000060 00 00 80 3f 00 00 80 3f 00 00 80 3f 02 b4 89 3f
       1.0 1.0 1.0 1.0758059
000070 9c 6f 89 3f 15 89 89 3f 00 00 80 3f db 3a 88 3f
       1.0737185 1.0744959 1.0 1.0642961
000080 84 07 88 3f 74 40 89 3f 00 00 80 3f 2d 59 88 3f
       1.0627294 1.0722795 1.0 1.0652214
000090 10 c7 87 3f 00 00 80 3f 00 00 80 3f 00 00 80 3f
       1.0607624 1.0 1.0 1.0
0000a0 cc a6 89 3f 00 00 80 3f 39 6f 88 3f 94 f5 88 3f
       1.0754027 1.0 1.0658942 1.0699944
0000b0 fe 4f 89 3f 00 00 80 3f 58 e9 88 3f 4b 73 89 3f
       1.0727537 1.0 1.0696211 1.073831
0000c0 2c d3 88 3f 00 00 80 3f 5c 1c 89 3f 00 00 80 3f
       1.0689445 1.0 1.071178 1.0
0000d0 72 10 89 3f 00 00 80 3f 00 00 80 3f 1c 20 89 3f
       1.0708144 1.0 1.0 1.0712924
0000e0 00 00 80 3f 3d 80 89 3f 02 c1 89 3f 75 19 89 3f
       1.0 1.074226 1.0762026 1.0710894
0000f0 00 00 80 3f 00 00 80 3f a0 83 89 3f 00 00 80 3f
       1.0 1.0 1.0743294 1.0

fc.2.bias f4 [64]
000000 46 58 8f 3d 04 03 46 bd 73 e2 9b bd 34 18 9e 3d
       0.06999259 -0.04834272 -0.07611551 0.0771946
000010 39 37 97 3d 1d a6 8e bd a2 dd 78 bd 58 7a ad 3d
       0.0738358 -0.06965277 -0.06075824 0.08470601
000020 9b 3c 91 3d 31 1e b1 3b 37 dd 4d 3d 45 d8 a5 bd
       0.07091638 0.0054052104 0.050259795 -0.08097891
000030 98 14 9c bd 3c a0 8f 3d 9e 71 84 bd fc 4f a2 bd
       -0.076211154 0.07012984 -0.06466983 -0.07925412
000040 09 3c 82 3d c7 8f ae bd 7d 45 a2 3d 20 9e 88 bd
       0.06359107 -0.08523517 0.0792341 -0.06670785
000050 e2 2c 81 bd 5f a9 9d 3d 02 77 a7 bd d3 48 9b 3d
       -0.06307389 0.076983206 -0.08176996 0.075822495
000060 dc 74 a8 bd 5d 56 92 bd 0f 32 98 3d e2 4a 8b bd
       -0.08225414 -0.07145379 0.07431423 -0.06801392
000070 38 ff 7f ba 97 d1 ba bc f5 ea 92 bd 4f 58 89 3d
       -0.00097655086 -0.022805018 -0.07173721 0.06706297
000080 87 3a 6e bd f6 1c 08 3d 3c 08 9a bd fb 22 76 bc
       -0.058161285 0.033230744 -0.07521102 -0.015022988
000090 57 5e 70 bd 3f 65 94 bd 74 cd 7a 3d 9b f4 8e bd
       -0.05868372 -0.07245874 0.06123109 -0.069802485
0000a0 6d b2 97 3d 61 2a 94 3d 8f 69 ad bc c6 9c 89 3d
       0.07407079 0.07234646 -0.021168498 0.06719355
0000b0 14 d9 9e 3d 97 ac 8b bd ed 86 8d bb cd e7 89 bd
       0.07756248 -0.06820028 -0.004319063 -0.067336656
0000c0 40 ce 69 3d b1 5a a5 bd 98 06 0f bd b6 19 ad 3d
       0.05708146 -0.08073939 -0.034918398 0.084521696
0000d0 c5 92 a2 bc 4e 04 98 bd df 46 a6 3d 5b 58 84 bc
       -0.019845376 -0.07422696 0.08118986 -0.016155412
0000e0 e0 30 a8 3d 62 fb 9b 3d cd e3 77 bd aa 9c 98 bd
       0.08212447 0.07616307 -0.060519982 -0.07451756
0000f0 6f a8 a2 3d 61 8f 9c bd c4 86 52 bd b0 93 9d bd
       0.079422824 -0.07644535 -0.051398054 -0.07694185

fc.2.running_mean f4 [64]
000000 42 70 cc 46 7a 77 be 46 af 68 5b 46 00 00 00 00
       26168.129 24379.738 14042.171 0.0
000010 00 00 00 00 00 00 00 00 2d 23 af 46 00 00 00 00
       0.0 0.0 22417.588 0.0
000020 00 00 00 00 63 2f 04 45 f9 a9 16 46 00 00 00 00
       0.0 2114.9617 9642.493 0.0
000030 b8 0a d3 46 f6 cf 01 45 7e e6 43 47 00 00 00 00
       27013.36 2076.9976 50150.492 0.0
000040 f4 e9 bd 45 00 00 00 00 00 00 00 00 00 00 00 00
       6077.244 0.0 0.0 0.0
000050 00 00 00 00 00 00 00 00 00 00 00 00 00 00 00 00
       0.0 0.0 0.0 0.0
000060 00 00 00 00 00 00 00 00 00 00 00 00 36 57 95 46
       0.0 0.0 0.0 19115.605
000070 67 21 6e 45 86 80 33 47 00 00 00 00 e9 37 e2 45
       3810.0876 45952.523 0.0 7238.989
000080 3c 27 e3 45 4b 95 1c 46 00 00 00 00 51 4f ec 46
       7268.9043 10021.323 0.0 30247.658
000090 dc d6 fb 46 00 00 00 00 00 00 00 00 00 00 00 00
       32235.43 0.0 0.0 0.0
0000a0 2a 2d 9b 46 00 00 00 00 3c 8e ec 44 82 78 21 47
       19862.582 0.0 1892.4448 41336.508
0000b0 95 46 bb 46 00 00 00 00 a7 64 ef 46 fb c4 c0 46
       23971.291 0.0 30642.326 24674.49
0000c0 5b c1 29 47 00 00 00 00 85 4f 5b 47 00 00 00 00
       43457.355 0.0 56143.52 0.0
0000d0 9f 23 d4 46 00 00 00 00 00 00 00 00 09 45 ce 46
       27153.81 0.0 0.0 26402.518
0000e0 00 00 00 00 0d 6e 07 45 0a cf 97 46 1c 6b 33 47
       0.0 2166.8782 19431.52 45931.11
0000f0 00 00 00 00 00 00 00 00 05 a9 63 44 00 00 00 00
       0.0 0.0 910.6409 0.0

fc.2.running_var f4 [64]
000000 31 f7 68 45 3c ac 45 45 f4 4b 23 45 33 fd 11 08
       3727.4495 3162.7646 2612.747 4.3931985e-34
000010 33 fd 11 08 33 fd 11 08 e0 58 c9 44 33 fd 11 08
       4.3931985e-34 4.3931985e-34 1610.7773 4.3931985e-34
000020 33 fd 11 08 e1 eb ab 44 ed ba f1 44 33 fd 11 08
       4.3931985e-34 1375.3712 1933.8414 4.3931985e-34
000030 a0 9a 1c 45 4a e0 68 45 b0 86 f4 44 33 fd 11 08
       2505.664 3726.018 1956.209 4.3931985e-34
000040 e2 ef 2f 45 33 fd 11 08 33 fd 11 08 33 fd 11 08
       2814.9927 4.3931985e-34 4.3931985e-34 4.3931985e-34
000050 33 fd 11 08 33 fd 11 08 33 fd 11 08 33 fd 11 08
       4.3931985e-34 4.3931985e-34 4.3931985e-34 4.3931985e-34
000060 33 fd 11 08 33 fd 11 08 33 fd 11 08 33 4d 9f 44
       4.3931985e-34 4.3931985e-34 4.3931985e-34 1274.4125
000070 c7 cc 59 45 63 3e 53 45 33 fd 11 08 a8 02 9e 44
       3484.7986 3379.8992 4.3931985e-34 1264.083
000080 c7 08 97 45 2e bd 09 45 33 fd 11 08 ad c2 69 45
       4833.097 2203.8237 4.3931985e-34 3740.1672
000090 7c d9 80 45 33 fd 11 08 33 fd 11 08 33 fd 11 08
       4123.1855 4.3931985e-34 4.3931985e-34 4.3931985e-34
0000a0 74 ab 35 45 33 fd 11 08 84 f1 0c 45 6d 43 06 45
       2906.7158 4.3931985e-34 2255.0947 2148.214
0000b0 14 9d 15 45 33 fd 11 08 8c 0a 8a 45 9b 7f 32 45
       2393.8174 4.3931985e-34 4417.3184 2855.9753
0000c0 a9 ad 88 45 33 fd 11 08 d2 b6 84 45 33 fd 11 08
       4373.7075 4.3931985e-34 4246.8525 4.3931985e-34
0000d0 5d 6e 24 45 33 fd 11 08 33 fd 11 08 f5 0d 07 45
       2630.8977 4.3931985e-34 4.3931985e-34 2160.8723
0000e0 33 fd 11 08 1d c7 db 44 c6 6e 12 45 30 dd 36 45
       4.3931985e-34 1758.2223 2342.9233 2925.8242
0000f0 33 fd 11 08 33 fd 11 08 92 85 31 45 33 fd 11 08
       4.3931985e-34 4.3931985e-34 2840.3481 4.3931985e-34

fc.3.weight f4 [64, 64]
000000 2f be 1d 3e 1b 79 94 3d 3e ae 44 be 8c 63 47 3e
       0.1540458 0.072496615 -0.19207093 0.19471568
000010 9d ed 4f 3e 2d 76 03 3d a8 24 0d bd 99 a5 9b 3d
       0.20305486 0.032095123 -0.034458786 0.075999446
000020 28 66 45 3e ff 21 df 3d c0 9f 2d 3d 48 76 ca bc
       0.19277251 0.10895156 0.042388678 -0.024714604
000030 e9 9f ba bc 49 f5 15 3a f9 04 fa 3b e5 70 1b bb
       -0.02278133 0.0005720449 0.0076299873 -0.0023718413
000040 a1 92 fd 3d 23 0a e3 bd 18 a5 48 3e b8 d7 77 bd
       0.12381483 -0.11085918 0.19594228 -0.06050846
000050 38 53 a2 bc 40 57 ca 3d 69 4c 13 be c8 36 4e 3e
       -0.019815072 0.09879923 -0.14384617 0.20138085
000060 b8 bb 56 be 8f 5a 41 be 98 7f ea 3d da fc 04 3d
       -0.20970047 -0.18882202 0.11450118 0.0324677
000070 56 ba d8 bd cd 75 c0 3b f4 fb d4 bd e9 25 00 3e
       -0.10582416 0.005873418 -0.10399619 0.12514462
000080 66 07 8b 3c a4 fb 05 3d 5b 88 4e be 1f 97 7e bd
       0.016971301 0.032710686 -0.20169203 -0.06215584
000090 52 d3 1e 3e 08 1e 33 bd 52 0e 96 3c 81 18 52 3d
       0.155103 -0.043729812 0.018317375 0.0512929
0000a0 e2 14 c6 3c 2f a9 2b bd a1 cd e9 3d 64 24 5e bd
       0.02417988 -0.041909393 0.11416174 -0.054233924
0000b0 1a 51 91 bd 54 c8 66 3d 23 39 3d 3d 77 5f 29 be
       -0.07095547 0.05634339 0.046197068 -0.16540323
0000c0 78 69 0a 3d 6f 90 8a bc f7 50 02 be 6d 8a ff 3d
       0.03379199 -0.016914574 -0.12726198 0.124775745
0000d0 94 d0 a1 3d 5b 54 78 bd f5 06 7d 3c 61 41 3e 3e
       0.07901111 -0.060627323 0.015443553 0.18579628
0000e0 27 e1 a5 3b e4 fa 43 3e 6e 92 40 bd b8 5b 4c 39
       0.0050622406 0.19138676 -0.047014646 0.00019489124
0000f0 e6 a6 59 3d f9 30 d2 bc ae 32 34 3e 25 67 c1 bd
       0.053137682 -0.025658118 0.17597458 -0.094435014
000100 73 2e 2a be 87 10 3c 3d d9 02 63 bd 49 12 0d 3e
       -0.16619281 0.0459142 -0.055422638 0.13776506
000110 e4 f2 56 3c 31 e5 b8 bd 58 7d 10 3e 03 52 b3 3d
       0.013119433 -0.0902809 0.14110315 0.08755877
000120 a4 55 ee bb 17 cb ae bd 1a 0d ef bc 78 e2 61 bd
       -0.0072733928 -0.0853483 -0.029181052 -0.055147618
000130 2e 42 26 3e a4 a2 16 be 36 10 de 3d 8f 31 ca bc
       0.16236183 -0.1471048 0.10842936 -0.024681835
000140 dd a7 b5 bd 45 8b 36 3d 61 09 32 3e d3 a7 51 be
       -0.08869908 0.04456641 0.1738639 -0.20474176
000150 96 68 9b bd 7b 10 72 3c e5 0e e8 3b 46 5a 99 3c
       -0.075883076 0.014774437 0.0070818537 0.018719804
000160 bb cb 72 3d 4e 04 07 bd 25 4f 04 3e 2e 74 2a 3e
       0.059276324 -0.03296309 0.12920816 0.16645882
000170 8d 3d 06 3e ab 1d 8b 3b 32 db f4 bd a4 1d cc bd
       0.13109417 0.00424548 -0.11955871 -0.09966591
000180 0c 77 9d bd ce 7a 08 3e e8 d7 4c 3d 2c 97 3b bb
       -0.07688722 0.13328096 0.05001059 -0.002862404
000190 90 17 ec bd 40 c0 96 bc a4 0c a5 bc 0f 8a 1c be
       -0.11527932 -0.018402219 -0.02014763 -0.1528704
0001a0 cd 98 bf bc 0a a5 38 3d ed 7f 2b 3d 18 bb 56 bd
       -0.02338829 0.04507927 0.041870046 -0.05242452
0001b0 ac ff 10 bd d1 1a 3e be ca fd 6b bb 7e 3d 06 3e
       -0.035400078 -0.18564917 -0.0036009424 0.13109395
0001c0 c7 83 0e 3e c0 b9 99 bd f2 5c e5 3d 67 98 66 bd
       0.13917457 -0.07506132 0.111993685 -0.056297686
0001d0 62 48 17 be e5 91 2c be 21 e5 8c bc ae 4b 13 bd
       -0.14773706 -0.1685253 -0.0171991 -0.035960846
0001e0 14 e6 c6 3d 69 fa 46 be 16 0f 02 bd 2a 41 8e 3d
       0.09711853 -0.19431461 -0.03175267 0.06946023
0001f0 8f 66 9e 3d eb 67 13 be 4d 0b d2 bc 23 8d 50 bc
       0.07734405 -0.1439511 -0.025640154 -0.012728962
000200 59 ef d7 bd c3 87 1f 3c ff ca 7d 3d 32 b1 f9 bc
       -0.10543699 0.009736958 0.06196117 -0.030480001
000210 33 fc fd 3d 64 2d e9 3c 53 c4 01 3e e8 84 35 3c
       0.12401619 0.028464027 0.12672548 0.011079051
000220 45 af a5 3d 22 d2 1e be e6 53 e6 b8 ae 6e 40 bc
       0.08090071 -0.15509847 -0.00010982882 -0.011745138
000230 f9 80 31 3e 71 95 15 bd ab 46 0d 3e c6 08 3a be
       0.17334355 -0.03651947 0.13796489 -0.1816741
000240 3f a3 cc bd 38 ae ab bd 71 ac 4f bd 10 18 fe bd
       -0.09992074 -0.08382839 -0.050701562 -0.12406933
000250 ca 0b 8b bd 2b 65 92 3d 67 82 1f 3d d2 a0 a3 3c
       -0.06789358 0.071482025 0.03894272 0.019974146
000260 fa 99 03 be 94 5d 45 be 1b dc 01 3e e8 fb 46 3d
       -0.12851706 -0.19273978 0.1268162 0.04858008
000270 d3 e5 ae 3c 67 2e 92 bd 9d e5 43 be 7d 83 60 3d
       0.021349823 -0.07137757 -0.1913056 0.054812897
000280 7a fc 9b bd d0 94 15 3e a1 11 d1 bd 98 46 46 3e
       -0.076165155 0.14607549 -0.102084406 0.19362867
000290 fa 11 0d be 5a d9 37 be 45 5e 01 bd 83 b7 a6 bd
       -0.13776389 -0.17954007 -0.031584043 -0.08140471
0002a0 20 ab 2a be 3a 4c 89 bc 49 ce 87 3d 49 5c 3f be
       -0.16666842 -0.01675998 0.06631143 -0.18687548
0002b0 ea 41 97 3c 82 db 08 be 39 be c8 3b ca 9b b4 3d
       0.018464047 -0.13364986 0.006126192 0.08818777
0002c0 99 73 a4 3d c8 d3 39 be 6a 17 0f 3e e9 75 37 3e
       0.08029861 -0.18147194 0.13973776 0.17916073
0002d0 50 7f 1a be 71 a4 9f bd 61 0f 22 3e fa 39 0d 3d
       -0.15087628 -0.077950366 0.15826179 0.03447912
0002e0 45 0e 6d 3d 8d 89 01 be bb 5d 2b 3d d4 82 e7 3d
       0.057874937 -0.12650128 0.041837435 0.1130425
0002f0 b2 80 ab 3d 1e 02 78 3c eb a3 30 be b3 ce 36 be
       0.08374156 0.0151372235 -0.1725003 -0.17852287
000300 0a b4 ab 3d 90 d2 5e 3d 89 0c 69 bb a6 43 e7 3b
       0.08383949 0.054400027 -0.003556045 0.007057625
000310 ee d6 3a 3e f6 7f 83 bd 65 ce 1e be 6e 2e d2 3d
       0.18246052 -0.06420891 -0.15508421 0.10262762
000320 5d 07 7a bc c2 7d a1 3d 15 4a a2 3d c1 4b c1 bd
       -0.015260545 0.078853145 0.07924286 -0.09438277
000330 dd 35 84 3d a2 c8 cb 3d 3a 31 a8 bc 14 c5 5b 3d
       0.06455586 0.09950377 -0.020531286 0.053654745
000340 c6 ab d0 3d 69 ba 3c 3d 6a ec 39 3c 09 c4 23 be
       0.10189013 0.046076212 0.011347869 -0.1599275
000350 00 00 19 be b2 89 12 3e 86 28 ae bd a3 1c 24 bd
       -0.14941406 0.14310339 -0.08503823 -0.040066373
000360 7b d6 a1 bc cb 88 08 bd ff dd cd 3d 85 30 e6 bd
       -0.019755593 -0.03333358 0.10052108 -0.11239723
000370 7d d3 b4 bd 10 bb 0e be 4c 70 19 be dd 49 5d 3d
       -0.08829401 -0.13938546 -0.14984244 0.05402552
000380 1d b1 13 be 8f 7d 53 3d c6 dc 91 bd b3 24 c9 bd
       -0.14423032 0.051633414 -0.07122187 -0.09821453
000390 eb 34 86 bd 54 b1 1c bd 8a 9c 3a 3e a5 3c 02 3d
       -0.06553062 -0.03825505 0.18223777 0.031796116
0003a0 a5 0c 70 3d 14 86 47 3e ff 62 9d 3d 06 f5 30 3e
       0.05860581 0.1948474 0.07684898 0.17280969
0003b0 63 79 e5 3c 1c ed f9 bc 15 85 93 bd 9c 20 b7 bd
       0.028011983 -0.03050857 -0.07203118 -0.089417666
0003c0 79 75 87 bc f6 d2 ef bd eb e9 94 bc 68 35 1e 3e
       -0.016535508 -0.117101595 -0.018177947 0.1545006
0003d0 26 75 b3 bd 4c 50 df bd 03 b3 9a 3d b4 fd 24 3c
       -0.08762579 -0.10903987 0.07553675 0.010070253
0003e0 c8 fb f6 3c d4 c3 f4 3d 72 8d a7 bd 70 6a c1 3d
       0.030149356 0.11951414 -0.081812754 0.094441295
0003f0 5d a5 14 3b 10 ac 48 be d1 c2 a6 bd 22 2c 02 be
       0.0022681572 -0.19596887 -0.08142627 -0.12712148

fc.3.bias f4 [64]
000000 dc 9a bf 3d f8 99 d9 3b a1 84 c2 3d fa b8 e2 3d
       0.09355709 0.006640669 0.09497953 0.11070438
000010 74 bc 78 3d 4d ce b7 3d 9c ea 15 3e a2 85 87 3c
       0.060726598 0.089748956 0.14640278 0.016543213
000020 ab 74 00 3e 11 76 0f 3d b2 20 31 3e 31 1b b2 3d
       0.12544505 0.035024706 0.17297629 0.086965926
000030 0a 45 2b 3e ee ff be 3d 84 c9 82 3d e5 d3 54 bd
       0.16725555 0.093261585 0.06386092 -0.05195989
000040 50 c5 8f 3c 92 d1 76 3c 15 93 0c 3e 5f e1 65 3c
       0.01755014 0.015064614 0.13727982 0.014030783
000050 8d 0a e3 3c 63 c7 81 3d 72 b5 71 3d 3e c4 39 3d
       0.027714992 0.06336858 0.05901093 0.045353167
000060 e4 6b 5e 3d 3c bf 60 3d 4a 41 ae 3d 1a ef de 3d
       0.05430211 0.054869875 0.08508547 0.10885449
000070 14 2c 0b 3e 9c 91 39 3e d5 65 07 3e b7 98 12 bd
       0.13591033 0.18121952 0.1322244 -0.03579017
000080 f2 57 ad 3d b2 35 47 3d ea 77 40 3e 6c 6f 73 3d
       0.0846404 0.048635192 0.18795744 0.059432432
000090 1b de 60 bd 81 bc 47 3d 76 9e 48 3b 99 9a 1f 3c
       -0.054899316 0.048763756 0.0030612028 0.009741449
0000a0 05 25 f6 3d 75 c4 a2 3d 5a 5a 2b 3e 90 d2 04 bd
       0.1201878 0.079476275 0.16733685 -0.03242737
0000b0 8c aa dc 3d c5 40 c6 3d d6 82 ee 3d 43 23 af 3a
       0.10774717 0.096803226 0.11646049 0.0013361949
0000c0 18 f0 fd 3d 26 34 a4 3d 69 32 c4 3c be e4 0a 3e
       0.1239931 0.08017759 0.023949819 0.1356382
0000d0 25 57 d6 3d 06 af 07 3e 1c b5 62 3d 95 53 f0 3d
       0.1046584 0.1325036 0.0553485 0.11734692
0000e0 eb 52 28 3e 18 75 0b 3e b8 c8 f3 3c 57 a1 29 3e
       0.1643788 0.13618886 0.029758796 0.16565453
0000f0 36 32 d2 3d df ac 1a 3d e9 00 e4 3d 74 cd 1e 3e
       0.10263483 0.03776252 0.11132986 0.15508062

placing_layer.0.weight f4 [5, 64]
000000 85 42 52 bd f5 1f 3e 3d c6 19 b6 bd e6 14 81 bd
       -0.05133297 0.046417195 -0.08891635 -0.06302814
000010 ab 75 de 3c b1 ed 78 bc f0 04 eb 3d bb 3c 1a bd
       0.027155718 -0.015193389 0.11475551 -0.037655573
000020 2f 81 6f bc e7 a3 02 bd b1 3d ae bc c9 89 9d bd
       -0.014618202 -0.03189459 -0.021269651 -0.07692296
000030 d6 0d cf 3c 2a f8 a4 3b 1f 8c e7 3b 39 e8 5f bd
       0.025275152 0.0050344663 0.0070662643 -0.054664824
000040 83 f6 8a 3d d6 73 74 3d d4 44 64 3d f6 8e 22 bd
       0.067853 0.059680782 0.055729702 -0.03968712
000050 27 fa fb bb da 95 47 3d 93 6c 51 bd f2 89 29 bd
       -0.0076897326 0.048726894 -0.051128935 -0.04139132
000060 89 7b 73 bc 99 de a9 bd e5 20 a7 3c 76 d3 08 bd
       -0.014860996 -0.0829441 0.020401428 -0.03340479
000070 e8 50 77 bd 20 5b 09 3d 29 77 09 3c 32 e2 40 bd
       -0.060379893 0.03353417 0.008390226 -0.047090717
000080 ad bb bf bd da bb ef bd 2f e8 89 bd 7b ad 02 be
       -0.09361968 -0.11705752 -0.06733739 -0.1276149
000090 9a 07 b7 bb 32 0f df bd d4 e0 17 bd a7 f6 93 bd
       -0.005585623 -0.1089157 -0.037079647 -0.072247796
0000a0 eb 1c 70 3d 70 ce 2a 3c 6d 6f 86 3c d7 cc ef 3d
       0.05862133 0.010425195 0.016410554 0.11708992
0000b0 de bd 90 3d bc 71 65 3c 5f 83 66 bd 98 e1 e5 3d
       0.07067464 0.014004167 -0.05627763 0.11224669
0000c0 8e 09 8a 3c 10 8a fe 3c de 2d 8e bd f0 e8 db bd
       0.01685026 0.031071693 -0.06942342 -0.10737789
0000d0 2f 4a aa 3c 69 e2 39 3d 96 74 d4 bc db b5 c0 bc
       0.020787327 0.045381937 -0.025934499 -0.023524215
0000e0 c6 4f df 3d 89 34 cd 3d a2 cf 14 bc 06 ba 17 bd
       0.109038875 0.10019786 -0.009082707 -0.03704264
0000f0 65 f2 49 38 89 cd 4f 3c 9b fd 63 3d 45 e8 f5 bd
       4.8147882e-05 0.012683281 0.05566178 -0.120071925
000100 9a 3d 2c 3e 43 fb b7 3d 25 20 c7 bc 9d 4b 0c 3e
       0.16820374 0.08983471 -0.02430732 0.13700719
000110 36 59 16 3e ea d8 18 3e c5 38 dd 3d fb 00 93 bb
       0.14682469 0.14926496 0.108018436 -0.004486201
000120 40 aa 01 3c 72 fb 10 3e 58 3c 6b 3c 16 f5 57 3d
       0.007914126 0.14158419 0.014357649 0.052723967
000130 64 ef 53 bc 35 3b aa bb 9c 1a e3 3d 10 dd ea 3d
       -0.012935493 -0.0051950463 0.1108906 0.114679456
000140 bb 0b 3e 3d 61 ca db 3d 4a 97 5c bd 2a e4 8f bd
       0.046397906 0.1073196 -0.053855218 -0.07025941
000150 d4 ca 26 bd 31 85 c7 3d 91 15 3c bd 1d a8 9f 3d
       -0.040720776 0.09742201 -0.045919005 0.07795737
000160 d5 f5 41 3d b6 6e 17 3d 83 d5 2a 3e 37 87 00 3e
       0.047353584 0.036970817 0.16683011 0.1255158
000170 00 a2 44 bd 79 02 89 bd 4a c6 ef 3d 8f 74 9b 3d
       -0.048006058 -0.06689925 0.117077425 0.07590591
000180 dd ea 39 bd 19 66 9d 3d 2b bb 93 3d f4 e0 cb 3d
       -0.04539 0.07685489 0.07213434 0.09955016
000190 4a 36 92 3d 3e f7 12 3e e9 39 16 3e 2c 25 c7 3d
       0.07139261 0.14352128 0.14670528 0.09723887
0001a0 92 be 1d 3e b6 f5 b6 3d 13 af 00 3c 47 e1 d4 3c
       0.15404728 0.089335844 0.007854241 0.025986327
0001b0 66 b2 e4 3d 42 81 34 bd a4 33 88 b7 f7 fd 29 3c
       0.11166839 -0.044068582 -1.623651e-05 0.010375491
0001c0 1a 48 39 3d 01 12 3a 3d 66 cd 58 bd 86 25 c9 3d
       0.045234777 0.045427326 -0.05293026 0.0982161
0001d0 d8 1f b4 3d 63 e6 08 3e de 08 78 3d a1 24 88 3d
       0.08795136 0.13369136 0.06055533 0.066476114
0001e0 84 6e 2f 3e e8 d2 36 3e 4f 83 42 bd c3 88 9d 3d
       0.17132002 0.17853892 -0.047488507 0.07692101
0001f0 30 68 6f bd 95 19 55 bd 8f 42 f7 3d 6b 04 db bc
       -0.05844897 -0.05202635 0.12073242 -0.026735505
000200 f8 76 76 3d 01 38 49 3d ca d1 f3 3d 75 c6 83 3c
       0.06017205 0.049125675 0.119052485 0.016085843
000210 57 e0 98 3c b1 ce 3a 3e 70 40 51 bc 13 07 5b bd
       0.018661661 0.18242909 -0.012771711 -0.053473543
000220 de 0c da 3d 01 5b 9d 3d 05 e7 55 bd 5b 9a 15 3e
       0.106469855 0.07683373 -0.05222227 0.14609663
000230 5c 2c 6e bd a7 ce dd 3d 54 6d e2 3d 2b 6a ba ba
       -0.058147773 0.108304314 0.11056009 -0.0014222314
000240 41 02 c8 3d 6f c6 9f 3d 89 55 67 bd 94 32 97 3d
       0.09766055 0.0780152 -0.056478057 0.07382694
000250 0e b0 f7 3d 01 1c 98 3d 7d 9b c2 3d f9 fd d3 3d
       0.12094127 0.07427216 0.09502313 0.10351176
000260 c5 f4 3d 3e 29 5c e2 3d f8 43 94 3d 8d 0d e0 3b
       0.18550403 0.110527344 0.072395265 0.006837553
000270 bb 0c a0 3d a7 33 1f 3e 2f 9a ab bc 1c e9 b0 3d
       0.07814928 0.15547048 -0.020947544 0.08638212
000280 81 60 ed 3d 88 1f 2e bd 37 76 39 3d d6 bb e9 bc
       0.11590672 -0.04251054 0.045278754 -0.02853195
000290 94 41 06 bd 2e f1 0f 3e 87 47 fd bb 35 6f c9 3d
       -0.032777384 0.14056846 -0.007729474 0.09835664
0002a0 4c 6b 27 3e 05 8c cc bc 48 46 ac 3d a8 10 9b bd
       0.16349524 -0.02496911 0.084118426 -0.07571536
0002b0 f8 9f 5d 3c ff 8f 02 3e b4 a8 d3 bc 7e 85 ba 3d
       0.013526909 0.12750243 -0.02583728 0.09107493
0002c0 a2 3d 36 3e f4 25 1a 3e 6f 16 da bb a7 3b 33 bd
       0.17796949 0.1505354 -0.0066555063 -0.04375806
0002d0 fb f7 eb 3c 6f 32 de 3d 41 da ee 3d 22 50 e4 3c
       0.02880477 0.10849463 0.116627224 0.027870242
0002e0 f3 91 1c 3e b9 69 f8 3d 88 73 0b 3e 76 38 94 3d
       0.1529005 0.1212954 0.1361829 0.072373316
0002f0 33 d0 3a 3e 55 cf 14 bd 40 ab a5 3d 99 ab 17 3e
       0.18243484 -0.03633054 0.08089304 0.14811553
000300 d3 f0 22 bd 5d 0f cb 3c 35 02 80 bd 71 dc 9c 3d
       -0.03978045 0.0247876 -0.06250421 0.07659233
000310 a8 bd 6a 3c da a6 c2 bd 00 66 85 b8 aa f0 d0 3c
       0.014327444 -0.09504481 -6.360933e-05 0.025505383
000320 91 6b 20 3d 71 65 b1 bd 30 15 00 3d d3 64 53 3c
       0.039165083 -0.086619265 0.031270206 0.012902456
000330 76 a5 8a bd 8d cd 58 bd ed 4d 34 bd b7 e0 29 3e
       -0.067698404 -0.052930404 -0.04401963 0.16589628
000340 47 67 9e 3d 2f ca b1 bc 48 c7 3c 3e b7 39 bb bc
       0.07734542 -0.021702854 0.18435395 -0.022854669
000350 62 ea f3 bc 80 4e 03 3e bd 68 5b 3d c8 51 e1 3d
       -0.029774848 0.12822914 0.053566683 0.11001927
000360 b1 6e ee 3c 81 0e 76 3d d9 d7 1e 3e 33 7f 90 3c
       0.029105516 0.060072426 0.15512027 0.017638778
000370 2a f9 12 3e c1 4a 19 3e 9f a6 ba bd fb 5a ba 3b
       0.14352861 0.14969923 -0.09113812 0.0056871152
000380 1a d6 4b bd 17 73 e2 3d 7d 0a 0d bd 2f 8a 76 3d
       -0.04976473 0.11057108 -0.03443383 0.060190376
000390 7d 41 b9 bd 9a 1d f9 3d 80 f8 fd 3d d2 b9 ce 3d
       -0.09045694 0.12163849 0.12400913 0.10094036
0003a0 a9 62 5c 3d a3 39 4d 3b 72 4c c1 bd f5 ed 49 bd
       0.053805027 0.0031314872 -0.09438409 -0.0492992
0003b0 81 51 a4 bd 71 31 f0 3d 63 e1 7f bc af f5 8f bc
       -0.08023358 0.1172818 -0.015617701 -0.017573206
0003c0 28 d3 98 3d a7 0c a5 bd 01 55 0d 3e 47 d4 a2 bd
       0.0746215 -0.08059054 0.13801958 -0.07950645
0003d0 8f 64 b1 bc e6 89 34 3d 6d 2b ba 3c 9d 53 1f 3e
       -0.021654395 0.044076823 0.022725785 0.1555924
0003e0 4f d4 4d 3d 0a 96 ca 3d 23 12 d3 3d ee 2f 15 bd
       0.0502513 0.09891899 0.10306194 -0.036422662
0003f0 8a 6b bf 3d f1 e1 98 bd af 24 be bc 4f cd a4 3d
       0.09346683 -0.0746497 -0.023210851 0.08046972

placing_layer.0.bias f4 [5]
000000 96 e9 d0 bd 1e 83 cf bc 99 15 4f 3d 62 6c 8e bc
       -0.10200803 -0.025331076 0.050557707 -0.017385665
000010 44 0b bd 3d
       0.09230664

placing_layer.1.weight f4 [5, 64]
000000 22 11 20 3e 2c 1a 2b 3e bf d6 a4 3d 1f 85 02 3e
       0.15631536 0.16709203 0.08048772 0.12746094
000010 f4 ae ed bb ad ae 5f bd 58 c6 35 3e 0d 1f 26 3e
       -0.007253522 -0.054609943 0.17751443 0.16222782
000020 f1 3d 1e 3e 77 07 5f 3d d6 62 af 3d cd 44 28 3e
       0.15453316 0.05445048 0.08563773 0.16432495
000030 f7 f2 32 bd c1 02 16 3c f4 26 e3 3d 27 c3 30 3e
       -0.04368874 0.00915593 0.11091414 0.17261945
000040 4c b2 47 bc 87 65 3c 3e db b8 21 3b ef 91 10 3e
       -0.012188505 0.18398105 0.0024676833 0.14118169
000050 57 d8 d6 3c 84 2c 10 3e 22 83 28 3e bf a1 af bc
       0.026226206 0.14079481 0.16456273 -0.021439431
000060 d5 2b 16 3c c1 0d 2f 3e dc 11 36 3e 50 0b 96 3d
       0.009165724 0.1709509 0.1778025 0.073263764
000070 6f df e0 3d b9 14 8c 3d 10 80 b8 3d 8a 04 8e 3d
       0.109801166 0.0683989 0.09008801 0.069344595
000080 4c 46 5c bd 0d a5 57 3d 0f ae 91 3d ba da ba bc
       -0.053777978 0.05264764 0.07113277 -0.022809375
000090 50 48 fd 3d fe 67 2c 3d a0 6f b2 bc 28 e2 e2 3d
       0.12367308 0.042091362 -0.021781743 0.11078292
0000a0 ec da c0 3d de 09 45 bd 1f c2 98 3d 55 d8 c7 3c
       0.09416756 -0.048105113 0.07458901 0.024395147
0000b0 23 e2 38 3e 0e d4 7e bc 16 6d 1c 3e 14 c4 dd 3c
       0.18055014 -0.015553487 0.15275988 0.027071036
0000c0 af cf 35 3e 0e ad e2 b9 71 67 41 bd ca 08 ca 3b
       0.17755006 -0.00043235015 -0.04721779 0.0061655985
0000d0 c6 a9 6f bd 11 c3 b5 3d 1f 69 a9 3a 8b 3f 95 3d
       -0.058511518 0.088750966 0.0012925005 0.072875105
0000e0 d8 49 10 3d 2c 4c e7 bb 00 c3 2a 3e b5 f5 9e 3d
       0.035226673 -0.007058641 0.16675949 0.07761709
0000f0 6c 09 1e 3e 60 a3 d4 3d 11 b1 00 3e 03 da 34 3e
       0.15433282 0.10382724 0.12567545 0.1766129
000100 3b dd d7 3d e0 0f 5e bd c9 96 94 3d d3 b0 b5 bc
       0.10540243 -0.05421436 0.072553225 -0.022179043
000110 61 d2 cf 3d d9 e1 6c bd f7 bd dd bd 7e b9 c0 bc
       0.101475485 -0.057832573 -0.108272485 -0.02352595
000120 37 a0 91 bc 8e 23 ad bd 53 3b ae bd 71 a8 32 bd
       -0.017776592 -0.08454047 -0.08507409 -0.04361767
000130 12 61 35 bb 56 47 fc bd d1 34 18 3d 00 b0 ec bd
       -0.0027676267 -0.12318294 0.037159745 -0.11557007
000140 98 b6 e6 3d 7e 3b 3c bd 3c 56 a0 bd b2 99 36 bd
       0.11265296 -0.045955174 -0.07828948 -0.04458017
000150 cf ae d5 3d 58 5c c6 bd 97 39 ce 3c ab d5 34 3d
       0.10433733 -0.09685582 0.025173945 0.044149082
000160 d2 3c 73 bd f5 d9 95 bc 10 4c 84 bd 47 47 4a bd
       -0.059384175 -0.018292407 -0.0645982 -0.04938438
000170 ff ef 8a 3d c7 af af 3d 4f 52 2d 3d 60 08 83 bd
       0.06784057 0.08578449 0.042314824 -0.06398082
000180 ef af 21 3d 74 5f 79 3d 6a 80 6b bc b6 47 3b 3c
       0.039474424 0.060882047 -0.014373878 0.011430671
000190 02 d5 f3 3d 73 5d af bd 18 75 c1 bd 53 ee d6 3d
       0.119058624 -0.08562746 -0.09446162 0.104946755
0001a0 3d c5 9f 39 9b 4a 7c bd ce 67 b9 bd b0 04 e1 bd
       0.00030473797 -0.061594587 -0.09053002 -0.10987222
0001b0 4f 4b e3 bd 0e bb f6 bd cf f7 81 bd b4 29 b9 3c
       -0.11098348 -0.120473966 -0.06346094 0.022602893
0001c0 df b4 c1 bd da 42 f2 3d 81 f8 17 3d 36 e9 ff bc
       -0.094583265 0.11829157 0.037102226 -0.031239133
0001d0 e7 5a ce 3d c7 02 3a 3d 8a a3 95 3d 08 f1 04 be
       0.10075932 0.045412805 0.07306583 -0.12982571
0001e0 14 41 57 3c 67 bf e0 3d 2e 1e 90 bd ed b3 9b 3d
       0.013138074 0.10974007 -0.07037006 0.076026775
0001f0 16 4a d2 bc 4c 1a cf bd 23 c7 8f bc 24 9a f7 3c
       -0.025670093 -0.101124376 -0.01755101 0.030224867
000200 fc 1e 26 3e af 7d b4 3c f1 c7 1f 3e c7 6c 40 3e
       0.16222757 0.022032587 0.15603615 0.18791495
000210 52 e3 9f 3d 74 56 c6 3d 38 e1 cb 3b 61 f7 4f 3d
       0.0780703 0.096844584 0.0062219165 0.05077303
000220 b3 ce b6 3b 14 f3 cd 3d a0 21 ef 3d 6d 2d 57 3d
       0.0055788397 0.10056129 0.11676335 0.052533556
000230 96 10 0d 3c ee 92 88 3d 75 84 02 3e 25 c1 0a bd
       0.008609911 0.066686496 0.12745841 -0.033875603
000240 2f 92 f4 bb b6 a9 0e 3d 7b 64 39 bd 96 e5 d7 bc
       -0.0074637155 0.034829818 -0.04526184 -0.026354592
000250 fe 16 14 3e e0 93 e7 3b 0f 22 cd 3b 71 65 3c bd
       0.14461896 0.0070671886 0.0062601636 -0.04599518
000260 2f 2c cb 3d 07 5b a5 3d c2 14 0d 3d f2 10 2a bd
       0.09920537 0.08074003 0.034443624 -0.041520067
000270 7f f6 08 bd f0 a5 63 3d 4a 3a 8c 3c 25 0b 08 3d
       -0.033438202 0.055578172 0.017117638 0.033213753
000280 66 a1 d5 3b ad 66 4c 3d 5d 47 ff 3c 7f 5e 10 bd
       0.0065194843 0.049902607 0.031161958 -0.03524637
000290 6e 49 13 bc f9 17 26 3e b7 bc af 3d c2 45 4d ba
       -0.008989675 0.16220082 0.085809164 -0.0007830524
0002a0 fc 5e 0b 3c 08 25 49 bd 7f ac d8 3d 7b bf 32 3e
       0.008506533 -0.04910758 0.10579776 0.17455857
0002b0 b4 fb 57 bd 5f 00 79 bd 38 08 1a 3e 56 41 2f 3e
       -0.052730277 -0.06079137 0.15042198 0.17114767
0002c0 99 e8 1b 3d bf 2d 41 bd c7 d8 28 bd b3 50 21 3e
       0.03806362 -0.047162767 -0.04122236 0.1575344
0002d0 94 46 ca 3d 93 38 85 bb 20 8b ca 3c 91 7f 1c bc
       0.09876743 -0.004065582 0.024724543 -0.009551899
0002e0 5b 13 01 3e 74 36 02 3e 1a a9 02 bc 64 b3 45 3d
       0.1260504 0.12716085 -0.007974887 0.048266783
0002f0 b7 28 ad 3d d7 fc 2b 3e 8d 44 bf 3d aa d4 d5 3d
       0.08455031 0.1679567 0.09339247 0.10440953
000300 c9 35 ab 3d 55 0e 35 bd 9a ab 32 3e 74 15 38 bd
       0.08359868 -0.04420312 0.17448273 -0.044942334
000310 67 f5 d3 3d ae 7a 77 bd bb d8 a0 bc d5 e4 89 3d
       0.10349541 -0.06041973 -0.019634595 0.06733099
000320 4a a1 cb 3d 87 d4 24 3e 57 4b b9 bb 9a ad c4 3d
       0.09942873 0.16096698 -0.005654733 0.09603424
000330 18 73 1f 3e 02 ca fa 3d cc 11 a5 3d d8 9e b2 3d
       0.15571249 0.12245561 0.08060035 0.08721703
000340 49 b2 81 3c 45 32 ab 3d f7 1c 78 3d 6c 3c 2a 3e
       0.015832083 0.083591975 0.060574498 0.16624612
000350 1e 3b 09 3d d7 65 71 3d 7e 7b 1e 3e 00 f5 54 bd
       0.033503644 0.058935013 0.15476796 -0.051991463
000360 cf 78 d7 3d 2d 0a 14 bd 5b 80 f2 bc 9b 0b 6a bc
       0.10521089 -0.036142517 -0.02960222 -0.0142849935
000370 00 62 1e 3e 96 9b 5d 3d 4d c7 2e 3e aa 61 ab 3d
       0.15467072 0.054103456 0.17068215 0.08368237
000380 fa 2a f4 3c 5e f0 95 3d 46 32 2d 3d 58 02 fd bc
       0.02980565 0.07321237 0.042284273 -0.030884907
000390 24 6e 28 3e 99 0c 61 bd a8 3b 72 bd dc 35 d2 3d
       0.16448265 -0.054943655 -0.059138924 0.10264179
0003a0 6a db d9 3d c8 61 35 3c 7b fc f9 3d b1 5e f8 3d
       0.10637553 0.011070676 0.1220636 0.12127436
0003b0 1a 09 ba 3d cb 54 22 3e d8 d8 ef 3c 7e bf 1e 3d
       0.09083767 0.15852658 0.029278204 0.03875684
0003c0 13 b5 1c bc 14 8f 43 3d 48 99 93 3c 86 3b f1 3c
       -0.009564656 0.04774387 0.018017426 0.029447328
0003d0 20 3c 3f bc e2 f3 34 bc ae 0f 6d 3d 3a 2b 74 3d
       -0.01167205 -0.011044474 0.05787628 0.059611537
0003e0 67 9a 7c bd cb 04 04 3e 54 e8 73 3c ba f1 75 bd
       -0.061670687 0.12892453 0.014886934 -0.06004498
0003f0 4f ce c2 bb 6c 24 14 3e 3b 6b 2e bd 91 20 16 bd
       -0.005945004 0.14467019 -0.04258273 -0.03665215

placing_layer.1.bias f4 [5]
000000 3c 26 82 3d 90 7e ed 3c a2 4d 35 3e 0b d3 88 3d
       0.06354949 0.028991014 0.17705396 0.06680878
000010 df 0e 58 bd
       -0.052748557

placing_layer.2.weight f4 [5, 64]
000000 9f d5 18 3e c1 4a ed 3c 9d 78 c2 3d fa bb c4 3b
       0.1492524 0.02896631 0.094956614 0.006003854
000010 0f 6b ea 3d 3b 68 aa 3c a1 85 41 3e 1d c0 80 3d
       0.11446201 0.020801654 0.18898632 0.06286643
000020 73 b3 2a 3b a1 d4 87 3b 83 55 3c 3e 73 f9 6d 3d
       0.0026046901 0.0041452204 0.18391995 0.05809922
000030 d6 9c d8 3d 4b 7f 76 3c 02 aa a2 3d 8e ef 3e 3e
       0.10576789 0.015044997 0.07942583 0.1864607
000040 eb 2a ad 3d 16 6c 35 3e c8 9e a7 3d 27 12 d0 3d
       0.084554516 0.17717013 0.08184582 0.10159712
000050 a7 cb 36 3e 9e 51 35 3e 41 4f bb 3d 68 6a ed 3d
       0.17851125 0.17706916 0.09145976 0.11592561
000060 ee aa cb 3d 55 93 09 3e 28 a9 10 3e 65 34 27 3e
       0.099447116 0.13435109 0.14127028 0.1632858
000070 a3 95 52 3d 95 82 ec 3c 4d 46 5d bd 7d a1 ce bd
       0.051412236 0.02887086 -0.054022122 -0.10089395
000080 d7 c1 ac 3d 20 ec 19 3e bc 4a ac 3d 79 f1 34 3e
       0.084354095 0.15031481 0.08412692 0.1767024
000090 94 f8 b7 3d 3b 43 f6 3d 5a 79 35 3d 85 c7 38 3e
       0.089829594 0.12024542 0.044305183 0.1804486
0000a0 a4 26 92 3d 83 2c 18 3d 5d 8f 2a bc 2d 01 11 3e
       0.07136276 0.037151825 -0.010410157 0.14160605
0000b0 fe f2 35 3e f6 1f 5f bd e3 4c 3a bd 40 3f 35 3e
       0.17768475 -0.05447384 -0.04548348 0.17699909
0000c0 d0 78 7a bd 5f 7e a3 3d 75 b6 86 3d af ad 05 3e
       -0.061150372 0.07983088 0.0657777 0.13054536
0000d0 73 7c 19 3c 3d cc e7 3d 54 7b 3f 3e 98 b2 a5 3d
       0.00936805 0.11318252 0.1869939 0.08090705
0000e0 ab 8c 95 3d d0 a7 42 bd bc a8 aa 3d c0 41 be 3d
       0.07302221 -0.04752332 0.08332965 0.092898846
0000f0 d1 1c d1 3d ed df f6 3d a1 af dd 3b 66 17 65 bc
       0.102105744 0.12054429 0.0067653214 -0.013982629
000100 7c a1 33 3d da 02 04 3d 00 e2 25 bc 3b da 23 bd
       0.043855175 0.032229282 -0.010124683 -0.040003043
000110 ec 26 ea bc fa d5 3b 3d 5d 4a 82 3d f0 7a db 3d
       -0.028583013 0.04585836 0.0636184 0.10716808
000120 5f 8a 24 3e 9c 98 61 3d f3 cd ad 3d 82 5b 68 bd
       0.1606841 0.05507718 0.08486547 -0.056727894
000130 16 0a ef bc 54 5c 24 3e 31 4b 9d 3d 74 97 d8 3d
       -0.029179614 0.16050845 0.07680357 0.105757624
000140 57 5e af 3d f4 2e a2 bc b0 3e 13 3d 7f 4a 2c 3e
       0.08562916 -0.01979778 0.035948455 0.16825293
000150 c7 aa fa 3b dd ca f6 3d 5c e0 91 3c 4f 86 94 bb
       0.007649753 0.12050412 0.017807178 -0.0045326124
000160 6c fb 95 3c 8c 24 32 bc e2 17 b8 3c 5c f7 53 3c
       0.018308364 -0.010872971 0.022472326 0.012937393
000170 c2 fd 14 ba 51 ff 22 bd d6 91 a0 3c 53 86 4f bd
       -0.0005683565 -0.03979427 0.01960079 -0.05066521
000180 3c 5a 53 3c 48 9b 94 bc ea e3 2c 3d ed ef 8a 3c
       0.0128999315 -0.01814045 0.042209543 0.016960109
000190 d7 2f e3 3c 22 cd 4a 3d 93 db 28 bd a4 0a c5 3d
       0.027732773 0.049512036 -0.041225027 0.0962117
0001a0 70 a1 24 3d 15 2d 98 bb fe c6 d8 3d 87 8a 0a 3e
       0.04019302 -0.004644046 0.1058483 0.13529406
0001b0 d6 19 9f 3d 24 a0 44 3d a8 65 cf 3c 47 d4 b0 3d
       0.077686 0.048004285 0.025317028 0.08634239
0001c0 0d bd fc 3d ae 0c f3 3d c0 c4 53 3d c5 dc b7 bc
       0.12340746 0.11867653 0.051701307 -0.022444138
0001d0 d4 28 63 bd d7 6f 04 3e 82 e6 08 3e 38 8c 35 3e
       -0.05545886 0.12933289 0.13369182 0.1772927
0001e0 40 3d e6 3d 75 f8 4a bd 9c 01 58 3d 46 83 32 3e
       0.11242151 -0.049553353 0.05273591 0.1743289
0001f0 cf 7d 8c 3d 2e 5b 1f 3e 3e ea 66 bd 4b cb 1a 3c
       0.068599336 0.15562126 -0.056375735 0.009447883
000200 e3 d1 f7 3d 04 39 fa bc 04 2f 94 3d 40 74 98 bd
       0.121005796 -0.030544765 0.0723553 -0.07444048
000210 24 95 de 3d 05 33 3a 3d a8 6f bf 3d c7 58 04 3e
       0.1086829 0.045458812 0.093474686 0.12924491
000220 d4 46 63 3d 8d 4d 5c bd 03 0b 2e 3e 5b cd 02 3e
       0.05548747 -0.053784896 0.16996388 0.1277365
000230 80 b9 2c 3c a2 ed 19 3d 0d f9 89 3d d7 2f 51 bc
       0.0105422735 0.03758014 0.06736956 -0.012767754
000240 2b 71 18 3d 9c 72 82 bd 71 8e f6 3c 19 c1 9b 3c
       0.0372173 -0.06369516 0.030097218 0.019012975
000250 91 25 8a 3d 45 ee e0 3d 9a 8a 0b 3e ed bf 03 3e
       0.067454465 0.10982946 0.13627091 0.12866183
000260 55 68 8d bd 9f 44 0d 3e 0c 2e 1a 3e 4c f0 5c bd
       -0.069046654 0.13795708 0.15056628 -0.053940102
000270 aa da f1 3d a7 17 6d 3c c8 94 ab bc 1c 47 a1 3d
       0.11809285 0.014470971 -0.020944968 0.07874891
000280 09 ff b6 3b ab 7a 91 3d bd e4 ee 3d 17 b6 38 3d
       0.005584602 0.07103475 0.11664722 0.04509553
000290 44 11 77 bd 65 d1 6f 3d 8d 29 af 3d e8 dd 19 bd
       -0.0603192 0.058549304 0.08552847 -0.037565142
0002a0 d8 02 95 3d 21 75 af 3d be 60 75 3d 79 5d e1 3d
       0.07275933 0.085672624 0.059906714 0.110041566
0002b0 14 43 e4 3d 86 26 1f 3e 09 4a 04 3e 5f 6d 97 bc
       0.11145607 0.1554204 0.12918867 -0.01848477
0002c0 81 5c ea bb ab 6e ac 3d f7 2a 0a 3d 46 25 77 bd
       -0.0071521406 0.08419546 0.03373238 -0.06033828
0002d0 fb 3f 96 bd bd 6e 5b 3d a8 a6 6c bd b7 b0 3b 3c
       -0.07336422 0.053572405 -0.057776123 0.011455706
0002e0 43 64 12 3e b4 80 24 3d a8 b5 61 bd 49 13 96 bd
       0.1429606 0.040161803 -0.05510488 -0.07327897
0002f0 de 74 68 bc f3 bf 06 3e 47 b8 b4 bc 84 a0 dc 3d
       -0.01418802 0.1315916 -0.022060527 0.107728034
000300 95 b8 05 be b1 82 e9 bd 01 0f 0e 3d 19 da 34 bd
       -0.13058694 -0.114018805 0.034682278 -0.044153307
000310 fb ec 8f 3d 5b f7 c1 bd 87 29 f0 3d da b3 aa 3c
       0.07027622 -0.094710074 0.11726671 0.020837713
000320 ef 60 c5 bd aa 2e 63 bc eb 48 66 3d d8 41 cd bd
       -0.09637629 -0.013866106 0.056221884 -0.10022324
000330 e5 0b 65 bd 2a 45 8d 3c 31 66 31 bd fb 14 0b 3d
       -0.055919547 0.017244894 -0.043310348 0.033955555
000340 ce 1e e4 bd 13 99 2e 3c a3 78 d5 bc bd bd 03 bb
       -0.11138688 0.010656613 -0.0260585 -0.0020102107
000350 1d 31 22 3d 99 5a 5c 3c 38 95 ae 3d b5 d5 19 bd
       0.03959762 0.013449335 0.08524555 -0.037557323
000360 d8 b9 22 3d 3c 9d 09 3d a6 35 c7 bd dd 22 e2 3d
       0.039728016 0.033597216 -0.097270295 0.11041806
000370 eb 4e 1d bd fe 77 0b 3d 48 be 00 3d 0f 11 08 3c
       -0.03840534 0.03404998 0.031431466 0.008304848
000380 be a0 fa bd ed ef fa bb 13 fc 59 3d 4f e8 ae bd
       -0.122376904 -0.007657996 0.053218912 -0.08540403
000390 9a 9e 0f 3d 41 46 0a be 1e 3c 9f 3d a7 e5 c8 3d
       0.035063364 -0.13503362 0.07775138 0.09809428
0003a0 d0 a1 4f bd cb f2 8d bc 49 3c 9a bc 8c b5 99 bd
       -0.050691426 -0.017327687 -0.018827574 -0.075053304
0003b0 17 83 01 be 28 bb 82 3c 8a 34 a5 3c ff 29 ea bc
       -0.12647663 0.015958384 0.020166654 -0.028584478
0003c0 06 60 27 3d 9c 50 4d bd 66 a2 f0 bd 49 94 ac 3d
       0.04086306 -0.050125703 -0.11749725 0.08426721
0003d0 8b 3d c5 bb a4 19 9d 3d 41 fd f6 bd 2f bf 35 3d
       -0.0060192994 0.07670906 -0.12060023 0.04437178
0003e0 47 12 d8 3d 10 49 8f bd 6f 69 6a bd 33 2a ef bd
       0.10550361 -0.069963574 -0.057229456 -0.11677971
0003f0 c4 4e 3a 3c cb 99 1e 3d dc e1 9a bd 6b 44 03 be
       0.011371318 0.038720887 -0.075626105 -0.12819068

placing_layer.2.bias f4 [5]
000000 91 96 0c 3e 25 8a e1 3d 83 32 03 3d 91 d9 90 3c
       0.13729312 0.11012677 0.032030594 0.017681869
000010 e0 0c cb bd
       -0.09914565
