extra_baseline2/log_res/ablation2/4-1/multi_critic/imitation_learning_v2_env-20250307-174722/bc_ddpg_actor.pth (torch, 159293 bytes, 68 tensors)

fc.0.weight f4 [64, 345]
00000000: 0f54 d3b9 2a98 ec3c b97f 35bd 494a 22bd
00000010: 93de a9bc 9e89 6c3c b5d0 8bba 55d9 2e3d
00000020: 408f 9cbb 2669 693c ee49 85bc 2a63 2dbc
00000030: b4ac 52bd 190c 12bd d2ce b5bc cab3 023b
00000040: 0f5c ae3c 5951 043d 1a80 15bd bf0e c0bc
00000050: b531 a03c 401e 373d 8288 35bc c504 253d
00000060: 6a2d 0ebc 8eac ba3b 3ead 473d 2d92 4cbd
00000070: 94d3 0abd 3050 5fbc 17eb abbc d087 3e3d
00000080: f8ef 0ebd be06 cbbc a710 1abd 1588 4ebd
00000090: 27ba 00bd 438f 3d3d 1ecd c43c dcc2 d53c
000000a0: 978f 393b 7d1d e2bc 3a3c 153c 46e6 4dbd
000000b0: 5857 1fbd e05e e3bc 9d22 0b3d d94b 013d
000000c0: a399 c3bc 309f feba 6609 0d3d 3a3a 5b3d
000000d0: b90a af3c a553 ee3b 41db 133d ead7 01bd
000000e0: 0a5f 243c a8f8 2abd 18d7 18bd d5d5 e3bc
000000f0: 508f c73c ac5e b13c 55a0 02bd f73d 853c
00000100: b61e f23c 3bab debb abb7 063b 1b62 4c3c
00000110: 63ce 083d 41be 533d 59f0 29bd f3a0 a1bc
00000120: 8455 ad3c 75b6 363d 31e6 3f3d 1294 423d
00000130: 388c 2f3c edc2 3fbd 574a a23b 92f5 09bd
00000140: 0384 4dbd 73ee 433d ebac 273d e1f9 5bbd
00000150: 051a 253c 9698 14bc 2b28 11bc e5e3 c9bc
00000160: 089b a93c 919d 02bd aeae a13c eb09 df3c
00000170: 69dd 1d3d 23e9 a43c f441 5abd 2b0d 0fbd
00000180: 1838 dc3c 1f9f 383c 6c06 2cbd faf5 fdbc
00000190: 8774 4f3d 5597 143d 3c4e c0bc e201 5ebc
000001a0: 6f11 52bd ebac 7dba c310 26bd bc19 2abd
000001b0: fe68 42bb d170 043c c89e b4bc 34da 023d
000001c0: 1f32 06bd 2818 483d 881f 173d 38f6 39bd
000001d0: 7f89 5bbc 3b35 1f3b 78b2 003c 3535 513c
000001e0: d913 ad3c 1f59 533b 8232 d7bc 4ab2 d03c
000001f0: e588 53bd 54b4 02bd ebcf 5cbc 71d6 d6bc
00000200: 974a 9abc 75be 34bd 01a2 3bbc 248d 3c3c
00000210: 7ba9 0fbd 7712 35bb 3ddc 1d3d 6b5b b5bb
00000220: e91e c43a 6831 98bb 7e84 323c 5237 0c3d
00000230: 4de3 503d 160b 0c3d a75d 513d e42c 7fbb
00000240: 5519 46bd 9316 d1bc 7027 163d acfa b6b9
00000250: f237 dbbc eefc 28bd 1060 4ebd 291f 3abd
00000260: 53eb 32bc cede f13c 1772 ee3c 7ead 54bd
00000270: a38e 093d 588f 2cbd 597b 3abc a5d4 b2bc
00000280: 2ce7 29bc e130 2dbc 7ce2 45bd 0968 3ebd
00000290: 3707 0abc 3a84 363a c15a c8bc ed23 a63c
000002a0: 637b 46bd 2f1e 6ebb 3fee 413d cee5 b3bc
000002b0: a021 473d a6b9 9f3c 0503 47bd f085 0b3d
000002c0: 5093 cbbb 66e2 c4bc 2d57 303d c033 32bd
000002d0: db4d bd3b 54ae 38bc 1c7a 1d3d ab3a 763c
000002e0: 5aec d33c 12c2 9b3c 7e1e 54bc dc81 39bc
000002f0: 3aba 35bd ecf9 ee3c ca16 2f3d d7e2 163d
00000300: 078d 1bbd 125d 1d3b f473 1bbd 72c9 f2bc
00000310: ba7f 00bd 5cb9 963c 5869 03bd 00f5 99ba
00000320: 3e6e 143b 2f27 0e3d 48b2 26bd f963 17bd
00000330: 560c 00bd a559 1a3d 118a 9ebc d501 3a3d
00000340: fa7b 9f3c c963 df3b d01e d2b9 355f 2ebc
00000350: 0c58 dd3b 5d6b 49bc 4a55 c6b9 8618 e13b
00000360: 2a7e 2cbd 092a e7bc bd11 323d 99f6 32bd
00000370: 4c5b 7dbb ec25 5a3d 2552 9f3c cacb c73a
00000380: 1b1b 3fbd 917b da3c b212 1dbd 7364 7abc
00000390: 19fa 93bc 2aa0 02bc 3f60 1a3a 38e3 353d
000003a0: a53c dc3b ef84 453d 45e5 063d a66a 0bbd
000003b0: 31cf c53c b6e2 1bbd c5ec babc 79b8 813c
000003c0: f4a0 913c f370 253d 83fa 8dbc 8ebf b438
000003d0: 1d0f e33c ac43 55bd bd6e 1f3d 9c5a 36bd
000003e0: 7384 423a 1ff8 15bc fe48 e8bc 122c e93b
000003f0: 675a 363d e2ec 80bc 12ec 02bd 581d a3bc
-0.00040307685 0.028881151 -0.04431126 -0.039621625 -0.020736014 0.014437107 -0.0010667058 0.042687733
-0.004777819 0.014246261 -0.016270604 -0.010582725 -0.051434234 -0.03565607 -0.022193346 0.0019943588
0.021284131 0.03230414 -0.03649912 -0.023444531 0.019554952 0.044706583 -0.011079909 0.04028775
-0.00867782 0.0056968397 0.0487492 -0.04994409 -0.033893183 -0.013629958 -0.020986123 0.04651624
-0.03489682 -0.024783488 -0.037613537 -0.050422747 -0.03142753 0.046279203 0.024023589 0.026093893
0.0028314346 -0.027601952 0.009108597 -0.050268434 -0.038901657 -0.0277552 0.033968557 0.031566475
-0.02387697 -0.0019426104 0.03443279 0.053522326 0.021367418 0.007273155 0.03609777 -0.031700052
0.010032425 -0.041741043 -0.037314504 -0.027811924 0.024360329 0.021651588 -0.031891186 0.016264899
0.02955566 -0.0067953146 0.0020556252 0.012474562 0.03339995 0.051695112 -0.04148898 -0.019730067
0.021158941 0.0446076 0.046850387 0.047504492 0.010714583 -0.046816755 0.0049527097 -0.03368146
-0.050174724 0.047834825 0.04093639 -0.0537051 0.010077004 -0.009069582 -0.008859674 -0.024644801
0.020703807 -0.03188855 0.019736614 0.027226409 0.03854123 0.0201307 -0.053285554 -0.034924667
0.026882216 0.011268406 -0.041998312 -0.03100108 0.05064824 0.036277134 -0.023474805 -0.013550254
-0.051286157 -0.0009676951 -0.04054333 -0.04152845 -0.002966463 0.008083538 -0.022048369 0.031946376
-0.032762643 0.048851162 0.036895305 -0.045400828 -0.013399481 0.0024293202 0.00785505 0.012769033
0.021127628 0.0032249165 -0.026269201 0.02547564 -0.051644225 -0.031910256 -0.013477306 -0.0262253
-0.018834395 -0.044126946 -0.011452199 0.01150826 -0.03507374 -0.0027629414 0.038540114 -0.0055345795
0.0014962825 -0.0046445616 0.010895846 0.034232445 0.05099802 0.03419026 0.051114704 -0.003893667
-0.048364002 -0.02552346 0.036658704 -0.0003490051 -0.026760075 -0.041256838 -0.05038458 -0.045439873
-0.0109203635 0.029525187 0.029107137 -0.051923268 0.033583295 -0.04212889 -0.011381947 -0.021829912
-0.010370057 -0.010570736 -0.048311695 -0.046485934 -0.008424572 0.00069624523 -0.024457337 0.020280803
-0.048457514 -0.0036333909 0.04734635 -0.021960165 0.04861605 0.019497704 -0.048586864 0.03406328
-0.0062126294 -0.024033736 0.043051887 -0.043506384 0.0057771034 -0.011272032 0.03844653 0.015028636
0.025869537 0.019013438 -0.012946723 -0.011322465 -0.044367053 0.029171906 0.042746343 0.036837425
-0.03797629 0.0024011773 -0.03795238 -0.029637072 -0.03137181 0.018398933 -0.032082886 -0.0011745989
0.0022648717 0.034705337 -0.040697366 -0.036960576 -0.031261764 0.037683148 -0.019352945 0.045411903
0.019468296 0.0068173152 -0.00040077278 -0.010642816 0.006754881 -0.012293664 -0.00037829048 0.0068693785
-0.042112507 -0.028218286 0.043473948 -0.043692205 -0.0038659154 0.05325882 0.01944835 0.0015243229
-0.04665671 0.02667025 -0.038347907 -0.015282738 -0.018063592 -0.007972756 0.00058889756 0.044406146
0.0067210966 0.04822248 0.032933492 -0.034037255 0.024146648 -0.038058005 -0.022817979 0.015835034
0.017776944 0.04039092 -0.017331367 8.618749e-05 0.027717168 -0.05206649 0.038923968 -0.044520006
0.0007420249 -0.009153395 -0.028355118 0.0071158493 0.04451981 -0.015737955 -0.031963415 -0.019911453

fc.0.bias f4 [64]
00000000: 37ec 383d 478c b6bc 7a2e 9ebb afcc f7bc
00000010: 410a fabc 2873 e03c 1a9c 253d c18b 233d
00000020: 21b0 f63c 5c04 833c 3db0 863b 96b1 b4bc
00000030: 2018 433d 8527 0fbd d27d adba 96b1 1fbc
00000040: c7a5 47bb 9a34 1dbd 60c9 da3a 8d38 583b
00000050: babb 803c e71a c33c 901a 413d 5400 1fbc
00000060: 2932 ce3c f380 3abd 906a c3bc 2fe8 31bd
00000070: a002 fa3b 5980 3d3d ff75 44bc 79f2 133d
00000080: ff05 92bc f179 3bbd 841c 26bd 1af3 253d
00000090: f30b 113d 4548 00bd 510b 743c 948b a03b
000000a0: a225 09bd 6fc2 b1bc 03e7 0a3d 0536 ea3c
000000b0: 25ae ddbc 7766 26bc 6af2 21bd 4aac 12bd
000000c0: ffb6 40bc ab97 793c 6031 943c 63d2 dbbc
000000d0: 02e9 433d 29ef 283d 0bfe 963b b9f5 36bd
000000e0: f0a7 223d 63ae f9bb efcd 0cbd 2236 0c3d
000000f0: 5c40 39bd 8e23 2ebc 4172 973c a444 86bc
0.045147147 -0.022283686 -0.004827318 -0.030248968 -0.030522468 0.02739866 0.040432073 0.0399282
0.030113282 0.01599329 0.0041103647 -0.022057336 0.04763043 -0.034949798 -0.001323635 -0.00974693
-0.0030463801 -0.038380243 0.0016692095 0.0032992691 0.015714515 0.023816539 0.047144473 -0.009704668
0.025170403 -0.04553313 -0.023854524 -0.04343432 0.0076297075 0.04626498 -0.011991023 0.03611991
-0.017825125 -0.04577059 -0.04055454 0.040515043 0.035411786 -0.03131892 0.014895276 0.0048994515
-0.033483155 -0.021699158 0.033911716 0.028590212 -0.027060578 -0.010156265 -0.039537825 -0.03580884
-0.01176238 0.015233914 0.01808995 -0.026833719 0.047829635 0.041243706 0.004607921 -0.044667933
0.03971094 -0.0076196655 -0.03437608 0.034231313 -0.045227394 -0.010628594 0.018487098 -0.016390152

fc.2.weight f4 [64]
00000000: 0000 803f 0000 803f ec05 823f f3eb 813f
00000010: 628e 813f 0000 803f 82b2 813f 0000 803f
00000020: 0000 803f 0000 803f 0000 803f 0000 803f
00000030: a827 813f 0000 803f b177 813f ada3 813f
00000040: 0000 803f b37b 803f 0000 803f 992f 823f
00000050: 2a99 813f 0263 813f 0ce4 813f b3c5 813f
00000060: 13be 813f 37ec 813f 71d5 813f 68b9 813f
00000070: 0000 803f 0000 803f 0000 803f 0000 803f
00000080: 8bf8 803f 09c0 813f ede9 813f d6be 813f
00000090: 0000 803f 4fc0 813f 0000 803f c346 813f
000000a0: 0000 803f 0000 803f 38b7 813f d1f3 813f
000000b0: a165 813f 088c 813f 0000 803f 0000 803f
000000c0: 3c99 813f c481 813f 0000 803f 53b2 813f
000000d0: 0000 803f bf58 813f 0000 803f 0000 803f
000000e0: 0000 803f dbbe 813f 0000 803f f8ab 813f
000000f0: 6ee6 813f b0da 813f 0000 803f 0000 803f
1.0 1.0 1.0158057 1.0150131 1.0121577 1.0 1.0132601 1.0
1.0 1.0 1.0 1.0 1.0090227 1.0 1.0114652 1.0128075
1.0 1.003775 1.0 1.0170776 1.0124867 1.010834 1.0147719 1.0138458
1.0136131 1.0150212 1.0143262 1.0134706 1.0 1.0 1.0 1.0
1.0075849 1.013673 1.0149513 1.0136364 1.0 1.0136813 1.0 1.009972
1.0 1.0 1.0134039 1.0152532 1.010914 1.0120859 1.0 1.0
1.0124888 1.0117726 1.0 1.0132545 1.0 1.0105208 1.0 1.0
1.0 1.013637 1.0 1.0130606 1.0148447 1.0144863 1.0 1.0

fc.2.bias f4 [64]
00000000: 8b12 893c c1c6 b3bc bda2 233b c2ef 573b
00000010: 0402 603c 5027 89bc a08b 76bc 6d5f 95bc
00000020: 6dd5 a13c 8bdf 5fbc faf7 9dbc d2ba 0e3c
00000030: 8f33 243c 60df 763c 7cd1 65bc fa2d d6bb
00000040: 8ae9 9139 4b3e 4e3c c4c1 9c3c 422e 83bc
00000050: 056b 80bc 89fb 4ebc edb3 9b3c ff0a b7bb
00000060: 8117 93bc e965 823a 0bea 553c 0425 853c
00000070: 2259 b6bb c738 9c3c 2011 8e3c 79f7 993c
00000080: 1ec0 703a f4fe 7fbc 1e77 963c 19e6 773c
00000090: f039 963c 9ba9 7cbc 7160 c43b b535 933c
000000a0: 7eba 5fbc cf60 823c 17b8 733a 809f 9dbc
000000b0: 9b59 43bc 5817 92bc 7264 9ebc 79bd a0bc
000000c0: b6c0 5e3c f599 8f3c 7ff3 62bc c61d 503c
000000d0: 8323 6a3c 4593 6bbb bbe7 af3c fd8b a0bc
000000e0: 8017 933c 61a7 713c bc4c 9b3c 87b7 9a3c
000000f0: 73a6 82bc 7bbf dabb 6bd8 9e3c 0955 713c
0.016732475 -0.02194536 0.0024968826 0.0032949303 0.013672356 -0.016742378 -0.015047938 -0.01823398
0.01975509 -0.013664137 -0.019283284 0.008711534 0.010022058 0.015067905 -0.014026996 -0.0065362426
0.00027830555 0.012588094 0.019135363 -0.016013268 -0.01567603 -0.012633213 0.019006694 -0.0055860276
-0.017955543 0.0009948584 0.0130562885 0.016253002 -0.0055648247 0.019070042 0.01734215 0.018794762
0.0009183901 -0.01562475 0.018367346 0.015130543 0.018338174 -0.0154212965 0.005992942 0.017969945
-0.013655303 0.015915303 0.0009297146 -0.019241095 -0.011923219 -0.017833397 -0.019335005 -0.019621598
0.013595751 0.017529467 -0.013851999 0.012702411 0.014290693 -0.0035945934 0.021472802 -0.019598002
0.017955542 0.014749379 0.018957488 0.01888634 -0.01594851 -0.0066756583 0.019390306 0.014729747

fc.2.running_mean f4 [64]
00000000: 0000 0000 0000 0000 e856 c646 c3f9 f146
00000010: a2a1 a846 0000 0000 9ba2 1c46 0000 0000
00000020: 0000 0000 0000 0000 0000 0000 0000 0000
00000030: a68b c546 0000 0000 6429 0947 f26a cf46
00000040: 0000 0000 bc89 b246 0000 0000 fcdd 9a45
00000050: 5113 a846 733a 5c46 acc2 6947 0a7b d046
00000060: 3312 d046 bca6 de46 700c b545 bf5c 6244
00000070: 0000 0000 0000 0000 0000 0000 0000 0000
00000080: 7130 f546 ed66 e546 a491 4645 e37e ca44
00000090: 0000 0000 38ac 7b46 0000 0000 b868 5846
000000a0: 0000 0000 0000 0000 d61c 2847 fc89 5045
000000b0: 449c 4c46 1861 cf46 0000 0000 0000 0000
000000c0: e03b 0144 9328 a146 0000 0000 a9ea 0646
000000d0: 0000 0000 c047 6c44 0000 0000 0000 0000
000000e0: 0000 0000 374c b645 0000 0000 5187 f345
000000f0: 18ba 3b45 beeb 7045 0000 0000 0000 0000
0.0 0.0 25387.453 30972.88 21584.816 0.0 10024.651 0.0
0.0 0.0 0.0 0.0 25285.824 0.0 35113.39 26549.473
0.0 22852.867 0.0 4955.748 21513.658 14094.612 59842.67 26685.52
26633.1 28499.367 5793.5547 905.44916 0.0 0.0 0.0 0.0
31384.22 29363.463 3177.1025 1619.9652 0.0 16107.055 0.0 13850.18
0.0 0.0 43036.836 3336.624 13095.066 26544.547 0.0 0.0
516.93555 20628.287 0.0 8634.665 0.0 945.1211 0.0 0.0
0.0 5833.527 0.0 7792.9146 3003.6309 3854.734 0.0 0.0

fc.2.running_var f4 [64]
00000000: 52b9 f02c 52b9 f02c 7c83 1145 e86e 3745
00000010: f097 2245 52b9 f02c 381b 0d45 52b9 f02c
00000020: 52b9 f02c 52b9 f02c 52b9 f02c 52b9 f02c
00000030: ec0b 5a45 52b9 f02c d234 e144 c009 3145
00000040: 52b9 f02c 38c1 1f45 52b9 f02c 788c 1745
00000050: a6c8 2a45 8d4e 6145 dda1 9945 e1d5 5145
00000060: 3114 1345 db10 8045 bc9a ee44 048d 5345
00000070: 52b9 f02c 52b9 f02c 52b9 f02c 52b9 f02c
00000080: fc36 3e45 ecc1 2045 0ac9 1a45 a283 0d45
00000090: 52b9 f02c 5171 5445 52b9 f02c 3a3e 2145
000000a0: 52b9 f02c 52b9 f02c 1b31 e744 f4cb 7f45
000000b0: 0b68 3045 b9ab 1b45 52b9 f02c 52b9 f02c
000000c0: 829d 4d45 5ee2 4445 52b9 f02c 5c8f 2d45
000000d0: 52b9 f02c 7d40 6945 52b9 f02c 52b9 f02c
000000e0: 52b9 f02c ab99 d944 52b9 f02c ff49 0b45
000000f0: ef23 4545 2de2 3b45 52b9 f02c 52b9 f02c
6.841785e-12 6.841785e-12 2328.2178 2934.9316 2601.496 6.841785e-12 2257.7012 6.841785e-12
6.841785e-12 6.841785e-12 6.841785e-12 6.841785e-12 3488.745 6.841785e-12 1801.6506 2832.6094
6.841785e-12 2556.0762 6.841785e-12 2424.7793 2732.5405 3604.9094 4916.233 3357.3674
2353.262 4098.107 1908.8354 3384.8135 6.841785e-12 6.841785e-12 6.841785e-12 6.841785e-12
3043.4365 2572.12 2476.565 2264.227 6.841785e-12 3399.0823 6.841785e-12 2579.8892
6.841785e-12 6.841785e-12 1849.5345 4092.747 2822.5027 2490.7327 6.841785e-12 6.841785e-12
3289.8442 3150.148 6.841785e-12 2776.96 6.841785e-12 3732.0305 6.841785e-12 6.841785e-12
6.841785e-12 1740.8021 6.841785e-12 2228.6248 3154.2458 3006.136 6.841785e-12 6.841785e-12

fc.3.weight f4 [64, 64]
00000000: 79ad 77bd 7dd8 a63d 1758 d3bd bab8 2abd
00000010: 5fb3 183c a6fe f13d 2306 73bc 9dff 85bd
00000020: 3b87 03be 0085 363d 20cc 66bb 2567 d33d
00000030: bc56 90bd 1bf8 953c e154 443d 7a80 a8bc
00000040: ef58 993d 7a06 22bd a110 80bc 05d1 4ebd
00000050: 12d0 ae3d e4bd 78bd 4a22 7f3d 28b9 c53c
00000060: 527d 833c 0be0 13bd 43f8 77bd 1e79 f93d
00000070: 329b 6c3d fb93 b83d 5853 393d e454 433d
00000080: ee94 a0bc bd97 c9bd 01cc 2d3c c0a0 d63c
00000090: 2d35 abbd f3f3 c53d 07b4 213c d330 68bd
000000a0: fd78 873d 8299 c73d 7854 40bc 9b2d 1bbd
000000b0: 92ec 853b 651c 3b3d 69a6 1f3c 778f 98bc
000000c0: 1692 f03b 1fad 93bd 0c80 c9bd d962 99bd
000000d0: b9c2 e83d 9f95 81bd 7e45 b53d 48eb 6a3c
000000e0: 3d71 b13d 5783 e8bc f5eb cdbd b4f1 623d
000000f0: d5a0 b53d 5b92 b83d 0e2a cf3d 9868 3bbd
00000100: f060 323d 4370 6c3d 5265 20bd a824 f3bb
00000110: 98ba 9b3d 7b49 423d 3c11 ecbd aaf8 f2bd
00000120: 9b09 e13d 44df d1bc 1516 e1bb a5ad 8d3d
00000130: a8c3 403c 544c 9dbc ca88 b63d bdba a73d
00000140: 697c eb3c 9341 d33d 8625 383d 1400 053e
00000150: 589e 053e 5eea e3bd 127f b4bd 6fd8 93bd
00000160: d437 9cbc 08b7 df3b fc39 cebd 0d7f de3d
00000170: fc6e af3d f8bd b1bd 2e47 f43d 6135 8e3d
00000180: c03f ebbc c52e 8ebd 16ab 0a3d e66c 05be
00000190: 0d22 dcbd 434a a43d 3987 893c 8100 983d
000001a0: 54a7 cebd a31e bcbc 8461 c7bd cddf 3a3d
000001b0: 8958 11bd 1d3a 343d 9a20 d2bd d007 903d
000001c0: cb3c 82bd 257a bebc 02a1 473d 62a6 b93c
000001d0: 46cd 1c3c eb32 f13d ae4a b63c 01cc 20bd
000001e0: 47cc 543d 4b39 f5bd 2726 95bd 5065 d4bd
000001f0: ad09 98bd b195 c3bc 7c7c e13d 784a cf3d
00000200: 6c7f f2bd 4e89 cdbd 76ea e23d fafa 893b
00000210: 2d4d c5bd e830 b3bd 2580 7e3c 5e58 0e3e
00000220: c015 d3bc c64b 333d a9d4 6d3d 963e d7bd
00000230: a06f 55bc a31e efbd 137d da3d 593c e93c
00000240: 5bc9 c23c 3068 45bd 3511 5e3d 4146 54bd
00000250: 7975 c83d 8ac6 c63d 1b99 d4bd 2a64 1ebd
00000260: 7b66 c83d 3660 a93d 7df2 a9bd 9038 b1bd
00000270: 5706 db3d f059 f0bd 6da6 8d3c 5b20 513d
00000280: d2e1 8d3d 7f69 b33c fec6 8f3c 41d0 ca3d
00000290: ee85 c6bd 2470 a3bd 0edf 91bc 1f51 623c
000002a0: 1ab3 a0bd fa73 47bd eaf3 f5bc 2600 263d
000002b0: e6f7 d2bd 3862 dd3d a646 d8bd 609d 9d3c
000002c0: 6fd1 e0bd 72a2 913d d38d b73c c0dd 0a3d
000002d0: e83e f83b a90e e43d 6e3b 3a3d 56b6 c33d
000002e0: bb0a 2d3b 6406 e6bd f098 c1bd a5cc a4bd
000002f0: 9b10 bfbc 9d09 1fbd ed3d 003c eee8 2cbd
00000300: 6cc7 683d e7b2 e23d ef24 6a3c a81d babd
00000310: 7803 2c3d 104c 2d3a 0189 38bd 7102 dabd
00000320: e93b 8f3c b106 aebd 1fda c3bd 55a5 c1bd
00000330: 1ebe 713d 1156 da3c c873 df3d d57a 62bc
00000340: 2d3e 863c 5d0d a13b b74f 86bd 57b3 96bd
00000350: d9e8 39bd fd52 433d 4154 aa3d 2a91 c13d
00000360: 5d53 35bd e322 e4bd 67c3 83bd e3ab eebd
00000370: ff89 f93d 58eb b73d 92b3 c33d 5ef9 8d3b
00000380: 5a18 c33d 36c4 e23c 1146 003c e1d6 9b3d
00000390: 9588 d9bc 6464 babc 6410 b9bd e037 d23d
000003a0: 891d 6e3c d680 6dbd 437b d4bd 2e53 e83c
000003b0: c54f 13bd 56f0 ec3d c4d0 4b3d 2d65 14bd
000003c0: 97ab b93d 23d0 5bbd da5f 5abd f2e7 a7bd
000003d0: 405c 573d 0f25 49bd d4c9 30bc 5e26 79bd
000003e0: 482a ce3d f129 d93d 69f1 383d 7d7a 1fbc
000003f0: 0b51 273d 8749 a8bd f9a7 16bd 61f8 bfbd
-0.06046817 0.081467606 -0.10319536 -0.041680075 0.009320109 0.118161485 -0.014833006 -0.06542895
-0.12844555 0.044560432 -0.0035216883 0.10322408 -0.07047793 0.018306782 0.04793251 -0.020569075
0.07487666 -0.039556958 -0.01563293 -0.050492305 0.0853578 -0.06072797 0.06228856 0.024136141
0.016050968 -0.036102336 -0.060539495 0.121813044 0.057765193 0.090126 0.0452455 0.04768838
-0.019602265 -0.09843395 0.01060772 0.026199698 -0.08359752 0.0966567 0.009869582 -0.056687187
0.066148736 0.09746076 -0.011738889 -0.03788529 0.0040870393 0.045681376 0.009744265 -0.018623097
0.0073416336 -0.072107546 -0.09838876 -0.07489557 0.113652654 -0.06327366 0.08851145 0.014338322
0.086641766 -0.02838294 -0.10054771 0.055406287 0.08868567 0.0901229 0.10115443 -0.045754045
0.043549478 0.05772425 -0.039159127 -0.0074201412 0.07603949 0.047433358 -0.11526725 -0.11863835
0.1098816 -0.025619157 -0.0068690875 0.06917886 0.011765398 -0.019201435 0.08912809 0.081899144
0.028745847 0.10315242 0.04495766 0.12988311 0.13048685 -0.11128686 -0.08813299 -0.07219016
-0.01906959 0.006827239 -0.100696534 0.10864077 0.085660905 -0.08678812 0.11927639 0.06943775
-0.028716922 -0.06942514 0.033854567 -0.13029823 -0.10748682 0.08021977 0.016788112 0.07421971
-0.10090509 -0.022963827 -0.097353965 0.04562359 -0.035484824 0.044000734 -0.102601245 0.0703274
-0.063592516 -0.023251602 0.048737533 0.022662345 0.009570425 0.1177729 0.022252407 -0.039257053
0.051952627 -0.119738184 -0.072826676 -0.10370886 -0.074237205 -0.02387509 0.11010072 0.10121626
-0.1184071 -0.100359544 0.11079876 0.004210827 -0.09633861 -0.087495625 0.015533482 0.13900897
-0.025767207 0.043773435 0.058064137 -0.10509984 -0.013027102 -0.11675765 0.10668387 0.028471159
0.023777654 -0.048195064 0.05421563 -0.05182481 0.09788031 0.09705837 -0.10380765 -0.038669743
0.097851716 0.08270304 -0.08298204 -0.086533666 0.106945686 -0.11735904 0.017291272 0.051056247
0.069278374 0.02190089 0.017550942 0.099030025 -0.09693514 -0.079803735 -0.017806556 0.013813286
-0.07846661 -0.04869459 -0.030023534 0.040527485 -0.10301189 0.10809749 -0.1056035 0.019240081
-0.10977446 0.07111062 0.022406494 0.033902884 0.0075758584 0.11135609 0.045466833 0.09556262
0.00264041 -0.11231688 -0.09452999 -0.08046845 -0.023323348 -0.038827527 0.007827264 -0.042214327
0.05683081 0.11069279 0.014291032 -0.09087688 0.041995496 0.00066107605 -0.045052532 -0.10644997
0.017484622 -0.0849737 -0.09563088 -0.09455363 0.0590192 0.026652368 0.109107554 -0.013823231
0.01638707 0.004914923 -0.06558173 -0.07358425 -0.045388076 0.047686566 0.083168514 0.09451516
-0.044268955 -0.111394666 -0.064337544 -0.116538785 0.12184524 0.08980435 0.09555735 0.0043327054
0.09526129 0.027681451 0.007829205 0.07609344 -0.026554385 -0.022752948 -0.090363294 0.102645636
0.014533409 -0.057984196 -0.10375073 0.028359976 -0.035964746 0.11569278 0.04975964 -0.0362293
0.09065931 -0.05366529 -0.053314067 -0.08198537 0.05257821 -0.049107607 -0.010790307 -0.060827605
0.10066658 0.10603703 0.0451521 -0.009733793 0.040848773 -0.08217149 -0.036781285 -0.093735464

fc.3.bias f4 [64]
00000000: 64f4 dbbd 7208 6b3d e4b7 b6bc 70c5 dbbd
00000010: 8ece 6d3d 2e19 94bc 4639 aa3c 5272 c7bd
00000020: 6527 a33d a5da 053e 6d9d eb3d 9d13 e83d
00000030: be7e cf3b 0f70 cebd f5bc 033d 26e2 43bc
00000040: 2fde c83c f91e f53c 5178 f63c 9aea 1fbb
00000050: fa05 c0bd a5a6 89bd ffb3 eebd 42db 953d
00000060: e437 82bd a9ac 5e3d 705c 9bbd 80fc ba3d
00000070: 108d f5bc d016 f73d 7301 86bc 1887 9cbb
00000080: 49b1 ad3d 56f6 95bc 8588 edbc 6dae 223c
00000090: 58fd 99bd f730 a53c 2fe2 2bbc 161c bebd
000000a0: 1535 f1bc 957b 74bd 6004 b6bd 475c dbbd
000000b0: 115f ae3d 6602 753c 7049 37bd c13b 403d
000000c0: 3b36 bcbc 29b3 8f3d a06b 7f3d 50ca 003e
000000d0: d8b8 3a3c 6e27 8f3d 53a3 7ebd b042 bb3d
000000e0: 1377 e03d c8c1 cd3d 910b f23d 6f2a 7c3d
000000f0: 295f 983d 4add b0bd eb0c 0d3d 4d0d b93d
-0.10739973 0.0573811 -0.022304483 -0.107310176 0.058058314 -0.018078413 0.020779263 -0.09738602
0.07966498 0.13071688 0.11504636 0.11331866 0.0063322475 -0.10079967 0.032162625 -0.011955773
0.024520008 0.029921995 0.030086668 -0.0024401308 -0.0937614 -0.06721238 -0.11655425 0.07317211
-0.063583165 0.05436388 -0.075859904 0.09130192 -0.02997449 0.12064898 -0.016358113 -0.0047768466
0.0848108 -0.018305939 -0.028995762 0.009929282 -0.075190246 0.02016495 -0.010490938 -0.09282701
-0.029444257 -0.05968817 -0.08887553 -0.1071096 0.08514226 0.014954185 -0.04474777 0.046931986
-0.022975078 0.07016594 0.0623585 0.12577176 0.011396609 0.069899425 -0.062167477 0.09143579
0.109602116 0.100467265 0.11818612 0.061563905 0.07440025 -0.086359575 0.034436148 0.0903574

placing_layer.0.weight f4 [4, 64]
00000000: c18a d73c 279d 85bd e257 b8bd 07f3 cf3d
00000010: 0da1 f83d a60f 2b3d 73f2 5bbd a8a4 c4bd
00000020: 3e4c a63c 6b79 e6bc dab4 e9bd 9175 debd
00000030: 732e 10bc 734f c73d 3aac dd3b a545 2ebc
00000040: 6268 e03c 00e3 eb3d 3b7b d63d 8199 93bd
00000050: 1a02 833d d441 bf3c 9cb5 f53d 1d7c be3d
00000060: 7f2f 87bd 9cf8 2ebd a2e8 d83c c280 cb3d
00000070: bc38 b23d e85c 3ebd 6ed2 ed3d a942 4e3d
00000080: 5f41 b73d 6301 913d 8b62 cc3b d148 07bd
00000090: b3cf dd3d b4bb a4bd 4cdf a8bd 96a9 e23d
000000a0: 57f5 9dbd da61 5b3d dc13 1cbd d224 e73b
000000b0: c4ad 1fbb 4613 ef3d 7049 4ebd a7c5 93bd
000000c0: b2ed 353d 0648 21bd 7d52 d4bd 0d27 2abd
000000d0: a414 953d 51b1 22bd fa14 28bd ba4a b3bd
000000e0: 3b1a a4bd 8e75 f43c d555 b1bd 378b 7ebc
000000f0: 5786 213d 567f d4bd 5af6 803d 7c92 3e3c
00000100: 7770 32bd 66ab a8bd 5f4a d23d 0d57 c53d
00000110: ae1d 9a3c 7cbf a0bd f343 4c3d 9704 a3bd
00000120: c229 f6bd 7b1f fb3d 514c 693d 96d1 16bd
00000130: 998e c73d ad80 55bb c80e 203d b22e b939
00000140: 59e6 d03d dcdd c13d fe9f c739 1ad6 853d
00000150: 6006 123d dc28 693d ae72 72bc 62d5 68bd
00000160: 34bc d63d 5193 b03d dc8a febd 3a70 e83c
00000170: a97a e83d 1b66 9e3d 473a a33d 33ea ae3d
00000180: 8f6f d3bd ce2d 97bd 0b5d d83d 305c 4c3c
00000190: a81e 3cbd 097e ee3d a97b 06bd 457a 873d
000001a0: d512 f9bc 69a3 c63d aa40 2e3d d5ea eabd
000001b0: 10e5 263d 22dd 36bd 91ef 183d 7ee6 023d
000001c0: 1747 823d 5b45 91bd 5a1b 903d e386 953d
000001d0: 8dfc e7bd 9761 d03d 8122 3b3c b571 eb3d
000001e0: 9847 33bd 64a2 bebd 32dc 993b fc50 0b3d
000001f0: 4877 f03c 1bd5 65bc 60a5 a8bd a624 38bc
00000200: d760 c13d a7c2 ccbd 91ea b93d d441 2fbc
00000210: a617 47bd fb03 58bd 4630 c43d a376 00be
00000220: 2637 eebd b4df f3bd 41fe e7bd 0e64 113d
00000230: f970 aabd 1e15 ec3b 52c2 5d3d 228a d7bd
00000240: 8e33 693d c9b4 1bbd 71f8 06be de78 0c3d
00000250: 277c d53d fb73 15bd acb6 d1bb d92b 8e3d
00000260: ef9e 88bd ec96 2b3c ef85 9e3b a97c 393c
00000270: 7127 bebb 7536 dbbd dc4e a9bd f2a8 c3bc
00000280: 573b d4bd 3127 70bd dca3 9d3c b1e1 48bc
00000290: bfbe 813c 4a96 94bd 1fea 183d 5e14 01be
000002a0: a208 733d b839 413c b4d4 943d 2d98 6e3d
000002b0: a36f ab3c 8ece 04bd c094 b2bc 8efd 253d
000002c0: 5ee3 d03d 6c4d 563d 1504 6cb9 fed1 b2bd
000002d0: 4c24 373d 718b 7d3d 098f 773d cfd4 01bc
000002e0: 5424 c43d acb5 ab3d 5ebb 29bd 854d ae3d
000002f0: 7a26 7a3d 8410 28bd 6629 403d 2081 b33d
00000300: f162 e73c 34ff 8bbd b7ea e2bc e211 24bc
00000310: 35f0 f9bc 32d1 bbbd 0530 3fbd 5064 083d
00000320: 64e1 863d 6271 0ebd aa38 04bb 4e27 de3d
00000330: f975 e8bd c4ab 0dbd 5804 01be 93f3 a2bc
00000340: afa9 b9bd 84a4 cabd 77af 173d 96bb 8cbd
00000350: 203d 6d3d 4229 9a3d c6d1 0a3d 5e33 b63b
00000360: 381a 253d 7a59 a73d 4339 ddbc 4cc5 b9bd
00000370: 3150 59bc 618c b0bd 045c d33c 73da cfbc
00000380: a52d fabd 6860 06be f24b cabd 8673 4c3d
00000390: cd6a 9fbd e7ee 763d 60c4 843d cb9e d13b
000003a0: 66c7 793d aa0b 063c 9f39 1fbd d5cf 673d
000003b0: cda8 513d dd79 bcbb 624c e4bd 8861 babd
000003c0: 81ec b93d ac40 c6bc cfc6 45bd bbf8 dabd
000003d0: c14e 0e3d eba5 933d d3cb 9cbd 9229 0f3d
000003e0: b02b e8bc 48a8 f6bd 787a c03d 51c7 d6bd
000003f0: 68ef 2b3d 0e9e 57bd c259 a0bd 5cf7 a3bd
0.02631128 -0.06524115 -0.09001137 0.10153776 0.12140093 0.04176297 -0.053698014 -0.09601718
0.020300027 -0.028134068 -0.11411448 -0.10862268 -0.008800137 0.097319506 0.006764916 -0.010636722
0.027393524 0.11517906 0.10472723 -0.07207013 0.06396885 0.023346819 0.1199753 0.093010165
-0.06600856 -0.04271756 0.026478115 0.09936668 0.087022275 -0.04647532 0.11612402 0.05035654
0.089480154 0.070803426 0.006237333 -0.033028428 0.10830631 -0.08043614 -0.082457155 0.11067502
-0.077128105 0.053560115 -0.038104877 0.00705395 -0.0024365047 0.11673598 -0.050363004 -0.072154336
0.044416137 -0.039375328 -0.10367296 -0.041541148 0.072793275 -0.039719883 -0.04103563 -0.08754487
-0.080128156 0.02984121 -0.08658949 -0.015536121 0.039434757 -0.1037585 0.06296988 0.011631604
-0.043564286 -0.08235817 0.102680914 0.09635744 0.01881298 -0.07849023 0.04986949 -0.0795986
-0.120196834 0.12261864 0.056957547 -0.03682097 0.09743995 -0.0032577917 0.039076596 0.0003532074
0.10200185 0.094661444 0.0003807544 0.06534977 0.03565061 0.056923732 -0.01479785 -0.056844123
0.10485116 0.086218484 -0.12428829 0.028373826 0.113515206 0.07734319 0.079701 0.08540764
-0.103240125 -0.073817834 0.105646215 0.012473151 -0.045927674 0.11645133 -0.032832775 0.06615118
-0.030404488 0.09699137 0.042542137 -0.11470572 0.040745795 -0.044644482 0.037337843 0.031958096
0.063612156 -0.07093307 0.07036467 0.07301118 -0.11327467 0.10174864 0.011421801 0.11496297
-0.04376945 -0.09308317 0.004695439 0.03401278 0.029353753 -0.014027859 -0.08234668 -0.011239206
0.09442299 -0.099980645 0.09077943 -0.010696847 -0.048606537 -0.05273817 0.0957952 -0.12545256
-0.116316125 -0.11907902 -0.11327792 0.03549581 -0.08322329 0.007204666 0.054140396 -0.105243936
0.056933932 -0.038014207 -0.1318071 0.034294955 0.10424071 -0.03648756 -0.00639995 0.06941957
-0.06670939 0.010472994 0.0048377435 0.011321225 -0.0058030416 -0.10703746 -0.08266994 -0.02388427
-0.10362881 -0.058631126 0.019243173 -0.01226084 0.015838025 -0.07255228 0.03733265 -0.12605426
0.059334405 0.011793546 0.072671324 0.058250595 0.020927256 -0.03242355 -0.021799445 0.04052501
0.10199617 0.05231993 -0.00022508235 -0.08731459 0.04471235 0.06190056 0.060439143 -0.007924273
0.095772415 0.083842605 -0.041438453 0.085108794 0.06107185 -0.041031376 0.04691448 0.08764863
0.028245421 -0.068357855 -0.027699811 -0.010014029 -0.030510047 -0.0917076 -0.046676654 0.03329879
0.065859586 -0.0347761 -0.0020175376 0.108473405 -0.113506265 -0.034587637 -0.12599313 -0.019891536
-0.09065568 -0.0989466 0.03703257 -0.06871717 0.05791962 0.075274006 0.03389146 0.0055603227
0.040308207 0.08171363 -0.027004844 -0.090708345 -0.013263748 -0.08620525 0.025800712 -0.02537272
-0.12215737 -0.13122714 -0.09877767 0.04991486 -0.077840425 0.06028643 0.06482768 0.0063971034
0.060981177 0.008181492 -0.03887331 0.05659469 0.05118637 -0.005751832 -0.11147381 -0.09100634
0.09078313 -0.02420076 -0.0482853 -0.10691973 0.034743074 0.07209381 -0.07656064 0.034951754
-0.028341144 -0.12043816 0.09398359 -0.10487235 0.041976362 -0.052640967 -0.0782962 -0.080061644

placing_layer.0.bias f4 [4]
00000000: 44b0 a23c bc63 f0bc 431b 103c 4520 0ebd
0.01985944 -0.029344432 0.008795562 -0.034698743

placing_layer.1.weight f4 [4, 64]
00000000: a774 85bd 18cc 0f39 023c c3bd c7df da3d
00000010: 286f 603c 55f3 97bd 4551 fe3d 6c5b c13d
00000020: 0b60 b9bd 1925 b7bd 6f77 a23d e34e 2ebb
00000030: 0a60 8ebd 7927 ea3d 226f 113d 761a ed3d
00000040: 24f0 563d 25e0 7bbd 3943 6d3d 9334 babd
00000050: 21ae e53d 2649 8e3d a412 ebbd 860d a03d
00000060: 4ee5 e4bc 96ba bd3a 860d 89bc 77e5 f53c
00000070: 9cc7 9c3c 682b 31bd 2003 a1bd f103 973d
00000080: fe93 e6bd 41c4 f93d c8fe e63d 9082 353b
00000090: d9c6 d63d ae7c 8e3b 7ce8 e13d 3b1d 8bbd
000000a0: 4b78 c9bb 0d4b c6bd 6857 b53d 345c f23c
000000b0: ecb1 d63d e0c1 e53d aaa6 923d bcf1 6b3c
000000c0: 148c d7bc 7166 063d 3d16 f93d 022a 043e
000000d0: cc8a c93d 207e 95bc e97e d03d 787f debd
000000e0: 76f8 e83c a452 b43d 000a 633b 8d28 c73d
000000f0: 9ab9 84bc 336b bb3d 4edb edbd b2a6 883d
00000100: 05d3 f33c e12c 9b3d 8c03 05bd ddee f1bc
00000110: e647 e43d 941a d73d e6cd 7abd b541 cabd
00000120: 13a5 ff3d ee1e 4b3d 48ab b13d 3f38 eabd
00000130: 8307 713d 147d f0bd 4f25 b4bc f905 e0bc
00000140: 8269 90bd 5ef4 a9bd 5176 a6bd 4554 c5bb
00000150: c36b c4bd 4b76 67bd 5112 68bd 9162 e6bc
00000160: 14c7 b43c f5ff babd 3f99 f43d d3c2 fbbd
00000170: 7e61 6f3d d727 e8bd 6fb7 a3bc 35ee 20bc
00000180: 15ec e63d 0ae5 d9bd df1c 9bbd b885 84bb
00000190: 1c47 f5bd 71a7 a63c 4d45 e53b 75b9 2e3d
000001a0: 199d bbbc 5ae0 243d 301b 513d b3d7 9d3d
000001b0: 0ff7 703d 5170 cf3d 3288 ad3d 4d83 5ebc
000001c0: f946 b33d 3b7e f23c 0533 653d 92f1 babd
000001d0: 8267 8a3d 92d3 d43b 0be9 b6bd a92b 3dbd
000001e0: a5be e6bc 86a2 4bbd 3852 003a fe18 b2bd
000001f0: 7072 a63d 2495 f6bc 4f34 233b a3c3 533d
00000200: 19ef 383d 15c8 f7bd d203 59bd 1bed d4bd
00000210: 3555 f2bd 8da2 a23d 8e10 c83d 3c21 b8bd
00000220: 1744 4bbd a1c7 7f3d 449e ec3d 5372 d93d
00000230: 410c a03d 3b55 debd 41f7 8dbd de1d c93d
00000240: 27ff e1bd 465d 62bd c9f6 c6bd e05b c6bd
00000250: fb31 0b3d 1893 22bd faea edbd 8c33 c6bd
00000260: 4fed d83d f482 d43d a85e 773d 8250 603d
00000270: b47d 98bd 8632 3ebd f7e5 a9bb 06c8 443d
00000280: ded4 9bba 05b7 093d df5b 86bd 063b 3cbd
00000290: 8e18 303d d8ed eebd 24a6 073c 7aa4 e43d
000002a0: 1191 98bd c239 ddbc 48a9 b9bc a524 4dbd
000002b0: 9b19 9b3d 89a8 ef3c 4d71 f63d 1aec 03bd
000002c0: 5632 2d3d 41af 113d b2a1 8dbd 91f0 00be
000002d0: 5e23 903d 1480 a2bd 6b64 32bd 3e46 e2bc
000002e0: 0301 f0bd d9cb a53d 4d98 06bd 49da 8bbd
000002f0: 710e e6bd 3184 7d3c 8220 7bba baaf 9bbc
00000300: 2610 6cbd 9392 033d 10c3 2fbd 29fe 5fbb
00000310: 7193 893d 80d9 8f3c 5c93 d6bd 9002 0ebd
00000320: 7a59 6dbd 223b 61bb 09dc 7b3d b3dc c8bc
00000330: 9dc5 64bd 3041 a1bd 7382 783d dce7 47bd
00000340: 17f1 abbb 01c6 28bd 2011 dbbd f57c 073d
00000350: 5d90 b33d 3cda b4bd 4068 fc3b 8132 c33c
00000360: 7c87 3fbd f388 0cbd 4f4e 88bc d045 633d
00000370: 47c9 b8bc 43df 0fbe 5a59 64bd 3c82 83bd
00000380: f910 bfbc a794 9cbd 36fd 7a3b 14e8 e0bc
00000390: ead9 95bd 574b debc bc15 e6bd 50c3 9fbd
000003a0: d791 4c3d eb4c 56bc 362b 583d 7b07 dc3c
000003b0: 0a24 8b3d 5333 cf3d 7836 ae3d 13a3 32bd
000003c0: f6f1 87bd 1515 b33d 5f81 4a3d cb50 c03d
000003d0: 9010 d73d 6384 953d 569a 70ba fd55 abbc
000003e0: 30c6 a0bd 7198 dc3d 4ae0 9dbd 0e87 643d
000003f0: 7447 dabc e996 a7bd b226 cdbd e2c7 a83c
-0.0651639 0.00013713574 -0.0953293 0.106872134 0.013698377 -0.07419459 0.12417845 0.094412655
-0.09051522 -0.08942623 0.079329364 -0.0026597313 -0.06951912 0.1143331 0.035506375 0.11577313
0.05247511 -0.061493058 0.057925437 -0.09092059 0.11214853 0.06947546 -0.11478165 0.078150794
-0.027941372 0.0014475163 -0.016730081 0.030016644 0.01913815 -0.043254286 -0.07861924 0.07373799
-0.11258696 0.121956356 0.112790644 0.002769623 0.10487146 0.004348359 0.11030671 -0.06792685
-0.0061483732 -0.096822836 0.08854562 0.029584982 0.10483155 0.11218619 0.07160695 0.014400896
-0.026311912 0.03281254 0.12162445 0.1290665 0.098409265 -0.018248618 0.10180456 -0.108641565
0.028438788 0.08804825 0.0034643412 0.09724531 -0.016201783 0.09151306 -0.11614095 0.066724196
0.029763708 0.07576919 -0.032474086 -0.029532844 0.11146526 0.10503116 -0.061231516 -0.09875814
0.12482657 0.049590044 0.086752474 -0.11436509 0.058845054 -0.11742607 -0.021990446 -0.027346598
-0.07051374 -0.082985625 -0.08128036 -0.0060220086 -0.095908664 -0.056509297 -0.056658093 -0.028123172
0.022067584 -0.09130851 0.11943292 -0.12293019 0.058442585 -0.11335724 -0.019984929 -0.009822418
0.11275498 -0.10639389 -0.07573866 -0.004044261 -0.11976454 0.020343514 0.0069967867 0.042657334
-0.022902058 0.04025302 0.05105132 0.07707157 0.058829363 0.101288445 0.08473243 -0.013581109
0.08753771 0.029601207 0.05595686 -0.09128107 0.06758024 0.0064949477 -0.08931168 -0.046184216
-0.028167078 -0.04971554 0.0004895064 -0.08696173 0.08127296 -0.030100413 0.0024903005 0.051700246
0.045149896 -0.120987095 -0.05298216 -0.10396787 -0.11832658 0.0794116 0.097687826 -0.08990714
-0.049625482 0.06244624 0.11553624 0.10617509 0.07814837 -0.108561 -0.069319256 0.0982015
-0.110349946 -0.055264734 -0.09715039 -0.096854925 0.033983212 -0.03969106 -0.11617084 -0.096778005
0.10592138 0.1037654 0.060393006 0.05476428 -0.07445851 -0.0464349 -0.0051848846 0.04804232
-0.0011889001 0.033621807 -0.06560492 -0.045954727 0.042992167 -0.11666459 0.008279357 0.11164184
-0.07449544 -0.02700508 -0.022663727 -0.050083775 0.07573243 0.029255169 0.12033329 -0.032207586
0.042284332 0.035567526 -0.069156066 -0.12591769 0.07037996 -0.07934585 -0.043552797 -0.027621385
-0.11718943 0.080955215 -0.03286009 -0.06828744 -0.11233223 0.015473411 -0.0009579734 -0.019004691
-0.057632588 0.032122206 -0.042910635 -0.003417859 0.06717575 0.017559767 -0.10477325 -0.034670413
-0.05794666 -0.0034367521 0.06148914 -0.0245193 -0.05585252 -0.07873762 0.06067128 -0.048805103
-0.005247246 -0.041204456 -0.10696626 0.033078153 0.087677695 -0.088306874 0.0077028573 0.023827793
-0.046760067 -0.034310292 -0.016638903 0.0554865 -0.022556914 -0.14050011 -0.055749275 -0.064213246
-0.023323523 -0.07645541 0.0038297898 -0.027454413 -0.073169544 -0.027135534 -0.11234614 -0.07800925
0.04994377 -0.013079862 0.052775584 0.026859036 0.06793983 0.10117211 0.08506483 -0.04361255
-0.06637947 0.087442555 0.049439784 0.0939041 0.10501206 0.073006414 -0.0009178271 -0.020915026
-0.07850301 0.107712634 -0.07708795 0.05579286 -0.0266454 -0.08183081 -0.10017146 0.020603124

placing_layer.1.bias f4 [4]
00000000: e4ff 18bd 9cfc 953d 171a 71bd ebdd 16bd
-0.03735341 0.07323572 -0.05886277 -0.03683273

placing_layer.2.weight f4 [4, 64]
00000000: a66d 463d 0e43 053e 3d8b c1bd 48c8 6ebd
00000010: adfc 74bd e725 493d 3691 f03d c6ce 0e3d
00000020: 377c ec3c 20a3 c73d acfc a4bd 5756 0a3e
00000030: 91f5 0a3e df75 97bd cdac f13b a3db 8b3d
00000040: bc34 8abd 13c6 42bd 89a7 d23d 4bff df3d
00000050: 6256 a8bd fae1 8b3d 1c71 53bd ba5f 80bb
00000060: f661 e3bd cc1c bbbd 9290 bb3a d94d 94bd
00000070: a65d 55bd 7e51 9a3d 2c67 b43d 730e a0bd
00000080: b319 d13d c409 0b3e 2452 72bc d34e 813d
00000090: d42b 24bb 2673 a13b e5d0 86bc 15a0 3a3d
000000a0: f41a 043e 93d7 ccbc e44f e3bc d41f 083e
000000b0: b11b dc3d ad31 8ebd 97f1 013e e9f5 1bbc
000000c0: 7616 483d 83f9 f53c 142b efba cf14 7dbd
000000d0: 6e71 973c b9e3 97bd c305 45bc ae83 b23d
000000e0: 8209 db3d 3d60 8bbd 5bfb 8e3d b343 173c
000000f0: 1dff d73d 5a75 d03d e36a c5bc d048 a43d
00000100: 67af 083d b759 443d 4884 aabd aa8b 7f3c
00000110: 6ab2 dfbd 2e38 7d3d a8b6 16bd 7dd7 3a3d
00000120: 6520 b53d b134 433c a9df d1bd fa99 c2bd
00000130: 0ffd 713c 0a20 febd ec45 853d cc8f 17bd
00000140: 4d4f d1bd b87f 9c3d eaa8 373c 40b4 df3d
00000150: 9051 b338 51f5 313d da7e 873d 33a2 653d
00000160: ae92 77bd 6c51 dabd c1ee 3abc 0169 e23d
00000170: b284 963d 0a96 3ebd 26f8 49bd 511e aa3d
00000180: 188e 993d 8210 563d 60f1 e4bd 5154 f4bd
00000190: 0cae a73d 69ed d23d 3d43 da3d bd20 753d
000001a0: 1426 52bd 43b0 8dbc a0f6 dc3d a46a 28bc
000001b0: c5cb 9cbd 5a08 4d3d 5822 b6bd 8548 f83c
000001c0: 369c 7cbd ebb1 d6bc 9d6f 593d 1013 83bd
000001d0: 8c35 aabb f9d6 e2bd ab70 843c fa6c 3ebd
000001e0: 2985 303d fced be3d b7c6 aabd 147a e83d
000001f0: db9a 3f3d 9ec5 dc3d a098 a83b 9d58 a1bd
00000200: 075b a1bd 108a fc3d af31 54bd 92dd 71bd
00000210: 5b2f b5bc 7b48 d6bd 60ca a73c f305 a73c
00000220: c63a 2d3d 6dfd 883c daaa 50bd 3522 023e
00000230: c935 15bd 24d5 b8bd 5e43 e93d 084e a4bd
00000240: 7835 90bd d7f0 c8bd b5fb b93d 51ba 4b3d
00000250: aa11 e83d 9893 c93d 0ee6 5cbd 1734 423d
00000260: ad3c f53c de8c be3d 5aa6 10bd bb8c 003e
00000270: c0f7 a6bb de3f 54bd 2ae3 0b3c fca8 a53d
00000280: fe12 203d 3106 f53d 4316 723d 7d02 063e
00000290: 14fd 733d 6128 d7bd 7ce1 493c 46f9 70bc
000002a0: af0f 003e 5fe6 053e bca0 613d f5d7 1fbd
000002b0: 1296 babc 137c 70bd 3ca7 b3bd fb0d 2fbd
000002c0: e998 f13d 9541 923d 7bff 323d 78a1 033e
000002d0: db0c bdbc fc9b 093e 0d84 63bd 44bd 293d
000002e0: 5040 60bc 7005 9b3d e592 733d a18e a73d
000002f0: a641 393d f3f7 a1bd d9dc ba3d 36ab 4e3d
00000300: 0e18 2c3d d02d edbd fe84 02be f982 6f3d
00000310: d1a7 913d 2216 92bd beb2 68bd 0453 e73c
00000320: 8172 1cbd 96f6 d7bd 4da7 f4bd 7768 af3c
00000330: 5bb4 c03d 242f d23d 11d0 a9bd c495 af3d
00000340: ea41 84bc 9ad9 be3c 32df f3bd 299f 10bd
00000350: a429 b8bc 091d 2a3a 56b2 5d3c 0c6b 1abc
00000360: dcf1 afbc db9e 00ba 0e85 afbd 4f6c 9b3d
00000370: cd0e b4bd 0558 533c 347e debd a805 7f3c
00000380: 59a8 bc3d 3f80 e0bd 0af8 5e3d d055 733d
00000390: c3b5 863d 3d9c d13d 8a89 d2bd 0295 de3d
000003a0: 8cfe 8dbd 13cb 1bbd 9e1f f73c 9946 b9bd
000003b0: f267 15bd 40f0 d63d f866 15bc 5685 b5bd
000003c0: 35dc 8cbd 646d e13c 40df 36bd 1b7e a3bd
000003d0: 401d db3c f04d 603c 1a8b 843d 10fe 90bc
000003e0: d354 3c3d 5237 56bd 20de 6a3d 40a1 bebc
000003f0: 330b c63d 35aa 34bd 8b2e 01be 2b04 07bc
0.048444413 0.1301386 -0.09450386 -0.05829647 -0.059811283 0.049108412 0.11746447 0.034865163
0.028867824 0.097479105 -0.08056006 0.13509499 0.13570239 -0.07395529 0.007375336 0.06829002
-0.067483395 -0.04755218 0.10285861 0.10937365 -0.08219601 0.06830211 -0.05162154 -0.0039176615
-0.11102669 -0.09136352 0.0014310053 -0.07241411 -0.052091263 0.07535075 0.08808741 -0.07815256
0.1020998 0.13577944 -0.014790092 0.06313863 -0.0025050538 0.004927057 -0.01645703 0.045562822
0.12900907 -0.025005138 -0.027748056 0.13293391 0.10747469 -0.06943069 0.12689815 -0.009519079
0.048849545 0.030026203 -0.0018247091 -0.061787423 0.018486705 -0.074164815 -0.0120252995 0.08716522
0.10695173 -0.06805465 0.06981536 0.009232449 0.10546706 0.10178633 -0.02409882 0.080217004
0.0333704 0.04793712 -0.08326012 0.015597263 -0.10922702 0.061821155 -0.03679529 0.045615662
0.088440694 0.011914418 -0.10247738 -0.09502025 0.0147698065 -0.12408455 0.06507477 -0.03700237
-0.102202035 0.07641548 0.011209706 0.10923052 8.550577e-05 0.043446843 0.06615992 0.05606289
-0.06044262 -0.10660061 -0.011409462 0.11055184 0.07349528 -0.046529807 -0.04930892 0.08306564
0.07497805 0.052261837 -0.11178851 -0.119301446 0.08187494 0.10299189 0.10657356 0.059845675
-0.051305845 -0.017295962 0.107892275 -0.010279331 -0.076560535 0.050056793 -0.08893269 0.030308018
-0.06167241 -0.026207885 0.05308496 -0.0640012 -0.0051943716 -0.11076159 0.016167006 -0.046490647
0.04309574 0.09322736 -0.08338683 0.113514096 0.04677854 0.1077988 0.0051451474 -0.0787823
-0.0787869 0.12331021 -0.051805194 -0.059049197 -0.022117307 -0.10463043 0.020482242 0.020388579
0.04229238 0.016722405 -0.050944187 0.12708361 -0.036428247 -0.09025028 0.113898024 -0.08022696
-0.07041448 -0.098115616 0.090812124 0.049738232 0.11331494 0.098426044 -0.053930335 0.047412958
0.029936159 0.09304212 -0.035314895 0.12553684 -0.005095452 -0.05181872 0.008538047 0.08088872
0.039080612 0.119640715 0.05910326 0.13086887 0.059567526 -0.105057485 0.012321826 -0.014707869
0.12505983 0.13076161 0.05508493 -0.039024312 -0.022776637 -0.058712076 -0.08772132 -0.042737942
0.117967434 0.07141415 0.043700676 0.12854564 -0.023077419 0.1343841 -0.055545855 0.041440263
-0.013687208 0.075693965 0.05946626 0.08181501 0.045228623 -0.07908621 0.091241546 0.05045625
0.042015128 -0.11581004 -0.12746045 0.058474515 0.071120866 -0.07133128 -0.056811087 0.028237827
-0.038195137 -0.105450794 -0.119459726 0.021412117 0.094094 0.102628976 -0.08291639 0.085734874
-0.016144712 0.02329712 -0.119078055 -0.035308037 -0.022480793 0.0006489312 0.013531288 -0.009424936
-0.021477632 -0.0004906484 -0.085703 0.075890176 -0.087918855 0.012899403 -0.10863915 0.015565313
0.09211797 -0.10961961 0.054435767 0.05940801 0.06577637 0.10234878 -0.1028014 0.10868265
-0.069333166 -0.038035464 0.030166443 -0.090466686 -0.036476083 0.10495043 -0.009118788 -0.088633224
-0.06877939 0.027517982 -0.0446465 -0.07983037 0.026747346 0.013690457 0.06471844 -0.017699271
0.045979332 -0.05229885 0.05734074 -0.02327025 0.09670105 -0.044107635 -0.12615411 -0.00824074

placing_layer.2.bias f4 [4]
00000000: 4b8d 6d3d 698d d03d 82a5 bcbd 75fb 1f3c
0.057996076 0.10183222 -0.092112556 0.009764542

placing_layer.3.weight f4 [4, 64]
00000000: 1ee9 c53d 2c45 a9bc 787b 22bc c91c 403d
00000010: 2958 cd3d 8efb eb3d aafd fa3d 915c e23c
00000020: 895d b83d 66bf 1cbd f66a 55bd 0235 eb3d
00000030: 566f a3bd 79b8 0e3e f051 283d b145 303d
00000040: dd8d 51bc 4a57 14bd 7685 15ba d332 c33d
00000050: 5306 94bd 51d2 45bd 971a b4bd 1c83 443d
00000060: d19a 9a3d 8362 2b3c 1b58 023e 7677 5f3d
00000070: 6440 1d3b 1458 0cbd 6e1e a93b 4bb8 a53d
00000080: a1e6 203d a49a d0bd 1067 a7bd cc2e f13d
00000090: 2ef6 89bc e278 a6bd a186 0f3c cd01 a73d
000000a0: 3ec4 b8bd 675b a13c f948 d0bd 24ec 1d3d
000000b0: ae0e 0c3e 46c5 393c 0438 a9bd b1c5 593d
000000c0: 1e8f bebd 2ed7 093d d3ed 37bc 7702 b93d
000000d0: c0a8 b93d 7e1d c5bc b8bb ea3d 8e2e 213d
000000e0: e0b7 e23d ab22 6cbd a5a3 a43d fc46 9d3d
000000f0: e011 acbd f402 93bd 2c29 093e c015 903d
00000100: 3d7a 9ebd 5048 c03d 7744 8dbd 45f6 0e3d
00000110: 81ed cfbd 7620 1fbd 0216 373d 0243 31bc
00000120: 014c 8f3d 99af 263d ca6e 123d b2ef 6a3d
00000130: ba00 463d a764 d3bd 233b b13d e366 7fbd
00000140: 9dac fdbb 8df2 d9ba d67e 81bd 4651 a8bd
00000150: a6b8 033e 5eae 9cbc b640 743d d838 73bc
00000160: 91bd b0bd 8a7b 5cbd f0b9 a93d 1788 223c
00000170: 35eb 6bbd b67c a23d 9e5c 9d3d e545 4e3c
00000180: dd1d 173d 7885 f1bc 074c 0dbd a241 9dbd
00000190: 8672 96bd 7755 eb3d 1fe3 493d 5b61 013e
000001a0: ce68 00bc 01db 753c 1cf5 cb3c 7ae3 a6bd
000001b0: ce16 053e 1bac d93c 606a 053e 061f 14bc
000001c0: dfa1 b13d f419 093e f7f5 093e bf79 0a3e
000001d0: 698b ae3d 3ab7 533c 6522 043c cd7a 85bd
000001e0: e9d4 b93d 4a3e 9bbc 7ba4 ec3d dde2 9fbd
000001f0: cb01 b9bd a72c d73c c5b4 8dbd bf13 0b3e
00000200: 1571 ce3d 5f28 adbc c6c5 0e3d ff28 e33d
00000210: dfb2 d3bd 1457 d63d e5ae 923d 4eaa b83d
00000220: 807b 0cbb 9f68 d4bd 9e40 b0bd 80e3 023e
00000230: 0c03 0e3d 78a5 9d3d 9561 a23d bd5b 2bbd
00000240: 25aa a0bd 97ac 60bd ac75 a9bd 5a72 283d
00000250: df05 553d a363 e6bd 4c85 8a3d 074b 8abd
00000260: 2152 3dbd d610 b13d 224f a93d 1602 0c3e
00000270: cc01 cb3d 3a78 98bd 43de ed3b d0fe 9dbd
00000280: 9df6 92bd baa7 a73d 18d7 31b9 306f 3c3d
00000290: b6e7 adbd 42c0 60bd f132 01ba 4f5f 4cbc
000002a0: 35f4 853d 453c dcbd 3657 d33d c741 923c
000002b0: 4e05 f93d 4032 e93d ca01 b6bd 07eb aabd
000002c0: eb8b c0bd 6fc5 a5bd 6e13 ad3d 6fc6 c13d
000002d0: 5bc7 ddbd bc24 ca3d ae78 2c3d 2193 85bd
000002e0: e0fb ca3d 9bc1 d93d 1a31 35bd a529 723d
000002f0: 65e7 e3bd 3f39 fd3d 8efd d6bc 814a c4bd
00000300: b1ec 873d 0565 a4bd faee 313d 1b7f 47bd
00000310: 4542 883d 064d ad3d 8272 7d3d 94da 203d
00000320: 7826 273d f3cf 253d 30c6 a73d cc17 36bd
00000330: 229e ae3d e83c b5bd f338 f13c 6047 b33c
00000340: 5326 6a3d 0a9c 32bc e12d d1bd 1067 85bb
00000350: e248 313d a233 c23d 2261 b7bd f527 5f3d
00000360: 7e45 c43b e610 d43d b32e 22bd 4f1d 6e3d
00000370: 982d d73c 7b32 9e3d 6477 08be 749f 46bc
00000380: f75a 393c 4a50 ea3c fc4d b33c 0d61 69bd
00000390: 1290 cabd 0767 0abe 5c7f 9f3d 43e2 4bbc
000003a0: 63e3 f6bd 5fd9 243d 2233 aebd e19e fdbd
000003b0: 8a19 08bc 7ae9 853d 38ee 02be 4133 123d
000003c0: 9633 dabd 782e 403b 9fff 5fbd 9bf5 11bd
000003d0: c061 6a3d 6fc2 aabc 192f babd 40c7 813d
000003e0: d4a9 e2bd f6a1 d8bc d8bb b33d e0d4 cf3d
000003f0: b0b8 f6bd defa 33bd 51bf 923d ab0d 5d3d
0.09663604 -0.020662867 -0.009917133 0.04690245 0.10026581 0.115225896 0.12255414 0.02763203
0.090022154 -0.03826847 -0.05210396 0.1148472 -0.0798022 0.13937558 0.041093767 0.043035213
-0.0127901705 -0.036216058 -0.0005703786 0.09531178 -0.07227769 -0.048296276 -0.08794134 0.0479766
0.0754906 0.010460499 0.12728922 0.054557286 0.0023994679 -0.034263685 0.005161098 0.08091792
0.039282445 -0.10185745 -0.081739545 0.11776504 -0.01684102 -0.08128525 0.008760125 0.0815464
-0.09021805 0.019696904 -0.101701684 0.03855528 0.13677475 0.011338538 -0.08262637 0.05316705
-0.09304641 0.033652477 -0.011226135 0.09033673 0.0906539 -0.024061915 0.11461586 0.03935104
0.110702276 -0.05765025 0.08039025 0.07679555 -0.08401847 -0.07178298 0.13394612 0.070353985
-0.07738159 0.093887925 -0.06897824 0.03490283 -0.10152722 -0.038849317 0.044698723 -0.010819199
0.069969185 0.040694807 0.035750188 0.057357498 0.048340537 -0.10321932 0.086538576 -0.06235398
-0.0077415244 -0.0016628072 -0.0632302 -0.08218627 0.12863407 -0.019126114 0.059632026 -0.014845096
-0.08629907 -0.053828754 0.08287418 0.009920142 -0.057597358 0.07933943 0.07683681 0.012589906
0.036893714 -0.029482588 -0.034496333 -0.07678534 -0.07346062 0.114909105 0.049288865 0.12634794
-0.007837487 0.015005828 0.02489715 -0.081488565 0.1299698 0.026571324 0.1302886 -0.0090406
0.086734526 0.13388807 0.13472734 0.13523005 0.08522684 0.012922103 0.008064841 -0.06517563
0.090738125 -0.0189506 0.1155481 -0.078069426 -0.09033545 0.02626641 -0.06919245 0.13581751
0.100801624 -0.021137415 0.03485658 0.11091804 -0.10336851 0.104658276 0.07162265 0.09016858
-0.0021435916 -0.103715174 -0.08606075 0.12782097 0.034670874 0.07697576 0.079287685 -0.041835535
-0.078449525 -0.054852095 -0.08274397 0.04112468 0.052007552 -0.11249473 0.067637056 -0.067525916
-0.046220902 0.08645789 0.082670465 0.1367267 0.09912452 -0.074448064 0.0072591617 -0.07714617
-0.07175944 0.08186288 -0.00016960164 0.046004474 -0.08491461 -0.05487085 -0.00049285503 -0.012473895
0.065407194 -0.10753683 0.103193685 0.01785363 0.12159215 0.113865376 -0.0888706 -0.08345609
-0.09401687 -0.08094298 0.084509715 0.09461676 -0.1082904 0.09870288 0.042107277 -0.06522203
0.099113226 0.106326304 -0.04423628 0.059121747 -0.111281194 0.123644345 -0.026243951 -0.09584523
0.06636942 -0.080270804 0.043440796 -0.0487052 0.06653265 0.08461957 0.06187678 0.039270952
0.04080817 0.04048152 0.08192098 -0.04445629 0.08526255 -0.088495076 0.0294461 0.02188462
0.057165455 -0.01090146 -0.10213829 -0.004071124 0.043282397 0.094825044 -0.089540735 0.054481465
0.0059897294 0.103547856 -0.039595317 0.05813342 0.026266858 0.07724472 -0.13326794 -0.0121229775
0.011313192 0.028602738 0.021887772 -0.05697732 -0.098907605 -0.13515864 0.07787964 -0.012444082
-0.12055089 0.040246364 -0.085058466 -0.12383819 -0.00830687 0.06538673 -0.12786186 0.03569341
-0.106543705 0.0029324573 -0.05468714 -0.03563462 0.057222128 -0.020844666 -0.090910144 0.06336832
-0.110675484 -0.026444416 0.08776063 0.101480246 -0.12046945 -0.043940417 0.07165397 0.053968113

placing_layer.3.bias f4 [4]
00000000: 37ac 5cbd 64c7 68bc 0a69 a2bc 4b3d 523d
-0.053875174 -0.014207695 -0.019825477 0.051327985
