auto_src/log_res/temp/4exp_1/imitation_learning_env-20250102-211606/bc_ddpg_actor.pth (torch, 688366 bytes, 248 tensors)

fc.0.weight f4 [64, 1585]
000000 64 80 2a 3b 0a 18 83 b8 0e 0b e9 bc d5 c1 8e bc
       0.0026016468 -6.2510444e-05 -0.028447654 -0.01742641
000010 7a 0b c3 bc 22 e7 d1 3c a7 1a d7 3b 07 b4 58 ba
       -0.023809183 0.025622908 0.0065644565 -0.0008266572
000020 f6 dd 83 bb 5b bb 82 3c b5 1a 86 3b 0e 74 74 bb
       -0.0040242625 0.015958479 0.004092539 -0.003730062
000030 07 4c c1 bc 8c b6 b3 bc 34 22 ec bc a8 16 7a ba
       -0.023595823 -0.021937631 -0.028824903 -0.0009540119
000040 9c 68 0f 3c ee a3 1d 3c 3a 3e 81 bc 28 71 1c bc
       0.008752968 0.009621603 -0.015776742 -0.009548463
000050 45 82 f1 3c a6 fb f9 ba 7c 7a 98 bc 9c e8 19 3c
       0.029481063 -0.001907219 -0.018613093 0.009393837
000060 07 77 6e bc af 0f b1 3b c9 84 0c 3d 80 e5 10 bc
       -0.0145547455 0.005403481 0.03430632 -0.00884378
000070 f2 ea c6 bc e4 92 a4 bb 5d 64 e0 bb c1 d6 05 3d
       -0.024281953 -0.0050223935 -0.0068479017 0.03267551
000080 79 bc 82 bc db cf ef 39 3f d5 14 bc 6c 9e 03 bd
       -0.015959011 0.00045740497 -0.009084045 -0.032133505
000090 9e 29 ff bb 40 29 73 3c 09 ca 2a bc c4 53 17 3a
       -0.0077869436 0.014841378 -0.0104241455 0.0005772675
0000a0 eb 3b 8b bb eb f4 85 bc 66 8f 34 bc 14 e2 2c bd
       -0.004249086 -0.016352138 -0.011020517 -0.042207792
0000b0 bd ce eb bb dc dc c1 bc 5f f2 14 3b f5 d0 2b 3c
       -0.007196276 -0.023664884 0.0022727472 0.010486831
0000c0 d5 7f 5d bc f5 28 30 3c 1c d5 d5 3c 83 42 31 3d
       -0.013519247 0.010751952 0.026102595 0.04327632
0000d0 80 fe 38 3c 55 ba cd bb 40 8a bf 3c e3 3d 32 bc
       0.011291146 -0.006278316 0.023381352 -0.010879013
0000e0 e7 e3 07 bb ec 0b cd bc a9 06 e5 bc 60 8f 45 bc
       -0.0020735206 -0.025030099 -0.027957277 -0.012058109
0000f0 2a d1 b9 3b 72 6d 92 3c f6 5a f2 bc 32 59 a9 bb
       0.0056706863 0.017874453 -0.02958439 -0.0051681036
000100 f3 fd 86 3c 00 d7 d9 bb 9d 25 b9 3b c4 d7 ef 3a
       0.016478514 -0.0066479445 0.005650236 0.0018298556
000110 68 ad 77 3c a4 52 6c 3c 6c 10 36 bc 54 f9 9f bb
       0.015117027 0.014424 -0.011112314 -0.004882017
000120 11 65 d9 3b 7e 53 ad 3c 90 7c 03 3d da b8 76 3c
       0.0066343625 0.021157976 0.032101214 0.0150587205
000130 4e fc 54 3c 7e e6 9a bc d9 14 52 3c db e3 ba bc
       0.012999607 -0.018908735 0.012822353 -0.022813728
000140 14 37 b0 bc df 7b d2 3c 94 70 e1 3b b7 f6 cf bc
       -0.021510638 0.025693832 0.0068798754 -0.025386197
000150 fd 8d 04 bb 74 f6 59 3a 40 58 35 bc 4d 04 96 ba
       -0.0020226233 0.00083146174 -0.011068404 -0.0011445374
000160 d3 1d af bb 68 79 73 bb 39 23 ec 3c a2 fc e2 3c
       -0.0053441315 -0.0037151221 0.02882539 0.027708355
000170 1d 2d 46 3c 07 e1 81 3c ca e5 9d bc 6b 78 b0 3b
       0.012095717 0.015854372 -0.019274611 0.0053854487
000180 14 d6 df 3b 07 c2 d9 3b ec 73 c9 bc 1e f9 5f bc
       0.00683094 0.0066454443 -0.024591409 -0.013670234
000190 84 fa 96 3b 04 6b bc 3c c0 fc 7e 3b c4 3b 1a bb
       0.0046075005 0.023000248 0.0038907975 -0.0023534158
0001a0 91 bf a6 bc 03 f8 ca ba 7c 02 7a bc c2 93 ab bb
       -0.020355018 -0.001548529 -0.015259381 -0.00523612
0001b0 e5 ba ac bb cf 73 29 ba 43 de de 3b 19 c6 35 3c
       -0.005271303 -0.0006464095 0.006801398 0.011094593
0001c0 c5 52 2a 3c 36 d0 a9 3c 1b 98 7c 3c 07 88 86 bc
       0.01039571 0.020729166 0.015417124 -0.016422285
0001d0 68 49 64 bc 7d 89 28 bc 1f 8e 56 bb 84 45 f1 3b
       -0.013933517 -0.010286686 -0.003273852 0.0073630232
0001e0 cc fa 74 3c 9c 2b 0e 3c c4 65 c8 bc 22 cc 15 3c
       0.014952373 0.0086773895 -0.024462588 0.009142907
0001f0 2e 97 b5 bc 16 a1 9f bc 44 fb 2c bb 7c 88 0e bc
       -0.022166815 -0.019485991 -0.0026394883 -0.008699533
000200 68 64 b3 bb e5 36 32 3b e3 95 2c bc d9 7b 8a 3b
       -0.005474616 0.0027193364 -0.010533783 0.0042261896
000210 f0 3a 25 bc 32 36 9e 3b 9a 01 a0 3c 31 b9 11 bc
       -0.010084853 0.004828238 0.019532014 -0.008894251
000220 b8 53 a2 bb a4 83 01 bb 34 02 99 3a e6 fa bf 3c
       -0.0049538277 -0.0019762302 0.001167363 0.023435067
000230 21 78 ce 3c bb 24 97 3c b3 ed 9a 3b 8f 1d b1 3a
       0.025203766 0.018450132 0.004728043 0.0013512837
000240 05 36 8a bc 13 41 28 bb 03 7d b4 3c 03 be 44 3c
       -0.016871462 -0.0025673553 0.022032266 0.012008193
000250 fd af 9d ba 26 39 53 bc 39 23 ed bc a9 6a 78 bc
       -0.0012030598 -0.012892043 -0.02894746 -0.0151621485
000260 29 97 b3 bb e9 7c 8c 3c 4d bf 14 3c fe c3 03 bd
       -0.005480666 0.017149406 0.009078813 -0.032169335
000270 1e cb fa 3c 94 69 85 bc e7 7b 49 bc 6a 18 8b bc
       0.030614432 -0.016285695 -0.012297607 -0.016979415
000280 ca cc 0b bc 45 da 4c bc e0 dc d2 bb 46 b0 46 bd
       -0.008532712 -0.012503211 -0.0064350218 -0.04850795
000290 a4 a1 38 bc bf 56 00 bc 9e 17 20 3c fe 1a 31 3c
       -0.011269007 -0.007833182 0.009771256 0.010809658
0002a0 21 ab df 39 f0 65 7f bc 3b a8 10 3d 05 b8 33 bc
       0.00042661375 -0.015588269 0.035316687 -0.010969167
0002b0 a9 8e d2 3c 2f 2a 02 3d 6d 33 3f bc 77 7a b2 3c
       0.025702791 0.03177851 -0.011669976 0.021786911
0002c0 b2 8d 88 bc 6c de cf bc 66 f4 05 3a 1e ce eb bc
       -0.016669128 -0.025374614 0.00051099656 -0.028784808
0002d0 50 36 33 3b 7a 07 23 bc 12 c3 0c 3b 98 a3 e4 b9
       0.0027345605 -0.009950513 0.0021478576 -0.00043609436
0002e0 07 6a 8f 3c bb 40 31 3c a1 04 e2 bb 2b be 6a bc
       0.017506612 0.010818656 -0.0068975245 -0.014327566
0002f0 f3 c6 db b9 b6 71 87 3c 18 3d e4 3c 8b 8e 80 3c
       -0.00041919164 0.016533714 0.027861163 0.01569297
000300 e5 d8 73 bc f2 92 11 bc 17 72 96 bb 81 18 a3 bc
       -0.014883255 -0.008885132 -0.0045912373 -0.019909145
000310 bc 50 3a bc 86 65 b5 bb 31 f5 48 bc b0 2c 9f 3b
       -0.011371788 -0.005535784 -0.012265489 0.004857622
000320 c0 17 e3 bc 35 56 82 3c 0b 12 0a bc cb b3 e3 bb
       -0.027721286 0.015910247 -0.008427153 -0.006948923
000330 bb c1 c1 bc 5b 7f bb 3c 88 a9 73 bc d8 03 88 3c
       -0.023651948 0.022887876 -0.014871962 0.016603395
000340 08 9c a4 3c 99 4d 16 bc 54 af c9 bb b3 4f fd bb
       0.020093933 -0.009173774 -0.006154934 -0.007730448
000350 c9 46 57 bb 85 e7 2c bb d6 62 af bb 7f da 9e ba
       -0.0032848588 -0.0026383114 -0.0053523583 -0.001211956
000360 7b 0a 40 bc 8f db 50 bc d4 4f 02 3d 3e 0b c3 bc
       -0.011721249 -0.012747659 0.03181441 -0.023809072
000370 9c 56 64 3b 18 fb 95 3c 4f ba b6 bc a8 51 90 bb
       0.0034841662 0.018308207 -0.022305636 -0.0044042654
000380 34 e2 bc bc 34 b3 67 3c b3 40 bf bc 8b e6 c4 bc
       -0.02305708 0.014141846 -0.02334628 -0.024035713
000390 6d 1a 8f bc 4d be 83 bc a8 53 64 bc 82 e8 0a 3d
       -0.017468655 -0.016081953 -0.013935961 0.033913143
0003a0 f1 10 88 bb 77 54 a3 3c 15 46 95 3c a3 ec a7 bc
       -0.00415241 0.019937737 0.018221894 -0.02049858
0003b0 f3 ca 2d 3c 77 1a c2 bc 20 4c 0a bd ac 51 cc 3b
       0.010607469 -0.02369426 -0.033764005 0.006235322
0003c0 f4 f3 01 3b 85 9e 8f 3c 6f 2b 79 bb 0b 6f 93 bc
       0.0019829245 0.017531643 -0.0038020273 -0.017997285
0003d0 47 03 d2 3c c0 44 28 bd de b6 b5 3c 00 40 10 bd
       0.025636328 -0.04108119 0.022181924 -0.035217285
0003e0 ab 94 a6 3a 7e 5e 56 bc 0f 35 4c bc e0 1b cf 3b
       0.0012709101 -0.013084052 -0.012463822 0.0063204616
0003f0 e9 bf 48 3c 8a 92 4f bb f3 06 b0 ba f3 8b 7a bc
       0.012252786 -0.0031673037 -0.0013429805 -0.015292156

fc.0.bias f4 [64]
000000 b1 d9 9e 3c 15 89 8c 3c ab af 96 3c 81 f5 b7 3c
       0.019390913 0.01715521 0.018394312 0.022455933
000010 f5 2a d8 bc df 25 bc 3c 3a f4 13 3c 8b 08 5d 3c
       -0.026387671 0.022967277 0.009030396 0.013490806
000020 69 c7 a4 3a 7a d6 60 bc de 7d 95 bc 33 4c c5 3c
       0.0012571636 -0.01372301 -0.018248495 0.024084186
000030 fb 6f 98 3c 4e ad c5 3b db f3 61 bc b6 57 07 bb
       0.018608084 0.0060326224 -0.01379105 -0.0020651645
000040 f4 16 75 bc 8a 8c 70 bb 9a 14 cd 3b 4c 51 a5 bc
       -0.014959086 -0.0036704862 0.0062585594 -0.020180367
000050 c4 97 a6 bc 5c bb 70 3c d7 99 4d bc 7b 0a c4 bc
       -0.02033604 0.014693107 -0.012548885 -0.023930779
000060 4f 89 c8 bc 47 80 14 3c 7b d9 7b bc 08 4f 8e bc
       -0.024479536 0.009063787 -0.015371676 -0.01737167
000070 6d 9f 51 bc d0 e2 54 bb 25 c5 7a 3c 17 bd 74 bc
       -0.012794358 -0.0032483824 0.015305792 -0.014937661
000080 1e 93 96 bc 59 62 b7 3b 4b 8b e2 b9 ab c1 9a bb
       -0.018380698 0.0055964408 -0.0004320986 -0.004722794
000090 a1 bf 85 3c 3b b6 29 3c b9 7d 54 3c 2b 03 0f 3c
       0.016326727 0.010358389 0.012969428 0.008728783
0000a0 c3 17 26 3c 02 c1 81 3c b5 e5 8b 3c 48 8b 67 3c
       0.010137501 0.015839104 0.017077306 0.014132328
0000b0 1f 52 83 bb c9 91 b3 bc ee c7 84 bc 64 0e 6b 3a
       -0.0040075923 -0.021920102 -0.016208615 0.0008966683
0000c0 fc c7 1d 3a 2f d1 de bb 6e c1 ba 3c c5 72 35 3c
       0.00060188747 -0.006799839 0.022797313 0.0110747265
0000d0 41 55 71 3c 24 4f 2f bc b1 85 67 3c b3 27 a4 bc
       0.014729799 -0.010700021 0.014130996 -0.020038461
0000e0 ca ab a0 3b aa ba 48 bc 4e 53 45 ba 83 37 14 bc
       0.0049032914 -0.012251535 -0.0007527367 -0.009046438
0000f0 73 a3 53 bc d2 4b 25 3b 03 9e 9d 3b 3d cd c9 3c
       -0.012917387 0.0025222194 0.004810096 0.024633998

fc.2.weight f4 [64]
000000 52 5d 94 3f 00 00 80 3f 00 00 80 3f 17 e3 93 3f
       1.1590979 1.0 1.0 1.1553677
000010 d8 53 80 3f 00 00 80 3f 00 00 80 3f d3 89 93 3f
       1.0025587 1.0 1.0 1.1526436
000020 a6 8c 93 3f 00 00 80 3f c3 90 93 3f ca 05 93 3f
       1.1527297 1.0 1.1528553 1.1486142
000030 00 00 80 3f 90 39 94 3f 00 00 80 3f 7b 16 93 3f
       1.0 1.1580067 1.0 1.1491235
000040 c2 b0 93 3f 00 00 80 3f 00 00 80 3f 00 00 80 3f
       1.1538317 1.0 1.0 1.0
000050 d6 2e 7f 3f a0 af 93 3f 00 00 80 3f 09 75 7f 3f
       0.9968084 1.1537971 1.0 0.99787956
000060 65 11 7f 3f 51 db 92 3f 2a 52 94 3f 9b 4d 93 3f
       0.99635917 1.147318 1.1587574 1.1508058
000070 00 00 80 3f a2 2d 93 3f 00 00 80 3f 56 c7 94 3f
       1.0 1.1498301 1.0 1.1623333
000080 6a fb 93 3f 6e 74 93 3f 00 00 80 3f 00 00 80 3f
       1.15611 1.1519907 1.0 1.0
000090 1d 49 80 3f 81 3f 93 3f bd 7c 93 3f 00 00 80 3f
       1.0022312 1.1503755 1.1522442 1.0
0000a0 c2 b7 92 3f 00 00 80 3f 76 61 80 3f 00 00 80 3f
       1.1462328 1.0 1.0029743 1.0
0000b0 3d 74 7f 3f d8 1a 95 3f d7 15 93 3f 0f 77 94 3f
       0.9978674 1.1648817 1.149104 1.1598834
0000c0 00 00 80 3f 00 00 80 3f b3 dd 93 3f db 85 93 3f
       1.0 1.0 1.1552032 1.1525224
0000d0 00 00 80 3f 00 00 80 3f 00 00 80 3f ad 9e 94 3f
       1.0 1.0 1.0 1.1610924
0000e0 20 5d 93 3f 8a 23 80 3f 18 39 94 3f 14 41 93 3f
       1.1512794 1.0010846 1.1579924 1.1504235
0000f0 00 00 80 3f 00 00 80 3f 00 00 80 3f 00 00 80 3f
       1.0 1.0 1.0 1.0

fc.2.bias f4 [64]
000000 b9 47 97 bd 8f b1 37 be c5 2e 29 3e b6 68 cb 3d
       -0.07386727 -0.17938827 0.16521747 0.099320814
000010 de 05 26 be f2 2f 34 be aa 3c 3a be 84 20 06 3e
       -0.16213176 -0.17596415 -0.18187204 0.13098341
000020 12 30 8b 3d 97 ee 23 3e 58 39 15 3e 66 bc 1a be
       0.06796278 0.16008984 0.14572656 -0.15110931
000030 da 14 21 3e ea ac 16 3e c9 28 19 3e 98 39 05 be
       0.1573061 0.14714399 0.14956965 -0.13010252
000040 d9 78 0c 3c da cf 2a be da c1 23 be bb 10 29 be
       0.008573734 -0.16680852 -0.15991917 -0.16510288
000050 09 f8 2c be ed 8d 16 3e 78 a0 2b be 9b c8 26 be
       -0.16891493 0.14702578 -0.16760433 -0.16287462
000060 e7 33 43 be db 28 0a be 8d 2f 14 be ef d5 1c be
       -0.19062768 -0.13492148 -0.14471264 -0.15315984
000070 b3 2b 26 3e 54 ab 08 be 34 8b 1d 3e 84 a9 29 be
       0.16227607 -0.13346606 0.15385133 -0.16568571
000080 60 0b 63 bd 21 a2 13 3e 3c f6 40 3e 1f aa 2f be
       -0.05543077 0.14417316 0.18843931 -0.1715474
000090 0d d2 3b 3e ce c6 fc 3d f9 0b 26 3e b5 88 20 be
       0.18341847 0.123426065 0.16215505 -0.1567715
0000a0 5e 40 18 3e 45 f4 19 be bb 23 1d 3e d4 a1 2e 3e
       0.14868304 -0.15034588 0.15345661 0.1705392
0000b0 4d 77 2c be 6e b5 25 be 20 0a f1 3d 84 3f 14 3e
       -0.16842385 -0.16182491 0.11769509 0.14477354
0000c0 13 89 35 be 04 e3 27 be 39 f7 07 be a2 5b 09 3e
       -0.17728071 -0.16395193 -0.13277902 0.13413861
0000d0 47 4b 2e 3e 66 cb 30 be 03 d3 2a 3e e2 8d 8f 3d
       0.17020904 -0.1726509 0.16682057 0.07009484
0000e0 6e 89 15 be 6b 47 2b 3e 0c 81 1b 3e 9a 5f 16 3e
       -0.14603207 0.16726463 0.15185946 0.14684907
0000f0 ea f3 2a 3e 75 3a 2e 3e 34 c0 36 be 2f 34 2f 3e
       0.16694608 0.17014487 -0.17846757 0.1710975

fc.2.running_mean f4 [64]
000000 16 6b ff 45 00 00 00 00 00 00 00 00 ca ec 72 45
       8173.3857 0.0 0.0 3886.7993
000010 04 00 00 00 00 00 00 00 00 00 00 00 cf 7d c1 46
       6e-45 0.0 0.0 24766.904
000020 fb 68 73 45 00 00 00 00 54 de 66 46 d2 80 0a 47
       3894.5613 0.0 14775.582 35456.82
000030 00 00 00 00 cb 40 5c 45 00 00 00 00 32 e3 6a 45
       0.0 3524.0496 0.0 3758.1997
000040 22 ab d9 46 00 00 00 00 00 00 00 00 00 00 00 00
       27861.566 0.0 0.0 0.0
000050 04 00 00 00 1c a9 73 45 00 00 00 00 04 00 00 00
       6e-45 3898.5693 0.0 6e-45
000060 04 00 00 00 3d bc 39 45 b4 92 16 47 e3 00 03 47
       6e-45 2971.765 38546.703 33536.887
000070 00 00 00 00 46 37 32 45 00 00 00 00 9f 83 2d 45
       0.0 2851.4546 0.0 2776.2263
000080 41 d4 b5 46 f3 6f 49 45 00 00 00 00 00 00 00 00
       23274.127 3222.9968 0.0 0.0
000090 04 00 00 00 a9 ef 11 45 5f e4 6d 45 00 00 00 00
       6e-45 2334.9788 3806.2732 0.0
0000a0 35 b6 7c 46 00 00 00 00 04 00 00 00 00 00 00 00
       16173.552 0.0 6e-45 0.0
0000b0 04 00 00 00 89 09 f5 45 90 cf 42 46 f5 f7 7d 46
       6e-45 7841.192 12467.891 16253.989
0000c0 00 00 00 00 00 00 00 00 4f ba 84 46 84 2e 6f 45
       0.0 0.0 16989.154 3826.9072
0000d0 00 00 00 00 00 00 00 00 00 00 00 00 a7 aa 51 45
       0.0 0.0 0.0 3354.6658
0000e0 83 19 a9 45 04 00 00 00 45 3a ca 45 ef 85 68 45
       5411.189 6e-45 6471.2837 3720.3708
0000f0 00 00 00 00 00 00 00 00 00 00 00 00 00 00 00 00
       0.0 0.0 0.0 0.0

fc.2.running_var f4 [64]
000000 c6 09 cf 47 04 00 00 00 04 00 00 00 6f bf 97 47
       106003.55 6e-45 6e-45 77694.87
000010 04 00 00 00 04 00 00 00 04 00 00 00 b1 31 96 47
       6e-45 6e-45 6e-45 76899.38
000020 90 aa bf 47 04 00 00 00 0c 43 0b 48 5c f0 ce 47
       98133.125 6e-45 142604.19 105952.72
000030 04 00 00 00 a6 bd b7 47 04 00 00 00 06 2a 5c 47
       6e-45 94075.3 6e-45 56362.023
000040 29 36 99 47 04 00 00 00 04 00 00 00 04 00 00 00
       78444.32 6e-45 6e-45 6e-45
000050 04 00 00 00 0b 18 e3 47 04 00 00 00 04 00 00 00
       6e-45 116272.086 6e-45 6e-45
000060 04 00 00 00 81 1c bb 47 56 b3 ba 47 33 87 b6 47
       6e-45 95801.01 95590.67 93454.4
000070 04 00 00 00 03 75 bd 47 04 00 00 00 39 75 e4 47
       6e-45 97002.02 6e-45 116970.445
000080 e7 5a 96 47 eb 96 88 47 04 00 00 00 04 00 00 00
       76981.805 69933.836 6e-45 6e-45
000090 04 00 00 00 26 74 ae 47 02 7a d0 47 04 00 00 00
       6e-45 89320.3 106740.016 6e-45
0000a0 bf 70 90 47 04 00 00 00 04 00 00 00 04 00 00 00
       73953.49 6e-45 6e-45 6e-45
0000b0 04 00 00 00 ba 43 ec 47 45 fe cc 47 44 7c ba 47
       6e-45 120967.45 104956.54 95480.53
0000c0 04 00 00 00 04 00 00 00 11 97 c4 47 8e 08 be 47
       6e-45 6e-45 100654.13 97297.11
0000d0 04 00 00 00 04 00 00 00 04 00 00 00 e0 a0 fb 47
       6e-45 6e-45 6e-45 128833.75
0000e0 95 04 b6 47 04 00 00 00 03 e4 a1 47 10 63 94 47
       93193.164 6e-45 82888.02 75974.125
0000f0 04 00 00 00 04 00 00 00 04 00 00 00 04 00 00 00
       6e-45 6e-45 6e-45 6e-45

fc.3.weight f4 [64, 64]
000000 ff f3 87 3e c8 8a ec bd 9a 6e f2 3d ed 38 4d 3e
       0.26553342 -0.11549908 0.11837502 0.20041247
000010 41 3c 39 be bd c4 8a be 7b c7 9a be d6 70 78 3e
       -0.18089391 -0.27103224 -0.30230317 0.24261793
000020 f7 0c e0 3d 49 65 0b 3e 1e 22 8d 3d 2b 7d 65 be
       0.10939973 0.13612856 0.06891273 -0.22411029
000030 03 36 66 3e 2e 47 1f 3e 49 e6 82 3d f8 23 88 be
       0.22481541 0.15554497 0.0639158 -0.26589942
000040 75 cd 0b 3e e0 7d 88 be b3 c7 b2 bd cb 03 d6 bd
       0.13652594 -0.26658535 -0.08729496 -0.10449942
000050 1b 30 81 be 6e 14 8f 3c d0 34 4b be ab ae 63 be
       -0.25232014 0.017465796 -0.19844365 -0.222346
000060 78 1b 55 be ab dd 30 be 03 45 8a be 07 a1 72 be
       -0.2081126 -0.1727206 -0.27005777 -0.2369424
000070 7c f5 ba 3d 8e fd 03 be 41 10 6f 3c 87 b6 8b be
       0.09128854 -0.12889692 0.014591278 -0.27287695
000080 39 86 4b 3e 4a 42 3d 3e f3 b5 55 3e 07 f1 22 be
       0.1987542 0.18482319 0.2087019 -0.15912257
000090 1b 67 d7 3d a5 27 ab 3d 0d 9d b3 3d 2d 1a 53 be
       0.10517713 0.08357171 0.087701894 -0.20615454
0000a0 87 39 d3 3d d6 b0 9e bd 1d 9e d5 3d f2 0d 7b 3e
       0.10313707 -0.077485725 0.10430548 0.24517038
0000b0 1c a5 ac bd 87 1d 22 be b6 40 9f 3c 3c 92 a5 3c
       -0.084299296 -0.15831576 0.019440036 0.020211332
0000c0 1a ab 11 be 5b 22 46 be 64 0e a8 bd 13 08 23 3d
       -0.14225426 -0.19349043 -0.0820587 0.039802622
0000d0 4b e6 98 3e d7 e2 c7 bd 0d 34 b3 3d 9b 4d 67 3e
       0.298632 -0.09760063 0.08750162 0.22588198
0000e0 1b 14 40 be 18 0c b1 3d 71 c5 16 3d 04 18 c4 bc
       -0.1875767 0.08644885 0.03680939 -0.023937233
0000f0 ba 72 c0 3d 19 01 20 3e e6 d4 21 be b1 65 d5 3d
       0.09396882 0.15625419 -0.1580387 0.10419787
000100 c2 f5 82 3e 5e b7 03 be 23 be ab 3d e0 2d 53 3e
       0.25578123 -0.12862918 0.08385875 0.20622969
000110 8b c4 b1 bd 6d 92 48 be 04 50 2d be f8 70 9f 3d
       -0.08680066 -0.19587107 -0.16925055 0.07785219
000120 bc c0 19 3e d6 9a 81 3e 1a df 6d 3e 2a 71 67 be
       0.15014929 0.25313443 0.23229638 -0.22601762
000130 11 e2 0f 3e 2c ec 83 3e fa 11 2e 3e c8 2f 38 be
       0.14051081 0.25766122 0.16999045 -0.17986977
000140 15 57 21 3e ab f7 26 be 16 47 20 be a4 51 41 be
       0.15755875 -0.16305415 -0.15652117 -0.188788
000150 be 9d 95 be 50 80 04 3e 45 b5 8d be 3d 50 37 be
       -0.2922191 0.12939572 -0.2767736 -0.17901702
000160 1b e9 26 be 51 79 6c be 71 a8 0b be d3 70 82 be
       -0.1629986 -0.23093154 -0.13638474 -0.25476703
000170 0f d5 47 3e c1 5d 69 3c bd 89 22 3e 0c 12 e0 bd
       0.19514869 0.014243544 0.15872855 -0.10940942
000180 a5 c6 82 3e 3a b9 a3 3d f8 92 88 3e 64 c4 36 be
       0.2554218 0.079943135 0.26674628 -0.17848355
000190 55 2f a4 3d 2f 08 0b 3e e4 28 60 3e 15 ba 80 be
       0.0801684 0.1357734 0.21890599 -0.2514197
0001a0 4f 4e 65 3e 2b 39 42 bd 99 d2 09 3e d8 d9 84 3e
       0.22393154 -0.0474178 0.13459243 0.25947452
0001b0 f5 00 7c be 22 a8 d2 bd ae 33 fd 3d ad 3f 51 3e
       -0.2460974 -0.10285975 0.12363373 0.20434447
0001c0 18 fa 41 be ff 76 74 be a4 c0 2e be 53 19 78 3d
       -0.1894306 -0.23873518 -0.17065674 0.060571026
0001d0 fe 29 c8 3d d6 39 18 be e6 b1 7b 3d 47 41 e0 3c
       0.097736344 -0.14865813 0.061448954 0.027374877
0001e0 e3 fc 85 be 8b 3f cb 3d 2d 94 62 3e 27 18 c3 3d
       -0.261695 0.09924229 0.22126837 0.09526091
0001f0 15 2a 1a 3e 9a cb 92 3e 59 12 d6 bd 45 60 89 3e
       0.15055116 0.2867096 -0.10452718 0.2683126
000200 db e9 13 3d 9f 63 8b bc ff 45 58 3e 87 97 c4 3c
       0.036111694 -0.017015276 0.21120451 0.023998035
000210 e5 23 1d be 36 1f 98 bb d4 7d 87 bd 83 4d 20 3e
       -0.15345724 -0.0046423925 -0.06615797 0.15654568
000220 69 d6 46 3e 5d 88 5b 3e 71 43 05 3e c8 a0 07 be
       0.19417728 0.21438737 0.13014008 -0.13244927
000230 a6 74 4d 3e 9b 2b 1e 3e d9 53 e3 3d bd 32 3c bd
       0.20064029 0.15446322 0.11099977 -0.045946825
000240 62 48 d2 3c 14 75 9b bd 99 87 63 be bc cb 2e be
       0.02566928 -0.0759069 -0.22219695 -0.17069906
000250 c1 54 d4 bd 0e 1a 48 3e f7 6d 0b be 90 26 a3 bd
       -0.10367728 0.19541189 -0.13616167 -0.079663396
000260 05 17 cd bd aa 0e 37 bd 97 24 51 be 75 44 36 be
       -0.10014156 -0.04469172 -0.20424114 -0.17799552
000270 f0 1b 32 3e 9f ca 70 be d2 05 5b 3d 21 ae ba 3b
       0.1739347 -0.23514794 0.053472348 0.0056970273
000280 68 68 4f 3e b0 1b 57 3e bc 13 27 3d d7 cd 98 bd
       0.20254672 0.21006656 0.040790305 -0.07461136
000290 b3 3f 0a 3e d4 90 c3 3d c6 1d 66 3d 54 f1 a1 bc
       0.13500862 0.09549108 0.056180738 -0.019768395
0002a0 7f 15 45 3e 40 20 1d be a7 c5 8a 3d f7 a8 61 3e
       0.19246481 -0.15344334 0.067759804 0.22037111
0002b0 4c fa ee bd d5 a8 81 be 98 bf 9e 3c ca 28 40 3e
       -0.11668834 -0.2532412 0.019378468 0.1876556
0002c0 a0 bf f5 bd f2 b2 7d bc 1b 35 88 bc 51 81 6b 3e
       -0.1199944 -0.015484558 -0.016626885 0.22998549
0002d0 70 fb 3d 3d 1a fb 2e be 37 1d 95 3d fc 07 1a 3e
       0.046382368 -0.17087975 0.07280963 0.15042108
0002e0 6a fd 2c be 23 f9 23 3e 57 a7 53 3e 12 92 28 3e
       -0.16893545 0.16013007 0.20669304 0.16461971
0002f0 d4 b9 14 3e b7 be 4a 3e c6 9f 23 be c0 02 e3 3b
       0.14524013 0.19799314 -0.15978917 0.006927818
000300 75 26 2f be 38 4f 80 be 36 89 86 3e 68 24 7e be
       -0.17104514 -0.2506044 0.2627656 -0.24818575
000310 25 79 61 be cc 55 05 be 5f 10 50 be 0d 6b 22 be
       -0.22018869 -0.1302101 -0.20318745 -0.15861149
000320 d3 e7 1f be 69 20 43 3e 86 55 47 bd 11 cb 72 3d
       -0.15615778 0.19055332 -0.048665546 0.05927569
000330 91 d0 80 3e 5c da 1a be 1e 0a 70 3d ed f5 7a 3e
       0.25159124 -0.1512236 0.0586034 0.24507876
000340 86 3e 1e be b8 a7 8e bd 13 51 96 be 70 1f 68 be
       -0.15453538 -0.069655836 -0.2935873 -0.22668242
000350 39 83 c2 bd c0 37 55 3d d8 f6 1d be da 3c 13 be
       -0.09497685 0.05205512 -0.15426195 -0.14378682
000360 eb ac 05 be 93 45 57 3e c4 63 30 3e fb 91 66 3e
       -0.13054244 0.21022634 0.17225558 0.22516625
000370 6a 8c 23 3d cd 0d 4f 3e 17 08 f4 3d 30 09 28 bb
       0.03992883 0.20220108 0.119156055 -0.0025640242
000380 86 08 b1 bd cb 70 0d be 64 ed 97 3e 27 75 af bd
       -0.08644204 -0.13812558 0.29673302 -0.08567267
000390 d2 65 6f 3e b4 43 81 bd 36 38 c8 bd 59 7d 18 be
       0.23378685 -0.063117415 -0.097763464 -0.14891566
0003a0 1c ed 82 be 31 9b 23 be 95 4a 7f 3e 7b 14 03 3e
       -0.25571525 -0.1597717 0.24930795 0.12800781
0003b0 39 8b 8d bd 5b 63 52 bc 0b 59 83 be a0 e7 1b be
       -0.0691132 -0.012841071 -0.25653872 -0.15225077
0003c0 46 28 44 be 06 0e 48 be ef 0c 88 3e 85 9b 85 be
       -0.19155988 -0.195366 0.26572368 -0.26095214
0003d0 18 c7 3a 3e eb b2 85 be 83 ea df 3d 2a b4 0a bd
       0.1824001 -0.26113066 0.109334014 -0.033863224
0003e0 66 0d 85 3e a1 24 7f 3e ed dd bd bd 21 64 09 be
       0.25986785 0.24916317 -0.092708446 -0.13417102
0003f0 bb 79 51 3e 13 99 53 3e 8d 48 16 be 4e 04 cc 3d
       0.20456593 0.20663862 -0.14676113 0.099617586

fc.3.bias f4 [64]
000000 ca ee c4 3d 0a b4 2d 3e d2 28 c4 3d cd 13 8b 3e
       0.09615858 0.1696321 0.09578098 0.27163544
000010 85 ee 4a 3e c2 85 6e 3e b0 dc cf 3d 5e 27 ef 3d
       0.1981755 0.23293212 0.10149515 0.116774306
000020 5e ef 8a 3e 6d 6f 72 3d f7 4a 3a 3e 32 80 95 3c
       0.27135748 0.059188295 0.1819266 0.018249605
000030 fe 1b 4f 3e f5 10 a4 3d 1d 3d 29 3e 5b 11 77 3e
       0.20225522 0.08011047 0.16527219 0.24127714
000040 6d 0c 7a 3e 13 37 08 3d f7 e5 01 3e d7 39 51 3e
       0.24418803 0.033255648 0.12685381 0.2043222
000050 6d 7d 75 3e 1e f4 97 3d c4 fd 1f 3e 3b 22 7d 3e
       0.23973627 0.074196085 0.15624148 0.24720089
000060 a0 8f 69 3e 5f 40 06 3e f0 0e a1 3d b4 38 58 3e
       0.22808695 0.13110493 0.07864177 0.2111538
000070 a4 02 33 3e d4 cf 0b 3e 00 d9 ca 3d 85 a8 40 3d
       0.17481476 0.13653499 0.09904671 0.047035713
000080 b2 e7 2e 3d 89 ad ca 3d 88 f8 47 3e 42 1d 3a 3e
       0.04270143 0.098963805 0.19528401 0.18175223
000090 b9 6d 04 3e 3c 4f 23 3e f7 e0 02 3e ac 2a 45 3e
       0.12932481 0.15948194 0.1278113 0.1925456
0000a0 51 91 9a 3d 90 c3 4e 3e 0f ad 6b 3e 34 38 88 3e
       0.07547248 0.20191789 0.23015235 0.2660538
0000b0 fa 36 76 3e 13 6d 0f 3e bc d0 6d 3d 11 e9 64 3e
       0.2404441 0.14006452 0.058060393 0.22354533
0000c0 88 9c 9c 3c 81 7d 52 3d b5 d9 82 3e a5 eb 2a 3e
       0.019117609 0.05138922 0.25556722 0.16691454
0000d0 0e 9f 5e 3d 25 7c a3 3d 96 80 1d 3e 46 f6 6b 3e
       0.054350905 0.07982663 0.15381083 0.23043165
0000e0 bf ba 0f 3e 77 3f 6b 3d e3 83 05 3e bf 6a 2c 3e
       0.14036082 0.05743357 0.13038592 0.16837595
0000f0 2f b5 ed 3d 2b fe cf 3d e4 50 30 3c 4a 3c 27 3e
       0.11606824 0.101559006 0.010761473 0.16331592

placing_layer.0.weight f4 [6, 64]
000000 ae 92 23 bd f6 13 67 bd 09 84 fc bd 8a c2 c1 3d
       -0.039934807 -0.05641552 -0.12329871 0.094609335
000010 5d 47 8d 3d 22 f7 9f bd a7 25 a7 3d 5d dd b5 bc
       0.06898377 -0.07810809 0.081614785 -0.02220028
000020 2d b6 44 bd 8f a1 5a bd 0e 98 be bc d4 bb cb 3d
       -0.0480253 -0.05337673 -0.023265865 0.09947935
000030 1c 33 e7 3d 12 30 7c 3d a2 30 9e 3d 36 61 c4 bb
       0.11289045 0.06156928 0.0772412 -0.0059930338
000040 a3 ef 98 3d bb aa ef bd cf f4 2e 3d 3a a2 8e bd
       0.07467582 -0.11702486 0.042713936 -0.06964536
000050 0f 3d 75 3c d5 70 c1 3d 3d 8b f5 3d 71 35 9c bd
       0.014968171 0.09445349 0.11989448 -0.07627381
000060 de 6e f0 bd 5b ca b0 bd 1b 4a af 3d 34 ef da bc
       -0.11739896 -0.08632346 0.08559056 -0.026725389
000070 59 fe 8a bd dd ba 24 bd 95 19 f5 bc ec d3 95 bd
       -0.06786794 -0.04021727 -0.029919425 -0.073158115
000080 62 ac 0f 3d 48 07 e4 3d d5 1f 7f bc 17 d1 c1 bd
       0.035076506 0.11134201 -0.015571554 -0.09463709
000090 30 0e 92 3c 96 a4 4f bd 00 3e 32 bd 6a 8f 2e 3d
       0.01782903 -0.05069407 -0.04351616 0.04261724
0000a0 d6 31 fc 3c c6 b2 aa 3d a4 97 2d bd 99 98 e1 bd
       0.030785482 0.083348796 -0.042380944 -0.11015434
0000b0 43 bf 47 bd 85 04 80 3d 3e 7a b4 bd 40 63 81 bd
       -0.048766386 0.06250862 -0.08812378 -0.063177586
0000c0 1a b9 c7 bd 97 7b c2 bd 08 8a 11 bd b4 df ef bd
       -0.09752102 -0.09496229 -0.035532027 -0.1171259
0000d0 68 eb b7 3c 09 64 90 bb 04 cc 03 be e6 e5 c1 3d
       0.022451118 -0.0044064564 -0.12870795 0.09467678
0000e0 74 a3 d9 bd 54 7d de bd 41 2e e8 bd b1 34 7f 3d
       -0.10626879 -0.10863748 -0.11336947 0.06230611
0000f0 32 0a 09 bd bc 45 fb 3a 21 ea d4 3d 49 0d 43 bd
       -0.03345699 0.0019170563 0.10396219 -0.04762009
000100 a9 62 67 bd b0 ee 86 3d 68 e2 dd bd c1 5e be bb
       -0.056490574 0.06588495 -0.10834199 -0.0058096354
000110 d5 b7 da bc 20 3a 0c bc 19 4f be bd c1 f9 48 bb
       -0.026698986 -0.00855878 -0.092924304 -0.0030666443
000120 61 d8 87 3d 55 c1 40 bd fe 7f b6 bd 2c e4 dc bd
       0.06633068 -0.047059376 -0.08911131 -0.10785708
000130 f9 6b e7 bd a4 d9 99 bd 59 18 00 be bf 78 ec 3c
       -0.11299891 -0.07512215 -0.12509288 0.02886617
000140 5c 82 95 3d 17 90 30 3d de 2e 0a be 94 a3 ab 3d
       0.07300255 0.043106165 -0.13494441 0.083808094
000150 ef f5 1d bd 2f 48 8b 3c 6b 7b 86 3d bd 33 b8 bc
       -0.03856462 0.017002193 0.06566509 -0.022485608
000160 8d 8e 7e 3d a8 eb 18 bc 24 59 09 3d be 0a 00 bd
       0.062147666 -0.009333529 0.033532277 -0.031260245
000170 34 b5 52 3c 10 b2 ab 3d 61 00 03 bd 9a 43 06 be
       0.012860585 0.08383572 -0.031982783 -0.13111725
000180 cc ec fa bd e1 42 66 3d 5b 52 83 bd 4f 3f dd bd
       -0.12252197 0.056216124 -0.064121924 -0.10803091
000190 65 92 f2 bc fc d6 a7 3d 38 9e 9c bd 22 65 dc bc
       -0.029610822 0.08195302 -0.07647365 -0.026903693
0001a0 21 57 72 bd 15 6b de bd 90 9c 6f 3d 27 d0 0a bd
       -0.059165124 -0.10860268 0.05849892 -0.033889916
0001b0 c9 ee dd bd 91 2f 82 3d f9 f3 4d bd 67 07 ab bc
       -0.1083656 0.06356729 -0.0502815 -0.020877553
0001c0 a1 ba da bd 49 a2 89 bd 71 1b 09 be 9a 59 bd bd
       -0.10680128 -0.067204066 -0.13389374 -0.09245606
0001d0 ae 1f de bd 82 11 ec 3c cc b0 71 3d 78 5e 14 be
       -0.10845886 0.028816942 0.059006497 -0.14489162
0001e0 22 4f 5b bd a9 53 ac 3d 8f 9b 8f bd 39 cc 3f bc
       -0.053542264 0.084143944 -0.07012092 -0.011706405
0001f0 d1 d5 79 3d 27 b1 9a 3d 8e 61 75 bc bd 83 1b bd
       0.060994927 0.075533204 -0.014976872 -0.037967432
000200 b0 e8 f7 bb 81 d2 57 3d bc 30 95 3d 9a ec 46 bc
       -0.0075655803 0.052690987 0.07284686 -0.012141371
000210 c3 2d 43 bd cd 02 a7 3d 44 85 97 bd a6 4e a7 3d
       -0.047651064 0.08154831 -0.07398465 0.08169298
000220 a4 b4 54 3c 11 66 ac bd 09 8f 36 bd d0 c4 e9 bd
       0.012982521 -0.08417905 -0.044570003 -0.11414492
000230 98 2b c3 bd 2a 4b d5 3c c8 14 b1 bd 90 fa 97 bd
       -0.09529799 0.026036818 -0.08646542 -0.07420838
000240 4a d5 8b bd 96 16 e7 bd 1e 91 23 bd f0 9c 90 3d
       -0.06827791 -0.11283605 -0.039933316 0.070611835
000250 10 34 f1 bd ec ba 77 bd 7c bb c0 bd 10 f1 0f be
       -0.11777508 -0.060480997 -0.0941076 -0.14056802
000260 fe 53 9f 3d d8 2c 0b 3d 51 d4 cc bd 07 0c 80 bd
       0.07779692 0.033978313 -0.10001434 -0.06252294
000270 41 fd 7a 3d bd 2c 57 3d fe 55 58 3d d5 a4 d3 3c
       0.061276678 0.0525329 0.052816384 0.025835434
000280 c7 a1 f6 3c 55 8f cb bc 19 d5 63 bd f8 35 7a 3d
       0.030106438 -0.02484862 -0.055623148 0.061086625
000290 33 e2 41 3c f4 e6 dc 3d 96 6f 9e bc 17 bb f9 bc
       0.011833715 0.10786238 -0.019340318 -0.03048472
0002a0 07 bb ee bd f7 9a b3 bd d9 e0 28 bd 5d 6c df bc
       -0.116567664 -0.087697916 -0.041230056 -0.027273351
0002b0 c0 93 fb bd 25 bf 67 3d fe ef 51 3c d5 0c cf bd
       -0.122840405 0.056578774 0.012813566 -0.101098694
0002c0 b7 60 08 bd b7 7b b1 3d e3 5f d3 3c 81 ae b7 3d
       -0.03329536 0.08666175 0.025802558 0.08968831
0002d0 cb bd d9 3d 95 cc f3 bd 55 8f 8d bc d2 76 07 be
       0.10631903 -0.11904255 -0.01728026 -0.1322892
0002e0 1e 81 d4 3d ed c0 f0 bd 01 e2 23 3d 82 1c c6 3c
       0.1037619 -0.11755548 0.040010456 0.024183515
0002f0 73 69 21 bc de bd 80 3d 66 c3 54 bc 52 58 46 bd
       -0.009851801 0.06286214 -0.01298604 -0.048424073
000300 5b 3a e7 bc 1e 16 a8 3d 93 e9 b7 bd 7c 23 b3 bd
       -0.028226068 0.082073435 -0.089800976 -0.087470025
000310 9d 55 be 3a b0 3c 90 3d ff 12 4b 3c 26 bf 8f 3b
       0.0014521364 0.07042825 0.012394666 0.0043868003
000320 94 98 bb bc c4 57 4e bc ec 65 02 3d d2 20 bb 3d
       -0.022899903 -0.012594167 0.03183548 0.09137119
000330 6e cb 28 3d e9 1b e4 bd db 95 c6 bb 8d 82 64 bd
       0.04120963 -0.11138136 -0.0060603446 -0.055788565
000340 f9 fd 72 3d a8 f7 81 bd 9a 29 c9 3c b9 a5 8c 3d
       0.05932424 -0.06346065 0.02455597 0.068675466
000350 00 7b 8c bd 76 fb d5 bd a5 cb fc bd 7a 9e de bd
       -0.06859398 -0.10448353 -0.123435296 -0.10870071
000360 27 ce eb 3c 43 37 11 3d e1 09 06 bd fb 49 7a bd
       0.028784825 0.035453092 -0.032724265 -0.06110571
000370 de d7 ff bd 07 d0 45 3c 93 6b ab bd 4c 6a 87 bd
       -0.12492345 0.012073523 -0.083701275 -0.066120714
000380 bd cd e6 bd cb 75 6e 3c 72 22 65 3d 65 33 b1 3d
       -0.1126971 0.014554451 0.055941053 0.08652381
000390 fc 8a a2 bc 4f 1e 63 3c 74 f6 01 be ce 5d d7 3b
       -0.019841664 0.013862207 -0.1269167 0.0065724617
0003a0 b3 62 d5 bd e3 2f 4c 3d 5d 13 df bd 8e 81 0e bd
       -0.10419216 0.049850356 -0.10892365 -0.03479152
0003b0 a1 ae ec bd ba a4 f5 bd 6b d1 da bd 10 30 cd 3b
       -0.11556745 -0.1199431 -0.106844746 0.006261833
0003c0 9e 92 c7 bd 3f c1 9a 3c 3c fb 12 3d 9d 4d 86 bd
       -0.09744762 0.018890975 0.035884127 -0.06557772
0003d0 33 03 4f 36 f5 e9 22 3d 4a 64 b5 3d 1f 49 9d 3d
       3.0847266e-06 0.0397739 0.08857019 0.07679962
0003e0 91 4c ba 3d 78 8a 07 be 83 f7 89 bd 7b a0 f7 bd
       0.09096635 -0.13236415 -0.06736662 -0.12091156
0003f0 fe e3 7a bd 7d e1 a0 bd 51 8a d5 3d ab 1e bc 3d
       -0.061252587 -0.078555085 0.104267724 0.09185537

placing_layer.0.bias f4 [6]
000000 3e bc a4 3d ed 0d b4 3d dc 31 f8 3b 21 af 11 3d
       0.08043717 0.08791719 0.007574303 0.035567407
000010 c3 7d 15 be 28 d9 64 3e
       -0.14598756 0.22348464

placing_layer.1.weight f4 [6, 64]
000000 c2 99 d7 bd 6e 8f e4 bd 56 45 b5 bb f7 65 5c bd
       -0.10527374 -0.111601695 -0.005531947 -0.05380818
000010 17 12 f3 3d 5a ae af bd 64 21 2e bd 8e d0 b9 3d
       0.11868685 -0.08578177 -0.042512313 0.09072982
000020 7f 5f 5b 3c 16 ca e2 3c e4 48 69 bd 66 01 89 bd
       0.013389467 0.027684253 -0.05695428 -0.0668972
000030 34 52 ed 3d 90 0f a9 bd 6b 9a 03 bc a2 0b c3 3c
       0.115879446 -0.082549214 -0.008032422 0.023809258
000040 02 77 d0 bc 31 cb 25 3d 18 b2 83 bd d5 f9 7b 3c
       -0.025447372 0.04047698 -0.06430453 0.015379389
000050 80 9d 27 bd af 2b f1 bc 0d 6b c3 3d 11 72 53 bc
       -0.040921688 -0.029439775 0.09541903 -0.0129056135
000060 31 39 4b bd 32 c8 d4 bd e8 d1 ce bc de 21 e9 3c
       -0.04961509 -0.10389747 -0.025246575 0.028458532
000070 ee 6b 86 39 a8 6a f5 bc 83 37 a5 bd 22 f5 9d bd
       0.00025638886 -0.029958084 -0.08067229 -0.07712771
000080 a0 45 0a bd e8 6f 76 bd 34 1f b1 bd 7e 5c 87 bd
       -0.033757806 -0.060165316 -0.0864853 -0.06609438
000090 05 fa cf bc b7 81 5a bd 93 61 16 bc b4 09 6d 3d
       -0.025387773 -0.053346362 -0.009178537 0.05787058
0000a0 43 f9 21 bb fa 7c 7b bd 8b bf bf bd 28 f8 1a 3d
       -0.0024715222 -0.061398484 -0.09362706 0.037834316
0000b0 73 43 bd 3d de 88 c0 3d 6c 75 c6 3d 2f c2 4a 3b
       0.092413805 0.09401105 0.09690365 0.0030938496
0000c0 12 a2 c5 bd ad 9a f8 bd fd 34 96 bd ee b8 f5 3d
       -0.09650053 -0.12138877 -0.073343255 0.11998163
0000d0 9f cc 1e bd c0 b1 a9 3b dc a1 78 bd 5d e2 99 3d
       -0.03876936 0.00517866 -0.060701236 0.075138785
0000e0 8d a4 f3 3d eb e7 96 bd 9a ae 8d bd 4b 69 bd bd
       0.1189662 -0.073684536 -0.06918068 -0.09248599
0000f0 9b 79 43 3d f4 5d 76 bc 73 d2 d8 bd 84 9f 04 bd
       0.047723394 -0.015037049 -0.10587015 -0.03237869
000100 b0 e1 cf bd cd e5 8a bd cb a0 26 bd 0d 3d 8c 3c
       -0.10150468 -0.06782112 -0.040680688 0.017118955
000110 97 2c 6a 3d 1c ed 78 bd d6 a6 a4 bd e2 c1 bb bd
       0.05717143 -0.060773 -0.08039634 -0.091678396
000120 0b 0a d8 bd fc 61 9d bd f7 69 cf 3d af 39 ef 3b
       -0.105487905 -0.07684705 0.10127633 0.0073005776
000130 a9 2e 84 bc e5 03 0a bc ef e6 e3 3d 64 80 ea 3c
       -0.01613553 -0.00842378 0.111280315 0.028625675
000140 53 23 67 bd 34 ac 2d 3d 25 53 f8 bd b1 01 74 3d
       -0.056430172 0.042400554 -0.121252336 0.059571926
000150 7b 15 2b bd cf a1 c3 bc e6 e6 79 bd ae a9 27 3d
       -0.041768532 -0.023880867 -0.061011218 0.040933304
000160 0c b1 86 bd 27 86 fd 3d 19 e5 86 3d a9 cd ac 3d
       -0.06576738 0.12379103 0.06586666 0.08437664
000170 d0 e7 04 3c c7 62 cd bd 69 2a d6 3a fd 5b e1 bc
       0.008111909 -0.10028606 0.0016339544 -0.027509684
000180 d7 6a bb 3d 27 5c e9 3d cb b2 f3 3d 4e 05 01 be
       0.091512375 0.1139453 0.118993364 -0.1259968
000190 e9 a6 6f 3d 76 70 e5 bd 87 5b 10 bb a3 ab f6 3c
       0.058508787 -0.11203091 -0.002202721 0.03011114
0001a0 57 d5 bc 3c f9 d3 a8 bd ec 78 bd 3d 27 63 23 bd
       0.023050947 -0.082435556 0.0925158 -0.03988948
0001b0 6f f5 58 bd d0 31 85 bd 38 5e 99 3d 7d 93 00 3c
       -0.05296844 -0.065036416 0.07488674 0.007847664
0001c0 68 2a d7 bd 6e 4f 86 3d b9 7f ad bc e5 bd 1e 3d
       -0.10506135 0.06558119 -0.021179067 0.038755316
0001d0 ff 39 89 3d 44 3f 92 3d 85 67 07 3d 8c 4e d7 bc
       0.06700515 0.07140973 0.03305771 -0.026282571
0001e0 e8 d4 48 bd f6 94 01 3c 08 07 66 bd 0c 2a e6 bd
       -0.04903117 0.00790905 -0.05615905 -0.112384886
0001f0 24 a5 f1 bd 27 70 e0 3c 6d db 51 bd c4 b8 7d bd
       -0.11799076 0.027397228 -0.05123465 -0.061943784
000200 fb 1f 1e 3d ef 5f 3d 3d e3 5b e3 bd 77 ea cd 3c
       0.038604718 0.046234068 -0.111015104 0.025136216
000210 e4 13 9e 3d 6e 0a 10 3c 7c 77 b5 3c 58 2e b7 bb
       0.077186376 0.008791549 0.022151701 -0.0055902414
000220 c1 42 81 bd 9b ca 27 3d 93 f3 1c bd 7c da 03 be
       -0.063115604 0.040964704 -0.038318228 -0.12876314
000230 81 e0 d5 3c e5 7b 23 bd 11 8c d4 bb bf 01 12 bd
       0.026108028 -0.039913077 -0.006486424 -0.035646196
000240 26 63 ad bd 7b b5 c7 3c 13 85 ff bb 4a 69 06 bd
       -0.08466177 0.024378529 -0.007797846 -0.032815255
000250 86 66 11 be 9c db 3a bc 24 ea 42 bd 36 c5 d9 3c
       -0.14199266 -0.011404898 -0.047586575 0.026583295
000260 07 aa cc bd 9c a8 9b bd 17 d4 27 bd d6 a8 0f be
       -0.09993368 -0.07600519 -0.04097375 -0.1402925
000270 a6 b9 42 3a 2e 0f 8e 3d c7 ab ca 3d cb d7 4e 3c
       0.00074281765 0.06936489 0.09896045 0.012624691
000280 9b 5f d7 bd 8c d2 5b 3c fe 80 94 3d b4 4e 54 bd
       -0.10516282 0.0134168975 0.07251166 -0.05183287
000290 8f 97 cc bd 82 c0 7f 3d d0 0a d5 bc c5 57 66 bb
       -0.09989845 0.06243945 -0.026006132 -0.003514753
0002a0 58 23 88 bd e9 2d a2 bc d8 8b 9d bd a5 1d 5a 3d
       -0.06647366 -0.019797282 -0.07692689 0.053250927
0002b0 80 b2 88 bd 52 21 55 3d e9 c2 c4 3d 2f 20 92 3d
       -0.06674671 0.05203373 0.09607489 0.07135045
0002c0 3d b3 2e 3c e7 c1 3b 3d 7f 6e f4 bd 99 89 7a bd
       0.010662851 0.045839217 -0.11935138 -0.06116638
0002d0 42 e3 7b 3d c7 1f cb 3c 50 76 00 bc 5c a8 81 bc
       0.061496027 0.024795426 -0.007840708 -0.01582735
0002e0 2b 26 36 bd ab bc af bc 74 44 ca bd 0b 86 5a 3c
       -0.044469994 -0.021452269 -0.09876338 0.013337622
0002f0 56 d3 29 3c e7 77 98 bb 09 f7 ca bd 48 ce 01 be
       0.010365328 -0.0046529653 -0.099103995 -0.12676346
000300 32 e3 93 3c f3 ba 25 3d 6a aa b6 3d 87 4c fb bd
       0.018052671 0.04046149 0.08919223 -0.12270456
000310 e5 68 78 bc 53 d4 b8 bd c2 a2 b6 bc 23 6c 0a 3d
       -0.015161728 -0.09024873 -0.022294406 0.033794533
000320 20 06 a5 3d 42 dc d4 bc d2 7a 52 3d 4f 37 7c 3d
       0.08057809 -0.025983933 0.05138666 0.061576184
000330 1b 43 93 bd 0d 5d de bc 92 c6 15 3c a1 23 5b bd
       -0.07190534 -0.02714398 0.009141581 -0.053500775
000340 a9 64 69 bd ec 79 c5 bc a5 82 0c 3d f2 2d ae 3d
       -0.056980763 -0.024105988 0.03430428 0.08504857
000350 fb c3 bd 3d 46 07 eb bc c3 c9 c4 3d bd a3 00 3d
       0.09265896 -0.028689992 0.096087955 0.031406153
000360 85 af c4 bc 5d 7e 3e bd 9c 14 92 3d e2 79 9b bd
       -0.024009475 -0.04650723 0.07132837 -0.07591607
000370 0e f2 a9 3d b0 16 ce bc 94 4e ea bd 17 e9 f9 3c
       0.082981214 -0.025157303 -0.11440769 0.030506654
000380 95 fb 91 bc 36 bd b7 3d 2a bd ee 3c 7f 18 17 be
       -0.017820159 0.08971636 0.029142935 -0.14755438
000390 ec d9 8d 3a 31 6e 24 bd 25 66 b8 3c 5e 79 2a 3c
       0.0010822392 -0.04014415 0.022509644 0.010404913
0003a0 27 b5 75 bd 35 2c 45 3c 04 20 19 bd 81 c4 42 bd
       -0.059987213 0.012034466 -0.037384048 -0.047550682
0003b0 d2 b9 c8 bd cb b1 7c 3c e8 e5 0c be 73 7c d0 bc
       -0.098010674 0.0154232485 -0.13759577 -0.025449967
0003c0 d8 fe 8a bd b6 5c 5c bd 4e 35 10 3d 1e 7c 6a bd
       -0.06786889 -0.053799354 0.035207085 -0.057247274
0003d0 e4 02 4c 3d 45 87 23 bd 6e 24 94 3d 12 e0 c7 bd
       0.049807444 -0.039923925 0.07233511 -0.09759535
0003e0 74 31 d7 bd 71 ba c6 3d f8 b6 b7 bd 5d 1a c5 bd
       -0.10507479 0.097035296 -0.089704454 -0.09624169
0003f0 04 1b 06 be 17 84 d5 bd 63 3f e3 3c 57 36 42 bd
       -0.13096243 -0.10425585 0.027740186 -0.047415104

placing_layer.1.bias f4 [6]
000000 62 14 e4 bd ff 9b 05 be 03 44 37 3d 41 25 9d 3d
       -0.111367 -0.13047789 0.044742595 0.07673121
000010 f5 54 47 bd 07 7f cb 3b
       -0.048665006 0.006210211

placing_layer.2.weight f4 [6, 64]
000000 8e 47 a2 3d af 72 cf bd a4 cc 76 3d bc 00 d1 bd
       0.07923804 -0.10129296 0.060253754 -0.10205218
000010 72 31 db bd 05 91 0c be f6 d4 cf 3d aa 3b 04 3d
       -0.1070279 -0.13727196 0.10148041 0.032283463
000020 66 8b ad bd 73 eb 6e 3c 90 3b 03 be 6e 3b b7 bd
       -0.08473854 0.014582503 -0.1281569 -0.08946882
000030 1b ab c0 bd 70 78 0a 3d 8b db d1 bd 81 53 0d 3d
       -0.09407636 0.033806264 -0.102469526 0.034503464
000040 03 00 bb bd ac 1f b9 bd 22 7a c9 bc 89 7f 84 3c
       -0.091308616 -0.09039244 -0.02459437 0.016174095
000050 ab 2f a4 3d 58 20 90 3d bc 32 33 3d 76 f9 e4 bc
       0.080169044 0.07037419 0.043749556 -0.027950983
000060 58 76 e8 bd 2b 4b 3b 3d 16 3d 7b bd aa ef 54 3d
       -0.11350697 0.045725983 -0.061337553 0.051986374
000070 c8 75 58 3d 98 68 f9 bb a4 91 a7 bd a1 4f ce 3d
       0.0528467 -0.0076113455 -0.081820756 0.10073782
000080 41 45 df bd 59 aa c0 3c 42 58 97 3c 23 0d df 3c
       -0.10901881 0.023518728 0.018474702 0.027227944
000090 2f 12 a6 3d 3a 94 92 3d 5a 35 10 bd 5a 16 cd 3c
       0.08108937 0.07157178 -0.03520713 0.025035072
0000a0 b5 55 b3 3c 63 e9 b4 3d 0f 54 6c 3d 7e 1f 9b bd
       0.021891454 0.088335775 0.057697352 -0.07574366
0000b0 82 ec 0e bd c1 9a 20 bd fd a6 22 3d 0f 57 00 be
       -0.03489352 -0.039210085 0.039710034 -0.1253321
0000c0 0b a7 6e 3b a5 8e 51 3d 00 15 18 be f6 3f 2d bd
       0.0036415483 0.051161427 -0.14851761 -0.042297326
0000d0 fd f4 f4 bd 2b 06 61 3d f6 b9 21 bd 8e 05 8f 3d
       -0.1196079 0.054937523 -0.039483987 0.06983481
0000e0 eb 5b c2 bb ab 62 df bd c1 c9 2e 3d 56 2e a9 bd
       -0.0059313676 -0.10907491 0.042672876 -0.08260791
0000f0 49 a6 ca bd a3 0a cc 3d dd 85 09 bd 19 6a c3 3b
       -0.098949976 0.09962966 -0.033574928 0.0059635756
000100 f0 ba ac 3c 74 b6 09 be c4 47 5e bd b3 e2 d7 bd
       0.021085232 -0.13448507 -0.05426766 -0.10541286
000110 0e da 93 3c b0 1c 38 3d 4e 36 da bb 64 ab c7 3d
       0.018048313 0.044949234 -0.0066593057 0.09749487
000120 e5 b5 77 bc 98 81 2a 3d b5 0a 9f bd 49 95 c6 3d
       -0.015119051 0.041627496 -0.07765714 0.09696443
000130 78 85 e6 3c 7f c7 e1 3c 91 cb 73 3c 33 a0 57 bd
       0.028139815 0.027560947 0.014880077 -0.052643012
000140 56 88 e3 bd 19 a9 0b bd 52 18 6a 3d c8 38 ab bb
       -0.111099884 -0.03409681 0.0571521 -0.0052252747
000150 c7 5d 88 3c 45 92 e4 bc 6b 63 64 3d 4c d6 68 bc
       0.016646279 -0.027901778 0.055758875 -0.014211249
000160 64 33 fb bd a5 cc a1 bd 93 0c 81 bd 41 fd 83 bd
       -0.12265661 -0.07900361 -0.063012265 -0.06444789
000170 9e cf a7 bc 3b a6 6d bd 4a e3 09 be 13 f9 cd 3c
       -0.020484742 -0.058019858 -0.1346561 0.025143182
000180 83 82 5e bd 7d 35 ec bc 06 b0 fc bd f5 97 d0 3d
       -0.054323684 -0.028834099 -0.12338261 0.101852335
000190 1a c6 c0 3d 92 cd be 3c 9c 45 bc 3d b0 9e 3b bd
       0.09412785 0.023291383 0.091929644 -0.045805633
0001a0 26 36 8b bd e1 87 81 3d a9 00 02 be a3 a6 3d 3d
       -0.06797437 0.06324745 -0.12695564 0.046301495
0001b0 b2 16 7b bd 66 8b 0c be ab 43 bf bc 3d ad 45 bd
       -0.06130094 -0.13725051 -0.023347696 -0.048260916
0001c0 6c 22 0f 3d 52 7b f3 bd d1 4e e5 3c 2f b6 2b 3b
       0.034944937 -0.11888756 0.027991684 0.002620112
0001d0 a5 06 cf 3d 61 10 07 3d d7 e9 99 3d 8e 71 d0 bd
       0.10108689 0.032974605 0.075153045 -0.10177909
0001e0 9f 3a f7 bd 27 12 7a 3d 1c 4c 66 3d 57 d2 90 bd
       -0.12071728 0.061052468 0.056224927 -0.07071369
0001f0 15 76 af 3d 8f c6 87 3d 48 79 97 3d 4c b6 f7 bd
       0.08567444 0.06629669 0.073961794 -0.12095317
000200 62 a4 63 bd fd e0 91 bd 4d f2 b7 bd e1 6f 38 bb
       -0.05557669 -0.07122991 -0.08981762 -0.0028142857
000210 4f d6 b5 bd 65 3c 48 3d ec 3e d5 3d e8 ee b3 bd
       -0.08878767 0.04888572 0.10412392 -0.08785802
000220 ca 56 78 bd d3 c4 a6 3d f7 3d 36 bd 13 e3 14 be
       -0.060629643 0.0814301 -0.044492688 -0.14539747
000230 d7 63 b2 3d 93 c2 52 bd 90 75 13 be 68 7b 56 3d
       0.08710449 -0.05145509 -0.14400315 0.052363783
000240 f8 9d af 3d 35 60 9d bd 41 72 e6 bb 9b e8 2e 3d
       0.08575052 -0.07684366 -0.007032663 0.0427023
000250 aa 6c b0 bd 6d 32 20 bc 62 41 af bc e8 fd fe bd
       -0.08614476 -0.009777647 -0.021393482 -0.124507725
000260 0d 13 74 bc 5a d9 c9 bc a3 f8 92 bc 4b e8 ac 3d
       -0.01489712 -0.024639774 -0.017940825 0.08442744
000270 08 2b 91 3d 0b 9a d7 bd da 3e 87 3d 42 99 07 be
       0.07088286 -0.10527428 0.06603785 -0.13242057
000280 4f 63 eb bd de 5c 63 3d 0d df c3 3d 15 dd 95 bb
       -0.11493551 0.055508487 0.09564028 -0.004573474
000290 9c 4e 44 bd fb 29 a6 bd 54 fe bf bd bf 5b fe bd
       -0.04792653 -0.08113476 -0.09374681 -0.12419843
0002a0 d5 0f 82 3b d7 4c 39 bd ff 92 8a bd df eb e9 bc
       0.0039691725 -0.045239296 -0.067663185 -0.028554855
0002b0 08 fd ca 3d 12 18 04 bd 27 4a d3 bc fa 82 16 3d
       0.09911543 -0.032249518 -0.025792195 0.036746003
0002c0 c9 46 8b 3d 92 43 23 3d 24 26 5f bd a6 9e 8c bd
       0.068006106 0.039859362 -0.054479733 -0.06866197
0002d0 5e ab 50 3d 73 c7 7d 3d f1 83 99 bd e5 21 84 3d
       0.05094468 0.061957788 -0.07495869 0.06451777
0002e0 d5 76 8b 3d d5 6f 4d bd c7 ab 4b 3d d7 fb c7 bd
       0.06809775 -0.05015548 0.049724367 -0.097648315
0002f0 7e 20 05 3d eb ad 0b be 58 e1 8f ba da 04 b4 bd
       0.03250169 -0.13640563 -0.0010977192 -0.08789988
000300 0f ef 06 be 6c 9d f1 bd 98 da a9 bd cf 09 2d 3d
       -0.13177131 -0.11797604 -0.082936466 0.042245682
000310 37 d4 80 bc 87 93 65 3d 77 3e 35 bd 62 da c3 3d
       -0.015726192 0.056048896 -0.044249024 0.095631376
000320 38 7b 44 3d 7e 21 00 3d 58 cf 67 3d ff 7e e7 bd
       0.047969073 0.03128194 0.056594223 -0.113035195
000330 53 85 10 be 26 39 c8 bd 2b 2d 0a be 60 ea d5 bd
       -0.14113359 -0.09776525 -0.13493793 -0.10445094
000340 fa 78 2a bd 1a cf 95 3d 3a e5 df 3d 26 dd 2b 3c
       -0.04161928 0.07314892 0.10932393 0.010489738
000350 83 be d3 3d 6b 31 7c bd d4 cd 8b 3c 88 88 06 3c
       0.103390716 -0.061570566 0.01706592 0.0082112625
000360 17 d8 51 3d 77 96 dd bd 9e 30 1a 3c 23 69 35 bd
       0.05123147 -0.108197145 0.009411005 -0.04428972
000370 e2 d3 10 be 33 be b8 3c f7 33 18 3d e2 9c e4 bd
       -0.14143327 0.022551632 0.037158933 -0.111627355
000380 c6 46 0a be 96 40 d9 bc 97 54 9b 3d 32 a3 26 bd
       -0.1350356 -0.026520055 0.075844936 -0.04068298
000390 2d 8e d0 bc db d8 d7 bc 1d 7d ae 3d ed 4d a6 3d
       -0.02545842 -0.026348522 0.08519957 0.08120332
0003a0 9e 08 0e be 77 ab b1 3b 8d a1 94 bd e3 30 e3 bd
       -0.13870475 0.0054220515 -0.07257376 -0.11093309
0003b0 fc e5 1e 3c a0 d1 53 3d 15 a1 75 3c 82 58 aa 3d
       0.009698387 0.051713586 0.014992018 0.08317663
0003c0 10 64 9d bd 8a c1 19 3d bd 0e 91 3d 84 61 ce 3d
       -0.07685101 0.03753809 0.07082889 0.100771934
0003d0 52 50 71 bd 21 31 96 bd a8 9d 46 bd d4 a9 4c bc
       -0.05891449 -0.07333589 -0.048490196 -0.012491662
0003e0 4f 07 ad bd 79 e4 1f 3d 49 82 7a 3d 2d 3b a9 3d
       -0.0844866 0.039036248 0.061159406 0.0826324
0003f0 ff f0 4b 3d dd f8 a7 bd 59 a3 6d bc d7 dd 53 3d
       0.04979038 -0.08201764 -0.014504277 0.051725235

placing_layer.2.bias f4 [6]
000000 66 40 7e bd e4 a0 ad 3b 64 31 59 bc 98 a9 f9 bd
       -0.062073134 0.0052987207 -0.013256405 -0.121905506
000010 d8 d5 a8 bc a0 77 cb 3d
       -0.020609781 0.09934926
