auto_src/log/x3exp_1/set_epoch/buffer1500/imitation_learning_env-20240814-044422/bc_ddpg_actor.pth (torch, 275774 bytes, 108 tensors)

fc.0.weight f4 [64, 620]
-0.0030045155 0.039779328 -0.019896809 -0.06015308 0.012515907 0.00054833316 -0.007946475 0.02692259
-0.027738981 -0.011025167 -0.012066704 -0.02636221 -0.010647181 -0.04190971 -0.010397856 -0.03467851
0.036033724 0.013188322 -0.03521351 -0.01302563 -0.0008484739 0.0036305264 0.018423485 0.046309553
-0.010974692 0.031600907 0.009388156 -0.03377567 -0.021312531 0.0041506984 -0.028269777 0.014682167
0.013199574 0.017359894 -0.04860023 -0.051884618 -0.030233774 0.026327275 0.020155793 -0.0007194865
0.00893128 -0.0073201195 0.0024593486 -0.029043037 0.0030763668 -0.058800623 -0.011507136 -0.0031567607
-0.053953737 -0.0045101894 0.032453597 0.064459234 0.0021952093 0.0053981445 0.026373055 -0.027325766
0.010091072 -0.035459533 -0.028657883 -0.017344708 0.011980776 0.023538616 0.0076782284 0.021428557
0.031909037 -0.0372165 -0.032703254 -0.0047661494 -0.0049626585 0.029513994 -0.0059209196 -0.022402752
0.044160604 0.03986276 -0.001797063 -0.004882764 0.013918349 -0.040043548 -0.0173704 -0.007534474
-0.027719319 0.040009465 0.016113503 -0.047802985 0.004337465 -0.017565206 -0.009425329 0.0145509085
0.039360892 -0.0070849513 -0.0052186525 -0.0020702276 -0.0027172933 0.025608502 -0.033604767 -0.0011582093
0.050925758 -0.014452815 -0.02442803 0.0044679516 0.019459842 0.009645247 -0.023539353 -0.03393464
-0.04380228 -0.02322835 -0.040609505 -0.04246723 0.017686225 0.026188953 -0.026819639 0.019123385
-0.006075693 0.040409468 0.05828436 -0.0133948065 -0.024478769 -0.014632224 -0.018703345 -0.026073866
0.0048276107 -0.019592788 -0.049553793 0.02004519 -0.044486146 -0.040433757 0.01761309 -0.045266777
-0.03351842 -0.019378616 -0.021151334 0.03934792 -0.045343935 0.008531334 0.039612878 -0.0084569035
-0.016190547 -0.026303513 -0.008946946 -0.0012096039 0.039054178 0.006480919 0.003581829 -0.009728037
-0.02773405 -0.03347627 0.0029295143 -0.031563867 -0.039610803 -0.03415096 -0.041694272 -0.028751228
-0.04523802 -0.0063857166 0.010912167 -0.050846696 0.04063553 -0.01954457 -0.0018381153 -0.00011529102
0.014085656 -0.017818047 -0.059884124 -0.022216674 -0.012436299 0.0157753 -0.010378723 0.0046008327
-0.016485065 0.003996835 0.052822027 -0.019345952 0.029029071 0.01878122 -0.04398331 0.0125498725
-0.0055505442 -0.056892306 0.04794343 -0.031375807 0.03327131 0.021397706 0.022177657 -0.015593907
0.0014199035 0.0401051 -0.020656316 -0.002365973 -0.017352995 0.039405946 0.058742035 0.04866856
-0.0050653755 0.01309137 -0.048214063 -0.036972076 -0.032876708 0.00574867 -0.02991782 -0.00618241
0.026245072 -0.0003288998 -0.031767752 -0.0274093 -0.024580885 0.019337604 0.02387277 0.04643552
0.0035342886 -0.0026445573 -0.0038507844 -0.018417493 -0.0045969454 -0.027096394 -0.008405102 0.020201135
-0.03498214 0.00027043233 -0.004818823 -0.00837745 -0.027927928 0.04143963 0.01840983 0.025653543
-0.012246918 0.005809517 -0.034713063 -0.037640575 -0.0063596424 -0.025338147 0.032991026 -0.001835802
0.03201305 0.07209421 0.005747877 -0.052902356 0.024549736 -0.040440805 -0.020188622 0.0060566105
0.030546438 0.024307555 -0.0063024326 -0.022744045 0.02180719 -0.022454936 0.029811172 -0.01721993
-0.023287807 0.002356437 -0.018849893 0.007587557 0.035494722 -0.009483584 -0.021525651 -0.012553074
00000000: 68e7 44bb a6ef 223d a2fe a2bc 1363 76bd
00000010: 850f 4d3c 04be 0f3a ef31 02bc c38c dc3c
00000020: dc3c e3bc e7a2 34bc 6db3 45bc 90f5 d7bc
00000030: 8471 2ebc 84a9 2bbd c55b 2abc 0e0b 0ebd
00000040: 1998 133d d513 583c 0b3c 10bd 7469 55bc
00000050: 1f6c 5eba 20ee 6d3b d9ec 963c 16af 3d3d
00000060: 32cf 33bc f46f 013d c8d0 193c 5b58 0abd
00000070: 9e97 aebc 9502 883b 0596 e7bc 798d 703c
00000080: 0743 583c 5636 8e3c 0911 47bd f784 54bd
00000090: d2ac f7bc 4cac d73c c31d a53c ec9b 3cba
000000a0: 8154 123c 9ddd efbb 062d 213b aaeb edbc
000000b0: df9c 493b ecd8 70bd 6d88 3cbc a8e1 4ebb
000000c0: 98fe 5cbd 36ca 93bb 10ee 043d 3403 843d
000000d0: 80dd 0f3b ebe2 b03b 4e0c d83c 49da dfbc
000000e0: 0655 253c 043e 11bd f0c3 eabc 7d16 8ebc
000000f0: 044b 443c 0ed4 c03c a699 fb3b f18a af3c
00000100: 0db3 023d 5470 18bd d9f3 05bd 5c2d 9cbb
00000110: cc9d a2bb 55c7 f13c 4604 c2bb fa85 b7bc
00000120: c0e1 343d 2247 233d 6e8b ebba 98ff 9fbb
00000130: c909 643c b404 24bd 5e4c 8ebc c0e3 f6bb
00000140: a013 e3bc f7e0 233d 7700 843c 10cd 43bd
00000150: 4b21 8e3b e8e4 8fbc b26c 1abc ef66 6e3c
00000160: e338 213d e128 e8bb 3b01 abbb a8ac 07bb
00000170: 9e14 32bb ecc8 d13c 27a5 09bd 0ecf 97ba
00000180: 8797 503d 80cb 6cbc 4b1d c8bc e567 923b
00000190: 3f6a 9f3c 1907 1e3c 9ad5 c0bc 0dff 0abd
000001a0: 056a 33bd 6149 bebc 2756 26bd 1ef2 2dbd
000001b0: b4e2 903c 378a d63c dcb4 dbbc a5a8 9c3c
000001c0: 9b16 c7bb 6684 253d 95bb 6e3d e475 5bbc
000001d0: b387 c8bc ffbb 6fbc c237 99bc dc98 d5bc
000001e0: ef30 9e3b 0e81 a0bc ebf8 4abd cf35 a43c
000001f0: 1b37 36bd de9d 25bd 5449 903c a869 39bd
00000200: 9c4a 09bd e7bf 9ebc 9045 adbc 492b 213d
00000210: 90ba 39bd 02c7 0b3c 1d41 223d d38e 0abc
00000220: 0aa2 84bc 777a d7bc 3696 12bc 928b 9eba
00000230: 46f7 1f3d e45d d43b 1ebd 6a3b 5862 1fbc
00000240: 8532 e3bc 6a1e 09bd 18fd 3f3b 1d49 01bd
00000250: f03e 22bd e1e1 0bbd 9dc7 2abd b287 ebbc
00000260: 814b 39bd 463f d1bb f2c8 323c a044 50bd
00000270: 7171 263d ef1b a0bc eaec f0ba 65c8 f1b8
00000280: 86c7 663c 27f7 91bc 0e49 75bd beff b5bc
00000290: 9ec1 4bbc 343b 813c 850b 2abc 95c2 963b
000002a0: b00b 87bc e2f7 823b e95b 583d 677b 9ebc
000002b0: 60ce ed3c 13db 993c d827 34bd fb9d 4d3c
000002c0: 57e1 b5bb e807 69bd 5460 443d eb83 00bd
000002d0: 7f47 083d 3e4a af3c ebad b53c 967d 7fbc
000002e0: 0e1c ba3a 3f45 243d 6f37 a9bc 710e 1bbb
000002f0: de27 8ebc 2168 213d 7d9b 703d af58 473d
00000300: 73fb a5bb 307d 563c 1c7c 45bd 0870 17bd
00000310: baa9 06bd 575f bc3b 3716 f5bc d095 cabb
00000320: e8ff d63c 2f70 acb9 e71e 02bd 7889 e0bc
00000330: da5d c9bc e569 9e3c d490 c33c 2c33 3e3d
00000340: 869f 673b 4f50 2dbb 715d 7cbb 48e0 96bc
00000350: f9a1 96bb 42f9 ddbc 8eb5 09bc da7c a53c
00000360: 6f49 0fbd d0c8 8d39 38e7 9dbb 9241 09bc
00000370: 1cc9 e4bc 9abc 293d 36d0 963c 6127 d23c
00000380: 4ca7 48bc c35d be3b 492f 0ebd 012d 1abd
00000390: 8c64 d0bb f291 cfbc 9921 073d 4b9f f0ba
000003a0: 1e20 033d 21a6 933d b058 bc3b 24b0 58bd
000003b0: 871c c93c 42a5 25bd 9c62 a5bc 8876 c63b
000003c0: 863c fa3c a320 c73c a384 cebb b851 babc
000003d0: fea4 b23c 6af3 b7bc 8f36 f43c d010 8dbc
000003e0: 12c6 bebc 746e 1a3b 176b 9abc 0ba1 f83b
000003f0: ea62 113d 0961 1bbc 9056 b0bc 69ab 4dbc

fc.0.bias f4 [64]
0.026687812 -0.013498411 -0.014818088 0.033225175 -0.0048483144 -0.0393803 -0.040160242 0.0024192547
0.03590856 -0.022452924 0.010324115 -0.037460677 0.032874767 0.015985314 0.0024689038 0.027023321
0.037500206 -0.0008476088 -0.039011974 0.036036167 0.0062040365 -0.024723329 0.028378937 -0.025224423
0.023840714 0.0328116 0.01968796 0.0055509103 0.014615172 -0.012607854 -0.019160707 0.03684628
-0.0007984693 -0.004643744 -0.012260329 0.0047908914 0.03042497 0.0016033491 0.017986245 -0.01930845
0.022766484 0.021372415 -0.020660864 -0.022310311 -0.035286583 0.028146932 -0.0032849405 0.008178225
-0.013087486 -0.0012912385 -0.024947094 0.012002739 -0.0347418 -0.020564137 -0.03384094 0.027760021
-0.025961166 -0.015740238 0.0006708356 0.006007224 -0.012258126 0.014388806 -0.021042548 0.012180688
00000000: 66a0 da3c 7028 5dbc 91c7 72bc 1f17 083d
00000010: 9cde 9ebb 3d4d 21bd 117f 24bd 5c8c 1e3b
00000020: db14 133d 32ef b7bc 7a26 293c 5e70 19bd
00000030: b1a7 063d a2f3 823c 55cd 213b 0360 dd3c
00000040: d199 193d 1032 5eba 05cb 1fbd a99a 133d
00000050: 3b4b cb3b 9488 cabc f27a e83c 73a3 cebc
00000060: 9a4d c33c 7565 063d a548 a13c 69e4 b53b
00000070: 7974 6f3c 2c91 4ebc eaf6 9cbc 20ec 163d
00000080: 5e50 51ba 8c2a 98bb 8cdf 48bc e9fc 9c3b
00000090: c93d f93c 7827 d23a e457 933c c12c 9ebc
000000a0: c780 ba3c 3415 af3c f940 a9bc 1dc4 b6bc
000000b0: aa88 10bd 6594 e63c 2848 57bb f6fd 053c
000000c0: e56c 56bc c63e a9ba d95d ccbc 23a7 443c
000000d0: 6b4d 0ebd 1f76 a8bc cc9c 0abd fc68 e33c
000000e0: 83ac d4bc acf1 80bc 04db 2f3a 3fd8 c43b
000000f0: 4fd6 48bc 07bf 6b3c 6c61 acbc 8291 473c

fc.2.weight f4 [64]
1.0693016 1.0715597 1.0709977 1.0693126 1.0723721 1.0 1.0663857 1.0
1.0594919 1.0696105 1.0 1.0 1.0698137 1.0 1.0716689 1.0690097
1.0703827 1.0 1.0 1.0 1.0 1.0 1.0 1.0
1.0 1.0 1.0 1.0732507 1.069671 1.0692142 1.0 1.0697786
1.0 1.0736332 1.0 1.0723916 1.0721625 1.0 1.0 1.0
1.071131 1.0 1.0 1.0679346 1.0739155 1.0 1.0639392 1.0
1.0700201 1.0 1.0729151 1.0 1.0695587 1.0 1.0 1.0690697
1.0 1.0 1.0743536 1.0701072 1.0 1.0 1.0 1.0
00000000: e0de 883f de28 893f 7416 893f 3cdf 883f
00000010: 7d43 893f 0000 803f 547f 883f 0000 803f
00000020: 6e9d 873f ffe8 883f 0000 803f 0000 803f
00000030: a8ef 883f 0000 803f 722c 893f 4fd5 883f
00000040: 4d02 893f 0000 803f 0000 803f 0000 803f
00000050: 0000 803f 0000 803f 0000 803f 0000 803f
00000060: 0000 803f 0000 803f 0000 803f 4760 893f
00000070: fbea 883f 03dc 883f 0000 803f 81ee 883f
00000080: 0000 803f d06c 893f 0000 803f 2144 893f
00000090: 9f3c 893f 0000 803f 0000 803f 0000 803f
000000a0: d21a 893f 0000 803f 0000 803f 15b2 883f
000000b0: 1076 893f 0000 803f 292f 883f 0000 803f
000000c0: 6bf6 883f 0000 803f 4855 893f 0000 803f
000000d0: 4de7 883f 0000 803f 0000 803f 47d7 883f
000000e0: 0000 803f 0000 803f 6b84 893f 46f9 883f
000000f0: 0000 803f 0000 803f 0000 803f 0000 803f

fc.2.bias f4 [64]
0.06571532 0.058883347 -0.06592929 -0.06691258 0.055158287 -0.07892999 -0.07297485 0.0822291
0.040348943 0.071121976 -0.071486264 -0.08285742 -0.013780088 0.070741236 0.030421278 -0.03555135
0.06552058 0.08313057 -0.07329795 -0.069133274 -0.07085983 0.082354136 -0.080042735 -0.08086208
-0.07789138 0.07950403 0.06755057 -0.06238435 0.02934068 -0.009185235 -0.07188809 0.036497764
0.06949921 0.05421239 -0.081922 -0.01436466 -0.06608509 -0.07038515 0.07122628 -0.08313707
-0.05357997 0.0835401 0.07545343 0.065703645 0.073282965 0.08013345 0.027703714 0.07295217
0.05695757 0.07375878 -0.066118665 -0.078306064 -0.06585334 -0.071472764 0.084984384 -0.059032798
0.083137885 0.07860748 0.020197662 0.02259631 -0.08287026 -0.08185434 -0.071898386 0.077192575
00000000: c195 863d aa2f 713d f005 87bd 7609 89bd
00000010: a8ed 613d 0ca6 a1bd d773 95bd bb67 a83d
00000020: ef44 253d 66a8 913d 6467 92bd 27b1 a9bd
00000030: e1c5 61bc c8e0 903d 0b36 f93c 4b9e 11bd
00000040: a72f 863d 5c40 aa3d 3c1d 96bd bf95 8dbd
00000050: f51e 91bd 49a9 a83d 72ed a3bd 059b a5bd
00000060: 8485 9fbd 02d3 a23d f457 8a3d bb86 7fbd
00000070: de5b f03c ab7d 16bc 103a 93bd ae7e 153d
00000080: 9a55 8e3d d00d 5e3d b9c6 a7bd c059 6bbc
00000090: 9f57 87bd 1726 90bd 15df 913d c543 aabd
000000a0: ac76 5bbd 1217 ab3d 5487 9a3d a28f 863d
000000b0: 6115 963d 021d a43d e6f2 e23c f367 953d
000000c0: 574c 693d d80e 973d 3969 87bd ee5e a0bd
000000d0: 1ede 86bd 5060 92bd 4b0c ae3d 60cc 71bd
000000e0: 3244 aa3d f5fc a03d 9175 a53c e61b b93c
000000f0: e2b7 a9bd 40a3 a7bd 763f 93bd 2417 9e3d

fc.2.running_mean f4 [64]
21405.47 1265.8381 12433.169 2934.0605 7826.18 0.0 26016.25 0.0
0.011313254 11260.11 0.0 0.0 15826.659 0.0 19467.979 939.1355
3633.486 0.0 0.0 0.0 0.0 0.0 0.0 0.0
0.0 0.0 0.0 6331.04 19226.865 10833.71 0.0 20453.57
0.0 1483.143 0.0 27406.807 40603.734 0.0 0.0 0.0
22095.488 0.0 0.0 16122.647 18328.842 0.0 19183.941 0.0
41563.77 0.0 25319.271 0.0 29819.791 0.0 0.0 10943.664
0.0 0.0 1283.548 43480.62 0.0 0.0 0.0 0.0
00000000: f13a a746 d23a 9e44 ad44 4246 f860 3745
00000010: 7191 f445 0000 0000 8040 cb46 0000 0000
00000020: 3a5b 393c 71f0 2f46 0000 0000 0000 0000
00000030: a34a 7746 0000 0000 f517 9846 acc8 6a44
00000040: c717 6345 0000 0000 0000 0000 0000 0000
00000050: 0000 0000 0000 0000 0000 0000 0000 0000
00000060: 0000 0000 0000 0000 0000 0000 52d8 c545
00000070: bb35 9646 d746 2946 0000 0000 24cb 9f46
00000080: 0000 0000 9364 b944 0000 0000 9d1d d646
00000090: bc9b 1e47 0000 0000 0000 0000 0000 0000
000000a0: fa9e ac46 0000 0000 0000 0000 97ea 7b46
000000b0: af31 8f46 0000 0000 e2df 9546 0000 0000
000000c0: c55b 2247 0000 0000 8bce c546 0000 0000
000000d0: 95f7 e846 0000 0000 0000 0000 a8fe 2a46
000000e0: 0000 0000 0000 0000 8971 a044 9fd8 2947
000000f0: 0000 0000 0000 0000 0000 0000 0000 0000

fc.2.running_var f4 [64]
48467.45 41214.74 41853.734 45831.953 53060.285 1.7550658e-32 48355.816 1.7550658e-32
1.0280641 29331.693 1.7550658e-32 1.7550658e-32 40248.582 1.7550658e-32 50319.14 44388.9
56636.41 1.7550658e-32 1.7550658e-32 1.7550658e-32 1.7550658e-32 1.7550658e-32 1.7550658e-32 1.7550658e-32
1.7550658e-32 1.7550658e-32 1.7550658e-32 47869.06 53991.902 42920.805 1.7550658e-32 43341.453
1.7550658e-32 42102.16 1.7550658e-32 47376.406 53678.793 1.7550658e-32 1.7550658e-32 1.7550658e-32
41584.1 1.7550658e-32 1.7550658e-32 33429.984 34609.254 1.7550658e-32 39352.52 1.7550658e-32
30702.768 1.7550658e-32 47726.645 1.7550658e-32 49933.273 1.7550658e-32 1.7550658e-32 49964.5
1.7550658e-32 1.7550658e-32 39892.223 86662.28 1.7550658e-32 1.7550658e-32 1.7550658e-32 1.7550658e-32
00000000: 7353 3d47 bdfe 2047 bc7d 2347 f407 3347
00000010: 4944 4f47 a741 b60a d1e3 3c47 a741 b60a
00000020: 9b97 833f 6327 e546 a741 b60a a741 b60a
00000030: 9538 1d47 a741 b60a 248f 4447 e664 2d47
00000040: 693c 5d47 a741 b60a a741 b60a a741 b60a
00000050: a741 b60a a741 b60a a741 b60a a741 b60a
00000060: a741 b60a a741 b60a a741 b60a 0ffd 3a47
00000070: e7e7 5247 cea8 2747 a741 b60a 744d 2947
00000080: a741 b60a 2976 2447 a741 b60a 6810 3947
00000090: cbae 5147 a741 b60a a741 b60a a741 b60a
000000a0: 1a70 2247 a741 b60a a741 b60a fc95 0247
000000b0: 4131 0747 a741 b60a 85b8 1947 a741 b60a
000000c0: 89dd ef46 a741 b60a a56e 3a47 a741 b60a
000000d0: 460d 4347 a741 b60a a741 b60a 802c 4347
000000e0: a741 b60a a741 b60a 39d4 1b47 2443 a947
000000f0: a741 b60a a741 b60a a741 b60a a741 b60a

fc.3.weight f4 [64, 64]
0.10653759 -0.001631763 -0.10724864 0.11258871 0.11425719 0.13595645 -0.007699921 -0.04571574
0.11265449 0.02860841 0.0370832 0.09938237 0.032130957 -0.0863972 0.024424424 0.0762744
0.07970966 -0.06293653 0.12044893 0.0015918429 0.039431807 -0.023267077 -0.02193531 0.16094689
-0.09945492 -0.15639494 0.03839881 0.07498693 -0.04420894 0.06882928 -0.02058699 0.08661251
-0.09073632 0.09743146 -0.08477817 -0.0162137 0.09254416 0.039596777 -0.04366982 0.1550307
0.009969607 -0.14799938 0.02185766 -0.059904028 -0.118018046 0.0871504 -0.0074452176 -0.13431247
0.086188495 0.05537806 -0.051263634 0.07702803 0.015936786 0.023584684 -0.10653255 0.11530906
-0.11682761 0.08622915 0.021086037 0.058718212 0.0099540325 0.09484436 0.13093036 -0.052034803
-0.04410851 0.15440954 -0.16693616 0.020178316 0.025771504 -0.052352015 0.021460755 0.082660206
-0.13608223 0.059937354 -0.035157472 -0.049618248 0.03424677 -0.030090146 0.0025309094 -0.044646848
0.027812958 0.13605094 0.06736356 -0.18991454 -0.060784772 0.008256886 0.012170201 -0.0858428
0.06736077 0.09058078 0.13179718 0.051125064 0.141837 -0.121122584 -0.091033794 0.021180851
0.029355241 0.13754348 0.060058292 -0.13258785 -0.1276903 -0.0072978926 -0.041563198 -0.1154387
-0.02811384 0.010826299 0.14381075 0.06919477 0.092624664 -0.06092012 0.11134447 0.11943473
-0.0015970822 0.028045787 -0.017390735 -0.14820975 -0.14539333 -0.15630773 -0.023235552 0.094211705
0.092375785 -0.08099317 -0.026602514 0.0713074 -0.02429015 -0.13502893 -0.005035674 0.08804262
0.012092668 0.10524754 -0.04959128 -0.16630721 0.11407625 0.035974395 -0.005209506 0.0048432844
-0.045102872 -0.03454465 -0.024093153 -0.00022059548 0.061781015 0.088191226 0.008339949 -0.1741141
0.035041854 0.04172017 -0.20164666 -0.14267017 -0.09159328 0.06348647 0.044697035 -0.1194811
-0.13453567 -0.06062831 0.12450855 -0.09014252 0.0460913 -0.17808628 -0.19983399 0.17058647
0.028662497 0.17097476 -0.09630827 0.05684974 -0.14138003 -0.1784724 -0.005371955 -0.07170434
-0.154546 -0.032990072 0.18594393 -0.046623375 0.14362885 -0.003804223 0.100034274 0.11005681
-0.04949118 -0.033560485 0.042307027 0.05129267 -0.16588022 -0.07806204 0.14884548 0.13821228
0.0501319 -0.020283757 0.06537601 0.13719958 -0.052965805 0.026754152 -0.19045322 -0.038101654
0.10333486 0.14521992 -0.035772555 -0.12691775 0.18814181 -0.06435519 -0.14423177 0.11343074
-0.1532861 0.113789074 -0.0374 -0.10386333 0.03463895 0.11306489 -0.03363938 0.055392355
0.11767995 0.18870686 -0.12240675 -0.15048423 -0.14962398 0.15185831 -0.095447436 -0.19744928
-0.03405515 0.122737594 0.072635025 -0.13344085 -0.031301122 -0.1636521 -0.14027208 0.059325907
-0.04618033 0.13434158 -0.08500499 -0.13053514 -0.11015033 -0.018521799 0.19164601 0.0329025
-0.06759269 0.18897407 0.17424543 0.1855664 0.05173307 0.12412724 0.0005694055 0.029710287
-0.1007281 0.017279986 -0.04663976 0.011650645 -0.16759709 -0.089874744 0.08476581 0.04901261
0.04027418 0.17379256 0.01662497 0.19170116 -0.15277036 -0.20060194 -0.1349654 0.02892819
00000000: 6130 da3d e1e0 d5ba 2da5 dbbd e994 e63d
00000010: acff e93d 2b38 0b3e 9e4f fcbb 6e40 3bbd
00000020: 66b7 e63d 2f5c ea3c 8ee4 173d fc88 cb3d
00000030: c09b 033d 04f1 b0bd bb15 c83c c135 9c3d
00000040: d13e a33d dee4 80bd eead f63d 62a5 d03a
00000050: 3f83 213d 999a bebc aeb1 b3bc 43cf 243e
00000060: 05af cbbd ff25 20be 1248 1d3d bf92 993d
00000070: 6f14 35bd 5ef6 8c3d 0ca6 a8bc e661 b13d
00000080: f7d3 b9bd 258a c73d 2da0 adbd 98d2 84bc
00000090: cb87 bd3d 3b30 223d 20df 32bd 5ec0 1e3e
000000a0: 9057 233c 268d 17be d60e b33c ed5d 75bd
000000b0: 72b3 f1bd e97b b23d 03f7 f3bb 3589 09be
000000c0: 9883 b03d 1bd4 623d d1f9 51bd dfc0 9d3d
000000d0: dd8d 823c ab34 c13c bd2d dabd 2827 ec3d
000000e0: 5043 efbd e998 b03d a0bc ac3c 8282 703d
000000f0: 3d16 233c c33d c23d 9c12 063e 7222 55bd
00000100: 20ab 34bd 891d 1e3e 50f1 2abe ff4c a53c
00000110: c31e d33c 116f 56bd 77ce af3c c149 a93d
00000120: 2459 0bbe df80 753d 4801 10bd 813c 4bbd
00000130: 5746 0c3d 9c7f f6bc 9ddd 253b 9ddf 36bd
00000140: 00d8 e33c f050 0b3e e8f5 893d f578 42be
00000150: 74f9 78bd e447 073c 8665 473c 5ace afbd
00000160: 72f4 893d 6a82 b93d d7f5 063e 8468 513d
00000170: b83d 113e 1e0f f8bd ed6f babd 7783 ad3c
00000180: 677a f03c 33d8 0c3e afff 753d 1cc5 07be
00000190: 3fc1 02be 2923 efbb 2c3e 2abd 206b ecbd
000001a0: ff4e e6bc ca60 313c 2043 133e fdb5 8d3d
000001b0: 00b2 bd3d 6087 79bd 9208 e43d 329a f43d
000001c0: 3055 d1ba 47c0 e53c 0477 8ebc 4cc4 17be
000001d0: fde1 14be 220f 20be 7c58 bebc 11f2 c03d
000001e0: 842f bd3d bfdf a5bd 84ed d9bc 9d09 923d
000001f0: 23fc c6bc 0645 0abe 4c02 a5bb b04f b43d
00000200: 5320 463c 068c d73d 3a20 4bbd 704c 2abe
00000210: cfa0 e93d e359 133d 81b4 aabb 6ab4 9e3b
00000220: cabd 38bd b17e 0dbd 015f c5bc a64f 67b9
00000230: 170e 7d3d 9a9d b43d 48a4 083c f74a 32be
00000240: 0c88 0f3d c5e2 2a3d 767c 4ebe 2118 12be
00000250: 4295 bbbd 3205 823d 3d14 373d 82b2 f4bd
00000260: b8c3 09be 6455 78bd 57fe fe3d a49c b8bd
00000270: 3bca 3c3d 405c 36be 48a1 4cbe 38ae 2e3e
00000280: 9dcd ea3c 0214 2f3e 453d c5bd 46db 683d
00000290: edc5 10be 78c1 36be 3a07 b0bb bad9 92bd
000002a0: 4e41 1ebe 9920 07bd 1668 3e3e 27f8 3ebd
000002b0: 7113 133e 4550 79bb c5de cc3d 7765 e13d
000002c0: 43b7 4abd b876 09bd 224a 2d3d 4318 523d
000002d0: 81dc 29be fede 9fbd f36a 183e 8587 0d3e
000002e0: 1b57 4d3d 1f2a a6bc dce3 853d 0c7e 0c3e
000002f0: acf2 58bd 862b db3c 2b06 43be 7b10 1cbd
00000300: 3aa1 d33d 88b4 143e 3e86 12bd baf6 01be
00000310: 3fa8 403e a7cc 83bd 7eb1 13be 604e e83d
00000320: 08f7 1cbe 3f0a e93d be30 19bd 4cb6 d4bd
00000330: 92e1 0d3d 918e e73d 72c9 09bd 18e3 623d
00000340: 3002 f13d 5f3c 413e 64b0 fabd 8a18 1abe
00000350: 0737 19be bf80 1b3e f279 c3bd 2530 4abe
00000360: 6a7d 0bbd d95d fb3d acc1 943d b8a4 08be
00000370: 9b35 00bd 6b94 27be 7ca3 0fbe b9ff 723d
00000380: 9627 3dbd d790 093e 1917 aebd 01ab 05be
00000390: 7f96 e1bd 07bb 97bc da3e 443e c6c4 063d
000003a0: 096e 8abd 6b82 413e 656d 323e 1e05 3e3e
000003b0: 0ee6 533d 6c36 fe3d 2844 153a fd62 f33c
000003c0: 894a cebd c28e 8d3c 5509 3fbd 59e2 3e3c
000003d0: 929e 2bbe 4010 b8bd b299 ad3d 72c1 483d
000003e0: 8af6 243d adf6 313e 1731 883c 4f4d 443e
000003f0: d56f 1cbe 986a 4dbe 5f34 0abe d0fa ec3c

fc.3.bias f4 [64]
-0.008731166 0.004310464 0.091719896 0.118651144 0.06517576 0.09541932 0.14663143 0.01924209
0.13300245 0.026455933 0.17221943 0.07344881 0.18295264 0.05624851 0.06103297 -0.03409629
0.017559823 0.019445455 0.14486969 0.05777547 0.031057771 0.06343814 0.055871915 -0.040471744
0.060719185 0.05125904 0.08872908 0.13004678 0.10642316 0.15685308 0.14075845 0.036385857
0.07196802 0.017814618 0.18204652 0.08855902 -0.051549934 0.06034732 -0.0010932557 0.013948174
0.1428365 0.0973399 0.16719118 -0.03612082 0.118927464 0.093061864 0.11686224 -0.012209021
0.12546232 0.08797615 0.021426985 0.12852453 0.104830556 0.15042864 0.06378841 0.12189223
0.14126281 0.14465195 0.016028464 0.16488548 0.09964235 0.033682656 0.11097959 0.15571705
00000000: 2a0d 0fbc cb3e 8d3b a4d7 bb3d 5fff f23d
00000010: de7a 853d 346b c33d 8d26 163e 96a1 9d3c
00000020: cb31 083e 1dba d83c 4a5a 303e 546c 963d
00000030: f057 3b3e d664 663d b5fd 793d 8da8 0bbd
00000040: 9ed9 8f3c 134c 9f3c b858 143e f9a5 6c3d
00000050: de6c fe3c dbeb 813d f3d9 643d b3c5 25bd
00000060: aeb4 783d 00f5 513d 98b7 b53d fc2a 053e
00000070: 63f4 d93d 189e 203e fc22 103e 5609 153d
00000080: f863 933d f6ef 913c 676a 3a3e 6e5e b53d
00000090: 0626 53bd c02e 773d 934b 8fba e286 643c
000000a0: bb43 123e 245a c73d 2a34 2b3e 6df3 13bd
000000b0: 3e90 f33d 3897 be3d 7855 ef3d 5808 48bc
000000c0: 3279 003e d72c b43d a587 af3c ef9b 033e
000000d0: 67b1 d63d f709 1a3e 7fa3 823d a2a2 f93d
000000e0: 33a7 103e a41f 143e 204e 833c bdd7 283e
000000f0: 4a11 cc3d d3f6 093d 4449 e33d 4a74 1f3e

placing_layer.0.weight f4 [5, 64]
-0.027128696 0.13975938 0.004123666 0.011188982 0.11601211 0.07583078 0.18903403 0.029494548
0.061535493 0.05815859 0.055485945 -0.0021718089 0.099585235 0.09754466 0.093617074 0.01613942
0.1411402 0.13002284 0.13118833 0.043819327 0.08663093 0.13638654 0.020418819 -0.025863279
0.07090264 -0.0064222193 0.09474496 0.042064108 0.018533772 0.1230121 0.09849674 0.030665606
-0.020289969 -0.042374883 0.006174318 -0.05377033 0.08485567 -0.025352571 0.03428182 -0.0021266087
0.14774013 0.103033625 0.107262924 0.18511532 0.16384536 0.09516863 0.017191319 0.19122666
0.10519355 0.11694231 0.012095542 -0.018048933 0.09212793 0.119105436 0.063574545 0.05172664
0.18255179 0.17328812 0.067198284 0.039131273 0.0854571 0.10345373 0.1289727 -0.05154609
0.13208054 0.10558341 -0.009641323 0.14716427 0.15786153 0.16059285 0.12054638 0.008794058
0.0205778 0.15729359 0.0288008 0.0702027 0.004756875 0.009740031 0.124740556 0.12921837
0.054967012 0.124226056 -0.040179808 -0.057939757 -0.031114293 0.11338503 -0.032895796 0.022919916
0.06246548 0.0562519 0.17812853 0.14167754 -0.031129166 -0.051916815 0.12938899 0.14030874
-0.027304305 0.097100094 0.08498776 0.11098757 0.08307729 0.15765475 0.16608773 0.109278224
0.16898361 0.0978108 0.02557318 0.044804327 0.12664887 -0.02415959 0.006104956 0.027015856
0.06070533 0.058688436 -0.0469839 0.11174689 0.1020079 0.14404123 0.07192466 0.086377904
0.18619238 0.18919042 -0.030374784 0.09291224 -0.040475078 -0.039568696 0.1343626 -0.010498372
-0.0044148415 -0.023028903 0.047744486 -0.05826869 -0.058942325 0.10754531 -0.08970803 -0.117706016
0.031068927 0.0016912994 -0.12454302 0.08323783 -0.12503684 0.038871594 0.040630065 -0.07947291
0.021311987 0.013356125 -0.13272391 0.00240169 0.046896026 -0.00051610754 0.017781505 0.034234587
0.11455018 0.04596872 -0.002502755 -0.071115725 0.008809264 0.082463235 -0.096995935 0.07562372
0.042219978 -0.10922564 -0.032839008 -0.097042695 -0.11193712 0.068236396 -0.068596266 0.034989182
0.089472964 -0.10166968 0.01172402 -0.13356173 -0.059420045 0.06707263 -0.10152141 0.020295003
0.10299078 0.0746134 -0.083560035 -0.11570244 -0.040575445 0.032630567 0.037442345 -0.039521575
0.080939926 0.04596357 0.062807515 0.0022628533 0.10902611 -0.11188166 0.012825669 0.078827515
-0.10776627 0.023301557 -0.072432205 0.019769818 0.004304096 -0.112158224 -0.06116788 -0.042141013
-0.02231412 -0.10344653 -0.029315636 -0.04839313 -0.12100859 -0.0800922 -0.085404724 0.10685232
0.020088032 -0.08227116 0.12218128 -0.03516826 -0.047718838 0.09163651 -0.007599294 0.05326867
-0.01222904 -0.007819894 0.09857437 -0.04094955 0.0880909 0.10538362 -0.102101564 -0.0086108
-0.10773823 0.04500106 -0.097311944 -0.007947475 -0.09869589 0.077885196 0.058825105 0.045161206
0.0347576 -0.0052365214 -0.1067629 -0.09670608 -0.09190671 0.06923882 -0.08022046 -0.07351972
0.05796212 -0.10280342 0.09178576 -0.10035013 -0.079362005 -0.017710656 -0.018826673 0.101927504
-0.0078082224 0.040512517 0.045441855 -0.0914908 0.049211662 -0.098460495 -0.09086673 0.0131909605
00000000: 003d debc 151d 0f3e d11f 873b fe51 373c
00000010: c297 ed3d 2b4d 9b3d 2392 413e 8d9e f13c
00000020: a40c 7c3d b437 6e3d 3b45 633d e854 0ebb
00000030: 58f3 cb3d 7fc5 c73d 4fba bf3d d136 843c
00000040: 0e87 103e b524 053e 3c56 063e e57b 333d
00000050: 8f6b b13d eaa8 0b3e 5e45 a73c 3adf d3bc
00000060: 6735 913d 7b71 d2bb a509 c23d 6a4b 2c3d
00000070: 23d4 973c c5ed fb3d a9b8 c93d 7036 fb3c
00000080: 2637 a6bc 4991 2dbd ef51 ca3b 473e 5cbd
00000090: cfc8 ad3d 32b0 cfbc 186b 0c3d 935e 0bbb
000000a0: 3049 173e 4b03 d33d aaac db3d df8e 3d3e
000000b0: 14c7 273e c5e7 c23d cfd4 8c3c ecd0 433e
000000c0: b76f d73d 737f ef3d 612c 463c 5bdb 93bc
000000d0: 91ad bc3d 8ded f33d 5f33 823d 50df 533d
000000e0: dbee 3a3e 7172 313e 419f 893d 1d48 203d
000000f0: 2204 af3d 8ddf d33d 6b11 043e fe21 53bd
00000100: 1f40 073e 1d3c d83d a4f6 1dbc 3bb2 163e
00000110: 74a6 213e 7472 243e 05e1 f63d f414 103c
00000120: c692 a83c 9211 213e a8ef eb3c 6fc6 8f3d
00000130: 8fdf 9b3b a794 1f3c fa77 ff3d d251 043e
00000140: 1725 613d 3b6a fe3d 9593 24bd 3d52 6dbd
00000150: 67e3 febc 6936 e83d bebd 06bd 8cc2 bb3c
00000160: cedb 7f3d 6468 663d 5367 363e eb13 113e
00000170: 9802 ffbc baa6 54bd 8c7e 043e 18ad 0f3e
00000180: 47ad dfbc 6adc c63d 100e ae3d 734d e33d
00000190: 6d24 aa3d 3f70 213e e712 2a3e 43cd df3d
000001a0: 0a0a 2d3e 0751 c83d d87e d13c be84 373d
000001b0: 3eb0 013e 55ea c5bc 150c c83b 5b50 dd3c
000001c0: 27a6 783d 4963 703d 3172 40bd 8edb e43d
000001d0: 85e9 d03d 8b7f 133e 3c4d 933d e6e6 b03d
000001e0: 37a9 3e3e 22bb 413e 8ad4 f8bc c648 be3d
000001f0: 32c9 25bd c912 22bd 5996 093e 5d01 2cbc
00000200: 60aa 90bb 1ca7 bcbc b98f 433d 26ab 6ebd
00000210: 826d 71bd b740 dc3d d8b8 b7bd da0f f1bd
00000220: 4384 fe3c 97ae dd3a 6910 ffbd 9878 aa3d
00000230: a809 00be d237 1f3d b66b 263d b1c2 a2bd
00000240: 7a96 ae3c a6d3 5a3c c7e8 07be ac65 1d3b
00000250: 0c16 403d 644b 07ba 85aa 913c 9139 0c3d
00000260: 4999 ea3d b249 3c3d 4305 24bb 1fa5 91bd
00000270: bb54 103c 7ce2 a83d cea5 c6bd 9ce0 9a3d
00000280: dbee 2c3d b1b1 dfbd 3282 06bd 52be c6bd
00000290: 4a3f e5bd 86bf 8b3d 337c 8cbd d150 0f3d
000002a0: 9a3d b73d 3138 d0bd 1b16 403c 68c4 08be
000002b0: 6f62 73bd 605d 893d 75ea cfbd b541 a63c
000002c0: d4ec d23d e9ce 983d 8621 abbd 67f5 ecbd
000002d0: 7032 26bd a1a7 053d 255d 193d 60e1 21bd
000002e0: d5c3 a53d 4c44 3c3d 3aa1 803d 614c 143b
000002f0: 1549 df3d 3622 e5bd c122 523c 5270 a13d
00000300: 90b4 dcbd e8e2 be3c 5657 94bd 50f4 a13c
00000310: 6009 8d3b 36b3 e5bd 2c8b 7abd 0e9c 2cbd
00000320: 1acc b6bc c6db d3bd 5827 f0bc e037 46bd
00000330: 5ad3 f7bd 6107 a4bd ace8 aebd 64d5 da3d
00000340: a88f a43c c87d a8bd 2e3a fa3d 980c 10bd
00000350: d474 43bd ecab bb3d 8003 f9bb 4030 5a3d
00000360: 505c 48bc 031f 00bc 5ce1 c93d b7ba 27bd
00000370: 0069 b43d 5ed3 d73d a01a d1bd 5014 0dbc
00000380: dca5 dcbd 0853 383d 7c4b c7bd 2036 02bc
00000390: 1221 cabd 4682 9f3d 98f2 703d f5fa 383d
000003a0: fc5d 0e3d 2097 abbb 82a6 dabd d60d c6bd
000003b0: 9639 bcbd 15cd 8d3d a04a a4bd 8291 96bd
000003c0: b069 6d3d 998a d2bd 2cfa bb3d 5e84 cdbd
000003d0: 8c88 a2bd f015 91bc 653a 9abc 5ebf d03d
000003e0: 1edc ffbb 74f0 253d 3d21 3a3d 875f bbbd
000003f0: 2b92 493d a8a5 c9bd 5618 babd e61e 583c

placing_layer.0.bias f4 [5]
-0.030674594 -0.01513106 -0.015044789 -0.0714252 0.16592684
00000000: 4949 fbbc 44e8 77bc 6b7e 76bc 6047 92bd
00000010: bae8 293e

placing_layer.1.weight f4 [5, 64]
0.08183645 0.08799308 -0.0025467693 0.04219361 -0.081898265 -0.13016236 0.09129275 0.09100433
0.06976325 -0.017029362 0.011136305 0.08619664 -0.12208615 -0.06283047 0.035056908 0.09975438
-0.09801513 0.09802035 -0.07349003 0.060371496 -0.061035383 0.06764303 0.07731628 -0.09169195
-0.072689526 0.088748865 0.09524026 0.0009090657 0.03680801 -0.011994387 0.011278831 0.05163265
-0.12523259 -0.023295593 -0.0037770816 -0.11258206 0.04637466 -0.0312767 -0.10305859 0.03422666
0.020647084 -0.12274819 -0.0027585332 -0.046238862 0.09853369 -0.08461038 0.07613561 -0.055378843
0.10441716 -0.074254185 -0.122215025 -0.07767354 -0.14131136 3.589331e-05 -0.073852 0.0005239176
-0.045983355 -0.09355217 0.094093725 0.0039350265 0.08127731 0.017683798 0.041955654 0.10214262
0.11988868 0.01771161 0.14222887 0.04559525 0.16710095 0.0072622444 -0.042327624 0.042028364
0.054635122 -0.017297687 -0.013779341 0.027516888 0.065444626 -0.05675108 0.10806653 -0.0456675
0.1807712 0.021645559 -0.0059690285 0.02132319 0.1712063 -0.029384974 0.088488266 0.05264928
0.0066925026 0.053200517 0.0071584834 0.019667286 0.1395181 0.15552148 0.10871793 0.009362091
0.11288053 0.13435681 0.04932723 0.074558415 0.1836824 -0.013163873 -0.024495138 0.16959947
0.06544178 0.0028721045 -0.020699065 -0.04504648 -0.04317708 -0.054348495 0.0026035057 0.091218024
-0.026393203 0.18548015 0.10273459 0.035277467 0.17356145 0.11125589 0.14006908 -0.060130134
0.08245139 0.17600846 -0.00026214914 0.14401145 0.048332628 -0.032505624 0.051283278 0.09505101
0.09166705 -0.052426208 0.083174914 0.11515487 0.0050072535 0.019023929 -0.06563209 -0.026166374
-0.06732333 0.028936421 0.0425576 -0.017602444 -0.06230694 -0.00224632 0.05392508 -0.10881145
-0.08387786 -0.037224233 -0.12009334 -0.09588658 0.07009888 -0.067149445 -0.067062676 -0.12260417
0.026940921 0.00613696 -0.03972515 -0.11634575 -0.10741511 -0.015783932 -0.055921976 0.015843274
-0.06833422 -0.021379536 -0.044523995 -0.11386246 -0.08232264 0.09189082 0.013320065 -0.07351132
-0.06402492 -0.12555215 0.034950323 0.10882008 -0.12753822 -0.12764615 0.07300662 0.09506539
-0.033178143 -0.11954641 -0.113181636 0.08671587 0.031098695 -0.078315586 -0.050798323 -0.08177369
0.05192 0.05312583 -0.07894332 -0.022566432 0.011519338 0.094324954 0.019528305 0.031189846
0.01903523 -0.1181204 0.11132312 -0.11198763 0.029526493 -0.12927252 -0.085846886 -0.013248095
0.034303457 0.089526355 -0.07304241 0.02841316 0.08842374 0.056215886 0.013128056 0.0042055813
-0.04170136 0.021184485 -0.018148422 0.09901966 -0.02918741 -0.009088096 0.0872376 -0.101295866
0.0399549 -0.10859099 -0.08615783 -0.08193135 0.08202893 -0.018712819 0.10326223 0.068641245
-0.04403995 0.002430923 -0.03593203 -0.0996323 0.08870013 -0.12690611 -0.12139398 0.026618417
0.03654126 -0.06248642 0.05672991 0.052206676 0.027477931 0.09089342 -0.04874943 -0.025527311
-0.08122017 -0.02472386 -0.06261742 -0.036010176 -0.06914459 -0.0707942 -0.026523605 -0.0043619494
-0.121619165 0.057164453 -0.048146173 -0.13170326 -0.08296445 0.07916263 -0.10972983 -0.110669136
00000000: de99 a73d b735 b43d b3e7 26bb 35d3 2c3d
00000010: 47ba a7bd 4849 05be b1f7 ba3d 7a60 ba3d
00000020: 09e0 8e3d 2981 8bbc 0c75 363c dd87 b03d
00000030: 4e08 fabd 43ad 80bd d597 0f3d 064c cc3d
00000040: 28bc c8bd e5be c83d f181 96bd 1a48 773d
00000050: 3d00 7abd 6e88 8a3d ff57 9e3d fdc8 bbbd
00000060: 3fde 94bd f7c1 b53d 530d c33d 5e4e 6e3a
00000070: ffc3 163d 1b84 44bc d9ca 383c c27c 533d
00000080: f93c 00be 66d6 bebc ea88 77bb 6c91 e6bd
00000090: 5bf3 3d3d ff1b 00bd 6210 d3bd 4131 0c3d
000000a0: 1324 a93c 6763 fbbd 82c8 34bb f664 3dbd
000000b0: 08cc c93d 3548 adbd fdec 9b3d edd4 62bd
000000c0: aad8 d53d 9412 98bd df4b fabd 4e13 9fbd
000000d0: edb3 10be 268c 1638 b83f 97bd 8457 093a
000000e0: 0b59 3cbd 4898 bfbd 36b4 c03d 65f1 803b
000000f0: b874 a63d 9ddd 903c b1d9 2b3d 2630 d13d
00000100: 3288 f53d f017 913c 72a4 113e 16c2 3a3d
00000110: 831c 2b3e 1ff8 ed3b bb5f 2dbd ef25 2c3d
00000120: 14c9 5f3d e1b3 8dbc bfc2 61bc 196b e13c
00000130: d507 863d d273 68bd fc51 dd3d d80d 3bbd
00000140: 161c 393e 0752 b13c d797 c3bb f8ad ae3c
00000150: b450 2f3e c2b8 f0bc 5639 b53d c5a6 573d
00000160: c84c db3b c9e8 593d b691 ea3b 4a1d a13c
00000170: d5dd 0e3e 0641 1f3e 82a7 de3d 7563 193c
00000180: e82d e73d d594 093e 590b 4a3d 15b2 983d
00000190: 3d17 3c3e 49ad 57bc 07aa c8bc 7cab 2d3e
000001a0: 5706 863d eb39 3c3b 1691 a9bc a882 38bd
000001b0: 73da 30bd 879c 5ebd 949f 2a3b 84d0 ba3d
000001c0: 8f36 d8bc 82ee 3d3e 8366 d23d 1b7f 103d
000001d0: 18ba 313e 21da e33d 456e 0f3e 044b 76bd
000001e0: 46dc a83d 903b 343e 1071 89b9 bd77 133e
000001f0: 6ff8 453d 9e24 05bd 6a0e 523d 1baa c23d
00000200: efbb bb3d ddbc 56bd 9c57 aa3d 51d6 eb3d
00000210: e313 a43b 12d8 9b3c 1e6a 86bd dd5a d6bc
00000220: d0e0 89bd 130c ed3c e150 2e3d 0033 90bc
00000230: 9035 7fbd ff36 13bb 8be0 5c3d 8ad8 debd
00000240: 28c8 abbd 7078 18bd 7ff3 f5bd 2f60 c4bd
00000250: 0090 8f3d a685 89bd 2858 89bd e517 fbbd
00000260: 35b3 dc3c 8d18 c93b d7b6 22bd ae46 eebd
00000270: 74fc dbbd 4e4d 81bc 710e 65bd c1c9 813c
00000280: d0f2 8bbd 2324 afbc cb5e 36bd b930 e9bd
00000290: c698 a8bd 4131 bc3d 673c 5a3c 1a8d 96bd
000002a0: 7f1f 83bd be90 00be 1228 0f3d 10dd de3d
000002b0: 6199 02be acb5 02be 7f84 953d a5b1 c23d
000002c0: cee5 07bd c0d4 f4bd c6cb e7bd 1798 b13d
000002d0: b1c2 fe3c ec63 a0bd e711 50bd f778 a7bd
000002e0: 11aa 543d 789a 593d 09ad a1bd 3ddd b8bc
000002f0: 9bbb 3c3c 712d c13d d3f9 9f3c d981 ff3c
00000300: c5ef 9b3c 1ce9 f1bd 60fd e33d c559 e5bd
00000310: 8be1 f13c 0460 04be 7ed0 afbd 8a0e 59bc
00000320: c881 0c3d 9859 b73d 4297 95bd b7c2 e83c
00000330: 8117 b53d a142 663d 0f17 573c f9ce 893b
00000340: 0ccf 2abd 168b ad3c 00ac 94bc d2ca ca3d
00000350: 6f1a efbc 3de6 14bc a0a9 b23d 3574 cfbd
00000360: c0a7 233d f464 debd 8473 b0bd a0cb a7bd
00000370: c9fe a73d a04b 99bc 267b d33d c893 8c3d
00000380: 3c63 34bd 1f50 1f3b 772d 13bd 050c ccbd
00000390: 6aa8 b53d adf3 01be 689d f8bd de0e da3c
000003a0: 4aac 153d c3f1 7fbd 9f5d 683d abd6 553d
000003b0: 6619 e13c 5426 ba3d 7bad 47bd a71e d1bc
000003c0: c356 a6bd b189 cabc 903d 80bd 687f 13bd
000003d0: ae9b 8dbd 8dfc 90bd 0848 d9bc afee 8ebb
000003e0: 7813 f9bd 4625 6a3d ec34 45bd 38dd 06be
000003f0: 44e9 a9bd 0420 a23d 08ba e0bd 80a6 e2bd

placing_layer.1.bias f4 [5]
-0.0058955243 0.08627167 0.114484616 0.001155875 0.026949912
00000000: 3e2f c1bb 34af b03d e976 ea3d bb80 973a
00000010: 10c6 dc3c

placing_layer.2.weight f4 [5, 64]
0.07555563 0.014543166 0.07898739 -0.01207808 0.10133911 0.0055594966 0.17057878 0.05621145
-0.015818758 -0.0069064912 0.16938154 0.042467643 0.09144079 -0.0013014718 0.06460405 0.17002973
0.064609885 0.15926799 0.06518843 0.094565466 0.16710916 0.16145009 0.07318338 0.045588277
0.08230065 0.117597334 0.12388666 0.14906248 0.038383465 0.014363479 -0.07236653 -0.05199961
0.06827761 0.13762262 0.06626856 0.15999688 0.07431378 0.10404716 0.03587678 0.16054073
0.057720475 0.021770423 -0.025080353 0.12631015 0.16310754 -0.06641535 -0.06124383 0.16503374
-0.077423975 0.062228248 0.04970759 0.119948514 -0.0031036944 0.09817488 0.16868608 0.067732334
0.057354797 -0.064497255 0.06497255 0.08266133 0.09455447 0.103826 -0.009952048 -0.028858585
-0.0069043306 0.039296124 0.0030499399 -0.03651993 -0.02397099 0.053111937 0.06605352 0.11865383
0.16652033 0.0653063 0.09141224 -0.048391655 -0.0176936 0.17004524 0.08255352 0.10757043
0.09292535 -0.013052234 0.04266294 0.17501497 0.012907153 0.1314109 0.01047788 -0.06321459
0.027484547 -0.012413667 0.021225555 0.02113241 0.0068973526 -0.03476192 0.028453171 0.0056392355
0.021685101 -0.017041812 0.044531483 0.023247905 0.03326166 0.060770594 -0.029515043 0.12699734
0.05035416 0.010917358 0.111461274 0.17214513 0.08507989 0.06992239 0.032793734 0.09657025
0.13294035 0.12584192 0.062616736 -0.015647896 -0.04677896 0.13153513 0.13876334 0.18764567
0.11609722 -0.047697 0.061523013 0.18463273 0.073616624 0.16064604 -0.051277295 0.01217875
0.060637463 -0.07545288 0.036164805 -0.12961952 0.07203367 0.0057045217 0.03083173 0.06190279
-0.005586886 -0.12061176 0.10947495 0.0700698 -0.038306817 -0.019880386 0.012746967 -0.064035416
-0.018761855 -0.1228469 -0.034472197 -0.025855353 -0.0014532713 0.0538499 0.07370861 0.07690562
-0.12574254 0.070869476 0.096588 -0.10729754 0.064576 -0.04352351 -0.05641717 0.06959529
-0.048014805 0.012249075 0.04846583 -0.025012204 -0.10010014 -0.0017795609 0.021861922 -0.10422884
0.007737042 0.049291655 0.025106028 0.054830004 0.07182862 0.09979059 0.06282546 -0.06601645
-0.049646225 0.039424334 -0.025388066 -0.1111751 -0.12984425 -0.0027402206 -0.12120513 -0.036085263
0.09138008 -0.023241391 -0.10524784 -0.123570494 -0.07179743 0.08793952 -0.083819546 0.042603645
-0.13186839 -0.109001875 0.03684445 -0.044392906 0.07783018 -0.090458386 0.11080291 0.021174818
-0.10065457 -0.007896507 0.05635302 -0.09828255 -0.05782539 0.019134209 -0.03764354 0.037115358
-0.11764608 0.0072170827 -0.026440326 0.003314618 0.040075373 0.01893894 0.081748515 -0.036646012
0.042022828 0.033554133 -0.10304232 0.11140348 -0.038670305 0.036004677 0.03636304 0.012847315
-0.12233829 -0.0066431407 0.05343217 -0.08960196 0.04035584 -0.12774278 0.078581534 0.09630931
-0.047111794 -0.015068173 -0.011869667 -0.07499779 -0.122268625 0.016922466 0.021376401 -0.030144127
0.048490368 -0.04247763 -0.11244245 0.087674595 -0.0047112764 0.07371576 -0.11699471 0.04377436
0.103881165 -0.07311383 -0.055376276 -0.116951846 0.015274755 0.04372107 -0.0776719 -0.1262559
00000000: e9bc 9a3d 7646 6e3c 24c4 a13d 24e3 45bc
00000010: e18a cf3d 702c b63b 34ac 2e3e fa3d 663d
00000020: 5796 81bc d94f e2bb 5b72 2d3e 8df2 2d3d
00000030: 4f45 bb3d 2696 aaba 214f 843d 461c 2e3e
00000040: 3052 843d 2617 233e 8381 853d 8aab c13d
00000050: aa1e 2b3e 2c53 253e 2be1 953d c6ba 3a3d
00000060: 3e8d a83d dfd6 f03d 4ab8 fd3d d6a3 183e
00000070: fb37 1d3d cc54 6b3c e734 94bd 8bfd 54bd
00000080: 22d5 8b3d f2ec 0c3e d0b7 873d 39d6 233e
00000090: d331 983d ad16 d53d 88f3 123d ca64 243e
000000a0: 4e6c 6c3d e357 b23c 5075 cdbc 7357 013e
000000b0: aa05 273e c504 88bd cfda 7abd 9bfe 283e
000000c0: 7690 9ebd 0ce3 7e3d 309a 4b3d 91a7 f53d
000000d0: 5a67 4bbb e90f c93d 0bbc 2c3e 40b7 8a3d
000000e0: ddec 6a3d 2317 84bd 5410 853d 584a a93d
000000f0: c6a5 c13d baa2 d43d ea0d 23bc d768 ecbc
00000100: b93d e2bb f9f4 203d 80e1 473b ec95 15bd
00000110: cf5e c4bc e78b 593d 1147 873d c700 f33d
00000120: 4e84 2a3e 4fbf 853d 5736 bb3d 5436 46bd
00000130: 2bf2 90bc 5720 2e3e d211 a93d e34d dc3d
00000140: a54f be3d 0ad9 55bc 56bf 2e3d 2037 333e
00000150: 8678 533c 9490 063e 6aab 2b3c a776 81bd
00000160: 4627 e13c b162 4bbc 37e1 ad3c e01d ad3c
00000170: 3003 e23b 8462 0ebd a016 e93c 56c9 b83b
00000180: f4a4 b13c 459b 8bbc a566 363d 6472 be3c
00000190: 613d 083d 96ea 783d 88c9 f1bc 970b 023e
000001a0: 2a40 4e3d b8de 323c cf45 e43d d046 303e
000001b0: 5e3e ae3d 7833 8f3d b952 063d a0c6 c53d
000001c0: 8421 083e b4dc 003e 343d 803d 0430 80bc
000001d0: 4b9b 3fbd 25b1 063e fa17 0e3e 3026 403e
000001e0: 61c4 ed3d ee5d 43bd 8eff 7b3d 5d10 3d3e
000001f0: 50c4 963d 6580 243e 2408 52bd 6189 473c
00000200: fd5e 783d 0a87 9abd 8c21 143d fbba 04be
00000210: 6486 933d ffec ba3b d392 fc3c c88d 7d3d
00000220: 3212 b7bb 4c03 f7bd 6734 e03d c180 8f3d
00000230: 9ce7 1cbd 31dc a2bc a8d8 503c 0025 83bd
00000240: 76b2 99bc 2897 fbbd b832 0dbd 9bce d3bc
00000250: b17b beba b691 5c3d 8af4 963d b280 9d3d
00000260: a7c2 00be 0424 913d eecf c53d d0be dbbd
00000270: 6c40 843d b545 32bd b115 67bd fa87 8e3d
00000280: 2cab 44bd 58b0 483c 1b84 463d 65e6 ccbc
00000290: 4d01 cdbd 2840 e9ba c617 b33c ee75 d5bd
000002a0: 0387 fd3b 0ce6 493d 28ab cd3c 6d95 603d
000002b0: e21a 933d 025f cc3d a3aa 803d a233 87bd
000002c0: d759 4bbd 697b 213d a2fa cfbc c5af e3bd
000002d0: e4f5 04be 4695 33bb 653a f8bd 24ce 13bd
000002e0: 7b25 bb3d bb64 bebc 2e8c d7bd 8712 fdbd
000002f0: 880a 93bd a319 b43d 95a9 abbd 2981 2e3d
00000300: 8208 07be 603c dfbd 35ea 163d 56d5 35bd
00000310: 6e65 9f3d 3f42 b9bd a3ec e23d d076 ad3c
00000320: fc23 cebd 5a60 01bc 6dd2 663d 5d48 c9bd
00000330: 51da 6cbd 58bf 9c3c 1d30 1abd 4606 183d
00000340: 6ef0 f0bd 477d ec3b 6299 d8bc 103a 593b
00000350: 1326 243d d625 9b3c c46b a73d 211a 16bd
00000360: 2120 2c3d 0f70 093d da07 d3bd 8227 e43d
00000370: c164 1ebd a479 133d 69f1 143d 8b7d 523c
00000380: 7f8c fabd b4ae d9bb b1db 5a3d 3b81 b7bd
00000390: 2a4c 253d 01cf 02be 5bef a03d d13d c53d
000003a0: 4cf8 40bd 80e0 76bc fe78 42bc 7198 99bd
000003b0: f967 fabd fca0 8a3c 901d af3c d1f0 f6bc
000003c0: d69d 463d 06fd 2dbd 3a48 e6bd bd8e b33d
000003d0: 0d61 9abb 4af8 963d ec9a efbd be4c 333d
000003e0: a6bf d43d b4bc 95bd 3cd2 62bd 7384 efbd
000003f0: f742 7a3c dd14 333d 7212 9fbd 3a49 01be

placing_layer.2.bias f4 [5]
0.12334579 0.12092682 -0.026171453 0.019443829 -0.090323985
00000000: b89c fc3d 7ba8 f73d 8465 d6bc aa48 9f3c
00000010: c8fb b8bd

placing_layer.3.weight f4 [5, 64]
-0.026787037 0.06687387 0.080640696 0.15446432 0.06184893 0.050436236 0.14217283 -0.005055465
-0.030809332 0.07032843 -0.024124468 0.050994836 0.101297684 0.02536638 0.18220796 0.04715784
-0.032849215 0.054734256 0.10870258 0.15218022 0.10095889 -0.008274403 0.1218937 0.013894605
0.021288093 0.017010706 -0.016115315 -0.0009950782 0.13933574 0.06969562 0.17261101 0.09655573
-0.034314804 -0.001454086 0.07870626 -0.008878467 -0.009440647 0.09248906 -0.009974364 0.075980835
0.16875786 0.0070489394 0.02598316 0.13847218 0.10293371 -0.017352473 0.16037944 0.04544498
0.04688905 0.016390113 0.1726389 0.15942526 -0.015376492 0.08074615 0.007712806 0.11664067
0.059963636 0.045711275 -0.013752835 0.005821296 -0.026890911 0.11252324 0.056895807 0.09688299
-0.03809531 0.005036637 -0.1129003 -0.048487887 0.114438 0.119401574 -0.09065813 0.055082723
0.06791484 -0.038015828 0.063008696 0.09244418 -0.017814815 -0.10951689 -0.08803168 0.07094361
0.09373954 -0.04191196 -0.090192795 0.04618901 0.04273963 -0.06959058 0.059299648 -0.04905863
-0.120133534 0.062099323 0.021638557 -0.08720398 -0.0427043 -0.018167421 0.032710552 -0.11690807
-0.0003786981 0.04489562 -0.10507299 -0.020832732 0.08073573 0.10993378 0.107404575 -0.009088635
-0.04736097 0.017001346 -0.057824835 -0.1080641 -0.033002123 -0.116871774 -0.07677893 -0.06082891
-0.06493807 -0.054158524 0.07549791 0.052043557 -0.0808987 -0.10573609 0.016745836 -0.10119523
-0.101829916 0.084145814 -0.060369477 -0.10637191 0.08148268 -0.038621724 -0.095537156 -0.045603007
-0.056733806 0.034884594 -0.082785 -0.04496516 0.01649013 -0.017959602 -0.09320742 -0.07141359
-0.08593482 -0.0940214 0.111294016 0.054012716 0.025986087 -0.057743296 0.05242765 -0.09258589
0.062527455 0.06641231 0.07511699 -0.063759096 -0.11518662 0.015637591 -0.08584666 -0.02132536
-0.027493976 -0.11653194 0.019017993 0.081356354 0.084641285 -0.069989875 0.07553573 -0.031623684
0.0024736605 0.028050706 -0.05739343 -0.077318184 0.059473354 -0.09045209 -0.0752112 -0.037499737
-0.11657163 0.0992421 0.09715935 0.02392359 0.044843238 -0.11932454 0.048346303 0.06469675
-0.072757415 -0.10064201 -0.044273373 0.10704273 0.120401874 0.00016002629 -0.013784979 -0.038120676
-0.003310585 -0.040276952 0.06694844 -0.11928831 -0.021119151 0.021421136 0.069107056 0.040904786
-0.030701265 0.01978898 -0.06786331 -0.12185582 0.08168962 0.10940955 0.11079375 -0.11214172
0.0021056992 0.048696868 0.06870863 0.06119826 -0.051548667 -0.05987939 0.05713545 0.022696188
0.1109793 -0.009037537 -0.046087902 0.010135792 0.065716416 0.07033681 0.042518593 0.112796366
-0.104482986 -0.013513395 -0.07433932 0.003500385 -0.010243323 0.0066311667 0.039675727 0.041288547
-0.0065083364 -0.030134114 0.033505537 0.007425835 0.044186354 -0.038346384 -0.030738339 -0.07491494
-0.09126924 0.029461369 -0.08826787 -0.009912785 -0.033217363 -0.030663574 0.024345012 -0.06562925
-0.038726546 -0.010004389 -0.13450013 0.047734804 -0.015694614 -0.08236421 -0.036575157 -0.10964216
-0.036685836 -0.024515834 -0.1134511 0.04160675 -0.021856606 -0.004023976 -0.0500778 -0.081181556
00000000: 7d70 dbbc 2bf5 883d f326 a53d e52b 1e3e
00000010: 4e55 7d3d 3a96 4e3d c195 113e 50a8 a5bb
00000020: da63 fcbc 5a08 903d ada0 c5bc f6df 503d
00000030: 2975 cf3d 28cd cf3c b994 3a3e 9428 413d
00000040: e68c 06bd 0731 603d 759f de3d 22d5 1b3e
00000050: 89c3 ce3d 5d91 07bc 67a3 f93d 33a6 633c
00000060: 5e64 ae3c 095a 8b3c 4404 84bc 496d 82ba
00000070: 07ae 0e3e 94bc 8e3d f1c0 303e 03bf c53d
00000080: ae8d 0cbd 0897 beba bf30 a13d fd76 11bc
00000090: f2ac 1abc e76a bd3d 846b 23bc d79b 9b3d
000000a0: dcce 2c3e cafa e63b a3da d43c a7cb 0d3e
000000b0: e9ce d23d c626 8ebc 823a 243e 8424 3a3d
000000c0: bc0e 403d 8f44 863c 40c8 303e 6040 233e
000000d0: afed 7bbc 3d5e a53d b5bb fc3b 4ee1 ee3d
000000e0: 6e9c 753d bf3b 3b3d 9253 61bc 92c0 be3b
000000f0: 544a dcbc 9672 e63d 940b 693d 976a c63d
00000100: d409 1cbd 600a a53b 4638 e7bd 3c9b 46bd
00000110: 785e ea3d d088 f43d f8aa b9bd 6c9e 613d
00000120: f016 8b3d 7cb6 1bbd b40a 813d 6053 bd3d
00000130: 60f0 91bc 644a e0bd f449 b4bd e24a 913d
00000140: 84fa bf3d e0ab 2bbd 00b7 b8bd b030 3d3d
00000150: c00f 2f3d 8285 8ebd 30e4 723d b4f1 48bd
00000160: 9208 f6bd dc5b 7e3d 5843 b13c 0098 b2bd
00000170: b4ea 2ebd d8d3 94bc 80fb 053d 806d efbd
00000180: 008c c6b9 78e4 373d 8230 d7bd 68a9 aabc
00000190: c658 a53d f624 e13d eef6 db3d 80e8 14bc
000001a0: 94fd 41bd 6846 8b3c bcd9 6cbd b650 ddbd
000001b0: 3c2d 07bd 785a efbd 463e 9dbd bc27 79bd
000001c0: 40fe 84bd 54d5 5dbd a69e 9a3d a02b 553d
000001d0: 38ae a5bd 2a8c d8bd 902e 893c 723f cfbd
000001e0: 348c d0bd a454 ac3d fc45 77bd 84d9 d9bd
000001f0: 64e0 a63d d031 1ebd fca8 c3bd 38ca 3abd
00000200: b561 68bd 26e3 0e3d 2f8b a9bd 632d 38bd
00000210: 4f16 873c 0420 93bc 88e3 bebd 4a41 92bd
00000220: 98fe afbd 4b8e c0bd 1eee e33d 703c 5d3d
00000230: c6e0 d43c 3c84 6cbd 60be 563d ac9d bdbd
00000240: 650e 803d 2d03 883d f0d6 993d 2194 82bd
00000250: f6e6 ebbd 681a 803c 60d0 afbd 85b2 aebc
00000260: 0c3b e1bc 4ca8 eebd 9fcb 9b3c 299e a63d
00000270: 6958 ad3d da56 8fbd 7ab2 9a3d d687 01bd
00000280: 231d 223b 98ca e53c 6015 6bbd ff58 9ebd
00000290: 559a 733d f23e b9bd 5408 9abd 5399 19bd
000002a0: 1bbd eebd 713f cb3d 7bfb c63d 68fb c33c
000002b0: 8bad 373d 6d60 f4bd c606 463d bb7f 843d
000002c0: d701 95bd 661d cebd ff57 35bd 3839 db3d
000002d0: 4295 f63d bbcc 2739 64da 61bc 6d24 1cbd
000002e0: 66f6 58bb 72f9 24bd 441c 893d 6e4d f4bd
000002f0: 1202 adbc 617b af3c 0088 8d3d c78b 273d
00000300: 3881 fbbc 801c a23c ebfb 8abd 8b8f f9bd
00000310: e34c a73d 1d12 e03d d5e7 e23d 8faa e5bd
00000320: c5ff 093b 5e76 473d 1cb7 8c3d 07ab 7a3d
00000330: b224 53bd 1744 75bd dd06 6a3d 5bed b93c
00000340: 1e49 e33d 2d12 14bc abc6 3cbd 9810 263c
00000350: 5496 863d bf0c 903d fa27 2e3d c801 e73d
00000360: 2dfb d5bd 4967 5dbc 373f 98bd b766 653b
00000370: 9cd3 27bc 424a d93b 0483 223d 2e1e 293d
00000380: e243 d5bb d1db f6bc 1a3d 093d 6b54 f33b
00000390: c0fc 343d 1911 1dbd f8ce fbbc 016d 99bd
000003a0: 5eeb babd f858 f13c c9c5 b4bd 3c69 22bc
000003b0: ee0e 08bd 2d32 fbbc 316f c73c a168 86bd
000003c0: ba9f 1ebd 73e9 23bc 67ba 09be 9285 433d
000003d0: fe91 80bc 91ae a8bd d5cf 15bd 128c e0bd
000003e0: e343 16bd 6ed5 c8bc 0d59 e8bd d76b 2a3d
000003f0: a00c b3bc 8fdb 83bb 611e 4dbd 8442 a6bd

placing_layer.3.bias f4 [5]
0.16823903 -0.06644915 -0.111325786 0.037418045 -0.0056636627
00000000: da46 2c3e 7e16 88bd c6fe e3bd aa43 193d
00000010: 3f96 b9bb
