auto_src/log_res/temp/4exp_2/imitation_learning_env-20250105-080221/bc_ddpg_actor.pth (torch, 813806 bytes, 248 tensors)

fc.0.weight f4 [64, 1835]
0	0xbba497a0	-0.005022958
1	0x3c0219b1	0.007940696
2	0xbcc3fbb1	-0.023923727
3	0xbcb2ff60	-0.021850288
4	0xbc5ab26d	-0.013348204
5	0x3ab9e6c5	0.0014183155
6	0xbb9e34e9	-0.0048280847
7	0x3c62ac4f	0.013835027
8	0xbbde4094	-0.0067826007
9	0x3a5c418b	0.00084021006
10	0xbc42f7f8	-0.011899941
11	0xbc133ee8	-0.008987166
12	0xbcdd1437	-0.026987178
13	0xbca4f969	-0.02013846
14	0xbc651880	-0.013982892
15	0xbb828bd4	-0.003983954
16	0x3b9e3673	0.004828268
17	0x3c17265d	0.009225455
18	0xbca8661b	-0.0205565
19	0xbc6e0252	-0.01452692
20	0x3b6dee3f	0.0036305336
21	0x3c75dd8b	0.015006433
22	0xbc1c4807	-0.009538657
23	0x3c4fb9b4	0.012678552
24	0xbc050608	-0.008119114
25	0xbb1c08ba	-0.0023808912
26	0x3c89382e	0.016750421
27	0xbcd85e7b	-0.02641224
28	0xbc9fb270	-0.019494265
29	0xbc28366d	-0.010266882
30	0xbc648445	-0.013947551
31	0x3c8159ca	0.015789885
32	0xbca3b084	-0.01998163
33	0xbc7c29c8	-0.015390821
34	0xbca94b99	-0.02066593
35	0xbcdad041	-0.026710631
36	0xbc938d3e	-0.018011685
37	0x3c7b0e42	0.015323224
38	0x3bbb17d2	0.0057096267
39	0x3be3c761	0.006951258
40	0xbb6d0613	-0.003616695
41	0xbc85dd01	-0.016340734
42	0xba278210	-0.0006389925
43	0xbcda759d	-0.02666741
44	0xbcadfac4	-0.021237738
45	0xbc8a551a	-0.016886283
46	0x3c29cfd8	0.010364495
47	0x3c137299	0.00899949
48	0xbc7884b1	-0.015168355
49	0xbbc907a1	-0.0061349426
50	0x3c25300a	0.010082254
51	0x3c9a1417	0.018808408
52	0x3b93e337	0.00451317
53	0xbade926a	-0.0016980891
54	0x3c38fbc0	0.011290491
55	0xbc985831	-0.01859674
56	0xb98dd81f	-0.00027054638
57	0xbcbb84f9	-0.022890555
58	0xbcab4cfa	-0.020910729
59	0xbc86d07e	-0.016456839
60	0x3bbb40c8	0.0057145096
61	0x3ba24afd	0.004952787
62	0xbc9793fd	-0.018503183
63	0x3b170a99	0.0023047088
64	0x3c0a8df0	0.008456692
65	0xbbff776f	-0.00779622
66	0xbb64a05a	-0.0034885616
67	0x3a3baa67	0.0007158876
68	0x3c1eab2b	0.009684364
69	0x3c93e212	0.018052135
70	0xbcbb14e8	-0.022837117
71	0xbc55e03e	-0.013053952
72	0x3b906afc	0.004407285
73	0x3c6d36da	0.01447841
74	0x3c82a2ba	0.015946735
75	0x3c8101eb	0.015747985
76	0x3988349e	0.00025979144
77	0xbcccbce8	-0.024992421
78	0xbb265260	-0.002537869
79	0xbc9b556a	-0.018961627
80	0xbcd9ec6b	-0.02660199
81	0x3c85bf5b	0.016326597
82	0x3c53c5d1	0.012925581
83	0xbce4af57	-0.02791564
84	0xb6a4a213	-4.906449e-06
85	0xbc0fd1e0	-0.008778065
86	0xbc0694a0	-0.008214146
87	0xbc7c6d80	-0.015406966
88	0x3b8b695b	0.0042545027
89	0xbc94f126	-0.018181395
90	0x3b734d80	0.003712505
91	0x3bf27170	0.0073987767
92	0x3c42b6c3	0.011884394
93	0x3b81ae4a	0.0039575445
94	0xbce11980	-0.02747798
95	0xbca3ca31	-0.019993873
96	0x3bee95b4	0.0072810296
97	0x38f80ff2	0.000118285316
98	0xbcbbf288	-0.022942796
99	0xbc91d777	-0.017802937
100	0x3c8c32eb	0.017114123
101	0x3c38d76d	0.01128183
102	0xbc72a3bc	-0.014809545
103	0xbc2ec746	-0.010667628
104	0xbcda09d9	-0.026616024
105	0xbbac9dee	-0.00526785
106	0xbcb3c577	-0.021944745
107	0xbcb9528b	-0.022622367
108	0xbbc604dc	-0.0060430598
109	0xba5f9084	-0.00085283094
110	0xbc6c088f	-0.014406337
111	0x3c1aa18e	0.009437932
112	0xbc9b2984	-0.018940695
113	0x3c86103f	0.016365169
114	0x3c3ebd49	0.011641809
115	0xbcc8f82d	-0.024532402
116	0xbc26b70a	-0.010175476
117	0xbb7740d8	-0.003772786
118	0xbab08c34	-0.0013469518
119	0x3a9ab6cf	0.0011803749
120	0x3b8d6c19	0.0043158648
121	0xbb4641d8	-0.0030251648
122	0xbc83806c	-0.016052447
123	0x3bcdbb85	0.0062784576
124	0xbcdb3650	-0.026759297
125	0xbc991534	-0.018686868
126	0xbc2740ec	-0.01020835
127	0xbc842440	-0.016130567
128	0xbc53b4d0	-0.012921527
129	0xbcc06fcb	-0.023490807
130	0xbc20c20e	-0.009811891
131	0x3a23c99c	0.00062479987
132	0xbca3e970	-0.020008773
133	0xbbc502ac	-0.0060122814
134	0x3c4a5512	0.012349384
135	0xbbed7734	-0.007246876
136	0xbb77f28c	-0.0037833778
137	0xbbe052d2	-0.0068458105
138	0xb887cd55	-6.475548e-05
139	0x3c2b7d4f	0.010466888
140	0x3c8d6f35	0.017264942
141	0x3c2a97fa	0.010412211
142	0x3c8ebad1	0.017423065
143	0xbbd4f43c	-0.0064988416
144	0xbcd011cd	-0.025399113
145	0xbc82632e	-0.015916433
146	0x3c3c9070	0.011509046
147	0xbba1934a	-0.0049308883
148	0xbc85dcfc	-0.016340725
149	0xbcb63e94	-0.022246636
150	0xbcdaaf60	-0.026694953
151	0xbcc620e6	-0.02418561
152	0xbc1b9628	-0.009496249
153	0x3c03bd57	0.008040748
154	0x3c072cba	0.00825041
155	0xbce023bd	-0.027360791
156	0x3c26291f	0.01014164
157	0xbcbcc2ba	-0.023042072
158	0xbc1e7523	-0.009671482
159	0xbc62763e	-0.013822136
160	0xbc191f41	-0.00934583
161	0xbc12d57d	-0.008962032
162	0xbcd299f6	-0.02570818
163	0xbccc61b5	-0.024948934
164	0xbc033921	-0.008009226
165	0xbb94c97a	-0.0045406194
166	0xbc75c00d	-0.014999402
167	0x3b83ec4a	0.0040259706
168	0xbcd2a455	-0.025713125
169	0xbbc277e2	-0.0059347013
170	0x3c8073b7	0.015680177
171	0xbc6552b2	-0.013996767
172	0x3c85e37b	0.016343823
173	0x3b6f5db4	0.0036524357
174	0xbcd046ed	-0.025424445
175	0x3c2290eb	0.009922246
176	0xbbe767c2	-0.0070619294
177	0xbc772a63	-0.015085789
178	0x3c651f8c	0.013984572
179	0xbcbe678f	-0.02324274
180	0xbb1989e7	-0.0023428143
181	0xbc17de2f	-0.009269281
182	0x3c44738d	0.01199044
183	0x3ae89794	0.0017745369
184	0x3be06314	0.0068477485
185	0x3b5eba29	0.0033985472
186	0xbc23fe5c	-0.0100093745
187	0xbc1e16a4	-0.009648953
188	0xbcc4e1c2	-0.024033431
189	0x3c07dde3	0.008292648
190	0x3c6048c8	0.013689227
191	0x3c3029c8	0.010752149
192	0xbcad183e	-0.021129724
193	0xbb753787	-0.003741713
194	0xbcaa7d07	-0.02081157
195	0xbc90f76e	-0.017696109
196	0xbc9497be	-0.018138763
197	0x3b544479	0.0032389446
198	0xbc98a24f	-0.018632082
199	0xbb9fcce9	-0.004876722
200	0xbb7d4953	-0.003864844
201	0x3c2ed3cd	0.010670614
202	0xbcb7f6ef	-0.022456614
203	0xbcaaf91b	-0.020870736
204	0xbc92be51	-0.017913016
205	0x3c3c2868	0.011484243
206	0xbc510b6b	-0.01275907
207	0x3c7497bd	0.014928755
208	0x3b6ae68c	0.0035842983
209	0xbab7835a	-0.0014000938
210	0xbba477a2	-0.005019144
211	0xbc13ab67	-0.0090130335
212	0xbaf656a6	-0.0018794134
213	0xbc24d021	-0.010059387
214	0xbbb34c75	-0.005471761
215	0xbaf573c4	-0.0018726517
216	0xbcb973b4	-0.02263818
217	0xbc8a41d1	-0.016877087
218	0x3c6779df	0.014128177
219	0xbcbf0c37	-0.023321254
220	0xbbd5c7bb	-0.006524054
221	0x3c98886f	0.018619744
222	0x3b6c6599	0.00360713
223	0xbb892782	-0.004185618
224	0xbcc98672	-0.024600241
225	0x3bdc1dd5	0.0067174234
226	0xbcacc90d	-0.021091962
227	0xbc3b6af3	-0.011439073
228	0xbc4f4b76	-0.012652269
229	0xbc001cbe	-0.007819353
230	0xbb968105	-0.004593017
231	0x3c738f19	0.01486566
232	0xbaec0ccf	-0.0018009188
233	0x3c834ec1	0.016028764
234	0x3c228ca8	0.00992123
235	0xbca095f0	-0.019602746
236	0x3bc64365	0.0060505145
237	0xbcadfa71	-0.021237584
238	0xbc709400	-0.014683723
239	0x3b24910d	0.002511087
240	0x3b3b54dc	0.0028584516
241	0x3c573a3b	0.013136442
242	0xbc496ba5	-0.012293731
243	0xbb9d647b	-0.004803238
244	0x3bfac5c4	0.00765297
245	0xbce0a927	-0.027424408
246	0x3c4a2134	0.012337018
247	0xbcc4b293	-0.024010932
248	0xbb8fce36	-0.004388596
249	0xbc08a299	-0.008339548
250	0xbc8c6b8a	-0.017141122
251	0xbaafd93d	-0.0013416182
252	0x3c6d6709	0.0144898975
253	0xbc3b06fb	-0.0114152385
254	0xbc9538e1	-0.018215599
255	0xbc5cdabc	-0.013479885

fc.0.bias f4 [64]
0	0xbc820ff6	-0.015876751
1	0x3d4049f8	0.046945542
2	0x3cd53521	0.02602631
3	0x3c1584a5	0.009125863
4	0x3bb08dbd	0.0053879903
5	0xbca792e3	-0.020455783
6	0x3c9a8094	0.018860139
7	0xbc945a85	-0.01810957
8	0xbc9b1b06	-0.018933784
9	0xbc03b412	-0.008038538
10	0x3c9b8520	0.018984377
11	0xbc3ec2f7	-0.011643163
12	0xbbbec093	-0.0058212965
13	0x3c851da9	0.016249495
14	0xbc6fc888	-0.014635213
15	0x3cabe602	0.0209837
16	0xbc51a3a6	-0.0127953645
17	0x3c3df001	0.011592866
18	0x3aeb59a1	0.0017955789
19	0xbafa4d30	-0.001909649
20	0x3c61cc56	0.013781628
21	0x3c82ce11	0.0159674
22	0xbcbb3af6	-0.022855263
23	0x3c8c6011	0.017135652
24	0xbc395476	-0.011311641
25	0x3b08d1a5	0.002087691
26	0xbc73b97d	-0.014875767
27	0x3bc725fe	0.006077527
28	0x3c7d664e	0.015466286
29	0xbc0fcde8	-0.008777119
30	0x3b499f8c	0.0030765263
31	0xbcb1deb0	-0.021712631
32	0xbc51ea2b	-0.012812178
33	0xbc42c941	-0.011888803
34	0xbbd2f151	-0.0064374586
35	0x3ca4ac6a	0.020101745
36	0x3aa9da52	0.0012958741
37	0x3b67d194	0.003537272
38	0x3be7610d	0.00706113
39	0x3c6e1e33	0.014533567
40	0xbc02e98f	-0.007990255
41	0xbcd28225	-0.025696823
42	0xbc27f5af	-0.010251447
43	0xbc1efa91	-0.009703294
44	0x3b0bc7de	0.0021328847
45	0x3d4bc102	0.049744613
46	0x3bc916d8	0.0061367564
47	0x3c1271f0	0.008938298
48	0x3c085ee5	0.008323406
49	0xbc51e3e4	-0.012810681
50	0x3c179a67	0.009253121
51	0x3ba31ed4	0.0049780402
52	0x399afeb0	0.00029562926
53	0xbc5c991a	-0.013464237
54	0x3c85458b	0.016268512
55	0xbb44cb2c	-0.0030028326
56	0x3cbf215f	0.023331342
57	0x3bdff127	0.0068341675
58	0xbc35d3f7	-0.0110979
59	0xbb315395	-0.0027057875
60	0x3c6bf495	0.014401575
61	0x3cb578fa	0.022152413
62	0x3b029baf	0.001992922
63	0xbb8cd536	-0.0042978777

fc.2.weight f4 [64]
0	0x3f808293	1.0039848
1	0x3f9d36ad	1.2282311
2	0x3f9e4364	1.2364316
3	0x3f7f5ee8	0.9975419
4	0x3f800000	1.0
5	0x3f800000	1.0
6	0x3f800000	1.0
7	0x3f80a348	1.004983
8	0x3f800000	1.0
9	0x3f8029c4	1.0012746
10	0x3f800000	1.0
11	0x3f80ed34	1.0072389
12	0x3f800000	1.0
13	0x3f800000	1.0
14	0x3f815305	1.010346
15	0x3f9d89b7	1.2307652
16	0x3f9e7834	1.2380433
17	0x3f800000	1.0
18	0x3f9e8a18	1.2385893
19	0x3f800000	1.0
20	0x3f800000	1.0
21	0x3f800000	1.0
22	0x3f800000	1.0
23	0x3f80a7af	1.0051173
24	0x3f800000	1.0
25	0x3f800000	1.0
26	0x3f800000	1.0
27	0x3f9da9b5	1.2317415
28	0x3f9c7ea6	1.222615
29	0x3f800000	1.0
30	0x3f800000	1.0
31	0x3f800000	1.0
32	0x3f800000	1.0
33	0x3f80d2f5	1.0064379
34	0x3f800000	1.0
35	0x3f800000	1.0
36	0x3f7f1ce7	0.99653476
37	0x3f80c36e	1.005964
38	0x3f7f52fe	0.9973601
39	0x3f9d7f5e	1.2304494
40	0x3f800000	1.0
41	0x3f7fca02	0.99917614
42	0x3f818635	1.0119082
43	0x3f7f53f7	0.99737495
44	0x3f800000	1.0
45	0x3f9e6cff	1.2377013
46	0x3f800000	1.0
47	0x3f9ed8cf	1.2409915
48	0x3f808d75	1.0043169
49	0x3f800000	1.0
50	0x3f80002f	1.0000056
51	0x3f9e2291	1.2354299
52	0x3f800000	1.0
53	0x3f800000	1.0
54	0x3f800000	1.0
55	0x3f7f6e24	0.99777436
56	0x3f800000	1.0
57	0x3f800746	1.000222
58	0x3f800000	1.0
59	0x3f800000	1.0
60	0x3f800000	1.0
61	0x3f800000	1.0
62	0x3f9ed1a4	1.2407727
63	0x3f7e9a17	0.9945387

fc.2.bias f4 [64]
0	0x3e852232	0.2600265
1	0xbe421de2	-0.18956712
2	0xbe607963	-0.21921305
3	0x3e8567bc	0.26055706
4	0x3e8789ca	0.26472312
5	0xbe84cedc	-0.2593907
6	0x3e860381	0.26174548
7	0x3e8312f7	0.25600407
8	0xbe8565c6	-0.2605421
9	0x3e8b2b31	0.2718139
10	0xbe82f386	-0.2557642
11	0x3e881191	0.26575902
12	0xbe892c29	-0.26791504
13	0xbe878ac6	-0.26473063
14	0x3e72caa0	0.23710108
15	0xbe789b98	-0.24278104
16	0x3e67d03e	0.22638032
17	0xbe803d07	-0.2504656
18	0xbe8a7455	-0.2704188
19	0xbe8506c2	-0.25981718
20	0x3e7f9376	0.24958596
21	0x3e875cb8	0.26437926
22	0x3e872baa	0.264005
23	0x3e860277	0.26173756
24	0x3e88071c	0.26567924
25	0xbe87e159	-0.26539114
26	0xbe85e56b	-0.26151595
27	0xbe7f068c	-0.24904841
28	0xbe30c413	-0.17262296
29	0x3e893e6a	0.2680543
30	0x3e86034c	0.2617439
31	0x3e8786c8	0.26470017
32	0xbe8656c8	-0.26238084
33	0x3e81add3	0.2532793
34	0x3e87e1b9	0.265394
35	0x3e8799a3	0.26484403
36	0x3e863f0b	0.26219973
37	0xbe865970	-0.2624011
38	0x3e881fbf	0.2658672
39	0x3e3c6917	0.18399464
40	0x3e87f814	0.26556456
41	0x3e83e3b5	0.25759664
42	0x3e829b24	0.25508988
43	0x3e890722	0.26763254
44	0x3e88ccf6	0.26718873
45	0xbe885ad6	-0.26631802
46	0xbe7e64d6	-0.24843153
47	0x3e4ef296	0.20209727
48	0xbe747680	-0.23873329
49	0xbe8822f2	-0.2658916
50	0x3e8070eb	0.2508615
51	0xbe84929d	-0.25893107
52	0xbe869ea7	-0.26292917
53	0x3e87c1d1	0.26515058
54	0x3e87477f	0.26421735
55	0x3e847d0c	0.25876653
56	0xbe87d745	-0.26531425
57	0x3e8818fa	0.26581556
58	0xbe84c148	-0.25928712
59	0x3e88cad2	0.2671724
60	0xbe815d7a	-0.2526663
61	0xbe878e0b	-0.26475558
62	0xbe598aa8	-0.212443
63	0x3e85f085	0.26160064

fc.2.running_mean f4 [64]
0	0x00000004	6e-45
1	0x47c210ca	99361.58
2	0x4764ed9a	58605.6
3	0x00000004	6e-45
4	0x00000000	0.0
5	0x00000000	0.0
6	0x00000000	0.0
7	0x00000004	6e-45
8	0x00000000	0.0
9	0x00000004	6e-45
10	0x00000000	0.0
11	0x00000004	6e-45
12	0x00000000	0.0
13	0x00000000	0.0
14	0x00000004	6e-45
15	0x4735d105	46545.02
16	0x4713fcd9	37884.848
17	0x00000000	0.0
18	0x47c53b26	100982.3
19	0x00000000	0.0
20	0x00000000	0.0
21	0x00000000	0.0
22	0x00000000	0.0
23	0x00000004	6e-45
24	0x00000000	0.0
25	0x00000000	0.0
26	0x00000000	0.0
27	0x47f2ac31	124248.38
28	0x4589c3c7	4408.472
29	0x00000000	0.0
30	0x00000000	0.0
31	0x00000000	0.0
32	0x00000000	0.0
33	0x00000004	6e-45
34	0x00000000	0.0
35	0x00000000	0.0
36	0x00000004	6e-45
37	0x00000004	6e-45
38	0x00000004	6e-45
39	0x468c5a5c	17965.18
40	0x00000000	0.0
41	0x00000004	6e-45
42	0x00000004	6e-45
43	0x00000004	6e-45
44	0x00000004	6e-45
45	0x47fa0840	128016.5
46	0x00000000	0.0
47	0x47ecc456	121224.67
48	0x00000004	6e-45
49	0x00000000	0.0
50	0x00000004	6e-45
51	0x47c076c1	98541.51
52	0x00000000	0.0
53	0x00000000	0.0
54	0x00000000	0.0
55	0x00000004	6e-45
56	0x00000000	0.0
57	0x00000004	6e-45
58	0x00000000	0.0
59	0x00000000	0.0
60	0x00000000	0.0
61	0x00000000	0.0
62	0x46384f7e	11795.873
63	0x00000004	6e-45

fc.2.running_var f4 [64]
0	0x00000004	6e-45
1	0x48436388	200078.12
2	0x4850ead0	213931.25
3	0x00000004	6e-45
4	0x00000004	6e-45
5	0x00000004	6e-45
6	0x00000004	6e-45
7	0x00000004	6e-45
8	0x00000004	6e-45
9	0x00000004	6e-45
10	0x00000004	6e-45
11	0x00000004	6e-45
12	0x00000004	6e-45
13	0x00000004	6e-45
14	0x00000004	6e-45
15	0x4837e729	188316.64
16	0x4824d09c	168770.44
17	0x00000004	6e-45
18	0x487b0bd8	257071.38
19	0x00000004	6e-45
20	0x00000004	6e-45
21	0x00000004	6e-45
22	0x00000004	6e-45
23	0x00000004	6e-45
24	0x00000004	6e-45
25	0x00000004	6e-45
26	0x00000004	6e-45
27	0x484f5a4b	212329.17
28	0x47b66411	93384.13
29	0x00000004	6e-45
30	0x00000004	6e-45
31	0x00000004	6e-45
32	0x00000004	6e-45
33	0x00000004	6e-45
34	0x00000004	6e-45
35	0x00000004	6e-45
36	0x00000004	6e-45
37	0x00000004	6e-45
38	0x00000004	6e-45
39	0x47c4ef33	100830.4
40	0x00000004	6e-45
41	0x00000004	6e-45
42	0x00000004	6e-45
43	0x00000004	6e-45
44	0x00000004	6e-45
45	0x489177b3	297917.6
46	0x00000004	6e-45
47	0x481fc460	163601.5
48	0x00000004	6e-45
49	0x00000004	6e-45
50	0x00000004	6e-45
51	0x48734b43	249133.05
52	0x00000004	6e-45
53	0x00000004	6e-45
54	0x00000004	6e-45
55	0x00000004	6e-45
56	0x00000004	6e-45
57	0x00000004	6e-45
58	0x00000004	6e-45
59	0x00000004	6e-45
60	0x00000004	6e-45
61	0x00000004	6e-45
62	0x47e7399e	118387.234
63	0x00000004	6e-45

fc.3.weight f4 [64, 64]
0	0x3e9414f3	0.28922233
1	0xbe0ec20a	-0.13941208
2	0xbe826e5d	-0.25474826
3	0x3e605e54	0.21910983
4	0x3ec126b4	0.3772484
5	0xbe79b7af	-0.24386476
6	0x3eb36cea	0.35044032
7	0x3e67d21f	0.22638749
8	0xbe9f9d7d	-0.31174842
9	0x3e8a8da3	0.27061185
10	0xbeb9852d	-0.36234418
11	0x3e54da23	0.20786338
12	0xbe1c68f8	-0.15274417
13	0xbec2952e	-0.3800444
14	0x3e22f8d5	0.15915234
15	0xbd5b1393	-0.053485464
16	0x3d3ed883	0.0465932
17	0xbe3b300c	-0.18280047
18	0x3d99e2d8	0.0751397
19	0xbe8b1ad5	-0.2716891
20	0x3e384151	0.17993666
21	0x3e5e54fa	0.21712103
22	0x3e8d57a4	0.27605927
23	0x3ea33a6a	0.31880504
24	0x3ec1cbc4	0.37850773
25	0xbe98cc85	-0.29843536
26	0xbeaadf92	-0.33373696
27	0x3e029803	0.127533
28	0x3dfc425d	0.12317345
29	0x3e9897d7	0.29803345
30	0x3e8a1d9c	0.26975715
31	0x3eb5fe78	0.35545707
32	0xbeafe623	-0.34355268
33	0x3e9ad0f2	0.30237538
34	0x3e815e5d	0.25267306
35	0x3e9f9825	0.31170765
36	0x3ead43ef	0.33840892
37	0xbe6d82c0	-0.23194408
38	0x3e831d5d	0.2560834
39	0xbe2948ca	-0.16531673
40	0x3ec37538	0.38175368
41	0x3ea71f86	0.32641238
42	0x3e55777f	0.20846365
43	0x3ea6fc5d	0.32614413
44	0x3e5ec84b	0.21756093
45	0xbda3bf87	-0.07995515
46	0xbeb82479	-0.35965326
47	0xbe1e30e7	-0.15448342
48	0xbe783442	-0.24238685
49	0xbe9cc154	-0.30616248
50	0x3e9ebaa5	0.31001773
51	0x3e288466	0.16456756
52	0xbe3b3b9d	-0.1828446
53	0x3e5f1343	0.21784692
54	0x3ea205d3	0.3164507
55	0x3e928174	0.2861439
56	0xbe8e69d3	-0.27815112
57	0x3e360f7c	0.17779344
58	0xbe5dc634	-0.2165764
59	0x3eb79062	0.35852343
60	0xbe4fe815	-0.20303376
61	0xbe9a9138	-0.30188918
62	0x3e2a9b0f	0.16660713
63	0x3e85e634	0.26152194
64	0x3e889791	0.26678136
65	0xbe87c36e	-0.2651629
66	0xbdcea611	-0.100902684
67	0x3e72d6b8	0.23714721
68	0x3ea36f5b	0.31920895
69	0xbe72f542	-0.23726371
70	0x3eaba75b	0.3352612
71	0x3eaf282b	0.34210333
72	0xbeb388e6	-0.35065383
73	0x3ea22dde	0.3167562
74	0xbe8fbb1e	-0.28072447
75	0x3eb26e6e	0.34849876
76	0xbe3ee219	-0.18640937
77	0xbe19186a	-0.1495072
78	0x3df0b4d7	0.117532425
79	0xbe82abd2	-0.25521713
80	0x3e4ed8d4	0.20199901
81	0xbe6d5213	-0.2317584
82	0xbe40e7a8	-0.1883837
83	0xbe613252	-0.21991852
84	0x3e188f30	0.14898372
85	0x3eaa1a43	0.3322316
86	0x3e06be95	0.13158639
87	0x3ea2c5c2	0.31791502
88	0x3e7398c5	0.23788746
89	0xbe8a170f	-0.26970717
90	0xbe87ab23	-0.26497754
91	0xbe3ab48c	-0.18232936
92	0xbe9fb812	-0.31195122
93	0x3e996ffa	0.29968244
94	0x3e1669d6	0.1468881
95	0x3e7161de	0.2357249
96	0xbe710d08	-0.23540127
97	0x3e968c76	0.29404038
98	0x3e28983d	0.16464324
99	0x3e252aa3	0.16129546
100	0x3eb12057	0.34594986
101	0xbe8a0294	-0.26955092
102	0x3e3a5ec5	0.18200214
103	0x3e5d7623	0.21627097
104	0x3e781ce7	0.24229775
105	0x3e9fb7da	0.31194955
106	0x3e85a5b7	0.26102993
107	0x3e9527af	0.2913184
108	0x3e5a70fe	0.21332166
109	0xbe8f6b1e	-0.2801141
110	0xbe9203e1	-0.28518584
111	0x3de8fffc	0.1137695
112	0xbe8c4f80	-0.27404404
113	0xbebb11e3	-0.36537084
114	0x3e28b378	0.16474712
115	0xbe246aac	-0.16056317
116	0xbeb13ef3	-0.3461834
117	0x3e364402	0.1779938
118	0x3ec2e5b7	0.38065884
119	0x3e803fd8	0.2504871
120	0xbe6a35b8	-0.22872055
121	0x3e3fd9a9	0.18735375
122	0xbeb1800f	-0.34668013
123	0x3e934bc6	0.28768748
124	0xbe9bcd22	-0.3042994
125	0xbeaa5a98	-0.33272243
126	0xbe37dba5	-0.17954881
127	0x3ea682ce	0.3252167
128	0x3e8f23ff	0.2795715
129	0x3dbc3166	0.091891095
130	0x3dd741c2	0.10510589
131	0x3e8e1600	0.2775116
132	0x3e8cfc72	0.2753635
133	0xbe84ce0d	-0.25938454
134	0x3ea224a0	0.31668568
135	0x3ea3e999	0.32014158
136	0xbe0e222c	-0.13880223
137	0x3ea69c8a	0.32541305
138	0xbeb46fe4	-0.35241616
139	0x3e8f9a91	0.28047612
140	0xbe9c2e98	-0.30504298
141	0xbeb46e16	-0.3524024
142	0x3e6daaa4	0.23209625
143	0xbea960cd	-0.33081666
144	0x3e20727a	0.1566867
145	0xbebd1026	-0.36926383
146	0xbe51b424	-0.20478874
147	0xbe7e9a2e	-0.24863502
148	0x3e47665e	0.19472644
149	0x3e2e9ecc	0.17052764
150	0x3e2bb4c5	0.16768177
151	0x3eaf7e32	0.34275967
152	0x3e9953ee	0.29946846
153	0xbea15372	-0.31508976
154	0xbea340a6	-0.3188526
155	0xbe9f397a	-0.3109854
156	0xbe18a27b	-0.14905731
157	0x3e81cd64	0.25352013
158	0x3e3181d1	0.17334677
159	0x3e998747	0.2998602
160	0xbe01ba82	-0.12668803
161	0x3e90e109	0.28296688
162	0x3e576ca6	0.2103754
163	0x3e1f338b	0.15547006
164	0x3e8ea3d2	0.2785936
165	0xbe2ac8e5	-0.16678198
166	0x3e530ea9	0.20611061
167	0x3e8d7c73	0.2763401
168	0x3e85e531	0.26151422
169	0x3e412fc2	0.18865874
170	0x3e9c4e45	0.30528465
171	0x3e8638a5	0.2621509
172	0x3e086448	0.13319504
173	0xbe0ba155	-0.13635762
174	0xbe359572	-0.1773279
175	0x3e3acd9d	0.18242498
176	0xbe7fa42e	-0.24964973
177	0xbe682e5c	-0.22673935
178	0x3eaa38a3	0.33246335
179	0xbe856ee9	-0.2606118
180	0xbea0622d	-0.31324902
181	0x3e939921	0.28827766
182	0x3e3341eb	0.17505614
183	0x3e88d96a	0.26728374
184	0xbe6e3102	-0.23260882
185	0x3eb1d1fd	0.3473052
186	0xbe414703	-0.18874745
187	0x3ea7b8db	0.3275822
188	0xbe353bc2	-0.17698577
189	0xbe38bf58	-0.18041742
190	0xbe9eb491	-0.30997136
191	0x3e14b3c9	0.14521708
192	0x3e452e2f	0.19255899
193	0xbe80d5f5	-0.25163236
194	0xbe08554f	-0.13313793
195	0x3e778f0d	0.24175663
196	0x3e0a38bc	0.13498205
197	0xbe7c10f6	-0.24615845
198	0x3eb50fbc	0.35363567
199	0x3eacb37e	0.33730692
200	0xbeb7f923	-0.35932264
201	0x3ea16e48	0.3152945
202	0xbe248e91	-0.1607001
203	0x3e94fac3	0.29097566
204	0xbe3f3d24	-0.18675667
205	0xbe6b9f7a	-0.23010054
206	0x3ea45d1d	0.3210229
207	0x3e1c2de0	0.15251875
208	0xbe557e4d	-0.20848961
209	0xbe167db4	-0.1469639
210	0x3e64b304	0.22333914
211	0xbe811704	-0.25212872
212	0x3ea0b258	0.31386065
213	0x3e844c05	0.25839248
214	0x3e384026	0.1799322
215	0x3e22514b	0.15851323
216	0x3e854ffa	0.2603758
217	0xbe640762	-0.22268441
218	0xbebc4d7b	-0.36777863
219	0x3e573631	0.21016766
220	0x3e9ee8c4	0.3103696
221	0x3e93a106	0.2883379
222	0x3ebd23c8	0.3694136
223	0x3e8fded9	0.28099707
224	0xbebe8027	-0.37207147
225	0x3e83e283	0.25758752
226	0x3e3926cb	0.18081205
227	0x3e563e26	0.20922145
228	0x3e55f0fa	0.20892707
229	0xbe4c491e	-0.19949767
230	0x3e51e46f	0.20497297
231	0xbe34110e	-0.17584631
232	0x3e8ec725	0.2788631
233	0x3ebe7586	0.37199038
234	0x3e7815c6	0.24227056
235	0x3eab3972	0.33442265
236	0x3ead724f	0.33876273
237	0x3dc9b816	0.09849565
238	0xbe532bcc	-0.20622176
239	0xbe4ace7c	-0.1980533
240	0xbebb4d00	-0.36582184
241	0xbe06d8a0	-0.13168573
242	0x3e5e8aaf	0.21732591
243	0x3eac054b	0.33597788
244	0xbe624b8b	-0.2209913
245	0x3e331c90	0.17491364
246	0x3e5cb349	0.21552767
247	0x3e744f31	0.23858334
248	0xbebabcb5	-0.36472097
249	0x3e8af8a6	0.2714283
250	0xbe699c62	-0.22813562
251	0x3eb7d3eb	0.35903868
252	0xbe11e98d	-0.14249249
253	0xbe896607	-0.26835653
254	0x3e89be9b	0.26903233
255	0x3e81964b	0.25309977

fc.3.bias f4 [64]
0	0x3e9b71fc	0.303604
1	0x3e8d15fd	0.27555838
2	0x3e83fc51	0.2577844
3	0x3e0b4e77	0.1360415
4	0x3db213c6	0.08695178
5	0x3e6f5d0a	0.23375335
6	0x3ea31939	0.3185518
7	0x3de90cbb	0.11379381
8	0x3e56c8dc	0.2097506
9	0x3e929425	0.2862865
10	0x3df5de16	0.1200525
11	0x3ea5529e	0.32289594
12	0x3eadd7b4	0.3395363
13	0x3e94d5e2	0.2906943
14	0x3e63d1d0	0.22248006
15	0x3ea1e17f	0.31617352
16	0x3e481cd6	0.1954225
17	0x3e98e3aa	0.29861194
18	0x3eb6217f	0.3557243
19	0x3ea6e5ac	0.325971
20	0x3e3016cf	0.17196201
21	0x3e945bc5	0.28976265
22	0x3eb4ac30	0.3528762
23	0x3e845bc7	0.2585127
24	0x3dd85ef3	0.10564985
25	0x3eb7f68d	0.3593029
26	0x3dd45295	0.10367314
27	0x3e01f49d	0.12690969
28	0x3e89b649	0.26896885
29	0x3e9af5ed	0.3026575
30	0x3e8c1f5e	0.2736768
31	0x3e950e48	0.29112458
32	0x3eb2fd0f	0.34958693
33	0x3dbb7943	0.09153988
34	0x3e2e851f	0.17042969
35	0x3def3012	0.116790906
36	0x3e8060c0	0.25073814
37	0x3e6e8af8	0.232952
38	0x3e42c2d1	0.19019629
39	0x3ead7d74	0.33884776
40	0x3e1a4cac	0.1506831
41	0x3e43f5f0	0.19136786
42	0x3e4ae820	0.19815111
43	0x3e7965d8	0.24355257
44	0x3e9a5701	0.30144504
45	0x3e0e10e3	0.1387363
46	0x3e232249	0.15931047
47	0x3e98be05	0.29832473
48	0x3e1806c7	0.14846335
49	0x3e91bdab	0.28465018
50	0x3e893242	0.26796156
51	0x3e50e6e8	0.20400584
52	0x3e202619	0.15639533
53	0x3e4ba7b1	0.19888188
54	0x3e032062	0.12805322
55	0x3ea9bf71	0.3315387
56	0x3eb2a25e	0.348895
57	0x3ea86b4d	0.32894364
58	0x3e992e47	0.2991812
59	0x3e93b600	0.28849792
60	0x3e447626	0.19185695
61	0x3dfeaab2	0.12434901
62	0x3eb01db6	0.34397668
63	0x3e2eceb4	0.17071038

placing_layer.0.weight f4 [8, 64]
0	0xbd1242ab	-0.03570811
1	0xbd9cbd32	-0.07653274
2	0xbd7c1611	-0.06154448
3	0xbd9b6612	-0.07587828
4	0x3d0a7d7e	0.033811085
5	0xbd8b8454	-0.06812349
6	0x3e11ff83	0.14257626
7	0x3ce5c5df	0.028048454
8	0xbc7f8e38	-0.015597872
9	0x3d5e7079	0.05430648
10	0xbdd5d316	-0.10440652
11	0x3d2b4c9d	0.04182111
12	0x3db05e65	0.08611754
13	0xbd6bead4	-0.057596996
14	0xbdcf121a	-0.101108745
15	0x3dacfe26	0.084469125
16	0xbce1da7a	-0.027569998
17	0x3cceeab0	0.025258392
18	0x3d526574	0.051366284
19	0x3dcedfca	0.10101278
20	0xbda0b756	-0.078474686
21	0x3da508b6	0.08058302
22	0x3d85c36c	0.065314144
23	0x3db5d699	0.08878822
24	0xbd8d935a	-0.06912871
25	0x3cf10bc4	0.029424556
26	0x3c986ae4	0.018605657
27	0xbdc1ffd4	-0.094726235
28	0x3de58c82	0.1120844
29	0x3cf97e6e	0.030455794
30	0xbdd3ad7c	-0.10335824
31	0x3dcefe4a	0.101070955
32	0x3dab8f1b	0.083769046
33	0xbd322e72	-0.043501325
34	0xbd859674	-0.06522837
35	0x3ded403b	0.115845166
36	0xbd455746	-0.048178934
37	0xbd4055df	-0.046956893
38	0xbcc4206f	-0.023941247
39	0x3cb8aeab	0.022544226
40	0xbdc08b12	-0.094015256
41	0x3d2a24d8	0.041539043
42	0xbd83d0c1	-0.06436301
43	0x39e01d98	0.00042746658
44	0x3df80f88	0.12112337
45	0x3d874cd7	0.06606453
46	0x3d118059	0.035522792
47	0xbd66874c	-0.056281373
48	0xbd3b0ded	-0.045667578
49	0x3dfcfefa	0.123533204
50	0x3dcfc7da	0.101455405
51	0x3d914b50	0.07094443
52	0x3cf58290	0.029969484
53	0x3df678ff	0.12034797
54	0x3d5ddeae	0.054167442
55	0x3e0c5781	0.13705255
56	0x3d4c67d7	0.049903717
57	0x3de4814f	0.11157476
58	0x3d6cc6de	0.057806842
59	0xbceef2d5	-0.029168526
60	0xbc800d4b	-0.015631339
61	0xbde0acff	-0.109704964
62	0x3d0cec91	0.034405295
63	0x3da66b37	0.08125918
64	0xbd8def12	-0.06930365
65	0xbdea9c23	-0.11455562
66	0x3d17e30c	0.037081763
67	0xbd914b4d	-0.070944406
68	0x3d95c705	0.073133506
69	0x3da8af8a	0.082366064
70	0xbd6fa15b	-0.05850349
71	0x3de54eb8	0.11196655
72	0xbdb71e27	-0.08941298
73	0xbd8864d8	-0.066598594
74	0xbca40da6	-0.02002604
75	0xbdad9bb2	-0.08476962
76	0x3c3f8f32	0.011691855
77	0xbd4a606c	-0.04940836
78	0x3c3872ec	0.011257868
79	0x3d2c40f4	0.04205413
80	0x3c668249	0.014069148
81	0x3d648144	0.05578734
82	0xbdf4263d	-0.11921356
83	0xbdc837bb	-0.09776255
84	0x3d07f524	0.03319277
85	0x3db043bf	0.086066715
86	0xbce5886c	-0.028019153
87	0xbdbe3888	-0.09288126
88	0x3cafb014	0.021446265
89	0xbd7c0161	-0.061524753
90	0x3d4bf39b	0.049792867
91	0xbda807ac	-0.08204588
92	0x3cac621d	0.021042878
93	0x3d339ec6	0.04385259
94	0xbca2645a	-0.019823242
95	0x3d52ea64	0.051493064
96	0x3cd187a9	0.025577383
97	0x3ca2e66f	0.01988527
98	0x3dabd06c	0.08389363
99	0xbdad35b3	-0.08457508
100	0x3deeaf15	0.11654488
101	0x3d446155	0.047944386
102	0x3da52571	0.08063782
103	0x3dbf38c1	0.09336997
104	0xbddd0ed4	-0.10793844
105	0xbe016ff5	-0.12640364
106	0xbd6238cf	-0.05522996
107	0x3c7a3e8e	0.015273703
108	0xbd8d38d0	-0.06895602
109	0x3dd12cd7	0.10213631
110	0x3dad7a8c	0.084706396
111	0x3cdc2783	0.02687431
112	0x3dd8d8e8	0.105882466
113	0x3d8be13c	0.068300694
114	0x3db8795a	0.09007521
115	0xbd2c75af	-0.04210442
116	0xbb4cd637	-0.0031255612
117	0xbdb9e068	-0.09076005
118	0xbe02d152	-0.12775162
119	0xbdc5bcba	-0.09655137
120	0x3d8d8f58	0.06912106
121	0x3dcb6bcd	0.09932671
122	0xbe02db62	-0.12779
123	0xbccaea73	-0.024769997
124	0xbd8156cc	-0.06315383
125	0xbd54ca35	-0.051950652
126	0x3d296895	0.041359503
127	0xbd37a9ce	-0.044839673
128	0xbdda8e64	-0.1067169
129	0xbd19ee0a	-0.037580527
130	0xbe080ce0	-0.13286161
131	0x3dc6486e	0.096817836
132	0xbc825478	-0.015909418
133	0xbd661fae	-0.056182556
134	0x3cbe9dcb	0.0232686
135	0xbaf652f9	-0.0018793038
136	0x3d97c1c4	0.07410005
137	0xbe148ddb	-0.14507239
138	0xbdd36b5d	-0.10323212
139	0x3d62d6d1	0.055380646
140	0xbdac06bb	-0.08399721
141	0xbd63a1ce	-0.05557423
142	0xbdbdf737	-0.09275668
143	0x3cb3256f	0.021868436
144	0x3dcab31e	0.09897445
145	0xbd1a5625	-0.03767981
146	0xbdf47900	-0.119371414
147	0xbdc73ebd	-0.09728763
148	0xbcefca05	-0.029271135
149	0xbd550070	-0.05200237
150	0x3d6456c2	0.0557468
151	0x3dc644f4	0.096811205
152	0xbd57b00a	-0.05265812
153	0xbe11207c	-0.14172548
154	0xbca47e33	-0.020079708
155	0xbdfb7206	-0.122776076
156	0xbca06069	-0.019577222
157	0xbd6250e4	-0.055252925
158	0x3d97de7b	0.07415482
159	0x3c721068	0.014774419
160	0x3d0460ef	0.032319006
161	0x3d7abf7a	0.061217763
162	0xbdc8bc27	-0.09801512
163	0x3db75c1a	0.08953114
164	0xbe0dcebf	-0.13848399
165	0xbe03488a	-0.1282064
166	0xbd1d300d	-0.038375903
167	0x3d4e9af1	0.050440732
168	0x3dc85595	0.097819485
169	0xbdc75070	-0.09732139
170	0x3d025966	0.03182354
171	0xbbb00e0b	-0.005372768
172	0xbceed8f1	-0.02915618
173	0xbde543d6	-0.11194579
174	0xbd4dd95c	-0.05025612
175	0xbd3b3798	-0.045707315
176	0xbd1df5cc	-0.03856449
177	0x3dbe5d1d	0.09295104
178	0x3d935569	0.07194025
179	0xbdf3e729	-0.11909325
180	0xbdc36004	-0.09539798
181	0xbdd3f777	-0.103499345
182	0x3cb576ec	0.022151433
183	0xbde8da60	-0.11369777
184	0xbd39cdea	-0.04536239
185	0x3d5c1b37	0.05373689
186	0xbd954f6e	-0.07290541
187	0xbb917fe0	-0.0044402927
188	0x3b0df4f2	0.0021660891
189	0xbdb6dde1	-0.08929039
190	0x3d850c43	0.06496479
191	0xbdd05b2b	-0.10173639
192	0x3d7a20ed	0.061066557
193	0x3d07d519	0.03316221
194	0x3d933f92	0.071898594
195	0xbd1bb99b	-0.038018804
196	0xbdbe33d2	-0.09287228
197	0x3c2b1b80	0.010443568
198	0xbdd93201	-0.106052406
199	0xbca8607c	-0.02055382
200	0xbe078e49	-0.13237871
201	0x3dcca1ae	0.099917755
202	0xbe0572c3	-0.1303206
203	0x3d75034f	0.05981761
204	0x3d7efb34	0.062251285
205	0xbd0436be	-0.03227877
206	0x3c67a019	0.014137291
207	0xbcddc146	-0.027069699
208	0xbd778a32	-0.060434528
209	0x3c0586e6	0.008149838
210	0xbde6f0c4	-0.11276391
211	0x3cf12795	0.02943782
212	0xbdecb7ae	-0.115584716
213	0x3dc6f594	0.09714809
214	0x3d761997	0.060082998
215	0xbdf4d648	-0.119549334
216	0xbe04b1f1	-0.12958504
217	0xbdf9df99	-0.12200851
218	0xbbc82c2d	-0.006108782
219	0xbdad74c6	-0.084695384
220	0xbdae9d01	-0.0852604
221	0x3dcddbbc	0.10051677
222	0xbd8133e9	-0.06308729
223	0xbd9ece9e	-0.07754253
224	0xbdc016c0	-0.09379339
225	0xbcf4180f	-0.029796628
226	0x3d6c945b	0.05775867
227	0xbdf8163e	-0.12113617
228	0x3d3f554f	0.046712216
229	0xbcb8668a	-0.022509832
230	0x3db50a4b	0.08839854
231	0x3c002ffc	0.00782394
232	0x3d7cbc5a	0.061703064
233	0xbdd4950a	-0.103799894
234	0x3cc7f2e8	0.024407819
235	0xbdf97840	-0.12181139
236	0xbdfca6f4	-0.12336531
237	0xbdab1fdb	-0.08355685
238	0x3d92402b	0.07141145
239	0x3de11e20	0.10992074
240	0xbdc94e0d	-0.0982934
241	0xbbab1f8b	-0.005222266
242	0x3c951133	0.018196678
243	0xbd00f2c7	-0.03148153
244	0xbcabfa52	-0.020993385
245	0x3d571fab	0.052520435
246	0xbd06c2d6	-0.032900654
247	0xbd9d8b7b	-0.076926194
248	0xbd6f5c9a	-0.05843792
249	0x3c9386d4	0.018008627
250	0xbda4756c	-0.08030209
251	0xbd38c204	-0.045106903
252	0xbd89f8d2	-0.06736912
253	0x3d7910e7	0.060807135
254	0x3da6e3c2	0.0814891
255	0xbd62a4d5	-0.055332977

placing_layer.0.bias f4 [8]
0	0x3b919e54	0.004443923
1	0x3ce8ad36	0.028402906
2	0x3d40bd4e	0.047055535
3	0x3ba25682	0.00495416
4	0x3da833a0	0.08212972
5	0x3e043f2a	0.1291472
6	0xbca35c50	-0.019941479
7	0xbd228487	-0.03967717

placing_layer.1.weight f4 [8, 64]
0	0x3e9c71f0	0.30555677
1	0x3e9eadd2	0.3099199
2	0x3e374b68	0.17899859
3	0x3e6d9bf8	0.23204029
4	0x3ead257b	0.33817658
5	0x3e53f04a	0.20697132
6	0x3eadcc5f	0.33944985
7	0x3ea49a06	0.3214876
8	0x3e1493bc	0.14509481
9	0x3e06687f	0.131258
10	0x3e99d49e	0.30045027
11	0x3e07c282	0.13257793
12	0x3e4925fc	0.19643396
13	0x3e048ea9	0.12945046
14	0x3e676c3c	0.22599882
15	0x3eaa7f4a	0.3330024
16	0x3e5c8450	0.21534848
17	0x3e34cf31	0.17657162
18	0x3ea2d780	0.31805038
19	0x3e241673	0.16024189
20	0x3dea6a22	0.114460245
21	0x3e086d56	0.13322958
22	0x3e924163	0.2856551
23	0x3e49c919	0.19705619
24	0x3e2d8642	0.16945747
25	0x3ea4abe6	0.32162398
26	0x3e531e93	0.20617132
27	0x3e772e41	0.24138738
28	0x3e597487	0.21235858
29	0x3e88a8a1	0.26691154
30	0x3e1c583e	0.15268037
31	0x3e848399	0.2588165
32	0x3eacad01	0.33725742
33	0x3e81462b	0.25248846
34	0x3e8ea7df	0.2786245
35	0x3e476b41	0.19474508
36	0x3ea7fda7	0.3281071
37	0x3e1c28f2	0.15249994
38	0x3e6f7b84	0.23386961
39	0x3e8eff8b	0.2792934
40	0x3e8ca66b	0.27470717
41	0x3e253829	0.16134705
42	0x3ea6bd25	0.3256618
43	0x3e4404bb	0.1914243
44	0x3e21121d	0.15729566
45	0x3e7f573b	0.2493562
46	0x3ea4973e	0.3214664
47	0x3e263a54	0.16233188
48	0x3e634d64	0.22197491
49	0x3e1feaf1	0.15616967
50	0x3e8df7ee	0.27728218
51	0x3dfd8f7b	0.12380882
52	0x3ea46acc	0.3211273
53	0x3ea875a9	0.32902268
54	0x3e5d15bf	0.21590327
55	0x3e2926a1	0.16518642
56	0x3e63d8e6	0.22250709
57	0x3dffd7f1	0.124923594
58	0x3e18df50	0.14928937
59	0x3e2ae5bc	0.16689199
60	0x3e69ff01	0.22851183
61	0x3e9b62ed	0.30348912
62	0x3e46c56c	0.19411248
63	0x3e7afd96	0.24510798
64	0xbde5f845	-0.11228994
65	0xbd70792e	-0.058709316
66	0xbdd7a004	-0.105285674
67	0x3c36ce10	0.011157528
68	0xbd5920a4	-0.053009644
69	0x3d762af2	0.06009955
70	0xbca606aa	-0.02026685
71	0xbdc3ad4e	-0.095545396
72	0xbd3d2e87	-0.04618695
73	0xbd998ab2	-0.07497157
74	0x3ce27ccd	0.0276474
75	0xbcc416e9	-0.023936706
76	0xbde7fe25	-0.11327771
77	0xbdf4361f	-0.11924385
78	0x3da5c50e	0.08094226
79	0xbc69c75e	-0.014268724
80	0xbd9c0510	-0.07618153
81	0x3b22575b	0.0024771306
82	0xbdb1bbfe	-0.08678435
83	0x3a944ec6	0.001131498
84	0x3d480c1e	0.04883968
85	0x3dd65247	0.10464912
86	0x3da57269	0.08078463
87	0xbdd0717c	-0.101778954
88	0xbd73c168	-0.05951062
89	0xbda98d0e	-0.08278857
90	0xbcdf3558	-0.027247116
91	0x3de402e6	0.11133365
92	0x3d024e29	0.03181282
93	0xbe01aac0	-0.12662792
94	0xbd703dc7	-0.058652665
95	0x3cda3638	0.026637182
96	0xbd869b42	-0.06572582
97	0x3cd92630	0.026507467
98	0xbdd0881d	-0.101822115
99	0xbdc63254	-0.09677568
100	0xbd9c78f3	-0.07640257
101	0xbb9c0a93	-0.0047620027
102	0xbcbca578	-0.02302812
103	0xbdb8306e	-0.08993612
104	0x3d35c497	0.044376936
105	0xbd89f86b	-0.06736835
106	0x3d93f23b	0.07223936
107	0xbddbff93	-0.10742106
108	0xbdc97319	-0.09836406
109	0x3dcbd3ba	0.09952493
110	0xbdb85c66	-0.090019986
111	0xbdd58852	-0.10426392
112	0xbde44ba6	-0.11147241
113	0x3de10365	0.109869756
114	0xbdf75193	-0.12076106
115	0xbce7db91	-0.02830294
116	0x3cc76f59	0.024345087
117	0xbd5a5f89	-0.053313766
118	0xbdc1397c	-0.094347924
119	0xbca83a2c	-0.020535551
120	0xbdf45400	-0.11930084
121	0x3db0a5ef	0.08625399
122	0xbdde9d0e	-0.108697996
123	0x3dee48a3	0.11634948
124	0xbd3c922f	-0.04603785
125	0xbd93161d	-0.07181952
126	0xbd789190	-0.060685694
127	0xbd9a0580	-0.0752058
128	0xbd8fb65e	-0.07017206
129	0xbd622900	-0.055214882
130	0xbdb65c0f	-0.089042775
131	0xbd91818d	-0.07104788
132	0xbd487810	-0.048942626
133	0xbda8f62b	-0.08250078
134	0x3b9c4eb7	0.0047701257
135	0xbdc24324	-0.09485462
136	0x3db96d5a	0.0905406
137	0xbdb332f5	-0.08749954
138	0xbd8f7ef4	-0.07006636
139	0x3d904392	0.07044138
140	0x3b79835a	0.0038072676
141	0x3c9e19c7	0.019299401
142	0xbde102ee	-0.10986887
143	0x3d9ce1df	0.07660269
144	0xbde49a6c	-0.11162266
145	0xbd25e37c	-0.04050015
146	0xbdcefef0	-0.10107219
147	0x3d27734e	0.040881447
148	0x3dd32b67	0.10311013
149	0xbe0109c3	-0.1260138
150	0xbe0855e6	-0.13314018
151	0x3cd43424	0.025903769
152	0xbd6b4eba	-0.057448126
153	0xbd764133	-0.060120773
154	0x3c16268e	0.009164466
155	0xbd55edca	-0.052228726
156	0xbc625d9a	-0.013816262
157	0xbcdd9cf3	-0.027052378
158	0xbde2c72a	-0.11073144
159	0xbdbec73d	-0.093153454
160	0xbcbc0cc5	-0.022955308
161	0xbc419f35	-0.011817743
162	0xbcd85b24	-0.026410647
163	0xbdcdcb13	-0.10048499
164	0xbd113605	-0.035451908
165	0xbadd0887	-0.0016863503
166	0xbd74d078	-0.059769124
167	0xbc68cb30	-0.0142086
168	0xbd091f0b	-0.03347687
169	0x3d9914ca	0.07474668
170	0xbcb6b797	-0.02230434
171	0xbda3ba45	-0.079945125
172	0x3daa3785	0.08311371
173	0xbcb71a4b	-0.022351405
174	0xbdead4b4	-0.11466351
175	0x3d5535da	0.05205331
176	0x3dd49cec	0.10381493
177	0xbdbb6cc5	-0.091516055
178	0x3d39a55a	0.045323707
179	0xb91d4eac	-0.00015001994
180	0x3df246dd	0.11829922
181	0x3d165045	0.036697645
182	0x3cfe71f4	0.031060196
183	0x3c360b62	0.011111112
184	0xbdb0c178	-0.08630651
185	0xbda227ad	-0.07917724
186	0x3d625918	0.055260748
187	0xbc728c2a	-0.0148039255
188	0x3cccbf2c	0.024993502
189	0x3d96c766	0.07362251
190	0xbdbcee8b	-0.09225186
191	0x3d469ea8	0.04849115
192	0xbca28b7e	-0.019841906
193	0xbdb162f7	-0.08661454
194	0xbdb1cdd6	-0.08681838
195	0x3e03feec	0.12890214
196	0x3dfac129	0.122438736
197	0xbd5fc9ae	-0.054635696
198	0x3dbc496d	0.09193692
199	0x3e09dd34	0.13463289
200	0x3c5f767f	0.0136390915
201	0x3daec93c	0.08534476
202	0x3c2f8736	0.010713389
203	0xbcb4e429	-0.022081451
204	0xbd4f2027	-0.050567772
205	0xbd446eba	-0.04795716
206	0x3dd48c6e	0.10378347
207	0x3dd1adfe	0.102382645
208	0xbdab48e4	-0.08363512
209	0x3db64622	0.089000955
210	0xbd5a9c67	-0.053371813
211	0xba035ed5	-0.00050113845
212	0x3dadf1a3	0.08493354
213	0x3e0761d2	0.13220909
214	0x3aa2b11e	0.0012412404
215	0xbc92b553	-0.017908728
216	0xbd2442ce	-0.040102772
217	0x3c82db47	0.0159737
218	0x3dd435df	0.103618376
219	0xbd311071	-0.04322857
220	0x3d721801	0.059104923
221	0xbdac13e5	-0.08402232
222	0x3d9e310e	0.077242
223	0xbd89baa4	-0.06725052
224	0xbdb0306a	-0.08602984
225	0xbc82506c	-0.015907489
226	0xbcdd2998	-0.026997373
227	0xbb831f49	-0.004001532
228	0x3da61a8b	0.081105314
229	0x3c7265a4	0.014794741
230	0x3c681257	0.014164529
231	0x3df6e1d7	0.12054794
232	0xbd4e7be7	-0.05041113
233	0x3de05455	0.10953585
234	0x3e0c125d	0.1367888
235	0x3e054cfe	0.13017651
236	0xbd24b8e8	-0.040215403
237	0x3e06424f	0.13111232
238	0x3df5bab5	0.11998502
239	0xbd792295	-0.060823996
240	0x3cc4418e	0.02395704
241	0x3dc59fe9	0.09649641
242	0x3d4027ae	0.04691284
243	0x3d7dbc6c	0.06194727
244	0x3ce8228d	0.028336788
245	0x3c8b407a	0.016998518
246	0x3d0dc501	0.034611706
247	0x3db3e7d8	0.08784455
248	0x3dc3d995	0.09562985
249	0x3d865514	0.06559196
250	0x3cb551ce	0.022133734
251	0x3d8a864b	0.067638956
252	0x3c93e262	0.018052284
253	0x3d7ea232	0.0621664
254	0x3e0b1978	0.13583934
255	0x3d09fe85	0.033689994

placing_layer.1.bias f4 [8]
0	0x3e743e61	0.2385192
1	0x3d8c7eca	0.068601206
2	0x3d5d0f28	0.053969532
3	0x3c73ff3a	0.014892394
4	0x3dbd2fe8	0.09237653
5	0xbd13bf8a	-0.036071338
6	0xbe000f03	-0.12505727
7	0xbd8b8094	-0.06811634

placing_layer.2.weight f4 [8, 64]
0	0xbdcb471e	-0.09925674
1	0x3cf62d46	0.030050885
2	0x3c13b8f8	0.009016268
3	0xbcb47035	-0.02202616
4	0xbd90def6	-0.070737764
5	0x3d98a933	0.07454147
6	0xbde3aeec	-0.11117348
7	0xbcd34bd3	-0.025792992
8	0x3cc3c3dc	0.023897104
9	0x3e02b0e7	0.12762795
10	0xbcfbe4cc	-0.030748747
11	0xbd5e37bc	-0.05425237
12	0x3d3f7078	0.046738118
13	0x3dd72b5f	0.10506319
14	0xbd19257c	-0.037389264
15	0x3c4d85c0	0.0125440955
16	0x3d83c788	0.06434542
17	0xbca6884d	-0.020328665
18	0xbdc7a16d	-0.097475864
19	0xbdc2371f	-0.0948317
20	0xbcb72e68	-0.022360995
21	0xbd198344	-0.0374787
22	0xbda217d8	-0.07914704
23	0x3d29f336	0.04149171
24	0x3df3a82b	0.1189731
25	0xbda45e4f	-0.080258004
26	0x3d8b1625	0.06791333
27	0xbd4816e8	-0.04884997
28	0xbc85abb1	-0.01631722
29	0xbd1ce155	-0.03830083
30	0x3e0691be	0.13141534
31	0x3de95c5a	0.11394568
32	0x3d07ce33	0.03315563
33	0xbdff9eee	-0.12481485
34	0xbac2bd63	-0.0014857467
35	0x3d3fc7a0	0.046821237
36	0x3dbd2194	0.0923492
37	0xbdca9011	-0.0989076
38	0xbd74b004	-0.059738174
39	0xbc077c8a	-0.0082694385
40	0xbbb73e31	-0.0055921306
41	0xbd54fec1	-0.052000765
42	0xbd900adb	-0.070333205
43	0xbde1b265	-0.11020354
44	0x3d91a697	0.071118526
45	0xbd9a08e5	-0.07521228
46	0xbda7b34b	-0.08188494
47	0x3d6d55f6	0.057943307
48	0xbc34b342	-0.0110290665
49	0x3db2536c	0.08707318
50	0xbcf6fb41	-0.030149104
51	0xbd5d3eb8	-0.05401489
52	0xbcaefdb4	-0.02136121
53	0x3d3f0961	0.046639804
54	0xbc99db7e	-0.01878142
55	0xbd51da53	-0.0512336
56	0x3dfc4b43	0.123190425
57	0x3d9cb22f	0.07651173
58	0x3dc8e58d	0.09809408
59	0x3d8afba5	0.06786279
60	0xbd56a275	-0.052401025
61	0x3ddc10de	0.10745405
62	0xbcb96c0b	-0.022634527
63	0xbd3e4860	-0.04645574
64	0x3c956f70	0.018241614
65	0xbd0682f0	-0.032839715
66	0xbcf0b120	-0.029381335
67	0x3d52176c	0.051291868
68	0xbd3ba2bc	-0.045809492
69	0xbd8fe28a	-0.07025631
70	0xbcb0d998	-0.021588132
71	0xbda45692	-0.080243245
72	0xbd98a4fe	-0.07453345
73	0xbde927c0	-0.11384535
74	0xbd3c5620	-0.045980573
75	0xbd968d32	-0.073511496
76	0xbd22a998	-0.03971252
77	0xbd8719e4	-0.06596735
78	0xbd639440	-0.055561304
79	0xbd03f494	-0.03221567
80	0xbb971980	-0.004611194
81	0xbd5b9ba0	-0.053615212
82	0xbd252b90	-0.040324748
83	0x3d0645f4	0.032781556
84	0xbdd51988	-0.1040526
85	0x3dab3ab2	0.083608046
86	0x3decae64	0.115567
87	0xbd9bb2c0	-0.07602453
88	0x3d77069c	0.060309038
89	0xbd37ef10	-0.044905722
90	0x3ddf45a6	0.10901956
91	0x3cbc1530	0.022959322
92	0x3b67a440	0.0035345703
93	0xbd2d6ac0	-0.042338133
94	0xbd55f2b8	-0.052233428
95	0xbcb04188	-0.021515623
96	0xbc97b3a0	-0.018518269
97	0x3de8fb56	0.113760635
98	0xbdade8d0	-0.08491671
99	0x3d546b30	0.051860034
100	0x3d6f6120	0.058442235
101	0x3d3a85b0	0.04553765
102	0x3d52903c	0.051407084
103	0xbcf42848	-0.029804364
104	0xbdb2230e	-0.086980924
105	0xbd7afc14	-0.061275557
106	0x3c84a3f8	0.016191468
107	0xbc4e40e0	-0.01258871
108	0x3cc8b528	0.024500445
109	0x3d7dba3c	0.061945185
110	0xbc499940	-0.012304604
111	0xbbfec2c0	-0.007774681
112	0xbde1bb1e	-0.11022018
113	0xbaf91880	-0.0019004494
114	0xbd6c85e4	-0.057744876
115	0xbd42573c	-0.047446474
116	0xbda11db4	-0.078669935
117	0x3d84a382	0.06476499
118	0x3d8971e8	0.06711179
119	0x3c8b1120	0.01697594
120	0xbdf35e66	-0.118832394
121	0x3b277340	0.0025550872
122	0xbd9f0a02	-0.07765581
123	0x3c87baa0	0.016568482
124	0xbdeb17ee	-0.114791736
125	0xbdc14692	-0.09437288
126	0x3d8da414	0.06916061
127	0x3ca531f8	0.020165429
128	0x3e762339	0.24036874
129	0x3e484712	0.19558361
130	0x3ea6e09b	0.32593235
131	0x3dda25e0	0.10651755
132	0x3ea2e84d	0.31817856
133	0x3e883cd8	0.2660892
134	0x3e10fca6	0.14158878
135	0x3dac0490	0.08399308
136	0x3e43e7f2	0.19131449
137	0x3e9ebb00	0.31002045
138	0x3e8f3771	0.27971986
139	0x3e634757	0.22195183
140	0x3e7b5bcf	0.24546741
141	0x3dd0d341	0.101965435
142	0x3db4de6d	0.08831487
143	0x3e7d1e2e	0.24718544
144	0x3ea58185	0.32325378
145	0x3df9ce0a	0.12197502
146	0x3e3545c4	0.17702395
147	0x3e9847a1	0.2974215
148	0x3e9957b3	0.29949722
149	0x3e552615	0.20815308
150	0x3e761bb3	0.24034004
151	0x3df9e800	0.122024536
152	0x3e7d5781	0.24740411
153	0x3dcc8647	0.09986549
154	0x3decc1ef	0.115604274
155	0x3e9403bd	0.28909102
156	0x3e14dda3	0.14537673
157	0x3e8a821e	0.27052397
158	0x3e8ad6b9	0.27116945
159	0x3dafc45e	0.08582376
160	0x3e91d80a	0.28485137
161	0x3e89113f	0.2677097
162	0x3ea4d5d8	0.321944
163	0x3deda1c9	0.11603124
164	0x3e61d38d	0.22053356
165	0x3e206b80	0.15666008
166	0x3e57b38e	0.21064588
167	0x3e8cfa01	0.27534488
168	0x3dae4857	0.085098915
169	0x3e97c18c	0.29639852
170	0x3e9defb9	0.30846956
171	0x3da00dc1	0.07815123
172	0x3e8b5435	0.27212682
173	0x3e801d40	0.25022316
174	0x3e2452e8	0.16047251
175	0x3e87c56d	0.2651781
176	0x3e56a53b	0.20961468
177	0x3db84872	0.08998193
178	0x3e743eba	0.23852053
179	0x3dd7a32e	0.10529171
180	0x3e363c7a	0.17796507
181	0x3e82c7e8	0.2554314
182	0x3ea041f7	0.31300327
183	0x3e4895be	0.19588372
184	0x3db29f44	0.08721784
185	0x3e97cdd5	0.29649225
186	0x3e020536	0.126973
187	0x3e05e5a9	0.1307589
188	0x3e8e3b70	0.27779722
189	0x3d9a336a	0.07529338
190	0x3e04b427	0.12959348
191	0x3e7da663	0.24770503
192	0xbcd1893f	-0.02557814
193	0xbdb165f5	-0.08662025
194	0xbdf1e8e6	-0.11812
195	0xbd5dc69f	-0.054144498
196	0x3d8d4586	0.06898026
197	0xbd52bc9c	-0.051449403
198	0x3d1a9e48	0.037748605
199	0x3d2bfa27	0.04198661
200	0x3ce6938f	0.028146533
201	0xbd556c46	-0.05210521
202	0xbcc90339	-0.02453767
203	0x3d9bcd47	0.07607513
204	0xbdfa065f	-0.122082464
205	0x3d6c7476	0.057728253
206	0x3d88dbf5	0.066825785
207	0x3bdec825	0.0067987614
208	0x3dca1639	0.0986752
209	0xbcf5f3df	-0.030023513
210	0xbe0bd977	-0.13657175
211	0xbcaf13fa	-0.02137183
212	0x3ce712a0	0.028207123
213	0xbd716f1f	-0.058943864
214	0xbe0063d7	-0.12538086
215	0xbdcd7657	-0.10032337
216	0xbdbdc7ff	-0.09266662
217	0x3cf3bcb6	0.02975307
218	0x3cead58b	0.028666278
219	0xbe024728	-0.12722456
220	0xbbb24ad8	-0.005441051
221	0x3c40cab4	0.011767078
222	0xbdf6a8f9	-0.12043948
223	0xbd8ba39b	-0.06818315
224	0xbc9ce3b8	-0.019151554
225	0xbe04d37f	-0.12971304
226	0xbdbc98d3	-0.092088364
227	0x3d10bbd2	0.03533537
228	0x3dbeffd4	0.09326139
229	0x3dc005ae	0.09376083
230	0xbe0063cf	-0.12538074
231	0xbd6ba6cb	-0.057532113
232	0x3c3a8720	0.011384755
233	0x3d9fb1d2	0.077975884
234	0x3d2b31d4	0.041795567
235	0xbcc055b2	-0.023478363
236	0x3d09eee8	0.033675104
237	0x3d2e820b	0.042604487
238	0x3d2cdab6	0.042200767
239	0x3db8d183	0.09024336
240	0x3cbaef69	0.022819238
241	0x3c76b6d7	0.015058241
242	0x3d51c031	0.05120868
243	0x3d848c8a	0.06472118
244	0xbbc38d31	-0.005967759
245	0x3cf2beee	0.029632058
246	0x3dba05a5	0.09083108
247	0x3c8bb870	0.01705572
248	0x3da72367	0.08161049
249	0x3ca030ee	0.019554581
250	0xbd1cfdf1	-0.038328115
251	0xbd29e99d	-0.041482557
252	0xbdc1c25a	-0.09460898
253	0x3dd71694	0.10502353
254	0x3dd39fb8	0.10333198
255	0xbdb5a502	-0.08869363

placing_layer.2.bias f4 [8]
0	0x3d7e8ba0	0.062144876
1	0xbd53144c	-0.05153303
2	0x3d446a5d	0.047953
3	0xbdf2509c	-0.11831781
4	0xba329856	-0.0006812861
5	0x3e3e84f4	0.18605405
6	0xbe0eaeed	-0.13933916
7	0xbded3d7e	-0.11583994

placing_layer.3.weight f4 [8, 64]
0	0x3e57e030	0.21081614
1	0x3e64a7c6	0.22329625
2	0x3e81b79d	0.25335398
3	0x3e0df5be	0.13863274
4	0x3ea73614	0.32658446
5	0x3eab6910	0.33478594
6	0x3ea69ab2	0.32539898
7	0x3e4eae7a	0.20183745
8	0x3e888ab8	0.26668334
9	0x3e175cb7	0.14781462
10	0x3ea816b6	0.32829827
11	0x3e1bb3fd	0.15205379
12	0x3e471c63	0.19444422
13	0x3e45c1d2	0.19312218
14	0x3ebb0561	0.3652754
15	0x3e7be051	0.24597289
16	0x3e7c40b2	0.24634054
17	0x3ead6541	0.33866313
18	0x3e08510d	0.13312168
19	0x3e133084	0.14373976
20	0x3ea2fcf8	0.31833625
21	0x3ea32b7e	0.3186912
22	0x3e9c8f6d	0.30578175
23	0x3e30e033	0.17273025
24	0x3e81abc3	0.25326356
25	0x3e102cc6	0.1407958
26	0x3ea34047	0.31884977
27	0x3e16f8a6	0.1474329
28	0x3e9fc191	0.31202367
29	0x3eb94ae3	0.36189947
30	0x3e04584e	0.1292431
31	0x3e3a316a	0.18182912
32	0x3e430197	0.19043575
33	0x3e5627d4	0.2091363
34	0x3e82c2a9	0.2553914
35	0x3e874e62	0.2642699
36	0x3e8a3fbf	0.2700176
37	0x3ea03835	0.31292883
38	0x3ea6ee7b	0.3260382
39	0x3e517f03	0.20458607
40	0x3e777935	0.2416733
41	0x3e9f8651	0.31157163
42	0x3eb0e17f	0.3454704
43	0x3e821b89	0.25411633
44	0x3e32c8d6	0.17459425
45	0x3eb0445c	0.34427154
46	0x3e871c72	0.2638889
47	0x3e833239	0.25624254
48	0x3e9e735a	0.3094738
49	0x3e3bf6f4	0.18355924
50	0x3e78f5e3	0.24312548
51	0x3e5dcee9	0.21660961
52	0x3e97ee6c	0.2967409
53	0x3e770701	0.24123766
54	0x3e3121bd	0.17298026
55	0x3e8b72c6	0.27236003
56	0x3e9eaa86	0.30989474
57	0x3e8ba0cf	0.27271125
58	0x3ea99a7d	0.33125678
59	0x3e958961	0.29206374
60	0x3e47c034	0.19506913
61	0x3e837b07	0.256798
62	0x3e332d9e	0.1749787
63	0x3e32dda6	0.17467365
64	0x3d89a3b2	0.067206755
65	0x3d84d67d	0.06486223
66	0xbd6a82b6	-0.057253562
67	0xbcdb60d3	-0.026779568
68	0x3cf9207e	0.030411001
69	0xbd12ea90	-0.035868227
70	0xbd635669	-0.05550233
71	0xbd3b11f8	-0.045671433
72	0x3cbb04b6	0.022829395
73	0xbd4f8aea	-0.05066959
74	0xbdcdd418	-0.10050219
75	0xbc6bb281	-0.01438582
76	0x3db835cd	0.08994637
77	0xbd9ccf9d	-0.076567866
78	0xbdca7bc7	-0.0988689
79	0x3d83aa03	0.064289115
80	0xbd306fe4	-0.043075457
81	0xbde6c52b	-0.112680756
82	0x3d73a7d1	0.059486214
83	0xbde0a04c	-0.10968074
84	0x3db76ace	0.08955918
85	0x3b21ee3d	0.0024708651
86	0xbd9a9fbd	-0.07549999
87	0xbdabb92a	-0.083849266
88	0xbbfc1944	-0.0076934416
89	0x3d0face6	0.035077
90	0xbc9617ef	-0.01832196
91	0xbc818092	-0.015808377
92	0xbd7a07cb	-0.06104259
93	0xbd863b3f	-0.06554269
94	0xbd625cb9	-0.05526421
95	0xbd994b53	-0.0748507
96	0x3d9b9efc	0.07598683
97	0x3d39e139	0.045380805
98	0x3d103da4	0.035215035
99	0xbbee0231	-0.007263445
100	0xbb9cd969	-0.0047866595
101	0x3dc01732	0.09379424
102	0x3d8f7c2f	0.07006108
103	0xbd92fe1a	-0.07177372
104	0xbde72089	-0.112855025
105	0x3d18aa00	0.0372715
106	0xbd9183f7	-0.071052484
107	0x3da8b806	0.08238225
108	0x3d9a07c5	0.07521013
109	0xbd246d60	-0.04014337
110	0x3db2ea5a	0.08736105
111	0x3d7afa18	0.061273664
112	0xbcd94689	-0.026522892
113	0xbd05b926	-0.032647274
114	0xbde6fc59	-0.112786
115	0xbdb2f1a4	-0.087374955
116	0x3ce81170	0.028328627
117	0xbd47d1fd	-0.048784245
118	0x3d8c572a	0.06852563
119	0x3d253696	0.04033526
120	0xbc3f4e14	-0.01167633
121	0xbd9d51a7	-0.076815896
122	0xba796205	-0.0009513202
123	0xbdb312c5	-0.087438144
124	0x3dc98b9b	0.09841081
125	0xbdcdd07c	-0.10049531
126	0x386e3de0	5.6801247e-05
127	0x3da9e06a	0.08294757
128	0x3d084069	0.03326455
129	0xbdf39a1b	-0.11894628
130	0x3dc4d521	0.096109636
131	0xbe0106fc	-0.1260032
132	0x3d50623a	0.050874926
133	0xbbf85ff8	-0.0075797997
134	0xbdf1360f	-0.11777889
135	0x3c8776fe	0.016536232
136	0xbd4c5eb1	-0.049894992
137	0xbdbe0e95	-0.09280125
138	0x3d3e0396	0.04639014
139	0xbdb62b98	-0.088950336
140	0x3c90d972	0.017681811
141	0xbcc20c37	-0.023687465
142	0xbd2c6bea	-0.042095102
143	0x3d356332	0.044284053
144	0x3dc6bca9	0.09703953
145	0xbd61365b	-0.054983478
146	0x3ddcadf9	0.1077537
147	0xbc2f5e5a	-0.0107036475
148	0x3dd57c7c	0.10424134
149	0xbb9b1ed6	-0.0047339005
150	0xbdf55538	-0.11979145
151	0xba509d6c	-0.0007958028
152	0xbcae670c	-0.021289371
153	0xbd817997	-0.063220195
154	0x3d1b03df	0.03784549
155	0x3bcc16dd	0.0062283115
156	0xbc408589	-0.011750587
157	0x3cbb0d38	0.022833452
158	0xbde426ba	-0.11140199
159	0x3d22ec89	0.03977636
160	0xbd2279bb	-0.039666872
161	0xbdf52942	-0.1197076
162	0xbdc33531	-0.0953163
163	0xbd38bc02	-0.045101173
164	0xbcaef5d3	-0.021357452
165	0xbc98745f	-0.018610178
166	0x3c831fe2	0.016006414
167	0xbccf6202	-0.025315288
168	0x3ce44dca	0.027869124
169	0x3d804632	0.06263389
170	0x3d97c2ba	0.07410188
171	0x3d5aade4	0.05338849
172	0x3d016248	0.03158787
173	0x3baa7e8d	0.0052030743
174	0xbc0a3942	-0.008436503
175	0xbde55c82	-0.11199285
176	0xbd276b04	-0.040873542
177	0xbc99755d	-0.018732721
178	0xbdac4ab1	-0.08412684
179	0xbdb0dc2f	-0.08635747
180	0xbd7ab886	-0.06121113
181	0x3d70d5bb	0.05879758
182	0xbdefd613	-0.11710753
183	0x3da99677	0.08280652
184	0x3d956059	0.072937675
185	0xbdffbcfc	-0.12487218
186	0x3cc37c5f	0.023863016
187	0xbddf4ee3	-0.10903718
188	0x3d023288	0.03178647
189	0xbc9662a0	-0.018357575
190	0xbc38e34d	-0.0112846615
191	0x3d1bc296	0.03802737
192	0xbd68c3cf	-0.056827363
193	0x3cf98b51	0.030461939
194	0x3da6936b	0.081335865
195	0xbd681d4e	-0.056668572
196	0x3d19cb26	0.037547253
197	0xbdd21f10	-0.10259831
198	0x3da71990	0.081591725
199	0x3cb35db0	0.02189526
200	0xbcabbe2c	-0.020964704
201	0xbdd091e6	-0.10184078
202	0xbc82768f	-0.015925674
203	0xbd8b534f	-0.06802999
204	0x3b4fbb56	0.0031697354
205	0x3db3354e	0.087504014
206	0x3dab0937	0.08351367
207	0xbd891203	-0.066928886
208	0x3dc82024	0.09771755
209	0xbe170af5	-0.14750274
210	0xbca0012a	-0.019531805
211	0xbc939d93	-0.018019473
212	0xbbf6badb	-0.007529599
213	0x3d5168da	0.051125385
214	0xbdd5f345	-0.104467906
215	0x3dbc7537	0.092020445
216	0x3d4f1aea	0.050562777
217	0xbc924f4c	-0.017860077
218	0xbde79e43	-0.11309483
219	0x3bc66909	0.0060550016
220	0x3c7d8c5c	0.015475359
221	0x3d8a14a5	0.06742219
222	0xbd82411b	-0.06360074
223	0xbe1a708c	-0.15081996
224	0xbd84ce8e	-0.0648471
225	0xbc9f374d	-0.01943555
226	0x3da62fd7	0.081145935
227	0xbdf5db05	-0.12004665
228	0xbd2fea2f	-0.042947944
229	0xba4c8494	-0.0007801738
230	0xbda6e160	-0.081484556
231	0x3da5d514	0.08097282
232	0xbe0bf634	-0.13668138
233	0x3d40396c	0.04692976
234	0x3db71244	0.08939031
235	0xbd9b41d3	-0.07580914
236	0xbe17ad22	-0.14812139
237	0x3c71a16b	0.014747958
238	0x3db2fe52	0.08739914
239	0x3d1b1ae0	0.037867427
240	0xbda0db4c	-0.078543276
241	0xbd45421f	-0.04815876
242	0xbdbd37b4	-0.0923914
243	0xbe121a9a	-0.1426796
244	0x3cb0792b	0.021542152
245	0xbd875252	-0.06607498
246	0x3db7f314	0.0898191
247	0xbdf8bd54	-0.121454865
248	0xbe1b06cf	-0.15139316
249	0xbd5715e8	-0.052511126
250	0x3daacbbe	0.08339642
251	0x3d75e6f0	0.060034692
252	0x3c8f0805	0.017459879
253	0x3a15f1f0	0.00057199504
254	0x3c1b264f	0.009469583
255	0xbcd85621	-0.026408257
