extra_baseline2/log_res/5exp_1/experiment_epochs_env-20250301-121638/best_actor.pth (torch, 225570 bytes, 88 tensors)

fc.0.weight f4 [64, 500]
-0.0003348208 0.023990488 -0.036807697 -0.032912195 -0.017224628 0.011992362 -0.0008860724 0.035459097
-0.0039687543 0.0118338335 -0.01351538 -0.008790672 -0.042724486 -0.029618157 -0.018435178 0.0016566389
0.017679928 0.026833836 -0.030318448 -0.019474491 0.016243564 0.037136078 -0.009203664 0.03346552
-0.007208339 0.0047321506 0.04049413 -0.04148668 -0.028153794 -0.011321895 -0.017432384 0.038639292
-0.028987477 -0.020586712 -0.031244153 -0.04188428 -0.026105668 0.038442396 0.019955494 0.021675216
0.0023519662 -0.022927905 0.0075661694 -0.041756097 -0.032314148 -0.023055203 0.028216403 0.026221083
-0.019833703 -0.0016136535 0.028602025 0.044458985 0.017749112 0.0060415366 0.02998506 -0.026332041
0.008333558 -0.03467272 -0.030995756 -0.02310232 0.02023521 0.017985161 -0.026490811 0.013510641
0.024550775 -0.0056446125 0.0017075306 0.01036215 0.027744085 0.042941187 -0.034463335 -0.016389025
0.017575938 0.037053857 0.038916856 0.039460197 0.008900201 -0.03888892 0.00411403 -0.027977923
-0.041678257 0.03973459 0.034004323 -0.04461081 0.008370589 -0.007533761 -0.0073593985 -0.020471511
0.017197875 -0.026488619 0.016394464 0.022615954 0.03201475 0.016721815 -0.04426231 -0.029010609
0.022330048 0.009360242 -0.03488642 -0.025751432 0.04207159 0.030134052 -0.019499637 -0.011255686
-0.042601485 -0.00080382795 -0.03367782 -0.03449612 -0.0024641294 0.0067146914 -0.01831475 0.026536653
-0.027214697 0.040578827 0.030647542 -0.03771276 -0.011130446 0.002017945 0.006524895 0.010606756
0.017549926 0.002678817 -0.021820838 0.021161657 -0.042898916 -0.02650665 -0.0111950915 -0.021784373
-0.015645025 -0.0366546 -0.009512911 0.009559479 -0.029134436 -0.0022950717 0.032013822 -0.0045973673
0.0012429057 -0.0038580627 0.009050771 0.028435607 0.04236214 0.028400565 0.042459067 -0.0032343229
-0.04017416 -0.02120138 0.030451009 -0.0002899054 -0.02222859 -0.034270506 -0.04185258 -0.037745196
-0.009071136 0.024525464 0.024178205 -0.043130707 0.027896382 -0.03499489 -0.009454556 -0.018133288
-0.008614017 -0.008780713 -0.040130712 -0.038614117 -0.006997975 0.00057834474 -0.020315792 0.016846502
-0.040251836 -0.0030181212 0.039328836 -0.018241486 0.04038353 0.016196009 -0.04035928 0.028295087
-0.005160598 -0.019963922 0.035761584 -0.03613912 0.0047988226 -0.009363254 0.03193609 0.012483723
0.021488853 0.015793748 -0.010754356 -0.009405146 -0.036854044 0.024232008 0.03550778 0.030599466
-0.03154548 0.001994568 -0.031525612 -0.024618402 -0.026059384 0.015283302 -0.026650049 -0.0009756952
0.0018813438 0.02882842 -0.033805773 -0.030701762 -0.025967974 0.031301975 -0.016075764 0.03772196
0.016171582 0.005662888 -0.0003329069 -0.008840588 0.0056110257 -0.010211885 -0.0003142317 0.0057061343
-0.034981277 -0.023439871 0.036112174 -0.036293473 -0.0032112708 0.044240102 0.016155012 0.0012661978
-0.038755976 0.022153974 -0.031854164 -0.012694797 -0.015004748 -0.0066226693 0.0004891751 0.036886517
0.005582962 0.0400566 0.027356613 -0.028273469 0.020057714 -0.031613354 -0.018954037 0.013153567
0.01476664 0.03355122 -0.014396516 7.159271e-05 0.023023611 -0.043249678 0.032332677 -0.036981095
0.0006163722 -0.0076033813 -0.023553532 0.0059108688 0.03698093 -0.0130729275 -0.026550807 -0.016539697
00000000: e38a afb9 b387 c43c abc3 16bd f0ce 06bd
00000010: aa1a 8dbc 9d7b 443c 5047 68ba 8f3d 113d
00000020: 530c 82bb b2e2 413c 9d6f 5dbc c006 10bc
00000030: dfff 2ebd c7a1 f2bc 5f05 97bc 9423 d93a
00000040: 7fd5 903c a2d2 db3c 655e f8bc f888 9fbc
00000050: 3911 853c 001c 183d f7ca 16bc 2413 093d
00000060: ee33 ecbb 2810 9b3b 2cdd 253d f0ed 29bd
00000070: c9a2 e6bc 787f 39bc 5cce 8ebc 3c44 1e3d
00000080: 2577 edbc 77a5 a8bc bdf3 ffbc da8e 2bbd
00000090: 8edb d5bc c675 1d3d b479 a33c 3990 b13c
000000a0: 7223 1a3b 4dd3 bbbc a1ed f73b 7108 2bbd
000000b0: d75b 04bd 44de bcbc 1626 e73c 99cd d63c
000000c0: 4a7a a2bc 3a81 d3ba cb4e ea3c a01a 363d
000000d0: 9666 913c 15f8 c53b 3ba3 f53c 4bb6 d7bc
000000e0: 7a89 083c fb04 0ebd d0ea fdbc 1441 bdbc
000000f0: 50c4 a53c 9e55 933c 4203 d9bc bc5b 5d3c
00000100: b51e c93c 71f6 b8bb 38cf df3a 02c6 293c
00000110: 9047 e33c 19e3 2f3d 6d29 0dbd 4742 86bc
00000120: 6afb 8f3c c9c5 173d 4867 1f3d 04a1 213d
00000130: 26d2 113c fd49 1fbd fcce 863b f531 e5bc
00000140: d2b6 2abd bdc0 223d 1e48 0b3d d3b9 36bd
00000150: cc24 093c c5dd f6bb 1c27 f1bb dfb3 a7bc
00000160: 8fe2 8c3c a9fe d8bc af4d 863c 1845 b93c
00000170: e621 033d 30fc 883c 654c 35bd a8a7 edbc
00000180: 81ed b63c b35b 193c 10e5 0ebd abf4 d2bc
00000190: 4253 2c3d b0db f63c b4bd 9fbc c569 38bc
000001a0: e57e 2ebd fbb7 52ba c1f1 09bd ce4b 0dbd
000001b0: 3b7d 21bb ea06 dc3b d108 96bc 6563 d93c
000001c0: 5bf1 debc fc35 263d 8e10 fb3c b278 1abd
000001d0: 795c 36bc 803f 043b c9ce d53b f6c7 2d3c
000001e0: ddc4 8f3c 178f 2f3b 9dc1 b2bc 365b ad3c
000001f0: c6b6 2fbd 7924 d9bc 9e6b 37bc 2475 b2bc
00000200: ff29 80bc 2223 16bd 0adc 1bbc 5c9f 1c3c
00000210: 57ab eebc ea68 16bb ed20 033d 83a5 96bb
00000220: ffe8 a23a 8dd7 7cbb af49 143c caf1 e83c
00000230: ec83 2d3d 4da8 e83c 8fe9 2d3d eff6 53bb
00000240: a98d 24bd 84ae adbc 6574 f93c 72fe 97b9
00000250: bb18 b6bc 3b5f 0cbd 9c6d 2bbd b59a 1abd
00000260: 1a9f 14bc a0e9 c83c 5f11 c63c d3a9 30bd
00000270: f486 e43c cd56 0fbd 48e7 1abc 438c 94bc
00000280: ce21 0dbc fbdc 0fbc 1a60 24bd d629 1ebd
00000290: 454f e5bb 0f9c 173a 4e6d a6bc ad01 8a3c
000002a0: 1cdf 24bd accb 45bb 4617 213d 2b6f 95bc
000002b0: 3369 253d 7ead 843c c64f 25bd 19cb e73c
000002c0: 3c1a a9bb 618b a3bc bd7a 123d 9d06 14bd
000002d0: 713f 9d3b 5568 19bc 6bcf 023d 8888 4c3c
000002e0: 6409 b03c e461 813c 0a33 30bc 0b18 1abc
000002f0: 44f4 16bd 3482 c63c 9b70 113d bbab fa3c
00000300: d535 01bd 4cb7 023b 0021 01bd 88ac c9bc
00000310: 7d7a d5bc d166 7a3c 3451 dabc ccc5 7fba
00000320: 6c97 f63a 9429 ec3c ec77 0abd 4382 fbbc
00000330: caba d4bc 8036 003d 52b1 83bc 5882 1a3d
00000340: 447a 843c bf8f b93b 028a aeb9 1dd8 10bc
00000350: b2dc b73b c04f 27bc 77bf a4b9 86fa ba3b
00000360: 8748 0fbd f904 c0bc 5cea 133d 77a8 14bd
00000370: 2f74 52bb 1c35 353d 8457 843c 8cf6 a53a
00000380: 96be 1ebd 407c b53c 8379 02bd d6fd 4fbc
00000390: 79d6 75bc fa02 d9bb fc3b 003a 5116 173d
000003a0: 48f1 b63b 6412 243d fa1a e03c c39d e7bc
000003b0: 1350 a43c 017d 01bd 7f45 9bbc 0f82 573c
000003c0: c7ef 713c 016d 093d 5ddf 6bbc 0b24 9638
000003d0: 039c bc3c 9326 31bd 456f 043d 7d79 17bd
000003e0: 0a94 213a c925 f9bb 56f3 c0bc f6af c13b
000003f0: 5179 173d d52f 56bc 1481 d9bc 427e 87bc

fc.0.bias f4 [64]
-0.021683587 0.044606943 -0.03859664 -0.02928602 0.0011704813 0.00588658 -0.015464311 -0.013908673
-0.029469324 0.03411067 0.04202173 -0.01938062 0.00076974556 -0.0472798 0.037813 -0.027410597
-0.018366437 -0.02293554 0.011479202 0.0154625485 -0.037495326 -0.0068880827 0.025519803 0.005735635
-0.03974949 0.02368128 0.0363825 -0.002731084 0.044983875 0.030916117 -0.04086458 -0.018597895
0.03906375 -0.015390804 0.0388306 -0.029613324 0.037962902 0.012318978 -0.037240665 -0.041660864
-0.03358941 0.040174674 0.012330617 0.014050488 -0.013542798 -0.045586966 0.036342476 -0.022330176
-0.0061570634 -0.0037355465 0.04170137 0.016333912 -0.013576367 0.038159132 0.03753101 -0.0010126075
0.03727274 -0.021849567 -0.041306812 0.03842141 -0.00977638 0.004414886 -0.029170811 -0.021046055
00000000: c7a1 b1bc c5b5 363d 8317 1ebd 3ce9 efbc
00000010: d66a 993a 36e4 c03b 065e 7dbc 34e1 63bc
00000020: a769 f1bc a1b7 0b3d fa1e 2c3d 1bc4 9ebc
00000030: c0c8 493a 77a8 41bd cee1 1a3d 308c e0bc
00000040: 3675 96bc 50e3 bbbc 4313 3c3c a156 7d3c
00000050: b394 19bd 6db5 e1bb e80e d13c fef1 bb3b
00000060: 5cd0 22bd 3eff c13c d105 153d fcfb 32bb
00000070: 0341 383d cc43 fd3c 9e61 27bd 9d5a 98bc
00000080: 5001 203d b629 7cbc d60c 1f3d a497 f2bc
00000090: fd7e 1b3d 8ad5 493c ab89 18bd 95a4 2abd
000000a0: 0d95 09bd 338e 243d 5b06 4a3c 0534 663c
000000b0: 9de2 5dbc 66b9 3abd d9db 143d c6ed b6bc
000000c0: 31c1 c9bb 12d0 74bb 0ecf 2a3d b2ce 853c
000000d0: 696f 5ebc c04c 1c3d 1eba 193d 78b9 84ba
000000e0: 4dab 183d ddfd b2bc 5531 29bd c55f 1d3d
000000f0: 1c2d 20bc bfaa 903b a0f7 eebc c768 acbc

fc.2.weight f4 [64]
1.0 1.0 1.0 1.0 1.0 1.0 1.0 1.0
1.0 1.0 1.0 1.0 1.0 1.0 1.0 1.0
1.0 1.0 1.0 1.0 1.0 1.0 1.0 1.0
1.0 1.0 1.0 1.0 1.0 1.0 1.0 1.0
1.0 1.0 1.0 1.0 1.0 1.0 1.0 1.0
1.0 1.0 1.0 1.0 1.0 1.0 1.0 1.0
1.0 1.0 1.0 1.0 1.0 1.0 1.0 1.0
1.0 1.0 1.0 1.0 1.0 1.0 1.0 1.0
00000000: 0000 803f 0000 803f 0000 803f 0000 803f
00000010: 0000 803f 0000 803f 0000 803f 0000 803f
00000020: 0000 803f 0000 803f 0000 803f 0000 803f
00000030: 0000 803f 0000 803f 0000 803f 0000 803f
00000040: 0000 803f 0000 803f 0000 803f 0000 803f
00000050: 0000 803f 0000 803f 0000 803f 0000 803f
00000060: 0000 803f 0000 803f 0000 803f 0000 803f
00000070: 0000 803f 0000 803f 0000 803f 0000 803f
00000080: 0000 803f 0000 803f 0000 803f 0000 803f
00000090: 0000 803f 0000 803f 0000 803f 0000 803f
000000a0: 0000 803f 0000 803f 0000 803f 0000 803f
000000b0: 0000 803f 0000 803f 0000 803f 0000 803f
000000c0: 0000 803f 0000 803f 0000 803f 0000 803f
000000d0: 0000 803f 0000 803f 0000 803f 0000 803f
000000e0: 0000 803f 0000 803f 0000 803f 0000 803f
000000f0: 0000 803f 0000 803f 0000 803f 0000 803f

fc.2.bias f4 [64]
-0.097441584 0.102135494 0.09588809 0.09250657 0.10279143 0.096056424 -0.03158101 -0.09153754
-0.08988696 0.09928125 0.005416749 -0.07244925 0.098894045 -0.09756284 0.09902239 -0.03581346
0.07875074 0.094516695 0.102677785 0.090725094 0.086036034 -0.039535183 -0.012293004 -0.09820086
0.09385766 0.09769395 -0.0887612 -0.09103158 -0.07024715 -0.03306076 -0.09590392 0.089443214
-0.09649742 0.10119544 -0.10081546 -0.038934343 0.08377073 -0.100007504 0.094753146 -0.10122912
0.09376351 0.09416253 -0.09914605 0.094344005 -0.08417824 -0.08838694 0.09454921 -0.085102156
-0.080981255 -0.09620019 -0.054299347 0.052877534 -0.08677677 0.08428869 0.09955195 0.0715108
-0.09608275 0.102341264 -0.046916936 0.0867547 0.08650439 0.081551276 -0.078659944 -0.08761783
00000000: 748f c7bd 6a2c d13d fa60 c43d 1674 bd3d
00000010: 5084 d23d 3bb9 c43d 175b 01bd 0978 bbbd
00000020: a816 b8bd f853 cb3d fc7e b13b 4660 94bd
00000030: f688 ca3d 07cf c7bd 40cc ca3d 22b1 12bd
00000040: 1148 a13d f891 c13d bb48 d23d 14ce b93d
00000050: a933 b03d a5ef 21bd 9968 49bc 881d c9bd
00000060: 7238 c03d c413 c83d 6fc8 b5bd c46e babd
00000070: bddd 8fbd b86a 07bd 4669 c4bd 012e b73d
00000080: 70a0 c5bd 8e3f cf3d 5678 cebd 9e79 1fbd
00000090: fd8f ab3d bcd0 ccbd f00d c23d 3651 cfbd
000000a0: 1507 c03d 49d8 c03d 160d cbbd 6e37 c13d
000000b0: a465 acbd 3604 b5bd 04a3 c13d 0a4a aebd
000000c0: 80d9 a5bd 9b04 c5bd fe68 5ebd 1d96 583d
000000d0: 05b8 b1bd 8c9f ac3d e5e1 cb3d 4174 923d
000000e0: 08c7 c4bd 4c98 d13d f92b 40bd 73ac b13d
000000f0: 3729 b13d 5b04 a73d 7718 a1bd fa70 b3bd

fc.2.running_mean f4 [64]
0.0 0.0 0.0 30127.846 0.0 0.0 2023.0248 18849.383
12922.243 0.0 15606.391 0.0 0.0 26.7068 0.07339235 12622.384
56134.113 0.0 0.0 0.0 0.004748588 9201.363 34753.207 0.0019726527
0.0 0.6549547 22750.234 0.0 28513.012 18696.705 28747.326 3932.2485
0.0018569588 0.15772653 0.0 16288.819 56810.137 0.0 0.0 0.0
0.0 0.0 0.0 0.0 0.0 12545.197 0.0 22686.562
0.0 0.0 32350.072 13913.805 885.0649 0.0 0.0 52799.477
0.0 0.0 20093.398 0.0 2887.8174 31135.725 0.0 5422.625
00000000: 0000 0000 0000 0000 0000 0000 b15f eb46
00000010: 0000 0000 0000 0000 cbe0 fc44 c442 9346
00000020: f9e8 4946 0000 0000 90d9 7346 0000 0000
00000030: 0000 0000 87a7 d541 ba4e 963d 8939 4546
00000040: 1d46 5b47 0000 0000 0000 0000 0000 0000
00000050: 0b9a 9b3b 74c5 0f46 35c1 0747 9f47 013b
00000060: 0000 0000 1cab 273f 78bc b146 0000 0000
00000070: 06c2 de46 6911 9246 a796 e046 fac3 7545
00000080: 3365 f33a 1083 213e 0000 0000 4783 7e46
00000090: 23ea 5d47 0000 0000 0000 0000 0000 0000
000000a0: 0000 0000 0000 0000 0000 0000 0000 0000
000000b0: 0000 0000 ca04 4446 0000 0000 203d b146
000000c0: 0000 0000 0000 0000 25bc fc46 3867 5946
000000d0: 2744 5d44 0000 0000 0000 0000 7a3f 4e47
000000e0: 0000 0000 0000 0000 ccfa 9c46 0000 0000
000000f0: 147d 3445 733f f346 0000 0000 0075 a945

fc.2.running_var f4 [64]
8.20828e-07 8.20828e-07 8.20828e-07 8.20828e-07 8.20828e-07 8.20828e-07 8.20828e-07 8.20828e-07
8.20828e-07 8.20828e-07 8.20828e-07 8.20828e-07 8.20828e-07 8.20828e-07 8.20828e-07 8.20828e-07
8.20828e-07 8.20828e-07 8.20828e-07 8.20828e-07 8.20828e-07 8.20828e-07 8.20828e-07 8.20828e-07
8.20828e-07 8.20828e-07 8.20828e-07 8.20828e-07 8.20828e-07 8.20828e-07 8.20828e-07 8.20828e-07
8.20828e-07 8.20828e-07 8.20828e-07 8.20828e-07 8.20828e-07 8.20828e-07 8.20828e-07 8.20828e-07
8.20828e-07 8.20828e-07 8.20828e-07 8.20828e-07 8.20828e-07 8.20828e-07 8.20828e-07 8.20828e-07
8.20828e-07 8.20828e-07 8.20828e-07 8.20828e-07 8.20828e-07 8.20828e-07 8.20828e-07 8.20828e-07
8.20828e-07 8.20828e-07 8.20828e-07 8.20828e-07 8.20828e-07 8.20828e-07 8.20828e-07 8.20828e-07
00000000: df56 5c35 df56 5c35 df56 5c35 df56 5c35
00000010: df56 5c35 df56 5c35 df56 5c35 df56 5c35
00000020: df56 5c35 df56 5c35 df56 5c35 df56 5c35
00000030: df56 5c35 df56 5c35 df56 5c35 df56 5c35
00000040: df56 5c35 df56 5c35 df56 5c35 df56 5c35
00000050: df56 5c35 df56 5c35 df56 5c35 df56 5c35
00000060: df56 5c35 df56 5c35 df56 5c35 df56 5c35
00000070: df56 5c35 df56 5c35 df56 5c35 df56 5c35
00000080: df56 5c35 df56 5c35 df56 5c35 df56 5c35
00000090: df56 5c35 df56 5c35 df56 5c35 df56 5c35
000000a0: df56 5c35 df56 5c35 df56 5c35 df56 5c35
000000b0: df56 5c35 df56 5c35 df56 5c35 df56 5c35
000000c0: df56 5c35 df56 5c35 df56 5c35 df56 5c35
000000d0: df56 5c35 df56 5c35 df56 5c35 df56 5c35
000000e0: df56 5c35 df56 5c35 df56 5c35 df56 5c35
000000f0: df56 5c35 df56 5c35 df56 5c35 df56 5c35

fc.3.weight f4 [64, 64]
-0.16532788 0.10139855 -0.0042071287 0.09145571 0.12687081 0.08661787 -0.08923981 -0.14077432
-0.0799741 0.17400478 0.08599605 -0.04501719 0.042788673 -0.10978273 0.11130032 -0.13246083
0.08747765 0.19535148 0.14939483 0.21983004 -0.008703049 -0.04754739 0.029924411 -0.12756898
0.0839078 0.17926966 -0.13934632 -0.040074974 0.018766157 0.0454613 -0.14358158 0.10453461
0.0035295868 -0.026130175 -0.17933965 0.03923663 0.063451715 -0.031525157 0.118454516 -0.14232254
0.17572768 0.12618972 -0.17759795 0.016616365 -0.16454595 0.012308758 0.121192835 -0.03651715
-0.035768904 -0.049443655 0.052583437 -0.10054333 0.0067301667 0.12427163 0.10493627 0.1401466
-0.01797956 0.08491734 -0.112076655 0.22628729 -0.057091434 0.14210238 -0.09320575 -0.05220662
-0.04845946 0.096432805 -0.017871099 0.12689973 0.10542828 0.15992023 -0.012726736 -0.019599305
-0.14515236 -0.023597624 -0.06469391 -0.04644617 0.18841769 -0.045268033 0.17940551 -0.10421948
0.0037796695 0.089067295 -0.0057966984 0.11397909 0.07846525 -0.033723634 -0.043393157 0.0072330404
-0.046209335 0.12307435 0.05061887 -0.104245484 0.036520746 -0.06857532 -0.14699107 0.08592706
-0.13623065 0.16332082 0.0069553335 -0.032589514 -0.038240932 -0.12532045 0.05767003 -0.044968206
-0.017497055 0.02196031 -0.013753153 0.0666437 0.051666066 -0.07180795 0.07727824 -0.08181607
-0.1329286 -0.1869041 -0.029545614 0.07131169 0.052710928 0.041348398 0.11053524 0.05717037
-0.07202409 0.04262504 -0.07601439 0.04188711 -0.023171017 0.044053964 -0.10445898 -0.15076336
-0.0066322125 0.20224701 0.19475041 0.03860374 0.14506085 -0.013388823 0.09485295 -0.15471032
-0.11287137 0.031115739 0.033292852 -0.05273241 0.1150729 0.015269456 0.16501004 -0.05342334
-0.114620745 0.19766782 -0.031353038 0.1077253 -0.0017326535 -0.09100721 -0.11471108 0.023933813
-0.023385834 0.1715598 -0.11526717 -0.16564152 0.100728095 -0.026939496 -0.077696085 -0.008008123
-0.18971409 0.10342239 -0.12665136 0.048647568 0.1147994 -0.1331068 0.1935716 -0.08038616
0.08231523 -0.026737003 -0.072557606 0.0948072 -0.15840414 -0.03768724 0.034809336 -0.10799634
-0.1354788 -0.09093603 -0.09075403 -0.07429716 -0.09969086 -0.016678844 0.1222999 -0.03908617
-0.08196834 0.04372078 -0.017414458 0.16570807 -0.0071938424 0.14337622 -0.19338618 -0.11925621
-0.062454768 0.047034163 -0.02117804 -0.109748155 0.053058535 0.17420895 0.017261362 -0.094459526
0.09217289 0.011933508 0.00027366803 -0.11708387 0.055442017 -0.06637954 -0.028155366 -0.036515057
0.07413344 0.0020533833 0.078171134 0.18006817 -0.021589855 -0.08411456 -0.08616602 -0.031561166
0.063257694 0.090611 -0.11878063 -0.010922509 -0.09541766 0.021195458 -0.028562285 -0.054185778
0.012305361 0.11531181 0.04617415 -0.13115706 0.11652411 -0.03478576 0.006511462 0.041221116
0.18206306 0.00045841304 -0.12032473 0.08488073 -0.0060577225 0.09910266 0.11491118 0.102624126
-0.07015769 0.031219333 -0.06494266 -0.0010446593 0.04409643 0.120085716 -0.028452912 0.026936578
0.0023622182 0.14545439 -0.11023017 0.019111874 -0.06385327 -0.07861991 -0.10664174 -0.14056242
00000000: b64b 29be 0baa cf3d f4db 89bb 224d bb3d
00000010: 6cea 013e b664 b13d 5dc3 b6bd 2527 10be
00000020: 76c9 a3bd 4f2e 323e b21e b03d f263 38bd
00000030: 2d43 2f3d c5d5 e0bd 6cf1 e33d d0a3 07be
00000040: 7b27 b33d 380a 483e f5fa 183e 201b 613e
00000050: 3c97 0ebc 0dc1 42bd 0a24 f53c 71a1 02be
00000060: dad7 ab3d 7792 373e cdb0 0ebe a825 24bd
00000070: 7cbb 993c a135 3a3d 0d07 13be 3e16 d63d
00000080: a450 673b f30e d6bc d0a4 37be 97b6 203d
00000090: f9f2 813d 8620 01bd 4898 f23d 00bd 11be
000000a0: f5f1 333e e137 013e 3ddc 35be 0b1f 883c
000000b0: bc7e 28be acaa 493c f333 f83d 0293 15bd
000000c0: 6a82 12bd 6e85 4abd bb61 573d a9e9 cdbd
000000d0: bb88 dc3b 2082 fe3d d4e8 d63d 9782 0f3e
000000e0: df49 93bc 24e9 ad3d 7288 e5bd dbb7 673e
000000f0: b5d8 69bd 4983 113e a8e2 bebd 9cd6 55bd
00000100: 6d7d 46bd 907e c53d 6966 92bc 01f2 013e
00000110: c8ea d73d 21c2 233e cd83 50bc b98e a0bc
00000120: d2a2 14be ce4f c1bc 3e7e 84bd 573e 3ebd
00000130: 91f0 403e f96a 39bd 14b6 373e 0671 d5bd
00000140: 55b4 773b ea68 b63d 3bf2 bdbb de6d e93d
00000150: 64b2 a03d cb21 0abd 06bd 31bd 2403 ed3b
00000160: 0046 3dbd 680e fc3d bb55 4f3d a87e d5bd
00000170: c796 153d 3871 8cbd d484 16be 87fa af3d
00000180: 0c80 0bbe 933d 273e 91e9 e33b 957c 05bd
00000190: 86a2 1cbd 0154 00be 6937 6c3d 9530 38bd
000001a0: fc55 8fbc 1ce6 b33c e854 61bc 7e7c 883d
000001b0: cc9f 533d 0c10 93bd 0e44 9e3d 2f8f a7bd
000001c0: 6f1e 08be ca63 3fbe a509 f2bc dd0b 923d
000001d0: 6ae7 573d f05c 293d 4d60 e23d 7a2b 6a3d
000001e0: 5e81 93bd 9897 2e3d 6fad 9bbd d191 2b3d
000001f0: 25d1 bdbc ee71 343d 97ee d5bd b661 1abe
00000200: 0853 d9bb d719 4f3e a76c 473e f51e 1e3d
00000210: d58a 143e cb5c 5bbc 4342 c23d 626c 1ebe
00000220: 1b29 e7bd 6fe6 fe3c 165e 083d f1fd 57bd
00000230: 57ab eb3d be2c 7a3c 64f8 283e 6fd2 5abd
00000240: 48be eabd 6f69 4a3e 0b6c 00bd 159f dc3d
00000250: 341a e3ba fd61 babd a5ed eabd d810 c43c
00000260: a693 bfbc 5fad 2f3e 3211 ecbd ee9d 29be
00000270: 884a ce3d 38b0 dcbc 201f 9fbd 8134 03bc
00000280: 6944 42be 1ecf d33d e5b0 01be ac42 473d
00000290: f31b eb3d 264d 08be a237 463e 80a1 a4bd
000002a0: e394 a83d 8f07 dbbc 1599 94bd 472a c23d
000002b0: b234 22be ef5d 1abd 3c94 0e3d 2f2d ddbd
000002c0: f4ba 0abe ab3c babd 40dd b9bd 1c29 98bd
000002d0: b92a ccbd 12a2 88bc 5f78 fa3d d218 20bd
000002e0: 04df a7bd 9014 333d c4a8 8ebc 60af 293e
000002f0: 53ba ebbb 37d1 123e 0707 46be 9a3c f4bd
00000300: 92d0 7fbd e5a6 403d 927d adbc a4c3 e0bd
00000310: e853 593d d563 323e b367 8d3c ff73 c1bd
00000320: 24c5 bc3d c384 433c 1a7b 8f39 abc9 efbd
00000330: 2b17 633d fff1 87bd 15a6 e6bc d090 15bd
00000340: 46d3 973d 0e92 063b 3018 a03d ca63 383e
00000350: 35dd b0bc 4144 acbd cf77 b0bd 4846 01bd
00000360: 408d 813d 4392 b93d 4243 f3bd 53f4 32bc
00000370: 566a c3bd 19a2 ad3c 74fb e9bc e8f1 5dbd
00000380: 6d9c 493c 9928 ec3d 1b21 3d3d 094e 06be
00000390: 31a4 ee3d 837b 0ebd 1a5e d53b 79d7 283d
000003a0: bd6e 3a3e 2857 f039 d06c f6bd f3d5 ad3d
000003b0: dc7f c6bb 56f6 ca3d 8e56 eb3d 992c d23d
000003c0: d6ae 8fbd b0bf ff3c a800 85bd f3ec 88ba
000003d0: 759e 343d 80ef f53d 1516 e9bc 19aa dc3c
000003e0: 72cf 1a3b fff1 143e 5bc0 e1bd 8190 9c3c
000003f0: 81c5 82bd 7a03 a1bd fc66 dabd 98ef 0fbe

fc.3.bias f4 [64]
0.11320199 -0.0143193845 0.08460072 0.059738964 -0.0334417 -0.06514624 0.18359704 0.179553
-0.0068667806 -0.09332373 0.01073761 -0.03936468 -0.04754925 0.07551543 0.03315903 0.102682896
0.042153962 0.16738087 0.13491647 0.05142594 0.1313362 0.0011598537 0.17425115 -0.017775029
0.18377122 0.09243941 0.071916856 -0.01866263 -0.0035988148 -0.028586537 -0.010884919 -0.0054705054
0.18530981 -0.01890377 -0.04340013 0.030611733 0.13939308 -0.06367829 0.04016244 -0.07546533
-0.01888475 0.049556594 0.09735255 -0.011310735 -0.021865904 0.09304075 -0.05917934 0.033878002
-0.02369072 -0.064726494 0.04782937 0.0815338 -0.07297596 -0.10726245 0.052095294 0.107285805
-0.061365508 0.18272251 -0.08122639 -0.10105417 0.066066094 -0.037809014 0.080134176 -0.015845047
00000000: 72d6 e73d da9b 6abc 2443 ad3d d8b0 743d
00000010: 2afa 08bd 646b 85bd dd00 3c3e bedc 373e
00000020: bb02 e1bb 8320 bfbd cdec 2f3c dc3c 21bd
00000030: 01c3 42bd d5a7 9a3d c3d1 073d 694b d23d
00000040: a2a9 2c3d e465 2b3e 8b27 0a3e 02a4 523d
00000050: ff7c 063e 3b06 983a e56e 323e f09c 91bc
00000060: 862e 3c3e e050 bd3d 2549 933d 5fe2 98bc
00000070: 18da 6bbb 502e eabc a956 32bc ed41 b3bb
00000080: dbc1 3d3e 14dc 9abc 56c4 31bd 75c5 fa3c
00000090: 0fbd 0e3e c369 82bd 5f81 243d 918d 9abd
000000a0: 31b4 9abc dbfb 4a3d c660 c73d a950 39bc
000000b0: 2020 b3bc 268c be3d 0966 72bd a9c3 0a3d
000000c0: 0a13 c2bc 538f 84bd bbe8 433d 31fb a63d
000000d0: 6c74 95bd 6aac dbbd e061 553d a9b8 db3d
000000e0: 665a 7bbd 9c1b 3b3e 065a a6bd 7df5 cebd
000000f0: a94d 873d a0dd 1abd 631d a43d 79cd 81bc

placing_layer.0.weight f4 [5, 64]
0.12272017 -0.0872363 0.12454358 -0.111904904 0.04421939 0.083985776 0.04111451 0.018647268
0.029392704 0.021756917 0.10773644 -0.075695604 -0.07684629 -0.06709361 -0.11329728 -0.0012189001
-0.020652384 -0.080864996 -0.07664567 -0.0558964 0.060371578 0.0037121922 -0.0646836 0.031634077
-0.084488094 0.032827333 -0.0346369 0.046983257 0.045042202 0.0029124767 -0.08897908 0.103790924
0.036800355 0.016622007 0.07745081 0.014160782 0.0105525255 0.122119024 -0.08855796 0.054518864
-0.004387185 0.12391502 0.00043094158 -0.076935515 0.04268329 -0.11987302 -0.110040545 -0.02095525
-0.053432897 0.023669094 -0.036357805 -0.12315668 0.1145888 0.0028477162 0.06743723 -0.10784279
-0.026044935 0.023534566 0.08526254 0.057403356 0.11128569 0.094678685 -0.079912245 0.0037510693
-0.0812578 0.009211217 0.099212036 -0.101862624 -0.03926505 0.06856014 -0.017157106 -0.13061382
-0.06692749 -0.0885286 -0.11200698 -0.02158451 -0.039565377 -0.1102521 -0.13173981 0.0013651728
-0.009562627 -0.09854927 0.086219564 0.04348645 -0.051035546 0.043143548 0.05931965 0.09690879
0.0765998 0.069714874 0.078373164 0.026079053 0.08437006 0.064135775 0.03147011 -0.092622146
0.099482425 -0.106926456 -0.073853634 -0.034338485 -0.0028079124 -0.03082838 0.008864074 -0.035011686
-0.018620148 0.08900677 -0.09750299 0.06659317 0.04684497 -0.069555975 -0.026373897 -0.061718334
-0.0075415336 -0.09412469 -0.04769493 0.053500105 -0.08260916 0.10966984 0.027290711 -0.041033603
-0.13219976 0.033674695 -0.044307817 -0.07810367 -0.06574547 0.07725281 0.10672878 -0.0011964104
0.086053506 -0.029823782 -0.11119315 -0.040476315 0.1125117 -0.10571182 0.004876862 -0.10863379
-0.116604656 0.029244423 0.06689435 0.090652615 -0.06482926 -0.05606629 -0.11425058 -0.0026054163
0.060298357 0.00066274876 0.07553212 0.09871575 -0.0331364 -0.06006209 0.089030646 0.015455896
-0.056511655 -0.061605494 0.076203294 -0.036477044 -0.08866295 0.12186684 0.045516074 -0.095447086
-0.010107288 -0.05291391 0.060368914 -0.07401997 0.039151356 -0.11889434 -0.013300453 0.0005366044
-0.06780937 0.059275836 -0.123830006 -0.11983186 0.08154459 -0.06655438 0.07810795 -0.10584001
0.056580335 0.012095768 0.039644122 -0.075621836 0.10678077 0.11113268 0.058054116 0.037757028
-0.12194398 0.021819368 -0.096006796 0.019473255 -0.06459492 0.045622386 -0.054104935 0.006365552
0.17298244 0.10219511 0.096197866 0.06696912 -0.07204376 0.018399125 0.06064074 0.03414647
0.09537034 0.06459749 -0.0094075175 0.09185487 0.0133587085 -0.041329548 0.10546216 -0.040523823
0.054350704 0.07035634 0.11149459 0.01909206 0.09920313 -0.07714462 -0.039242398 -0.09644899
-0.003236027 -0.0030788817 0.038725037 0.065415934 0.15815562 -0.001694273 0.040991474 0.13064049
0.14519691 0.03742717 0.008704072 0.11783765 0.01456087 -0.11734103 -0.022545591 0.05923142
0.15565598 0.08692694 0.029682538 0.086372145 0.05651576 -0.052608203 0.035627805 -0.058534272
0.12988876 0.0959717 -0.006835348 0.07789721 0.04111684 -0.029549018 0.024756288 0.049711235
0.083325975 0.16040939 -0.10625367 0.10772756 -0.016286485 0.022963734 0.022885285 0.02355299
00000000: b654 fb3d f2a8 b2bd b410 ff3d 662e e5bd
00000010: 641f 353d bc00 ac3d b067 283d 28c2 983c
00000020: f8c8 f03c 903b b23c eca4 dc3d 4c06 9bbd
00000030: 9661 9dbd 6068 89bd 6808 e8bd 80c3 9fba
00000040: 302f a9bc 8c9c a5bd 68f8 9cbd a0f3 64bd
00000050: 3048 773d 4048 733b d678 84bd bc92 013d
00000060: 1808 adbd f475 063d 6cdf 0dbd 8471 403d
00000070: 2c7e 383d 40df 3e3b aa3a b6bd 5690 d43d
00000080: f8bb 163d e02a 883c 889e 9e3d a002 683c
00000090: 80e4 2c3c 8a19 fa3d e05d b5bd 2c4f 5f3d
000000a0: 60c2 8fbb 28c7 fd3d 00f0 e139 5e90 9dbd
000000b0: acd4 2e3d fc7f f5bd f05c e1bd 58aa abbc
000000c0: 74dc 5abd b0e5 c13c eceb 14bd 9239 fcbd
000000d0: 88ad ea3d c0a0 3a3b 881c 8a3d aedc dcbd
000000e0: 305c d5bc 90cb c03c 209e ae3d c81f 6b3d
000000f0: c0e9 e33d e6e6 c13d 08a9 a3bd 80d4 753b
00000100: 7d6a a6bd a5ea 163c ae2f cb3d 5a9d d0bd
00000110: 64d4 20bd 4269 8c3d 0f8d 8cbc a1bf 05be
00000120: 4811 89bd 7c4e b5bd ea63 e5bd 00d2 b0bc
00000130: 4e0f 22bd dacb e1bd cde6 06be 99ef b23a
00000140: 91ac 1cbc 33d4 c9bd e293 b03d d91e 323d
00000150: a60a 51bd 4ab7 303d 29f9 723d 1e78 c63d
00000160: 5be0 9c3d acc6 8e3d 1c82 a03d bda3 d53c
00000170: 36ca ac3d 9e59 833d cde6 003d aeb0 bdbd
00000180: 71bd cb3d 42fc dabd 9340 97bd 83a6 0cbd
00000190: f404 38bb cc8b fcbc 9f3a 113c 6a68 0fbd
000001a0: 4889 98bc 2e49 b63d a6af c7bd 0062 883d
000001b0: 83e0 3f3d 5d73 8ebd 120e d8bc 5dcc 7cbd
000001c0: f81e f7bb 72c4 c0bd c25b 43bd ed22 5b3d
000001d0: fe2e a9bd 959a e03d c590 df3c da12 28bd
000001e0: 605f 07be 7aee 093d 1d7c 35bd d1f4 9fbd
000001f0: 90a5 86bd b936 9e3d 9e94 da3d dfd0 9cba
00000200: d23c b03d 0151 f4bc 3cb9 e3bd 7eca 25bd
00000210: 896c e63d 707f d8bd 15ce 9f3b 647b debd
00000220: 6cce eebd 0092 ef3c e8ff 883d 14a8 b93d
00000230: 34c5 84bd c4a5 65bd 35fc e9bd a2bf 2abb
00000240: 69fb 763d 51bc 2d3a 96b0 9a3d 7c2b ca3d
00000250: 09ba 07bd ab03 76bd b355 b63d ba3a 7d3c
00000260: c478 67bd 0b56 7cbd 7910 9c3d f468 15bd
00000270: ec94 b5bd 5295 f93d 106f 3a3d c379 c3bd
00000280: 0a99 25bc 42bc 58bd 6545 773d c897 97bd
00000290: 2c5d 203d e07e f3bd 25ea 59bc e9aa 0c3a
000002a0: a4df 8abd 38cb 723d 969a fdbd 686a f5bd
000002b0: da00 a73d aa4d 88bd 10f7 9f3d a6c2 d8bd
000002c0: c8c0 673d 542d 463c e061 223d 9fdf 9abd
000002d0: e0af da3d 8899 e33d 27ca 6d3d 1da7 1a3d
000002e0: c4bd f9bd 88be b23c 369f c4bd 6086 9f3c
000002f0: 574a 84bd 8ade 3a3d 239d 5dbd 1f96 d03b
00000300: 4f22 313e ab4b d13d 6303 c53d 1b27 893d
00000310: ae8b 93bd c3b9 963c 6d62 783d 2bdd 0b3d
00000320: 8651 c33d b04b 843d fd21 1abc 681e bc3d
00000330: 7cde 5a3c 2c49 29bd 8cfc d73d 4ffc 25bd
00000340: d89e 5e3d fc16 903d 4757 e43d f466 9c3c
00000350: 032b cb3d 00fe 9dbd a3bc 20bd 0c87 c5bd
00000360: 8613 54bb 10c7 49bb 259e 1e3d caf8 853d
00000370: 8cf3 213e 5e12 deba ade6 273d 9fc6 053e
00000380: 80ae 143e 3b4d 193d 869b 0e3c de54 f13d
00000390: b790 6e3c 7e50 f0bd 88b1 b8bc a59c 723d
000003a0: 4864 1f3e c006 b23d cb28 f33c e1e3 b03d
000003b0: 127d 673d b37b 57bd 76ee 113d a2c1 6fbd
000003c0: 8f01 053e d08c c43d 0efb dfbb 9388 9f3d
000003d0: 226a 283d c810 f2bc b3cd ca3c 029e 4b3d
000003e0: cfa6 aa3d 5c42 243e 869b d9bd 44a0 dc3d
000003f0: 3c6b 85bc 711e bc3c ec79 bb3c 33f2 c03c

placing_layer.0.bias f4 [5]
-0.045208856 -0.024982268 -0.046429038 -0.02221095 0.018748987
00000000: ec2c 39bd 9da7 ccbc 602c 3ebd bdf3 b5bc
00000010: 7a97 993c

placing_layer.1.weight f4 [5, 64]
0.08902231 0.045770586 -0.0038615763 0.002758056 -0.11597192 -0.088306546 0.11316973 -0.006910354
-0.08767615 -0.059401855 -0.06763156 -0.030769572 -0.07183567 0.09129578 -0.12434727 0.05818063
-0.018457875 -0.1164168 0.0775318 0.03538136 -0.1097627 0.02079694 -0.11841063 0.0790945
0.050531134 -0.013583899 0.07750866 0.0793345 0.01423119 -0.051718816 0.094273254 -0.12466748
-0.08883093 -0.059245333 -0.05299069 0.07922085 -0.12111972 -0.1044627 -0.093742296 0.055618316
0.019004345 -0.06755063 -0.03657888 -0.07436076 -0.11025001 -0.07200992 -0.056776628 -0.08983053
0.09935132 -0.06983319 -0.058132157 -0.08294779 0.053112373 -0.085516274 -0.019458547 0.06610976
-0.008796766 -0.03139195 -0.06356543 -0.045281485 0.09503429 -0.039575875 0.06691034 -0.094445065
0.09607254 0.11659627 0.044688128 0.010836363 0.049315915 -0.025409222 0.11226701 -0.120397545
0.06828352 -0.11844884 0.01370123 -0.07606742 -0.010668948 -0.08578225 -0.09010577 -0.08199082
-0.113289855 -0.12332348 -0.10359796 0.026806716 0.026088541 0.06394237 0.016647909 -0.12741357
-0.124883875 -0.0409014 -0.12255507 -0.049644336 -0.11451773 -0.074170694 -0.017322803 -0.10261395
0.071239956 0.11152669 0.043409184 -0.02674535 -0.09716042 0.014574503 -0.051944003 -0.054538727
0.019373639 -0.0844299 0.106504634 0.11731647 0.11053604 -0.057372417 0.11368638 0.09644818
0.09886782 0.012899384 0.06573186 -0.097093776 -0.07354924 0.077809006 -0.0030964906 -0.088834874
-0.075308554 0.05905297 -0.111211196 0.083173856 0.08104415 0.085894145 -0.026869386 0.0033293962
-0.02979949 -0.009890957 0.07257908 -0.020424664 0.06432181 0.0721427 0.010301296 -0.11025103
-0.034938373 -0.004608935 0.05380762 0.039172415 -0.08172549 0.058640357 -0.1312493 -0.009091532
0.028912155 -0.054178514 -0.014146762 -0.03917599 -0.08596259 -0.108977556 -0.11293106 0.042201143
-0.059084576 -0.12062078 0.086130105 0.029796321 0.011341401 -0.03874836 0.07088324 0.11133689
0.06643928 0.05630355 -0.100942165 -0.12005299 -0.08148243 -0.03449578 -0.018864283 0.09220868
-0.10583784 -0.06275688 -0.12601525 -0.12066877 0.08412142 -0.090571076 -0.09709294 -0.0359325
-0.13040173 -0.039509874 -0.0054447018 0.10356942 -0.117012024 -0.019583851 -0.008501144 -0.0943822
0.090809956 -0.1289475 0.11747907 0.03833511 -0.11180298 0.049815238 -0.12277264 0.08183596
-0.06208837 0.052940294 -0.09906392 0.08133057 -0.11837849 0.05072911 0.0038482845 -0.072632834
0.04411578 0.08838552 0.09615347 -0.029093206 -0.056117877 0.08888571 -0.11546868 -0.05771996
-0.05622384 0.05618505 -0.0051762164 -0.02522102 0.00038719177 0.121713474 -0.1034666 -0.060458124
0.011917666 -0.015174016 -0.08816162 0.059524283 0.07859072 -0.049971685 0.10453288 -0.121466696
-0.00096841156 -0.013191998 -0.04114981 0.049646273 -0.11252464 -0.06570394 0.036321938 -0.07296498
0.065180436 -0.11948991 0.06513785 0.04659362 0.07076916 -0.073146015 -0.117834166 0.088169396
-0.10704255 -0.036785096 -0.04847935 -0.107784376 0.08656727 -0.12218997 0.05756274 -0.01903218
0.06537628 -0.12072547 -0.07581711 -0.087063774 -0.043791488 -0.054298297 0.0993966 0.06832592
00000000: 5451 b63d f079 3b3d 8012 7dbb 80c0 343b
00000010: b082 edbd 10da b4bd 88c5 e73d 4070 e2bb
00000020: 8e8f b3bd 5c4f 73bd 6a82 8abd 7810 fcbc
00000030: 941e 93bd 48f9 ba3d c8a9 febd d04e 6e3d
00000040: f834 97bc ee6b eebd fec8 9e3d 0cec 103d
00000050: 44cb e0bd 585e aa3c 4681 f2bd 4cfc a13d
00000060: bcf9 4e3d 008f 5ebc dcbc 9e3d 207a a23d
00000070: f029 693c 1cd7 53bd 5612 c13d aa51 ffbd
00000080: feec b5bd 3cab 72bd c40c 59bd 8a3e a23d
00000090: 9e0d f8bd 8af0 d5bd f6fb bfbd 08d0 633d
000000a0: 00af 9b3c fc57 8abd bcd3 15bd 744a 98bd
000000b0: c2ca e1bd f079 93bd 9c8e 68bd 12f9 b7bd
000000c0: b478 cb3d b404 8fbd fc1b 6ebd 88e0 a9bd
000000d0: 5c8c 593d 2823 afbd 8867 9fbc 8e64 873d
000000e0: 5020 10bc d894 00bd 982e 82bd 1479 39bd
000000f0: 56a1 c23d 501a 22bd 4a08 893d 6a6c c1bd
00000100: aec1 c43d 06ca ee3d e60a 373d 008b 313c
00000110: 7cff 493d 0027 d0bc 3fec e53d fd92 f6bd
00000120: 3bd8 8b3d 4e95 f2bd 207b 603c 3cc9 9bbd
00000130: d0cc 2ebc 9bae afbd 6089 b8bd ceea a7bd
00000140: 8304 e8bd 0591 fcbd 2b2b d4bd c299 db3c
00000150: a3b7 d53c 38f4 823d 3261 883c b478 02be
00000160: 1ec3 ffbd 3a88 27bd 27fe fabd dc57 4bbd
00000170: 4688 eabd cee6 97bd 8de8 8dbc 4327 d2bd
00000180: 41e6 913d 1b68 e43d d4cd 313d 1019 dbbc
00000190: 0bfc c6bd e5c9 6e3c 3cc3 54bd 0064 5fbd
000001a0: 77b5 9e3c 95e9 acbd 1a1f da3d 9e43 f03d
000001b0: b860 e23d 57ff 6abd 68d4 e83d a086 c53d
000001c0: 367b ca3d f057 533c 6d9e 863d 1ad9 c6bd
000001d0: fca0 96bd 545a 9f3d 7eee 4abb 0fef b5bd
000001e0: 5f3b 9abd 87e1 713d b2c2 e3bd 0e57 aa3d
000001f0: 7afa a53d 45e9 af3d 301d dcbc 0032 5a3b
00000200: 0f1e f4bc ae0d 22bc 57a4 943d a051 a7bc
00000210: 27bb 833d 8dbf 933d c4c6 283c 4bcb e1bd
00000220: 8a1b 0fbd 8d06 97bb 6165 5c3d 4173 203d
00000230: b25f a7bd df30 703d 3766 06be a6f4 14bc
00000240: 2fd9 ec3c 4aea 5dbd d2c7 67bc 0177 20bd
00000250: 280d b0bd a02f dfbd 6648 e7bd 1bdb 2c3d
00000260: ab02 72bd 0708 f7bd fb64 b03d 6a17 f43c
00000270: 49d1 393c 9ab6 1ebd 3b2b 913d 9804 e43d
00000280: 5111 883d 8d9e 663d c4ba cebd 58de f5bd
00000290: 43e0 a6bd 724b 0dbd 4589 9abc e8d7 bc3d
000002a0: 82c1 d8bd ae86 80bd 240a 01be 3021 f7bd
000002b0: da47 ac3d 547d b9bd aad8 c6bd f52d 13bd
000002c0: 0888 05be 1bd5 21bd 7869 b2bb 341c d43d
000002d0: 00a4 efbd 506e a0bc 6248 0bbc 744b c1bd
000002e0: 92fa b93d d00a 04be de98 f03d 4705 1d3d
000002f0: f6f8 e4bd 100b 4c3d 3970 fbbd 9d99 a73d
00000300: 6050 7ebd ecd7 583d 06e2 cabd a490 a63d
00000310: 6c70 f2bd 54c9 4f3d 8033 7c3b 86c0 94bd
00000320: c0b2 343d 7803 b53d 1cec c43d e054 eebc
00000330: dcdb 65bd b609 b63d d87a ecbd c46b 6cbd
00000340: f84a 66bd 4c22 663d 409d a9bb 509c cebc
00000350: 0000 cb39 ea44 f93d 4ce6 d3bd f0a2 77bd
00000360: 5042 433c 709c 78bc 148e b4bd bccf 733d
00000370: 2cf4 a03d 1caf 4cbd 5615 d63d 88c3 f8bd
00000380: 00dd 7dba 4023 58bc b48c 28bd e459 4b3d
00000390: 5273 e6bd ca8f 86bd 50c6 143d aa6e 95bd
000003a0: 527d 853d 20b7 f4bd fe66 853d f4d8 3e3d
000003b0: 6cef 903d 94cd 95bd 0a53 f1bd 2892 b43d
000003c0: 2039 dbbd f8ab 16bd 4892 46bd 0ebe dcbd
000003d0: 2e4a b13d bc3e fabd e8c6 6b3d 60e9 9bbc
000003e0: 00e4 853d ea3e f7bd 0046 9bbd 7e4e b2bd
000003f0: b45e 33bd e467 5ebd 7290 cb3d 76ee 8b3d

placing_layer.1.bias f4 [5]
-0.006770402 -0.011581332 0.04696991 -0.1125927 -0.123485655
00000000: 40da ddbb a1bf 3dbc 8563 403d 0097 e6bd
00000010: 0ce6 fcbd

placing_layer.2.weight f4 [5, 64]
0.09089397 0.05813779 -0.05495225 -0.04277177 0.037252113 -0.052630395 0.0894137 0.017841965
0.05067475 0.08806442 -0.011583105 0.124996334 -0.023888767 -0.10591243 0.11522417 -0.037970454
-0.016965464 0.113670066 -0.0116755515 -0.1147597 -0.05530475 0.043702558 -0.05197084 0.04286611
-0.056418315 -0.09028378 -0.062039956 -0.07113296 -0.05514285 -0.03290738 0.056041986 0.026243329
-0.074372634 0.04671797 -0.0496836 -0.09358503 -0.07610305 -0.10854752 0.05670671 -0.09620169
-0.06639625 0.037542433 -0.064498305 -0.0628933 -0.10405032 0.050695315 -0.07293782 0.108066216
-0.012160495 0.05420521 -0.05334209 -0.09396656 0.07142998 -0.03856586 0.12131435 0.08124541
0.032655418 -0.024944708 -0.06490818 0.020765439 0.10397138 -0.09524663 0.11528878 -0.011452779
0.06715477 -0.027372917 -0.04890961 -0.031336613 0.07036719 0.08192093 0.09501309 -0.12509663
-0.13232602 0.012122899 -0.09831199 0.038437136 0.04591346 0.080187045 0.029257134 0.050456688
-0.10951062 0.09121272 0.0098591065 -0.05024811 0.018387444 0.0418446 -0.09968703 0.03969698
-0.07063953 -0.0734505 0.0661734 0.09074908 0.01184216 0.0051241447 0.015345979 -0.08024671
0.02783957 0.02474224 0.014347339 0.070827134 -0.13677567 -0.038755 0.033872843 -0.076950274
-0.07982407 -0.121892236 0.038787547 0.08978512 0.041640367 0.04881521 -0.062298525 0.09146907
-0.12321626 -0.010405767 0.029211663 0.10909267 0.046862055 0.06014572 0.051732507 -0.12755208
-0.09451993 0.051191773 0.11882348 -0.042209506 0.08307024 0.09169379 0.04390595 -0.0911721
0.063664064 -0.008024309 -0.07444082 -0.11033657 0.02112101 0.09879959 -0.09915942 -0.09206427
0.068026274 0.091812775 -0.07318658 -0.005959455 -0.122329436 -0.051701885 0.091293536 0.00032757575
0.058092333 0.029868208 -0.031159045 0.014316674 0.0205738 -0.13616784 0.01159142 0.08148063
-0.060675483 0.02448089 -0.11242864 0.021161392 -0.12705941 -0.10711514 -0.00012768038 0.05982596
0.0021241612 -0.11433141 -0.13456921 0.054361552 0.008636012 0.0015336869 -0.13951418 0.016617995
0.057143353 0.05837993 -0.004414969 -0.11214596 0.064365834 0.057165843 -0.056461055 0.010846772
-0.12761655 0.085899524 0.022150517 -0.105129585 -0.01930371 0.09296101 0.004564947 0.0030837737
0.024175545 0.01992035 -0.092847906 0.009123382 -0.12554729 -0.03493844 -0.11363851 -0.068950154
0.18396528 0.082825124 0.16605803 0.16736005 0.1078154 0.14983693 0.04837948 -0.015940316
0.06645395 -0.05640491 0.070351586 0.058819663 -0.015604249 0.08406668 0.14113073 0.024510527
0.11190402 0.043122623 0.13095859 0.13180706 -0.05275795 -0.024734538 -0.03025371 0.05500553
0.16655147 0.02790133 -0.053357508 0.14471601 0.030055678 0.035012398 0.103428364 0.08315515
0.12579665 -0.06619187 0.124239884 -0.066684835 0.08172123 0.07044114 0.03703709 0.10282162
0.042756155 0.081195064 0.070634454 0.12304744 -0.062254403 0.168837 -0.032920334 -0.016071234
0.07791905 -0.009167788 0.077482715 -0.011526973 0.015313779 -0.119274914 0.063577384 -0.030057097
-0.011339634 0.1741121 -0.072760224 0.098962575 0.18874845 0.16689666 0.1722209 -0.030156836
00000000: 9e26 ba3d e421 6e3d 9c15 61bd 7431 2fbd
00000010: ac95 183d f892 57bd 881e b73d 5029 923c
00000020: 5490 4f3d 1e5b b43d 10c7 3dbc 14fe ff3d
00000030: 60b2 c3bc 9ee8 d8bd a6fa eb3d e886 1bbd
00000040: 28fb 8abc dacb e83d d04a 3fbc 2207 ebbd
00000050: 3c87 62bd 7401 333d 60df 54bd 6094 2f3d
00000060: e416 67bd b4e6 b8bd 9c1d 7ebd 28ae 91bd
00000070: 78dd 61bd e4c9 06bd 488c 653d 40fc d63c
00000080: ae50 98bd 585b 3f3d 0881 4bbd 82a9 bfbd
00000090: eadb 9bbd 2a4e debd 4c45 683d 6405 c5bd
000000a0: c2fa 87bd 18c6 193d b017 84bd 34ce 80bd
000000b0: 5618 d5bd e4a5 4f3d 6c60 95bd d251 dd3d
000000c0: d03c 47bc 4806 5e3d 3c7d 5abd 8a71 c0bd
000000d0: e249 923d 3cf7 1dbd a873 f83d fe63 a63d
000000e0: b0c1 053d d858 ccbc 94ee 84bd 481c aa3c
000000f0: f2ee d43d aa10 c3bd 861c ec3d 70a4 3bbc
00000100: 7188 893d 2b3d e0bc 7155 48bd d25a 00bd
00000110: ac1c 903d 29c6 a73d 3996 c23d 5519 00be
00000120: 7980 07be 209f 463c cc57 c9bd 4270 1d3d
00000130: c10f 3c3d 1b39 a43d a8ac ef3c acab 4e3d
00000140: 1b47 e0bd bccd ba3d 1788 213c f6d0 4dbd
00000150: 44a1 963c 3e65 2b3d b728 ccbd 4d99 223d
00000160: 75ab 90bd 376d 96bd eb85 873d a7da b93d
00000170: 9e05 423c 71e8 a73b b36d 7b3c 6358 a4bd
00000180: cf0f e43c 3db0 ca3c 1a11 6b3c d10d 913d
00000190: ec0e 0cbe 90bd 1ebd 40be 0a3d 1b98 9dbd
000001a0: cd7a a3bd a3a2 f9bd b1df 1e3d 43e1 b73d
000001b0: 178f 2a3d 75f2 473d bd2c 7fbd 2354 bb3d
000001c0: ce58 fcbd f37c 2abc 4c4d ef3c fa6b df3d
000001d0: 6df2 3f3d 5c5b 763d 77e5 533d 039d 02be
000001e0: aa93 c1bd 77ae 513d ba59 f33d e0e3 2cbd
000001f0: bb20 aa3d f4c9 bb3d bad6 333d 70b8 babd
00000200: 4e62 823d 6478 03bc 6e74 98bd 24f8 e1bd
00000210: f805 ad3c 7057 ca3d 1814 cbbd 318c bcbd
00000220: 5c51 8b3d 5608 bc3d d8e2 95bd 8847 c3bb
00000230: db87 fabd 5bc5 53bd 1bf8 ba3d 79be ab39
00000240: 3af2 6d3d 2cae f43c 4141 ffbc 7c90 6a3c
00000250: 638a a83c 956f 0bbe f0e9 3d3c 51df a63d
00000260: db86 78bd 268c c83c fd40 e6bd a85a ad3c
00000270: dd1b 02be 2f5f dbbd f1e1 05b9 110c 753d
00000280: 8335 0b3b 9626 eabd 83cc 09be 38aa 5e3d
00000290: 0f7e 0d3c fe05 c93a cedc 0ebe 7622 883c
000002a0: 260f 6a3d cb1f 6f3d 72ab 90bb c8ac e5bd
000002b0: 3cd2 833d bb26 6a3d b543 67bd a9b6 313c
000002c0: eaad 02be 17ec af3d 0075 b53c 2e4e d7bd
000002d0: d022 9ebc 5862 be3d 8d95 953b 2319 4a3b
000002e0: cb0b c63c 0030 a33c 0b27 bebd 3d7a 153c
000002f0: 788f 00be 9c1b 0fbd 4fbb e8bd bd35 8dbd
00000300: 6561 3c3e 38a0 a93d 1e0b 2a3e 6f60 2b3e
00000310: 52ce dc3d da6e 193e 9029 463d 4495 82bc
00000320: 0219 883d d608 67bd 7e14 903d e3ec 703d
00000330: f7a8 7fbc 272b ac3d 9384 103e 4dca c83c
00000340: ef2d e53d 59a1 303d 021a 063e 6ef8 063e
00000350: b818 58bd 16a0 cabc a1d6 f7bc 7b4d 613d
00000360: 788c 2a3e 5491 e43c 678d 5abd 6f30 143e
00000370: 5337 f63c 2969 0f3d 40d2 d33d 3f4d aa3d
00000380: d6d0 003e 9a8f 87bd 7b71 fe3d 0f92 88bd
00000390: 765d a73d 7243 903d 34b4 173d 2494 d23d
000003a0: 1421 2f3d 9949 a63d cca8 903d 4c00 fc3d
000003b0: 79fe 7ebd 9be3 2c3e 79d7 06bd d2a7 83bc
000003c0: 0694 9f3d 7d34 16bc 42af 9e3d a1db 3cbc
000003d0: a5e6 7a3c 6846 f4bd dc34 823d 4d3a f6bc
000003e0: dfc9 39bc 714a 323e 5003 95bd e4ac ca3d
000003f0: 4647 413e f5e6 2a3e ad5a 303e 780b f7bc

placing_layer.2.bias f4 [5]
-0.119104356 -0.09020665 0.01756327 -0.0061746845 0.05481299
00000000: fcec f3bd 44be b8bd d9e0 8f3c 0255 cabb
00000010: 9683 603d

placing_layer.3.weight f4 [5, 64]
0.0338786 -0.030650532 0.0272386 0.039673522 -0.0064818696 0.08728083 0.17566735 0.13077796
-0.06371141 0.102631554 -0.014858893 -0.022354338 0.059223145 -0.05812013 -0.035265975 -0.024263589
-0.0008397908 0.061378017 -0.002833989 0.0012705863 0.11225262 -0.056965247 0.10077047 0.106342345
-0.044638596 0.1371437 -0.0019480159 0.1039765 0.12334513 0.13297747 0.047464564 0.14091612
0.097441316 0.09621387 0.08294086 0.07501684 0.1345606 -0.06752444 0.18963052 0.09952691
0.026249304 0.044405185 0.08847376 0.0915991 0.048045274 0.050394025 -0.022035519 0.104811564
-0.052223574 0.124174915 0.02899961 -0.036443796 0.12992665 -0.101003066 -0.045309994 0.14262961
0.11578038 0.13626948 -0.013837789 -0.0026119088 -0.01644144 0.01008686 -0.042407554 0.16322356
0.0018941909 -0.00041554868 0.035133243 0.019441187 -0.040591434 -0.047740117 -0.12024681 -0.043457434
-0.029717237 -0.007992119 -0.0025362372 0.041528925 -0.12142077 -0.115914255 -0.07723054 0.042264998
0.08430295 -0.105083734 -0.056252763 -0.024399817 -0.043227702 0.003477797 -0.04261349 -0.064522326
0.018109217 -0.033606544 0.103802666 0.07792412 -0.036543995 -0.07703021 0.10664104 0.0203747
-0.050724253 0.047373608 -0.00043825805 0.07139251 0.019342646 0.11473459 0.047501907 -0.048600465
-0.020410776 0.071627125 -0.07573454 -0.06517267 -0.04272844 0.1057581 0.026149064 0.038140833
-0.089148685 -0.11720626 -0.06761606 -0.062874585 0.09018327 0.021441981 0.10382961 -0.07321082
-0.014170185 -0.0673081 0.05453162 -0.07423644 0.046838805 0.039282605 -0.108759 -0.024596363
0.0031180282 0.110924445 -0.14332446 -0.0914639 0.101223245 -0.12005431 -0.054749195 0.05866502
0.053016465 0.014757466 0.03354632 -0.05624062 -0.07844981 -0.01634783 -0.1364837 0.07378146
0.036598653 0.07890564 -0.07565822 -0.086176045 -0.010209146 -0.120382324 0.061258454 0.011922546
0.027775351 -0.10175189 0.045600817 -0.1124668 -0.1180742 -0.0949198 0.025333995 -0.045216262
0.033925958 0.0044986783 -0.03389323 0.011099278 -0.07884973 -0.02902114 0.0697687 0.105216004
0.032733906 -0.03383041 -0.10227404 -0.0119165955 -0.13868883 0.06883488 -0.025722116 0.010246009
-0.042033397 0.02829861 0.045554075 -0.04994168 0.080941945 -0.10149844 0.04274461 0.057749577
0.059186142 0.053242102 -0.109421894 -0.031354498 0.050586175 0.05191721 -0.13902335 -0.043457206
0.06532913 0.045926146 0.023578145 -0.06699718 0.061987534 0.14656517 0.08044364 0.123108275
-0.053349376 -0.11648609 -0.05677319 0.013584226 -0.08930902 0.16810241 0.07050453 0.08603839
0.011120294 0.19057183 -0.00063410087 -0.0004919474 0.11553439 0.043761697 0.017248366 -0.10601835
0.1342144 -0.0013410593 0.1438846 -0.088117145 0.09371161 0.14118102 0.15724523 -0.0725676
-0.018056385 0.11892691 0.014128191 0.051031407 0.05951847 -0.037888747 0.09240498 -0.014272576
0.12505886 -0.06963806 0.15703534 0.009435676 0.00811373 0.17610356 0.07470225 0.10362128
0.12645732 0.090080634 0.1120392 0.016802475 0.007661472 -0.04185478 0.014944369 0.14892057
-0.098738335 -0.032878015 -0.015791181 0.08029492 0.115973376 0.0550582 0.041555967 -0.07905489
00000000: 49c4 0a3d d316 fbbc 7c23 df3c b480 223d
00000010: dd65 d4bb 4bc0 b23d 24e2 333e a8ea 053e
00000020: 217b 82bd 7e30 d23d b772 73bc 7220 b7bc
00000030: f893 723d 600f 6ebd 0e73 10bd 6fc4 c6bc
00000040: 6825 5cba 8467 7b3d 72ba 39bb cd89 a63a
00000050: b4e4 e53d 6454 69bd c060 ce3d 04ca d93d
00000060: f6d6 36bd 666f 0c3e 9154 ffba a2f1 d43d
00000070: 5f9c fc3d 3f2b 083e 346a 423d 514c 103e
00000080: 508f c73d c70b c53d e6dc a93d 6ea2 993d
00000090: 41ca 093e 414a 8abd 812e 423e c4d4 cb3d
000000a0: c808 d73c 36e2 353d bb31 b53d 4f98 bb3d
000000b0: 1fcb 443d f769 4e3d d583 b4bc 72a7 d63d
000000c0: 63e8 55bd 6b4f fe3d 9790 ed3c 1746 15bd
000000d0: 7e0b 053e b2da cebd f996 39bd 7f0d 123e
000000e0: 441e ed3d 3a8a 0b3e e5b7 62bc 8f2c 2bbb
000000f0: 33b0 86bc 5b43 253c 8bb3 2dbd 1424 273e
00000100: 8046 f83a 00de d9b9 e0e7 0f3d 2043 9f3c
00000110: 3443 26bd 248b 43bd f643 f6bd 6c00 32bd
00000120: 9071 f3bc 60f1 02bc 0037 26bb 3c1a 2a3d
00000130: 74ab f8bd 7464 edbd 0c2b 9ebd 101e 2d3d
00000140: 06a7 ac3d 2436 d7bd 4c69 66bd 20e2 c7bc
00000150: 880f 31bd c0eb 633b 7c8b 2ebd 4824 84bd
00000160: c859 943c 04a7 09bd 7e96 d43d ae96 9f3d
00000170: 28af 15bd 04c2 9dbd 9e66 da3d d8e8 a63c
00000180: 3cc4 4fbd d40a 423d 00c6 e5b9 3c36 923d
00000190: 7874 9e3c f8f9 ea3d 5c91 423d 4811 47bd
000001a0: 8034 a7bc 3eb1 923d b61a 9bbd 4079 85bd
000001b0: 0404 2fbd b497 d83d 9036 d63c 9039 1c3d
000001c0: 9693 b6bd d609 f0bd 4a7a 8abd 64c4 80bd
000001d0: 02b2 b83d 18a7 af3c 9ea4 d43d 8eef 95bd
000001e0: 102a 68bc d4d8 89bd 8c5c 5f3d 4609 98bd
000001f0: 0cda 3f3d cce6 203d 0abd debd 507e c9bc
00000200: d557 4c3b 5b2c e33d a6c3 12be 6d51 bbbd
00000210: 224e cf3d 09df f5bd b140 60bd bb4a 703d
00000220: cb27 593d 4cc9 713c de67 093d 905c 66bd
00000230: 4baa a0bd e2eb 85bc 62c2 0bbe bc1a 973d
00000240: 78e8 153d 4899 a13d b2f2 9abd 117d b0bd
00000250: 4344 27bc 028b f6bd 25ea 7a3d c856 433c
00000260: 2289 e33c 4b63 d0bd ecc7 3a3d fe54 e6bd
00000270: e3d0 f1bd 5065 c2bd 3d89 cf3c b034 39bd
00000280: f2f5 0a3d a669 933b a1d3 0abd bfd9 353c
00000290: f87b a1bd bebd edbc e4e2 8e3d 7d7b d73d
000002a0: fd13 063d c291 0abd 0d75 d1bd d33d 43bc
000002b0: 7204 0ebe 4df9 8c3d 30b7 d2bc e0de 273c
000002c0: 362b 2cbd 7dd2 e73c e996 3a3d a68f 4cbd
000002d0: e4c4 a53d 6ade cfbd f914 2f3d d28a 6c3d
000002e0: 2b6d 723d 6414 5a3d 9618 e0bd 936d 00bd
000002f0: 7333 4f3d 24a7 543d 235c 0ebe 2f00 32bd
00000300: 47cb 853d 0e1d 3c3d f426 c13c d135 89bd
00000310: a4e6 7d3d 2e15 163e a3bf a43d 3120 fc3d
00000320: e084 5abd 4290 eebd 018b 68bd 6090 5e3c
00000330: a6e7 b6bd 0a23 2c3e ae64 903d e534 b03d
00000340: e531 363c 4325 433e ca39 26ba 08f6 00ba
00000350: 4b9d ec3d 773f 333d 724c 8d3c 2620 d9bd
00000360: 806f 093e 7cc6 afba 7c56 133e c376 b4bd
00000370: dfeb bf3d c291 103e e504 213e 529e 94bd
00000380: fcea 93bc f48f f33d ee79 673c 4f06 513d
00000390: a4c9 733d 3b31 1bbd d23e bd3d 86d7 69bc
000003a0: 6e0f 003e 669e 8ebd dfcd 203e 1898 1a3c
000003b0: 73ef 043c 7e54 343e 7efd 983d 6537 d43d
000003c0: 077e 013e 327c b83d cf74 e53d 58a5 893c
000003d0: 160d fb3b eb6f 2bbd 3ad9 743c a27e 183e
000003e0: 5337 cabd 19ab 06bd 825c 81bc aa71 a43d
000003f0: 7383 ed3d b584 613d 9736 2a3d 88e7 a1bd

placing_layer.3.bias f4 [5]
0.17108561 -0.057699263 -0.065515146 0.115972936 -0.0769453
00000000: 1131 2f3e 1056 6cbd ce2c 86bd 3883 ed3d
00000010: 7f95 9dbd
