extra_baseline2/log_res/4exp_3/ddpg_agent_env-20250303-214524/ddpg_actor.pth (torch, 338131 bytes, 148 tensors)

fc.0.weight f4 [64, 785]
00000000: f0bd 43bb cfee fb3b 62f0 1cbd 91f6 efbb
00000010: 59ec 80bc 530b 183d 1b2f ac3b 0c48 653d
00000020: 2636 18bc 72f2 b239 4006 ee3a 0534 263b
00000030: 718a 8dbd 420e 93bc 48bb ecbb 3a5d bfba
00000040: ee71 a33c a07a fab9 b4d0 35bc 664f d3bc
00000050: 86a1 e1bb ae41 793c 1cc2 a43b 6a7f f03c
00000060: 3809 dcba b713 a53c 5363 653c 1a1c 12bd
00000070: 07f4 52bb 61a1 bbbc 4146 9abc 4cbc 633d
00000080: 9874 e9bc 9401 403c 8487 fdbc 0032 a1bc
00000090: 196b 93bc bea2 d73c 560a b93c a91d 423c
000000a0: d8fc 153a bacb f9bc 74de 043d 5315 3dbd
000000b0: 8585 f6bb 4144 00bd f647 cf3c ec44 ea3b
000000c0: 3a54 b9bc 5a8a 983a 0172 e13c 1290 153d
000000d0: 1bc4 453c c9a0 953c c07a 47bb 8646 8ebc
000000e0: 4443 4dbc 25e5 18bc 5edc 14bd 397d 8fbc
000000f0: b078 d43b 6353 c73c 2e17 26bd e334 a23c
00000100: d89c 763c 2239 c2b7 a1a3 883b c6ec 593c
00000110: 1e86 573d 7d60 8f3c 13d3 bfbc ff03 b1bc
00000120: acab f03c f835 4a3c 6172 3d3d 58b3 6d3d
00000130: 0908 c13a cffa 15bd 663a 80bb 8d40 bdbc
00000140: 7063 40bc a1ca e73c b8ac 853c 8a40 c2bc
00000150: fd74 043d db0d 813c 57c9 5039 d355 7fbc
00000160: 0b19 e93a 9929 23bd b45f 633a 5d02 a7bb
00000170: c3e5 943c 5873 993c 600c 5dbd 14a4 87bc
00000180: e80f 5d3c 0375 123d 61a2 c5bc b591 89bc
00000190: 837f 343d 92bb 483d b93a 90bc 89ef b5bb
000001a0: 7a3f 23bd 3017 2fbb efcb 03bc f082 1cbd
000001b0: c081 3a3c 73c2 a23c 5ba1 73bc f26c c43c
000001c0: 0f8e cfba f526 3e3d 40d4 823c 390f abbc
000001d0: 3629 50bb 250e bcbb 4eb5 99bb 5481 a23c
000001e0: 1835 3f3c c60e b03c 58f4 bdbc 49c1 293c
000001f0: a73d 37bb edda 5abb e825 0f39 c569 a0bc
00000200: 5be0 ce3b 4a6f e4bc 4c85 01bc aa67 98bb
00000210: e81e a0bc 33c0 803c 7c24 b13c 561c 93bc
00000220: 682a febb e4a5 9c3b c74f 173c 7a2e 1c3d
00000230: 811a 5c3d 5c32 393c 3979 2a3d f8fe 8d3c
00000240: 3af9 aebc 0208 3dbc 4864 053d 3c54 113b
00000250: 6dcb a43a c601 8dbc f46d 1fbd 149c f4bc
00000260: d3fb 43bc e5c9 033c 6486 ec3c b609 22bd
00000270: a9b9 d93c 0b52 08bd 47d9 613a d36e 6f3b
00000280: 3956 eabc c795 31bc 730a 74bd 7e9c b4bc
00000290: 15a4 483b a1a4 87bc 52dd 91bc b653 3bb9
000002a0: 26c9 edbc 10a9 97bc f22c 983b 3484 51bb
000002b0: 3c7e ab3c 0b3a 22bc 209d 41bd a281 ea3c
000002c0: 885d a93b 3cdf 943a 0f91 0f3d abae bdbc
000002d0: 7c3b c1bb 73fc 8bba 7e85 0a3d 178d 61ba
000002e0: 5be4 663c 8815 06bb 72d6 03bc d41a c0bc
000002f0: 4034 3abd bd12 373c be2d a63a 09e3 2a3d
00000300: 244f eabc af95 63bc 1b87 01bc 5ad5 d0bc
00000310: ec60 8fbc d98c 913c 4560 a6bc bdf4 c63b
00000320: 49ff b43c cd4c 193c edd9 3cbd d31a 96bc
00000330: 347a 47bc 9cce 133d 2a7a 26ba 38b6 da3c
00000340: 48e2 9d3c 63ac d13c 262e 77bc 70f1 093c
00000350: cca9 71bc 714b 9d3b 8ba3 0f3c 311f b6bc
00000360: 10c2 0bbc 96de 3abc 68c8 493d 0c1c ec39
00000370: d50e 353c 24cc 013c 4115 e13a 3784 903b
00000380: 2072 74bc 088d c03c a513 f6bc 96de 85bc
00000390: 80f4 0ebc 3628 4c3c 3ef5 0ebc 0d19 b83c
000003a0: 42d0 bdbb 42e9 463d 3704 ae3c 92e4 03bd
000003b0: 03d8 11bc 91ab 21bd 9f2f 5fbc 94b0 a739
000003c0: 1f4f 0f3d 95be 6b3c 2547 ebbb 0862 9d3c
000003d0: 7ce2 253d ae0f 12bd b7e9 1d3d ab29 0abd
000003e0: 9c87 f5ba feca afbc 7fa3 76bb 6b83 243c
000003f0: b2c9 0d3d 910b d63b 9f52 96bc 0c04 e1bc
-0.002986785 0.0076883803 -0.038315184 -0.007323094 -0.0157377 0.037120175 0.005254639 0.055976912
-0.009290254 0.00034131441 0.0018159822 0.0025360596 -0.06911171 -0.017951135 -0.007224474 -0.0014599927
0.019951787 -0.0004777508 -0.011097122 -0.025794696 -0.00688571 0.015213413 0.0050280225 0.02935763
-0.0016787415 0.020151002 0.0140007315 -0.03567133 -0.0032188909 -0.0229041 -0.018832328 0.055599496
-0.028497979 0.011719126 -0.030948408 -0.019677162 -0.017995404 0.026322719 0.022587936 0.011847892
0.00057215756 -0.030492652 0.03243871 -0.046162914 -0.007523241 -0.031315092 0.025302868 0.0071493294
-0.02262317 0.0011637912 0.027520182 0.03651435 0.012070681 0.018265145 -0.0030438155 -0.017367613
-0.012528244 -0.009331976 -0.03634297 -0.017515766 0.0064841136 0.024331754 -0.04054945 0.019800609
0.015052043 -2.3153207e-05 0.0041698967 0.01330108 0.05261814 0.017502064 -0.023416078 -0.02160835
0.029378735 0.012341969 0.04625166 0.058032364 0.0014727126 -0.036616143 -0.0039132116 -0.02310207
-0.011742458 0.028294863 0.01631771 -0.023712415 0.03233813 0.015753677 0.0001991143 -0.015584427
0.0017783953 -0.039834592 0.00086736237 -0.0050967173 0.018175965 0.018731758 -0.05396688 -0.01655773
0.013492562 0.035756122 -0.02412528 -0.016793111 0.044066917 0.049007006 -0.017606126 -0.0055522365
-0.039855458 -0.0026716702 -0.008044227 -0.03821081 0.011383474 0.019868111 -0.014870013 0.02397773
-0.0015835183 0.04642387 0.01597035 -0.020881282 -0.0031762845 -0.005738991 -0.0046908027 0.01983706
0.011670373 0.02149142 -0.023187801 0.010361024 -0.0027960332 -0.003339465 0.00013651664 -0.019581685
0.0063133663 -0.027885098 -0.007905316 -0.0046510296 -0.019545987 0.015716648 0.021623842 -0.017957848
-0.00775652 0.004780518 0.009235329 0.03813026 0.053736214 0.0113035105 0.041619513 0.017333493
-0.021359075 -0.011537554 0.03256634 0.0022175452 0.0012572833 -0.01721276 -0.03892322 -0.02985958
-0.011961895 0.008043741 0.028872676 -0.039560042 0.026577787 -0.033281367 0.00086154457 0.0036534562
-0.028605567 -0.010838932 -0.059580278 -0.022047278 0.0030615379 -0.016557993 -0.017805729 -0.00017864894
-0.02902658 -0.018513232 0.00464403 -0.0031969668 0.020934217 -0.009901534 -0.047268987 0.028626267
0.0051686205 0.0011358033 0.035050448 -0.023154577 -0.0058969837 -0.0010680094 0.033818714 -0.0008604093
0.01409253 -0.002045961 -0.008046733 -0.023450293 -0.045459986 0.011173901 0.0012678427 0.041720424
-0.02860219 -0.013890668 -0.007905747 -0.025492359 -0.01750227 0.017767357 -0.020309577 0.0060716555
0.022094386 0.00935669 -0.046106268 -0.018323338 -0.012175132 0.03608571 -0.00063506013 0.026698217
0.019272938 0.025594896 -0.015086686 0.00841938 -0.014749955 0.004800253 0.008767019 -0.02223167
-0.008530155 -0.011405608 0.049263388 0.00045034324 0.0110508995 0.007922206 0.0017172472 0.0044102925
-0.014919788 0.023504749 -0.030038664 -0.016341489 -0.0087252855 0.012460759 -0.0087254625 0.022472883
-0.0057926485 0.048562296 0.021242244 -0.032200404 -0.008901599 -0.03947026 -0.013622194 0.00031984283
0.034987565 0.0143887 -0.007180112 0.019211784 0.040499195 -0.035659485 0.038552966 -0.033731144
-0.0018732431 -0.021459099 -0.0037634072 0.010041098 0.03461618 0.0065321405 -0.018349944 -0.02746775

fc.0.bias f4 [64]
00000000: 1cfe 4ebc b16b 8ebb a791 8dbc 6b19 423c
00000010: f589 e03b 3796 4bbc 6a80 74bc 95d8 e73b
00000020: 764b 2bbc 0a3c a33c dd41 8a3a 5b90 983c
00000030: b68b edbc ffc0 cebc 0687 803c a9f0 c03c
00000040: 7e99 ae3c 19b6 e438 015b d33c e73f 33bc
00000050: ebcb fbbc 5c0f edbc 58d4 a13c 039e bebc
00000060: a0ed b63a 2667 803c 425a 34bc 4c80 c33c
00000070: fa2c ed3b 0925 be3b 756b 9e3b 3ce1 66bc
00000080: 9192 9c3b f2a6 c2bc 2e16 33bc b4b9 013d
00000090: e1c5 60bb f0b2 cc3c aae6 efbb 5b97 9a3c
000000a0: 3e56 59bb 379a a83c 58d3 1b3c bb46 8bbc
000000b0: 40c4 993c e2ad fbbc b894 6e3c ec61 04bd
000000c0: b43a ef3b a72f 9ebc e42d 463b 42eb f7bc
000000d0: b3fc 873a b1c0 35bc 2cbf 52bb e0ab 8abc
000000e0: 3aad 423b ad19 26ba fd35 00bd 136d 103d
000000f0: 7ed1 963c 6edb 65bc 2319 d23c 0f0c 41bc
-0.012633827 -0.004346334 -0.017281367 0.01184688 0.0068523833 -0.012425951 -0.014923194 0.007075379
-0.010455003 0.01992609 0.0010548193 0.018623522 -0.028997283 -0.025238512 0.015689384 0.023552256
0.021313425 0.000109058055 0.02580023 -0.0109405285 -0.030736884 -0.028937988 0.019754574 -0.023268705
0.0013956316 0.015674185 -0.011007847 0.023864888 0.0072380276 0.005802755 0.004834587 -0.014091786
0.0047782143 -0.023761246 -0.010930581 0.03167124 -0.0034297633 0.024987668 -0.0073211985 0.018871
-0.0033162977 0.020581348 0.0095108375 -0.0170015 0.018770337 -0.030722562 0.0145618245 -0.032319948
0.007300699 -0.019309832 0.0030239755 -0.030263547 0.0010374993 -0.0110933045 -0.0032157404 -0.01692766
0.0029705302 -0.00063362235 -0.031301487 0.03526027 0.01841044 -0.014029367 0.025646752 -0.01178266

fc.2.weight f4 [64]
00000000: 75d6 893f 1e13 8a3f 88dc 893f f851 8a3f
00000010: 0000 803f cdbf 8a3f 4d47 8a3f e4d9 893f
00000020: f48c 8a3f d2f3 893f 0000 803f 0000 803f
00000030: 0482 8a3f 0000 803f 54fd 893f 0000 803f
00000040: 0000 803f 0000 803f 0000 803f 3980 8a3f
00000050: cd34 8a3f d154 8a3f ff26 8a3f 0000 803f
00000060: 7c49 8a3f 0000 803f 0000 803f 0000 803f
00000070: 50d9 893f 0000 803f 9cbc 8a3f 903f 8a3f
00000080: b200 8a3f 682b 8a3f be16 8a3f 6f75 8a3f
00000090: ba54 8a3f 0000 803f 0000 803f 83e4 893f
000000a0: 0000 803f e59d 8a3f 526e 8a3f 56ec 7f3f
000000b0: 0000 803f 4879 8a3f 7af4 893f 0000 803f
000000c0: 0000 803f 0000 803f a059 8a3f f3a9 8a3f
000000d0: 570e 8a3f 0000 803f 0000 803f 0000 803f
000000e0: 0000 803f b018 8a3f 0000 803f 8ee4 7f3f
000000f0: 0000 803f 0000 803f ab16 8a3f bbe0 893f
1.0768572 1.0787084 1.0770426 1.0806265 1.0 1.0839783 1.0803009 1.076962
1.0824265 1.0777533 1.0 1.0 1.0820928 1.0 1.0780435 1.0
1.0 1.0 1.0 1.082038 1.0797364 1.0807134 1.0793151 1.0
1.0803676 1.0 1.0 1.0 1.0769444 1.0 1.0838809 1.0800648
1.0781462 1.0794497 1.078819 1.0817088 1.0807106 1.0 1.0 1.0772861
1.0 1.0829436 1.0814917 0.99969995 1.0 1.0818262 1.0777733 1.0
1.0 1.0 1.0808601 1.0833114 1.0785626 1.0 1.0 1.0
1.0 1.0788784 1.0 0.9995812 1.0 1.0 1.0788168 1.0771707

fc.2.bias f4 [64]
00000000: fa09 2f3d 202f 163d 07a3 963d 7de8 7fbd
00000010: 80d3 b03d 6fd4 0ebd 256f 99bd 996b 993d
00000020: dd82 a03d d980 9a3d a108 9c3d 0854 bcbd
00000030: 3734 94bd f951 b8bd 258b a9bd 9964 993d
00000040: f1e9 adbd d8d6 bd3d 8e0b ba3d 2363 463c
00000050: 54d7 8ebd eaf3 a2bd 8ab6 5bbd 4789 98bd
00000060: 9806 a1bd 45f7 a2bd 52e2 aebd a7c9 a33d
00000070: 02cc aabd c346 b33d ff79 2a3c e908 a4bd
00000080: d2f9 8ebd da6b abbd 18b0 9dbd 8ecb a83d
00000090: 2c30 acbd 157b a73d 22dc 9e3d 25ff 9d3d
000000a0: e4bf 9bbd 97ca 9bbd 8584 9e3d 4cd3 b7bd
000000b0: 21fc ad3d 0e52 923d 3b10 98bd e6c8 afbd
000000c0: c918 be3d 4937 c23d 9e7f 89bc c5c8 b03d
000000d0: 36c7 8f3d e6a6 bebd df54 a4bd 9808 b83d
000000e0: 3b23 b53d 08f7 873d e18f b9bd a590 b0bd
000000f0: fe5c 9d3d 1249 bcbd bab2 803c 3653 5bbc
0.042734124 0.036666036 0.07355314 -0.062477577 0.086340904 -0.03487056 -0.07491902 0.07491226
0.0783746 0.07544107 0.07618833 -0.09195715 -0.07236522 -0.0900001 -0.08278493 0.074898906
-0.084918864 0.09269494 0.09084235 0.012108597 -0.06974664 -0.07956679 -0.05364088 -0.074480586
-0.07862586 -0.07957319 -0.08539261 0.079974465 -0.08339693 0.08753731 0.010405063 -0.08009512
-0.06981243 -0.083701804 -0.07699603 0.0824195 -0.084076256 0.08177773 0.07756831 0.077146806
-0.076049596 -0.07607 0.0774012 -0.089758486 0.084953554 0.07144557 -0.07424971 -0.0858324
0.09282071 0.09483201 -0.016784485 0.08632044 0.07020418 -0.09309177 -0.080240004 0.08986014
0.0884461 0.06638914 -0.09060646 -0.08621339 0.076837525 -0.091936246 0.015710223 -0.013386538

fc.2.running_mean f4 [64]
00000000: a15f 5c47 202e 8746 bab3 dd45 57d2 a244
00000010: 0000 0000 becc f144 617d 7546 1411 b944
00000020: f397 d345 28da 0446 0000 0000 0000 0000
00000030: b842 d045 0000 0000 c393 5a46 0000 0000
00000040: 0000 0000 0000 0000 0000 0000 ff11 f445
00000050: 3653 9346 c2df 8744 47c6 2746 0000 0000
00000060: 32b8 ba46 0000 0000 0000 0000 0000 0000
00000070: 4a27 c445 0000 0000 a7ed a444 4b8d ae45
00000080: 9e69 b746 b912 7946 2985 bd44 7d87 0e47
00000090: b71e d946 0000 0000 0000 0000 6cae 1e46
000000a0: 0000 0000 cbfe 2846 8109 0147 447d f103
000000b0: 0000 0000 2f5d af44 cf30 1447 0000 0000
000000c0: 0000 0000 0000 0000 1e4e 0e47 adf3 0747
000000d0: 356e 6446 0000 0000 0000 0000 0000 0000
000000e0: 0000 0000 1956 af46 0000 0000 a406 6305
000000f0: 0000 0000 0000 0000 f48f 6d46 7b5b 5b46
56415.63 17303.062 7094.466 1302.5731 0.0 1934.3982 15711.345 1480.5337
6770.9937 8502.539 0.0 0.0 6664.34 0.0 13988.94 0.0
0.0 0.0 0.0 7810.2495 18857.605 1086.9924 10737.569 0.0
23900.098 0.0 0.0 0.0 6276.911 0.0 1319.4266 5585.6616
23476.809 15940.681 1516.1613 36487.49 27791.357 0.0 0.0 10155.605
0.0 10815.698 33033.504 1.41934665e-36 0.0 1402.912 37936.81 0.0
0.0 0.0 36430.117 34803.676 14619.552 0.0 0.0 0.0
0.0 22443.049 0.0 1.06747084e-35 0.0 0.0 15203.988 14038.87

fc.2.running_var f4 [64]
00000000: eb8b 2445 1206 9245 fd21 5b45 9537 2d45
00000010: 3104 1c04 cc7c 4f45 3e29 3245 1495 1445
00000020: 2b5b 6245 e120 5645 3104 1c04 3104 1c04
00000030: 55a0 0545 3104 1c04 cee0 9245 3104 1c04
00000040: 3104 1c04 3104 1c04 3104 1c04 5afb 3945
00000050: 542f 7d45 e191 1d45 2dfd 5f45 3104 1c04
00000060: 11e0 2f45 3104 1c04 3104 1c04 3104 1c04
00000070: 5867 3b45 3104 1c04 e0b9 2b45 c456 1145
00000080: 9ebb 2045 ff3e 5145 e8b3 3c45 c671 2545
00000090: 30b9 4545 3104 1c04 3104 1c04 4df9 5045
000000a0: 3104 1c04 c45e 4a45 2837 4945 afec 4106
000000b0: 3104 1c04 d72d 0b45 a79e 8745 3104 1c04
000000c0: 3104 1c04 3104 1c04 7fb6 4e45 83a4 1945
000000d0: ccb8 2f45 3104 1c04 3104 1c04 3104 1c04
000000e0: 3104 1c04 81a9 2e45 3104 1c04 f14b f107
000000f0: 3104 1c04 3104 1c04 7eab 6645 bc32 6e45
2632.7449 4672.759 3506.1243 2771.4739 1.8339636e-36 3319.7998 2850.5776 2377.3174
3621.698 3426.055 1.8339636e-36 1.8339636e-36 2138.0208 1.8339636e-36 4700.1006 1.8339636e-36
1.8339636e-36 1.8339636e-36 1.8339636e-36 2975.7095 4050.958 2521.1174 3583.8235 1.8339636e-36
2814.0042 1.8339636e-36 1.8339636e-36 1.8339636e-36 2998.459 1.8339636e-36 2747.6172 2325.4229
2571.726 3347.9373 3019.2441 2647.1108 3163.5742 1.8339636e-36 1.8339636e-36 3343.5813
1.8339636e-36 3237.9229 3219.4473 3.6473153e-35 1.8339636e-36 2226.865 4339.8315 1.8339636e-36
1.8339636e-36 1.8339636e-36 3307.406 2458.282 2811.5498 1.8339636e-36 1.8339636e-36 1.8339636e-36
1.8339636e-36 2794.594 1.8339636e-36 3.6306284e-34 1.8339636e-36 1.8339636e-36 3690.7183 3811.171

fc.3.weight f4 [64, 64]
00000000: 5953 313e c4ed cebd b227 d5bd 8dd6 223e
00000010: d086 4a3e 36a3 273e d50f 003e d25f 913c
00000020: 3cfd 26bd 3790 f23d 9f51 f7bc 1e4c 44be
00000030: ea4d 05be 62d8 43be 26a6 113e 9c55 6f3d
00000040: c6a1 62bd fd86 91bc b92b b63d 71e3 653c
00000050: 2b22 fbbd d83a a1bd 018a b93d e331 5cbd
00000060: 74a4 f7bd 50fd 893c bdbc bcbd 5393 713c
00000070: 7b34 aabd e3d1 ec3d c693 3dbe ad29 3b3e
00000080: b74d afbb c6e3 dcbd 5480 bcbd 4121 343e
00000090: 567d 743d 9d73 c5bc cdf9 2b3d aa49 173e
000000a0: 08dd 1abe c6ab 29bd 35aa fabd e9d2 c2bd
000000b0: 262a ef3d b2b1 c93d 2aa1 aebd a3c3 3fbe
000000c0: 7160 123e b247 4b3e 1a93 0f3e e121 87bd
000000d0: b679 fb3d 6d84 96bd 237d bbbb 0a6b f03c
000000e0: 019b 08bd adb2 21bd 9183 dcbd 2f55 8bbb
000000f0: 0a6a 723d b360 f5bd 4687 31be 9b04 5e3d
00000100: fb81 d2bd 8916 bbbd d32d 36be a288 d4bd
00000110: 354d 483e b78b debd 976b 193d ef02 22be
00000120: cd8b 543d 2aa4 3b3a c18a e7bb 6b33 cbbd
00000130: f705 f8bd 3efb 5ebd b2f1 1e3d 9c56 253e
00000140: 5628 08be e1f1 133e 5011 0cbc ee25 4c3c
00000150: bd75 153e 1c88 293e 4041 593d 6583 cfbd
00000160: 968c 393c f4ef 14be 6cad 0c3d 7f75 2c3e
00000170: ed5a 4e3e 023b 9ebb c558 3a3e ed10 33bd
00000180: f549 11be 33bc b73d b4e4 6e3c 560b b43d
00000190: 3106 1a3e 1dbe 1a3e d45b 063e c294 20be
000001a0: 02ba 55bc ba8e 3a3e 944b ecbc 3372 47be
000001b0: b8d1 493e f905 fdbd 5f44 023e db95 8ebd
000001c0: 3343 343e 0de8 ad3d 380f b63c ddbd 38be
000001d0: 035a 32be 9f30 99bd 5369 f7bd 9cdd 543d
000001e0: e3e0 453e f6d2 f23c ec8f a5bd d572 15be
000001f0: 7e7b 4d3e 6c55 adbd c3aa 953d fdd5 29bd
00000200: 8da4 dbbd 3cf8 a33d 2365 983d ae18 22be
00000210: e6ac f03c d63b 49be d98c 0ebd f5d9 bc3c
00000220: 405e dfbd 1c0f 483d d4f0 3ebd 3f07 24be
00000230: 2b98 2e3e 03eb 8fbd 6f73 37be 2f72 263e
00000240: 6664 0cbe 0f30 633c 620c 263e d279 7bbd
00000250: 979a 383e 181e a5bd 2e1b c6bd 668a e0bd
00000260: 78b1 293e 4bbb 233c b0d7 01bd 8cf6 023e
00000270: 3b3f 073e 55ea 0e3d 8b33 7e3d 0618 a3bd
00000280: f685 cbbb e1af 4c3e 982f 2e3e 3c42 1dbe
00000290: 6665 183e 3e98 713d 45ed 233e 69ae 0abe
000002a0: bb39 1d3d b71b e8bd 8f51 2e3e 506f 863c
000002b0: db3a ba3d 741b bcbd 7766 2b3d ff25 52be
000002c0: eaf5 d13d ac32 d93d 81d4 f4bd a549 c93d
000002d0: a8c2 7a3d d60e 4ebe ca6a b93c 6002 dd3d
000002e0: cfcf 0d3e a747 f33d ca6c b63c 0b0f e23b
000002f0: cd99 153e 4d47 dabd a3b9 4b3d da98 44be
00000300: 3267 2fbe 833c 94bd b926 423e b3fb 47be
00000310: 4b45 2f3e 3267 49be f425 3e3d e96a f63d
00000320: 1db5 06bd 266e 84bd 5dd5 6a3d 7d93 f83c
00000330: afcf 7a3d 9ef8 b2bd a003 29bd 239f 293e
00000340: b6d6 12be 2474 0d3e 0f74 943d eea2 09be
00000350: adb6 f33d 147f 0fbd 4df9 16be 68a4 35be
00000360: e77e 40bc d503 2bbe 6e69 173d e505 2c3e
00000370: 0845 4bbd 1ee6 3b3e 119f 5f3d 83e5 97bd
00000380: fae9 103e 3e26 343e f707 613d 6199 66bd
00000390: 398e c43d 108d 16bd ebd0 9c3d 18ed 32be
000003a0: c705 4d3c 8869 32be ab44 d33d 1b12 9a3c
000003b0: 7df9 393e 3bc1 37be b3f6 0d3d 7827 0ebc
000003c0: 6164 8ebc 1b0f a03d de50 03be 04b1 753d
000003d0: 800a 8a3c 6662 48bd 6a11 24bd 85a9 823d
000003e0: c672 91bc 4267 1c3e 82a1 be3c e9fb 353c
000003f0: fe45 2abd cbb3 ffbd 2e4b 023b 28c1 1bbe
0.17316951 -0.10103944 -0.10407962 0.15902157 0.1977799 0.16370854 0.1250604 0.017745886
-0.040768847 0.11843913 -0.030190287 -0.19169661 -0.13018003 -0.19125512 0.14223537 0.058431253
-0.05533006 -0.017764563 0.08895058 0.014031277 -0.122623764 -0.07872552 0.09059525 -0.053758513
-0.12091914 0.016844422 -0.092156865 0.0147445975 -0.08310791 0.1156347 -0.18513402 0.18277617
-0.0053498405 -0.10785632 -0.09204164 0.1759081 0.059689842 -0.02410298 0.041986275 0.14774194
-0.15123379 -0.04142358 -0.12239496 -0.09512884 0.11677961 0.09848346 -0.08526833 -0.18726973
0.14294602 0.19851568 0.14020959 -0.06598259 0.12279074 -0.07349477 -0.0057217046 0.029347915
-0.03335095 -0.03947704 -0.10767282 -0.004252098 0.059183158 -0.119813345 -0.17336759 0.05420361
-0.10278698 -0.091351576 -0.17790918 -0.10377623 0.19560702 -0.10866492 0.03745612 -0.15821432
0.051891137 0.0007157946 -0.0070661013 -0.099219166 -0.12110513 -0.054438822 0.038804717 0.1614632
-0.13296637 0.14447738 -0.0085490495 0.012460215 0.14595695 0.16555828 0.053040743 -0.101324834
0.011325022 -0.1454466 0.034345075 0.16841696 0.20151873 -0.0048288116 0.18197925 -0.043717314
-0.14188369 0.08971443 0.014580894 0.08791225 0.15041424 0.15111585 0.13120967 -0.15681747
-0.013044836 0.18218508 -0.028844632 -0.19477157 0.19708908 -0.12354655 0.12721394 -0.069621764
0.1760376 0.08491526 0.022224054 -0.18041177 -0.17417149 -0.07479977 -0.12080636 0.051969156
0.19324069 0.02964161 -0.080840915 -0.14594586 0.2006664 -0.084635586 0.07307961 -0.04146384
-0.10724745 0.08006331 0.07441165 -0.15829727 0.02937932 -0.19651732 -0.03480229 0.023053149
-0.10906649 0.048842534 -0.04661639 -0.16018389 0.17050235 -0.07027247 -0.17915128 0.16254495
-0.13710174 0.0138664385 0.16215661 -0.061395474 0.18027721 -0.080623806 -0.09673153 -0.109638974
0.16571605 0.009993385 -0.031699836 0.12789363 0.13207714 0.034891445 0.062060874 -0.079635665
-0.0062110377 0.19988967 0.17010343 -0.15357298 0.1488243 0.05898308 0.1600848 -0.13543095
0.038385134 -0.11333411 0.170233 0.0164105 0.09093257 -0.09184924 0.041845765 -0.20522307
0.102519825 0.10605368 -0.119545944 0.098285 0.061220795 -0.20122847 0.022633929 0.107914686
0.13848804 0.11878901 0.022268672 0.006898766 0.14609452 -0.10658131 0.049737584 -0.19198933
-0.1712921 -0.07238104 0.18960084 -0.1952961 0.17116277 -0.19668272 0.046422914 0.1203211
-0.032887567 -0.06466322 0.057332385 0.030343765 0.06123322 -0.08738826 -0.041263223 0.16564612
-0.14339718 0.13813835 0.07248699 -0.13441059 0.11900077 -0.0350333 -0.14743538 -0.17738497
-0.011749006 -0.1670068 0.03696578 0.16799124 -0.04962638 0.18349501 0.054595057 -0.07416823
0.14151755 0.17592713 0.054939236 -0.056298617 0.09597439 -0.03675562 0.076570354 -0.17473257
0.012513584 -0.1742307 0.10315832 0.018807461 0.18161578 -0.17944805 0.0346591 -0.008676402
-0.017381849 0.07815381 -0.12823817 0.05998327 0.01685071 -0.048921965 -0.04005567 0.063799895
-0.017754924 0.15273765 0.023270372 0.011107423 -0.041570656 -0.12485465 0.0019881236 -0.15210402

fc.3.bias f4 [64]
00000000: 6939 d03d df27 873d 5fe0 473d d2eb 5ebb
00000010: 4e3e 973c 1d8f 353e 0abb 01bc 4521 3cbd
00000020: e119 c23d 37cc 103e c099 0b3e 2c48 2a3e
00000030: 9167 ce3d 2cc3 d83d 3627 ac3d fca3 963d
00000040: 3315 8f3c 822d d83d 147b f03d a565 f33d
00000050: 88fa c43d 8fac 153e 6595 423d 3d84 f83d
00000060: ff91 113e da8c 233e 3b1b 3a3b 154c 6b3d
00000070: c1c7 0a3e bb03 2d3c cdd8 413e fac6 593d
00000080: 139c 4ebd 1eca cb3d fa9b 9bbc ffc6 28bd
00000090: 25d6 373d 585e 203e 6d2c 3c3e 9f7c 9e3d
000000a0: 246f 1a3e 24cd 933c c4bf 373e 0455 aa3d
000000b0: 59a2 203d 60fc 3e3d 7140 313e 043b bf3d
000000c0: 21a2 0d3d 998f 133e fc7f 163e 5caf 0c3e
000000d0: bcdf 1c3e a40a fe3d d79e cd3d 7e32 bc3d
000000e0: ecdb fbbc 13c5 1c3e 6b91 b93d f64f e63d
000000f0: 8059 e03d 8554 013a 6c69 e93b 0ad7 603d
0.101672 0.06599402 0.04879796 -0.0034015072 0.018462326 0.17730375 -0.007918129 -0.045930166
0.09477592 0.14140402 0.1363287 0.16629094 0.100783475 0.10584101 0.084059164 0.07355496
0.017466163 0.10555555 0.11742225 0.118846215 0.096180975 0.14616607 0.047505755 0.121345975
0.1421585 0.159717 0.0028397578 0.057445604 0.13552763 0.010559971 0.18930359 0.053168274
-0.050441813 0.0995066 -0.018995274 -0.041205402 0.04488196 0.1566099 0.18376322 0.07738613
0.1508146 0.018042155 0.17944247 0.08316997 0.039217327 0.046627402 0.17309739 0.09337428
0.034578446 0.14410247 0.1469726 0.1373877 0.15319723 0.12404373 0.10040062 0.09189318
-0.030744515 0.15309553 0.090609394 0.1124572 0.10954571 0.0004933554 0.007123163 0.054892577

placing_layer.0.weight f4 [4, 64]
00000000: 4226 e83d 5db4 753d a9e8 a7bd 5ade f9bc
00000010: 6e43 aabc 4739 adbd da1e 98bd a0f9 93bd
00000020: 7fdd e1bd 1663 c43c e0c5 5a3d fe7b 83bd
00000030: c018 1ebd 9c4c 71bb 2581 35bd fc96 0ebd
00000040: 105b a9bd cc31 dc3d 7dd0 d9bd 56e8 7c3d
00000050: 0cf0 cbbd 4f35 c1bd 8465 973d ecc5 f93d
00000060: 38e9 df3d 3f0c e03d 70af d5bd bc06 9a3d
00000070: 8e15 c4bd 2d64 8c3c a184 80bd 089e 31bb
00000080: 9382 8cbd 899f 37bc e9cb c93d 19d9 0c3e
00000090: 5a9b b33c 36ed debd f4f9 e43d d489 57bc
000000a0: 0a4e 18bd 76c1 9a3d 8c89 d33d 9cdf 4dbd
000000b0: 6ade f13c a6f3 b7bd ef5a c0bc 7cda 773d
000000c0: 59b5 06bc 3197 d1bd 6c9b 98bd 2d5f c43d
000000d0: 5641 1ebd b10a 2dbd edf4 803d ae0e 87bd
000000e0: 0127 18bc 3058 a03d 7e15 95bc 4399 9a3d
000000f0: ce39 753c 6d20 9abc 7ee0 f8bc 5384 94bd
00000100: aacc 393e 559f e93d 7028 c13d c588 b33d
00000110: f53c eebc d274 103e fea3 dc3d 70aa 083d
00000120: b31b 3e3e 8eda 60bb cd7b 103e ca34 9439
00000130: 5805 573c 7f9f aa3c c78e 163d fb6b 0c3e
00000140: 4eac 3a3e 21e9 8a3d 3a04 373e bc9b 273d
00000150: 2e5c 88bc 143c 563c 85e7 a93a 6109 44bd
00000160: 7674 5a3d 3eda 203e ea47 2d3e 7cd6 f33d
00000170: 7e4e 0d3e dc12 933b f4d3 e13b b803 adbb
00000180: ab09 473e b43f 053e 17a1 fa3c b5c0 193e
00000190: e087 a63d f5ef 873d 0cd0 563d d521 183e
000001a0: c65a eb3d ad6a d43d 95fd 2c3d a9d4 2a3e
000001b0: 20d4 053b 87fd 2c3d 8958 643d 4b46 ca3c
000001c0: 0fd1 8a3c 0e79 843d 462b 3c3d 457f 1a3d
000001d0: 7690 c13d 8c7c 30bd 6bac 953d 029f 40bd
000001e0: bd73 8f3d 7f25 7d3d bf1c 453e 7269 493e
000001f0: 4685 073e 573d bc3c 3783 2f3e 1044 603d
00000200: 6526 04be 79fc 88bd 2579 fc3c 504e 893d
00000210: e3d8 d9bd 7db9 c6bd 1f68 82bc 84ac a5bc
00000220: 3dac a13d 351e fabd 6762 94bd 7c24 b6bd
00000230: f04b a5bb 1080 6abd 8c21 e1bb e5ff ddbd
00000240: c1d6 0f3d 4a48 15bd 958f c03d 4df3 e7bd
00000250: a678 e2bc 5e46 d0bd 0934 a9bc 1c04 1f3d
00000260: bb31 cd3c 8c93 e8bd 0533 d7bd 3b34 e9bd
00000270: c402 c7bd dd22 59bc 5ca6 0bbd 23ac 713d
00000280: af71 ab3c 9442 d8bc db90 88bd 8785 e7bd
00000290: 3191 6e3c 4110 05be c96d ddbc edfa 2c3c
000002a0: 8816 943b 6fc5 833d 5030 243d 92e6 a9bd
000002b0: bdff 99bd eeb7 a4bc e5dd cbbd e3ef 363d
000002c0: 6476 a9bd 53cd 5a3d 3c2e 833d 78b7 9d3d
000002d0: 35e5 673d 7e17 f63c d0f0 10be 73a5 de3d
000002e0: b73e 893d b473 0dbd dcf1 8ebd e27f dbbd
000002f0: 174c b73d 5dac afbc 4391 8abd 6e16 0cbd
00000300: a33b e93c 3ff8 bbbc a7b9 1cbd 8411 f8bd
00000310: 69a8 f3bd 664b 03bd af83 2d3c ef17 cfbc
00000320: c3e0 f0bd 2af6 c13d 7f3d 6d3d 1ad2 a2bd
00000330: 67e2 6dbd 8103 7e3d 2809 c0bd 3a08 c2bb
00000340: 2def 703d 4b6b c53c c894 95bd 7dd4 b03d
00000350: d91f e4bd 4366 913d db66 98bd 80ba a8bd
00000360: 0a69 613c 0fab 60bc 11e9 c9bd 25da 1fbd
00000370: a8d3 14bd 1a13 613d f7bf e2bd d17b 70bc
00000380: 5eea be3d dc62 96bc faa5 a4ba 1bd4 4fbd
00000390: 669c 50bd 7fc2 18bd fac1 77bd f65f ac3d
000003a0: 874e d13d a104 febd 68ad a2bd 15f3 febd
000003b0: 281b 01bd 3fb7 813a 515f b53d abda 14bc
000003c0: d439 ffbd d353 febc 55ca 04be c1bb b6bc
000003d0: f4ae 093d c383 5c3d f396 973d 67a6 be3d
000003e0: 55e3 4abd 5c2e e93d f174 babc 3c11 e4bc
000003f0: c370 ed3c de6e 80bc 0606 44bb 9793 02be
0.11335422 0.05998646 -0.08198673 -0.030501533 -0.020784106 -0.084581904 -0.074277595 -0.072253466
-0.11028575 0.02397303 0.053411365 -0.06420134 -0.038597822 -0.0036819344 -0.044312615 -0.03481196
-0.08269322 0.107516855 -0.10635469 0.06174501 -0.09957895 -0.09433996 0.073924094 0.12195954
0.10933155 0.10939836 -0.10433853 0.07520816 -0.09574424 0.017137611 -0.06275297 -0.002710225
-0.068608426 -0.01120747 0.09853346 0.13754691 0.021924663 -0.10885088 0.11180487 -0.013155419
-0.0371838 0.07556431 0.10328969 -0.05026208 0.029525 -0.08982019 -0.02348086 0.060511097
-0.008221948 -0.102339156 -0.07451519 0.09588466 -0.038636528 -0.042246524 0.06296716 -0.06594597
-0.009286643 0.078293204 -0.018198725 0.075487636 0.014967395 -0.01881429 -0.030380484 -0.07251801
0.1814448 0.11407343 0.09431541 0.08766321 -0.029081801 0.14107063 0.107734665 0.033365667
0.18565254 -0.0034309956 0.14109726 0.0002826809 0.013123833 0.020828007 0.036757257 0.13713066
0.18229792 0.06782747 0.17872706 0.040920004 -0.016645517 0.013075847 0.0012962675 -0.047860507
0.053333722 0.15708253 0.16921964 0.11906144 0.13799474 0.004488332 0.006891722 -0.0052799843
0.19437282 0.13012582 0.030594392 0.15014918 0.08131385 0.06637565 0.052444503 0.14856656
0.11491923 0.10371909 0.042234022 0.16682686 0.0020420626 0.04223397 0.055748496 0.024691721
0.01694539 0.06468402 0.045939706 0.03771903 0.09451382 -0.043087527 0.07308277 -0.04702664
0.07004497 0.061803337 0.19249247 0.1966913 0.13234434 0.022978468 0.17139898 0.05475241
-0.12905271 -0.0668878 0.030819485 0.0670439 -0.10637071 -0.09703348 -0.01591879 -0.020223863
0.0789418 -0.12212793 -0.07245331 -0.088936776 -0.005044453 -0.057251036 -0.006870454 -0.10839824
0.035116915 -0.036445893 0.09402386 -0.11325703 -0.02764542 -0.101696715 -0.020654695 0.03882228
0.025048127 -0.11356267 -0.10507778 -0.11386915 -0.097173244 -0.013252941 -0.0340942 0.059002053
0.020928232 -0.026398934 -0.06668254 -0.11304765 0.0145609835 -0.12994482 -0.027029889 0.010557872
0.0045192875 0.06434142 0.040085137 -0.08295931 -0.07519481 -0.020107236 -0.099544324 0.044662368
-0.08274534 0.05341847 0.06405303 0.077010095 0.056615073 0.030040499 -0.14154363 0.10871401
0.06701415 -0.03453417 -0.06979725 -0.10717751 0.0895006 -0.021444494 -0.06765988 -0.034201078
0.02847082 -0.022945521 -0.03826299 -0.12112716 -0.11897356 -0.032054327 0.010590478 -0.025279967
-0.1176162 0.0947078 0.057919975 -0.0795023 -0.058077242 0.06201506 -0.093767464 -0.005921391
0.058821846 0.024099013 -0.073037684 0.08634279 -0.11138887 0.07099583 -0.07441493 -0.08238697
0.013757953 -0.013712659 -0.09858907 -0.0390264 -0.036334664 0.054949857 -0.11071771 -0.014677958
0.09322046 -0.018357687 -0.0012561672 -0.05073939 -0.050930403 -0.03729486 -0.060487725 0.084167406
0.10220056 -0.12403227 -0.07943231 -0.12448708 -0.03152004 0.000989653 0.08856071 -0.009085338
-0.12462202 -0.03104583 -0.12967809 -0.022306325 0.033614114 0.053836595 0.07401838 0.093090825
-0.049533207 0.113857955 -0.02276084 -0.02784025 0.028984433 -0.015677866 -0.0029910817 -0.12751614

placing_layer.0.bias f4 [4]
00000000: 3ab9 c4bd 2c4f 04bd fdea 423c e792 da3c
-0.09605642 -0.032302067 0.011896846 0.026681377

placing_layer.1.weight f4 [4, 64]
00000000: e115 203d b996 253e ccca cdbd 72a5 a0bd
00000010: fb4e f63d c613 52bc 7be5 9e3d 5911 b93c
00000020: e6a7 453d 3c29 a1bd 8540 5fbc 6c0b ac3d
00000030: a24e 963d 7e64 74bc 1a87 533d 8dc8 55bd
00000040: 8066 b5bc f904 ba3b 1995 073e 72b3 9d3d
00000050: e459 b43d 00f9 82bd 67d8 063a b73e ab3c
00000060: 008d 493d 73cb 26bd 088d ed3d a281 0f3e
00000070: 4043 e33c 7f56 90bd 6597 773d 66c8 e13b
00000080: 70d1 a9bd 09fc 7fbc 7c44 6dbd 5ae3 8b3d
00000090: 0380 13bc 2a4f 51bd cf32 d03c e76e d33d
000000a0: 350d 8abc 2dc0 053e 407b 22bd 46db 0f3e
000000b0: 37f0 3c3d dcc9 6cbd 89c9 98bd 3684 c53c
000000c0: cf3d bbbd 6153 d3bc b603 fa3d f852 c7bd
000000d0: 3fc2 b23d 12a1 8dbb 0fd1 123e 04ae c03d
000000e0: e194 c33c 3bbd 8dbb fb37 1b3e 5030 393e
000000f0: ab2d 3a3e 4a2d 9bbd 58b1 0fbd 2570 943d
00000100: 5ba9 513e bd1c 813d 117e 13bd 127f 173d
00000110: 3672 0bbc 0670 133e 1d77 ab3d b7f8 bb3d
00000120: 62c9 29bd 690c 213e 1a55 0b3e 644a da3d
00000130: a22a 263e 0bef b53c f9c0 abbc 0c4d b03d
00000140: e41b 963c 02a2 373e af80 9a3c 4053 1a3e
00000150: d6b7 ec3c b337 783c 70fc bd3d 9ce0 313e
00000160: 3b5c 2b3d eff9 fe3d d500 413e d4bd 13bd
00000170: c517 5f3d a3eb 58bd e8e0 9f3c f7dd cb3d
00000180: a837 163d f3cb 633d b1e9 d33d 5c87 0cbd
00000190: 6cd9 853d fd8c f83d ca80 963d a3d7 ff3c
000001a0: 39ee d13d f3f4 12bd fe90 e43d 6b11 943c
000001b0: 3151 db3d 8cb3 073e 17a8 36bc cf2c 953c
000001c0: 165e 363e d7cb eb3c 950b 513e 5536 7d3d
000001d0: f904 2c3e 1786 fd3d 0cdf 82bc ce2b 4b3e
000001e0: f834 4b3e 7926 173c ecce de3c 4454 863d
000001f0: bae9 2fbd 5369 c33d 444b 3e3d 6922 2c3e
00000200: 8875 213c a3a2 3a3e fda1 3a3d 5ddc 61bc
00000210: 1f1a 20bd ccbb 973d ec76 403e d216 f13d
00000220: ce65 113e 16df fa3d 0fa5 41bd 86a5 d83d
00000230: 4122 e83d f6a7 b33d b858 9139 d936 2d3d
00000240: 97e6 1c3e d0dd a93c 8537 cd3d 473f e73d
00000250: c204 7c3c 857c 413b 21e7 fbbc 8093 2d3e
00000260: fda3 2bba 3492 db3d 5613 043e a470 653c
00000270: 4bb5 433e 2a21 2c3e 03d8 0fbd f119 193e
00000280: cc4d cabc 90ac 393e 799b 23bd 3d64 3dbd
00000290: ee10 323e 99fb ea3c bff6 263e 1f91 403d
000002a0: 7828 113d f208 923c cbe3 353e 158e 17bd
000002b0: 5ced 1a3e b706 013e 56a4 6b3d 2e81 033e
000002c0: c379 ff3d efe3 5bbd 22c8 9a3d 13a9 f83d
000002d0: 7e3b 293e 2adc 933d 21e3 1cbd 6473 32bd
000002e0: 86d5 b33d d305 f4bb 62dc ac3d 0493 1f3b
000002f0: 54d1 debc b0a3 1b3e a956 33bd 12d4 a43d
00000300: 9803 90bd 0ceb 69bd d770 e6bd 4d04 a7bd
00000310: 80ad eabd deac acbd a863 2d3d 6165 50bd
00000320: 5268 683d 99fd ca3d d510 923d 3a47 a6bd
00000330: 4636 ab3c a08e 6d3d 074c 07be 29eb ac3d
00000340: d0e5 a5bc 3b30 54bd eeed 0fbe e6cf 2f3c
00000350: e084 f3bd 6720 fabb 3f72 bdbd ed91 5d3d
00000360: 3649 fabd 29de 13bd d6ad 94ba 5e2b c53d
00000370: 2b60 b8bd 5ed9 5a3d c61e 2d3d ba2b 11be
00000380: 2527 3abc e519 ae3c 06bb abbd f2f9 933d
00000390: 4709 943c 98fe 623d a7d8 0bbe d8a1 b2ba
000003a0: a175 27bd f9ca 58bd db77 5cbd aa26 19bd
000003b0: 2f5f 7f3d 1981 8cbd 144b c03d 2fa6 213d
000003c0: 052b aebd 430e 513d 0ee8 0dbd 1951 26bd
000003d0: a9c1 a13d b814 a43d 6145 953d 7f78 26bd
000003e0: 67bf 0c3d f371 9d3c dfc7 483d fff8 9abd
000003f0: 34d1 823d 1c88 52bd bc87 06bd 04fc a6bd
0.039083365 0.16170777 -0.10048446 -0.07844056 0.12026783 -0.012822097 0.07758614 0.02259128
0.048255824 -0.07869193 -0.0136262225 0.08400616 0.07339217 -0.014916537 0.051642515 -0.052193213
-0.022143602 0.0056768623 0.1324047 0.07700242 0.08806208 -0.06395149 0.0005143941 0.020903928
0.049206734 -0.040721368 0.11599165 0.14014295 0.027742028 -0.07047748 0.060447115 0.0068903444
-0.082919 -0.015624055 -0.05792664 0.06830473 -0.009002688 -0.051100887 0.025414852 0.10323887
-0.016852 0.1306159 -0.03966832 0.1404849 0.046127524 -0.057809696 -0.07460315 0.024110895
-0.091426484 -0.025796594 0.12207739 -0.09732622 0.08728456 -0.0043221796 0.14337562 0.09408191
0.023874702 -0.0043255365 0.15158074 0.18084836 0.18181483 -0.075769976 -0.035081238 0.07247952
0.2047476 0.063043095 -0.0360089 0.036986418 -0.008511117 0.14398202 0.083723284 0.09178298
-0.04145182 0.1572739 0.13606682 0.1065872 0.162272 0.022208711 -0.02096604 0.086084455
0.018323846 0.17932895 0.01886019 0.1507082 0.028896254 0.0151499985 0.09276664 0.17370838
0.041836005 0.12450015 0.18847974 -0.036069706 0.054466028 -0.052959096 0.019516423 0.09954446
0.03667417 0.055614423 0.103473075 -0.034308776 0.065356106 0.121362664 0.07348783 0.031230753
0.102505155 -0.035878133 0.111604676 0.018074712 0.107088454 0.13252085 -0.011148474 0.018209843
0.17809328 0.028783722 0.20414574 0.061819393 0.16798772 0.12379091 -0.015975498 0.19840929
0.19844425 0.009225481 0.027198277 0.06559041 -0.04294751 0.095415734 0.046458498 0.16810001
0.009854682 0.18226103 0.04556464 -0.013785449 -0.03908741 0.07408866 0.18795365 0.11771931
0.14198992 0.122495815 -0.047276553 0.10578446 0.113346584 0.087722704 0.00027722656 0.042288635
0.15322338 0.020735651 0.10020355 0.11291366 0.015381994 0.0029523682 -0.03074986 0.16950798
-0.00065475685 0.107212454 0.12898001 0.014003906 0.19112127 0.16809526 -0.035118114 0.14951302
-0.0246953 0.18132234 -0.039943192 -0.046238173 0.1738927 0.028684424 0.16305064 0.0470134
0.035438985 0.017826531 0.17762677 -0.037000734 0.15129608 0.12600218 0.05752977 0.12842247
0.12474396 -0.05368417 0.075577036 0.12141623 0.165266 0.07219727 -0.038302545 -0.043567076
0.08780961 -0.0074469834 0.08440472 0.0024349103 -0.027199425 0.1519916 -0.043783817 0.08048262
-0.070319355 -0.057108924 -0.11251991 -0.08155117 -0.11458874 -0.08431409 0.042331368 -0.050877932
0.056740113 0.09911651 0.07132117 -0.08119054 0.020899903 0.057997346 -0.13212596 0.08443291
-0.020251185 -0.05180381 -0.14055607 0.010730719 -0.11890578 -0.007633257 -0.09250306 0.054094244
-0.12220995 -0.03610054 -0.0011343311 0.09627412 -0.090027176 0.053429954 0.042265676 -0.14176837
-0.011361872 0.021252582 -0.08385281 0.07225408 0.01807083 0.05541858 -0.13656865 -0.0013628555
-0.040883664 -0.052927945 -0.05382524 -0.03739039 0.062346634 -0.06860561 0.0938932 0.039465126
-0.08504299 0.05103899 -0.034645133 -0.040604685 0.07898266 0.08011764 0.072886236 -0.040642258
0.034362223 0.019219374 0.049018737 -0.075670235 0.063875586 -0.051399335 -0.03284429 -0.08153537

placing_layer.1.bias f4 [4]
00000000: 4b58 fc3c f131 403e 515e b7bc 97ae 5f3d
0.03080382 0.18769051 -0.02238384 0.05460986

placing_layer.2.weight f4 [4, 64]
00000000: 1a12 ae3d 591f 86bb c4e4 eb3d 159d e53d
00000010: 87fe 373e a5ce f83d 81f4 403e 2458 ab3d
00000020: 95fb be3d 528c 0cbd 38ac 993c 35ff 1d3e
00000030: 5a59 233d ec33 dc3d f074 f8bc a135 ffbc
00000040: 25ee 9f3c 3987 253e 82cd 1b3e 2f1f cb3b
00000050: 76ec e23d 7e34 733c d267 f73d bf46 a03c
00000060: 4ec7 40bd 118c 3e3c 3561 903d 4a96 763d
00000070: 2b3f db3c 0548 cc3d 4b1d b6bc 9823 ac3d
00000080: feb0 05bd 67dd f23d bd3c d8bc 6ff6 4fbd
00000090: ee02 e03d ead6 853d 3cfb 903d 1915 8ebc
000000a0: f42c 0bbc dc0f 03bd 8a08 253e bb52 0bbd
000000b0: 920c b23d ac73 5f3d ef38 323e 4e42 233d
000000c0: 3e96 fc3b bbd1 de3d fbca 393e 10e5 3b3e
000000d0: 2415 a73c 0bd8 e93d 883c f23d 9946 903d
000000e0: b627 673b 08e0 d33d 4c17 b43d 523a f83b
000000f0: 712f f33d 7800 293e 3377 fb3c 2ece 863d
00000100: 16f4 f93d fbf9 0dbd e3f2 2a3e 1f43 c63c
00000110: 31db 313e 2473 35bd 873a 183d c351 d23d
00000120: a3b8 053e 8951 383e 2f2f 123d 6e07 d83d
00000130: d428 893d 362b bf3d 79c1 8cbc d880 283e
00000140: 9f77 e0bc 9d6b 643d 77ec 413e 6957 4f3d
00000150: f0bb 0e3d 7d8a 8b3c 7db0 3d3e 60bc 3c3d
00000160: 598a 593d d32e 0c3e 59a5 ba3b 506a 7d3c
00000170: 4581 9f3d 2d76 663d a125 86bc 26b4 6a3d
00000180: 4a0a f73d 8b4f 083e 7376 9cbc d08a e03d
00000190: 626a 333e 144c 4c3e a627 9d39 ca2a 513d
000001a0: af50 7b3d 41b0 03bc 04d6 053e dfef 093e
000001b0: ee91 dbbb b39d a73d 19b2 383e 3a72 b83d
000001c0: 4159 c53d ac84 483c 6de6 5c3d 2ec0 85bc
000001d0: 68d6 073e 47c4 823d 39c6 333e 6511 ec3d
000001e0: f04a 2c3e 372e 7e3d ebda 1e3e 2daf 313e
000001f0: 2167 473d 7b6c 4b3e 761b 2a3d d7b6 e33d
00000200: cf5e 84bd 6a8c 7bbd 1c3f 053e 8fd5 f33c
00000210: a976 213e 33dd 923d 9e7a ba3d 3e4c a03d
00000220: caea c73c 48b6 a4bd a46d 153d 9a4c 883d
00000230: b700 d43d 0a38 763d 09ca a6bd f4bf 9b3d
00000240: ba50 443d 5e1b 1b3d 361a a03d e3c0 1e3e
00000250: d450 bbbc 5744 20bd a2cc 5e3d 1dee 6abd
00000260: bd58 b63a 804e e3bc 2e20 b73d 60b2 523d
00000270: 2e67 223e 2ccf 61bc 1dda 333d 7fc1 05bd
00000280: a4e4 b13d 08a2 cd3d 04ab fe3d d9b7 d83c
00000290: ce12 dd3d 12a1 9d3d 0a68 94bc 06a3 3cbc
000002a0: 586a 90bd d2d9 0ebd 6248 87bd 1857 d23c
000002b0: b253 043d 6a7d ce3d b23e 163e 1461 663d
000002c0: b563 9a3b 0a17 8d3d 4684 123e ea24 093e
000002d0: 5b04 aabd 966b a5bd 1430 793d 2506 e13d
000002e0: 46a6 0e3e b506 253e 5188 aebb 9aa6 883d
000002f0: aa79 ed3d 8528 503d c916 073e 9539 603d
00000300: 498a 20bd c538 073d 407d d2bd 6cc2 bf3d
00000310: 1c9b 783d 6601 34bd 49f0 8abd 94bf 4bbd
00000320: 944c 08be 4ec7 8ebd cf6f d6bc 9af5 ecbb
00000330: 2f34 e5bd f56f ba3d 3b0f aebc e1a7 8cbc
00000340: df7b d43d aaa2 1c3d 09d9 a3bc 6ac7 b73d
00000350: 8223 663d 76b5 44bd 871e 8f3c c468 0cbe
00000360: 4766 9e3d 3b1a 853d 9f75 9e3c e908 ccbc
00000370: 86f9 eebd 3685 b53d e0e6 78bd e2c8 e9bd
00000380: c1ec 9dbc 17b6 90bd e884 703d 778b 813d
00000390: 7184 7abd fb51 a93d 32a7 e03c 329a 9e3d
000003a0: 46d6 e6bd cbff 983d 50e4 9cbc 9ad3 b43d
000003b0: f19e 9cbd d69d 07be cfd5 15bd 4b48 7dbd
000003c0: a270 d9bd 5c66 4fbd f36e 563c 1dc3 3cbd
000003d0: 8d0a b4bd bb2a 433d 6d8a 43bd c016 bf3d
000003e0: d665 14bd 23f3 f6bd 5806 ccbd f07e 06be
000003f0: 9f00 37bc f291 143d 8837 19be 8d18 d4bc
0.08499546 -0.0040930924 0.11518243 0.11211602 0.17968188 0.12148789 0.18843271 0.08366421
0.09325329 -0.034313507 0.018758878 0.15429385 0.039880134 0.10752091 -0.030329198 -0.031153502
0.019522736 0.16164865 0.15215114 0.0061987857 0.110802576 0.014844058 0.12080349 0.019564984
-0.04706507 0.011630074 0.07049791 0.06020192 0.02676352 0.09974674 -0.022230765 0.084052265
-0.032639496 0.118586354 -0.02639615 -0.050772127 0.10938059 0.06535132 0.07079169 -0.017344045
-0.008494604 -0.031997547 0.16116539 -0.034014445 0.08693804 0.054553673 0.17404531 0.039858155
0.00770834 0.10879847 0.18143837 0.18349099 0.020395823 0.1141816 0.11827952 0.070447154
0.0035271472 0.10345465 0.08793506 0.0075753117 0.11874283 0.16504085 0.030696487 0.065822944
0.12204759 -0.034662228 0.16694216 0.024201928 0.17368771 -0.04429926 0.03716519 0.10269501
0.13058715 0.17999853 0.03568953 0.10548292 0.066972405 0.09334414 -0.017182099 0.164554
-0.02740079 0.05576669 0.1893786 0.05062047 0.0348472 0.01703381 0.18524356 0.046078086
0.053110454 0.13689737 0.0056959805 0.015467241 0.07788328 0.056265045 -0.016375365 0.05730071
0.12062509 0.13311593 -0.01909945 0.109639764 0.1752105 0.19950897 0.00029974914 0.051066197
0.061356243 -0.008037628 0.13069922 0.1347041 -0.006700746 0.081843756 0.18036689 0.09006162
0.096361645 0.012238663 0.05393069 -0.01632699 0.13265383 0.06385093 0.17556085 0.11526755
0.16825461 0.062055793 0.15513198 0.1735198 0.048682336 0.19865601 0.041530095 0.11118858
-0.06463396 -0.061413206 0.13012356 0.029764919 0.15767922 0.07171097 0.091054186 0.07827042
0.024403948 -0.0804258 0.036481515 0.066552356 0.10351699 0.060112037 -0.08144004 0.076049715
0.04792855 0.037867896 0.07817499 0.15503268 -0.02286569 -0.039127674 0.05439437 -0.05735599
0.0013911944 -0.027747393 0.08941685 0.051439643 0.15859672 -0.013782304 0.04390918 -0.032655235
0.08686188 0.10040671 0.124349624 0.026454853 0.10794602 0.07696737 -0.018116016 -0.011513477
-0.070515335 -0.0348757 -0.06605603 0.025676295 0.03230638 0.100825146 0.14672354 0.056244925
0.004711593 0.0688916 0.14308271 0.13392988 -0.08301612 -0.08077161 0.060836866 0.109875
0.13930616 0.1611584 -0.005326309 0.06672402 0.11595471 0.050819892 0.13192286 0.054742415
-0.03919438 0.033013124 -0.10277796 0.09363255 0.0606948 -0.043946646 -0.06784112 -0.04974325
-0.13310462 -0.06971608 -0.026176361 -0.0072314264 -0.11191594 0.09103385 -0.021247497 -0.017169895
0.10375189 0.038241066 -0.020000951 0.08973582 0.056186207 -0.048024617 0.017470611 -0.1371184
0.077343516 0.06499144 0.019343195 -0.024906592 -0.116686866 0.088632986 -0.060767055 -0.114152685
-0.019277932 -0.07065981 0.0587205 0.06325429 -0.061161462 0.0826759 0.027423475 0.07744254
-0.11271338 0.07470664 -0.019151837 0.08829422 -0.07647503 -0.13243803 -0.036580857 -0.061836522
-0.10617186 -0.050634727 0.013087976 -0.046084512 -0.08791075 0.047648173 -0.047739435 0.09330511
-0.03622993 -0.120580934 -0.099621475 -0.1313436 -0.011169582 0.036271997 -0.1496259 -0.025890613

placing_layer.2.bias f4 [4]
00000000: 7fe8 e23d bbff 173e 3c94 1b3e b5c4 68bd
0.11079501 0.14843647 0.15193266 -0.05682822

placing_layer.3.weight f4 [4, 64]
00000000: ce20 52ba fc5a 2f3e 328c 033e 8da2 8f3d
00000010: aab6 293e 950f 193e 00fd c53d b5f4 4f3e
00000020: a119 a6bc 9493 4a3e 3e3b 9b3c 7b05 0c3e
00000030: 3f3d 863d 8d82 293c f1f4 133e 7865 27bd
00000040: de4e 2d3e 13ef 0d3e 38e4 853c 4b2b 033d
00000050: 64e8 233e f1eb d83d b216 fd3d d149 433b
00000060: 4aaa 493e 9a8d 5e3d 02e5 233e 4267 8cbc
00000070: ead9 0b3e faf6 183e ce84 df3d 8f74 e23d
00000080: 0ce3 da3d 102c 5a3d 4f76 21bc 23f2 d23d
00000090: 944c 873d 3ce6 783d 3acb 8c3c 0f7f ab3a
000000a0: 3d81 803c e79a c73d aa97 923c 8a93 993d
000000b0: cb9c e53c ec59 ac3d 107d 9c3c 7a34 9c3d
000000c0: ad44 113d 4d30 6b3d 33b6 de3c 2012 e23d
000000d0: dee8 0a3e 5be3 a83d f797 363e 9836 fc3d
000000e0: b644 123e 76d8 1c3e 9c83 d63b 49fb c3bb
000000f0: 22a6 fabc d7fd 443e ecb5 133d 89ec 2e3e
00000100: 048a 833c 27af afbd 3f49 88bd 25f0 663d
00000110: fdae 5e3d 1ff2 ebbd c7ae 6d3d 47fd 8cbd
00000120: c7b1 47bd 100b a5bd e7e4 03bd b314 f9bd
00000130: b808 f5bd 3cbb c4bd 49cf cb3d ae79 cfbc
00000140: e9a6 333d bebb 82bd 80a7 62bd ad24 883d
00000150: e4a5 57bc 7b4b c83c 0783 76bd 6b53 973d
00000160: 0df3 1abc cd14 5bbb 4719 ab3c 47c8 ebbd
00000170: 0740 843d 74ce b33d a4f6 e0bd 2b2a 953d
00000180: 81a6 6dbc bd7f d33d 1cbc 03be 4cd4 64bc
00000190: 7acb ddbc f560 49bd 0488 a8bd ca14 933c
000001a0: ca3a 80bd 84ed fb3b e809 773d a2c8 8e3d
000001b0: 9f55 a53d 9268 b7bd 80ef b63d 070b 963d
000001c0: 111d de3d 6759 483c 2251 4abd e35e 5cbc
000001d0: ce8f c33d 238e c93d b6ab aa3d c188 01be
000001e0: ce1b 20bd 6391 dbbd 8b9a 1a3d f0d6 933c
000001f0: c0f9 95bc f28f d23c 43dd acbd e2f5 323d
00000200: df84 04bd 87db ff3d 25e4 0abd 2322 c53c
00000210: f84b 0d3e 6743 c13d 800c 6bbb e19a 1abd
00000220: b226 c33d 5736 483d 5e74 313e be08 9c3c
00000230: f954 04bc c08c 9f3d fb0d 32bc ea40 0f3d
00000240: 4754 ed3d 79a4 573d abac 0a3e 4f2c 253e
00000250: 07d0 31bc f7ff 32bc 937b 373e f6a6 ebbc
00000260: deef f43d eea5 173e 3283 e73d c646 1b3e
00000270: 564b d43d c361 c23d 01c1 4a3e c4ce b03d
00000280: 2bad b1bc 65b0 323e 3376 00bd 3b86 3b3e
00000290: 6e9d e13b 370b 513d b709 8a3a 9db8 5c3d
000002a0: ba2c 1dbc 4c08 b93d 8861 3a3d 50f2 813c
000002b0: b34a 433e 99f2 4e3e 3329 3a3e fa62 0dbb
000002c0: e383 6a3d fd86 663d 11a6 153e 4277 dd3d
000002d0: 5400 c23c e01d 1e3e 7606 d83a 0fd9 983d
000002e0: 1fe3 113d 9f2d 4e3e e86a 013e 93d5 bb3d
000002f0: 8c12 2e3b 9002 213e 32b4 febc 523b 873d
00000300: 90a8 b13d b65a 513c b62d 14bd 4ee6 e0bc
00000310: e671 833c a696 dfbd ff00 903d e1ff 16be
00000320: d7cb 573d 9115 9c3d 65b8 d33c aa24 fcbd
00000330: 07a5 afbc 6ce2 f8bd 00a1 f4bd 691c a6bd
00000340: 33c8 fd3c e0bd 3b3d 85bf 02be 8594 463d
00000350: 73ff 89bd 53f9 4bbb 3801 29bd a6cb c0bd
00000360: d6f7 74bd 9347 a93d 5c74 b9bd 58d2 c7bd
00000370: 57e2 3f3d e571 643d fb6f 57bc 5a4f 87bd
00000380: a398 02be 781d 233d caf4 9dbd 3725 5fbd
00000390: 0946 db3c 56aa b0bc 57a0 e9bd 1448 733c
000003a0: 5d16 9cbd 7d71 b13d 736b acbb fc90 03be
000003b0: 0076 4c3c 20d5 4bbd 77a4 b33d 9b40 0dbd
000003c0: e6a4 fdbc 5fcc 04be 5116 9d3d 9e19 26bc
000003d0: 8266 b2bd 5d6e b83d c7e6 dcbd f0cb 60bc
000003e0: 497f a83d d1bb 7c3d e429 b23d c915 033d
000003f0: 61cd ab3d e5c1 1aba 7227 733d cc6c 15be
-0.00080157525 0.17124552 0.12846449 0.07013426 0.16573587 0.1494735 0.096673965 0.20308192
-0.020275893 0.19782859 0.018949147 0.13673966 0.065546505 0.010346067 0.14448906 -0.040868253
0.16924617 0.13860731 0.016344175 0.03202371 0.16006619 0.10591877 0.123578444 0.0029798637
0.19693866 0.05433426 0.16005328 -0.01713908 0.13657346 0.14937964 0.10914002 0.11057388
0.10687837 0.053264678 -0.009854867 0.1030009 0.06606403 0.060766444 0.01718675 0.0013084131
0.015686626 0.09746342 0.017894585 0.07498844 0.028028866 0.08415589 0.019102603 0.076271966
0.035465885 0.05741911 0.027186489 0.11038613 0.13565394 0.082464896 0.17831407 0.123151004
0.14284024 0.15316948 0.006546451 -0.0059808833 -0.030596796 0.19237457 0.036062166 0.17082419
0.016057022 -0.085783295 -0.066545956 0.056381363 0.0543661 -0.1152079 0.05802801 -0.06884246
-0.048753526 -0.08058751 -0.03220072 -0.12162151 -0.119645536 -0.096060246 0.09951646 -0.025326576
0.04386035 -0.06383465 -0.05533552 0.0664762 -0.01316211 0.024450054 -0.06018355 0.073889576
-0.009457362 -0.0033429146 0.020886077 -0.11512809 0.06457525 0.08779612 -0.10984543 0.072834335
-0.01450503 0.103270985 -0.12864727 -0.013966631 -0.027074564 -0.04916473 -0.08229068 0.017954249
-0.06261213 0.007688226 0.06031218 0.069718614 0.080729716 -0.08955492 0.089324 0.07326322
0.10845388 0.012228346 -0.04939378 -0.013450357 0.09548913 0.098415636 0.083335325 -0.12649824
-0.039089017 -0.1072109 0.03774504 0.018046826 -0.018307567 0.025703404 -0.0844064 0.043691523
-0.03235328 0.124930434 -0.03390898 0.02406413 0.13798511 0.09436684 -0.0035865605 -0.03774536
0.09528865 0.048879948 0.17329547 0.019047137 -0.0080769 0.07790518 -0.010867591 0.034974016
0.1158834 0.052647088 0.1354243 0.16130184 -0.01085282 -0.010925285 0.17918234 -0.028766137
0.119598135 0.14809391 0.113043204 0.15163717 0.10365932 0.09491303 0.19800188 0.086331874
-0.021689018 0.17450102 -0.031362724 0.18312924 0.006885222 0.051036086 0.001053146 0.053887
-0.009593183 0.09034786 0.04550317 0.015862614 0.19071464 0.20209731 0.18179779 -0.0021573887
0.057254683 0.05628108 0.1461413 0.10813762 0.023681797 0.15441084 0.0016481418 0.07463276
0.03561699 0.2013459 0.12638438 0.091715954 0.0026561348 0.15723634 -0.031091783 0.06603111
0.08674729 0.012777975 -0.036176406 -0.027453568 0.016045522 -0.10917406 0.0703144 -0.14746048
0.05268463 0.07621301 0.025844762 -0.123116806 -0.021440996 -0.121525615 -0.11944771 -0.081108876
0.030979251 0.045835376 -0.12768371 0.048481483 -0.06738176 -0.003112395 -0.041260928 -0.09413843
-0.059806667 0.08265605 -0.09055397 -0.09756917 0.046846714 0.05577268 -0.013149257 -0.06606932
-0.12753539 0.039823025 -0.077127054 -0.05447885 0.026766794 -0.021565598 -0.114075355 0.014848728
-0.07621453 0.08664224 -0.0052618324 -0.12848276 0.012479305 -0.0497638 0.087716036 -0.03448544
-0.030962419 -0.12968586 0.07670272 -0.010137944 -0.08710958 0.09005425 -0.10786205 -0.0137204975
0.08227403 0.061702553 0.08699396 0.032003198 0.08388782 -0.00059035263 0.05936379 -0.14592284

placing_layer.3.bias f4 [4]
00000000: 951e 1cbd 90be ce3d aea2 273e bcaf 11bd
-0.038115103 0.10094941 0.16370651 -0.035567984
