extra_baseline2/log_res/ablation2/4-1/critic140/imitation_learning_env-050-20250303-002218/bc_ddpg_actor.pth (torch, 159293 bytes, 68 tensors)

fc.0.weight f4 [64, 345]
00000000: 0f54 d3b9 2a98 ec3c b97f 35bd 494a 22bd
00000010: 93de a9bc 9e89 6c3c b5d0 8bba 55d9 2e3d
00000020: 408f 9cbb 2669 693c ee49 85bc 2a63 2dbc
00000030: b4ac 52bd 190c 12bd d2ce b5bc cab3 023b
00000040: 0f5c ae3c 5951 043d 1a80 15bd bf0e c0bc
00000050: b531 a03c 401e 373d 8288 35bc c504 253d
00000060: 6a2d 0ebc 8eac ba3b 3ead 473d 2d92 4cbd
00000070: 94d3 0abd 3050 5fbc 17eb abbc d087 3e3d
00000080: f8ef 0ebd be06 cbbc a710 1abd 1588 4ebd
00000090: 27ba 00bd 438f 3d3d 1ecd c43c dcc2 d53c
000000a0: 978f 393b 7d1d e2bc 3a3c 153c 46e6 4dbd
000000b0: 5857 1fbd e05e e3bc 9d22 0b3d d94b 013d
000000c0: a399 c3bc 309f feba 6609 0d3d 3a3a 5b3d
000000d0: b90a af3c a553 ee3b 41db 133d ead7 01bd
000000e0: 0a5f 243c a8f8 2abd 18d7 18bd d5d5 e3bc
000000f0: 508f c73c ac5e b13c 55a0 02bd f73d 853c
00000100: b61e f23c 3bab debb abb7 063b 1b62 4c3c
00000110: 63ce 083d 41be 533d 59f0 29bd f3a0 a1bc
00000120: 8455 ad3c 75b6 363d 31e6 3f3d 1294 423d
00000130: 388c 2f3c edc2 3fbd 574a a23b 92f5 09bd
00000140: 0384 4dbd 73ee 433d ebac 273d e1f9 5bbd
00000150: 051a 253c 9698 14bc 2b28 11bc e5e3 c9bc
00000160: 089b a93c 919d 02bd aeae a13c eb09 df3c
00000170: 69dd 1d3d 23e9 a43c f441 5abd 2b0d 0fbd
00000180: 1838 dc3c 1f9f 383c 6c06 2cbd faf5 fdbc
00000190: 8774 4f3d 5597 143d 3c4e c0bc e201 5ebc
000001a0: 6f11 52bd ebac 7dba c310 26bd bc19 2abd
000001b0: fe68 42bb d170 043c c89e b4bc 34da 023d
000001c0: 1f32 06bd 2818 483d 881f 173d 38f6 39bd
000001d0: 7f89 5bbc 3b35 1f3b 78b2 003c 3535 513c
000001e0: d913 ad3c 1f59 533b 8232 d7bc 4ab2 d03c
000001f0: e588 53bd 54b4 02bd ebcf 5cbc 71d6 d6bc
00000200: 974a 9abc 75be 34bd 01a2 3bbc 248d 3c3c
00000210: 7ba9 0fbd 7712 35bb 3ddc 1d3d 6b5b b5bb
00000220: e91e c43a 6831 98bb 7e84 323c 5237 0c3d
00000230: 4de3 503d 160b 0c3d a75d 513d e42c 7fbb
00000240: 5519 46bd 9316 d1bc 7027 163d acfa b6b9
00000250: f237 dbbc eefc 28bd 1060 4ebd 291f 3abd
00000260: 53eb 32bc cede f13c 1772 ee3c 7ead 54bd
00000270: a38e 093d 588f 2cbd 597b 3abc a5d4 b2bc
00000280: 2ce7 29bc e130 2dbc 7ce2 45bd 0968 3ebd
00000290: 3707 0abc 3a84 363a c15a c8bc ed23 a63c
000002a0: 637b 46bd 2f1e 6ebb 3fee 413d cee5 b3bc
000002b0: a021 473d a6b9 9f3c 0503 47bd f085 0b3d
000002c0: 5093 cbbb 66e2 c4bc 2d57 303d c033 32bd
000002d0: db4d bd3b 54ae 38bc 1c7a 1d3d ab3a 763c
000002e0: 5aec d33c 12c2 9b3c 7e1e 54bc dc81 39bc
000002f0: 3aba 35bd ecf9 ee3c ca16 2f3d d7e2 163d
00000300: 078d 1bbd 125d 1d3b f473 1bbd 72c9 f2bc
00000310: ba7f 00bd 5cb9 963c 5869 03bd 00f5 99ba
00000320: 3e6e 143b 2f27 0e3d 48b2 26bd f963 17bd
00000330: 560c 00bd a559 1a3d 118a 9ebc d501 3a3d
00000340: fa7b 9f3c c963 df3b d01e d2b9 355f 2ebc
00000350: 0c58 dd3b 5d6b 49bc 4a55 c6b9 8618 e13b
00000360: 2a7e 2cbd 092a e7bc bd11 323d 99f6 32bd
00000370: 4c5b 7dbb ec25 5a3d 2552 9f3c cacb c73a
00000380: 1b1b 3fbd 917b da3c b212 1dbd 7364 7abc
00000390: 19fa 93bc 2aa0 02bc 3f60 1a3a 38e3 353d
000003a0: a53c dc3b ef84 453d 45e5 063d a66a 0bbd
000003b0: 31cf c53c b6e2 1bbd c5ec babc 79b8 813c
000003c0: f4a0 913c f370 253d 83fa 8dbc 8ebf b438
000003d0: 1d0f e33c ac43 55bd bd6e 1f3d 9c5a 36bd
000003e0: 7384 423a 1ff8 15bc fe48 e8bc 122c e93b
000003f0: 675a 363d e2ec 80bc 12ec 02bd 581d a3bc
-0.00040307685 0.028881151 -0.04431126 -0.039621625 -0.020736014 0.014437107 -0.0010667058 0.042687733
-0.004777819 0.014246261 -0.016270604 -0.010582725 -0.051434234 -0.03565607 -0.022193346 0.0019943588
0.021284131 0.03230414 -0.03649912 -0.023444531 0.019554952 0.044706583 -0.011079909 0.04028775
-0.00867782 0.0056968397 0.0487492 -0.04994409 -0.033893183 -0.013629958 -0.020986123 0.04651624
-0.03489682 -0.024783488 -0.037613537 -0.050422747 -0.03142753 0.046279203 0.024023589 0.026093893
0.0028314346 -0.027601952 0.009108597 -0.050268434 -0.038901657 -0.0277552 0.033968557 0.031566475
-0.02387697 -0.0019426104 0.03443279 0.053522326 0.021367418 0.007273155 0.03609777 -0.031700052
0.010032425 -0.041741043 -0.037314504 -0.027811924 0.024360329 0.021651588 -0.031891186 0.016264899
0.02955566 -0.0067953146 0.0020556252 0.012474562 0.03339995 0.051695112 -0.04148898 -0.019730067
0.021158941 0.0446076 0.046850387 0.047504492 0.010714583 -0.046816755 0.0049527097 -0.03368146
-0.050174724 0.047834825 0.04093639 -0.0537051 0.010077004 -0.009069582 -0.008859674 -0.024644801
0.020703807 -0.03188855 0.019736614 0.027226409 0.03854123 0.0201307 -0.053285554 -0.034924667
0.026882216 0.011268406 -0.041998312 -0.03100108 0.05064824 0.036277134 -0.023474805 -0.013550254
-0.051286157 -0.0009676951 -0.04054333 -0.04152845 -0.002966463 0.008083538 -0.022048369 0.031946376
-0.032762643 0.048851162 0.036895305 -0.045400828 -0.013399481 0.0024293202 0.00785505 0.012769033
0.021127628 0.0032249165 -0.026269201 0.02547564 -0.051644225 -0.031910256 -0.013477306 -0.0262253
-0.018834395 -0.044126946 -0.011452199 0.01150826 -0.03507374 -0.0027629414 0.038540114 -0.0055345795
0.0014962825 -0.0046445616 0.010895846 0.034232445 0.05099802 0.03419026 0.051114704 -0.003893667
-0.048364002 -0.02552346 0.036658704 -0.0003490051 -0.026760075 -0.041256838 -0.05038458 -0.045439873
-0.0109203635 0.029525187 0.029107137 -0.051923268 0.033583295 -0.04212889 -0.011381947 -0.021829912
-0.010370057 -0.010570736 -0.048311695 -0.046485934 -0.008424572 0.00069624523 -0.024457337 0.020280803
-0.048457514 -0.0036333909 0.04734635 -0.021960165 0.04861605 0.019497704 -0.048586864 0.03406328
-0.0062126294 -0.024033736 0.043051887 -0.043506384 0.0057771034 -0.011272032 0.03844653 0.015028636
0.025869537 0.019013438 -0.012946723 -0.011322465 -0.044367053 0.029171906 0.042746343 0.036837425
-0.03797629 0.0024011773 -0.03795238 -0.029637072 -0.03137181 0.018398933 -0.032082886 -0.0011745989
0.0022648717 0.034705337 -0.040697366 -0.036960576 -0.031261764 0.037683148 -0.019352945 0.045411903
0.019468296 0.0068173152 -0.00040077278 -0.010642816 0.006754881 -0.012293664 -0.00037829048 0.0068693785
-0.042112507 -0.028218286 0.043473948 -0.043692205 -0.0038659154 0.05325882 0.01944835 0.0015243229
-0.04665671 0.02667025 -0.038347907 -0.015282738 -0.018063592 -0.007972756 0.00058889756 0.044406146
0.0067210966 0.04822248 0.032933492 -0.034037255 0.024146648 -0.038058005 -0.022817979 0.015835034
0.017776944 0.04039092 -0.017331367 8.618749e-05 0.027717168 -0.05206649 0.038923968 -0.044520006
0.0007420249 -0.009153395 -0.028355118 0.0071158493 0.04451981 -0.015737955 -0.031963415 -0.019911453

fc.0.bias f4 [64]
00000000: 37ec 383d 478c b6bc 8510 d8ba a283 e9bc
00000010: 4445 debc 2873 e03c 10ac 163d c18b 233d
00000020: 21b0 f63c 5c04 833c 3db0 863b 96b1 b4bc
00000030: 0612 513d 8527 0fbd 48f4 8ebb 6819 75bc
00000040: c7a5 47bb 3685 39bd 60c9 da3a 8c3e 0abb
00000050: d0a7 663c 819e df3c 2d32 373d d4a0 4fbc
00000060: 5d6d e33c 4944 18bd f0dd d1bc 0ad9 35bd
00000070: a002 fa3b 5980 3d3d ff75 44bc 79f2 133d
00000080: 4240 83bc f812 31bd 8946 28bd 49b1 013d
00000090: f30b 113d 1553 28bd 510b 743c 61be 7d3b
000000a0: a225 09bd 6fc2 b1bc df9f 073d d91a dd3c
000000b0: 2fe6 03bd 1449 97bc 6af2 21bd 4aac 12bd
000000c0: c923 57bc 0147 943c 6031 943c d20a d0bc
000000d0: 02e9 433d 8c36 213d 0bfe 963b b9f5 36bd
000000e0: f0a7 223d 126c 303a efcd 0cbd dbbf f43c
000000f0: 32a7 3ebd 5260 43bc 4172 973c a444 86bc
0.045147147 -0.022283686 -0.0016484415 -0.02850515 -0.027132638 0.02739866 0.036785185 0.0399282
0.030113282 0.01599329 0.0041103647 -0.022057336 0.05104258 -0.034949798 -0.0043626167 -0.014959671
-0.0030463801 -0.045293055 0.0016692095 -0.002109441 0.014078096 0.02729726 0.044725586 -0.012672622
0.02776211 -0.037174497 -0.025618523 -0.044396438 0.0076297075 0.04626498 -0.011991023 0.03611991
-0.016021851 -0.04323098 -0.041082893 0.031663213 0.035411786 -0.04109486 0.014895276 0.003871821
-0.033483155 -0.021699158 0.03311145 0.026990341 -0.032201942 -0.018467464 -0.039537825 -0.03580884
-0.01313109 0.018100264 0.01808995 -0.025395785 0.047829635 0.03935866 0.004607921 -0.044667933
0.03971094 0.0006729971 -0.03437608 0.02987664 -0.04654617 -0.01192482 0.018487098 -0.016390152

fc.2.weight f4 [64]
00000000: 0000 803f 0000 803f 0ffd 823f b8df 823f
00000010: 9b4c 833f 0000 803f 5a87 833f 0000 803f
00000020: 0000 803f 0000 803f 0000 803f 0000 803f
00000030: 700f 833f 0000 803f 276c 833f dd44 833f
00000040: 0000 803f 0d4e 833f 0000 803f 0000 803f
00000050: 854a 833f cf16 833f 2709 833f fd05 833f
00000060: 5b34 833f cd79 833f 0000 803f 0000 803f
00000070: 0000 803f 0000 803f 0000 803f 0000 803f
00000080: 521c 833f 629e 833f 0000 803f 0000 803f
00000090: 0000 803f 0000 803f 0000 803f ca0f 833f
000000a0: 0000 803f 0000 803f 910b 833f 0000 803f
000000b0: 0000 803f 3c39 833f 0000 803f 0000 803f
000000c0: 0000 803f fc26 833f 0000 803f b164 833f
000000d0: 0000 803f 0000 803f 0000 803f 0000 803f
000000e0: 0000 803f d885 833f 0000 803f 0000 803f
000000f0: 0000 803f 0000 803f 0000 803f 0000 803f
1.0 1.0 1.0233477 1.0224524 1.0257753 1.0 1.0275681 1.0
1.0 1.0 1.0 1.0 1.0239086 1.0 1.026738 1.025539
1.0 1.0258194 1.0 1.0 1.0257117 1.0241336 1.0237168 1.0236202
1.0250353 1.0271546 1.0 1.0 1.0 1.0 1.0 1.0
1.0243018 1.028271 1.0 1.0 1.0 1.0 1.0 1.0239193
1.0 1.0 1.0237905 1.0 1.0 1.0251842 1.0 1.0
1.0 1.0246272 1.0 1.0265104 1.0 1.0 1.0 1.0
1.0 1.0275221 1.0 1.0 1.0 1.0 1.0 1.0

fc.2.bias f4 [64]
00000000: 9edf f53d a513 03be bdb9 e73d 1c60 b7bd
00000010: a6fa eb3d 5d7a 00be 061a fdbd fa69 023e
00000020: ebaa 013e 64f5 01be 7358 013e 1f05 f9bd
00000030: e934 a9bd 4880 003e 1152 e33d c34c e13d
00000040: 0650 023e 52f0 c23d fb48 02be 852d e13d
00000050: b054 d13d f15e 53bd 24e2 03bc 4f6d 1cbd
00000060: f2e8 de3d bd4f cc3d f8e5 003e a272 00be
00000070: 8a07 cebd 9a4d f8bd 57dc 013e 06ce 01be
00000080: 1b2b 913c f4f2 ddbd 89cd f93d 05e0 f23d
00000090: 64b6 05be 4377 e9bd ad89 fe3d ebf4 723d
000000a0: fd28 fdbd f7a9 003e 7706 9cbd 6aa4 02be
000000b0: 6cb2 fdbd 1929 efbd 83e8 f9bd fb3c 00be
000000c0: 8c03 fb3d 4801 e83d cbb7 01be 14b1 953d
000000d0: e81a 013e 775f 01be e337 033e 4d72 023e
000000e0: 77b3 f0bd 6f80 e83d ed48 ff3d 856e fd3d
000000f0: 50e5 e4bd ee0e d5bd d773 013e 333f f83d
0.12005542 -0.12800463 0.11314724 -0.08953878 0.11522417 -0.12546678 -0.12358479 0.1273574
0.12662856 -0.12691265 0.12631397 -0.1215918 -0.08262045 0.12548935 0.11099637 0.11000969
0.12725839 0.09518494 -0.12723152 0.1099501 0.10221231 -0.051604215 -0.008049522 -0.038190182
0.108842745 0.09976146 0.12587726 -0.12543729 -0.10060032 -0.12124176 0.12681709 -0.12676248
0.01772075 -0.10837355 0.12197406 0.118591346 -0.13057858 -0.113997005 0.12428603 0.059315603
-0.123613335 0.12564836 -0.076184206 -0.12758031 -0.12387547 -0.11677761 -0.12202551 -0.12523262
0.12256536 0.113283694 -0.12667768 0.073091656 0.1260792 -0.12634073 0.12814288 0.12738915
-0.1175298 0.11352622 0.12465081 0.123745956 -0.111765504 -0.10403238 0.12641846 0.12121429

fc.2.running_mean f4 [64]
00000000: 0000 0000 0000 0000 b24e c546 7ef3 fb46
00000010: f539 0847 0000 0000 6d27 2245 0000 0000
00000020: 0000 0000 0000 0000 0000 0000 0000 0000
00000030: 9242 2047 0000 0000 c835 ed46 125c 9046
00000040: 0000 0000 3278 9b45 0000 0000 834c 0c28
00000050: 3906 7446 bab3 dc46 94b1 4947 2d54 a346
00000060: 90c8 0e47 3653 4847 8e7f 491f 99f1 211c
00000070: 0000 0000 0000 0000 0000 0000 0000 0000
00000080: 1220 2a47 da40 1c47 f324 521f 9429 4e28
00000090: 0000 0000 44d3 7328 0000 0000 f221 5346
000000a0: 0000 0000 0000 0000 8d4e 1247 b4a5 dd1d
000000b0: 84d1 b128 fcf5 1544 0000 0000 0000 0000
000000c0: adc3 e91f f8e5 d546 0000 0000 65e0 0846
000000d0: 0000 0000 9e60 cb1e 0000 0000 0000 0000
000000e0: 0000 0000 2c81 4e46 0000 0000 70b9 4625
000000f0: 0088 881f dbc5 0520 0000 0000 0000 0000
0.0 0.0 25255.348 32249.746 34873.957 0.0 2594.464 0.0
0.0 0.0 0.0 0.0 41026.57 0.0 30362.89 18478.035
0.0 4975.0244 0.0 7.788152e-15 15617.556 28249.863 51633.58 20906.088
36552.562 51283.21 4.2668916e-20 5.358269e-22 0.0 0.0 0.0 0.0
43552.07 40000.85 4.4499793e-20 1.1444313e-14 0.0 1.3535021e-14 0.0 13512.486
0.0 0.0 37454.55 5.8669546e-21 1.974181e-14 599.8435 0.0 0.0
9.900306e-20 27378.984 0.0 8760.099 0.0 2.1533421e-20 0.0 0.0
0.0 13216.293 0.0 1.7236591e-16 5.7823234e-20 1.1331003e-19 0.0 0.0

fc.2.running_var f4 [64]
00000000: eb6b 3a19 eb6b 3a19 5cac 0c45 7f7d 4f45
00000010: a1fb 4245 eb6b 3a19 1ac2 1e45 eb6b 3a19
00000020: eb6b 3a19 eb6b 3a19 eb6b 3a19 eb6b 3a19
00000030: 2412 4445 eb6b 3a19 af4d 4845 b4b1 1f45
00000040: eb6b 3a19 fbd6 6c45 eb6b 3a19 eb6b 3a19
00000050: cab9 6145 60aa 4545 8e51 8645 7abe 7345
00000060: c1f6 1b45 c8f0 ae45 eb6b 3a19 eb6b 3a19
00000070: eb6b 3a19 eb6b 3a19 eb6b 3a19 eb6b 3a19
00000080: c81b 4545 408c 1d45 eb6b 3a19 eb6b 3a19
00000090: eb6b 3a19 eb6b 3a19 eb6b 3a19 7d2e 2045
000000a0: eb6b 3a19 eb6b 3a19 d271 ff44 eb6b 3a19
000000b0: eb6b 3a19 1c98 4c45 eb6b 3a19 eb6b 3a19
000000c0: eb6b 3a19 6e0d 4b45 eb6b 3a19 99c3 6f45
000000d0: eb6b 3a19 eb6b 3a19 eb6b 3a19 eb6b 3a19
000000e0: eb6b 3a19 0556 c844 eb6b 3a19 eb6b 3a19
000000f0: eb6b 3a19 eb6b 3a19 eb6b 3a19 eb6b 3a19
9.6377685e-24 9.6377685e-24 2250.7725 3319.8435 3119.7268 9.6377685e-24 2540.1313 9.6377685e-24
9.6377685e-24 9.6377685e-24 9.6377685e-24 9.6377685e-24 3137.1338 9.6377685e-24 3204.8552 2555.1064
9.6377685e-24 3789.4363 9.6377685e-24 9.6377685e-24 3611.6118 3162.6484 4298.1943 3899.9048
2495.422 5598.0977 9.6377685e-24 9.6377685e-24 9.6377685e-24 9.6377685e-24 9.6377685e-24 9.6377685e-24
3153.7363 2520.7656 9.6377685e-24 9.6377685e-24 9.6377685e-24 9.6377685e-24 9.6377685e-24 2562.9055
9.6377685e-24 9.6377685e-24 2043.5569 9.6377685e-24 9.6377685e-24 3273.5068 9.6377685e-24 9.6377685e-24
9.6377685e-24 3248.8394 9.6377685e-24 3836.2249 9.6377685e-24 9.6377685e-24 9.6377685e-24 9.6377685e-24
9.6377685e-24 1602.6881 9.6377685e-24 9.6377685e-24 9.6377685e-24 9.6377685e-24 9.6377685e-24 9.6377685e-24

fc.3.weight f4 [64, 64]
00000000: d7cf 66bd 1d17 873d fd23 e5bd cc14 72bc
00000010: ca84 8cbc e739 e63d 93c0 153c 6561 b9bd
00000020: 218b e6bd c1ef 373d b887 eabc 7594 cf3d
00000030: dbe8 31bd ccd5 ab3c ced9 8f3c 3381 10bd
00000040: fc2a 5f3d d1ea 56bd 0954 1a3c d9d1 1abd
00000050: 597c 8e3d 5fed abbd 6473 513d f07b 043b
00000060: 3031 953c 8a67 3cbd 6921 91bd facc 003e
00000070: 7033 3b3d 3538 ed3d e348 4e3d febd 943d
00000080: b5d7 8b3b bd95 9bbd 1825 af3c 46cf f03c
00000090: 90b1 70bd 182c c13d c278 b43c c036 96bd
000000a0: c7dd 8c3d 8899 d03d 19bd 2b3c 9b69 29bd
000000b0: 5e4e 00bc 2e30 853d 89a9 aebb 8a06 f6bc
000000c0: d0c9 3bbb 7887 cdbd ddfc c6bd 7454 afbd
000000d0: 83a6 e83d 9aae 99bd ef6c d43d 8a22 2fbc
000000e0: e263 e73d 45b2 56bd 0f19 babd 4407 473d
000000f0: d1b7 c03d 63d5 cc3d fbd4 ed3d 01b9 3bbd
00000100: c1ea 143e 4238 52bd 7506 b83c 397b 00bd
00000110: cab1 d83d d1ea 60bd 47e1 28be 70ec a73c
00000120: abb7 5f3e 1d06 09be 80a7 073e 6997 6abd
00000130: 8903 99bc 1106 af3d c3c6 dd3d d977 dc3d
00000140: 6cd4 273e cebe 143e 64eb c0bd 8f1d 3c3e
00000150: 0b0c 273e a998 f3bd e28c eabd d1f5 98bd
00000160: 8d37 c53c 0fcb 1f3d 69b0 ef3c 983c 76bc
00000170: 7728 ddbc fda8 67be 9219 633e d047 8abd
00000180: 8b29 f9bc c11b c0bd d337 293e bd8d 63bd
00000190: f861 7cbe 50a2 db3c 1f9d 033e 09ca 843d
000001a0: 5374 55be 8f10 a33d 144a ddbd 9325 b3bd
000001b0: 5e2b 13be c341 3d3c 2e96 59be d9f4 09bd
000001c0: 1237 8c3d 2019 073c 80bb 79bd f4d0 943d
000001d0: 6530 f03d 022a 65bc a961 063e eaeb cb3d
000001e0: 9663 a8bd e0be ffbc 61c4 fd3c bb71 e9bb
000001f0: 54b2 34be d566 08be 190e 603e 59df 543e
00000200: ac1e df3b ce48 71be f606 273e 598e d9bc
00000210: 8167 d1bd 10ac 59be 426e 6abd 0d74 783e
00000220: b82d e03d 8402 97bd 51c3 253e 6570 71be
00000230: 5067 81bd 75dc c03b 539e 253e 9784 2e3d
00000240: 7e69 033e 181c adbc 60ce 49bd 4e67 ca3c
00000250: 6096 213e a487 fb3d fd17 18be b708 24bc
00000260: 96f1 fc3d 454b 123e 4d64 b83c 3dcd 4fbe
00000270: 6e76 dabc 7aae 63be ae1c 113e 23fd 51bd
00000280: aa6a 903d 165f c73c 8d86 0b3e 8b48 213e
00000290: 935b 4dbe 2f8d 0ebe de2b ee3d 4a00 523d
000002a0: 0958 45be 8dd3 983d ddb3 95bd 2020 88bd
000002b0: 1805 4abe bb26 9f3d 0bfb 76be 9462 e6bd
000002c0: a916 68bc b013 c93d 3397 c1bd a222 853d
000002d0: 6a14 003e ba88 fd3b 12cd 383e ca5f 4b3e
000002e0: fa7a c2bd 60ce 1bbd 34dd 153d 4bdc 063c
000002f0: 8307 f9bd 5526 04be 7ffa 113e 03c3 9c3d
00000300: 254a 013e f673 fc3c 6855 763d dcb0 01be
00000310: ca85 ab3d 52f4 89bd 283c cebd c8ad 99bc
00000320: be6b c73d 055f 19be dfc1 06bc 28f0 44be
00000330: 840c 013d a84c be3d b5a0 183e 3a33 523c
00000340: fae5 cc3d 25df 8f3c 5cb9 1cbe 64d1 a5bc
00000350: b72c 4a3b 2830 993d 21c8 013e e451 123e
00000360: 7b48 52bc e55a a3bd e667 e13b 919c 46be
00000370: 371f 1f3d 9f7f cc3a a1b4 263e 5335 aabd
00000380: efc4 b73d 0cb4 b4bc 5341 bc3d 8940 eb3d
00000390: 3a00 e9bd a944 abbd be54 0dbc 9b0b 033e
000003a0: 8f98 51bd 7bf2 0c3c ff31 14be c08a 46bd
000003b0: 6270 c4bd 763e 913d d443 f9bc 5bb7 e4bd
000003c0: 2c27 2f3e d149 9b3b 5095 f3bd 4b7b 83bd
000003d0: a3a9 ef3d c7bc f0bd 2b29 8d3d ede2 d93c
000003e0: 03af 633c 72c3 373e a064 f43d 4226 943d
000003f0: ea66 2ebd 8922 1abe 54ed 2d3d f043 e4bc
-0.056350555 0.065962054 -0.11188505 -0.014775466 -0.017153163 0.11241513 0.009140152 -0.0905178
-0.112570055 0.04490638 -0.028629169 0.10135738 -0.04343496 0.02097597 0.017559912 -0.035279464
0.054484352 -0.052470032 0.00941945 -0.037797783 0.06957311 -0.08394884 0.051135436 0.0020215474
0.018211931 -0.04599718 -0.070864506 0.12578192 0.04570335 0.11582986 0.05036248 0.07262801
0.0042676576 -0.0759692 0.021379992 0.02939571 -0.058763087 0.09432238 0.022030238 -0.073346615
0.06878238 0.10185534 0.010482096 -0.04136048 -0.007831184 0.0650333 -0.0053302688 -0.030032415
-0.0028654225 -0.10035604 -0.097161986 -0.0856103 0.113598846 -0.07504006 0.1037234 -0.010689387
0.11298348 -0.052416105 -0.09086811 0.048590913 0.0941006 0.10001638 0.116128884 -0.04583073
0.14542677 -0.051323183 0.022464016 -0.031367514 0.105807856 -0.05491144 -0.16492186 0.020498484
0.21847408 -0.13381238 0.1324749 -0.057273302 -0.018678444 0.08546079 0.108289264 0.107650466
0.16389626 0.14525911 -0.09419897 0.1837065 0.16313188 -0.11894352 -0.114526525 -0.07468761
0.02407434 0.03901201 0.029258924 -0.015029095 -0.026996834 -0.22623058 0.22177723 -0.067519784
-0.030415317 -0.09380294 0.16525201 -0.055555094 -0.24646747 0.026810795 0.12852906 0.06483848
-0.20845155 0.07962143 -0.10805145 -0.08747401 -0.14372012 0.011551323 -0.21248695 -0.03368077
0.06846441 0.008245736 -0.06096983 0.07266417 0.117279805 -0.013987066 0.13123192 0.099571064
-0.082221195 -0.031218946 0.03097743 -0.0071241534 -0.17646152 -0.13320477 0.21880378 0.20788325
0.0068090763 -0.23562929 0.16311249 -0.026557134 -0.1022482 -0.21257043 -0.057234056 0.2426302
0.1094622 -0.07373527 0.16187789 -0.23578031 -0.063185334 0.0058856555 0.16173677 0.042606916
0.12833211 -0.02113156 -0.04926908 0.024707463 0.1578002 0.12281731 -0.14852901 -0.010011843
0.12350766 0.14286526 0.022508765 -0.20293136 -0.0266678 -0.22234526 0.14171097 -0.0512668
0.070515946 0.024337333 0.13625546 0.15750329 -0.20054464 -0.13921045 0.11629461 0.051269807
-0.19271864 0.07462225 -0.07309697 -0.06646752 -0.19728506 0.07771059 -0.24119203 -0.11249271
-0.014165559 0.09818208 -0.09452667 0.06500746 0.12507787 0.0077372463 0.18046978 0.1986076
-0.09496112 -0.03803861 0.03658791 0.008231233 -0.12159636 -0.12905248 0.14255713 0.07654383
0.1262594 0.030817013 0.060140043 -0.12665123 0.083751276 -0.067360535 -0.10070068 -0.018759623
0.09737347 -0.14977653 -0.008224933 -0.19232237 0.031506076 0.09291965 0.14905055 0.012829596
0.10004802 0.017562458 -0.15305084 -0.020241447 0.0030849406 0.07479888 0.12674 0.14289051
-0.0128346635 -0.07976321 0.0068788407 -0.19395663 0.03884813 0.0015601999 0.16279842 -0.08310952
0.08973109 -0.02205851 0.09192147 0.114869185 -0.11376996 -0.08362705 -0.008626161 0.12797396
-0.05117088 0.008602734 -0.14472197 -0.048472166 -0.09591748 0.070919916 -0.03042785 -0.11167785
0.17104787 0.004739024 -0.118937135 -0.06420001 0.117022775 -0.117547564 0.06892618 0.026597464
0.0138967065 0.1794565 0.11933255 0.072338596 -0.042578615 -0.15052237 0.04246266 -0.027864426

fc.3.bias f4 [64]
00000000: 8afa c2bd 5e94 1c3e 1ed4 c63d 868d 19bd
00000010: a701 1e3e 758d 983d e2ff d13d dae5 b6bd
00000020: 6eb4 313e 9436 663e 58ef 603e b60a 273e
00000030: 65f0 c33d a022 7bbc 49a5 073e 07cf 4c3d
00000040: 2f44 193d a78c 1d3e c791 063e 1b20 a93d
00000050: 8fd3 54bc 19aa 83bd 7e3e d3bd e835 083e
00000060: 5124 9a3c a663 c13d af56 303b f7c0 313e
00000070: 2c69 563d da04 5c3e 6740 7a3d 9452 343d
00000080: 74c4 2b3e bea2 893d 294a 713d fd90 c33d
00000090: 751d 74bc 8f24 053e 5075 963d 96df b6bd
000000a0: df81 3f3d 154b 08bc 3df9 9abd d2e9 8bbc
000000b0: 9982 3b3e 076d a93d 3c16 b8bb a231 983d
000000c0: b69f c2bc 0978 1d3e de49 323e bbe3 503e
000000d0: 1b71 2a3c 09c6 a83d b8ae fabc 6133 313e
000000e0: 2ff0 4e3e 2000 413e 323b 563e 572f 263e
000000f0: c4d3 2f3e 0fd8 e7bc 3cbd 833d dfa6 1a3e
-0.09520443 0.15290973 0.09708427 -0.037488483 0.15430318 0.07448856 0.10253884 -0.089305595
0.17353985 0.22481757 0.21966302 0.1631268 0.09567336 -0.015328079 0.13246645 0.050002124
0.03741854 0.15385686 0.13141547 0.08258077 -0.012989893 -0.06428928 -0.10314654 0.13301814
0.018816145 0.094428346 0.0026907136 0.17358766 0.052346393 0.21486226 0.061096575 0.044024065
0.1677416 0.06720494 0.058908615 0.09549139 -0.014899601 0.13002227 0.07346594 -0.089293644
0.046754714 -0.008318682 -0.0756707 -0.017079268 0.18311538 0.082727484 -0.005617885 0.07431342
-0.023757797 0.15377821 0.1741099 0.20399372 0.010402943 0.08240897 -0.03060089 0.17304756
0.2020881 0.18847704 0.20921019 0.16228996 0.17170626 -0.028301267 0.06432578 0.15102719

placing_layer.0.weight f4 [4, 64]
00000000: eab0 583d f0cf d13c 3ac7 08bc 54bd 233e
00000010: 8ca2 553e 205a f73d b4d6 213d c315 91bd
00000020: 437c ef3d 2326 883d 47ab 80bc 3dd8 c2bc
00000030: 4ba8 903d 4ecc 223e d30a d33d bf4a 8c3d
00000040: 90e9 903d 2705 553e 7c1c 473e fbda 7e3c
00000050: e4b7 fc3d 69b3 463d b0a7 173e 991e 2d3e
00000060: de6b e03b f49c f13c 22c8 c53d f10f 443e
00000070: 3109 2e3e 9561 433d 7632 433e c850 033e
00000080: 189a 373e 5e0e 253e 2429 a93d 0e64 623d
00000090: 4607 273e 73c5 093c 3948 a0bc dbdc 133e
000000a0: 4a7e b4bb 5c7e f43d caad 2abc 0d6d a03d
000000b0: e28d c53d 89ab 4b3e edf3 873b 5a10 c9bb
000000c0: 6a09 9a3d 5756 313d 6bbb 71bc f5b6 383d
000000d0: ab22 e53d c99c 983c 530a 45bc a555 573b
000000e0: 52c3 db3b 244d 013e 5763 993b 5a6b 923d
000000f0: 7d07 063e b574 22bd bba1 f33d fcf5 b23d
00000100: 284c 9d3b c7bf 213c 0be7 403e e1b0 213e
00000110: ca10 e63d 3f02 993b 63b5 163e 182a 10bd
00000120: 6735 8dbc b199 633e ce63 203e 27cd 473d
00000130: 304a 393e c2c0 813d 3482 0c3e afc9 aa3d
00000140: 9bd8 253e e3d1 463e f5e5 c03d 8d52 203e
00000150: f274 d23d 6855 dd3d d785 073d 5dc4 e33c
00000160: 2505 373e 05b6 293e 216d 4ebd fb59 033e
00000170: eae8 4f3e e3af 323e 9d75 253e c120 2b3e
00000180: 320c e9bb 96f9 ad3c fa1b 3e3e ba97 d83d
00000190: 7017 5f3c 3874 533e 4981 1f3d 715b f03d
000001a0: a4ef 3b3d 444c 283e 3ee9 c13d 902e 19bd
000001b0: 0f15 133e 1b26 1e3d 124d c53d 44da d03d
000001c0: 7c59 f13d 9fe4 9c3c d948 293e be49 2a3e
000001d0: 4c73 69bd 9d68 2e3e b5fa 743d a7fd 523e
000001e0: c2f9 4c3d f6aa 2f3c 2e52 d33d ec99 fd3d
000001f0: 70e6 003e 5dab 5b3d 15ff 8cbc 738c 923d
00000200: 2601 9c3d 4023 cbbd cd8e ba3d 51dc 5bbc
00000210: 28d7 61bd ec2e 51bd a280 b63d e7e5 f2bd
00000220: 5142 fcbd 578a 0bbe 2a59 00be 8c40 b53c
00000230: 056f c6bd b40a 7c38 7d0e 3a3d d917 e1bd
00000240: 8b1e 363d 4b54 47bd 9170 0cbe d881 b03c
00000250: 6f50 ca3d f54f 01bd 971b 9dbb 4af8 6d3d
00000260: db39 98bd a127 ab3b ac60 363c 988a 2c3a
00000270: ca85 71bc 991c f5bd face b1bd d3aa 0dbd
00000280: cf6a e0bd fc46 90bd bd16 313c 5611 4abc
00000290: 5401 a73b a08e 8fbd 4e28 ee3c fd5b f6bd
000002a0: ca38 673d 110a 133c 6128 893d 7add 463d
000002b0: e5c7 273c 3803 1ebd 2107 a4bc 97aa b73c
000002c0: 69ba 9d3d 5ba5 113d 3988 e1bb b510 dabd
000002d0: 914b 033d 16b1 463d 8b78 683d 810d 98bc
000002e0: 0f9a a83d 9793 943d 6995 53bd c15c aa3d
000002f0: 1167 2e3d 89df 3dbd 695c 3a3d 78bc 923d
00000300: dd55 023d 59e0 7abd d021 ccbc 80c4 82bb
00000310: 90f5 c2bc 1c1d adbd e09f 1dbd 9c28 453d
00000320: 6c85 a73d b7cf d1bc f8aa c53a cd9b ed3d
00000330: f0bb d5bd e8d2 dbbc 603b f0bd f005 3dbc
00000340: 3d25 adbd 9659 c2bd 7ae8 283d 424d 8ebd
00000350: d2d8 873d 8c9e 9f3d 23ed 263d 8088 943c
00000360: 44e2 5c3d d4f9 bf3d 60c4 41bc 46fb 98bd
00000370: 4dfd dfbb c24e a4bd 8ca3 2a3d e700 55bc
00000380: e352 eebd 3cab fabd 6c05 adbd 6c91 873d
00000390: 7339 9abd 7017 893d b402 9f3d e053 723c
000003a0: fd64 8a3d e830 c93c 8c04 19bd ecf0 743d
000003b0: 6e78 7d3d dee6 703b 2eaa c9bd 0227 b6bd
000003c0: b294 bd3d abde 73bc 061f 1bbd 5532 d8bd
000003d0: 0bce 443d 0da3 933d c6eb 9dbd e478 2b3d
000003e0: 84c7 9bbc 5006 eabd eb7e df3d be90 d3bd
000003f0: bf80 333d aef2 2bbd 70b4 84bd ae58 84bd
0.052903093 0.025611848 -0.008348281 0.15990192 0.20862788 0.12077737 0.039511397 -0.07084229
0.11693623 0.06647899 -0.015706671 -0.023784751 0.07063349 0.15898249 0.10304799 0.06850194
0.070757985 0.20802747 0.1944446 0.015555139 0.12339762 0.048510943 0.14810061 0.16906203
0.0068487963 0.029493786 0.09657313 0.19146706 0.16995694 0.047700483 0.19062218 0.12823784
0.17929876 0.16118762 0.082598 0.0552712 0.16311368 0.008408892 -0.019565688 0.14439718
-0.005508219 0.11938164 -0.010417411 0.078333 0.096462026 0.19889654 0.0041489513 -0.0061359825
0.07521327 0.04329523 -0.014754157 0.045096356 0.11188253 0.018629448 -0.012026387 0.0032857445
0.0067066336 0.12627083 0.0046810317 0.07149382 0.13088794 -0.03966208 0.11896082 0.08738324
0.0048003383 0.009872383 0.18838136 0.1579013 0.11233671 0.004669457 0.14717631 -0.035196394
-0.017237378 0.22226597 0.15663072 0.048779633 0.18094707 0.06335594 0.13721544 0.08339249
0.1619591 0.19416003 0.09418861 0.1565649 0.10276212 0.108073056 0.033086624 0.027803594
0.17873056 0.16573341 -0.050397042 0.12827294 0.20303693 0.17449908 0.16158147 0.16711713
-0.0071120495 0.021237176 0.1856536 0.105758145 0.013616428 0.20649803 0.038941655 0.11736191
0.045882836 0.16435343 0.094683155 -0.03739792 0.14363502 0.03861056 0.096338406 0.10197881
0.11784646 0.019151984 0.16531695 0.16629693 -0.05699472 0.17032094 0.059809405 0.20604573
0.050042875 0.010721913 0.10318409 0.12382874 0.12587905 0.05363022 -0.017211476 0.07155695
0.076174065 -0.09918833 0.09109268 -0.013419227 -0.05513683 -0.05107014 0.089112535 -0.11860257
-0.12317336 -0.13626991 -0.12534013 0.022125505 -0.09689144 6.009145e-05 0.045423973 -0.10990877
0.04446272 -0.048664372 -0.13714816 0.02154629 0.09878623 -0.031570394 -0.0047945487 0.058098115
-0.0743291 0.00522323 0.011131447 0.00065819314 -0.01474137 -0.11968345 -0.08682056 -0.03458674
-0.10957872 -0.07044789 0.010808644 -0.012333235 0.005096594 -0.070096254 0.029071953 -0.12029264
0.056450643 0.008974568 0.06697155 0.04855106 0.01024053 -0.03857729 -0.02002293 0.02242021
0.077015705 0.035558086 -0.006882694 -0.10647718 0.032054488 0.048508726 0.056755584 -0.018561127
0.08232509 0.07254713 -0.05165616 0.08318473 0.04257876 -0.046355758 0.045498285 0.07164854
0.031820167 -0.06124911 -0.024918467 -0.00399071 -0.023798734 -0.08452818 -0.038482547 0.04813443
0.08179745 -0.025611741 0.001508086 0.11601982 -0.10436237 -0.026833966 -0.11730075 -0.01153706
-0.08454368 -0.094897434 0.041237332 -0.069483295 0.06633152 0.07793912 0.040753495 0.018131495
0.05392672 0.09373823 -0.011826605 -0.074698016 -0.0068356157 -0.08022834 0.041659877 -0.013000703
-0.11636903 -0.122396916 -0.084483 0.06619534 -0.07530489 0.066939235 0.077641875 0.014790505
0.06757543 0.024559453 -0.037357852 0.059800074 0.06188243 0.0036758701 -0.09846912 -0.08894159
0.09256877 -0.014884631 -0.037871383 -0.10556475 0.04804806 0.07208834 -0.07710986 0.041863337
-0.019016035 -0.11426985 0.109128796 -0.10330342 0.043823954 -0.041979484 -0.06479728 -0.06462227

placing_layer.0.bias f4 [4]
00000000: cc98 ca3d ef28 803d 198c 19bc 7f2c e2bc
0.09892425 0.062578075 -0.009371781 -0.027609108

placing_layer.1.weight f4 [4, 64]
00000000: 6b6d 14bd 4d3c bd3d d204 f1bb 0ed6 293e
00000010: 5f8d d73d 4da9 603c 398d 5d3e 807e fa3d
00000020: b816 e83b b633 073c e35d 363e e94e a03d
00000030: d63d 293c 2016 353e cfce 083e b35d 493e
00000040: 1534 c43d d6d0 1b3d 7933 163e aaee 62bb
00000050: 603c 323e 8eff ca3d f70a b3bd 44a9 223e
00000060: 6836 343d a47d 983d 5ad9 593d 9021 003e
00000070: 234e da3d 5ad3 583d 8a45 13bb f1ec 1f3e
00000080: 63c6 a7bc aa71 5a3e 2853 423e b0a1 b73d
00000090: f2fd 253e 7850 c13d 09ea 373e 79fe 08bd
000000a0: d5a9 8b3d 1fe7 f0bc 6cc4 f13d 62fe d63d
000000b0: ad9c 503e 2b71 473e eb16 013e 93e1 a13d
000000c0: 4d8a 033c ee98 f03d 4b45 5a3e 9021 5f3e
000000d0: 717c 0c3e a5a0 263d fb2d 0b3e ae1e 8bbc
000000e0: 842c eb3d 399c 3e3e e1fe c33d bcf6 3f3e
000000f0: 0c2a 9f3d b9cc 1d3e 4b29 6dbd 7b1b 153e
00000100: d2c0 da3c 04e1 743d df62 39bd 2e22 27bd
00000110: a004 c73d 4d24 b43d 12d4 9bbd 0bcd d9bd
00000120: a32f cf3d 30e0 cc3c 98bc 843d 300f 09be
00000130: c287 283d 565d febd 5e96 28bd 0d9f 2fbd
00000140: 9b92 b0bd b919 cbbd 3f5c cdbd d151 cdbc
00000150: de4b dabd 8a8b 77bd 6ad1 85bd 293a 32bd
00000160: 0994 be3b 5f37 e1bd 0965 d83d 5aea 12be
00000170: 8e8c 333d 5a3c 0bbe 97f9 1cbd 465a bcbc
00000180: a5e1 b93d 9eb4 f9bd 08bf aebd 9213 cebc
00000190: 209c 02be 825f dd3b 1b16 1cbc 8a3f 1a3d
000001a0: 248b 00bd c30b be3c 7215 243d b228 8f3d
000001b0: 68d1 103d 510b a93d fa9b 8e3d 3160 f7bc
000001c0: 099c 963d 559b 1d3c bc26 153d f6e9 eabd
000001d0: c3be 4d3d b175 3abc 06f3 cabd 8dbd 85bd
000001e0: 0de0 4bbd 6fa3 9abd dcbb c7bc 8784 cdbd
000001f0: 62de 6f3d e672 24bd 6269 36bc 9835 033d
00000200: 0b37 9c3d 95d8 abbd 81c3 30bc bcc1 8dbd
00000210: bb35 a5bd 7fb1 f23d e449 0a3e c3c0 75bd
00000220: ea7c 3abc 4566 cd3d 8a72 1d3e 9ac0 123e
00000230: 3f91 e13d b31e 8fbd f6ef 08bd 8063 0a3e
00000240: 108d a9bd fc30 4fbc 9698 77bd f50c 77bd
00000250: 2dce 8b3d 738f c1bb 8086 aebd 96c4 74bd
00000260: c0e6 103e cfc3 103e a64b c33d da27 c23d
00000270: 5215 0fbd b643 0abc 0772 073d b479 b03d
00000280: c733 143d 4511 8d3d 65f8 01bd 3ce2 f5bb
00000290: 0368 9a3d 09df 9ebd b0c4 333d 8e9f 103e
000002a0: a9f8 4bbd 1809 1f3c 397e 67ba 4bcd 55bc
000002b0: ce0c e43d 7efe 843d 87bc 1f3e 0e4e 683b
000002c0: 4fa0 ac3d d7de 923d 16f8 00bd 87a0 b0bd
000002d0: 466f ce3d fe09 44bd b4b0 24bc e80b 313c
000002e0: 2828 a5bd 960c f03d 7ab1 e83b 78e2 e3bc
000002f0: 89ec 98bd ade1 4b3d d671 113d d88b 983c
00000300: 33c2 52bd b790 c93c 7468 47bd 0b36 e3bb
00000310: 3754 7c3d cfde 4c3c 56b5 dbbd 6952 e8bc
00000320: 9ad1 94bd 0a83 a9bc c100 483d 59df 16bd
00000330: 4639 84bd 854c 96bd 6b90 273d 7e64 5ebd
00000340: 251a 66bc 8601 57bd 6f2e dfbd 437e ff3c
00000350: bbf7 a33d 982f 9dbd 95de d43a a760 613c
00000360: 75d3 7ebd 6e2c 34bd 906a d4bc e251 4a3d
00000370: 32ff cebc 2704 1abe 6eca 69bd 22b9 98bd
00000380: b23a 0dbd 8eea b4bd a7ef 183c 78b3 39bd
00000390: 192c 86bd ae3d 20bd 3899 edbd 0db2 85bd
000003a0: d54b 533d a88d b6bc 530c 7f3d a777 c63c
000003b0: d265 4f3d cba4 b43d 0c28 993d a2cb 6ebd
000003c0: a78f 91bd bd3a 913d 5b49 353d 26fa 9f3d
000003d0: f5c1 d03d 04ec 7f3d feeb 56bb a5df e5bc
000003e0: 74e8 c2bd 7eff bb3d d105 c7bd 607c 543d
000003f0: 3cfa 29bd 74fa a6bd 5d77 ddbd 034a ef3b
-0.03623716 0.09240017 -0.007355311 0.16585562 0.10525011 0.013712239 0.21635903 0.12231159
0.0070827864 0.008252075 0.17809252 0.07827551 0.010329684 0.17684221 0.13360141 0.1966465
0.09580246 0.03804096 0.14668073 -0.0034627118 0.17405844 0.099120244 -0.08742326 0.15884882
0.0439972 0.07445839 0.0531858 0.12512803 0.10659435 0.052935936 -0.0022471868 0.1561773
-0.02048034 0.21332422 0.18977034 0.08966386 0.16210154 0.09439176 0.17960371 -0.03344581
0.06819502 -0.029407082 0.118050426 0.104977384 0.20372267 0.19476764 0.12606399 0.07904353
0.008028579 0.11747919 0.21315496 0.21790147 0.13719346 0.040680546 0.13591759 -0.016982403
0.114831 0.18614282 0.09570099 0.18746465 0.07771692 0.15410127 -0.05790071 0.14561264
0.026703272 0.059784904 -0.045260306 -0.04080408 0.09717679 0.08795986 -0.076088086 -0.10634812
0.10116508 0.025009245 0.06481284 -0.133847 0.041145094 -0.12420146 -0.041159026 -0.042876292
-0.08621713 -0.099170156 -0.1002736 -0.025063427 -0.10659002 -0.06043581 -0.06534083 -0.043512497
0.005815987 -0.10996889 0.10566146 -0.1434721 0.043835215 -0.13597241 -0.038323965 -0.022992264
0.090762414 -0.12192653 -0.0853253 -0.025155816 -0.1275487 0.00675577 -0.009526755 0.03765825
-0.031382695 0.023198968 0.040059514 0.06990184 0.035355955 0.082541116 0.06963344 -0.030197235
0.0735398 0.009619554 0.036413893 -0.11470406 0.050230753 -0.011380599 -0.09909634 -0.065302946
-0.04977422 -0.07550704 -0.02438157 -0.10035043 0.05856169 -0.04014864 -0.011133524 0.032033533
0.07627686 -0.08390919 -0.010788799 -0.069217175 -0.08066889 0.11850261 0.1350475 -0.059998285
-0.011382321 0.10029272 0.15375724 0.14331284 0.110140316 -0.06988277 -0.03343197 0.13514519
-0.08278859 -0.012645956 -0.06044825 -0.06031509 0.06826434 -0.005906993 -0.085217476 -0.05975779
0.14150524 0.14137195 0.09535913 0.09480257 -0.034932442 -0.008438995 0.03306773 0.08616963
0.03618219 0.068880595 -0.031731028 -0.007503776 0.0753937 -0.07757384 0.043888748 0.14123365
-0.049797688 0.009706758 -0.00088307593 -0.013049434 0.11135255 0.06493853 0.15599261 0.0035446915
0.08429014 0.071714096 -0.031486593 -0.08624368 0.100798175 -0.04786109 -0.010051895 0.010806061
-0.080643 0.117211506 0.007101235 -0.02781795 -0.074669905 0.049775768 0.035508953 0.01862137
-0.051454734 0.024605138 -0.0486836 -0.0069339327 0.06160375 0.012504294 -0.107279465 -0.028359609
-0.07266541 -0.020692367 0.048828844 -0.036834095 -0.064562365 -0.07338814 0.040909212 -0.054295056
-0.014044319 -0.052491687 -0.108975284 0.031188136 0.08006235 -0.076750934 0.0016240651 0.013755954
-0.06221338 -0.043987684 -0.02592972 0.049394496 -0.025268171 -0.15040646 -0.057077818 -0.07457186
-0.034479804 -0.088338 0.009334481 -0.04533717 -0.0655138 -0.039121322 -0.1160149 -0.06528101
0.05158599 -0.022284344 0.062267613 0.024226977 0.050634213 0.08820494 0.074783415 -0.058299668
-0.07107478 0.070912816 0.04425941 0.07811384 0.10193244 0.06248094 -0.003279447 -0.028060744
-0.09516993 0.09179591 -0.09717906 0.051876426 -0.041498408 -0.08153239 -0.10813782 0.007302524

placing_layer.1.bias f4 [4]
00000000: ed0c 3b3d 9c47 473d 6f67 abbc 3936 5cbd
0.045666624 0.048652276 -0.020923344 -0.05376265

placing_layer.2.weight f4 [4, 64]
00000000: a5b2 7c3d 3284 523e 9dcd d8bc 00b7 73bc
00000010: a3b5 803c a682 eb3d 9192 483e dde9 413d
00000020: 44a9 e63d afe6 373e c7aa 863a e627 4e3e
00000030: 8200 4d3e 5079 ddbc 561f b63d c2f5 093e
00000040: 34a4 1bbd f865 0f3d e755 363e 547b 3a3e
00000050: 700e 16bd c7f9 ad3d fdca 1bbd 4bbe 743d
00000060: f886 5cbd 6ae1 07bd 09ed 6d3d ca9f 0c3c
00000070: 6dc4 a93c 5912 1e3e 4e42 1a3e 9323 55bc
00000080: c03c 383e 2961 593e 0745 403d 6428 0c3e
00000090: 2d08 263d 7068 9f3d 0eb9 183d f499 893d
000000a0: d547 413e 1e24 e63c 605a 29bc b6b4 453e
000000b0: 2e9d 443e b27e 29bb 9f12 2a3e 94cc 283d
000000c0: 8782 8d3d d96d cc3d 324a 993d 1fda 433c
000000d0: 8c1f 323d 5bef fdbc e88a 8a3b 25d7 233e
000000e0: 563f 373e 1919 893c fe15 183e 12d3 a53d
000000f0: b687 3c3e 8131 1c3e 1e44 603c 89ca 123e
00000100: f166 113d ce6d c33d d800 37bd f79c 043d
00000110: fd25 7fbd d252 ce3d 48aa 783c d271 3f3d
00000120: fb6e 133e bd26 893d 7f96 46bd 9735 63bd
00000130: 5880 4d3d 5de3 dbbd a550 f13d 0980 063b
00000140: cca3 b3bd 754d 033e 2a0a 7b3d b577 1e3e
00000150: 7504 a33c b829 473d cdeb 923d a0c0 b83d
00000160: 3952 f8bc 9643 97bd 3065 853c 83f2 283e
00000170: 869d f63d e49a bf3b 1189 3bbc f289 f23d
00000180: ea8d 013e 980d d13d 357d a1bd c7cc 93bd
00000190: 7f62 c73d b103 143e ae7e 0a3e d52b 8b3d
000001a0: 5c1d a4bc ee1c 363c e00d e93d 7ee6 ce3c
000001b0: 67a5 9cbc 918c b43d cd4e 95bd c214 653d
000001c0: 4ada 58bd 5998 813c 932f d03d 1bb8 87bc
000001d0: 6d11 003c a194 b3bd 3216 a13c bcbb 87b9
000001e0: 898d b63d bf67 1a3e ac34 f6bc cade 203e
000001f0: 438d c93d bd13 063e 0224 bd3c 21a2 35bd
00000200: 9e03 80bd af23 063e ed43 0fbd aad0 4cbd
00000210: 401d 82bc 2654 b4bd 9bcb d23c 10bb 0b3d
00000220: 929a 3f3d 9d98 b03c 35db 3cbd bd11 083e
00000230: 090b 00bd bd82 9dbd 6e10 f43d 4e28 95bd
00000240: 9dd4 7dbd b1c9 b7bd 248f c33d 64fd 5f3d
00000250: 6ed8 f83d aedf e83d 0e20 22bd a2bb 653d
00000260: 63e3 183d 544c c93d 165e 9ebc e972 053e
00000270: 8a13 7d39 da72 41bd bfa0 573c 788f b13d
00000280: 78c7 313d 769c fe3d 38b7 8a3d 62fe 0c3e
00000290: b190 903d b97a c0bd 4775 973c 9c76 0e3b
000002a0: 90eb 0a3e ad94 153e ade5 903d f1a5 02bd
000002b0: 0c86 91bc 3858 34bd d266 9dbd 3ea4 e2bc
000002c0: 071d 043e 6ec5 9b3d 5502 443d 8194 093e
000002d0: 0b20 8ebc e653 153e 998b 2cbd 483b 543d
000002e0: bc6c 0ebc 9ca2 a53d b210 853d cda8 b23d
000002f0: 62c2 513d 4825 85bd bf8f db3d 06aa 673d
00000300: 0ed8 163d f373 e8bd 6188 03be 3379 893d
00000310: b396 8d3d 7568 8fbd 33d2 77bd 5363 203d
00000320: d101 3cbd 9a7d f1bd ac30 02be 5e77 533c
00000330: 2368 a43d 3f09 c23d f798 b1bd f21c b53d
00000340: 9481 e9bc 7018 d43b 0141 fcbd b1ca 3cbd
00000350: 9e70 90bc 6a92 3b3c 730a 003c 6147 a4bc
00000360: 2488 8dbc 60c3 b4bb e9ae 9abd add3 8a3d
00000370: b481 cbbd 7587 9d39 def3 ddbd 51a1 4d3c
00000380: 437b ba3d 6307 f3bd 4c90 493d 8e44 753d
00000390: 2994 613d 4ad1 d33d c737 e6bd 5d9e f23d
000003a0: 6b0f 91bd c9e4 0dbd c621 ba3c 96da cabd
000003b0: cfdd 3bbd ffd6 d23d 9220 2ebb baa7 c1bd
000003c0: 27b1 a4bd 536f 823c 76b4 54bd 2b04 c8bd
000003d0: 380f 873c eeeb 2339 ce99 893d d7b8 b3bc
000003e0: 2839 033d 35da 7bbd 3091 353d 0952 b5bc
000003f0: cfb3 a53d 9185 3fbd e308 01be eb44 bdbc
0.061693806 0.20558241 -0.026465232 -0.014875174 0.015711611 0.114995286 0.1958716 0.04734217
0.112627536 0.17959093 0.0010274284 0.20132408 0.20019725 -0.027035385 0.088926956 0.13472655
-0.037998393 0.035009354 0.17806207 0.18211108 -0.036634862 0.08494907 -0.03803538 0.05975179
-0.053839654 -0.033173956 0.058087382 0.008583019 0.020723546 0.15436687 0.15064356 -0.01300897
0.17991924 0.2122847 0.04694083 0.13687283 0.04053514 0.07783592 0.037285857 0.06718817
0.18875058 0.028093394 -0.0103364885 0.19307217 0.19200584 -0.002586287 0.16608666 0.041210726
0.06909662 0.09981889 0.07484855 0.01195386 0.043487117 -0.030997923 0.0042279847 0.1600004
0.17895254 0.0167356 0.1485214 0.08096899 0.18411145 0.15253259 0.013688115 0.14335074
0.035498563 0.09542428 -0.04467854 0.032376256 -0.062292088 0.100743905 0.015177317 0.046739407
0.14397804 0.06696842 -0.048483368 -0.05547103 0.050171226 -0.107367255 0.1178296 0.0020523092
-0.08771476 0.12822516 0.06128899 0.15475352 0.019899586 0.04862377 0.07173882 0.09021115
-0.030312644 -0.07385938 0.016283602 0.16498761 0.12041764 0.005847322 -0.011446253 0.11842717
0.12651792 0.10207671 -0.078852095 -0.072167926 0.097355835 0.14454533 0.13524887 0.0679547
-0.02003353 0.011115296 0.113795996 0.025256392 -0.019121839 0.088158734 -0.07290421 0.055928
-0.05294255 0.015819715 0.10165324 -0.01656728 0.007816655 -0.08768583 0.019663904 -0.0002588908
0.089137144 0.15078638 -0.030054413 0.15709987 0.09841397 0.13093467 0.023088459 -0.04434407
-0.0625069 0.1309955 -0.03497689 -0.050003685 -0.015883088 -0.088051125 0.025731852 0.034113944
0.04677827 0.021557147 -0.04610749 0.13288017 -0.031260524 -0.07690952 0.11917196 -0.07283078
-0.061970342 -0.089740165 0.09548786 0.05468501 0.12150656 0.113707885 -0.03958135 0.056087144
0.037326228 0.098290116 -0.019331973 0.13032116 0.00024135239 -0.04722867 0.013160883 0.086699426
0.04340312 0.12432186 0.067732275 0.13768914 0.07058848 -0.093984075 0.01848854 0.0021738177
0.13566422 0.14607497 0.07075057 -0.031896535 -0.017764114 -0.044029444 -0.07685627 -0.027666207
0.12901698 0.07606016 0.047853786 0.13435556 -0.017349264 0.14582786 -0.04212532 0.051814348
-0.0086929165 0.08087656 0.06497325 0.087236024 0.05121077 -0.065012515 0.10720777 0.05655863
0.03682714 -0.113502406 -0.12844993 0.0671257 0.06913509 -0.070023455 -0.060503196 0.039157223
-0.04590017 -0.11791535 -0.1271388 0.012906877 0.08027675 0.0947442 -0.08671754 0.088434115
-0.02850417 0.0064726397 -0.12317086 -0.04609174 -0.017631825 0.011448482 0.007814991 -0.020053567
-0.017276831 -0.0055164546 -0.07552893 0.06778655 -0.09936848 0.00030046297 -0.108375296 0.012550668
0.091055416 -0.11866643 0.049209878 0.059879832 0.055072937 0.10342653 -0.112411074 0.11846612
-0.07083019 -0.034642015 0.022721183 -0.09904973 -0.04586583 0.102949135 -0.0026569706 -0.094558194
-0.08041602 0.015922224 -0.051929913 -0.0976642 0.016486749 0.00015632782 0.06718789 -0.021938724
0.03203693 -0.061487395 0.044327915 -0.022133844 0.080909364 -0.04675824 -0.12601046 -0.023104152

placing_layer.2.bias f4 [4]
00000000: 5701 ff3d 678d 163e bf08 b2bd 4cbc 1cbc
0.124514274 0.14702378 -0.086930744 -0.009566378

placing_layer.3.weight f4 [4, 64]
00000000: ddcb dc3d 7d65 663d fc8b 773d d2be ba3d
00000010: b86d 353e 6b3d 3e3e 2720 503e b8ae 283d
00000020: 078d 2f3e 9d77 383d 36eb fd3c 3dcb 3b3e
00000030: 7660 4fbc d087 443e bf67 fe3d 880c e33d
00000040: e8fb 963c 8070 3a3d e74a a23d 4729 2e3e
00000050: db03 dabc 9aec fbbc 9273 93bd abae ec3d
00000060: 14a1 0f3e 062d 913d c4dc 3e3e 27c2 083e
00000070: ff37 a73d 1f33 433d 1693 8c3d 9665 183e
00000080: fde6 f03d 6e3e d4bc c9ca 72bc 3092 423e
00000090: a486 0b3d a3a1 fdbb 1d4e 823d 4532 cf3d
000000a0: b319 01bd 4080 a03d 1a25 abbd e018 cb3d
000000b0: 49de 5f3e 6f87 a93d 2427 1fbd fdd1 e23d
000000c0: 229e 98bd 4456 d53d c7e8 8a3d e6a0 293e
000000d0: 2df9 ee3d 12a1 df3c 44c6 0e3e b392 ea3d
000000e0: ebee 3b3e 85c5 ca3c 2f59 213e 0958 203e
000000f0: 2e82 79bb 38aa cbbc 7b57 393e b375 0c3e
00000100: 3145 cbbd 58b1 913d 0bd9 b2bd 4fab 693c
00000110: 38d7 02be f83a 7ebd f507 bf3c b82a f6bc
00000120: 5b5e 233d 27e2 113c 27c1 d73b 65df e23c
00000130: 2941 a33c 61a2 fabd bf1d 613d c470 b8bd
00000140: 25e3 2abd 4705 d9bc 71a9 adbd a30c dfbd
00000150: cd0b d63d 3ab7 1ebd 5005 103d e2d2 30bd
00000160: fa4f ecbd b9cf a7bd bd1a 7b3d 5b4b 96bc
00000170: d776 a4bd 79ba 483d a4ed 493d 0708 1ebc
00000180: 6f81 373c 929e 62bd 40a3 60bd 41bd d4bd
00000190: 9c27 c3bd 0a5b c13d d8d3 b43c b3e0 cf3d
000001a0: 5869 d8bc e267 81bc b709 1a3c 3c66 c5bd
000001b0: 1f30 c93d bcbd 3cbb 7761 d73d f26b 1fbd
000001c0: 23f2 6d3d d085 d53d cbc8 de3d 7281 d23d
000001d0: 68a1 673d fb33 96bc 6dde 5fbc 4080 bbbd
000001e0: 4a52 753d b256 48bd f798 a73d a426 cebd
000001f0: 0cc1 f2bd 4332 5f3a 1f60 c7bd 0509 db3d
00000200: 82d9 d23d 05c3 793c 9e7b 913d 84a8 0d3e
00000210: e874 84bd b919 0e3e 0cc2 d63d 009a d03d
00000220: aab9 003d 1551 8fbd 3a06 4fbd 79d8 213e
00000230: 0ee3 8d3d d64f d93d a488 e73d 8433 46bc
00000240: dcbc 85bd ca25 86bc 40ef 4dbd dc05 9d3d
00000250: aabd a23d ed76 d9bd 6041 a13d 6022 f8bc
00000260: a8c6 8bbc de3e e53d 469c e63d 4651 2f3e
00000270: ef17 093e 1911 25bd b66a 103d f5f6 2ebd
00000280: 574d 18bd 0a3e ef3d 3428 0c3d 155e a13d
00000290: 962e 61bd 2ebc a1bc 79cd c93c 1787 cfba
000002a0: 5605 c53d 7323 9ebd 1fe3 d93d 63ca 5f3d
000002b0: df44 1d3e 7960 193e a4bf 84bd 6672 69bd
000002c0: 1787 b6bd c361 3cbd 8d83 f83d 930a 043e
000002d0: ab29 b8bd bd13 f83d d629 5b3d ec17 01bd
000002e0: 3906 073e c4d3 103e a561 4fbc fb4d c63d
000002f0: f244 9ebd abe2 1e3e 04e6 2fb8 8323 79bd
00000300: 4816 903d 4881 c7bd b730 ed3c 8d2e 35bd
00000310: 9853 4c3d f6ff 923d b479 363d 7259 463d
00000320: 534a 813c 5a09 613c 8760 613d d389 73bd
00000330: 7a4d 9a3d f56e b7bd f1bd d63b 7ce3 4e3c
00000340: 8e9c 5b3d 8b92 14bd 0d15 f6bd 1d7a 96bc
00000350: 6111 273d 202d cc3d 6379 abbd 0e7b 223d
00000360: 6a12 f439 fc6e c73d ad4d 38bd f3f7 093d
00000370: 1e5f ac3c 7712 563d e70c 0fbe 7844 80bc
00000380: ed04 2cbc ba5c 283c ff30 a03c b1a2 8ebd
00000390: f645 bdbd 4af5 1dbe 1d0d 933d eed7 babb
000003a0: 2719 00be cf31 193d 6207 a6bd f513 fdbd
000003b0: 3170 0dbd 07dc 643d 52e0 03be c130 e13c
000003c0: 7e1e dabd bcea 3abc e4c7 99bd e74e 68bd
000003d0: 2b4d 6d3d bfe2 ebbc f27a b1bd e21b 313d
000003e0: 299c 03be 1313 5fbd d534 863d 21b3 b03d
000003f0: 1066 15be 0be4 31bd d65b 893d 2371 263d
0.10781071 0.05624913 0.060436234 0.09118427 0.17717636 0.18578117 0.20324765 0.04118225
0.17143641 0.045035947 0.030995946 0.18339248 -0.012657275 0.19192433 0.12422132 0.110863745
0.018430665 0.045517445 0.07924443 0.17007934 -0.026613167 -0.030752469 -0.07199778 0.11556753
0.1402629 0.07088666 0.18638903 0.13355313 0.08164977 0.047656175 0.06863992 0.14882502
0.117628075 -0.025908675 -0.014818856 0.19001079 0.03406395 -0.007740216 0.06362555 0.1011701
-0.03151865 0.07836962 -0.08356686 0.09916854 0.21862139 0.08277785 -0.038855687 0.11075208
-0.074520364 0.104168445 0.0678268 0.16565284 0.1166862 0.027298484 0.1394282 0.11453762
0.18352859 0.024752388 0.15756677 0.15658583 -0.0038071978 -0.02486144 0.18099777 0.13716774
-0.099253066 0.07113904 -0.08732804 0.014262035 -0.12777412 -0.062067956 0.023319224 -0.030049667
0.039884906 0.008904017 0.006584305 0.027694413 0.019928532 -0.122380026 0.05496001 -0.09005883
-0.04172053 -0.026491774 -0.08479584 -0.10891082 0.104514696 -0.038748957 0.035161316 -0.043169864
-0.11538692 -0.08193917 0.061304796 -0.01834648 -0.080304794 0.04900596 0.049298897 -0.009645469
0.011200293 -0.055327006 -0.054843187 -0.1038766 -0.09529039 0.094411924 0.022073671 0.1015028
-0.02641742 -0.015796605 0.00940173 -0.0963864 0.098236315 -0.0028799614 0.10516637 -0.038921304
0.058092248 0.10425913 0.10878142 0.10278596 0.056550413 -0.018335333 -0.01366387 -0.09155321
0.05989293 -0.048910804 0.081834726 -0.10065964 -0.11853227 0.00085142645 -0.097351305 0.1069508
0.102953926 0.01524425 0.07103656 0.13833815 -0.064676106 0.13877 0.1048623 0.10185623
0.031427063 -0.06997887 -0.050543047 0.15805234 0.06928073 0.106109306 0.11305359 -0.012097243
-0.06530163 -0.016375441 -0.050276995 0.07667133 0.07946332 -0.106183864 0.078737974 -0.030289829
-0.0170625 0.111936316 0.112602755 0.17120847 0.13388036 -0.04029951 0.035258017 -0.042715985
-0.037183132 0.11681755 0.03421803 0.07879273 -0.05497607 -0.019743051 0.02463411 -0.0015833107
0.096201584 -0.07721605 0.10639023 0.05463637 0.15358303 0.14978208 -0.06481865 -0.056993864
-0.08912485 -0.04599167 0.12134466 0.12894659 -0.089923225 0.1211314 0.053506695 -0.031516954
0.13185968 0.14143282 -0.012657558 0.09682842 -0.07727994 0.15516154 -4.193747e-05 -0.060824882
0.070355 -0.09741455 0.028953893 -0.044233847 0.04988441 0.07177727 0.04454966 0.048425145
0.01578251 0.01373514 0.055023696 -0.05945761 0.07534309 -0.0895671 0.0065534045 0.012627479
0.0536161 -0.036272567 -0.12015734 -0.018368775 0.04078806 0.099695444 -0.08372762 0.039668135
0.00046553026 0.097379655 -0.044995952 0.03368373 0.02104145 0.052263703 -0.13969766 -0.015657648
-0.010499221 0.010276014 0.019554613 -0.06964625 -0.092418596 -0.15425602 0.071802355 -0.0057020104
-0.12509595 0.037401017 -0.08106877 -0.12357322 -0.034530822 0.055873897 -0.1287854 0.027489068
-0.10650347 -0.011408504 -0.07508829 -0.056715872 0.05793492 -0.028794644 -0.08666028 0.04323948
-0.12852539 -0.05446155 0.06553046 0.08627916 -0.14589715 -0.04343037 0.067069694 0.04063524

placing_layer.3.bias f4 [4]
00000000: 177f 733c 161a 3cbd 2699 303c ecd5 c93c
0.014861844 -0.045923315 0.010778701 0.024638139
