extra_baseline2/log_res/temp/2exp_2/imitation_learning_env-20250108-200732/bc_ddpg_actor.pth (torch, 225849 bytes, 88 tensors)

fc.0.weight f4 [64, 500]
-0.0003348208 0.023990488 -0.036807697 -0.032912195 -0.017224628 0.011992362 -0.0008860724 0.035459097
-0.0039687543 0.0118338335 -0.01351538 -0.008790672 -0.042724486 -0.029618157 -0.018435178 0.0016566389
0.017679928 0.026833836 -0.030318448 -0.019474491 0.016243564 0.037136078 -0.009203664 0.03346552
-0.007208339 0.0047321506 0.04049413 -0.04148668 -0.028153794 -0.011321895 -0.017432384 0.038639292
-0.028987477 -0.020586712 -0.031244153 -0.04188428 -0.026105668 0.038442396 0.019955494 0.021675216
0.0023519662 -0.022927905 0.0075661694 -0.041756097 -0.032314148 -0.023055203 0.028216403 0.026221083
-0.019833703 -0.0016136535 0.028602025 0.044458985 0.017749112 0.0060415366 0.02998506 -0.026332041
0.008333558 -0.03467272 -0.030995756 -0.02310232 0.02023521 0.017985161 -0.026490811 0.013510641
0.024550775 -0.0056446125 0.0017075306 0.01036215 0.027744085 0.042941187 -0.034463335 -0.016389025
0.017575938 0.037053857 0.038916856 0.039460197 0.008900201 -0.03888892 0.00411403 -0.027977923
-0.041678257 0.03973459 0.034004323 -0.04461081 0.008370589 -0.007533761 -0.0073593985 -0.020471511
0.017197875 -0.026488619 0.016394464 0.022615954 0.03201475 0.016721815 -0.04426231 -0.029010609
0.022330048 0.009360242 -0.03488642 -0.025751432 0.04207159 0.030134052 -0.019499637 -0.011255686
-0.042601485 -0.00080382795 -0.03367782 -0.03449612 -0.0024641294 0.0067146914 -0.01831475 0.026536653
-0.027214697 0.040578827 0.030647542 -0.03771276 -0.011130446 0.002017945 0.006524895 0.010606756
0.017549926 0.002678817 -0.021820838 0.021161657 -0.042898916 -0.02650665 -0.0111950915 -0.021784373
-0.015645025 -0.0366546 -0.009512911 0.009559479 -0.029134436 -0.0022950717 0.032013822 -0.0045973673
0.0012429057 -0.0038580627 0.009050771 0.028435607 0.04236214 0.028400565 0.042459067 -0.0032343229
-0.04017416 -0.02120138 0.030451009 -0.0002899054 -0.02222859 -0.034270506 -0.04185258 -0.037745196
-0.009071136 0.024525464 0.024178205 -0.043130707 0.027896382 -0.03499489 -0.009454556 -0.018133288
-0.008614017 -0.008780713 -0.040130712 -0.038614117 -0.006997975 0.00057834474 -0.020315792 0.016846502
-0.040251836 -0.0030181212 0.039328836 -0.018241486 0.04038353 0.016196009 -0.04035928 0.028295087
-0.005160598 -0.019963922 0.035761584 -0.03613912 0.0047988226 -0.009363254 0.03193609 0.012483723
0.021488853 0.015793748 -0.010754356 -0.009405146 -0.036854044 0.024232008 0.03550778 0.030599466
-0.03154548 0.001994568 -0.031525612 -0.024618402 -0.026059384 0.015283302 -0.026650049 -0.0009756952
0.0018813438 0.02882842 -0.033805773 -0.030701762 -0.025967974 0.031301975 -0.016075764 0.03772196
0.016171582 0.005662888 -0.0003329069 -0.008840588 0.0056110257 -0.010211885 -0.0003142317 0.0057061343
-0.034981277 -0.023439871 0.036112174 -0.036293473 -0.0032112708 0.044240102 0.016155012 0.0012661978
-0.038755976 0.022153974 -0.031854164 -0.012694797 -0.015004748 -0.0066226693 0.0004891751 0.036886517
0.005582962 0.0400566 0.027356613 -0.028273469 0.020057714 -0.031613354 -0.018954037 0.013153567
0.01476664 0.03355122 -0.014396516 7.159271e-05 0.023023611 -0.043249678 0.032332677 -0.036981095
0.0006163722 -0.0076033813 -0.023553532 0.0059108688 0.03698093 -0.0130729275 -0.026550807 -0.016539697
00000000: e38a afb9 b387 c43c abc3 16bd f0ce 06bd
00000010: aa1a 8dbc 9d7b 443c 5047 68ba 8f3d 113d
00000020: 530c 82bb b2e2 413c 9d6f 5dbc c006 10bc
00000030: dfff 2ebd c7a1 f2bc 5f05 97bc 9423 d93a
00000040: 7fd5 903c a2d2 db3c 655e f8bc f888 9fbc
00000050: 3911 853c 001c 183d f7ca 16bc 2413 093d
00000060: ee33 ecbb 2810 9b3b 2cdd 253d f0ed 29bd
00000070: c9a2 e6bc 787f 39bc 5cce 8ebc 3c44 1e3d
00000080: 2577 edbc 77a5 a8bc bdf3 ffbc da8e 2bbd
00000090: 8edb d5bc c675 1d3d b479 a33c 3990 b13c
000000a0: 7223 1a3b 4dd3 bbbc a1ed f73b 7108 2bbd
000000b0: d75b 04bd 44de bcbc 1626 e73c 99cd d63c
000000c0: 4a7a a2bc 3a81 d3ba cb4e ea3c a01a 363d
000000d0: 9666 913c 15f8 c53b 3ba3 f53c 4bb6 d7bc
000000e0: 7a89 083c fb04 0ebd d0ea fdbc 1441 bdbc
000000f0: 50c4 a53c 9e55 933c 4203 d9bc bc5b 5d3c
00000100: b51e c93c 71f6 b8bb 38cf df3a 02c6 293c
00000110: 9047 e33c 19e3 2f3d 6d29 0dbd 4742 86bc
00000120: 6afb 8f3c c9c5 173d 4867 1f3d 04a1 213d
00000130: 26d2 113c fd49 1fbd fcce 863b f531 e5bc
00000140: d2b6 2abd bdc0 223d 1e48 0b3d d3b9 36bd
00000150: cc24 093c c5dd f6bb 1c27 f1bb dfb3 a7bc
00000160: 8fe2 8c3c a9fe d8bc af4d 863c 1845 b93c
00000170: e621 033d 30fc 883c 654c 35bd a8a7 edbc
00000180: 81ed b63c b35b 193c 10e5 0ebd abf4 d2bc
00000190: 4253 2c3d b0db f63c b4bd 9fbc c569 38bc
000001a0: e57e 2ebd fbb7 52ba c1f1 09bd ce4b 0dbd
000001b0: 3b7d 21bb ea06 dc3b d108 96bc 6563 d93c
000001c0: 5bf1 debc fc35 263d 8e10 fb3c b278 1abd
000001d0: 795c 36bc 803f 043b c9ce d53b f6c7 2d3c
000001e0: ddc4 8f3c 178f 2f3b 9dc1 b2bc 365b ad3c
000001f0: c6b6 2fbd 7924 d9bc 9e6b 37bc 2475 b2bc
00000200: ff29 80bc 2223 16bd 0adc 1bbc 5c9f 1c3c
00000210: 57ab eebc ea68 16bb ed20 033d 83a5 96bb
00000220: ffe8 a23a 8dd7 7cbb af49 143c caf1 e83c
00000230: ec83 2d3d 4da8 e83c 8fe9 2d3d eff6 53bb
00000240: a98d 24bd 84ae adbc 6574 f93c 72fe 97b9
00000250: bb18 b6bc 3b5f 0cbd 9c6d 2bbd b59a 1abd
00000260: 1a9f 14bc a0e9 c83c 5f11 c63c d3a9 30bd
00000270: f486 e43c cd56 0fbd 48e7 1abc 438c 94bc
00000280: ce21 0dbc fbdc 0fbc 1a60 24bd d629 1ebd
00000290: 454f e5bb 0f9c 173a 4e6d a6bc ad01 8a3c
000002a0: 1cdf 24bd accb 45bb 4617 213d 2b6f 95bc
000002b0: 3369 253d 7ead 843c c64f 25bd 19cb e73c
000002c0: 3c1a a9bb 618b a3bc bd7a 123d 9d06 14bd
000002d0: 713f 9d3b 5568 19bc 6bcf 023d 8888 4c3c
000002e0: 6409 b03c e461 813c 0a33 30bc 0b18 1abc
000002f0: 44f4 16bd 3482 c63c 9b70 113d bbab fa3c
00000300: d535 01bd 4cb7 023b 0021 01bd 88ac c9bc
00000310: 7d7a d5bc d166 7a3c 3451 dabc ccc5 7fba
00000320: 6c97 f63a 9429 ec3c ec77 0abd 4382 fbbc
00000330: caba d4bc 8036 003d 52b1 83bc 5882 1a3d
00000340: 447a 843c bf8f b93b 028a aeb9 1dd8 10bc
00000350: b2dc b73b c04f 27bc 77bf a4b9 86fa ba3b
00000360: 8748 0fbd f904 c0bc 5cea 133d 77a8 14bd
00000370: 2f74 52bb 1c35 353d 8457 843c 8cf6 a53a
00000380: 96be 1ebd 407c b53c 8379 02bd d6fd 4fbc
00000390: 79d6 75bc fa02 d9bb fc3b 003a 5116 173d
000003a0: 48f1 b63b 6412 243d fa1a e03c c39d e7bc
000003b0: 1350 a43c 017d 01bd 7f45 9bbc 0f82 573c
000003c0: c7ef 713c 016d 093d 5ddf 6bbc 0b24 9638
000003d0: 039c bc3c 9326 31bd 456f 043d 7d79 17bd
000003e0: 0a94 213a c925 f9bb 56f3 c0bc f6af c13b
000003f0: 5179 173d d52f 56bc 1481 d9bc 427e 87bc

fc.0.bias f4 [64]
-0.021683587 0.044606943 -0.03859664 -0.029555937 0.0011704813 0.00588658 -0.0081875175 -0.010692332
-0.024211565 0.03411067 0.04188959 -0.01938062 0.00076974556 -0.039158497 0.037452515 -0.023631953
-0.023827871 -0.02293554 0.011479202 0.0154625485 -0.036008593 -0.011570636 0.02296218 0.0065344404
-0.03974949 0.023649815 0.035982165 -0.002731084 0.046967253 0.03153955 -0.034765627 -0.019569587
0.041061122 -0.015535281 0.0388306 -0.033028547 0.038353615 0.012318978 -0.037240665 -0.041660864
-0.03358941 0.040174674 0.012330617 0.014050488 -0.013542798 -0.04062654 0.036342476 -0.022198785
-0.0061570634 -0.0037355465 0.03731524 0.018513916 -0.0044331327 0.038159132 0.03753101 -0.0052409875
0.03727274 -0.021849567 -0.038773876 0.03842141 -0.0011583661 -0.0060432465 -0.029170811 -0.01833126
00000000: c7a1 b1bc c5b5 363d 8317 1ebd 4b1f f2bc
00000010: d66a 993a 36e4 c03b f024 06bc e42e 2fbc
00000020: 5557 c6bc a1b7 0b3d 6b94 2b3d 1bc4 9ebc
00000030: c0c8 493a a964 20bd cf67 193d cc97 c1bc
00000040: ab32 c3bc 50e3 bbbc 4313 3c3c a156 7d3c
00000050: bf7d 13bd c492 3dbc 2f1b bc3c dc1e d63b
00000060: 5cd0 22bd 42bd c13c 0962 133d fcfb 32bb
00000070: bc60 403d 9d2f 013d 6766 0ebd 6650 a0bc
00000080: b52f 283d b187 7ebc d60c 1f3d f148 07bd
00000090: ae18 1d3d 8ad5 493c ab89 18bd 95a4 2abd
000000a0: 0d95 09bd 338e 243d 5b06 4a3c 0534 663c
000000b0: 9de2 5dbc 0468 26bd d9db 143d 3ada b5bc
000000c0: 31c1 c9bb 12d0 74bb ddd7 183d 7faa 973c
000000d0: d043 91bb c04c 1c3d 1eba 193d 97bc abbb
000000e0: 4dab 183d ddfd b2bc 5bd1 1ebd c55f 1d3d
000000f0: 51d4 97ba 6d06 c6bb a0f7 eebc 702b 96bc

fc.2.weight f4 [64]
1.0 1.0 1.0 1.0 1.0 1.0 1.0 1.0
1.0 1.0 1.0 1.0 1.0 1.0 1.0 1.0
1.0 1.0 1.0 1.0 1.0 1.0 1.0 1.0
1.0 1.0 1.0 1.0 1.0 1.0 1.0 1.0
1.0 1.0 1.0 1.0 1.0 1.0 1.0 1.0
1.0 1.0 1.0 1.0 1.0 1.0 1.0 1.0
1.0 1.0 1.0 1.0 1.0 1.0 1.0 1.0
1.0 1.0 1.0 1.0 1.0 1.0 1.0 1.0
00000000: 0000 803f 0000 803f 0000 803f 0000 803f
00000010: 0000 803f 0000 803f 0000 803f 0000 803f
00000020: 0000 803f 0000 803f 0000 803f 0000 803f
00000030: 0000 803f 0000 803f 0000 803f 0000 803f
00000040: 0000 803f 0000 803f 0000 803f 0000 803f
00000050: 0000 803f 0000 803f 0000 803f 0000 803f
00000060: 0000 803f 0000 803f 0000 803f 0000 803f
00000070: 0000 803f 0000 803f 0000 803f 0000 803f
00000080: 0000 803f 0000 803f 0000 803f 0000 803f
00000090: 0000 803f 0000 803f 0000 803f 0000 803f
000000a0: 0000 803f 0000 803f 0000 803f 0000 803f
000000b0: 0000 803f 0000 803f 0000 803f 0000 803f
000000c0: 0000 803f 0000 803f 0000 803f 0000 803f
000000d0: 0000 803f 0000 803f 0000 803f 0000 803f
000000e0: 0000 803f 0000 803f 0000 803f 0000 803f
000000f0: 0000 803f 0000 803f 0000 803f 0000 803f

fc.2.bias f4 [64]
-0.012151092 0.017649757 -0.017128361 0.0103933 0.018173164 0.00023842238 -0.016483095 -0.013381644
-0.017020531 0.014046481 0.0036681583 -0.011131447 0.01593321 -0.0103341825 0.013674622 0.0051239133
0.0055395057 0.0118880505 0.0002466915 -0.0027924837 0.006641318 -0.01651842 -0.0045127473 -0.0093488265
0.007350803 0.016167667 -0.017154206 -0.0063874335 -0.012816454 0.015001713 0.0035021305 0.01406231
-0.011675898 0.004815104 -0.0066310856 -0.011226186 0.014609594 -0.015263747 0.01484717 -0.015448548
0.0052028396 0.0130037675 -0.0154081965 -0.014791739 -0.0024086481 -0.009590612 0.013726509 0.002307426
-0.01450996 0.016333748 -0.007037847 0.0076318663 -0.013220471 0.012489719 -0.014604267 0.0111407675
0.014301923 0.016675312 -0.0076310583 0.014706646 0.016463958 0.010806404 -0.009343439 -0.007992627
00000000: 6015 47bc 3996 903c c750 8cbc a948 2a3c
00000010: e3df 943c 0501 7a39 8e07 87bc af3e 5bbc
00000020: a46e 8bbc 3623 663c 7c65 703b ac60 36bc
00000030: 5d86 823c b450 29bc 860b 603c 80e6 a73b
00000040: be84 b53b 19c6 423c 5f56 8139 1a02 37bb
00000050: 6a9f d93b a351 87bc abdf 93bb d22b 19bc
00000060: 01df f03b 0e72 843c fa86 8cbc ad4d d1bb
00000070: 1bfc 51bc bfc9 753c 0084 653b 9a65 663c
00000080: 444c 3fbc 05c8 9d3b 9449 d9bb 09ee 37bc
00000090: 145d 6f3c cc14 7abc 8b41 733c e81b 7dbc
000000a0: 957c aa3b c10d 553c a972 7cbc 0d59 72bc
000000b0: 69da 1dbb f121 1dbc 27e5 603c 2f38 173b
000000c0: 2fbb 6dbc 5ace 853c bd9d e6bb bc14 fa3b
000000d0: ad9a 58bc aea1 4c3c bc46 6fbc c487 363c
000000e0: 9d52 6a3c aa9a 883c f50d fabb 25f4 703c
000000f0: 6cdf 863c 580d 313c 3915 19bc 82f3 02bc

fc.2.running_mean f4 [64]
0.0 0.0 0.0 33686.336 0.0 0.0 15917.281 21272.467
31728.383 0.0 19294.363 0.0 0.0 20945.967 309.0724 16456.133
27860.367 0.0 0.0 0.0 13987.947 399.5221 24059.473 5500.785
0.0 9457.1875 5.578645 0.0 36743.54 29494.387 28424.451 13673.963
4022.4626 14160.82 0.0 16120.59 41622.22 0.0 0.0 0.0
0.0 0.0 0.0 0.0 0.0 30389.465 0.0 26771.865
0.0 0.0 4.9034886 9564.999 15534.193 0.0 0.0 19790.76
0.0 0.0 28540.525 0.0 15434.617 2673.9614 0.0 18872.646
00000000: 0000 0000 0000 0000 0000 0000 5696 0347
00000010: 0000 0000 0000 0000 20b5 7846 ef30 a646
00000020: c4e0 f746 0000 0000 babc 9646 0000 0000
00000030: 0000 0000 efa3 a346 4489 9a43 4490 8046
00000040: bca8 d946 0000 0000 0000 0000 0000 0000
00000050: ca8f 5a46 d4c2 c743 f2f6 bb46 48e6 ab45
00000060: 0000 0000 c0c4 1346 4384 b240 0000 0000
00000070: 8a87 0f47 c66c e646 e710 de46 daa7 5546
00000080: 6767 7b45 4843 5d46 0000 0000 5ce2 7b46
00000090: 3896 2247 0000 0000 0000 0000 0000 0000
000000a0: 0000 0000 0000 0000 0000 0000 0000 0000
000000b0: 0000 0000 ee6a ed46 0000 0000 bb27 d146
000000c0: 0000 0000 0000 0000 61e9 9c40 ff73 1546
000000d0: c6b8 7246 0000 0000 0000 0000 859d 9a46
000000e0: 0000 0000 0000 0000 0df9 de46 0000 0000
000000f0: 782a 7146 621f 2745 0000 0000 4b71 9346

fc.2.running_var f4 [64]
0.025031533 0.025031533 0.025031533 0.025031533 0.025031533 0.025031533 0.025031533 0.025031533
0.025031533 0.025031533 0.025031533 0.025031533 0.025031533 0.025031533 0.025031533 0.025031533
0.025031533 0.025031533 0.025031533 0.025031533 0.025031533 0.025031533 0.025031533 0.025031533
0.025031533 0.025031533 0.025031533 0.025031533 0.025031533 0.025031533 0.025031533 0.025031533
0.025031533 0.025031533 0.025031533 0.025031533 0.025031533 0.025031533 0.025031533 0.025031533
0.025031533 0.025031533 0.025031533 0.025031533 0.025031533 0.025031533 0.025031533 0.025031533
0.025031533 0.025031533 0.025031533 0.025031533 0.025031533 0.025031533 0.025031533 0.025031533
0.025031533 0.025031533 0.025031533 0.025031533 0.025031533 0.025031533 0.025031533 0.025031533
00000000: ee0e cd3c ee0e cd3c ee0e cd3c ee0e cd3c
00000010: ee0e cd3c ee0e cd3c ee0e cd3c ee0e cd3c
00000020: ee0e cd3c ee0e cd3c ee0e cd3c ee0e cd3c
00000030: ee0e cd3c ee0e cd3c ee0e cd3c ee0e cd3c
00000040: ee0e cd3c ee0e cd3c ee0e cd3c ee0e cd3c
00000050: ee0e cd3c ee0e cd3c ee0e cd3c ee0e cd3c
00000060: ee0e cd3c ee0e cd3c ee0e cd3c ee0e cd3c
00000070: ee0e cd3c ee0e cd3c ee0e cd3c ee0e cd3c
00000080: ee0e cd3c ee0e cd3c ee0e cd3c ee0e cd3c
00000090: ee0e cd3c ee0e cd3c ee0e cd3c ee0e cd3c
000000a0: ee0e cd3c ee0e cd3c ee0e cd3c ee0e cd3c
000000b0: ee0e cd3c ee0e cd3c ee0e cd3c ee0e cd3c
000000c0: ee0e cd3c ee0e cd3c ee0e cd3c ee0e cd3c
000000d0: ee0e cd3c ee0e cd3c ee0e cd3c ee0e cd3c
000000e0: ee0e cd3c ee0e cd3c ee0e cd3c ee0e cd3c
000000f0: ee0e cd3c ee0e cd3c ee0e cd3c ee0e cd3c

fc.3.weight f4 [64, 64]
-0.079904355 0.01681594 -0.12073925 0.06423612 0.042258047 -0.01062561 -0.089785956 -0.11395334
-0.053981103 0.08895312 0.09237656 0.040310256 -0.04051695 -0.05707715 0.03028191 -0.12634647
0.07830268 0.10895917 0.04096156 0.10542601 -0.097533636 -0.042891864 0.03182005 -0.032388624
-0.0020965342 0.11234694 -0.12212305 0.047699805 0.030145263 0.052263647 -0.10490595 0.080226995
0.09956992 -0.09739742 -0.09459296 0.054899085 0.054671038 0.053187147 0.032736905 -0.057376795
0.0845184 0.04046691 -0.092744745 -0.09753145 -0.09473025 0.029268174 0.033258077 -0.012687597
0.05149465 0.06713842 0.03848133 -0.10515916 0.038402576 0.036405835 -0.010345955 0.11762983
0.098195285 0.00030080596 -0.109196834 0.13858482 -0.07212966 0.1276497 -0.026302047 -0.030030726
0.017927561 0.030313583 -0.08064767 0.09649832 0.039412737 0.09380536 -0.0133852605 0.004968129
-0.1061621 -0.089910135 -0.048066508 0.021651616 0.12209545 0.006647322 0.115039006 -0.095872045
-0.004159561 0.022318194 -0.067914024 0.05091291 0.010790162 -0.024431841 -0.04554512 0.0692993
-0.11276475 0.062343527 0.08770665 -0.035671253 0.058677908 -0.05975302 -0.1241407 0.050856136
-0.06953774 0.096670836 0.07287252 -0.008844361 -0.035987753 -0.059189778 -0.008942164 0.021291386
-0.0843856 -0.04467325 0.052421167 0.0041801957 0.11837819 -0.046532784 0.008678787 -0.05852485
-0.0656584 -0.124531105 -0.04793243 0.056181293 0.07660773 -0.026335066 0.048684772 0.040794075
-0.009726839 -0.023443848 -0.05779342 -0.025673846 -0.035259783 0.0289966 -0.03503953 -0.114425145
0.07423452 0.12248077 0.09964918 0.009702315 0.06509242 -0.09811024 0.09865901 -0.122366235
-0.08846577 -0.049086716 0.045684207 0.027519286 0.03313553 0.06381756 0.09066157 -0.039066292
-0.121151514 0.11661793 -0.11849692 0.009709725 -0.094277285 -0.09152575 -0.10736169 0.11092768
-0.10474809 0.105661355 -0.08883888 -0.07695409 0.117556 -0.019756047 -0.045363273 -0.026835477
-0.105084 0.024757262 -0.045837436 0.065150544 0.09567586 -0.053145308 0.11284021 -0.00039236143
0.0037056133 -0.107313074 0.007502524 -0.004378369 -0.075909965 -0.02410779 -0.043859497 -0.082687594
-0.055655893 0.0032941548 -0.11590766 -0.08130612 -0.062122118 -0.09919406 0.028785067 -0.05768501
0.012332266 -0.03610457 -0.0128086815 0.08428772 -0.01763396 0.12324304 -0.12223723 -0.0991044
-0.0028854217 -0.012075338 -0.10075932 -0.119397536 -0.0061806063 0.1076023 0.01780155 -0.07300942
0.107821904 -0.04732318 0.0037514176 -0.0575699 -0.004830383 -0.024000147 -0.09165421 -0.019542944
0.06262128 -0.05789004 0.007914428 0.100965045 -0.08269421 -0.07492598 -0.072424434 0.041422613
0.0034279139 0.037521537 -0.099115685 0.06499379 -0.08808166 0.02919484 -0.0055328477 -0.08069541
0.07954897 0.042714406 0.10553052 -0.12293818 0.087129645 0.024419207 -0.053339116 0.10045702
0.12072784 -0.059007764 -0.061071433 0.005272231 0.0663654 0.10787538 0.054716196 0.12222928
-0.011663797 0.10905722 -0.083052106 -0.010496595 0.08115777 0.059167292 -0.10563094 0.0011393721
0.080194116 0.08633796 -0.091859475 -0.041778054 -0.091187984 -0.08215678 -0.04030809 -0.123414986
00000000: e5a4 a3bd 95c1 893c 2446 f7bd 3a8e 833d
00000010: c616 2d3d 0a17 2ebc b3e1 b7bd 5e60 e9bd
00000020: 4a1b 5dbd 0e2d b63d ec2f bd3d 5e1c 253d
00000030: 1af5 25bd bbc9 69bd c511 f83c f860 01be
00000040: 285d a03d fc25 df3d 4fc7 273d 98e9 d73d
00000050: b7bf c7bd 61af 2fbd be55 023d efa9 04bd
00000060: 0266 09bb 2716 e63d a61b fabd df60 433d
00000070: 33f3 f63c 6812 563d eed8 d6bd 0d4e a43d
00000080: 50eb cb3d 4c78 c7bd f4b9 c1bd dddd 603d
00000090: bdee 5f3d c4da 593d 2217 063d ee03 6bbd
000000a0: fc17 ad3d a1c0 253d f5f0 bdbd 92be c7bd
000000b0: ef01 c2bd cfc3 ef3c 9f39 083d a4df 4fbc
000000c0: 0eec 523d de7f 893d 999e 1d3d b05d d7bd
000000d0: 054c 1d3d 491e 153d 1582 29bc e9e7 f03d
000000e0: 9c1a c93d 7eb5 9d39 97a2 dfbd 2ee9 0d3e
000000f0: b7b8 93bd 9ab6 023e 6477 d7bc ff02 f6bc
00000100: d2dc 923c 3154 f83c 9b2a a5bd e9a0 c53d
00000110: 406f 213d 061d c03d da4d 5bbc b0cb a23b
00000120: 846b d9bd ce22 b8bd 63e1 44bd bb5e b13c
00000130: 2e0d fa3d c7d1 d93b 9299 eb3d 9058 c4bd
00000140: ed4c 88bb a5d4 b63c 8216 8bbd 0e8a 503d
00000150: 38c9 303c 4925 c8bc 858d 3abd cbec 8d3d
00000160: 35f1 e6bd ed5b 7f3d 8b9f b33d 051c 12bd
00000170: 3f58 703d 95bf 74bd 7b3d febd 864e 503d
00000180: cd69 8ebd 5cfb c53d 303e 953d f0e7 10bc
00000190: e567 13bd fb70 72bd 2782 12bc 466b ae3c
000001a0: 5cd2 acbd 4cfb 36bd 94b7 563d 06fa 883b
000001b0: 4470 f23d 2999 3ebd 7931 0e3c c1b7 6fbd
000001c0: e977 86bd 2a0a ffbd cc54 44bd 5b1e 663d
000001d0: 83e4 9c3d a3bc d7bc af69 473d b017 273d
000001e0: 525d 1fbc 500d c0bc cbb8 6cbd f551 d2bc
000001f0: 906c 10bd 478a ed3c 9c85 0fbd bb57 eabd
00000200: 4508 983d 33d7 fa3d df14 cc3d 75f6 1e3c
00000210: 2d4f 853d 06ee c8bd bc0d ca3d 269b fabd
00000220: 8b2d b5bd 270f 49bd 5d1f 3b3d 2070 e13c
00000230: 1fb9 073d c8b2 823d c6ac b93d fa03 20bd
00000240: 491e f8bd 62d5 ee3d 83ae f2bd 8a15 1f3c
00000250: 7314 c1bd da71 bbbd 72e0 dbbd 0d2e e33d
00000260: 2b86 d6bd fb64 d83d 29f1 b5bd 1b9a 9dbd
00000270: 33c1 f03d 6fd7 a1bc d7ce 39bd 13d6 dbbc
00000280: 4836 d7bd becf ca3c 09c0 3bbd a66d 853d
00000290: b5f1 c33d e5ae 59bd c518 e73d dcb5 cdb9
000002a0: e0d9 723b f5c6 dbbd bcd7 f53b 6c78 8fbb
000002b0: af76 9bbd b37d c5bc 04a6 33bd 1d58 a9bd
000002c0: 6ff7 63bd bfe2 573b ff60 edbd d383 a6bd
000002d0: c373 7ebd 4126 cbbd a9ce eb3c 1e47 6cbd
000002e0: 460d 4a3c 63e2 13bd 81db 51bc 0a9f ac3d
000002f0: 1875 90bc d966 fc3d 8357 fabd 3ff7 cabd
00000300: 5819 3dbb a3d7 45bc e75a cebd b286 f4bd
00000310: af86 cabb 985e dc3d 8ed4 913c f685 95bd
00000320: bbd1 dc3d f3d5 41bd 58da 753b 6ace 6bbd
00000330: 3148 9ebb f59b c4bc 34b5 bbbd 8618 a0bc
00000340: 963f 803d 1b1e 6dbd 84ab 013c c3c6 ce3d
00000350: 955b a9bd cb72 99bd 4353 94bd c2aa 293d
00000360: daa6 603b 2fb0 193d 2afd cabd 771b 853d
00000370: 2864 b4bd 042a ef3c e44c b5bb a343 a5bd
00000380: 92ea a23d 4df5 2e3d 6320 d83d 03c7 fbbd
00000390: 0771 b23d ca0a c83c 1e7a 5abd 69bc cd3d
000003a0: 2840 f73d 20b2 71bd 0a26 7abd aec2 ac3b
000003b0: 95ea 873d c4ed dc3d 171e 603d 5853 fa3d
000003c0: 8319 3fbc 6459 df3d 3917 aabd e9f9 2bbc
000003d0: 0b36 a63d 6759 723d 0955 d8bd fc56 953a
000003e0: d03c a43d f5d1 b03d d220 bcbd 771f 2bbd
000003f0: c4c0 babd d041 a8bd 191a 25bd ffc0 fcbd

fc.3.bias f4 [64]
0.04035099 -0.07537016 0.013782592 0.009089996 -0.044935297 -0.11748634 0.12183738 0.108192585
-0.06333261 -0.077646516 0.025844254 -0.016278416 -0.06678914 0.018691573 -0.017318482 0.09103364
0.032307293 0.09354283 0.070235014 -0.01448674 0.058989584 -0.0599766 0.10869732 -0.011904325
0.107941955 0.039308734 0.035430662 -0.022210246 -0.06342217 -0.075383864 -0.07342432 -0.080957964
0.11699132 -0.07031604 -0.08823584 -0.037528668 0.067778446 -0.05640357 -0.024125755 -0.11776757
-0.083956815 0.006560274 0.031064503 -0.0091778375 -0.03485545 -0.0039450955 -0.094750956 0.06763907
-0.052056137 -0.07957677 -0.023496326 0.059955973 -0.057554476 -0.10691925 0.039048705 0.04050331
-0.108123206 0.101043224 -0.07730692 -0.10479586 -0.00011714699 -0.0844939 0.04167216 -0.054527227
00000000: 1447 253d ac5b 9abd 61d0 613c 35ee 143c
00000010: 130e 38bd ae9c f0bd e085 f93d 1394 dd3d
00000020: 87b4 81bd 2305 9fbd 54b7 d33c 505a 85bc
00000030: bfc8 88bd 121f 993c 7ddf 8dbc d86f ba3d
00000040: a754 043d 6293 bf3d 60d7 8f3d cb59 6dbc
00000050: 109f 713d 06aa 75bd b39c de3d 5c0a 43bc
00000060: ac10 dd3d 3202 213d be1f 113d 43f2 b5bc
00000070: 7ce3 81bd db62 9abd 7d5f 96bd 4acd a5bd
00000080: 2599 ef3d db01 90bd feb4 b4bd a9b7 19bd
00000090: 6dcf 8a3d 6e07 67bd 60a3 c5bc 2030 f1bd
000000a0: 8df1 abbd 91f7 d63b fc7a fe3c a45e 16bc
000000b0: 97c4 0ebd dc45 81bb ca0c c2bd 5a86 8a3d
000000c0: d138 55bd 25f9 a2bd 5e7b c0bc 6594 753d
000000d0: 3ebe 6bbd 7bf8 dabd 89f1 1f3d cce6 253d
000000e0: b36f ddbd c0ef ce3d 1753 9ebd 369f d6bd
000000f0: d0ac f5b8 230b adbd 6db0 2a3d f157 5fbd

placing_layer.0.weight f4 [5, 64]
0.12272017 -0.0872363 0.12454358 -0.111904904 0.04421939 0.083985776 0.04111451 0.018647268
0.029392704 0.021756917 0.10773644 -0.075695604 -0.07684629 -0.06709361 -0.11329728 -0.0012189001
-0.020652384 -0.080864996 -0.07664567 -0.0558964 0.060371578 0.0037121922 -0.0646836 0.031634077
-0.084488094 0.032827333 -0.0346369 0.046983257 0.045042202 0.0029124767 -0.08897908 0.103790924
0.036800355 0.016622007 0.07745081 0.014160782 0.0105525255 0.122119024 -0.08855796 0.054518864
-0.004387185 0.12391502 0.00043094158 -0.076935515 0.04268329 -0.11987302 -0.110040545 -0.02095525
-0.053432897 0.023669094 -0.036357805 -0.12315668 0.1145888 0.0028477162 0.06743723 -0.10784279
-0.026044935 0.023534566 0.08526254 0.057403356 0.11128569 0.094678685 -0.079912245 0.0037510693
-0.07630159 0.016219929 0.10370582 -0.09976813 -0.035530604 0.073715776 -0.011188195 -0.1251242
-0.060836267 -0.08832909 -0.10892901 -0.014933839 -0.04091173 -0.104688965 -0.13029326 0.0038063794
-0.007548756 -0.0907629 0.09438657 0.049219146 -0.043005943 0.04612453 0.06464731 0.100442946
0.08105942 0.07373693 0.08356503 0.032464016 0.08775371 0.06559066 0.03494458 -0.08612821
0.108901486 -0.103895366 -0.07101126 -0.030305237 0.0020724437 -0.03149283 0.013647866 -0.03404312
-0.019185329 0.095860094 -0.09539156 0.071519315 0.05600897 -0.06279137 -0.02807678 -0.057119127
-0.0007361602 -0.0907846 -0.040381268 0.058582745 -0.08311136 0.11001068 0.034208633 -0.036137596
-0.12781085 0.039218824 -0.044696778 -0.075672425 -0.06301111 0.07948711 0.111584574 -0.002537283
0.095238864 -0.02293785 -0.105341114 -0.031388193 0.121980414 -0.10571182 0.0123860445 -0.10182329
-0.112312034 0.029244423 0.06689435 0.09090609 -0.06712854 -0.05212377 -0.10528046 0.007114634
0.06584704 0.007610635 0.08222579 0.10881013 -0.02419062 -0.05174853 0.09749634 0.015709948
-0.051221795 -0.05745795 0.08248731 -0.03879639 -0.08610533 0.12444244 0.045516074 -0.08777046
-0.00284882 -0.048298523 0.06477955 -0.07401997 0.044604473 -0.11889434 -0.008291826 0.004167646
-0.06416829 0.056954555 -0.11338943 -0.11983186 0.07922122 -0.058545616 0.07810795 -0.108163014
0.056580335 0.015656173 0.047424853 -0.070832804 0.10934867 0.11113268 0.06267746 0.048094228
-0.12194398 0.028015703 -0.096006796 0.019473255 -0.05926658 0.04911098 -0.052058667 0.014038652
0.12028471 0.056577876 0.047556475 0.030879453 -0.09928563 -0.023204222 0.00939171 -0.017318562
0.052204117 0.059708133 -0.039643362 0.07083686 -0.009554923 -0.082364336 0.0574435 -0.0787157
0.029206976 0.018211111 0.059272423 -0.031371728 0.04664612 -0.11911988 -0.0919172 -0.09644899
-0.05442825 -0.051517457 -0.0043175966 0.04373668 0.11431512 -0.035672054 -0.004549071 0.09464282
0.093926296 0.005552992 -0.02408263 0.071667716 -0.035965785 -0.12194404 -0.07113005 0.03322579
0.10847984 0.049436286 -0.021119148 0.07084298 0.020715892 -0.10618478 0.008961558 -0.078709155
0.094780624 0.088140726 -0.060795873 0.038303852 0.0355462 -0.029549018 -0.01160714 -0.003568545
0.057840943 0.11001927 -0.1146785 0.10772756 -0.06471434 -0.011400431 -0.023903042 -0.00989227
00000000: b654 fb3d f2a8 b2bd b410 ff3d 662e e5bd
00000010: 641f 353d bc00 ac3d b067 283d 28c2 983c
00000020: f8c8 f03c 903b b23c eca4 dc3d 4c06 9bbd
00000030: 9661 9dbd 6068 89bd 6808 e8bd 80c3 9fba
00000040: 302f a9bc 8c9c a5bd 68f8 9cbd a0f3 64bd
00000050: 3048 773d 4048 733b d678 84bd bc92 013d
00000060: 1808 adbd f475 063d 6cdf 0dbd 8471 403d
00000070: 2c7e 383d 40df 3e3b aa3a b6bd 5690 d43d
00000080: f8bb 163d e02a 883c 889e 9e3d a002 683c
00000090: 80e4 2c3c 8a19 fa3d e05d b5bd 2c4f 5f3d
000000a0: 60c2 8fbb 28c7 fd3d 00f0 e139 5e90 9dbd
000000b0: acd4 2e3d fc7f f5bd f05c e1bd 58aa abbc
000000c0: 74dc 5abd b0e5 c13c eceb 14bd 9239 fcbd
000000d0: 88ad ea3d c0a0 3a3b 881c 8a3d aedc dcbd
000000e0: 305c d5bc 90cb c03c 209e ae3d c81f 6b3d
000000f0: c0e9 e33d e6e6 c13d 08a9 a3bd 80d4 753b
00000100: 0244 9cbd a8df 843c b863 d43d 3c53 ccbd
00000110: 8a88 11bd 4cf8 963d b14e 37bc 8f20 00be
00000120: 732f 79bd e2e5 b4bd 2c16 dfbd 10ad 74bc
00000130: 0f93 27bd 2b67 d6bd 996b 05be 7374 793b
00000140: 8e5b f7bb e6e1 b9bd bf4d c13d 049a 493d
00000150: 0027 30bd 13ed 3c3d cf65 843d 08b5 cd3d
00000160: 7b02 a63d 6303 973d 2424 ab3d fdf8 043d
00000170: 38b8 b33d 6554 863d 0c22 0f3d fd63 b0bd
00000180: be07 df3d 18c7 d4bd 5a6e 91bd b042 f8bc
00000190: d6d1 073b a0fe 00bd 4d9b 5f3c cc70 0bbd
000001a0: 8d2a 9dbc 4c52 c43d a65c c3bd b878 923d
000001b0: a969 653d c398 80bd 4601 e6bc bff5 69bd
000001c0: e0fa 40ba 47ed b9bd d466 25bd 76f4 6f3d
000001d0: 4a36 aabd 484d e13d 5a1e 0c3d 0405 14bd
000001e0: d9e0 02be eba3 203d f813 37bd 25fa 9abd
000001f0: f80b 81bd 23ca a23d 7486 e43d 8c48 26bb
00000200: 980c c33d 28e8 bbbc 15bd d7bd e890 00bd
00000210: ded0 f93d 707f d8bd d6ee 4a3c bb88 d0bd
00000220: da03 e6bd 0092 ef3c e8ff 883d f92c ba3d
00000230: b07a 89bd bc7f 55bd 489d d7bd e021 e93b
00000240: d0da 863d a262 f93b ff65 a83d d8d7 de3d
00000250: 682b c6bc 44f6 53bd 29ac c73d 26b2 803c
00000260: f2cd 51bd 0759 6bbd 1bef a83d f7e8 1ebd
00000270: fe57 b0bd aedb fe3d 106f 3a3d 00c1 b3bd
00000280: 45b3 3abb acd4 45bd 24ab 843d c897 97bd
00000290: 2eb3 363d e07e f3bd 70da 07bc c090 883b
000002a0: aa6a 83bd 2e49 693d b838 e8bd 686a f5bd
000002b0: bc3e a23d 87cd 6fbd 10f7 9f3d 9284 ddbd
000002c0: c8c0 673d 6041 803c 9040 423d ca10 91bd
000002d0: 32f2 df3d 8899 e33d 0a5d 803d 74fe 443d
000002e0: c4bd f9bd 3081 e53c 369f c4bd 6086 9f3c
000002f0: 83c1 72bd 9828 493d 783b 55bd 6002 663c
00000300: d457 f63d 34be 673d 94ca 423d e8f6 fc3c
00000310: 4456 cbbd c816 bebc b0df 193c a8df 8dbc
00000320: fcd3 553d 8490 743d 1461 22bd ea12 913d
00000330: 408c 1cbc a2ae a8bd e049 6b3d b235 a1bd
00000340: 7843 ef3c 782f 953c a4c7 723d a47f 00bd
00000350: 0010 3f3d 20f5 f3bd 163f bcbd 0c87 c5bd
00000360: 28f0 5ebd f803 53bd a07a 8dbb 3c25 333d
00000370: 0c1e ea3d dc1c 12bd 6010 95bb 18d4 c13d
00000380: 6e5c c03d e0f5 b53b f048 c5bc 86c6 923d
00000390: dc50 13bd ccbd f9bd a2ac 91bd c417 083d
000003a0: ae2a de3d b47d 4a3d 1002 adbc 2016 913d
000003b0: 60b4 a93c 6877 d9bd 80d3 123c 4432 a1bd
000003c0: 581c c23d 2083 b43d 1805 79bd 80e4 1c3d
000003d0: e498 113d c810 f2bc e02b 3ebc 40de 69bb
000003e0: a0ea 6c3d c851 e13d 90dc eabd 44a0 dc3d
000003f0: f488 84bd e0c8 3abc 50d0 c3bc 3013 22bc

placing_layer.0.bias f4 [5]
-0.045208856 -0.017337296 -0.039719645 -0.06995337 0.033528067
00000000: ec2c 39bd f206 8ebc 11b1 22bd b643 8fbd
00000010: ba54 093d

placing_layer.1.weight f4 [5, 64]
0.093449436 0.045770586 0.0013270628 0.008692736 -0.113978416 -0.088306546 0.1198277 -0.0010395225
-0.0845856 -0.059401855 -0.064438246 -0.027903229 -0.07183567 0.09772733 -0.11733789 0.06464818
-0.013608701 -0.11052985 0.08273805 0.038650036 -0.1054096 0.023710005 -0.11234178 0.08377187
0.056669526 -0.008173279 0.08403766 0.080286734 0.016236672 -0.04973101 0.09527282 -0.12466748
-0.08141347 -0.059245333 -0.05299069 0.081024334 -0.11391879 -0.10347482 -0.092911676 0.057592757
0.019004345 -0.066574365 -0.03052224 -0.07007118 -0.108423226 -0.06675862 -0.056776628 -0.08323381
0.09935132 -0.06983319 -0.054991603 -0.077147424 0.058317225 -0.085516274 -0.014109503 0.07180485
-0.008796766 -0.024667926 -0.06259445 -0.045281485 0.10176166 -0.039575875 0.07064598 -0.09236489
0.099893145 0.11929615 0.046641193 0.0068396544 0.046937 -0.025409222 0.114422105 -0.11956905
0.06874395 -0.12209298 0.019499008 -0.0733622 -0.012999427 -0.08219001 -0.08773713 -0.07869431
-0.11098133 -0.122120105 -0.09997057 0.030834185 0.029126192 0.06394237 0.020717459 -0.12423283
-0.122945726 -0.0387636 -0.11902317 -0.044219345 -0.11205979 -0.074170694 -0.014192309 -0.098845005
0.07594535 0.11226687 0.043409184 -0.02907641 -0.09511663 0.014907627 -0.051944003 -0.054538727
0.022026129 -0.08467776 0.10932468 0.11669931 0.115193546 -0.049921468 0.113980435 0.09790924
0.10420562 0.012899384 0.06632832 -0.09646386 -0.07354924 0.0805157 -0.0016119924 -0.08505601
-0.06943041 0.0635703 -0.111211196 0.08260667 0.08488 0.091241434 -0.024602821 0.00069696706
-0.027809389 -0.007377118 0.07509664 -0.020067507 0.06475524 0.076206625 0.01325079 -0.109000176
-0.033705536 -0.003070208 0.056312196 0.04389288 -0.08358316 0.06066229 -0.12919086 -0.006264247
0.031964578 -0.049094208 -0.010696202 -0.035117336 -0.08464652 -0.10317816 -0.1100732 0.04559598
-0.056330733 -0.11884673 0.08998878 0.029942697 0.016402021 -0.037600875 0.07585312 0.11672272
0.06897788 0.060547933 -0.09688203 -0.116235875 -0.0788171 -0.03461209 -0.017945953 0.09220868
-0.101910755 -0.060577586 -0.12613156 -0.11924523 0.08624286 -0.08609656 -0.10065985 -0.033988252
-0.126935 -0.0349807 -0.0022920284 0.10719629 -0.115820795 -0.021949703 -0.00426167 -0.089847036
0.09260792 -0.12486554 0.11601267 0.039337326 -0.1093415 0.04830614 -0.12193654 0.080969095
-0.06208837 0.052940294 -0.09906392 0.08133057 -0.11837849 0.05072911 0.0038482845 -0.072632834
0.04411578 0.08838552 0.09615347 -0.029093206 -0.056117877 0.08888571 -0.11546868 -0.05771996
-0.05622384 0.05618505 -0.0051762164 -0.02522102 0.00038719177 0.121713474 -0.1034666 -0.060458124
0.011917666 -0.015174016 -0.08816162 0.059524283 0.07859072 -0.049971685 0.10453288 -0.121466696
-0.00096841156 -0.013191998 -0.04114981 0.049646273 -0.11252464 -0.06570394 0.036321938 -0.07296498
0.065180436 -0.11948991 0.06513785 0.04659362 0.07076916 -0.073146015 -0.117834166 0.088169396
-0.10704255 -0.036785096 -0.04847935 -0.107784376 0.08656727 -0.12218997 0.05756274 -0.01903218
0.06537628 -0.12072547 -0.07581711 -0.087063774 -0.043791488 -0.054298297 0.0993966 0.06832592
00000000: 6b62 bf3d f079 3b3d d7f0 ad3a fa6b 0e3c
00000010: 846d e9bd 10da b4bd 3a68 f53d 9640 88ba
00000020: 373b adbd 5c4f 73bd 33f8 83bd 5095 e4bc
00000030: 941e 93bd 4425 c83d d94e f0bd 4466 843d
00000040: 07f7 5ebc 795d e2bd 9172 a93d 804f 1e3d
00000050: fde0 d7bd 7c3b c23c 7213 e6bd 9690 ab3d
00000060: 4e1e 683d 38e9 05bc f01b ac3d 5f6d a43d
00000070: c502 853c beb2 4bbd 651e c33d aa51 ffbd
00000080: 1bbc a6bd 3cab 72bd c40c 59bd 16f0 a53d
00000090: 414e e9bd 9bea d3bd 7a48 bebd 62e6 6b3d
000000a0: 00af 9b3c 2458 88bd c709 fabc 7b81 8fbd
000000b0: ff0c debd beb8 88bd 9c8e 68bd 7d76 aabd
000000c0: b478 cb3d b404 8fbd e03e 61bd 78ff 9dbd
000000d0: 0bde 6e3d 2823 afbd 8b2b 67bc 6c0e 933d
000000e0: 5020 10bc 6414 cabc 8531 80bd 1479 39bd
000000f0: 6b68 d03d 501a 22bd d7ae 903d ce29 bdbd
00000100: c794 cc3d 8a51 f43d d60a 3f3d 2e1f e03b
00000110: 0341 403d 0027 d0bc 2356 ea3d 9ee0 f4bd
00000120: a1c9 8c3d e20b fabd 62bc 9f3c ec3e 96bd
00000130: 8cfb 54bc 3c53 a8bd 86af b3bd 7b2a a1bd
00000140: 2e4a e3bd 1b1a fabd 5fbd ccbd f997 fc3c
00000150: 0d9a ee3c 38f4 823d a9b7 a93c c86d febd
00000160: f8ca fbbd 95c6 1ebd 6bc2 f3bd 581f 35bd
00000170: 9a7f e5bd cee6 97bd dc86 68bc 406f cabd
00000180: 3c89 9b3d 2cec e53d d4cd 313d a731 eebc
00000190: 82cc c2bd 1f3f 743c 3cc3 54bd 0064 5fbd
000001a0: 2470 b43c 896b adbd 9ee5 df3d 0c00 ef3d
000001b0: 98ea eb3d 747a 4cbd 936e e93d a484 c83d
000001c0: c269 d53d f057 533c 24d7 873d d88e c5bd
000001d0: fca0 96bd 6ae5 a43d 7d49 d3ba d831 aebd
000001e0: 8831 8ebd 2531 823d b2c2 e3bd b02d a93d
000001f0: 91d5 ad3d cadc ba3d db8b c9bc abb4 363a
00000200: 84d0 e3bc c0bb f1bb 44cc 993d 9d64 a4bc
00000210: 659e 843d 3812 9c3d d719 593c 7c3b dfbd
00000220: d10e 0abd 8b35 49bb 9ea7 663d 05c9 333d
00000230: a62d abbd 0579 783d 9c4a 04be 5044 cdbb
00000240: 4aed 023d 0217 49bd 1f3f 2fbc 32d7 0fbd
00000250: 285b adbd 124f d3bd 0f6e e1bd dac2 3a3d
00000260: 0ebb 66bd ea65 f3bd 0a4c b83d 634a f53c
00000270: 885d 863c 6003 1abd e158 9b3d 520c ef3d
00000280: 4644 8d3d 1c01 783d 166a c6bd 130d eebd
00000290: dc6a a1bd 68c5 0dbd 6403 93bc e8d7 bc3d
000002a0: 96b6 d0bd 3420 78bd a228 01be d836 f4bd
000002b0: 19a0 b03d 6553 b0bd c026 cebd 4437 0bbd
000002c0: 40fb 01be ec47 0fbd db35 16bb ba89 db3d
000002d0: 7433 edbd ddcf b3bc 7ba5 8bbb b901 b8bd
000002e0: 39a9 bd3d 81b9 ffbd 0d98 ed3d 2d20 213d
000002f0: 70ee dfbd a9dc 453d ddb9 f9bd 20d3 a53d
00000300: 6050 7ebd ecd7 583d 06e2 cabd a490 a63d
00000310: 6c70 f2bd 54c9 4f3d 8033 7c3b 86c0 94bd
00000320: c0b2 343d 7803 b53d 1cec c43d e054 eebc
00000330: dcdb 65bd b609 b63d d87a ecbd c46b 6cbd
00000340: f84a 66bd 4c22 663d 409d a9bb 509c cebc
00000350: 0000 cb39 ea44 f93d 4ce6 d3bd f0a2 77bd
00000360: 5042 433c 709c 78bc 148e b4bd bccf 733d
00000370: 2cf4 a03d 1caf 4cbd 5615 d63d 88c3 f8bd
00000380: 00dd 7dba 4023 58bc b48c 28bd e459 4b3d
00000390: 5273 e6bd ca8f 86bd 50c6 143d aa6e 95bd
000003a0: 527d 853d 20b7 f4bd fe66 853d f4d8 3e3d
000003b0: 6cef 903d 94cd 95bd 0a53 f1bd 2892 b43d
000003c0: 2039 dbbd f8ab 16bd 4892 46bd 0ebe dcbd
000003d0: 2e4a b13d bc3e fabd e8c6 6b3d 60e9 9bbc
000003e0: 00e4 853d ea3e f7bd 0046 9bbd 7e4e b2bd
000003f0: b45e 33bd e467 5ebd 7290 cb3d 76ee 8b3d

placing_layer.1.bias f4 [5]
0.00056416355 -0.008103199 0.050802846 -0.1125927 -0.117862925
00000000: 60e4 133a 48c3 04bc a516 503d 0097 e6bd
00000010: 1e62 f1bd

placing_layer.2.weight f4 [5, 64]
0.09089397 0.05813779 -0.05495225 -0.04277177 0.037252113 -0.052630395 0.0894137 0.017841965
0.05067475 0.08806442 -0.011583105 0.124996334 -0.023888767 -0.10591243 0.11522417 -0.037970454
-0.016965464 0.113670066 -0.0116755515 -0.1147597 -0.05530475 0.043702558 -0.05197084 0.04286611
-0.056418315 -0.09028378 -0.062039956 -0.07113296 -0.05514285 -0.03290738 0.056041986 0.026243329
-0.074372634 0.04671797 -0.0496836 -0.09358503 -0.07610305 -0.10854752 0.05670671 -0.09620169
-0.06639625 0.037542433 -0.064498305 -0.0628933 -0.10405032 0.050695315 -0.07293782 0.108066216
-0.012160495 0.05420521 -0.05334209 -0.09396656 0.07142998 -0.03856586 0.12131435 0.08124541
0.032655418 -0.024944708 -0.06490818 0.020765439 0.10397138 -0.09524663 0.11528878 -0.011452779
0.0879107 -0.0026645442 -0.02896038 -0.017428856 0.08437476 0.10466718 0.11655743 -0.10649256
-0.1066931 0.009034772 -0.09185179 0.043474834 0.04561181 0.09697921 0.049837537 0.06082545
-0.102600455 0.113403685 0.033567287 -0.029565204 0.040435936 0.06576278 -0.07580492 0.039422892
-0.051565316 -0.058338173 0.07944548 0.09474831 0.02541089 0.022615857 0.03410271 -0.07057859
0.049780253 0.037220746 0.030270517 0.08620703 -0.11526731 -0.038755 0.055057865 -0.067202
-0.05639401 -0.11255376 0.060241167 0.09156898 0.056085147 0.07552648 -0.05066356 0.09499376
-0.111196205 -0.009587452 0.05314496 0.11656379 0.050183192 0.06014572 0.06455036 -0.10521637
-0.080816284 0.071093775 0.122381836 -0.042209506 0.104586504 0.1121242 0.06270761 -0.07762966
0.08242975 0.0021518269 -0.058814038 -0.1020848 0.028894506 0.10631209 -0.080944456 -0.07804895
0.07443569 0.09477636 -0.06706116 0.0012190554 -0.1244495 -0.03717975 0.1045314 0.013692428
0.0665117 0.05276444 -0.012825863 0.03641982 0.037374355 -0.12414826 0.031972785 0.08482495
-0.04400163 0.04038177 -0.097456716 0.026632814 -0.11568376 -0.105377756 0.006290549 0.07295116
0.019336214 -0.101667374 -0.12303784 0.065549 0.02773943 0.0017343436 -0.12686442 0.02719127
0.07238122 0.06640114 0.013341869 -0.10586719 0.07721721 0.08183944 -0.053192765 0.015769223
-0.11663376 0.094985195 0.046518248 -0.093920894 -0.013885466 0.09330187 0.020980071 0.024458773
0.032917805 0.039583545 -0.094015986 0.013915964 -0.11392612 -0.028160965 -0.10547014 -0.064452834
0.11771417 0.025948197 0.10382273 0.11760871 0.0697259 0.10768944 -0.016399557 -0.08487249
0.020678641 -0.06052445 0.04288066 0.043764714 -0.040522367 0.030880203 0.08113084 -0.022432005
0.081529014 -0.026927939 0.06463021 0.06975466 -0.1210711 -0.07306197 -0.10137628 0.052257404
0.10504915 -0.03198857 -0.10526605 0.119916454 -0.02443336 -0.005457687 0.05106268 0.03858134
0.059128024 -0.10984735 0.07618457 -0.12302056 0.018016025 0.06246054 -0.027163912 0.072813794
-0.019310072 0.0442169 0.006064004 0.11080243 -0.10408832 0.099119395 -0.06756872 -0.0372384
0.03974369 -0.01964444 0.0057725688 -0.059712663 0.0028624237 -0.119274914 0.022344597 -0.09877801
-0.044135153 0.107791744 -0.083096266 0.098962575 0.124413274 0.12600972 0.12283715 -0.068873115
00000000: 9e26 ba3d e421 6e3d 9c15 61bd 7431 2fbd
00000010: ac95 183d f892 57bd 881e b73d 5029 923c
00000020: 5490 4f3d 1e5b b43d 10c7 3dbc 14fe ff3d
00000030: 60b2 c3bc 9ee8 d8bd a6fa eb3d e886 1bbd
00000040: 28fb 8abc dacb e83d d04a 3fbc 2207 ebbd
00000050: 3c87 62bd 7401 333d 60df 54bd 6094 2f3d
00000060: e416 67bd b4e6 b8bd 9c1d 7ebd 28ae 91bd
00000070: 78dd 61bd e4c9 06bd 488c 653d 40fc d63c
00000080: ae50 98bd 585b 3f3d 0881 4bbd 82a9 bfbd
00000090: eadb 9bbd 2a4e debd 4c45 683d 6405 c5bd
000000a0: c2fa 87bd 18c6 193d b017 84bd 34ce 80bd
000000b0: 5618 d5bd e4a5 4f3d 6c60 95bd d251 dd3d
000000c0: d03c 47bc 4806 5e3d 3c7d 5abd 8a71 c0bd
000000d0: e249 923d 3cf7 1dbd a873 f83d fe63 a63d
000000e0: b0c1 053d d858 ccbc 94ee 84bd 481c aa3c
000000f0: f2ee d43d aa10 c3bd 861c ec3d 70a4 3bbc
00000100: 860a b43d a29f 2ebb 523e edbc f6c6 8ebc
00000110: adcc ac3d bf5b d63d a9b5 ee3d c518 dabd
00000120: e981 dabd 9506 143c cb1c bcbd ab12 323d
00000130: 73d3 3a3d 099d c63d 7222 4c3d 1b24 793d
00000140: 3020 d2bd 3140 e83d da7d 093d ba32 f2bc
00000150: 27a0 253d a3ae 863d 9c3f 9bbd e679 213d
00000160: 2736 53bd 02f4 6ebd 50b4 a23d 670b c23d
00000170: 802a d03c e444 b93c 49af 0b3d 828b 90bd
00000180: 61e6 4b3d c874 183d e0f9 f73c 508d b03d
00000190: 4411 ecbd 90bd 1ebd 5b84 613d 34a1 89bd
000001a0: 68fd 66bd 9682 e6bd 71bf 763d 8488 bb3d
000001b0: 8ab9 653d a1ad 9a3d 9884 4fbd 178c c23d
000001c0: d6ba e3bd b014 1dbc 88ae 593d ffb8 ee3d
000001d0: e48c 4d3d 5c5b 763d fb32 843d ae7b d7bd
000001e0: 0283 a5bd 9d99 913d 54a3 fa3d e0e3 2cbd
000001f0: 7331 d63d 5fa1 e53d d96c 803d 4dfc 9ebd
00000200: eed0 a83d aa05 0d3b fde6 70bd d611 d1bd
00000210: 2cb4 ec3c 27ba d93d 35c6 a5bd 21d8 9fbd
00000220: bd71 983d 1c1a c23d 5d57 89bd b6c8 9f3a
00000230: 61df febd cb49 18bd 8f14 d63d 3556 603c
00000240: 4937 883d 871f 583d 9223 52bc f32c 153d
00000250: da15 193d 7141 febd e5f5 023d b4b8 ad3d
00000260: 0e3b 34bd 5b67 253d 6397 c7bd 0f2d da3c
00000270: 9beb ecbd 4bd0 d7bd f320 ce3b 6b67 953d
00000280: fb66 9e3c fc36 d0bd 43fb fbbd 8e3e 863d
00000290: cd3d e33c ea52 e33a bfe8 01be 3ac0 de3c
000002a0: 9b3c 943d 52fd 873d db97 5a3c e6d0 d8bd
000002b0: 0e24 9e3d 709b a73d a8e0 59bd 752e 813c
000002c0: aedd eebd 9987 c23d eb89 3e3d 9959 c0bd
000002d0: de7f 63bc 0d15 bf3d 66de ab3c c45d c83c
000002e0: d2d4 063d 5b22 223d 748b c0bd c9ff 633c
000002f0: 1952 e9bd d3b1 e6bc bb00 d8bd d9ff 83bd
00000300: 2014 f13d 5091 d43c 03a1 d43d d6dc f03d
00000310: 74cc 8e3d 488c dc3d 5d58 86bc a1d1 adbd
00000320: 4166 a93c 7ce8 77bd a2a3 2f3d a142 333d
00000330: c8fa 25bd 7bf8 fc3c ed27 a63d 53c3 b7bc
00000340: aff8 a63d fb97 dcbc d85c 843d 88db 8e3d
00000350: 20f4 f7bd 84a1 95bd 5e9e cfbd dc0b 563d
00000360: 0224 d73d 7206 03bd ba95 d7bd c296 f53d
00000370: 7828 c8bc 66d6 b2bb 1a27 513d 7807 1e3d
00000380: 3a30 723d a6f7 e0bd a806 9c3d 34f2 fbbd
00000390: 5896 933c a0d6 7f3d da86 debc 661f 953d
000003a0: 2830 9ebc c81c 353d 8db4 c63b 62ec e23d
000003b0: 422c d5bd 1cff ca3d 7861 8abd 4b87 18bd
000003c0: 48ca 223d 60ed a0bc d127 bd3b 4495 74bd
000003d0: 8097 3b3b 6846 f4bd 040c b73c 204c cabd
000003e0: 10c7 34bd ebc1 dc3d 602e aabd e4ac ca3d
000003f0: 63cc fe3d b108 013e 0b92 fb3d 590d 8dbd

placing_layer.2.bias f4 [5]
-0.119104356 -0.074466355 0.036578305 -0.065231286 0.062486023
00000000: fcec f3bd d181 98bd 22d3 153d fb97 85bd
00000010: 58f1 7f3d

placing_layer.3.weight f4 [5, 64]
-0.054845337 -0.09295195 -0.051310275 -0.023449233 -0.052989535 0.038070034 0.08632959 0.044386733
-0.121315606 0.088794895 -0.055987623 -0.050853588 0.026726333 -0.13479008 -0.1162353 -0.09084314
-0.049418684 -0.033407312 -0.08951037 -0.07832045 0.022443531 -0.115187 0.004272336 0.085435
-0.12763385 0.055656984 -0.07670153 0.06856404 0.06094779 0.08953138 -0.01596019 0.090491645
0.008277994 0.04310791 0.03361803 0.010893099 0.05020393 -0.082208306 0.11295092 0.06540411
-0.040177308 -0.008569535 0.0057870327 0.06393313 -0.0010312729 -0.03622788 -0.05875545 0.06342709
-0.09580665 0.107700415 -0.059033133 -0.10107041 0.10532765 -0.10586331 -0.10456573 0.055336874
0.07794019 0.04646693 -0.0261212 -0.010179292 -0.10289931 -0.039859638 -0.10842387 0.11453928
0.0018941909 -0.00041554868 0.035133243 0.019441187 -0.040591434 -0.047740117 -0.12024681 -0.043457434
-0.029717237 -0.007992119 -0.0025362372 0.041528925 -0.12142077 -0.115914255 -0.07723054 0.042264998
0.08430295 -0.105083734 -0.056252763 -0.024399817 -0.043227702 0.003477797 -0.04261349 -0.064522326
0.018109217 -0.033606544 0.103802666 0.07792412 -0.036543995 -0.07703021 0.10664104 0.0203747
-0.050724253 0.047373608 -0.00043825805 0.07139251 0.019342646 0.11473459 0.047501907 -0.048600465
-0.020410776 0.071627125 -0.07573454 -0.06517267 -0.04272844 0.1057581 0.026149064 0.038140833
-0.089148685 -0.11720626 -0.06761606 -0.062874585 0.09018327 0.021441981 0.10382961 -0.07321082
-0.014170185 -0.0673081 0.05453162 -0.07423644 0.046838805 0.039282605 -0.108759 -0.024596363
0.023208449 0.12054677 -0.12677866 -0.08669708 0.11160527 -0.104105964 -0.036793813 0.07730014
0.06834712 0.017129384 0.040158495 -0.044564843 -0.07587078 -0.0067392318 -0.12699313 0.08151023
0.042698562 0.1010833 -0.055322204 -0.067132585 0.00950967 -0.10646239 0.08187856 0.013477327
0.04601534 -0.08896924 0.064252615 -0.107211754 -0.10550729 -0.08268803 0.042811647 -0.036675856
0.056129385 0.009698633 -0.022693306 0.030295456 -0.059986137 -0.028335502 0.08976112 0.11555132
0.05000575 -0.018494777 -0.087646805 -0.008142234 -0.12156948 0.090597935 -0.021547318 0.019850947
-0.03175819 0.032895457 0.07099758 -0.042111 0.081965424 -0.10149844 0.057603948 0.078102455
0.063366786 0.07237503 -0.1067089 -0.028355926 0.069504514 0.06658255 -0.12514973 -0.04066768
0.016711144 0.00298415 -0.020268653 -0.09270127 0.04330045 0.11640524 0.036540408 0.08018336
-0.08379441 -0.11974907 -0.07209374 0.0016089209 -0.10319008 0.13176107 0.027599314 0.061713334
-0.005724299 0.13772184 -0.05004075 -0.04696648 0.066453435 0.009987342 -0.03386709 -0.1091591
0.09329168 -0.041067164 0.10696313 -0.10227587 0.059961192 0.12451642 0.11860861 -0.10004729
-0.06355194 0.09055853 -0.015945632 0.014307951 0.014373418 -0.039896328 0.044742912 -0.032999016
0.07908804 -0.09169592 0.11180594 0.0005156285 -0.023673978 0.12254597 0.057973094 0.09062245
0.10438234 0.08085256 0.054874208 -0.010429711 0.00037336187 -0.04219228 -0.010819584 0.099129274
-0.120224275 -0.08038273 -0.016122019 0.077365085 0.06775138 0.027547333 0.011289361 -0.09972008
00000000: 81a5 60bd 985d bebd b92a 52bd 9b18 c0bc
00000010: 8e0b 59bd 53ef 1b3d 91cd b03d ddce 353d
00000020: 5174 f8bd 19da b53d 4753 65bd da4b 50bd
00000030: 2ff1 da3c 6906 0abe c60c eebd f80b babd
00000040: 3f6b 4abd 1bd6 08bd 3651 b7bd 7966 a0bd
00000050: 7fdb b73c 29e7 ebbd f4fe 8b3b 8cf8 ae3d
00000060: 73b2 02be 94f8 633d b115 9dbd 4e6b 8c3d
00000070: 64a4 793d 3a5c b73d f2be 82bc af53 b93d
00000080: 6ca0 073c eb91 303d 0fb3 093d f878 323c
00000090: a3a2 4d3d d45c a8bd d052 e73d 97f2 853d
000000a0: f690 24bd 3c67 0cbc 26a1 bd3b 5fef 823d
000000b0: c72b 87ba af63 14bd 8ea9 70bd 10e6 813d
000000c0: 4736 c4bd 0992 dc3d bacc 71bd 01fe cebd
000000d0: 06b6 d73d ddce d8bd 8f26 d6bd eba8 623d
000000e0: 1b9f 9f3d 1c54 3e3d 20fc d5bc 0cc7 26bc
000000f0: e0bc d2bd dc43 23bd 550d debd 9293 ea3d
00000100: 8046 f83a 00de d9b9 e0e7 0f3d 2043 9f3c
00000110: 3443 26bd 248b 43bd f643 f6bd 6c00 32bd
00000120: 9071 f3bc 60f1 02bc 0037 26bb 3c1a 2a3d
00000130: 74ab f8bd 7464 edbd 0c2b 9ebd 101e 2d3d
00000140: 06a7 ac3d 2436 d7bd 4c69 66bd 20e2 c7bc
00000150: 880f 31bd c0eb 633b 7c8b 2ebd 4824 84bd
00000160: c859 943c 04a7 09bd 7e96 d43d ae96 9f3d
00000170: 28af 15bd 04c2 9dbd 9e66 da3d d8e8 a63c
00000180: 3cc4 4fbd d40a 423d 00c6 e5b9 3c36 923d
00000190: 7874 9e3c f8f9 ea3d 5c91 423d 4811 47bd
000001a0: 8034 a7bc 3eb1 923d b61a 9bbd 4079 85bd
000001b0: 0404 2fbd b497 d83d 9036 d63c 9039 1c3d
000001c0: 9693 b6bd d609 f0bd 4a7a 8abd 64c4 80bd
000001d0: 02b2 b83d 18a7 af3c 9ea4 d43d 8eef 95bd
000001e0: 102a 68bc d4d8 89bd 8c5c 5f3d 4609 98bd
000001f0: 0cda 3f3d cce6 203d 0abd debd 507e c9bc
00000200: a51f be3c 3ae1 f63d 44d2 01be 3d8e b1bd
00000210: 4e91 e43d 8235 d5bd 1cb5 16bd 894f 9e3d
00000220: 93f9 8b3d ec52 8c3c 3c7d 243d a089 36bd
00000230: 2462 9bbd c6d4 dcbb 7d0a 02be d6ee a63d
00000240: b0e4 2e3d c304 cf3d 8999 62bd cf7c 89bd
00000250: 72ce 1b3c f408 dabd f2af a73d 02d0 5c3c
00000260: 957a 3c3d 8135 b6bd e096 833d d691 dbbd
00000270: 3514 d8bd 5858 a9bd 445b 2f3d 6c39 16bd
00000280: ede7 653d 04e7 1e3c 50e7 b9bc 2d2e f83c
00000290: 06b4 75bd db1f e8bc aed4 b73d 2ca6 ec3d
000002a0: d4d2 4c3d 5c82 97bc 2b80 b3bd 0167 05bc
000002b0: 6bf9 f8bd 698b b93d 0084 b0bc 749e a23c
000002c0: e014 02bd 63bd 063d 2e67 913d 957c 2cbd
000002d0: 7ddd a73d 6ade cfbd 1ef2 6b3d 2ef4 9f3d
000002e0: 72c6 813d 5c39 943d 328a dabd b04a e8bc
000002f0: 6258 8e3d 6f5c 883d 4027 00be 2793 26bd
00000300: cfe5 883c bb91 433b 720a a6bc 2ada bdbd
00000310: d05b 313d df65 ee3d 65ab 153d 2c37 a43d
00000320: 679c abbd 003f f5bd e2a5 93bd 6de2 d23a
00000330: 5255 d3bd 60ec 063e f517 e23c 1fc7 7c3d
00000340: e692 bbbb f406 0d3e 88f7 4cbd ec5f 40bd
00000350: bd18 883d f3a1 233c 38b8 0abd ce8e dfbd
00000360: b50f bf3d 0b36 28bd 7c0f db3d 0376 d1bd
00000370: de99 753d 7702 ff3d 12e9 f23d 98e5 ccbd
00000380: 8527 82bd c076 b93d 6aa0 82bc e56b 6a3c
00000390: 7c7e 6b3c 556a 23bd 5844 373d fa29 07bd
000003a0: e9f8 a13d 12cb bbbd 83fa e43d 3e2b 073a
000003b0: eeef c1bc 62f9 fa3d 3275 6d3d 4398 b93d
000003c0: 69c6 d53d 0796 a53d c7c3 603d 61e1 2abc
000003d0: c8bf c339 d0d1 2cbd a044 31bc 4a04 cb3d
000003e0: 2538 f6bd b39f a4bd 5312 84bc 9671 9e3d
000003f0: 3cc1 8a3d f2aa e13c 03f7 383c 0b3a ccbd

placing_layer.3.bias f4 [5]
0.08769444 -0.057699263 -0.047918044 0.07686501 -0.06720589
00000000: 2499 b33d 1056 6cbd b645 44bd 676b 9d3d
00000010: 3ea3 89bd
