auto_src/log/z3exp_1/critic_learn/epoch92/imitation_learning_env-20240814-143800/bc_ddpg_actor.pth (torch, 275774 bytes, 108 tensors)

fc.0.weight f4 [64, 620]
0	0x3ba7e344	0.0051235277
1	0x3d05d9e7	0.03267851
2	0xbcba9857	-0.02277772
3	0xbc7e7f4e	-0.0155332815
4	0xbb1354a3	-0.0022480867
5	0x3c62a3b9	0.01383298
6	0x3c6e8772	0.01455866
7	0x3d18acf6	0.037274323
8	0x3bc860e4	0.006115066
9	0x3c8ca204	0.017167099
10	0xbbb26cd5	-0.0054451027
11	0x3b1acb34	0.0023619654
12	0xbce8d703	-0.028422838
13	0xbca16ff5	-0.019706706
14	0xbc04809f	-0.008087306
15	0xbba1193e	-0.004916339
16	0x3c982d52	0.018576298
17	0x3d14c064	0.03631629
18	0xbc9f166c	-0.019419871
19	0xbc4c1fa8	-0.012458719
20	0x3cc442fa	0.023957718
21	0x3d0a41c8	0.03375414
22	0xbc40f663	-0.011777493
23	0x3d0141b4	0.0315568
24	0xb99dd9bd	-0.000301076
25	0x3c1c56f3	0.009542215
26	0x3d2eef71	0.042708818
27	0xbd09e864	-0.03366889
28	0xbcc46a3b	-0.023976436
29	0xbc11aeb9	-0.008891755
30	0xbc1059b8	-0.008810453
31	0x3d33f2be	0.04393267
32	0xbc709236	-0.014683297
33	0xbc02b7c0	-0.00797838
34	0xbc6e1b1e	-0.014532832
35	0xbd0b6184	-0.034028545
36	0xbc3f63a5	-0.011681472
37	0x3d3a31ad	0.04545753
38	0x3cad3534	0.021143533
39	0x3ce6f0d3	0.028191006
40	0x3aad26f3	0.001321046
41	0xbbbb8531	-0.0057226648
42	0x3c00f9a8	0.007872023
43	0xbd26a4b5	-0.04068442
44	0xbcd93bee	-0.026517835
45	0xbc542886	-0.012949115
46	0x3d0fb9bb	0.035089236
47	0x3d1a4ebc	0.037672743
48	0xbb85e76e	-0.0040864265
49	0x3bc31980	0.0059539676
50	0x3ca39d18	0.01997237
51	0x3d0d02e8	0.0344266
52	0x3c62b29b	0.013836528
53	0x3c22533e	0.009907542
54	0x3cd1a4a3	0.0255912
55	0xbc9c8f99	-0.019111441
56	0x3c6f8f12	0.014621513
57	0xbcdfb3a7	-0.027307345
58	0xbcaf387c	-0.021389239
59	0xbc2cdece	-0.010551168
60	0x3cc2ab3b	0.02376329
61	0x3ccd91db	0.025093963
62	0xbc6529a6	-0.013986981
63	0x3cd3282b	0.02577599
64	0x3d07ace4	0.033123866
65	0x3b57090a	0.0032811784
66	0x3c4d75a9	0.012540259
67	0x3ca39ca8	0.01997216
68	0x3cfd66fb	0.030932894
69	0x3d5173b0	0.05113572
70	0xbceb5fea	-0.028732259
71	0xbc822e9c	-0.015891366
72	0x3c620fe9	0.013797739
73	0x3cfefa41	0.03112519
74	0x3d1ffe85	0.039061088
75	0x3d16cf77	0.036818948
76	0x3a806943	0.0009796995
77	0xbcf4f31a	-0.029901076
78	0x3ad28e61	0.0016064161
79	0xbc7489b6	-0.014925411
80	0xbd09389f	-0.033501264
81	0x3d2cdcc8	0.04220274
82	0x3d0b5cd6	0.034024082
83	0xbd053fac	-0.032531425
84	0x3c84ebac	0.016225658
85	0xbc3f28b2	-0.011667417
86	0xbc606674	-0.013696302
87	0xbc948bd3	-0.01813308
88	0x3ca6d760	0.02036637
89	0xbca3f919	-0.02001624
90	0x3cb19ee8	0.021682218
91	0x3d0b25b5	0.033971507
92	0x3d22c224	0.03973593
93	0x3ce12bdc	0.027486734
94	0xbcfe2157	-0.031021757
95	0xbca50adf	-0.020146785
96	0x3d018d42	0.031628855
97	0x3c98dcbc	0.018659942
98	0xbc9ec39b	-0.019380381
99	0xbc3d382f	-0.01154904
100	0x3d25d623	0.04048742
101	0x3d14be63	0.03631438
102	0xbc102824	-0.008798633
103	0xbb2d9d5d	-0.00264915
104	0xbce76afd	-0.028249258
105	0xbb977069	-0.0046215546
106	0xbd00a86d	-0.031410623
107	0xbd1cc12b	-0.038270157
108	0xbb267a20	-0.0025402382
109	0x3c405c0b	0.011740695
110	0xbcb2fea7	-0.021849943
111	0x3ca9bab4	0.02071891
112	0xbcfc788b	-0.030819198
113	0x3d039118	0.032120794
114	0x3ceea710	0.029132396
115	0xbcd563a5	-0.02604849
116	0x3aa40763	0.0012514408
117	0x3c0acdbe	0.008471904
118	0x3c2bc476	0.010483852
119	0x3c98f261	0.018670263
120	0x3c990775	0.018680314
121	0x3bfaaf08	0.00765026
122	0xbc2c970a	-0.010534057
123	0x3cea94c7	0.028635396
124	0xbcfde428	-0.030992582
125	0xbc86c94c	-0.016453408
126	0xba5db8ae	-0.00084580004
127	0xbc179356	-0.009251436
128	0xbaad76fc	-0.0013234313
129	0xbcaaf44f	-0.020868449
130	0xbb2f79b1	-0.0026775415
131	0x3ca1e00d	0.019760156
132	0xbc540f86	-0.012943154
133	0x3bda3805	0.00665951
134	0x3d1f7867	0.038933184
135	0xbb2d67dc	-0.002645961
136	0x3bf8e1be	0.00759527
137	0x3c204e32	0.009784268
138	0x3c71d3e8	0.014759995
139	0x3cfdea4b	0.030995509
140	0x3d37b377	0.044848885
141	0x3d136880	0.03598833
142	0x3d47a9f0	0.04874605
143	0x3bd69d50	0.006549515
144	0xbcbf6d3b	-0.023367515
145	0xbc6e6b6c	-0.014551979
146	0x3d05e8b7	0.032692637
147	0x3aa4c2d3	0.0012570269
148	0xbc447d82	-0.011992814
149	0xbcbd86a1	-0.023135485
150	0xbcf49771	-0.02985737
151	0xbce0229d	-0.027360255
152	0x3a797f19	0.0009517535
153	0x3cffa741	0.031207683
154	0x3cf28d3b	0.02960836
155	0xbd2d0efe	-0.042250626
156	0x3cd94f8c	0.026527189
157	0xbce29f3a	-0.027663816
158	0xbc437b97	-0.011931322
159	0xbb99b5be	-0.004690855
160	0xbaab190a	-0.0013053727
161	0x3aa38eee	0.001247851
162	0xbcb249b6	-0.021763664
163	0xbcd186ac	-0.025576912
164	0x3a7b3700	0.0009583086
165	0x3c13df84	0.009025458
166	0xbc15cc96	-0.009143015
167	0x3cbeee7f	0.023307083
168	0xbcdf76a1	-0.027278246
169	0x3c46e9e2	0.012140723
170	0x3ce116a4	0.027476616
171	0xbc7adc5a	-0.015311325
172	0x3cfeb637	0.031092746
173	0x3c4c2196	0.012459179
174	0xbd221163	-0.039567363
175	0x3cfcd2f9	0.030862318
176	0x3bc4ba25	0.0060036355
177	0xbc0a8c88	-0.008456357
178	0x3d371900	0.044701576
179	0xbcb137e6	-0.0216331
180	0x3c4cdb35	0.012503435
181	0x3a8b6788	0.0010635713
182	0x3ce274e7	0.027643634
183	0x3c04becc	0.00810213
184	0x3c9ce3fe	0.019151684
185	0x3cabd619	0.020976113
186	0xba384cc6	-0.0007030483
187	0x3b630d19	0.0034645258
188	0xbcb3618e	-0.021897104
189	0x3cf264b1	0.029589029
190	0x3d01dba6	0.031703614
191	0x3ceff299	0.029290484
192	0xbccbf8cb	-0.024898907
193	0x392e9946	0.00016651032
194	0xbce907e8	-0.028446153
195	0xbc9459b9	-0.01810919
196	0xbc873ba0	-0.016507924
197	0x3c920447	0.017824305
198	0xbca8fda3	-0.020628756
199	0x3baf1e27	0.0053441706
200	0xbb13eb88	-0.0022570807
201	0x3cda6479	0.026659237
202	0xbcf2a333	-0.029618835
203	0xbcfc4f3a	-0.030799497
204	0xbc88760b	-0.01665785
205	0x3d12180a	0.035667457
206	0xbcb298cc	-0.021801375
207	0x3cfa3a96	0.030545514
208	0x3cbc306d	0.02297231
209	0x3ac2ed9d	0.001487184
210	0x3bf286e1	0.0074013327
211	0x3ba32907	0.004979256
212	0x3c822528	0.015886858
213	0x391addf2	0.00014769266
214	0x3c0fa897	0.008768222
215	0xbb175b39	-0.0023095144
216	0xbc791d2e	-0.015204711
217	0xbccbbcee	-0.024870362
218	0x3d1ba1f6	0.037996255
219	0xbca146f6	-0.019687157
220	0x3b76a712	0.0037636203
221	0x3d18d358	0.037310928
222	0x3cddceea	0.027076203
223	0xbc0db628	-0.008649386
224	0xbcaa2a8f	-0.020772247
225	0x3cdefa35	0.027218917
226	0xbcb459e8	-0.022015527
227	0x396ecab4	0.00022772962
228	0x3a919bc6	0.0011109046
229	0x3bc4c194	0.0060045216
230	0xbc12a368	-0.008950092
231	0x3d16784e	0.036735825
232	0x3c62421f	0.01380971
233	0x3cefa09a	0.029251385
234	0x3ca4d5e6	0.020121526
235	0xbcaaa774	-0.020831801
236	0x3ce8d480	0.02842164
237	0xbca4289a	-0.020038892
238	0xbc000fa0	-0.007816225
239	0x3c9e8925	0.019352505
240	0x3c8dc1fe	0.017304417
241	0x3d283b52	0.041072197
242	0xbc066a83	-0.008204105
243	0x3bb89fd5	0.005634288
244	0x3cd72081	0.026260616
245	0xbd1ff40b	-0.039051097
246	0x3cc696c3	0.02424181
247	0xbd12a26e	-0.035799436
248	0x399094dd	0.00027576732
249	0xbc8eb783	-0.01742149
250	0xbc5c4e4a	-0.0134464
251	0x3c54b70e	0.012983097
252	0x3d1e712e	0.038682155
253	0xbbcfb073	-0.006338173
254	0xbca2d473	-0.019876694
255	0xbc327107	-0.010891206

fc.0.bias f4 [64]
0	0x3ce3f46e	0.027826514
1	0xbc779b47	-0.015112705
2	0xbc6b8540	-0.014375031
3	0x3cf23df7	0.029570563
4	0xbba8f324	-0.0051559377
5	0xbd214d3d	-0.0393803
6	0xbd1419ef	-0.036157545
7	0x3b1e8c5c	0.0024192547
8	0x3d1505ed	0.036382604
9	0xbc8afd4b	-0.016966483
10	0x3c29267a	0.010324115
11	0xbd19705e	-0.037460677
12	0x3d01fbf3	0.031734418
13	0x3c82f3a2	0.015985314
14	0x3bec2aca	0.0072072493
15	0x3cdf9394	0.02729205
16	0x3d208200	0.039186478
17	0xba5e3210	-0.0008476088
18	0xbd1fcb05	-0.039011974
19	0x3d139aa9	0.036036167
20	0x3bcb4b3b	0.0062040365
21	0xbcca8894	-0.024723329
22	0x3ce87af2	0.028378937
23	0xbccea373	-0.025224423
24	0x3cc34d9a	0.023840714
25	0x3d066575	0.0328116
26	0x3ca148a5	0.01968796
27	0x3b74d97b	0.0037361074
28	0x3c63f61b	0.013913657
29	0xbc2d132e	-0.010563655
30	0xbc9cf6ea	-0.019160707
31	0x3d1209bf	0.035653826
32	0xba51505e	-0.0007984693
33	0xbc18ca8b	-0.009325634
34	0xbc48df8c	-0.012260329
35	0x3b217ff5	0.0024642919
36	0x3cb038fc	0.021511547
37	0x3ad22778	0.0016033491
38	0x3c9357e4	0.017986245
39	0xbc9e2cc1	-0.01930845
40	0x3cc65b21	0.024213376
41	0x3caf1534	0.021372415
42	0xbca940f9	-0.020660864
43	0xbc420b76	-0.011843553
44	0xbd18b548	-0.03728226
45	0x3ce69465	0.028146932
46	0xbb2adc9c	-0.0026071435
47	0x3c05fdf6	0.008178225
48	0xbc34d87e	-0.011037944
49	0xbaa93ec6	-0.0012912385
50	0xbcad7890	-0.021175653
51	0x3c44a723	0.012002739
52	0xbd0fc3e8	-0.03509894
53	0xbca8761f	-0.020564137
54	0xbd0a9ccc	-0.03384094
55	0x3cc18b72	0.023626063
56	0xbcd4ac83	-0.025961166
57	0xbc80f1ac	-0.015740238
58	0x3b62a4f4	0.0034583183
59	0x3a76b08e	0.0009410464
60	0xbc48d64f	-0.012258126
61	0x3c6bbf07	0.014388806
62	0xbcac616c	-0.021042548
63	0x3c479182	0.012180688

fc.2.weight f4 [64]
0	0x3f8047a6	1.0021865
1	0x3f800000	1.0
2	0x3f7ff2f6	0.99980104
3	0x3f800000	1.0
4	0x3f801ef0	1.0009441
5	0x3f800000	1.0
6	0x3f8032fe	1.0015562
7	0x3f800000	1.0
8	0x3f800000	1.0
9	0x3f804111	1.0019857
10	0x3f800000	1.0
11	0x3f800000	1.0
12	0x3f80158f	1.0006579
13	0x3f800000	1.0
14	0x3f80146c	1.0006232
15	0x3f7fe884	0.99964166
16	0x3f7f9be4	0.99847245
17	0x3f800000	1.0
18	0x3f800000	1.0
19	0x3f800000	1.0
20	0x3f800000	1.0
21	0x3f800000	1.0
22	0x3f800000	1.0
23	0x3f800000	1.0
24	0x3f800000	1.0
25	0x3f800000	1.0
26	0x3f800000	1.0
27	0x3f800000	1.0
28	0x3f80034e	1.0001009
29	0x3f801f40	1.0009537
30	0x3f800000	1.0
31	0x3f803399	1.0015746
32	0x3f800000	1.0
33	0x3f800000	1.0
34	0x3f800000	1.0
35	0x3f801348	1.0005884
36	0x3f803266	1.001538
37	0x3f800000	1.0
38	0x3f800000	1.0
39	0x3f800000	1.0
40	0x3f802c6c	1.0013556
41	0x3f800000	1.0
42	0x3f800000	1.0
43	0x3f80067b	1.0001978
44	0x3f7fa2fd	0.99858075
45	0x3f800000	1.0
46	0x3f80161f	1.0006751
47	0x3f800000	1.0
48	0x3f804ccd	1.0023438
49	0x3f800000	1.0
50	0x3f8071d6	1.003474
51	0x3f800000	1.0
52	0x3f8044af	1.002096
53	0x3f800000	1.0
54	0x3f800000	1.0
55	0x3f7fe9be	0.9996604
56	0x3f800000	1.0
57	0x3f800000	1.0
58	0x3f806b45	1.0032736
59	0x3f7f9b2a	0.99846137
60	0x3f800000	1.0
61	0x3f800000	1.0
62	0x3f800000	1.0
63	0x3f800000	1.0

fc.2.bias f4 [64]
0	0x3d36e18e	0.0446487
1	0x3d837518	0.06418818
2	0x3c1ecac7	0.009691901
3	0x3d5c984c	0.05385618
4	0x3d5162ad	0.051119495
5	0x3d82023f	0.06348085
6	0xbd6a8f52	-0.057265587
7	0xbd7b81b9	-0.06140301
8	0x3d869e64	0.06573179
9	0x3d587494	0.052845553
10	0x3d5c7a2b	0.053827446
11	0x3d7e2ffb	0.062057476
12	0x3be1997e	0.006884753
13	0x3d868d42	0.065699115
14	0x3d34294f	0.043984707
15	0x3d4b51ad	0.04963844
16	0x3d270ddd	0.040784705
17	0x3d876ff4	0.0661315
18	0xbd839ec5	-0.06426767
19	0xbd895bcb	-0.06706961
20	0xbd81518d	-0.06314383
21	0xbd79fa5e	-0.061029784
22	0xbd84f08c	-0.06491193
23	0xbd827c85	-0.063714065
24	0x3d7ef83f	0.062248465
25	0x3d7a0495	0.061039526
26	0x3d8724e8	0.06598836
27	0xbd17c535	-0.037053306
28	0xbb78ea33	-0.003798139
29	0xbd6fe07b	-0.05856369
30	0xbd85bc5b	-0.065300666
31	0x3d4c5b63	0.04989184
32	0xbd84e2e2	-0.06488587
33	0x3d749fcd	0.05972271
34	0xbd733ef9	-0.059386227
35	0xbd71ad97	-0.05900344
36	0xbd4d02f5	-0.05005165
37	0x3d66082d	0.05616014
38	0x3d853012	0.06503309
39	0xbd82854b	-0.0637308
40	0x3d6fe673	0.058569383
41	0x3d86445e	0.06556009
42	0x3d7e2a94	0.062052324
43	0x3d71f46d	0.059070993
44	0x3d7bacc0	0.061444044
45	0xbd462d5a	-0.048383094
46	0x3d2094d5	0.039204437
47	0xbd874bb9	-0.0660624
48	0x3d1a907c	0.037735447
49	0xbd60466e	-0.054754667
50	0xbd1d8cfc	-0.03846453
51	0xbd5402f0	-0.051760614
52	0xbd014f89	-0.03156999
53	0xbd80c71c	-0.06287977
54	0x3d859724	0.065229684
55	0xbd7339c7	-0.059381273
56	0x3d7597ce	0.059959225
57	0x3d88aed3	0.0667397
58	0xbd30d9ff	-0.043176647
59	0xb988c2dc	-0.00026085123
60	0x3d7fdec4	0.062468305
61	0x3d74ac87	0.059734847
62	0xbd86e26c	-0.06586155
63	0x3d854336	0.0650696

fc.2.running_mean f4 [64]
0	0x46c85b6b	25645.709
1	0x2dd4aa8a	2.4177344e-11
2	0x467f1c16	16327.021
3	0x33e33ab2	1.0581188e-07
4	0x469605e3	19202.943
5	0x00000000	0.0
6	0x46bbb189	24024.768
7	0x00000000	0.0
8	0x2d09ca3b	7.832453e-12
9	0x46b43498	23066.297
10	0x00000000	0.0
11	0x00000000	0.0
12	0x468abdd2	17758.91
13	0x00000000	0.0
14	0x46ef3a58	30621.172
15	0x46139d70	9447.359
16	0x458184e7	4144.613
17	0x00000000	0.0
18	0x00000000	0.0
19	0x00000000	0.0
20	0x00000000	0.0
21	0x00000000	0.0
22	0x00000000	0.0
23	0x00000000	0.0
24	0x00000000	0.0
25	0x00000000	0.0
26	0x00000000	0.0
27	0x33f28aa6	1.1294223e-07
28	0x46d637d1	27419.908
29	0x455b4ef4	3508.9346
30	0x00000000	0.0
31	0x469ab60f	19803.03
32	0x00000000	0.0
33	0x33d1e426	9.773821e-08
34	0x00000000	0.0
35	0x46c02312	24593.535
36	0x468281c5	16704.885
37	0x00000000	0.0
38	0x00000000	0.0
39	0x00000000	0.0
40	0x470083a3	32899.637
41	0x00000000	0.0
42	0x00000000	0.0
43	0x4720e705	41191.02
44	0x460bc1fb	8944.495
45	0x00000000	0.0
46	0x46da4877	27940.232
47	0x00000000	0.0
48	0x47488338	51331.22
49	0x00000000	0.0
50	0x4705f7c0	34295.75
51	0x00000000	0.0
52	0x46c0c8d2	24676.41
53	0x00000000	0.0
54	0x00000000	0.0
55	0x45d85fc3	6923.97
56	0x00000000	0.0
57	0x00000000	0.0
58	0x462c3acb	11022.698
59	0x46bc1b52	24077.66
60	0x00000000	0.0
61	0x00000000	0.0
62	0x00000000	0.0
63	0x00000000	0.0

fc.2.running_var f4 [64]
0	0x470779c3	34681.76
1	0x29440d11	4.3532076e-14
2	0x4738d4af	47316.684
3	0x29440d11	4.3532076e-14
4	0x47d50be8	109079.81
5	0x29440d11	4.3532076e-14
6	0x4780c6cd	65933.6
7	0x29440d11	4.3532076e-14
8	0x29440d11	4.3532076e-14
9	0x476daab8	60842.72
10	0x29440d11	4.3532076e-14
11	0x29440d11	4.3532076e-14
12	0x47958203	76548.02
13	0x29440d11	4.3532076e-14
14	0x47a06a4c	82132.59
15	0x46734ee6	15571.725
16	0x47371762	46871.383
17	0x29440d11	4.3532076e-14
18	0x29440d11	4.3532076e-14
19	0x29440d11	4.3532076e-14
20	0x29440d11	4.3532076e-14
21	0x29440d11	4.3532076e-14
22	0x29440d11	4.3532076e-14
23	0x29440d11	4.3532076e-14
24	0x29440d11	4.3532076e-14
25	0x29440d11	4.3532076e-14
26	0x29440d11	4.3532076e-14
27	0x29440d11	4.3532076e-14
28	0x4697e23c	19441.117
29	0x47503eb5	53310.707
30	0x29440d11	4.3532076e-14
31	0x4763369b	58166.605
32	0x29440d11	4.3532076e-14
33	0x29440d11	4.3532076e-14
34	0x29440d11	4.3532076e-14
35	0x46f39261	31177.19
36	0x479063a4	73927.28
37	0x29440d11	4.3532076e-14
38	0x29440d11	4.3532076e-14
39	0x29440d11	4.3532076e-14
40	0x46ce138d	26377.775
41	0x29440d11	4.3532076e-14
42	0x29440d11	4.3532076e-14
43	0x481be351	159629.27
44	0x4726d1ec	42705.92
45	0x29440d11	4.3532076e-14
46	0x4745c4de	50628.867
47	0x29440d11	4.3532076e-14
48	0x486731fe	236743.97
49	0x29440d11	4.3532076e-14
50	0x46ffadbd	32726.87
51	0x29440d11	4.3532076e-14
52	0x47148c6f	38028.434
53	0x29440d11	4.3532076e-14
54	0x29440d11	4.3532076e-14
55	0x46a6e7b1	21363.846
56	0x29440d11	4.3532076e-14
57	0x29440d11	4.3532076e-14
58	0x4705d357	34259.34
59	0x480b2eca	142523.16
60	0x29440d11	4.3532076e-14
61	0x29440d11	4.3532076e-14
62	0x29440d11	4.3532076e-14
63	0x29440d11	4.3532076e-14

fc.3.weight f4 [64, 64]
0	0x3df32302	0.118719116
1	0x3d0a0660	0.033697486
2	0xbdf8235e	-0.12116121
3	0x3e01f67d	0.12691684
4	0x3e09b819	0.13449134
5	0x3e01b7e6	0.12667808
6	0xbcfc45ce	-0.030795004
7	0xbd19bd60	-0.037534118
8	0x3e1dc7fc	0.15408319
9	0x3d582fb5	0.052779872
10	0x3d6484fe	0.055790894
11	0x3dbb2029	0.091369934
12	0x3d8be954	0.06831613
13	0xbd444839	-0.04792044
14	0x3c9a5e95	0.018843928
15	0x3dbcfe06	0.092281386
16	0x3dbf400c	0.09338388
17	0x3acda3b0	0.0015689041
18	0x3da34422	0.0797198
19	0xbcff84c1	-0.031191232
20	0x3b536cd3	0.003226091
21	0xbc74009e	-0.014892725
22	0xbdb29065	-0.08718947
23	0x3dc59b1b	0.09648725
24	0xbdc484ed	-0.09595666
25	0xbdb36fbb	-0.08761545
26	0x3d8c3390	0.06845772
27	0x3d67feed	0.0566396
28	0xbca4b2fc	-0.020104878
29	0x3d4ac191	0.049501006
30	0xbd8218cb	-0.06352385
31	0x3dd763ac	0.10517058
32	0xbda91a27	-0.08256941
33	0x3df8ddf7	0.121517114
34	0xbe1495f5	-0.14510329
35	0x3b109a9d	0.0022064813
36	0x3da9d4db	0.08292552
37	0x3d6cb4ad	0.057789493
38	0xbad583f7	-0.0016289939
39	0x3db9405d	0.090454794
40	0x3bea7818	0.0071554296
41	0xbdac4e91	-0.08413423
42	0x3d8f1d5d	0.069880225
43	0xbd0bcd0c	-0.034131095
44	0xbdd2526f	-0.10269629
45	0x3dc74784	0.097304374
46	0xbbfbb089	-0.0076809567
47	0xbe000f5a	-0.12505856
48	0x3dcbc424	0.0994952
49	0x3d198ed3	0.037489723
50	0xbd91eaff	-0.071249
51	0x3bafcb86	0.005364838
52	0xbbae09b2	-0.0053112144
53	0xbc831bb5	-0.016004423
54	0xbd2da7d7	-0.042396393
55	0x3df39ff8	0.11895746
56	0xbd56cd6c	-0.052442
57	0x3e1b22bb	0.15149967
58	0x3cad7061	0.02117175
59	0x3d806c44	0.0627065
60	0x3ac0deda	0.0014714852
61	0x3db21479	0.08695311
62	0x3db5423c	0.08850524
63	0x3c647e26	0.013946092
64	0xbe0022f7	-0.12513338
65	0x3e1a070c	0.1504175
66	0xbe04e764	-0.12978894
67	0x3df2f4d7	0.11863106
68	0xbd188c77	-0.037243333
69	0x3d25bc14	0.04046257
70	0x3dcedfe5	0.10101298
71	0xbc2753f5	-0.010212888
72	0xbd135d23	-0.035977494
73	0xbcc2c26c	-0.023774348
74	0x3d940331	0.07227171
75	0x3d2f1cca	0.042752065
76	0x3dd99b8f	0.106253736
77	0xbd2394b7	-0.039936747
78	0x3d970531	0.07374037
79	0x3d6737fb	0.05644987
80	0xbc9677fa	-0.018367756
81	0x3e10f604	0.14156348
82	0x3d97f691	0.07420076
83	0xbe30e9e5	-0.17276724
84	0xbd43e6d2	-0.04782755
85	0xbdab427c	-0.0836229
86	0x3bd1803b	0.00639346
87	0xbdbbdc93	-0.091729306
88	0x3e20d467	0.15706025
89	0x3dc39f69	0.095518894
90	0x3de47bd9	0.111564346
91	0x3dc6819b	0.09692689
92	0x3d9a54c4	0.07535699
93	0xbd9195ea	-0.07108672
94	0xbdb0655b	-0.08613082
95	0xbd53c4bf	-0.051701304
96	0xbd8b2eba	-0.06796022
97	0x3dc1d0cb	0.09463652
98	0x3d5f4cea	0.05451671
99	0xbdb26f39	-0.0871262
100	0xbd86a4ae	-0.06574379
101	0x3dcdf622	0.10056712
102	0xbd40a8de	-0.047036044
103	0xbdf70d8d	-0.120631315
104	0x3ccba605	0.024859438
105	0x3c8811ae	0.016609993
106	0x3e151f59	0.1456274
107	0x3c2501c2	0.01007122
108	0x3d2fc722	0.042914517
109	0xbe10d5c0	-0.14144039
110	0x3d4f596f	0.0506224
111	0x3cc4afbe	0.024009582
112	0x3d6baeba	0.05753968
113	0xbd964496	-0.073373005
114	0x3d752ca9	0.059857044
115	0xbe19703c	-0.1498422
116	0xbdbc8c15	-0.09206406
117	0xbe172045	-0.14758404
118	0xbc934cfa	-0.017981041
119	0x3d0d92ae	0.034563713
120	0x3dc91e3f	0.09820222
121	0xbd9a6f96	-0.075408146
122	0xbde490b4	-0.111604124
123	0x3c58eb69	0.01323972
124	0x3d8a8ce9	0.06765158
125	0xbd2bde97	-0.041960325
126	0xb8d83db2	-0.00010311174
127	0x3dbe6118	0.09295863
128	0xbd1e7679	-0.038687203
129	0x3dcf468f	0.1012088
130	0x3c8664df	0.016405521
131	0xbd8ba801	-0.068191536
132	0x3d9b8e90	0.07595551
133	0x3e2095d7	0.1568216
134	0x3d37dec3	0.044890177
135	0xbdeb09af	-0.114764564
136	0x3d88c6d6	0.0667855
137	0xbdd25f98	-0.10272139
138	0x3de90156	0.11377208
139	0x3df24e95	0.118313946
140	0x3e0cee54	0.1376279
141	0x3d8c1935	0.06840745
142	0x3da69c14	0.08135238
143	0xbdc8c1ae	-0.098025665
144	0xbc8c9849	-0.017162459
145	0x3d266d2d	0.040631462
146	0xbe3ab603	-0.18233494
147	0xbdfb0f95	-0.122588314
148	0xbd941f42	-0.072325245
149	0xbd616f78	-0.055037946
150	0x3d3d8950	0.04627353
151	0xbdf3f293	-0.11911502
152	0xbb5240ac	-0.0032082004
153	0xbd85148a	-0.06498058
154	0x3dd68047	0.10473686
155	0xbd2d1845	-0.042259473
156	0xbce40941	-0.027836444
157	0xbe08c26d	-0.13355418
158	0xbe397d60	-0.18114233
159	0x3dff3052	0.12460388
160	0xbdbd8a4c	-0.09254894
161	0x3dfb884a	0.122818545
162	0xbdbefa54	-0.0932509
163	0x3df145af	0.11780869
164	0xbdb799b7	-0.08964866
165	0xbd24fd28	-0.04028049
166	0xbcc6af4b	-0.024253508
167	0xbd90822f	-0.070560805
168	0xbdd5f720	-0.10447526
169	0xbd072f85	-0.033004303
170	0x3e2dd594	0.16976005
171	0xbde861f3	-0.11346807
172	0x3dcfe736	0.10151522
173	0xbddaa6a5	-0.10676316
174	0x3d1ba227	0.037996437
175	0xbc28885c	-0.010286417
176	0x3c13e72c	0.009027284
177	0xbe278dc9	-0.1636268
178	0x3dcff4fd	0.1015415
179	0x3d8ad854	0.067795426
180	0xbde3fea4	-0.11132553
181	0xbd71c506	-0.059025787
182	0x3e188765	0.14895399
183	0x3d867e91	0.065671094
184	0x3d4cb327	0.04997554
185	0xbcbaf860	-0.022823513
186	0x39e0c773	0.0004287321
187	0x3d8848a9	0.06654484
188	0x3d82fa43	0.0639539
189	0x3e13c026	0.14428768
190	0xbe2fb893	-0.17160253
191	0xbd2a3fbc	-0.041564688
192	0x3d5082b9	0.050905917
193	0x3e15d5fa	0.14632407
194	0x3d1e9626	0.03871741
195	0xbce99da5	-0.028517554
196	0x3e0ef1a3	0.13959365
197	0x3da8cde5	0.08242396
198	0xbddcf952	-0.107897416
199	0xbd088159	-0.03332648
200	0xbcdd4a0d	-0.02701285
201	0x3d605658	0.054769844
202	0x3dc1fc15	0.09471909
203	0x3d2b347f	0.04179811
204	0x3de54db8	0.11196464
205	0x3df1cb47	0.1180635
206	0x3d6c7986	0.05773308
207	0x3e0676ed	0.13131304
208	0x3d5d7e0d	0.05407529
209	0x3e38f51f	0.18062256
210	0xbe020eb7	-0.12700926
211	0xbe24e05a	-0.16101208
212	0xbe217193	-0.15765981
213	0x3bd29871	0.006426864
214	0xbdb3894d	-0.087664224
215	0xbe42d270	-0.19025588
216	0x3dea26bc	0.11433169
217	0x3de6a14b	0.11261233
218	0x3db0142a	0.08597596
219	0xbdacb2f0	-0.08432567
220	0xbdf08154	-0.117434174
221	0xbdf07330	-0.1174072
222	0xbe10e353	-0.14149217
223	0x3bf03128	0.0073300786
224	0xbe4544f9	-0.19264592
225	0x3db6ea0a	0.08931358
226	0xbd95632b	-0.072943054
227	0xbd89749f	-0.06711697
228	0xbd5f3552	-0.05449421
229	0x3ded02d2	0.115728036
230	0x3e46249c	0.19349903
231	0x3d27647e	0.04086732
232	0xbc2f9fb4	-0.010719229
233	0x3e39b814	0.18136626
234	0x3e30c73f	0.17263506
235	0x3df2b019	0.11849994
236	0xba545b13	-0.00081007293
237	0xbb1c2dae	-0.0023830938
238	0xbd14ec4e	-0.03635817
239	0xbded5d31	-0.115900405
240	0xbcd97170	-0.026543349
241	0xbdef2ee8	-0.116788685
242	0x3b9b6d72	0.0047432715
243	0x3d0d0cd6	0.03443607
244	0xbde035cc	-0.10947761
245	0xbdc231b9	-0.0948214
246	0x3d9d9d69	0.07696039
247	0xbc9de8da	-0.019276071
248	0x3d07f6b5	0.033194263
249	0x3e2912a2	0.16511014
250	0xbd6e197b	-0.05812977
251	0x3df2e5f9	0.1186027
252	0xbc02b4f0	-0.007977709
253	0xbd60b941	-0.054864172
254	0xbe0c0bce	-0.13676378
255	0x3ca2cb3a	0.019872297

fc.3.bias f4 [64]
0	0x3d2e975d	0.04262482
1	0x3c0fa914	0.008768339
2	0x3db762f6	0.08954422
3	0x3de3586d	0.1110085
4	0x3bc4a5b1	0.0060011973
5	0x3ce1cc2c	0.027563177
6	0x3e0a1e11	0.13488032
7	0xbce54630	-0.02798757
8	0x3db7e920	0.08980012
9	0xbc827aa7	-0.015927626
10	0x3e2e975c	0.17049927
11	0x3d8f4434	0.069954306
12	0x3e2e2ed0	0.17010045
13	0x3ca39aba	0.01997124
14	0x3d575ddc	0.052579746
15	0xbdb0dd74	-0.08635989
16	0xbd85d816	-0.06535356
17	0xbd913958	-0.070910156
18	0x3e0a385e	0.13498065
19	0x3d018276	0.031618558
20	0x3bbe5268	0.0058081634
21	0x3d370eb5	0.04469176
22	0x3d1707c5	0.036872644
23	0x3b900a6e	0.0043957746
24	0x3c60853e	0.013703642
25	0xbc5eab5f	-0.013590663
26	0x3d9193b0	0.07108247
27	0x3dec74b7	0.11545699
28	0x3df42357	0.11920803
29	0x3e28f740	0.16500568
30	0x3e0ac237	0.1355065
31	0x3d1a1766	0.03761997
32	0x3da49649	0.08036477
33	0x3cefc04b	0.029266497
34	0x3e365698	0.1780647
35	0x3d885135	0.06656114
36	0xbdd45aba	-0.10368867
37	0x3d1bd16f	0.03804153
38	0xbd723b5e	-0.05913865
39	0xbc7893a7	-0.015171922
40	0x3d955991	0.07292474
41	0x3db2b3dc	0.08725712
42	0x3e209fe3	0.15685992
43	0xbda32fe6	-0.0796812
44	0x3df46fc2	0.119353786
45	0x3d199eb6	0.037504874
46	0x3ddff0b5	0.10934583
47	0xbdae5a45	-0.08513311
48	0x3ddd3a11	0.10802091
49	0x3da05b64	0.078299314
50	0xbc45f0b3	-0.012081313
51	0x3df61252	0.12015213
52	0x3dc49b4b	0.09599932
53	0x3e119ea4	0.14220673
54	0x3d47da2d	0.048792053
55	0x3dd8e6db	0.10590907
56	0x3e1453c8	0.14485085
57	0x3e07de2e	0.13268349
58	0xba44568c	-0.0007489703
59	0x3e2a6f48	0.16644013
60	0x3de5b6a7	0.11216479
61	0xbccd17e6	-0.02503581
62	0x3dc092c2	0.09402992
63	0x3e100b93	0.14066915

placing_layer.0.weight f4 [5, 64]
0	0xbd597a31	-0.053095046
1	0x3d84ffde	0.06494115
2	0xbd91abe9	-0.071128674
3	0xbd77b2a6	-0.060473107
4	0x3d3bf006	0.0458832
5	0x3b201f8d	0.0024432868
6	0x3ded761a	0.11594792
7	0xbd2c664c	-0.042089745
8	0xbc434ea2	-0.011920603
9	0xbc6866c2	-0.014184656
10	0xbc910899	-0.017704295
11	0xbd9ebd31	-0.07750929
12	0x3cd42ba3	0.025899714
13	0x3cc183b7	0.023622377
14	0x3ca9db4a	0.020734448
15	0xbd5bf3df	-0.05369937
16	0x3d8d4c0a	0.06899269
17	0x3d71d97c	0.0590453
18	0x3d6a05ed	0.057134558
19	0xbcda43c1	-0.026643636
20	0x3c6bf83a	0.014402444
21	0x3d82e087	0.063904814
22	0xbd49ec80	-0.04929781
23	0xbd191389	-0.037372146
24	0x39f56011	0.00046801617
25	0xbd9f6416	-0.07782762
26	0x3cbabbd2	0.022794638
27	0xbcf99166	-0.03046484
28	0xbd74e129	-0.059785042
29	0x3d3e2786	0.04642441
30	0x3cd00d74	0.02539704
31	0xbd404552	-0.04694111
32	0xbdbe911a	-0.0930502
33	0xbdf54832	-0.11976661
34	0xbd8717ab	-0.06596311
35	0xbe031043	-0.12799172
36	0x3c6c0df3	0.014407623
37	0xbdcfbe3a	-0.10143705
38	0xbd26ea7c	-0.040750965
39	0xbd91dbc2	-0.071219936
40	0x3d9d3f54	0.076780945
41	0x3cebf7c1	0.028804662
42	0x3d03ecd1	0.032208268
43	0x3deb0551	0.114756234
44	0x3db44cb1	0.0880369
45	0x3cd80678	0.026370272
46	0xbd5d0a70	-0.053965032
47	0x3deb72f0	0.11496532
48	0x3d02b831	0.03191394
49	0x3d3ea264	0.046541587
50	0xbd6dbe3a	-0.058042742
51	0xbdbddcef	-0.09270655
52	0x3ca50d82	0.020148043
53	0x3d3b2946	0.04569366
54	0xbc1cc10b	-0.009567509
55	0xbcb2b053	-0.021812594
56	0x3de1ff12	0.11034979
57	0x3dcc9493	0.09989276
58	0xbc11888a	-0.008882651
59	0xbd13fc0b	-0.03612904
60	0x3c121042	0.008915009
61	0x3d06e8ef	0.032936987
62	0x3d5fcaa0	0.054636598
63	0xbdfc6b9d	-0.12325213
64	0x3ddd64d8	0.1081025
65	0x3cf0919a	0.029366303
66	0xbdb65a51	-0.08903945
67	0x3d8f32e7	0.06992131
68	0x3dac42af	0.084111564
69	0x3db724a3	0.08942535
70	0x3d2247d8	0.039619297
71	0xbd71bb1a	-0.059016325
72	0xbd689154	-0.05677922
73	0x3db1b67b	0.086773835
74	0xbd4adf29	-0.04952923
75	0xbc555ee0	-0.013023108
76	0xbd99200c	-0.074768156
77	0xbd7f7b33	-0.06237335
78	0x3d307304	0.043078437
79	0x3d61e60d	0.055151034
80	0xbc8a3c80	-0.016874552
81	0x3d4c8b13	0.04993732
82	0xbdf4fd4d	-0.11962376
83	0xbe092be8	-0.13395655
84	0xbdd1c047	-0.10241752
85	0x3d030890	0.031990588
86	0xbde192ff	-0.110143654
87	0x3c119397	0.008885286
88	0xbc2aa276	-0.01041471
89	0xbcd8f308	-0.026483074
90	0x3dce5013	0.10073867
91	0x3d805c61	0.0626762
92	0xbde66f34	-0.11251679
93	0xbe069eed	-0.13146563
94	0x3d58512a	0.05281178
95	0x3d72e1e4	0.059297457
96	0xbdd91c4f	-0.106011026
97	0x3c8c5b4f	0.017133383
98	0x3bf34ed0	0.0074251667
99	0x3d0cca90	0.034372866
100	0x3c5f4bc3	0.013628903
101	0x3da14771	0.078749545
102	0x3dbabc80	0.09117985
103	0x3d13de02	0.036100395
104	0x3dc0515f	0.0939052
105	0x3cdbf1f6	0.026848774
106	0xbd63f19f	-0.05565035
107	0xbcce3cb3	-0.025175428
108	0x3d382c5d	0.044964183
109	0xbdca55b3	-0.09879627
110	0xbd956aad	-0.072957374
111	0xbd34fb5f	-0.04418504
112	0xbc839819	-0.016063737
113	0xbca0529f	-0.019570647
114	0xbdf010f0	-0.117219806
115	0x3d05ccab	0.03266589
116	0x3cddf21f	0.027092991
117	0x3d893b3a	0.0670075
118	0xbbba0c89	-0.005677764
119	0x3bf9fcb7	0.007629003
120	0x3ddfe426	0.10932188
121	0x3de27c96	0.11058919
122	0xbde22cea	-0.11043723
123	0x3c4e99d8	0.012609921
124	0xbdf65516	-0.120279476
125	0xbde32b48	-0.110922396
126	0x3d621236	0.05519315
127	0xbdb36719	-0.08759899
128	0x3cdaef60	0.026725471
129	0xb9137638	-0.00014063052
130	0x3db0b2a0	0.0862782
131	0xbc331a13	-0.01093151
132	0xbcf30a49	-0.02966799
133	0x3e10759f	0.14107369
134	0xbd388399	-0.045047376
135	0xbdc073d7	-0.09397095
136	0x3d89dcb5	0.0673155
137	0x3cf750a2	0.030189816
138	0xbda3c709	-0.07996947
139	0x3dff5026	0.12466459
140	0xbdb007d7	-0.08595245
141	0x3d8b6610	0.06806576
142	0x3d8ec927	0.069719605
143	0xbd7a625e	-0.061128967
144	0x3d3120ba	0.0432441
145	0x3d289a17	0.041162577
146	0xbdb452f6	-0.08804886
147	0x3d0f46b8	0.034979552
148	0x3d984db4	0.07436696
149	0x3d127c10	0.035762846
150	0x3d5ed203	0.0543995
151	0x3d636a86	0.05552151
152	0x3e113d0f	0.14183448
153	0x3d92cc0f	0.07167827
154	0x3cfaf5ea	0.03063484
155	0xbcb40ddf	-0.02197927
156	0x3d40ca86	0.04706814
157	0x3dff5d57	0.12468975
158	0xbd5911e2	-0.05299557
159	0x3de1d66e	0.11027227
160	0x3da3fc71	0.08007134
161	0xbd903141	-0.070406444
162	0x3c4a1563	0.012334201
163	0xbd6e3c83	-0.058163177
164	0xbdb69a71	-0.08916176
165	0x3dd67f21	0.10473467
166	0xbd444218	-0.047914594
167	0x3d883e50	0.0665251
168	0x3e002d98	0.12517393
169	0xbd6712fd	-0.056414593
170	0x3d4ae748	0.049536973
171	0xbdd80a19	-0.10548801
172	0xbc9978b1	-0.018734308
173	0x3dd2da95	0.102955975
174	0xbd607d54	-0.054807022
175	0x3d124723	0.035712373
176	0x3e111b6d	0.14170618
177	0x3de8e5cf	0.113719575
178	0xbd447ae7	-0.04796877
179	0xbd9d2ae5	-0.07674197
180	0xbaa17bcd	-0.0012320221
181	0x3d90e668	0.070751965
182	0x3d9be294	0.07611576
183	0xba3807a2	-0.00070201803
184	0x3df031ae	0.11728226
185	0x3db4f86e	0.08836447
186	0x3dc6a3a3	0.0969918
187	0x3d41b8f0	0.04729551
188	0x3e18b34b	0.14912145
189	0xbdb3e6ce	-0.08784257
190	0x3d484b4a	0.048899926
191	0x3e005301	0.12531663
192	0xbddcb490	-0.10776627
193	0x3cbee2e8	0.023301557
194	0xbd945756	-0.072432205
195	0x3ca1f450	0.019769818
196	0x3b8d0960	0.004304096
197	0xbde5b336	-0.112158224
198	0xbd768e30	-0.060194194
199	0xbd293650	-0.041311562
200	0xbcad4dc8	-0.021155253
201	0xbdd22d06	-0.10262494
202	0xbcf02758	-0.029315636
203	0xbd4637e0	-0.04839313
204	0xbdf7d35a	-0.12100859
205	0xbda0bbe4	-0.07848337
206	0xbdaee8ac	-0.085404724
207	0x3ddbca2e	0.10731922
208	0x3ca48fa8	0.020088032
209	0xbda87dc8	-0.08227116
210	0x3dfd8c34	0.12380257
211	0xbd100c98	-0.03516826
212	0xbd4374d4	-0.047718838
213	0x3dbbabec	0.09163651
214	0xbbf90380	-0.007599294
215	0x3d5a3040	0.05326867
216	0xbc485c50	-0.01222904
217	0xbbd66a00	-0.006543398
218	0x3dc9e15c	0.09857437
219	0xbd210598	-0.039311975
220	0x3db46900	0.0880909
221	0x3ddb31f6	0.10702889
222	0xbdd11aa0	-0.102101564
223	0xbc0d1450	-0.0086108
224	0xbdd956a8	-0.106122315
225	0x3d3ef890	0.046623766
226	0xbdc4a5bc	-0.09601924
227	0xbc023620	-0.007947475
228	0xbdca2112	-0.09869589
229	0x3da2abb4	0.07942906
230	0x3d70f298	0.058825105
231	0x3d3fcad4	0.04682429
232	0x3d15145c	0.03639637
233	0xbbab9720	-0.0052365214
234	0xbdd83170	-0.105563045
235	0xbdc60dd6	-0.09670608
236	0xbdbc3996	-0.09190671
237	0x3d91186a	0.07084735
238	0xbda1e36a	-0.07904704
239	0xbd969182	-0.07351972
240	0x3d741140	0.059586763
241	0xbdcf3744	-0.10117963
242	0x3dbf5d3c	0.09343955
243	0xbdca2a44	-0.09871343
244	0xbda2888c	-0.079362005
245	0xbc9115f0	-0.017710656
246	0xbc8c83c0	-0.017152667
247	0x3dd0bf5e	0.101927504
248	0xbbead4a0	-0.00716646
249	0x3d25f074	0.040512517
250	0x3d40db38	0.047084063
251	0xbdb8119c	-0.08987734
252	0x3d504ad4	0.05085261
253	0xbdc9a5a8	-0.098460495
254	0xbdb72a4c	-0.08943614
255	0x3c7317b0	0.0148371905

placing_layer.0.bias f4 [5]
0	0xbdc162d7	-0.0944268
1	0xbdad0d39	-0.08449788
2	0x3ced8993	0.028996265
3	0xbd8ef43a	-0.06980176
4	0x3d9c46f9	0.076307245

placing_layer.1.weight f4 [5, 64]
0	0x3e00c49a	0.12574998
1	0x3e0a9d34	0.1353653
2	0x3d81b142	0.06332637
3	0x3df4905a	0.119415954
4	0xbd5afc93	-0.05346353
5	0xbdb73ac5	-0.08946756
6	0x3e2a6bb7	0.16642652
7	0x3de78b94	0.11305919
8	0x3e04eb7b	0.12980454
9	0x3c65bb99	0.014021778
10	0x3d9eab9a	0.07747574
11	0x3e186638	0.14882743
12	0xbd4b2311	-0.04959399
13	0xbcd69fc6	-0.026199233
14	0x3db0ab3f	0.086264126
15	0x3df838ab	0.121201836
16	0xbd82f3ae	-0.063941345
17	0x3e0ee7f8	0.13955677
18	0xbc62182a	-0.0137997065
19	0x3deb538a	0.11490543
20	0xbc5478ab	-0.012968223
21	0x3dec216b	0.115298115
22	0x3e0f6152	0.14001969
23	0xbd5cd1e0	-0.05391109
24	0xbcb8e487	-0.022569908
25	0x3e049bb0	0.12950015
26	0x3e1ea561	0.15492775
27	0x3d88b073	0.0667428
28	0x3dcbac19	0.099449344
29	0x3d5d5687	0.054037597
30	0x3d992f3a	0.07479711
31	0x3de3057a	0.11085029
32	0xbd8fb04f	-0.0701605
33	0x3cff5b4a	0.03117146
34	0x3d733506	0.05937674
35	0xbd40cfb2	-0.047073074
36	0x3d8d6ea1	0.069058664
37	0x3ca244e6	0.019808244
38	0xbd94524f	-0.072422616
39	0x3d9aaf49	0.07552964
40	0x3d87b3ae	0.06626068
41	0xbd869c9a	-0.06572838
42	0x3d6cba1a	0.057794668
43	0xbc854761	-0.016269388
44	0x3e2b5669	0.16732182
45	0xbd32d8f6	-0.04366394
46	0x3e0e7e22	0.13915303
47	0xbcb34f60	-0.021888435
48	0x3e25c5c6	0.16188726
49	0xbc9ea744	-0.019366868
50	0xbda1ea5b	-0.07906028
51	0xbc333709	-0.010938414
52	0xbd940cac	-0.072289795
53	0x3d8f1d5e	0.06988023
54	0xbcab3d8a	-0.020903368
55	0x3d896287	0.06708246
56	0x3ca976b6	0.020686489
57	0xbcb3acae	-0.021932926
58	0x3e10616e	0.14099666
59	0x3d967fe7	0.07348614
60	0x3e0f4724	0.13991982
61	0x3d64a8f2	0.05582518
62	0x3dda1313	0.10648169
63	0x3e2ac545	0.16676815
64	0x3dc68ef3	0.09695234
65	0xbd5d30c3	-0.05400158
66	0x3d85cea8	0.06533557
67	0xbd08f9d0	-0.033441365
68	0x3dc8c31b	0.098028384
69	0xbd8ab2e3	-0.06772401
70	0xbdf675c9	-0.120341845
71	0xbcd39ddc	-0.02583211
72	0xbca1565e	-0.019694503
73	0xbdb27b3e	-0.08714913
74	0xbdc2812a	-0.09497292
75	0xbd4e5463	-0.050373446
76	0xbc5f01ef	-0.013611301
77	0xbe04613c	-0.12927717
78	0x3d069160	0.032853484
79	0xbded40db	-0.11584636
80	0x3de9bf58	0.11413449
81	0xbd4069ec	-0.046976015
82	0xbdb0d2aa	-0.08633931
83	0xbd671a89	-0.05642179
84	0x3dcaf6f3	0.09910383
85	0xbdd034b9	-0.10166306
86	0x3c6b7584	0.01437128
87	0x3d24b60c	0.040212676
88	0xbd85f0ef	-0.06540095
89	0xbca9c15b	-0.020722082
90	0xbd8073ee	-0.06272112
91	0xbd78597c	-0.060632214
92	0x3d623eae	0.055235557
93	0x3d9aaeb5	0.07552854
94	0x3cf37346	0.029718053
95	0xbd8ef2e6	-0.06979923
96	0x3d0380ef	0.032105383
97	0x3d66db4d	0.056361485
98	0xbcf04b48	-0.029332772
99	0xbace456e	-0.0015737244
100	0x3deb52e2	0.11490418
101	0xbdb7dbb3	-0.08977451
102	0xbdc35b2a	-0.095388725
103	0x3dc7a271	0.0974778
104	0xbbed43d2	-0.007240751
105	0xbd986de7	-0.07442837
106	0xbdca4812	-0.098770276
107	0xbde9e022	-0.11419703
108	0xbdfccf5d	-0.12344239
109	0xbe01f249	-0.1269008
110	0xbd9ba8c2	-0.076005474
111	0x3cb95218	0.022622153
112	0xbdd31c2d	-0.103081085
113	0x3dde401d	0.108520724
114	0x3d0448a6	0.032295845
115	0xbd34489c	-0.04401456
116	0x3dc7edbb	0.0976214
117	0x3d10adf5	0.03532215
118	0x3d8323e2	0.064033285
119	0xbe0cc39d	-0.13746496
120	0x3bcb3291	0.0062010963
121	0x3dc5f9af	0.09666764
122	0xbd923254	-0.071385056
123	0x3d811852	0.06303467
124	0xbd03a0e2	-0.03213585
125	0xbdd370a0	-0.10324216
126	0xbcc19382	-0.023629908
127	0x3c8f70e8	0.017509893
128	0x3db857bd	0.0900111
129	0xbd626713	-0.05527408
130	0x3d9d8a38	0.07692379
131	0x3dd99633	0.10624351
132	0x3bd72f23	0.0065668984
133	0x3cc85740	0.024455667
134	0xbda80a20	-0.08205056
135	0xbcadd87d	-0.021221394
136	0xbd99db3d	-0.075125195
137	0x3cecc0c6	0.028900515
138	0x3d0330c3	0.032028925
139	0xbd02b2ae	-0.031908683
140	0xbd8d2617	-0.06892031
141	0xbbb7a603	-0.005604507
142	0x3d334cde	0.04377448
143	0xbde0872b	-0.10963281
144	0xbdaf3d07	-0.08556562
145	0xbd45a401	-0.04825211
146	0xbe03919b	-0.12848513
147	0xbdc4a58e	-0.096018896
148	0x3d87e761	0.06635929
149	0xbd96704c	-0.07345638
150	0xbd95e0ed	-0.07318292
151	0xbdfc8b9e	-0.12331317
152	0x3cc77b03	0.024350649
153	0x3a102666	0.0005498886
154	0xbd44d260	-0.04805219
155	0xbe034504	-0.12819296
156	0xbde3add8	-0.111171424
157	0xbca791bd	-0.020455236
158	0xbd8410a1	-0.06448484
159	0x3c02e0c9	0.007988163
160	0xbd924688	-0.07142359
161	0xbd11eb4a	-0.03562478
162	0xbd55d3a8	-0.052203804
163	0xbded9168	-0.116
164	0xbda5f044	-0.08102468
165	0x3db1a267	0.08673554
166	0x3ca1f558	0.01977031
167	0xbd976d7b	-0.073939286
168	0xbd92bf84	-0.07165435
169	0xbe03e053	-0.12878542
170	0x3cd5b83c	0.026088826
171	0x3dd3c64e	0.10340558
172	0xbe09ea8d	-0.1346838
173	0xbe04820e	-0.12940237
174	0x3d85303d	0.06503341
175	0x3dc87f2e	0.097898826
176	0xbd29e37f	-0.041476723
177	0xbe03ed9b	-0.12883608
178	0xbde4c914	-0.11171165
179	0x3d98bf65	0.074583806
180	0x3ce5458a	0.02798726
181	0xbdb0e83f	-0.086380474
182	0xbd766b18	-0.060160726
183	0xbdb59506	-0.088663146
184	0x3d2973a3	0.041370045
185	0x3d353687	0.044241454
186	0xbdc0795c	-0.093981475
187	0xbd00f92a	-0.03148762
188	0x3a87f417	0.0010372427
189	0x3dcf583a	0.1012425
190	0x3bfa4b9e	0.007638409
191	0x3c9b87d3	0.018985664
192	0x3c8f26b3	0.017474508
193	0xbddfc152	-0.10925545
194	0x3dd96cf1	0.10616482
195	0xbdeada70	-0.11467445
196	0x3d10762e	0.035268955
197	0xbdf959e9	-0.12175352
198	0xbdba3f86	-0.090941474
199	0xbb3dea97	-0.0028978938
200	0x3d06e1b2	0.032930084
201	0x3dc758aa	0.09733708
202	0xbd9610df	-0.07327437
203	0x3d076dd7	0.033063736
204	0x3db1ac1d	0.08675406
205	0x3d7d56e0	0.06185043
206	0x3c5d852b	0.013520519
207	0x3c67ab40	0.01413995
208	0xbd2852b3	-0.041094493
209	0x3cb36ffd	0.021903986
210	0xbbbaf13c	-0.005705027
211	0x3dcb92d7	0.09940117
212	0xbd039201	-0.032121662
213	0xbc1d3ccc	-0.009597015
214	0x3daa12f8	0.08304399
215	0xbdcb4e90	-0.09927094
216	0x3d1b43ef	0.037906583
217	0xbdd7b8a9	-0.10533268
218	0xbdac9dff	-0.08428573
219	0xbd981a99	-0.07426948
220	0x3dab2b70	0.083578944
221	0xbc54a976	-0.012979856
222	0x3dd26e79	0.10274977
223	0x3d8bf5f0	0.06834018
224	0xbd0b9f7b	-0.03408764
225	0x3c3ce2e2	0.011528702
226	0xbcf59e08	-0.029982582
227	0xbdd67479	-0.10471434
228	0x3dce0791	0.10060037
229	0xbe00c1b9	-0.125739
230	0xbdfccaeb	-0.12343391
231	0x3d17b0a7	0.037033703
232	0x3d295993	0.04134519
233	0xbd70a4c9	-0.0587509
234	0x3d6821d2	0.05667288
235	0x3d88156e	0.066447124
236	0x3ccb8eaa	0.024848301
237	0x3dca5801	0.09880067
238	0xbd2423e6	-0.040073298
239	0xbcad8ee2	-0.021186296
240	0xbd9a3c06	-0.0753098
241	0xbc82740d	-0.015924478
242	0xbd5df92a	-0.0541927
243	0xbd217d94	-0.0394264
244	0xbd8bcd0b	-0.06826218
245	0xbd9449af	-0.072406165
246	0xbc8dd997	-0.017315669
247	0xbbbac37f	-0.0056995745
248	0xbe0051cc	-0.12531203
249	0x3d5ed22b	0.05439965
250	0xbd295982	-0.041345127
251	0xbe06e93c	-0.1317491
252	0xbda4881a	-0.08033772
253	0x3d9d2757	0.07673519
254	0xbde1fc52	-0.110344544
255	0xbdd5a635	-0.10432092

placing_layer.1.bias f4 [5]
0	0x3d6dc121	0.05804551
1	0x3c7f44c7	0.015580363
2	0x3dd6c1f0	0.104862094
3	0x3b9bf3ef	0.0047593038
4	0xbd646cd4	-0.05576785

placing_layer.2.weight f4 [5, 64]
0	0x3df0ad51	0.117518075
1	0xba625832	-0.0008634358
2	0x3d9fda05	0.07805256
3	0xba91b1b6	-0.0011115584
4	0x3d8d0fc8	0.06887776
5	0xbc4a9ad7	-0.012366018
6	0x3e355f09	0.17712034
7	0x3c884554	0.01663462
8	0xbcbf94a1	-0.023386301
9	0xbd1289e1	-0.035776023
10	0x3e345b1f	0.17612885
11	0x3d21e600	0.039525986
12	0x3dc7c542	0.09754421
13	0xbc9f98ea	-0.019482095
14	0x3d5efc63	0.054439913
15	0x3e07504a	0.13214222
16	0x3d0289b2	0.031869598
17	0x3e050781	0.12991144
18	0x3d894758	0.06703061
19	0x3dac231f	0.08405136
20	0x3e140f95	0.14459069
21	0x3e195f7b	0.14977829
22	0x3d8a0ead	0.067410804
23	0x3dac0834	0.08400002
24	0x3d854bd0	0.06508601
25	0x3dba5c22	0.09099604
26	0x3dec833a	0.11548467
27	0x3e1f411f	0.15552185
28	0x3d210801	0.039314274
29	0x3c7066c4	0.014672939
30	0xbd8b8788	-0.0681296
31	0xbd5c6b44	-0.053813234
32	0x3d898423	0.06714656
33	0x3e03b357	0.12861381
34	0x3d93ebb1	0.07222689
35	0x3e1f3459	0.15547313
36	0x3d0c21d8	0.034211963
37	0x3dc6d843	0.097092174
38	0x3ad2b1a9	0.0016074675
39	0x3e140db0	0.14458346
40	0x3d34c54c	0.04413347
41	0x3caa58ce	0.020794298
42	0xbce29dc8	-0.027663127
43	0x3dc7ccf7	0.09755891
44	0x3e28b4dc	0.16475242
45	0xbdabdda2	-0.083918825
46	0xbd6f929b	-0.058489423
47	0x3e02b081	0.12762643
48	0xbd9dd6bc	-0.07706973
49	0x3d746e62	0.05967558
50	0x3d0a8a68	0.0338234
51	0x3decd0a7	0.11563235
52	0xb80f0f4c	-3.4108103e-05
53	0x3dcc0b7b	0.09963127
54	0x3e288167	0.16455613
55	0x3d92806f	0.07153403
56	0x3d6aaa1c	0.057291135
57	0xbd7db13e	-0.06193661
58	0x3d615ed6	0.055022083
59	0x3db18ec9	0.08669812
60	0x3dbd55c8	0.09244877
61	0x3d959481	0.073037155
62	0xbc5f6feb	-0.013637523
63	0xbcc41dbf	-0.023939965
64	0xbcc605fb	-0.024172774
65	0xbce32536	-0.027727704
66	0xbd9c37d3	-0.07627835
67	0xbde6aeb9	-0.112637945
68	0xbdcb9ab2	-0.09941615
69	0xbcb1d1f2	-0.021706555
70	0xbc2547cb	-0.010087918
71	0x3d42e5de	0.0475825
72	0x3db7ccb0	0.08974588
73	0xbbd9b153	-0.006643453
74	0x3c651a11	0.0139832655
75	0xbdee7a6d	-0.116444446
76	0xbdc205ca	-0.094737604
77	0x3dbb92ba	0.09158845
78	0x3c63e099	0.013908529
79	0x3d2420c9	0.04007033
80	0x3cab7717	0.02093081
81	0xbd996e92	-0.07491793
82	0xbd01cf90	-0.031692088
83	0x3dd364d8	0.10321969
84	0xbd5dcd31	-0.054150764
85	0x3d64b3ad	0.055835415
86	0xbd5bba67	-0.053644564
87	0xbd8808a9	-0.06642277
88	0xbd30a219	-0.04312334
89	0xbdb0a98f	-0.08626091
90	0xbd27fb47	-0.04101112
91	0xbd65efa5	-0.056136746
92	0xbd943311	-0.07236303
93	0xbddd7b7f	-0.10814571
94	0xbd54db46	-0.051966928
95	0xbd89b1f6	-0.067233965
96	0xbd540c03	-0.051769268
97	0xbdb04167	-0.086062245
98	0xbd047ef0	-0.03234762
99	0xbd458c13	-0.04822929
100	0xbd149860	-0.03627813
101	0xbc444c3a	-0.011981064
102	0xbdd06ec4	-0.10177377
103	0x3d736d1f	0.059430238
104	0xbcbdd8ad	-0.023174608
105	0xbd99a1a8	-0.075015366
106	0x3d2add1f	0.041714784
107	0x3dcf1b54	0.10112634
108	0x3c4ede44	0.012626234
109	0xbc052b20	-0.008127958
110	0xbd24335f	-0.040088054
111	0x3ce12238	0.027482137
112	0x3d6b9967	0.057519343
113	0x3d58c52c	0.052922413
114	0xbbea4872	-0.0071497494
115	0xbdbc98b7	-0.092088155
116	0xbdf74935	-0.1207451
117	0x3d616810	0.055030882
118	0x3d80e8e0	0.062944174
119	0x3de98d69	0.11403925
120	0x3d2c1bc2	0.04201866
121	0xbdf5250a	-0.11969955
122	0xbc78f866	-0.015195942
123	0x3ddf0ef8	0.10891527
124	0xbb3f2f05	-0.0029172313
125	0x3dbe5d81	0.09295178
126	0xbe049be8	-0.12950099
127	0xbd8313a3	-0.0640023
128	0x3d53a745	0.051673193
129	0xbd9e3e17	-0.077266864
130	0x3ccb36fa	0.024806488
131	0xbe0f5dd4	-0.14000636
132	0x3d839b4f	0.06426107
133	0xbb8afb06	-0.00424135
134	0x3c8ceff3	0.01720426
135	0x3d561e60	0.05227506
136	0xbc8dcbdc	-0.017309122
137	0xbdf9e628	-0.12202102
138	0x3dc3f6c3	0.095685504
139	0x3d7e38f1	0.062066022
140	0xbd436e5c	-0.04771267
141	0xbcfc0196	-0.030762475
142	0x39094046	0.00013089282
143	0xbd88dd59	-0.06682844
144	0xbc86cb1a	-0.016454268
145	0xbe0263a8	-0.12733328
146	0xbd29f84f	-0.04149657
147	0xbd01ccef	-0.03168958
148	0x3b358c80	0.0027702153
149	0x3d3b023a	0.04565642
150	0x3d8ad9c4	0.06779817
151	0x3d8ea82b	0.06965669
152	0xbe075068	-0.13214266
153	0x3d878d42	0.0661874
154	0x3daa4940	0.083147526
155	0xbdeeb11a	-0.11654873
156	0x3d4cdc16	0.050014578
157	0xbd6863ff	-0.05673599
158	0xbd91567a	-0.07096572
159	0x3d7545b0	0.059880912
160	0xbd5ac397	-0.053409185
161	0x3b83b065	0.0040188306
162	0x3d129bab	0.035792988
163	0xbd1533d1	-0.03642637
164	0xbdc8e8ce	-0.09810029
165	0x397161c5	0.00023019973
166	0x3cc394b8	0.023874626
167	0xbdd34fa4	-0.103179246
168	0x3b6c54a4	0.0036061192
169	0x3d20bffd	0.039245594
170	0x3c86e2c1	0.016465547
171	0x3d659695	0.05605181
172	0x3d7fd280	0.062456608
173	0x3dc2c190	0.09509575
174	0x3d59dba3	0.053187978
175	0xbd86ef5e	-0.065886244
176	0xbd714d62	-0.05891169
177	0x3cfb33db	0.030664375
178	0xbcc7df11	-0.024398359
179	0xbdf1e058	-0.11810368
180	0xbe068949	-0.13138308
181	0xbc54616e	-0.012962682
182	0xbe00852e	-0.12550804
183	0xbd353e84	-0.044249073
184	0x3da500bf	0.08056783
185	0xbd11967e	-0.03554391
186	0xbde73cb9	-0.11290879
187	0xbe0db9d2	-0.13840416
188	0xbda8e0b2	-0.08245982
189	0x3da77e29	0.0817836
190	0xbdbc908b	-0.09207257
191	0x3d256e0f	0.040388163
192	0xbe0a6439	-0.13514794
193	0xbddb344b	-0.107033335
194	0x3ce6f106	0.0281911
195	0xbd4bd987	-0.049767997
196	0x3d91c4c0	0.07117605
197	0xbdbad237	-0.091221265
198	0x3dd63275	0.10458843
199	0x3c854fc7	0.016273392
200	0xbdd6d93a	-0.104906514
201	0xbc70ef51	-0.014705495
202	0x3d347f70	0.044066846
203	0xbdd6301e	-0.104583964
204	0xbd841698	-0.06449622
205	0x3c4be121	0.012443812
206	0xbd32d85b	-0.043663364
207	0x3d161fec	0.036651537
208	0xbded14be	-0.11576222
209	0x3c111fe8	0.008857705
210	0xbd0add48	-0.033902436
211	0xbb19ac90	-0.0023448803
212	0x3d26136d	0.04054587
213	0x3c35bc29	0.011092224
214	0x3da1fb90	0.0790931
215	0xbd2541a4	-0.040345803
216	0x3d1f6632	0.03891582
217	0x3ce826ea	0.028338868
218	0xbdd5a515	-0.104318775
219	0x3dcb689c	0.09932062
220	0xbd3d9801	-0.04628754
221	0x3ce08543	0.027407294
222	0x3cdf563f	0.027262805
223	0x3bc4a908	0.0060015954
224	0xbe0416e6	-0.1289936
225	0xbc4f38c1	-0.0126478085
226	0x3d306268	0.043062598
227	0xbdbe2356	-0.092840835
228	0x3d255c1d	0.04037105
229	0xbe07698a	-0.13223854
230	0x3da49877	0.08036893
231	0x3dc39082	0.09549047
232	0xbd640f6d	-0.055678774
233	0xbca1ad1d	-0.019735867
234	0xbcb99536	-0.022654157
235	0xbd99db87	-0.07512575
236	0xbe037d6d	-0.12840815
237	0x3be6bd2b	0.0070415935
238	0x3c53f395	0.012936492
239	0xbcb9fefa	-0.02270459
240	0x3d19fd46	0.037595056
241	0xbd4bb2bd	-0.049731005
242	0xbdf26b33	-0.11836853
243	0x3d9f7e01	0.07787705
244	0xbbc7af4f	-0.0060938965
245	0x3d8ad7ee	0.067794666
246	0xbe00e889	-0.12588705
247	0x3d0d1d9a	0.03445206
248	0x3dc4715a	0.095919326
249	0xbd9bdd3d	-0.07610557
250	0xbd6a7df3	-0.05724902
251	0xbe0183bc	-0.12647909
252	0x3bb8b102	0.0056363354
253	0x3d350709	0.044196162
254	0xbdadeb08	-0.08492094
255	0xbe0f5090	-0.13995576

placing_layer.2.bias f4 [5]
0	0x3e089371	0.13337494
1	0x3d46de89	0.04855207
2	0xbd1d0c7d	-0.038341988
3	0x3c0aa3f4	0.008461941
4	0xbdc12cb2	-0.09432353
