extra_baseline2/log_res/ablation2/6-3/actor/imitation_learning_env-20250304-014307/bc_ddpg_actor.pth (torch, 275774 bytes, 108 tensors)

fc.0.weight f4 [64, 620]
0	0xbbf857ae	-0.0075788116
1	0x3c0e773d	0.008695421
2	0xbcc4a2ef	-0.024003474
3	0xbceb9834	-0.0287591
4	0xbbedd215	-0.0072577097
5	0x3cc6d0df	0.02426952
6	0x3bd80191	0.0065919836
7	0x3d699d09	0.057034526
8	0xbbbfb931	-0.005850934
9	0x3c95b77f	0.018275974
10	0xbcf81b18	-0.030286357
11	0xbcc062d4	-0.023484625
12	0xbd27c19c	-0.040956125
13	0xbd46bb42	-0.048518427
14	0xbcc263c2	-0.023729209
15	0xbc74e9a6	-0.014948284
16	0x3ca60a8d	0.020268703
17	0x3c2c517c	0.010517474
18	0xbbc237d7	-0.005927067
19	0xbd057094	-0.032578066
20	0x3c206103	0.009788754
21	0x3d4a7f13	0.049437594
22	0xbc21d583	-0.009877565
23	0x3d33d928	0.04390827
24	0xba9d1efd	-0.0011987385
25	0xbb46b945	-0.0030322832
26	0x3d202f59	0.039107654
27	0xbd4f44ad	-0.050602604
28	0xbcc3dec2	-0.02390993
29	0xbb9d04ad	-0.004791817
30	0xbc179093	-0.009250778
31	0x3c9b34a4	0.018946
32	0xbbbb3f52	-0.0057143355
33	0x3b4bd375	0.003110138
34	0xbc366e67	-0.01113472
35	0xbcdd3b35	-0.027005771
36	0xbb509d46	-0.0031832024
37	0x3d177c11	0.036983553
38	0x3ce5fa05	0.02807332
39	0x3cc3db5b	0.023908308
40	0x3c66216f	0.014046057
41	0xbcb31dd4	-0.02186481
42	0x3c344919	0.011003756
43	0xbd011937	-0.031518187
44	0xbc8b62f0	-0.01701495
45	0xbb03c757	-0.002010783
46	0x3d278c44	0.040905252
47	0x3ce50807	0.02795793
48	0xbb8fb94b	-0.0043861023
49	0xbca4e5a7	-0.020129038
50	0x3c7a8bba	0.0152921025
51	0x3cadc297	0.021210952
52	0xbb75d5b6	-0.0037511415
53	0x3bd21254	0.0064108763
54	0x3c14ce9f	0.009082465
55	0xbd194695	-0.037420828
56	0x3cb62cab	0.022238096
57	0xbd5ba10b	-0.05362038
58	0xbc3e432f	-0.0116126975
59	0xbcfb1942	-0.030651692
60	0x3c2743a0	0.010208994
61	0xbb87b7a7	-0.004141766
62	0xbceebb94	-0.029142179
63	0xba7a4085	-0.00095463573
64	0x3bc5f9b9	0.006041732
65	0x3c269b08	0.010168798
66	0xbb98d335	-0.0046638497
67	0x3c01391f	0.007887154
68	0x3caf8b27	0.021428658
69	0x3d108b78	0.035289258
70	0xbd359394	-0.044330195
71	0xbd0f0036	-0.03491231
72	0x3d24d35f	0.04024064
73	0x3d695735	0.056967933
74	0x3d0f7a79	0.03502891
75	0x3cfdb436	0.03096972
76	0x3b3a3ab0	0.0028416328
77	0xbcf7ed87	-0.030264629
78	0x3b3ba1aa	0.0028630295
79	0xbad2cd25	-0.0016082866
80	0xbd1e290f	-0.038613375
81	0x3c610e20	0.013736278
82	0x3ca39619	0.019969033
83	0xbd675961	-0.056481723
84	0x3bb5c67e	0.0055473438
85	0x3c461798	0.012090586
86	0xbc40e2ec	-0.011772852
87	0xbd27d496	-0.040974222
88	0xbb8ef1f9	-0.0043623415
89	0xbce44df8	-0.02786921
90	0x3c761e0b	0.015021811
91	0x3c9e684a	0.019336838
92	0x3d257b46	0.040400766
93	0xbc15241e	-0.009102849
94	0xbca06d62	-0.019583408
95	0xbcf44544	-0.029818185
96	0x3c3d24d7	0.011544428
97	0x3cb35e2d	0.021895492
98	0xbcc0c507	-0.02353145
99	0xbd0c4a09	-0.034250293
100	0x3c892fe4	0.016746469
101	0x3c4046d9	0.011735641
102	0xbd315217	-0.043291178
103	0xbc7706f6	-0.015077343
104	0xbd5a065b	-0.053228717
105	0x3ba8fdfc	0.0051572304
106	0xbd3dd6ce	-0.04634743
107	0xbd51741f	-0.051136132
108	0xbc81be7d	-0.015837902
109	0x3c477370	0.012173519
110	0xbccd81d6	-0.025086325
111	0x3c23494b	0.009966205
112	0xbca2a184	-0.019852407
113	0x3d574194	0.052552775
114	0x3d251a44	0.040308252
115	0xbd6316f0	-0.055441797
116	0xbc7e037c	-0.01550376
117	0xbc40757b	-0.0117467595
118	0x3cd532b1	0.026025148
119	0xbc6d2335	-0.014473726
120	0x3abdfae6	0.0014494329
121	0xbc3bdca6	-0.011466181
122	0xbc2673e8	-0.01015947
123	0x3cd7f5b6	0.026362281
124	0xbd1c85de	-0.038213603
125	0xbcd477ec	-0.02593609
126	0xbc65a545	-0.014016454
127	0xbc3a57f0	-0.011373505
128	0x3c32eebb	0.010921176
129	0xbd5a72f3	-0.05333228
130	0xbcf2324a	-0.029564995
131	0x3cc60658	0.024172947
132	0xbd1f5f5d	-0.038909305
133	0x3c49fd87	0.012328512
134	0x3c1ca2fd	0.009560344
135	0xbccb5afe	-0.024823662
136	0x3cad397b	0.021145573
137	0xbcbc6ac5	-0.02300013
138	0x3d0c2b43	0.034220945
139	0x3bf87293	0.0075820177
140	0x3c9c38b7	0.019070012
141	0x3baf8da4	0.005357461
142	0x3c5d978d	0.013524902
143	0xbc90bdcd	-0.017668629
144	0xbd4c69ab	-0.04990546
145	0xbc9ca3cb	-0.019121071
146	0x3cfef8af	0.031124441
147	0xbb7874c9	-0.0037911406
148	0xbcc66164	-0.024216361
149	0xbcf6ded9	-0.030135559
150	0xbd327b99	-0.043574903
151	0xbc03b585	-0.008038883
152	0xbba02cfd	-0.0048881755
153	0x3d055bc7	0.03255823
154	0x3d041c85	0.03225376
155	0xbc9050fc	-0.017616741
156	0x3c5fd126	0.013660705
157	0xbc6a3e92	-0.0142971445
158	0xbb1225e5	-0.002230042
159	0xbcb8b77a	-0.022548426
160	0xbca41b34	-0.020032503
161	0xbc7a231b	-0.015267159
162	0xbccdb9d6	-0.025113028
163	0xbcb4b848	-0.022060528
164	0xbbf22341	-0.0073894565
165	0xbac06cc3	-0.0014680851
166	0xbce47d33	-0.02789173
167	0x3be28deb	0.0069138906
168	0xbc7420f6	-0.014900437
169	0x3c36d888	0.0111600235
170	0x3d2b61f0	0.041841447
171	0xbc1aed61	-0.00945601
172	0x3d13505c	0.03596531
173	0x3cb5c217	0.022187276
174	0xbc628af0	-0.013827071
175	0x3ca73ab5	0.020413736
176	0xbac86d20	-0.0015291311
177	0xbcefeb12	-0.029286895
178	0x3ce3687c	0.027759783
179	0xbcf33009	-0.02968599
180	0xbbe70c48	-0.0070510246
181	0x3bbe87a1	0.005814508
182	0x3c0cde20	0.008597881
183	0x3bfb0168	0.0076600797
184	0x3cbd34cf	0.02309647
185	0x3d01c554	0.031682327
186	0xbb0ce505	-0.002149881
187	0xbcad7ae4	-0.021176763
188	0xbca7d944	-0.020489343
189	0x3c86c170	0.01644966
190	0x3d0f64a5	0.03500809
191	0x3d2ada08	0.041711837
192	0xbd29c15c	-0.041444167
193	0x3c8cfa98	0.017209336
194	0xbc840c89	-0.016119258
195	0x3b29fd85	0.0025938463
196	0xbc5a60a6	-0.013328707
197	0x3bc6083e	0.006043463
198	0xbbb291df	-0.005449518
199	0x3c1d759a	0.009610558
200	0xbc97829b	-0.018494895
201	0x3c7384a9	0.014863172
202	0xbc579e24	-0.013160262
203	0xbd238814	-0.039924696
204	0xbc82a22e	-0.015946474
205	0x3d06f427	0.032947686
206	0x3c04c44c	0.008103441
207	0x3cbb4022	0.02285773
208	0x3cb221f1	0.0217447
209	0x3cc60fc9	0.024177449
210	0xbb69e3fd	-0.003568887
211	0x3bda7c4a	0.0066676484
212	0x3cd0a669	0.025469976
213	0x3be2be95	0.006919692
214	0x3c37c9d5	0.011217554
215	0xba9f8d31	-0.0012172816
216	0xbd4bc2e9	-0.049746428
217	0xbc2f2387	-0.010689623
218	0x3d00c64a	0.031439103
219	0xbce3ba0a	-0.027798671
220	0xbc951abb	-0.018201223
221	0x3ca529cd	0.020161534
222	0x3cdaad98	0.026694104
223	0xbcbfaf62	-0.023399059
224	0xbd2bfb97	-0.04198798
225	0x3d13b393	0.036059927
226	0xbba2433d	-0.004951863
227	0xbc1479a4	-0.0090622045
228	0x3b26a3f2	0.002542731
229	0xbc2cdddb	-0.010550941
230	0xbbafda28	-0.0053665824
231	0x3d08e096	0.033417307
232	0xbbc7cbe3	-0.0060973032
233	0x3d4ced1b	0.05003081
234	0x3bc4c751	0.0060052057
235	0xbd06e094	-0.03292902
236	0x3bfc60c3	0.0077019646
237	0xbd40a2a8	-0.04703012
238	0x3c5d6906	0.013513809
239	0x3d065272	0.03279347
240	0x3cf1ba54	0.029507793
241	0x3d093e1c	0.033506498
242	0xbc5a451a	-0.013322139
243	0x3b8ffe01	0.0043942933
244	0x3ccbe5b5	0.024889806
245	0xbd227b26	-0.039668225
246	0x3d4b04fb	0.049565297
247	0xbd36f396	-0.044665895
248	0x3c673771	0.014112339
249	0x3c92e441	0.017931106
250	0xbca84ce4	-0.020544477
251	0x3bc17bcc	0.0059046503
252	0x3d156990	0.036477625
253	0xbc0add72	-0.008475648
254	0xbcbd156a	-0.0230815
255	0xbc66e0df	-0.014091699

fc.0.bias f4 [64]
0	0x3ccf75d4	0.02532474
1	0xbc9aa686	-0.018878233
2	0xbc8374e1	-0.016046943
3	0x3d07a27c	0.03311394
4	0xbbcf1f85	-0.006320896
5	0xbd214d3d	-0.0393803
6	0xbd2305e5	-0.039800543
7	0x3b1e8c5c	0.0024192547
8	0x3d180478	0.037113637
9	0xbcb6257b	-0.022234669
10	0x3c1b15f5	0.009465684
11	0xbd19705e	-0.037460677
12	0x3cd823de	0.02638429
13	0x3c651ed3	0.0139844
14	0x3c25cf99	0.010120296
15	0x3cdaad86	0.02669407
16	0x3d2e769e	0.04259359
17	0xba5e3210	-0.0008476088
18	0xbd1fcb05	-0.039011974
19	0x3d139aa9	0.036036167
20	0x3bcb4b3b	0.0062040365
21	0xbcca8894	-0.024723329
22	0x3ce87af2	0.028378937
23	0xbccea373	-0.025224423
24	0x3cc34d9a	0.023840714
25	0x3d066575	0.0328116
26	0x3ca148a5	0.01968796
27	0x3c2c44d9	0.010514461
28	0x3c4ba684	0.012429837
29	0xbc29657f	-0.01033914
30	0xbc9cf6ea	-0.019160707
31	0x3d1dc44c	0.03851728
32	0xbb1edd5f	-0.0024240834
33	0xbbccd48f	-0.006250925
34	0xbc48df8c	-0.012260329
35	0x3c0c5ce1	0.008567066
36	0x3cd9dd72	0.026594851
37	0x3ad22778	0.0016033491
38	0x3c9357e4	0.017986245
39	0xbc9e2cc1	-0.01930845
40	0x3cae1a1c	0.021252684
41	0x3caf1534	0.021372415
42	0xbcb84bfc	-0.02249717
43	0xbc9bea16	-0.01903252
44	0xbd1324aa	-0.035923637
45	0x3ce69465	0.028146932
46	0x3bb81368	0.005617548
47	0x3bd19c12	0.006396779
48	0xbcb80394	-0.022462644
49	0xbaa93ec6	-0.0012912385
50	0xbc9a7a60	-0.018857181
51	0x3c44a723	0.012002739
52	0xbd0f4ea4	-0.034987107
53	0xbca8761f	-0.020564137
54	0xbd0a9ccc	-0.03384094
55	0x3cc675fa	0.024226177
56	0xbcd4ac83	-0.025961166
57	0xbc7f0a75	-0.015566458
58	0xba39ff5b	-0.0007095241
59	0xbad64563	-0.0016347583
60	0xbc48d64f	-0.012258126
61	0x3c6bbf07	0.014388806
62	0xbcc1a1fb	-0.023636809
63	0x3c479182	0.012180688

fc.2.weight f4 [64]
0	0x3f856b7b	1.0423425
1	0x3f800000	1.0
2	0x3f8546ea	1.0412266
3	0x3f800000	1.0
4	0x3f800000	1.0
5	0x3f800000	1.0
6	0x3f851ba7	1.0399064
7	0x3f800000	1.0
8	0x3f800000	1.0
9	0x3f800000	1.0
10	0x3f84d9b6	1.037894
11	0x3f800000	1.0
12	0x3f852a4b	1.0403532
13	0x3f800000	1.0
14	0x3f84a6df	1.0363425
15	0x3f800000	1.0
16	0x3f852093	1.0400566
17	0x3f800000	1.0
18	0x3f800000	1.0
19	0x3f800000	1.0
20	0x3f800000	1.0
21	0x3f800000	1.0
22	0x3f800000	1.0
23	0x3f800000	1.0
24	0x3f800000	1.0
25	0x3f800000	1.0
26	0x3f800000	1.0
27	0x3f84c0c7	1.0371331
28	0x3f800000	1.0
29	0x3f850fe7	1.0395478
30	0x3f800000	1.0
31	0x3f854dfc	1.0414424
32	0x3f800000	1.0
33	0x3f852d20	1.0404396
34	0x3f800000	1.0
35	0x3f8547f9	1.0412589
36	0x3f85169f	1.0397528
37	0x3f800000	1.0
38	0x3f800000	1.0
39	0x3f800000	1.0
40	0x3f856bee	1.0423563
41	0x3f800000	1.0
42	0x3f800000	1.0
43	0x3f8534fc	1.0406795
44	0x3f85265f	1.0402335
45	0x3f800000	1.0
46	0x3f852b88	1.040391
47	0x3f800000	1.0
48	0x3f85309c	1.040546
49	0x3f800000	1.0
50	0x3f85161e	1.0397375
51	0x3f800000	1.0
52	0x3f854bd4	1.0413766
53	0x3f800000	1.0
54	0x3f800000	1.0
55	0x3f8547f8	1.0412588
56	0x3f800000	1.0
57	0x3f800000	1.0
58	0x3f843ca9	1.0331012
59	0x3f8524b7	1.040183
60	0x3f800000	1.0
61	0x3f800000	1.0
62	0x3f800000	1.0
63	0x3f800000	1.0

fc.2.bias f4 [64]
0	0x3d128b5c	0.035777435
1	0x3dcdbb38	0.10045475
2	0xbd135c9a	-0.035976984
3	0x3dd58c8c	0.10427198
4	0xbdd650b2	-0.1046461
5	0x3dd8cd42	0.10586025
6	0x3dc8e7cb	0.09809836
7	0xbddcf85a	-0.10789557
8	0x3dbb4461	0.091439016
9	0xbdd3f7f9	-0.103500314
10	0xbda43afe	-0.08019064
11	0x3ddb5db8	0.10711235
12	0xbda31c3c	-0.0796437
13	0xbda76509	-0.08173568
14	0x3d88dcda	0.06682749
15	0xbdbb2e1d	-0.09139655
16	0xbd8e8d3c	-0.06960532
17	0x3ddb3827	0.107040696
18	0xbdbc2a36	-0.091877386
19	0xbdcdb73a	-0.10044713
20	0x3dcbf59e	0.09958957
21	0xbdbac9f2	-0.09120549
22	0xbddb453d	-0.107065655
23	0x3dd64ffa	0.10464473
24	0x3dd73eae	0.10510002
25	0x3db9aa63	0.09065702
26	0x3dbd7325	0.09250478
27	0x3c8263ef	0.015916793
28	0x3ddc33e9	0.107520886
29	0x3daf83a6	0.08570032
30	0x3dd3f8ca	0.10350187
31	0x3db94e0b	0.09048089
32	0xbdd2979c	-0.102828234
33	0x3dc55bd6	0.09636657
34	0x3ddddc5d	0.108330466
35	0x3d065dd6	0.032804333
36	0xbdced153	-0.10098519
37	0xbdd908fc	-0.10597417
38	0xbdc7f369	-0.09763224
39	0x3dc96d95	0.09835354
40	0x3d90f634	0.070782095
41	0x3dbf8a5c	0.09352562
42	0xbdbd2bd5	-0.09236876
43	0x3da7238a	0.081610754
44	0x3cf6230b	0.030046007
45	0xbdd9bd77	-0.10631841
46	0x3da590df	0.080842726
47	0xbdbea9bd	-0.09309719
48	0x3dbc40eb	0.091920696
49	0xbdd7924e	-0.10525952
50	0x3dbd0137	0.09228747
51	0xbdd35630	-0.10319173
52	0xbd9f4342	-0.077765
53	0xbdd09b4c	-0.101858705
54	0xbdcf23a0	-0.10114217
55	0xbdb8ef89	-0.09030063
56	0xbdd996b3	-0.10624447
57	0xbdc962d9	-0.09833307
58	0xbdc1c7cb	-0.094619356
59	0x3dbceed5	0.09225241
60	0x3dcfb26a	0.10141452
61	0x3dd8fac3	0.10594704
62	0xbdcb87cc	-0.099380106
63	0x3dd313f4	0.1030654

fc.2.running_mean f4 [64]
0	0x468e6a39	18229.111
1	0x22a43c61	4.4516218e-18
2	0x45efc87c	7673.0605
3	0x00000000	0.0
4	0x00000000	0.0
5	0x00000000	0.0
6	0x4624b3a3	10540.909
7	0x00000000	0.0
8	0x00000000	0.0
9	0x1a5b2b2f	4.5323022e-23
10	0x461af6f0	9917.734
11	0x00000000	0.0
12	0x4695d2a3	19177.318
13	0x1b9a5394	2.5531174e-22
14	0x475117f8	53527.97
15	0x00000000	0.0
16	0x468380c9	16832.393
17	0x00000000	0.0
18	0x00000000	0.0
19	0x00000000	0.0
20	0x00000000	0.0
21	0x00000000	0.0
22	0x00000000	0.0
23	0x00000000	0.0
24	0x00000000	0.0
25	0x00000000	0.0
26	0x00000000	0.0
27	0x470d03cf	36099.81
28	0x1c826583	8.628919e-22
29	0x46b4bf2f	23135.592
30	0x00000000	0.0
31	0x46ca85f9	25922.986
32	0x222c9bda	2.3392854e-18
33	0x45fa1cb5	8003.5884
34	0x00000000	0.0
35	0x472c924b	44178.293
36	0x470a1cb7	35356.715
37	0x00000000	0.0
38	0x00000000	0.0
39	0x00000000	0.0
40	0x45ff33d3	8166.478
41	0x00000000	0.0
42	0x1f483701	4.2397146e-20
43	0x47299c42	43420.258
44	0x471b5708	39767.03
45	0x00000000	0.0
46	0x476a6fc2	60015.758
47	0x1eb85754	1.9517876e-20
48	0x468d8e93	18119.287
49	0x00000000	0.0
50	0x4765b7ba	58807.727
51	0x00000000	0.0
52	0x46fbdfd3	32239.912
53	0x00000000	0.0
54	0x00000000	0.0
55	0x46247ec9	10527.696
56	0x00000000	0.0
57	0x1df8e152	6.587803e-21
58	0x4660e9d6	14394.459
59	0x46bb73f0	23993.969
60	0x00000000	0.0
61	0x00000000	0.0
62	0x2075feb9	2.0836588e-19
63	0x00000000	0.0

fc.2.running_var f4 [64]
0	0x4418edd7	611.71625
1	0x1659b763	1.7586987e-25
2	0x449d8342	1260.1018
3	0x1659b763	1.7586987e-25
4	0x1659b763	1.7586987e-25
5	0x1659b763	1.7586987e-25
6	0x449d3e70	1257.9512
7	0x1659b763	1.7586987e-25
8	0x1659b763	1.7586987e-25
9	0x1659b763	1.7586987e-25
10	0x448c4a00	1122.3125
11	0x1659b763	1.7586987e-25
12	0x44efa092	1917.0178
13	0x1659b763	1.7586987e-25
14	0x4514877e	2376.4683
15	0x1659b763	1.7586987e-25
16	0x43de7bc7	444.967
17	0x1659b763	1.7586987e-25
18	0x1659b763	1.7586987e-25
19	0x1659b763	1.7586987e-25
20	0x1659b763	1.7586987e-25
21	0x1659b763	1.7586987e-25
22	0x1659b763	1.7586987e-25
23	0x1659b763	1.7586987e-25
24	0x1659b763	1.7586987e-25
25	0x1659b763	1.7586987e-25
26	0x1659b763	1.7586987e-25
27	0x44e7a9d3	1853.307
28	0x1659b763	1.7586987e-25
29	0x44c5a2a3	1581.0824
30	0x1659b763	1.7586987e-25
31	0x44a3df6b	1310.9818
32	0x1659b763	1.7586987e-25
33	0x44a173be	1291.617
34	0x1659b763	1.7586987e-25
35	0x44a365bf	1307.1796
36	0x43dd86d7	443.05344
37	0x1659b763	1.7586987e-25
38	0x1659b763	1.7586987e-25
39	0x1659b763	1.7586987e-25
40	0x44ca3702	1617.719
41	0x1659b763	1.7586987e-25
42	0x1659b763	1.7586987e-25
43	0x43f5fc0e	491.96918
44	0x44218cdf	646.2011
45	0x1659b763	1.7586987e-25
46	0x453d57e8	3029.4941
47	0x1659b763	1.7586987e-25
48	0x44a27d5e	1299.9177
49	0x1659b763	1.7586987e-25
50	0x44918885	1164.2662
51	0x1659b763	1.7586987e-25
52	0x448b4130	1114.0371
53	0x1659b763	1.7586987e-25
54	0x1659b763	1.7586987e-25
55	0x448f44af	1146.1464
56	0x1659b763	1.7586987e-25
57	0x1659b763	1.7586987e-25
58	0x4484b933	1061.7875
59	0x44a0e1fd	1287.0621
60	0x1659b763	1.7586987e-25
61	0x1659b763	1.7586987e-25
62	0x1659b763	1.7586987e-25
63	0x1659b763	1.7586987e-25

fc.3.weight f4 [64, 64]
0	0x3e2612e6	0.16218147
1	0x3d4e6fb9	0.050399516
2	0xbd9e9005	-0.07742313
3	0x3e29b3d8	0.16572511
4	0x3d803804	0.06260684
5	0x3e1e7cf9	0.15477361
6	0xbd828ee1	-0.06374908
7	0xbd851184	-0.064974815
8	0x3e4ea9ea	0.20182005
9	0xbc11afc3	-0.0088920025
10	0xbc9a8a3d	-0.018864745
11	0x3df45578	0.11930364
12	0x3a61c72f	0.00086127495
13	0xbe05248d	-0.13002224
14	0x3d2c1fd7	0.042022552
15	0x3cf1336a	0.029443461
16	0x3dff1ca0	0.12456632
17	0x3cf2333c	0.029565446
18	0x3d1c4a4f	0.038156804
19	0xbd850aca	-0.064961985
20	0x3dbef8c4	0.09324792
21	0xbd460450	-0.048343956
22	0xbdebd925	-0.115160264
23	0x3e38fa34	0.18064195
24	0xbd8bc395	-0.06824414
25	0xbd5ddc13	-0.054164957
26	0x3df43c4d	0.11925564
27	0x3d9534f6	0.07285492
28	0x3ca38b23	0.019963806
29	0x3cf1e1c0	0.029526591
30	0x3ca5825f	0.020203767
31	0x3e13b563	0.14424662
32	0xbdd9d41e	-0.10636161
33	0x3d815a15	0.0631601
34	0xbd7904c5	-0.060795564
35	0xbc3c8ce5	-0.011508201
36	0x3e00dc15	0.12583955
37	0xbce597d6	-0.028026503
38	0xbdb3a462	-0.08771588
39	0x3e36069a	0.17775956
40	0xbd25549b	-0.04036389
41	0xbd56913e	-0.052384607
42	0xbc1d69db	-0.009607757
43	0xbda2a603	-0.079418205
44	0xbe11ca93	-0.14237432
45	0x3d8a79a8	0.06761485
46	0x3c951afd	0.018201346
47	0xbe1bd7d4	-0.1521905
48	0x3d4f6942	0.05063749
49	0x3c75663a	0.014977986
50	0xbde3187e	-0.11088656
51	0xbc8b7fbc	-0.017028682
52	0x3d054ba6	0.032542847
53	0xbd4a679a	-0.04941521
54	0xbe01c8d9	-0.12674274
55	0x3e284bf9	0.16435231
56	0xbe0c08a5	-0.13675173
57	0x3d886f34	0.06661835
58	0x3c434f14	0.011920709
59	0x3cf84562	0.030306522
60	0x3cf598dc	0.029980116
61	0x3dea6bf6	0.11446373
62	0x3d87a17c	0.066225976
63	0x3d37e313	0.04489429
64	0xbe19ac8a	-0.15007225
65	0x3e2a7003	0.16644292
66	0xbe202cb9	-0.1564206
67	0x3e3e980e	0.18612692
68	0xbe09f0e0	-0.13470793
69	0x3db5fd09	0.08886153
70	0x3e112740	0.14175129
71	0xbd6e60dc	-0.05819784
72	0xbb856392	-0.0040707076
73	0xbdde0d12	-0.10842337
74	0x3d3822fc	0.04495524
75	0x3dbadd0b	0.09124192
76	0x3e13db5e	0.1443915
77	0xbe3a3899	-0.18185653
78	0x3d7b41b1	0.061341945
79	0xbd94de1d	-0.07268927
80	0xbdbaf8b6	-0.09129469
81	0x3e42a2a3	0.19007353
82	0x3d0c1f9c	0.034209833
83	0xbe6009ed	-0.21878786
84	0x3dc6463a	0.096813634
85	0xbe078aca	-0.13236538
86	0xbd2c2fa0	-0.042037606
87	0x3d5f9bb5	0.054591853
88	0x3e5253b4	0.20539743
89	0x3e0f0ea7	0.13970433
90	0x3e147516	0.1449779
91	0x3e099e26	0.13439235
92	0x3e2e09d6	0.1699594
93	0xbc88af4b	-0.016685149
94	0x3d751117	0.05983075
95	0xbd9db33b	-0.07700201
96	0xbdada789	-0.084792204
97	0x3e0153b8	0.12629592
98	0x3e4dcace	0.20096895
99	0xbd65a3b4	-0.056064323
100	0xbdcbcbb9	-0.099509664
101	0xbd3f189a	-0.04665432
102	0xbe46c447	-0.19410811
103	0x3cc9881e	0.024601039
104	0x3d8d1170	0.068880916
105	0x3d86f148	0.065889895
106	0x3c9c0504	0.01904536
107	0x3d4c2c8e	0.04984718
108	0x3d8efc72	0.06981744
109	0xbe4eb68f	-0.20186828
110	0x3cf09c9a	0.029371548
111	0xbbe97df6	-0.0071256114
112	0x3de455f7	0.11149209
113	0xbdf8d6ff	-0.12150382
114	0x3dc9d518	0.098550975
115	0xbe4f5ebe	-0.20250985
116	0xbdfc66e1	-0.1232431
117	0xbe45e23a	-0.1932458
118	0xbe284ca2	-0.16435483
119	0xbb6fb179	-0.0036574288
120	0xbd4567b9	-0.04819462
121	0xbe5c6e57	-0.21526466
122	0xbe03b606	-0.12862405
123	0x3d633e14	0.055479124
124	0x3dee7873	0.116440676
125	0x3bc43156	0.0059873266
126	0xbce582de	-0.028016504
127	0x3e0eec20	0.13957262
128	0xbdae99a8	-0.08525401
129	0x3dcca49b	0.099923335
130	0xbc92a325	-0.017900059
131	0x3bbf0927	0.0058299485
132	0xbd3dde8e	-0.046354823
133	0x3e4dcaf2	0.20096949
134	0x3dfbec11	0.123008855
135	0xbe21fe64	-0.15819699
136	0x3da80d6a	0.082056835
137	0xbe51df04	-0.2049523
138	0x3dae7f0d	0.08520327
139	0x3e264094	0.16235572
140	0x3e2753fe	0.16340634
141	0xbdade618	-0.084911525
142	0x3da8e789	0.08247287
143	0xbe58c61c	-0.21169323
144	0xbd9b1cc1	-0.07573844
145	0x3dada7f3	0.084792994
146	0xbe5e486a	-0.21707311
147	0xbe2705d3	-0.16310816
148	0x3db101ae	0.086428985
149	0xbdca8c7d	-0.09890077
150	0x3b0c2c10	0.0021388568
151	0x3d2febbb	0.04294942
152	0x3d262c29	0.04056946
153	0xbcca2851	-0.024677427
154	0x3dfb9d95	0.12285916
155	0xbc18ebb8	-0.0093335435
156	0x3d9f30ef	0.07773005
157	0xbd84fc6a	-0.06493457
158	0xbca0951c	-0.01960235
159	0x3dad09ca	0.08449133
160	0xbdc993b0	-0.09842622
161	0x3e1805fb	0.14846031
162	0x3d8d8542	0.069101825
163	0x3e166feb	0.14691131
164	0xbdeaa5a7	-0.11457377
165	0xbe50e4cf	-0.20399784
166	0xbe407494	-0.18794471
167	0x3db7c1a4	0.08972481
168	0xbd6dadfb	-0.05802725
169	0x3c5a7fc6	0.013336128
170	0x3ce2af7f	0.027671574
171	0xbd91c1c6	-0.071170375
172	0x3e12c0c3	0.14331345
173	0xbe2ae277	-0.16687952
174	0x3b5330d0	0.003222514
175	0xbccc3728	-0.024928644
176	0x3d74d060	0.059769034
177	0xbe5b1953	-0.21396379
178	0x3e1c3aa0	0.15256739
179	0x3c1da5f9	0.0096220905
180	0xbe1836b7	-0.14864622
181	0xbdc9d6ec	-0.09855446
182	0xbc591eb7	-0.013251952
183	0x3d359ed5	0.044340927
184	0xbde61ee5	-0.112363614
185	0xbe2dea00	-0.16983795
186	0xbce862aa	-0.02836736
187	0x3df0a154	0.11749521
188	0x3dde3a94	0.10851017
189	0x3e400dfe	0.18755338
190	0xbe3c47ab	-0.18386714
191	0xb989b58f	-0.00026265948
192	0xbb98259f	-0.0046431567
193	0x3e012c70	0.12614608
194	0xbbd7654c	-0.006573355
195	0x3be8dbb8	0.0071062706
196	0x3d4540e6	0.048157595
197	0x3da4262f	0.080150954
198	0xbd51dfe2	-0.051238902
199	0xbcf680a5	-0.03009064
200	0xbba6c151	-0.005088963
201	0xbcc7ed30	-0.024405092
202	0x3d5be277	0.05368277
203	0x3d21ac17	0.03947076
204	0x3e0cf006	0.13763437
205	0xbc8657e8	-0.016399339
206	0x3d5bb14a	0.053635873
207	0x3d691ce9	0.056912336
208	0x39b55ea7	0.00034593532
209	0x3e36d945	0.17856319
210	0xbe1082b5	-0.14112361
211	0xbe25c7f1	-0.16189553
212	0xbc8a62eb	-0.01689287
213	0x3b1acf9c	0.002362228
214	0xbdaee362	-0.085394636
215	0xbd5f81d0	-0.05456716
216	0x3de4b19d	0.111666895
217	0x3dfbeb15	0.12300698
218	0x3dde755b	0.108622275
219	0xbd4b069a	-0.049566843
220	0xbd115dd6	-0.03548988
221	0xbd5c8d82	-0.05384589
222	0xbbd5d2c3	-0.006525369
223	0xbd06e5ee	-0.03293412
224	0xbe3763be	-0.17909142
225	0x3de52231	0.11188162
226	0x3d812b0b	0.06307038
227	0xbd3cb4c1	-0.046070818
228	0xbda06dc4	-0.07833436
229	0xbcb5d52c	-0.022196375
230	0x3d643603	0.055715572
231	0x3e361180	0.17780113
232	0x3d419f3e	0.047271006
233	0x3e3d525c	0.18488449
234	0x3d3c8713	0.046027254
235	0x3e189dae	0.149039
236	0x3c958ae1	0.0182547
237	0xbc9d8c2c	-0.019231878
238	0xbd98d871	-0.07463158
239	0xbdcb1d53	-0.099177025
240	0x3ba55351	0.0050453325
241	0xbdf047d0	-0.11732447
242	0x3d44db86	0.048060916
243	0x3cb2373a	0.02175485
244	0xbe0a0a53	-0.13480501
245	0xbdc65cdf	-0.096856825
246	0xbd717b0e	-0.058955245
247	0xbd5a4ca8	-0.05329576
248	0xbdd2aaff	-0.10286521
249	0x3cd89d8d	0.026442314
250	0xbd9b1206	-0.07571797
251	0x3e255ab0	0.16147876
252	0xbc1d57b7	-0.009603432
253	0xbd6dc737	-0.058051314
254	0xbe03bae5	-0.12864263
255	0x3c95e495	0.018297473

fc.3.bias f4 [64]
0	0x3d85d143	0.06534054
1	0x3d5b1d38	0.053494662
2	0x3e04fb14	0.12986404
3	0x3dd17be0	0.102287054
4	0x3dc8e8e0	0.098100424
5	0x3e016125	0.12634714
6	0x3e110f6e	0.14166042
7	0x3d18b5e0	0.037282825
8	0x3e1be2da	0.15223256
9	0x3d38f94e	0.04515963
10	0x3e539fce	0.2066643
11	0x3da8b318	0.082372844
12	0x3e4ba97e	0.19888875
13	0x3dd5ff11	0.10449041
14	0x3db097ff	0.08622741
15	0xbd45726d	-0.048204828
16	0xbd9398a7	-0.072068505
17	0x3cefb350	0.029260308
18	0x3dc0e2df	0.09418272
19	0x3c328f1c	0.010898378
20	0x3d4b8b7d	0.049693573
21	0x3d9824c0	0.074288845
22	0x3da5fb80	0.081046104
23	0x3d91d656	0.071209595
24	0x3db0b814	0.0862886
25	0x3d9005a7	0.07032328
26	0x3dfa71ef	0.12228762
27	0x3e1abfec	0.15112275
28	0x3e24807c	0.16064638
29	0x3e4821af	0.195441
30	0x3e2518e7	0.1612278
31	0x3da53073	0.080658816
32	0x3dd9a79f	0.10627674
33	0x3d5f4068	0.054504782
34	0x3e5be5d4	0.21474391
35	0x3da137b2	0.07871951
36	0xbd659061	-0.056045894
37	0x3c1cf9c3	0.009581032
38	0x3c941ab3	0.018079137
39	0xbd060fde	-0.032729976
40	0x3e1c0003	0.1523438
41	0x3dfd4877	0.12367337
42	0x3e48f9dd	0.19626565
43	0xbd9753ae	-0.073890075
44	0x3e19019e	0.14942023
45	0x3de395f8	0.11112589
46	0x3e1842c5	0.1486922
47	0xbb592257	-0.003313204
48	0x3e185f3d	0.1488008
49	0x3def4590	0.1168319
50	0x3c0e71e0	0.008694142
51	0x3e2d71de	0.16937968
52	0x3dd3d4c4	0.10343316
53	0x3e342767	0.17593156
54	0x3d9ee66f	0.077587955
55	0x3e16ded4	0.1473344
56	0x3e33aaac	0.17545575
57	0x3ddfd4cb	0.10929259
58	0xbcc43d18	-0.023954913
59	0x3e48035e	0.19532534
60	0x3e14074f	0.14455913
61	0x3d381a16	0.044946752
62	0x3d866027	0.06561308
63	0x3e0c6587	0.13710605

placing_layer.0.weight f4 [5, 64]
0	0x3c8fb6c7	0.01754321
1	0x3e0fa969	0.14029469
2	0x3c06f2d5	0.008236607
3	0x3c86c6e2	0.016452257
4	0x3dfc7c05	0.12328342
5	0x3dab821b	0.08374425
6	0x3e43bcd5	0.19115002
7	0x3d02e992	0.03196103
8	0x3d8169e3	0.063190244
9	0x3d804aee	0.06264292
10	0x3d8882fa	0.06665607
11	0xbb182aee	-0.0023218947
12	0x3ddb12d5	0.10696951
13	0x3dcc193e	0.09965752
14	0x3dccd201	0.100009926
15	0x3c6e6f69	0.014552929
16	0x3dc0d815	0.094162144
17	0x3df5db6d	0.12004743
18	0x3df062c5	0.11737589
19	0x3cd45d08	0.025923267
20	0x3daf60f3	0.085634135
21	0x3e0c397a	0.136938
22	0x3cf2f8d5	0.029659668
23	0x3d0d9f7a	0.034575917
24	0x3d9bedfd	0.07613752
25	0xbbffc2b3	-0.0078051924
26	0x3dd3da51	0.10344375
27	0x3d514b2b	0.051097076
28	0x3ca92f5c	0.020652466
29	0x3e0312fc	0.1280021
30	0x3dd688c2	0.10475303
31	0x3d093af1	0.033503477
32	0xbc50b0f6	-0.012737503
33	0xbd383812	-0.044975348
34	0x3c89278d	0.016742492
35	0xbd579db4	-0.05264063
36	0x3d9fd014	0.0780336
37	0xbd3316a9	-0.043722782
38	0x3cdaa3b1	0.026689382
39	0xbcc1f829	-0.023677902
40	0x3e1fb819	0.15597571
41	0x3dd07c94	0.101800114
42	0x3de35f9f	0.11102223
43	0x3e296e55	0.16545995
44	0x3e2cfdb6	0.16893658
45	0x3dd0909a	0.101838306
46	0x3cd2f934	0.025753595
47	0x3e32e337	0.17469488
48	0x3de9252d	0.11384044
49	0x3e017fbc	0.12646383
50	0x3b93c42a	0.0045094686
51	0xbc3db79f	-0.011579423
52	0x3dc33d29	0.0953315
53	0x3e009d41	0.12559988
54	0x3d8cf9f9	0.06883616
55	0x3d745a5f	0.059656497
56	0x3e3fef2d	0.18743582
57	0x3e346d4c	0.17619818
58	0x3d3b6613	0.045751642
59	0x3d4340d3	0.047669243
60	0x3dba6a85	0.09102348
61	0x3dd2fe33	0.10302391
62	0x3dee38a2	0.116318956
63	0xbd35e3f8	-0.04440686
64	0x3e1a798f	0.15085433
65	0x3d97e9a9	0.07417614
66	0xbd288e07	-0.041151073
67	0x3df320fa	0.11871524
68	0x3e008fbe	0.12554833
69	0x3e05910f	0.13043617
70	0x3daacce7	0.08339863
71	0xbc89a748	-0.016803399
72	0xbc6ea959	-0.014566743
73	0x3e018633	0.12648849
74	0xbbad6baa	-0.0052923756
75	0x3cf9baa4	0.030484505
76	0xbd028ea5	-0.031874318
77	0xbcc71d47	-0.024305953
78	0x3db2c6dd	0.087293364
79	0x3dc81248	0.09769112
80	0x3a2ba194	0.00065472093
81	0x3dbba71f	0.09162735
82	0xbd8d4b0f	-0.06899082
83	0xbdb9e057	-0.090759926
84	0xbd8032d0	-0.06259692
85	0x3da017a4	0.07817009
86	0xbd834e7d	-0.06411455
87	0x3d57faff	0.052729603
88	0x3d0085a0	0.031377435
89	0x3c87653d	0.016527766
90	0x3e16ebae	0.14738342
91	0x3ddadfd8	0.10687226
92	0xbd898d8b	-0.0671645
93	0xbdb69f9a	-0.0891716
94	0x3dc5c418	0.096565425
95	0x3dcfc683	0.10145285
96	0xbd8223b4	-0.06354466
97	0x3d840b8f	0.06447517
98	0x3d44b417	0.04802331
99	0x3d9e2e0b	0.07723626
100	0x3d67ce1d	0.05659305
101	0x3df8be84	0.12145713
102	0x3e0b3cd3	0.13597421
103	0x3db618bd	0.08891437
104	0x3e0c3f3b	0.13695996
105	0x3d8d319b	0.06894227
106	0xbc616d46	-0.013758963
107	0x3ca12b72	0.019674037
108	0x3dba5cff	0.09099769
109	0xbd6ba07c	-0.057526097
110	0xbcd7ff4e	-0.026366856
111	0xbba7684b	-0.0051088682
112	0x3ccc69a9	0.024952726
113	0x3cd1d223	0.025612896
114	0xbd99ec07	-0.07515722
115	0x3d9d176a	0.076704815
116	0x3d9acfb4	0.075591475
117	0x3de24e17	0.11050051
118	0x3d265523	0.040608536
119	0x3d59e97a	0.053201176
120	0x3e1a1372	0.1504648
121	0x3e21ac2e	0.15788338
122	0xbd7f6cf7	-0.062359776
123	0x3d68af8c	0.05680804
124	0xbd9e7992	-0.077380314
125	0xbd8d8783	-0.069106124
126	0x3dcaf799	0.09910507
127	0xbd2efec1	-0.04272342
128	0x3d0fa2f8	0.03506753
129	0x3c02179e	0.007940201
130	0x3d9d63a2	0.07685019
131	0xbcb4d9e6	-0.022076558
132	0xbcd443b6	-0.025911193
133	0x3e0d0df7	0.13774858
134	0xbd6bef1b	-0.057601076
135	0xbd9da45c	-0.07697365
136	0x3d759258	0.059954017
137	0x3d3020c8	0.043000013
138	0xbdc6a85a	-0.09700079
139	0x3deca5e9	0.11555082
140	0xbdcafbc8	-0.09911305
141	0x3d84a714	0.0647718
142	0x3d8c83ce	0.06861077
143	0xbd051132	-0.0324871
144	0x3d15310f	0.03642374
145	0x3d5df7ee	0.054191522
146	0xbdc56501	-0.096384056
147	0x3d1e4bfd	0.038646687
148	0x3db20e9e	0.08694194
149	0x3d1e4734	0.038642123
150	0x3d6aefe7	0.057357695
151	0x3d738b46	0.059458993
152	0x3e159a6f	0.14609693
153	0x3da5e20a	0.08099754
154	0x3ce91e2a	0.028456766
155	0xbd100325	-0.03515925
156	0x3d1aebd7	0.03782257
157	0x3de4d4a2	0.11173369
158	0xbd71f83d	-0.05907463
159	0x3dd375cd	0.10325203
160	0x3d99a6aa	0.07502492
161	0xbd9377bf	-0.07200574
162	0xbb8e44e3	-0.004341708
163	0xbd74d841	-0.05977655
164	0xbd97d122	-0.07412936
165	0x3ddeb337	0.10874026
166	0xbcf50476	-0.029909354
167	0x3da0449f	0.078255884
168	0x3dfe2c7f	0.12410831
169	0xbd817bb0	-0.0632242
170	0x3d2645d6	0.040593944
171	0xbdb4dbad	-0.08830962
172	0xbcf1034e	-0.029420521
173	0x3dd3bf27	0.10339194
174	0xbd907dc3	-0.07055237
175	0x3d7d1920	0.06179154
176	0x3e07a98b	0.1324827
177	0x3de824c4	0.113351375
178	0xbd204008	-0.039123565
179	0xbdaf937b	-0.085730515
180	0xbb948bfb	-0.0045332885
181	0x3d86ba24	0.06578472
182	0x3d9e8b2e	0.0774139
183	0xbc0bf7cd	-0.008542967
184	0x3ddcb940	0.10777521
185	0x3da52bc5	0.08064989
186	0x3dd2cb60	0.10292697
187	0x3cf5e960	0.030018508
188	0x3e106912	0.14102581
189	0xbd8e9677	-0.06962293
190	0x3d4653b4	0.04841967
191	0x3de9a5a8	0.114085495
192	0xbddcb490	-0.10776627
193	0x3cbee2e8	0.023301557
194	0xbd945756	-0.072432205
195	0x3ca1f450	0.019769818
196	0x3b8d0960	0.004304096
197	0xbde5b336	-0.112158224
198	0xbd768e30	-0.060194194
199	0xbd293650	-0.041311562
200	0xbcad4dc8	-0.021155253
201	0xbdd22d06	-0.10262494
202	0xbcf02758	-0.029315636
203	0xbd4637e0	-0.04839313
204	0xbdf7d35a	-0.12100859
205	0xbda0bbe4	-0.07848337
206	0xbdaee8ac	-0.085404724
207	0x3ddbca2e	0.10731922
208	0x3ca48fa8	0.020088032
209	0xbda87dc8	-0.08227116
210	0x3dfd8c34	0.12380257
211	0xbd100c98	-0.03516826
212	0xbd4374d4	-0.047718838
213	0x3dbbabec	0.09163651
214	0xbbf90380	-0.007599294
215	0x3d5a3040	0.05326867
216	0xbc485c50	-0.01222904
217	0xbbd66a00	-0.006543398
218	0x3dc9e15c	0.09857437
219	0xbd210598	-0.039311975
220	0x3db46900	0.0880909
221	0x3ddb31f6	0.10702889
222	0xbdd11aa0	-0.102101564
223	0xbc0d1450	-0.0086108
224	0xbdd956a8	-0.106122315
225	0x3d3ef890	0.046623766
226	0xbdc4a5bc	-0.09601924
227	0xbc023620	-0.007947475
228	0xbdca2112	-0.09869589
229	0x3da2abb4	0.07942906
230	0x3d70f298	0.058825105
231	0x3d3fcad4	0.04682429
232	0x3d15145c	0.03639637
233	0xbbab9720	-0.0052365214
234	0xbdd83170	-0.105563045
235	0xbdc60dd6	-0.09670608
236	0xbdbc3996	-0.09190671
237	0x3d91186a	0.07084735
238	0xbda1e36a	-0.07904704
239	0xbd969182	-0.07351972
240	0x3d741140	0.059586763
241	0xbdcf3744	-0.10117963
242	0x3dbf5d3c	0.09343955
243	0xbdca2a44	-0.09871343
244	0xbda2888c	-0.079362005
245	0xbc9115f0	-0.017710656
246	0xbc8c83c0	-0.017152667
247	0x3dd0bf5e	0.101927504
248	0xbbead4a0	-0.00716646
249	0x3d25f074	0.040512517
250	0x3d40db38	0.047084063
251	0xbdb8119c	-0.08987734
252	0x3d504ad4	0.05085261
253	0xbdc9a5a8	-0.098460495
254	0xbdb72a4c	-0.08943614
255	0x3c7317b0	0.0148371905

placing_layer.0.bias f4 [5]
0	0xbc8cee96	-0.01720361
1	0xbd3601eb	-0.044435423
2	0x3c5201e7	0.012817836
3	0xbd8ef43a	-0.06980176
4	0x3d99852a	0.07496102

placing_layer.1.weight f4 [5, 64]
0	0x3e1b2e1d	0.1515431
1	0x3e2b4225	0.16724451
2	0x3da3e7dc	0.08003208
3	0x3e03d400	0.1287384
4	0xbb69b77a	-0.003566234
5	0xbd4a7436	-0.049427234
6	0x3e3a3be0	0.18186903
7	0x3e1e171e	0.15438506
8	0x3e1f8fd4	0.1558221
9	0x3d654690	0.055975497
10	0x3dca1d9b	0.09868928
11	0x3e2ed81d	0.17074628
12	0xbcd7ac70	-0.026327342
13	0x3c6342b0	0.01387088
14	0x3decf20a	0.11569603
15	0x3e244175	0.16040595
16	0xbd6537ae	-0.055961303
17	0x3e31a727	0.1734892
18	0xbb9a8eb8	-0.0047167204
19	0x3e043b1e	0.12913176
20	0x3cc2223b	0.023697963
21	0x3e10c9cf	0.14139484
22	0x3e2a1bfa	0.16612235
23	0xbc8806c9	-0.016604798
24	0x3bdab1eb	0.0066740415
25	0x3e2ec4e8	0.17067301
26	0x3e3db4d1	0.18526007
27	0x3dac8303	0.08423426
28	0x3deea369	0.11652262
29	0x3da39373	0.07987108
30	0x3dc6600f	0.096862905
31	0x3e076911	0.13223673
32	0xbd347b44	-0.044062868
33	0x3d500c86	0.050793193
34	0x3daa5935	0.08317796
35	0xbcc8a6d1	-0.024493607
36	0x3dd9699b	0.10615846
37	0x3d0d963b	0.0345671
38	0xbd0a65f8	-0.03378865
39	0x3dcb681b	0.09931966
40	0x3dd3042b	0.10303529
41	0xbd42df8a	-0.047576465
42	0x3dac9547	0.0842691
43	0x3c4de784	0.012567405
44	0x3e3f5647	0.18685256
45	0xbc226204	-0.009911064
46	0x3e22dfbe	0.15905663
47	0x3c82dc40	0.015974164
48	0x3e3e9fef	0.18615697
49	0xb9e1a443	-0.0004303773
50	0xbd6dddd4	-0.05807288
51	0x3c995452	0.018716965
52	0xbd7a2daf	-0.061078724
53	0x3dc0e226	0.094181344
54	0x3be42dd4	0.006963471
55	0x3db0ac96	0.08626668
56	0x3d36ca86	0.044626735
57	0xbbe5a249	-0.0070078713
58	0x3e1e64e2	0.15468171
59	0x3dc688f7	0.09694093
60	0x3e28d3a2	0.16486982
61	0x3dc9a309	0.098455496
62	0x3dfca02d	0.123352386
63	0x3e3876f4	0.18014127
64	0x3dc96dbd	0.09835384
65	0xbd759ee6	-0.05996599
66	0x3d8af08d	0.06784163
67	0xbcdbae75	-0.026816586
68	0x3dbd6ad2	0.0924889
69	0xbd8d5f10	-0.06902897
70	0xbdeb25fc	-0.11481854
71	0xbce59e39	-0.028029548
72	0xbca65add	-0.020306999
73	0xbdada699	-0.084790416
74	0xbdbcb93c	-0.09215018
75	0xbd4d3f13	-0.05010898
76	0xbc25b545	-0.010114019
77	0xbe05453d	-0.13014694
78	0x3cf9daa5	0.030499766
79	0xbdee8a86	-0.11647515
80	0x3deb129e	0.1147816
81	0xbd390181	-0.04516745
82	0xbda1d4b9	-0.07901902
83	0xbd570b84	-0.052501217
84	0x3dcbc4c5	0.0994964
85	0xbdc88dd9	-0.0979268
86	0x3c6b51c3	0.014362755
87	0x3d1b100a	0.037857093
88	0xbd89e40f	-0.06732952
89	0xbcac7141	-0.021050097
90	0xbd899871	-0.06718529
91	0xbd65f5fb	-0.05614279
92	0x3d6fc0b1	0.058533374
93	0x3d9d5b19	0.07683391
94	0x3d182b58	0.03715071
95	0xbd8d6f0a	-0.06905945
96	0x3d104fbb	0.035232287
97	0x3d6d54c7	0.057942178
98	0xbcd6f7c5	-0.026241193
99	0x3b91f3fa	0.004454133
100	0x3dee0ed8	0.11623925
101	0xbdb06128	-0.08612281
102	0xbdc080ac	-0.09399542
103	0x3dcabc95	0.098992504
104	0xbbe27bc8	-0.0069117285
105	0xbd8ba2cf	-0.06818163
106	0xbdc70cb4	-0.0971922
107	0xbde648dd	-0.11244366
108	0xbdef2468	-0.11676866
109	0xbe041177	-0.12897287
110	0xbd940bd6	-0.0722882
111	0x3c9ac06a	0.018890578
112	0xbdcf2eea	-0.1011637
113	0x3de5f5c1	0.112285145
114	0x3d11e05a	0.03561435
115	0xbd2d97b1	-0.042380992
116	0x3dd2aa1e	0.102863535
117	0x3d1eb644	0.03874804
118	0x3d8298ff	0.06376838
119	0xbe082894	-0.1329673
120	0x3bab5eb6	0.0052297963
121	0x3dd4b35f	0.10385775
122	0xbd8dc0aa	-0.069215134
123	0x3d830c6e	0.06398855
124	0xbcff3e3c	-0.031157605
125	0xbdd69040	-0.10476732
126	0xbc941a5a	-0.018078972
127	0x3cc5027e	0.02404904
128	0x3da77c16	0.081779644
129	0xbd74578b	-0.0596538
130	0x3d947285	0.07248405
131	0x3dd3af8f	0.103362195
132	0xbbaaef00	-0.0052164793
133	0x3c0a04e2	0.008424016
134	0xbda46016	-0.080261394
135	0xbceed01a	-0.029151965
136	0xbda4095c	-0.08009598
137	0x3cd217e8	0.025646165
138	0x3ce03254	0.027367748
139	0xbcd88410	-0.02643016
140	0xbd9d6874	-0.076859385
141	0xbc4c5770	-0.012472019
142	0x3d3acfd4	0.045608357
143	0xbde28b06	-0.11061673
144	0xbdb342eb	-0.08752998
145	0xbd21d1be	-0.039506666
146	0xbe05829b	-0.13038103
147	0xbdcf260b	-0.10114678
148	0x3d7e5c5e	0.062099807
149	0xbd95ff30	-0.07324064
150	0xbd9e932f	-0.07742917
151	0xbe0684a5	-0.13136537
152	0x3c95ef11	0.018302472
153	0xb9b8f1b1	-0.0003527529
154	0xbd586ca7	-0.052837994
155	0xbe0357f5	-0.12826522
156	0xbdf3fd51	-0.11913551
157	0xbd034fcc	-0.032058522
158	0xbd8c67c9	-0.06855733
159	0x3be0249f	0.006840303
160	0xbda47c70	-0.08031547
161	0xbcf47799	-0.029842185
162	0xbd750ea6	-0.059828423
163	0xbdfb48f5	-0.12269775
164	0xbdab37be	-0.08360241
165	0x3dad6f23	0.08468463
166	0x3c6579d0	0.014006093
167	0xbda6ac7f	-0.0813837
168	0xbd97ba48	-0.07408577
169	0xbe085527	-0.13313733
170	0x3cadcf3d	0.021216983
171	0x3dd9dae2	0.10637452
172	0xbe0c9bcc	-0.13731307
173	0xbe0da09a	-0.13830796
174	0x3d7c51b7	0.061601367
175	0x3dc0161d	0.09379218
176	0xbd405e3f	-0.04696488
177	0xbe0102e7	-0.12598763
178	0xbdf38f4e	-0.118925676
179	0x3d96b65b	0.07359
180	0x3cbaac38	0.022787198
181	0xbdb9e59c	-0.09076998
182	0xbd7b2394	-0.061313227
183	0xbdbc2951	-0.09187568
184	0x3d1a8343	0.037722837
185	0x3d2d1eee	0.042265825
186	0xbdb2b2b1	-0.08725489
187	0xbd1bef20	-0.038069844
188	0xbac7ea20	-0.001525227
189	0x3db50ded	0.08840547
190	0x3c3db30a	0.011578331
191	0x3ca38e22	0.019965235
192	0x3ccd365a	0.02505033
193	0xbdbc1e13	-0.09185424
194	0x3e049f3d	0.1295137
195	0xbdc6ddad	-0.0971025
196	0x3d7f16da	0.062277652
197	0xbdc80a59	-0.09767599
198	0xbd90a9ea	-0.070636585
199	0x3c0c5e37	0.008567384
200	0x3d5d01a6	0.05395665
201	0x3de5da08	0.11223227
202	0xbd195545	-0.037434835
203	0x3d70f734	0.0588295
204	0x3df4968c	0.11942777
205	0x3db0c234	0.08630791
206	0x3d1bec9c	0.038067445
207	0x3c254795	0.010087867
208	0xbd1e7ce7	-0.038693335
209	0x3c8b4ae5	0.017003486
210	0xbc1a6960	-0.009424537
211	0x3dbc8dc8	0.0920673
212	0xbc89d9b6	-0.016827445
213	0x3c067906	0.008207565
214	0x3dd5c4e6	0.10437946
215	0xbda2fa3d	-0.079578854
216	0x3d5f0f0e	0.054457717
217	0xbdbacee5	-0.09121493
218	0xbd81e6fd	-0.06342886
219	0xbd34ee5c	-0.04417263
220	0x3ddb0ef0	0.106962085
221	0x3c872d9c	0.01650124
222	0x3e064045	0.13110454
223	0x3dbe9fa2	0.09307791
224	0xbc1a5553	-0.009419757
225	0x3ca0b3ad	0.019616926
226	0x3bcad38f	0.0061897705
227	0xbdb68640	-0.08912325
228	0x3dc97013	0.098358296
229	0xbe08879d	-0.13332982
230	0xbdffafde	-0.12484716
231	0x3cd5baf1	0.026090117
232	0x3d8d6553	0.06904092
233	0xbd1c7153	-0.038194012
234	0x3db351e0	0.08755851
235	0x3d3ac6a6	0.045599602
236	0x3d5a1d86	0.053250812
237	0x3df4eedc	0.11959621
238	0xbc1e4cf6	-0.009661904
239	0xbcdd5d34	-0.027021982
240	0xbd373eb4	-0.044737533
241	0x3ba78c9d	0.005113198
242	0xbd5cca05	-0.0539036
243	0xbbce6708	-0.0062989034
244	0xbd77608c	-0.06039481
245	0xbd3ce993	-0.04612119
246	0x3bc698f4	0.006060714
247	0x3cc63357	0.024194403
248	0xbdc1efc8	-0.09469563
249	0x3d8cb8d8	0.06871194
250	0xbd7b762b	-0.06139199
251	0xbdc329f2	-0.09529485
252	0xbd4a5c40	-0.049404383
253	0x3dbdecdb	0.09273692
254	0xbdda75fb	-0.10667034
255	0xbda99ac4	-0.08281472

placing_layer.1.bias f4 [5]
0	0x3da5c813	0.08094802
1	0x3c918729	0.017764645
2	0x3dc81348	0.097693026
3	0x3d18b4f2	0.037281938
4	0xbd5100d6	-0.051026188

placing_layer.2.weight f4 [5, 64]
0	0x3dfa08a3	0.122086786
1	0x3b37b889	0.0028033576
2	0x3d8ec6c1	0.06971503
3	0xbc791340	-0.015202343
4	0x3db3b7b7	0.08775275
5	0xb9d41048	-0.00040447921
6	0x3e2c3164	0.16815716
7	0x3d052640	0.03250718
8	0xbcb26bee	-0.02177998
9	0xbcb8c573	-0.022555089
10	0x3e2ec5eb	0.17067687
11	0x3d0a5851	0.03377563
12	0x3dc25c9f	0.09490322
13	0xbb88f315	-0.0041793683
14	0x3d6a30fa	0.057175614
15	0x3e16913b	0.14703839
16	0x3cb357aa	0.021892387
17	0x3e125c78	0.14293087
18	0x3d6b3dd6	0.05743202
19	0x3da75c0c	0.081718534
20	0x3e1fb207	0.15595256
21	0x3e1a4202	0.15064242
22	0x3d886ad5	0.066610016
23	0x3dc1b6d6	0.09458701
24	0x3d8e9acc	0.06963119
25	0x3dd805bd	0.105479695
26	0x3df3cbcf	0.11904108
27	0x3e1534bd	0.145709
28	0x3cff843f	0.03119099
29	0x3c732bd2	0.014841991
30	0xbd9390d0	-0.07205355
31	0xbd772e38	-0.060346812
32	0x3d84b7f1	0.064803965
33	0x3e004ee8	0.125301
34	0x3d8cf2bf	0.06882238
35	0x3e1c3fcd	0.15258713
36	0x3d51aa2f	0.05118769
37	0x3dc0728b	0.09396847
38	0x3c715c68	0.014731504
39	0x3e1ee2b4	0.15516168
40	0x3d584aa9	0.052805576
41	0x3c3bdc33	0.011466074
42	0xbcdd6a3b	-0.027028194
43	0x3ddc2650	0.10749495
44	0x3e221bc7	0.15830909
45	0xbd99ced3	-0.07510152
46	0xbd855979	-0.06511206
47	0x3e14081a	0.14456216
48	0xbda3160d	-0.0796319
49	0x3d54e47c	0.051975712
50	0x3d0c92fe	0.03431987
51	0x3def1ff3	0.11676016
52	0xbc565520	-0.013081819
53	0x3dc5fdc0	0.096675396
54	0x3e296e90	0.16546082
55	0x3d822ce1	0.06356216
56	0x3d63fea8	0.05566278
57	0xbd892afb	-0.06697651
58	0x3d4efd1f	0.050534364
59	0x3da92c2d	0.08260379
60	0x3db6ded9	0.089292236
61	0x3db99df4	0.0906333
62	0xbc7e4ae9	-0.01552079
63	0xbd0d0d3d	-0.034436453
64	0xbcd23c0b	-0.025663396
65	0xbd0c516b	-0.034257334
66	0xbd9f73c1	-0.0778575
67	0xbdec7618	-0.11545962
68	0xbdd3aa3e	-0.103352055
69	0xbcfaddbb	-0.030623307
70	0xbc7c2a05	-0.015390878
71	0x3d2fb0ea	0.042893328
72	0x3dacefe1	0.08444191
73	0xbc5f417a	-0.013626451
74	0x3bf4c51b	0.007469786
75	0xbdf5beb6	-0.11999266
76	0xbdd30450	-0.10303557
77	0x3db1f34c	0.08688983
78	0x3c01dada	0.007925713
79	0x3cfc5c9e	0.030805882
80	0x3ca4b443	0.020105487
81	0xbd986cd0	-0.07442629
82	0xbd18540c	-0.03718953
83	0x3dd113c7	0.1020885
84	0xbd8178a7	-0.06321841
85	0x3d4f7f43	0.050658476
86	0xbd70e3c9	-0.058810983
87	0xbd986d82	-0.07442762
88	0xbd468e2a	-0.048475422
89	0xbdbad57c	-0.0912275
90	0xbd4293ae	-0.04750412
91	0xbd7facfd	-0.062420834
92	0xbd97c979	-0.07411475
93	0xbdea6b99	-0.11446304
94	0xbd5f4f5e	-0.05451905
95	0xbd901689	-0.07035548
96	0xbd7a8dc0	-0.06117034
97	0xbdb00a92	-0.08595766
98	0xbd249083	-0.04017688
99	0xbd547d3d	-0.05187725
100	0xbd2984ff	-0.0413866
101	0xbc93f7e7	-0.018062545
102	0xbdd46e4c	-0.103726
103	0x3d4f0760	0.050544143
104	0xbd02e252	-0.031954117
105	0xbd97ac23	-0.07405879
106	0x3d0c44cd	0.0342453
107	0x3dce3ac7	0.10069805
108	0x3bad0b30	0.0052808747
109	0xbc081b3b	-0.0083072735
110	0xbd4e7dbe	-0.050412886
111	0x3ccc214d	0.024918223
112	0x3d520818	0.05127725
113	0x3d394de8	0.045240313
114	0xbc4684c1	-0.012116612
115	0xbdcb91f7	-0.0993995
116	0xbdff8107	-0.12475782
117	0x3d47a0a6	0.04873719
118	0x3d672e14	0.056440428
119	0x3ddb71da	0.10715075
120	0x3d0cea06	0.03440287
121	0xbdf63cdd	-0.120233275
122	0xbc72916b	-0.014805178
123	0x3dcddca3	0.10051849
124	0xbc308da8	-0.010775961
125	0x3daa42e7	0.08313542
126	0xbe05d992	-0.13071278
127	0xbd8a01e4	-0.06738642
128	0x3d4285a1	0.04749072
129	0xbdafe50c	-0.08588609
130	0x3cb4d328	0.022073343
131	0xbe0825ff	-0.13295744
132	0x3d56665b	0.052343708
133	0xbbee9a52	-0.00728158
134	0x3c2c9b5f	0.01053509
135	0x3d4d2b9e	0.050090425
136	0xbcc28af5	-0.0237479
137	0xbe095a3f	-0.13413332
138	0x3dbe9860	0.09306407
139	0x3d49d4f0	0.04927534
140	0xbd78e543	-0.060765516
141	0xbd1e858d	-0.038701583
142	0xbbb42f0b	-0.005498772
143	0xbd981213	-0.074253224
144	0xbc99a60e	-0.018755939
145	0xbe0cdc4c	-0.13755912
146	0xbd21ca96	-0.03949984
147	0xbcee4ffe	-0.029090878
148	0xbc532148	-0.012886353
149	0x3d24fea9	0.040281925
150	0x3d569732	0.052390285
151	0x3d66e0e5	0.05636682
152	0xbe099ade	-0.13437983
153	0x3d577286	0.052599452
154	0x3d961d7e	0.07329844
155	0xbe0025a2	-0.12514356
156	0x3d4f358a	0.05058817
157	0xbd8385c5	-0.06421999
158	0xbd8f634f	-0.070013635
159	0x3d63030c	0.055422828
160	0xbd88953b	-0.066690885
161	0xbbd404a4	-0.00647028
162	0x3cf432b1	0.029809328
163	0xbd2e5706	-0.04256346
164	0xbde97dae	-0.114009246
165	0x3a092089	0.00052309834
166	0x3cbbadde	0.022910055
167	0xbdd4fe90	-0.104001164
168	0xbc1777f0	-0.009244904
169	0x3d0b04eb	0.033940237
170	0x3b6d9aef	0.0036255678
171	0x3d2eff10	0.042723715
172	0x3d567bd2	0.052364178
173	0x3da6a8ec	0.08137688
174	0x3d3842f5	0.04498573
175	0xbda3e284	-0.08002189
176	0xbd89e0ce	-0.06732331
177	0x3d01794a	0.03160981
178	0xbcb60b9a	-0.022222329
179	0xbe059a8a	-0.13047233
180	0xbe0686b1	-0.13137318
181	0xbc8d0503	-0.017214304
182	0xbe0a0df6	-0.13481888
183	0xbd32859a	-0.043584444
184	0x3d8e8136	0.06958239
185	0xbd332695	-0.043737967
186	0xbde55ad3	-0.11198964
187	0xbe0dffcd	-0.13867112
188	0xbdb8d459	-0.09024877
189	0x3d9a0705	0.0752087
190	0xbdcaf3d7	-0.0990979
191	0x3d04cbe2	0.032421
192	0xbd5b089a	-0.053475
193	0xbc866a22	-0.01640803
194	0x3e016f3e	0.12640092
195	0x3d356711	0.044287745
196	0x3e2bc26a	0.16773382
197	0x3bcfcd26	0.0063415943
198	0x3e50d9d5	0.20395596
199	0x3dcfbc71	0.10143364
200	0xbc3168bd	-0.010828194
201	0x3d96d4a3	0.07364776
202	0x3e1f5d64	0.1556297
203	0xbba069d2	-0.0048954273
204	0x3d316170	0.043305814
205	0x3ddc5630	0.107586265
206	0x3d5df843	0.05419184
207	0x3dd97a80	0.10619068
208	0xbdacc4cc	-0.084359735
209	0x3d9e7dcd	0.07738838
210	0x3d34e50e	0.044163756
211	0x3d8194f7	0.06327241
212	0x3e00ebeb	0.12589996
213	0x3dd21a40	0.10258913
214	0x3e3377ea	0.17526212
215	0x3d4db53b	0.050221663
216	0x3e023cb5	0.1271847
217	0x3df3b327	0.11899405
218	0xbbda33d4	-0.0066590104
219	0x3e53e823	0.20694022
220	0x3d5a6e44	0.053327814
221	0x3e0aa86b	0.13540809
222	0x3e05b8ab	0.13058726
223	0x3dd61215	0.104526676
224	0xbce2494c	-0.027622841
225	0x3d93f6f6	0.072248384
226	0x3e1cf00c	0.15325946
227	0xbb8efb4a	-0.004363452
228	0x3de0c409	0.10974891
229	0xbd846a31	-0.06465567
230	0x3e1aafca	0.1510612
231	0x3e22b263	0.15888362
232	0x3d365bb2	0.04452104
233	0x3d91bfee	0.07116686
234	0x3da9d296	0.08292119
235	0xbc99c05c	-0.018768482
236	0xbcda5e16	-0.026656192
237	0x3dd3f92f	0.103502624
238	0x3ded6b2b	0.11592706
239	0x3d278fd2	0.040908642
240	0x3e12d671	0.14339615
241	0x3d3d6000	0.04623413
242	0xbd477aa6	-0.04870095
243	0x3e40b99f	0.18820809
244	0x3d9dd8fb	0.07707401
245	0x3e2ec905	0.1706887
246	0xbcd18c21	-0.025579514
247	0x3e0d9883	0.1382771
248	0x3e4c0f23	0.19927649
249	0x3c439d48	0.011939354
250	0x3b1e0d77	0.0024116912
251	0xbc6b3951	-0.014356927
252	0x3de2ae16	0.110683605
253	0x3e02eefe	0.12786481
254	0xbb41e14a	-0.0029583746
255	0xbd28c09c	-0.04119931

placing_layer.2.bias f4 [5]
0	0x3e0885af	0.13332246
1	0x3d27d5e7	0.040975478
2	0xbd372d10	-0.04472071
3	0x3de6966d	0.1125916
4	0xbdbea052	-0.093079224
