extra_baseline2/log_res/5exp_2/imitation_learning_env-20250303-112725/bc_ddpg_actor.pth (torch, 225849 bytes, 88 tensors)

fc.0.weight f4 [64, 500]
0	0xb9af8ae3	-0.0003348208
1	0x3cc487b3	0.023990488
2	0xbd16c3ab	-0.036807697
3	0xbd06cef0	-0.032912195
4	0xbc8d1aaa	-0.017224628
5	0x3c447b9d	0.011992362
6	0xba684750	-0.0008860724
7	0x3d113d8f	0.035459097
8	0xbb820c53	-0.0039687543
9	0x3c41e2b2	0.0118338335
10	0xbc5d6f9d	-0.01351538
11	0xbc1006c0	-0.008790672
12	0xbd2effdf	-0.042724486
13	0xbcf2a1c7	-0.029618157
14	0xbc97055f	-0.018435178
15	0x3ad92394	0.0016566389
16	0x3c90d57f	0.017679928
17	0x3cdbd2a2	0.026833836
18	0xbcf85e65	-0.030318448
19	0xbc9f88f8	-0.019474491
20	0x3c851139	0.016243564
21	0x3d181c00	0.037136078
22	0xbc16caf7	-0.009203664
23	0x3d091324	0.03346552
24	0xbbec33ee	-0.007208339
25	0x3b9b1028	0.0047321506
26	0x3d25dd2c	0.04049413
27	0xbd29edf0	-0.04148668
28	0xbce6a2c9	-0.028153794
29	0xbc397f78	-0.011321895
30	0xbc8ece5c	-0.017432384
31	0x3d1e443c	0.038639292
32	0xbced7725	-0.028987477
33	0xbca8a577	-0.020586712
34	0xbcfff3bd	-0.031244153
35	0xbd2b8eda	-0.04188428
36	0xbcd5db8e	-0.026105668
37	0x3d1d75c6	0.038442396
38	0x3ca379b4	0.019955494
39	0x3cb19039	0.021675216
40	0x3b1a2372	0.0023519662
41	0xbcbbd34d	-0.022927905
42	0x3bf7eda1	0.0075661694
43	0xbd2b0871	-0.041756097
44	0xbd045bd7	-0.032314148
45	0xbcbcde44	-0.023055203
46	0x3ce72616	0.028216403
47	0x3cd6cd99	0.026221083
48	0xbca27a4a	-0.019833703
49	0xbad3813a	-0.0016136535
50	0x3cea4ecb	0.028602025
51	0x3d361aa0	0.044458985
52	0x3c916696	0.017749112
53	0x3bc5f815	0.0060415366
54	0x3cf5a33b	0.02998506
55	0xbcd7b64b	-0.026332041
56	0x3c08897a	0.008333558
57	0xbd0e04fb	-0.03467272
58	0xbcfdead0	-0.030995756
59	0xbcbd4114	-0.02310232
60	0x3ca5c450	0.02023521
61	0x3c93559e	0.017985161
62	0xbcd90342	-0.026490811
63	0x3c5d5bbc	0.013510641
64	0x3cc91eb5	0.024550775
65	0xbbb8f671	-0.0056446125
66	0x3adfcf38	0.0017075306
67	0x3c29c602	0.01036215
68	0x3ce34790	0.027744085
69	0x3d2fe319	0.042941187
70	0xbd0d296d	-0.034463335
71	0xbc864247	-0.016389025
72	0x3c8ffb6a	0.017575938
73	0x3d17c5c9	0.037053857
74	0x3d1f6748	0.038916856
75	0x3d21a104	0.039460197
76	0x3c11d226	0.008900201
77	0xbd1f49fd	-0.03888892
78	0x3b86cefc	0.00411403
79	0xbce531f5	-0.027977923
80	0xbd2ab6d2	-0.041678257
81	0x3d22c0bd	0.03973459
82	0x3d0b481e	0.034004323
83	0xbd36b9d3	-0.04461081
84	0x3c0924cc	0.008370589
85	0xbbf6ddc5	-0.007533761
86	0xbbf1271c	-0.0073593985
87	0xbca7b3df	-0.020471511
88	0x3c8ce28f	0.017197875
89	0xbcd8fea9	-0.026488619
90	0x3c864daf	0.016394464
91	0x3cb94518	0.022615954
92	0x3d0321e6	0.03201475
93	0x3c88fc30	0.016721815
94	0xbd354c65	-0.04426231
95	0xbceda7a8	-0.029010609
96	0x3cb6ed81	0.022330048
97	0x3c195bb3	0.009360242
98	0xbd0ee510	-0.03488642
99	0xbcd2f4ab	-0.025751432
100	0x3d2c5342	0.04207159
101	0x3cf6dbb0	0.030134052
102	0xbc9fbdb4	-0.019499637
103	0xbc3869c5	-0.011255686
104	0xbd2e7ee5	-0.042601485
105	0xba52b7fb	-0.00080382795
106	0xbd09f1c1	-0.03367782
107	0xbd0d4bce	-0.03449612
108	0xbb217d3b	-0.0024641294
109	0x3bdc06ea	0.0067146914
110	0xbc9608d1	-0.01831475
111	0x3cd96365	0.026536653
112	0xbcdef15b	-0.027214697
113	0x3d2635fc	0.040578827
114	0x3cfb108e	0.030647542
115	0xbd1a78b2	-0.03771276
116	0xbc365c79	-0.011130446
117	0x3b043f80	0.002017945
118	0x3bd5cec9	0.006524895
119	0x3c2dc7f6	0.010606756
120	0x3c8fc4dd	0.017549926
121	0x3b2f8f17	0.002678817
122	0xbcb2c19d	-0.021820838
123	0x3cad5b36	0.021161657
124	0xbd2fb6c6	-0.042898916
125	0xbcd92479	-0.02650665
126	0xbc376b9e	-0.0111950915
127	0xbcb27524	-0.021784373
128	0xbc8029ff	-0.015645025
129	0xbd162322	-0.0366546
130	0xbc1bdc0a	-0.009512911
131	0x3c1c9f5c	0.009559479
132	0xbceeab57	-0.029134436
133	0xbb1668ea	-0.0022950717
134	0x3d0320ed	0.032013822
135	0xbb96a583	-0.0045973673
136	0x3aa2e8ff	0.0012429057
137	0xbb7cd78d	-0.0038580627
138	0x3c1449af	0.009050771
139	0x3ce8f1ca	0.028435607
140	0x3d2d83ec	0.04236214
141	0x3ce8a84d	0.028400565
142	0x3d2de98f	0.042459067
143	0xbb53f6ef	-0.0032343229
144	0xbd248da9	-0.04017416
145	0xbcadae84	-0.02120138
146	0x3cf97465	0.030451009
147	0xb997fe72	-0.0002899054
148	0xbcb618bb	-0.02222859
149	0xbd0c5f3b	-0.034270506
150	0xbd2b6d9c	-0.04185258
151	0xbd1a9ab5	-0.037745196
152	0xbc149f1a	-0.009071136
153	0x3cc8e9a0	0.024525464
154	0x3cc6115f	0.024178205
155	0xbd30a9d3	-0.043130707
156	0x3ce486f4	0.027896382
157	0xbd0f56cd	-0.03499489
158	0xbc1ae748	-0.009454556
159	0xbc948c43	-0.018133288
160	0xbc0d21ce	-0.008614017
161	0xbc0fdcfb	-0.008780713
162	0xbd24601a	-0.040130712
163	0xbd1e29d6	-0.038614117
164	0xbbe54f45	-0.006997975
165	0x3a179c0f	0.00057834474
166	0xbca66d4e	-0.020315792
167	0x3c8a01ad	0.016846502
168	0xbd24df1c	-0.040251836
169	0xbb45cbac	-0.0030181212
170	0x3d211746	0.039328836
171	0xbc956f2b	-0.018241486
172	0x3d256933	0.04038353
173	0x3c84ad7e	0.016196009
174	0xbd254fc6	-0.04035928
175	0x3ce7cb19	0.028295087
176	0xbba91a3c	-0.005160598
177	0xbca38b61	-0.019963922
178	0x3d127abd	0.035761584
179	0xbd14069d	-0.03613912
180	0x3b9d3f71	0.0047988226
181	0xbc196855	-0.009363254
182	0x3d02cf6b	0.03193609
183	0x3c4c8888	0.012483723
184	0x3cb00964	0.021488853
185	0x3c8161e4	0.015793748
186	0xbc30330a	-0.010754356
187	0xbc1a180b	-0.009405146
188	0xbd16f444	-0.036854044
189	0x3cc68234	0.024232008
190	0x3d11709b	0.03550778
191	0x3cfaabbb	0.030599466
192	0xbd0135d5	-0.03154548
193	0x3b02b74c	0.001994568
194	0xbd012100	-0.031525612
195	0xbcc9ac88	-0.024618402
196	0xbcd57a7d	-0.026059384
197	0x3c7a66d1	0.015283302
198	0xbcda5134	-0.026650049
199	0xba7fc5cc	-0.0009756952
200	0x3af6976c	0.0018813438
201	0x3cec2994	0.02882842
202	0xbd0a77ec	-0.033805773
203	0xbcfb8243	-0.030701762
204	0xbcd4baca	-0.025967974
205	0x3d003680	0.031301975
206	0xbc83b152	-0.016075764
207	0x3d1a8258	0.03772196
208	0x3c847a44	0.016171582
209	0x3bb98fbf	0.005662888
210	0xb9ae8a02	-0.0003329069
211	0xbc10d81d	-0.008840588
212	0x3bb7dcb2	0.0056110257
213	0xbc274fc0	-0.010211885
214	0xb9a4bf77	-0.0003142317
215	0x3bbafa86	0.0057061343
216	0xbd0f4887	-0.034981277
217	0xbcc004f9	-0.023439871
218	0x3d13ea5c	0.036112174
219	0xbd14a877	-0.036293473
220	0xbb52742f	-0.0032112708
221	0x3d35351c	0.044240102
222	0x3c845784	0.016155012
223	0x3aa5f68c	0.0012661978
224	0xbd1ebe96	-0.038755976
225	0x3cb57c40	0.022153974
226	0xbd027983	-0.031854164
227	0xbc4ffdd6	-0.012694797
228	0xbc75d679	-0.015004748
229	0xbbd902fa	-0.0066226693
230	0x3a003bfc	0.0004891751
231	0x3d171651	0.036886517
232	0x3bb6f148	0.005582962
233	0x3d241264	0.0400566
234	0x3ce01afa	0.027356613
235	0xbce79dc3	-0.028273469
236	0x3ca45013	0.020057714
237	0xbd017d01	-0.031613354
238	0xbc9b457f	-0.018954037
239	0x3c57820f	0.013153567
240	0x3c71efc7	0.01476664
241	0x3d096d01	0.03355122
242	0xbc6bdf5d	-0.014396516
243	0x3896240b	7.159271e-05
244	0x3cbc9c03	0.023023611
245	0xbd312693	-0.043249678
246	0x3d046f45	0.032332677
247	0xbd17797d	-0.036981095
248	0x3a21940a	0.0006163722
249	0xbbf925c9	-0.0076033813
250	0xbcc0f356	-0.023553532
251	0x3bc1aff6	0.0059108688
252	0x3d177951	0.03698093
253	0xbc562fd5	-0.0130729275
254	0xbcd98114	-0.026550807
255	0xbc877e42	-0.016539697

fc.0.bias f4 [64]
0	0xbcb1a1c7	-0.021683587
1	0x3d36b5c5	0.044606943
2	0xbd1e1783	-0.03859664
3	0xbcfe3490	-0.031030923
4	0x3a996ad6	0.0011704813
5	0x3bc0e436	0.00588658
6	0xbc130f16	-0.008975765
7	0xbc394ced	-0.011309844
8	0xbcf7aaf5	-0.030232886
9	0x3d0bb7a1	0.03411067
10	0x3d2625ec	0.04056351
11	0xbc9ec41b	-0.01938062
12	0x3a49c8c0	0.00076974556
13	0xbd27637a	-0.040866353
14	0x3d1c41de	0.038148753
15	0xbcc8aecf	-0.024497418
16	0xbca24683	-0.019809013
17	0xbcbbe350	-0.02293554
18	0x3c3c1343	0.011479202
19	0x3c7d56a1	0.0154625485
20	0xbd1eb9df	-0.03875148
21	0xbc496298	-0.012291573
22	0x3cb36d5a	0.021902729
23	0x3bfc4115	0.007698188
24	0xbd22d05c	-0.03974949
25	0x3cb9964c	0.022654675
26	0x3d1d9c43	0.0384791
27	0xbb32fbfc	-0.002731084
28	0x3d33d0b2	0.0439002
29	0x3ce1e3ce	0.027574446
30	0xbd0fe857	-0.035133686
31	0xbca4e33b	-0.020127883
32	0x3d25bc89	0.040463004
33	0xbc5af1e1	-0.0133633325
34	0x3d1f0cd6	0.0388306
35	0xbd066b26	-0.03281703
36	0x3d217e91	0.039427344
37	0x3c49d58a	0.012318978
38	0xbd1889ab	-0.037240665
39	0xbd2ea3d4	-0.042636707
40	0xbd09950d	-0.03358941
41	0x3d248e33	0.040174674
42	0x3c4a065b	0.012330617
43	0x3c663405	0.014050488
44	0xbc5de29d	-0.013542798
45	0xbd33728f	-0.043810423
46	0x3d14dbd9	0.036342476
47	0xbcb25942	-0.021771077
48	0xbbc9c131	-0.0061570634
49	0xbb74d012	-0.0037355465
50	0x3d158a5e	0.03650891
51	0x3c8d7d74	0.017271735
52	0xbb362db0	-0.0027798228
53	0x3d1c4cc0	0.038159132
54	0x3d19ba1e	0.03753101
55	0xbaa0227f	-0.0012217312
56	0x3d18ab4d	0.03727274
57	0xbcb2fddd	-0.021849567
58	0xbd251320	-0.040301442
59	0x3d1d5fc5	0.03842141
60	0xbb721a75	-0.003694204
61	0xbbb960e7	-0.0056573036
62	0xbceef7a0	-0.029170811
63	0xbca7a4d0	-0.02046433

fc.2.weight f4 [64]
0	0x3f800000	1.0
1	0x3f800000	1.0
2	0x3f800000	1.0
3	0x3f85a450	1.0440769
4	0x3f800000	1.0
5	0x3f800000	1.0
6	0x3f800000	1.0
7	0x3f85a39f	1.0440558
8	0x3f852d00	1.0404358
9	0x3f800000	1.0
10	0x3f860d5f	1.047283
11	0x3f800000	1.0
12	0x3f800000	1.0
13	0x3f8620a4	1.0478711
14	0x3f800000	1.0
15	0x3f800000	1.0
16	0x3f865bf3	1.0496811
17	0x3f800000	1.0
18	0x3f800000	1.0
19	0x3f800000	1.0
20	0x3f800000	1.0
21	0x3f800000	1.0
22	0x3f85d51d	1.0455662
23	0x3f86002d	1.0468804
24	0x3f800000	1.0
25	0x3f85f5d6	1.0465648
26	0x3f862363	1.0479549
27	0x3f800000	1.0
28	0x3f85905d	1.0434681
29	0x3f86394c	1.0486236
30	0x3f85b4e1	1.0445825
31	0x3f864b12	1.049166
32	0x3f861813	1.0476097
33	0x3f85d717	1.0456265
34	0x3f800000	1.0
35	0x3f8590cb	1.0434812
36	0x3f8608ce	1.0471437
37	0x3f800000	1.0
38	0x3f800000	1.0
39	0x3f800000	1.0
40	0x3f800000	1.0
41	0x3f800000	1.0
42	0x3f800000	1.0
43	0x3f800000	1.0
44	0x3f800000	1.0
45	0x3f862669	1.0480472
46	0x3f800000	1.0
47	0x3f8575a0	1.0426521
48	0x3f800000	1.0
49	0x3f800000	1.0
50	0x3f800000	1.0
51	0x3f863cbb	1.0487283
52	0x3f85e22e	1.045965
53	0x3f800000	1.0
54	0x3f800000	1.0
55	0x3f844c85	1.0335852
56	0x3f800000	1.0
57	0x3f800000	1.0
58	0x3f85a8ee	1.0442178
59	0x3f800000	1.0
60	0x3f85e9fb	1.046203
61	0x3f86380d	1.0485855
62	0x3f800000	1.0
63	0x3f862ff8	1.0483389

fc.2.bias f4 [64]
0	0xbd7f3acb	-0.06231193
1	0x3d6b0eeb	0.057387274
2	0xbd62d568	-0.0553793
3	0x3d4f7a92	0.050654
4	0x3d516c23	0.051128518
5	0x3d29b673	0.041433763
6	0xbd6b6cd8	-0.05747685
7	0xbd68049c	-0.05664502
8	0xbd5b05b5	-0.05347224
9	0x3d4e5e3f	0.05038285
10	0xbd19ba6d	-0.037531305
11	0xbd28eb46	-0.04124
12	0x3d3b6f10	0.045760214
13	0xbd49bab1	-0.04925031
14	0x3d6cbfc8	0.057800084
15	0x3d4b8d84	0.049695507
16	0x3d63cd5e	0.055615775
17	0x3d757876	0.059929334
18	0xbd47e398	-0.048801035
19	0xbd310564	-0.04321803
20	0x3d3dd4d1	0.046345536
21	0xbd6de285	-0.058077354
22	0x3d42fe03	0.047605526
23	0x3d408cfd	0.047009457
24	0xbd38a424	-0.04507841
25	0x3d6e1a85	0.05813076
26	0xbd560f16	-0.05226048
27	0xbd44abf7	-0.04801556
28	0x3c3ae926	0.011408126
29	0x3d1b08fd	0.03785037
30	0xbd2f3d71	-0.042783204
31	0x3d43f6c2	0.04784275
32	0xbd64cc59	-0.055858944
33	0xbd2e6b0f	-0.042582568
34	0x3d532a34	0.05155392
35	0x3c6d8df2	0.014499174
36	0xbcb3cb3b	-0.021947494
37	0xbd7e7633	-0.062124442
38	0x3d05aee6	0.0326375
39	0xbd795a7b	-0.060877305
40	0x3d373f15	0.044737894
41	0xbd18c241	-0.03729463
42	0xbd411ea2	-0.047148354
43	0xbd636e5e	-0.055525176
44	0xbd4a1389	-0.049335036
45	0x3d08b7dd	0.03337847
46	0x3d37b0cc	0.04484634
47	0xbceadad2	-0.028668795
48	0xbd519a52	-0.051172562
49	0x3d45e01b	0.048309427
50	0xbd5a132a	-0.053240933
51	0xbcd1dd82	-0.025618318
52	0x3d1ff28d	0.039049674
53	0x3d5d7d0a	0.054074325
54	0xbd6adf09	-0.05734161
55	0xbc1d49a9	-0.0096000815
56	0x3d6487ab	0.055793446
57	0x3d767b22	0.060176022
58	0x3d42f6f2	0.047598787
59	0x3d6ea281	0.058260445
60	0x3d57e118	0.0527049
61	0x3d500cc0	0.05079341
62	0xbd5e0c75	-0.0542111
63	0xbd314806	-0.043281578

fc.2.running_mean f4 [64]
0	0x00000000	0.0
1	0x00000000	0.0
2	0x00000000	0.0
3	0x46ee0550	30466.656
4	0x00000000	0.0
5	0x00000000	0.0
6	0x1f6196b3	4.777026e-20
7	0x46c31a4e	24973.152
8	0x45f46113	7820.1343
9	0x00000000	0.0
10	0x45f74c54	7913.541
11	0x00000000	0.0
12	0x00000000	0.0
13	0x4685d7c2	17131.879
14	0x1d5d53e1	2.929247e-21
15	0x1ed66306	2.2699086e-20
16	0x4720eaae	41194.68
17	0x00000000	0.0
18	0x00000000	0.0
19	0x00000000	0.0
20	0x1e4da5cb	1.0886895e-20
21	0x1d33bf1c	2.3789254e-21
22	0x46554250	13648.578
23	0x45d953d0	6954.4766
24	0x00000000	0.0
25	0x463b72a0	11996.656
26	0x4622c64c	10417.574
27	0x00000000	0.0
28	0x47239abd	41882.74
29	0x467ac8ad	16050.169
30	0x46a77b35	21437.604
31	0x45b861f9	5900.2466
32	0x460c2ce4	8971.223
33	0x46744b9a	15634.9
34	0x00000000	0.0
35	0x46947f45	19007.635
36	0x47603f38	57407.22
37	0x00000000	0.0
38	0x00000000	0.0
39	0x185c2bab	2.845638e-24
40	0x00000000	0.0
41	0x00000000	0.0
42	0x00000000	0.0
43	0x00000000	0.0
44	0x00000000	0.0
45	0x467f266f	16329.608
46	0x00000000	0.0
47	0x46646632	14617.549
48	0x00000000	0.0
49	0x00000000	0.0
50	0x1d0f18ba	1.8938676e-21
51	0x46533157	13516.335
52	0x46f3bced	31198.463
53	0x00000000	0.0
54	0x00000000	0.0
55	0x47232c3f	41772.246
56	0x00000000	0.0
57	0x00000000	0.0
58	0x47052d90	34093.562
59	0x00000000	0.0
60	0x456e621e	3814.1323
61	0x44ee1d77	1904.9208
62	0x00000000	0.0
63	0x46432f18	12491.773

fc.2.running_var f4 [64]
0	0x17f8b804	1.6073076e-24
1	0x17f8b804	1.6073076e-24
2	0x17f8b804	1.6073076e-24
3	0x45eb080e	7521.007
4	0x17f8b804	1.6073076e-24
5	0x17f8b804	1.6073076e-24
6	0x17f8b804	1.6073076e-24
7	0x4514f511	2383.3167
8	0x44d8363a	1729.6946
9	0x17f8b804	1.6073076e-24
10	0x449835d6	1217.6824
11	0x17f8b804	1.6073076e-24
12	0x17f8b804	1.6073076e-24
13	0x446c70f7	945.7651
14	0x17f8b804	1.6073076e-24
15	0x17f8b804	1.6073076e-24
16	0x4482c364	1046.106
17	0x17f8b804	1.6073076e-24
18	0x17f8b804	1.6073076e-24
19	0x17f8b804	1.6073076e-24
20	0x17f8b804	1.6073076e-24
21	0x17f8b804	1.6073076e-24
22	0x446bbbb1	942.9327
23	0x44a620e1	1329.0275
24	0x17f8b804	1.6073076e-24
25	0x445842b4	865.04224
26	0x44707fbf	961.99603
27	0x17f8b804	1.6073076e-24
28	0x447bad5f	1006.7089
29	0x44a0a773	1285.2328
30	0x46577d04	13791.254
31	0x444d07f4	820.12427
32	0x44a67cd2	1331.9006
33	0x44abfff3	1375.9984
34	0x17f8b804	1.6073076e-24
35	0x445631f2	856.7804
36	0x443bcf23	751.2365
37	0x17f8b804	1.6073076e-24
38	0x17f8b804	1.6073076e-24
39	0x17f8b804	1.6073076e-24
40	0x17f8b804	1.6073076e-24
41	0x17f8b804	1.6073076e-24
42	0x17f8b804	1.6073076e-24
43	0x17f8b804	1.6073076e-24
44	0x17f8b804	1.6073076e-24
45	0x444c2ec1	816.7305
46	0x17f8b804	1.6073076e-24
47	0x448ef7c0	1143.7422
48	0x17f8b804	1.6073076e-24
49	0x17f8b804	1.6073076e-24
50	0x17f8b804	1.6073076e-24
51	0x44d75329	1722.5988
52	0x44490098	804.0093
53	0x17f8b804	1.6073076e-24
54	0x17f8b804	1.6073076e-24
55	0x467c05cd	16129.45
56	0x17f8b804	1.6073076e-24
57	0x17f8b804	1.6073076e-24
58	0x44aba632	1373.1936
59	0x17f8b804	1.6073076e-24
60	0x4477b9a8	990.9009
61	0x44904b82	1154.3596
62	0x17f8b804	1.6073076e-24
63	0x44976aa7	1211.3329

fc.3.weight f4 [64, 64]
0	0xbdcdd937	-0.10051196
1	0x3d17e9a4	0.03708805
2	0xbe10c602	-0.14138034
3	0x3daa1de7	0.08306485
4	0x3d8049d6	0.06264083
5	0xb9739d94	-0.00023232988
6	0xbdeddc67	-0.11614304
7	0xbe0cc863	-0.13748316
8	0xbd1ad545	-0.037801046
9	0x3dde52c0	0.10855627
10	0x3d86e1b6	0.0658602
11	0x3c96bf9e	0.018401917
12	0xbcad38a9	-0.021145182
13	0xbdad244b	-0.08454188
14	0x3d752d1f	0.059857484
15	0xbdc49453	-0.09598603
16	0x3dd26a45	0.102741756
17	0x3e046802	0.12930301
18	0x3c75e5ff	0.015008449
19	0x3ddacab1	0.106831916
20	0xbd8f61c3	-0.070010684
21	0xbd98ded8	-0.07464379
22	0x3d526d31	0.051373664
23	0xbb66267d	-0.0035118156
24	0xbcd901b2	-0.026490066
25	0x3e020abc	0.12699407
26	0xbe0a7398	-0.13520658
27	0x3c836757	0.016040487
28	0x3d4b3d98	0.049619287
29	0x3d9dc39d	0.07703326
30	0xbe0382b9	-0.12842835
31	0x3ddc9321	0.1077025
32	0x3d913607	0.07090383
33	0xbdff04ea	-0.12452109
34	0xbd3432e0	-0.04399383
35	0x3cb3d823	0.021953648
36	0x3cecdabf	0.0289129
37	0x3d063385	0.032763977
38	0x3d580a54	0.052744225
39	0xbd9f4974	-0.07777682
40	0x3de2c858	0.11073369
41	0x3bcb316b	0.0062009594
42	0xbdec62fc	-0.11542317
43	0xbdf1730a	-0.1178952
44	0xbdfbc58f	-0.12293541
45	0x3d4515bc	0.04811643
46	0x3d613c14	0.054988936
47	0x3bb103df	0.005402073
48	0x3cfd6f40	0.030936837
49	0x3db76ae2	0.08955933
50	0x3bf3963e	0.0074336817
51	0xbe00bf6e	-0.12573025
52	0x3d56a4ef	0.052403387
53	0x3d693cc8	0.05694273
54	0xbcff172d	-0.03113898
55	0x3dcebb90	0.100943685
56	0x3df2b742	0.1185136
57	0x3ca9b688	0.02071692
58	0xbda47f0b	-0.08032044
59	0x3e22d82f	0.1590278
60	0xbd2a0607	-0.041509654
61	0x3e17934c	0.14802283
62	0xbd718069	-0.058960352
63	0xbd70eaff	-0.05881786
64	0xbd143eb7	-0.036192622
65	0x3dade2f1	0.08490551
66	0xbe0ab34e	-0.13544962
67	0x3e121693	0.14266424
68	0x3dc0f937	0.09422534
69	0x3e02819d	0.12744756
70	0xbd84d0eb	-0.064851604
71	0xbd0c4c85	-0.034252662
72	0xbd853230	-0.06503713
73	0xbd0b6e46	-0.03404071
74	0xbdca1da4	-0.09868935
75	0xbd049968	-0.032372862
76	0x3e35eb64	0.17765576
77	0xbd328151	-0.043580357
78	0x3e28d20d	0.16486378
79	0xbd36e97f	-0.044656273
80	0x3d40872f	0.04700392
81	0x3d9c96eb	0.07645973
82	0xbdfdc984	-0.12391952
83	0x3bd4d38b	0.0064949444
84	0x3d87a9e8	0.06624204
85	0xbda19db5	-0.07891408
86	0x3ac92ca3	0.0015348386
87	0x3df79a3c	0.12089965
88	0xbe1aaecf	-0.15105747
89	0x3de8c617	0.11365908
90	0x3d22b1de	0.03972041
91	0xbdb3bf5f	-0.087767355
92	0x3dda0085	0.1064463
93	0xbc098be0	-0.008395165
94	0xbe289c8c	-0.16465968
95	0x3dc93cd2	0.09826054
96	0xbdf5198c	-0.11967763
97	0x3d4a2f97	0.04936179
98	0x3dfe5b24	0.124197274
99	0xbd7eaca4	-0.06217636
100	0xbdaa47b0	-0.083144546
101	0xbde789cb	-0.11305579
102	0x3d359b9c	0.044337854
103	0xbd056ffa	-0.032577492
104	0xbce7f9bb	-0.028317323
105	0xbd8da2fa	-0.06915851
106	0xbb158e6b	-0.0022820483
107	0xbd50d44d	-0.050983716
108	0x3d8f82a8	0.070073426
109	0xb961b86c	-0.00021526375
110	0x3d81a863	0.06330945
111	0xbd4bdd25	-0.049771447
112	0xbdf89a42	-0.12138797
113	0xbd8f9bd5	-0.070121445
114	0xbdd1f478	-0.10251707
115	0x3c555a44	0.013022009
116	0x3e0234d3	0.12715463
117	0x3cee7e2c	0.029112898
118	0xbbb72604	-0.0055892486
119	0xbba6e318	-0.0050929897
120	0x3d38554a	0.045003213
121	0x3cfab612	0.030604396
122	0xbc7ce0d4	-0.015434463
123	0x3ced6594	0.0289791
124	0x3c819a3c	0.015820615
125	0x3d9d44ca	0.07679136
126	0xbdb0a754	-0.08625665
127	0xbe22ca3b	-0.15897457
128	0x3d6ce9c6	0.05784013
129	0x3e0d582f	0.1380317
130	0x3dac228d	0.084050275
131	0xbcfe7c1c	-0.03106504
132	0x3da72228	0.08160812
133	0xbda9a8a8	-0.08284122
134	0x3da5f0e0	0.08102584
135	0xbda6a4c1	-0.08136893
136	0xbdfd5f50	-0.12371695
137	0xbd0da5d6	-0.03458198
138	0x3db2804d	0.08715878
139	0x3c272165	0.010200833
140	0x3d4ec600	0.050481796
141	0x3de1ae2a	0.11019547
142	0x3ddb3b40	0.107046604
143	0xbcc8e672	-0.024523947
144	0xbe243440	-0.16035557
145	0x3e078a24	0.1323629
146	0xbe0d69fb	-0.1380996
147	0x3c1211f0	0.008915409
148	0xbd960a75	-0.07326213
149	0xbdd6cb93	-0.104880475
150	0xbe21eada	-0.15812245
151	0x3d7e8a85	0.06214382
152	0xbdfa36b3	-0.12217464
153	0x3d6f65ad	0.058446575
154	0xbd36c4b4	-0.044621184
155	0xbdbe9124	-0.09305027
156	0x3d9106cb	0.07081374
157	0xbd7fdfca	-0.06246928
158	0xba152d4c	-0.00056906487
159	0xbd903a75	-0.070424
160	0xbd6795a2	-0.056539185
161	0x3d8fa8d2	0.07014622
162	0xbc968e8e	-0.018378522
163	0x3dea430c	0.114385694
164	0x3e10080f	0.14065574
165	0xbd8d21fc	-0.06891248
166	0x3e05769f	0.13033532
167	0xbc882d9a	-0.016623307
168	0x3c96f1be	0.018425819
169	0xbe10f270	-0.14154983
170	0xbc33809d	-0.010955957
171	0xbca52348	-0.020158425
172	0xbdc94066	-0.09826736
173	0xbd8b3559	-0.06797285
174	0xbce2afde	-0.02767175
175	0xbde0be9d	-0.109738566
176	0xbd9450f3	-0.07242002
177	0x3cae4d1c	0.021277003
178	0xbe043927	-0.12912427
179	0xbd145663	-0.036215197
180	0xbddb509a	-0.10708733
181	0xbda9431e	-0.08264755
182	0x3c4dac09	0.012553223
183	0xbcc9b3ac	-0.024621807
184	0x3ce6b297	0.02816133
185	0xbca85ead	-0.020552957
186	0xbd744970	-0.059640348
187	0x3dce4770	0.10072219
188	0xbd8c82cc	-0.06860885
189	0x3da24e24	0.079250604
190	0xbe0ad456	-0.13557562
191	0xbd6c310a	-0.057663955
192	0xbcda0b46	-0.026616704
193	0x3c49e556	0.012322744
194	0xbe00a202	-0.12561801
195	0xbe1ca95c	-0.1529898
196	0x3c9e7abc	0.019345634
197	0x3e1527ec	0.1456601
198	0xbc715cfc	-0.014731642
199	0xbcf7f8c5	-0.03026999
200	0x3d84dd94	0.06487575
201	0xbca6026d	-0.020264829
202	0x3d424d1b	0.047436815
203	0xbda81828	-0.082077324
204	0x3cb82757	0.022479696
205	0x3cac3fa6	0.021026444
206	0xbd623441	-0.055225614
207	0x3c2f722f	0.010708376
208	0x3cd33ddf	0.025786338
209	0xbd0b50f5	-0.034012754
210	0xbcd140f1	-0.025543662
211	0x3d949e81	0.07256795
212	0xbd40b9b2	-0.047052093
213	0xbdda847f	-0.10669803
214	0xbde5e552	-0.1122538
215	0xbb091a2e	-0.0020920145
216	0xbd3498ef	-0.04409116
217	0xbb30d723	-0.00269837
218	0xbd4cce51	-0.050001446
219	0x3d002cf8	0.031292886
220	0xbdfe91c1	-0.12430144
221	0xbc54f5d9	-0.012998068
222	0x3d1a349e	0.037647836
223	0xbdefcfb7	-0.1170954
224	0x3dfeca80	0.124409676
225	0x3da8b3d2	0.08237423
226	0x3e17c64c	0.14821738
227	0xbdaacf3e	-0.083403096
228	0x3dfe56a7	0.124188714
229	0x3a391091	0.00070596585
230	0xbce38619	-0.027773904
231	0x3d9d7109	0.07687575
232	0x3e177b88	0.14793217
233	0xbdde3342	-0.108496204
234	0xbdb0c324	-0.0863097
235	0xbca1782c	-0.019710623
236	0x3cf51f46	0.029922139
237	0x3d83c638	0.064342916
238	0x3da8b90e	0.082384214
239	0x3dc0b2ee	0.09409128
240	0xbd1e238e	-0.038608126
241	0x3e093032	0.13397291
242	0xbdcf4611	-0.10120786
243	0x3cddcd19	0.027075337
244	0x3d148f78	0.036269635
245	0x3dad7fb0	0.0847162
246	0xbe054395	-0.13014062
247	0x3d1c2dad	0.038129497
248	0x3dd6dcdd	0.10491345
249	0x3de1bbb8	0.11022133
250	0xbe0f4c51	-0.13993956
251	0xbc8c5178	-0.017128691
252	0xbe042a5f	-0.12906788
253	0xbdf22f2b	-0.11825403
254	0xbd8fb4cb	-0.070169054
255	0xbda684cf	-0.081308

fc.3.bias f4 [64]
0	0x3d70abca	0.05875758
1	0xbcd0ae9a	-0.025473882
2	0x3cf0b7b2	0.029384468
3	0x3d02648d	0.031834174
4	0xbc8ece69	-0.017432408
5	0xbd98ac45	-0.07454733
6	0x3e21e856	0.15811285
7	0x3e1420fd	0.14465709
8	0xbccae732	-0.024768446
9	0xbd87fb97	-0.06639784
10	0x3d3fd0cc	0.046829984
11	0x3c6aa1c2	0.014320793
12	0xbd1c1df1	-0.03811449
13	0x3d5cacbe	0.053875677
14	0x3c8dc6bd	0.01730668
15	0x3e01912f	0.1265304
16	0x3d8bca1c	0.06825659
17	0x3e078d52	0.13237503
18	0x3d81125d	0.06302331
19	0x3ca22f0c	0.019797824
20	0x3dcd43d1	0.100227006
21	0xbcdcc4ce	-0.026949313
22	0x3e1257bb	0.14291279
23	0x3cfc267d	0.030780071
24	0x3e082749	0.13296236
25	0x3d9dad6e	0.07699095
26	0x3ccaeae0	0.0247702
27	0xbd2277eb	-0.039665144
28	0xbd2b04b2	-0.041752525
29	0xbd142c35	-0.03617497
30	0xbd0abd14	-0.033871725
31	0xbd117cd8	-0.03551945
32	0x3e17ca01	0.14823152
33	0xbcfcc393	-0.030854976
34	0xbd66184a	-0.056175508
35	0x3bfd40be	0.007728665
36	0x3dcb5a70	0.09929359
37	0xbce6a1ea	-0.028153379
38	0x3baf449b	0.0053487546
39	0xbd88c7c8	-0.0667873
40	0xbd298033	-0.041382026
41	0x3d5ad0c8	0.053421766
42	0x3d8eec23	0.06978633
43	0x3d13b9e6	0.03606596
44	0xbc148b00	-0.009066343
45	0x3d2c38b1	0.042046253
46	0xbd9f4d16	-0.07778375
47	0x3dd28a0b	0.10280236
48	0xbc8f0911	-0.017460378
49	0xbd112268	-0.035433203
50	0xbbb532d6	-0.0055297418
51	0x3daf0383	0.08545592
52	0xbc83f8b6	-0.016109806
53	0xbd8da5ad	-0.06916366
54	0x3da9f529	0.08298714
55	0x3d8e5cc0	0.069512844
56	0xbd7f9596	-0.062398516
57	0x3e06ac05	0.13151558
58	0xbd4cf5a8	-0.050038964
59	0xbd72fac2	-0.059321173
60	0x3cad32bc	0.021142356
61	0xbd168d33	-0.03675575
62	0x3d8f7e74	0.07006541
63	0xbd2ba579	-0.041905854

placing_layer.0.weight f4 [5, 64]
0	0x3e2c1e7d	0.16808505
1	0xbd22cd32	-0.03974647
2	0x3e2ef657	0.17086159
3	0xbd84b435	-0.06479684
4	0x3dbbe9d5	0.09175459
5	0x3e06b99e	0.13156745
6	0x3db4e67a	0.088330224
7	0x3d84f1e3	0.06491449
8	0x3d9f35c7	0.07773929
9	0x3d931d50	0.07183325
10	0x3e1e1eca	0.15441433
11	0xbceaf0fa	-0.02867936
12	0xbceefcd6	-0.029173296
13	0xbca5474c	-0.020175599
14	0xbd82d05e	-0.06387399
15	0x3d318e8f	0.043348845
16	0x3ce0c201	0.027436258
17	0xbd0febe2	-0.035137065
18	0xbcf3c1aa	-0.029755432
19	0xbc184a29	-0.009295025
20	0x3ddbfeac	0.10741934
21	0x3d572afd	0.05253123
22	0xbc9545c2	-0.01822174
23	0x3da2bdcf	0.07946359
24	0xbd1b0174	-0.037843183
25	0x3da1a605	0.07892994
26	0x3be6da4a	0.007045065
27	0x3d86d90e	0.06584369
28	0x3dbcc629	0.092174836
29	0x3d4e14b9	0.05031273
30	0xbd239a50	-0.039942086
31	0x3e18fba2	0.1493974
32	0x3da7f10f	0.08200275
33	0x3d795024	0.060867444
34	0x3dfcd8be	0.12346028
35	0x3d7e05b8	0.062017173
36	0x3d6cc235	0.057802398
37	0x3e2dbafd	0.16965862
38	0xbd24e8ea	-0.040261187
39	0x3dd06f8f	0.10177528
40	0x3d350f4d	0.044204045
41	0x3e2e6c5a	0.1703352
42	0x3d468e1c	0.04847537
43	0xbced8d27	-0.02899797
44	0x3dbaf651	0.091290124
45	0xbd94c533	-0.07264175
46	0xbd72567d	-0.059164513
47	0x3cd9667a	0.026538122
48	0xbbee4c20	-0.0072722584
49	0x3d9535c4	0.072856456
50	0x3c1fdf14	0.009757776
51	0xbd9a7991	-0.07542718
52	0x3e2386b4	0.15969354
53	0x3d58c6d2	0.052923985
54	0x3de9ee9b	0.114224635
55	0xbd7c2c01	-0.061565403
56	0x3ca839f9	0.020535456
57	0x3d8ef29d	0.069798686
58	0x3e085219	0.13312568
59	0x3dd7d9bc	0.105395764
60	0x3e250bed	0.1611783
61	0x3e11022c	0.14160985
62	0xbd094485	-0.03351261
63	0x3d500860	0.050789237
64	0xbd06f419	-0.032947633
65	0x3d674c17	0.05646905
66	0x3e140bcd	0.14457627
67	0xbd66fddb	-0.05639444
68	0x3bdd30c8	0.0067502
69	0x3de6db66	0.11272316
70	0x3d095b82	0.033534534
71	0xbda9d439	-0.082924314
72	0xbc76fe5b	-0.0150752915
73	0xbd361867	-0.044456866
74	0xbd852e28	-0.06502944
75	0x3cd761d6	0.026291769
76	0xbb994fcf	-0.0046787034
77	0xbd79e06d	-0.061005045
78	0xbdabbaf4	-0.08385268
79	0x3d1b95f7	0.037984814
80	0x3d21c73f	0.039496657
81	0xbd44fba7	-0.048091557
82	0x3e0ae32b	0.1356322
83	0x3dbf0b85	0.09328369
84	0xba46ddc4	-0.0007586146
85	0x3dbad2e3	0.09122255
86	0x3dd76f2a	0.1051925
87	0x3e0cb180	0.13739586
88	0x3dec09cf	0.11525308
89	0x3df2bd14	0.1185247
90	0x3df20e97	0.11819189
91	0x3d3487fc	0.044074997
92	0x3e09376a	0.13400045
93	0x3de0b07b	0.10971161
94	0x3da1e3e5	0.079047956
95	0xbd2917a8	-0.041282326
96	0x3e1a56af	0.1507213
97	0xbd919ee9	-0.07110388
98	0xbced28e0	-0.028950155
99	0x3c464ef5	0.012103786
100	0x3d3e0607	0.046392467
101	0x3bac5ada	0.005259854
102	0x3d820983	0.063494705
103	0x3bcd958d	0.0062739314
104	0x3cae58b4	0.021282531
105	0x3e0cbffc	0.13745111
106	0xbd587ebc	-0.05285524
107	0x3de2c190	0.11072075
108	0x3dc4e71d	0.09614394
109	0xbca613a3	-0.020273035
110	0x3c9a009f	0.018799124
111	0xbc672e24	-0.014110122
112	0x3d14f9cd	0.03637104
113	0xbd6299cf	-0.055322465
114	0xbc0d3317	-0.008618138
115	0x3dd24634	0.102672964
116	0xbd1041b1	-0.0352189
117	0x3e18b717	0.14913593
118	0x3d9f9bd3	0.07793393
119	0x3b2664fe	0.0025389786
120	0xbdc386fa	-0.09547229
121	0x3da4b9c8	0.080432475
122	0xbad651e8	-0.0016351314
123	0xbd285e9c	-0.04110585
124	0xbc977154	-0.018486656
125	0x3df1aa98	0.11800116
126	0x3e1bdd8a	0.15221229
127	0x3d25cf5b	0.040480953
128	0x3e0d11c1	0.13776304
129	0x3cb321f2	0.021866772
130	0xbd71344f	-0.058887776
131	0x3baa615a	0.0051995935
132	0x3e260450	0.16212583
133	0xbd71d46d	-0.059040476
134	0x3d6a28b9	0.057167742
135	0xbd698de5	-0.057020087
136	0xbd8f8c11	-0.070091374
137	0x3d9fcd62	0.078028455
138	0x3dccc131	0.09997786
139	0x3e0b69ae	0.13614532
140	0xbccec5c3	-0.025240785
141	0xbbc3d2b1	-0.005976044
142	0xbd75728e	-0.0599237
143	0x3d189a68	0.03725663
144	0x3ddba554	0.10724893
145	0x3d5235fc	0.051321015
146	0x3e0266cd	0.12734528
147	0x3e195b30	0.14976192
148	0x3c96972c	0.018382631
149	0xbc3c0db3	-0.0114778755
150	0x3e0f439b	0.13990633
151	0x3d5c9a58	0.05385813
152	0xbc2fbee4	-0.010726664
153	0xbc63d157	-0.013904891
154	0x3df31238	0.11868709
155	0xbc866468	-0.0164053
156	0xbd4edc61	-0.05050314
157	0x3e2011be	0.15631768
158	0x3db7a2c0	0.08966589
159	0xbd5918b9	-0.053002093
160	0x3d24d2b7	0.040240016
161	0xbc81d7f5	-0.015850047
162	0x3dd12d60	0.10213733
163	0xbcec710e	-0.028862502
164	0x3db22065	0.08697585
165	0xbda93299	-0.08261604
166	0x3d01c745	0.03168418
167	0x3d3e38e2	0.046440966
168	0xbcdd9267	-0.02704735
169	0x3dd325af	0.10309922
170	0xbd9077c8	-0.070540965
171	0xbda1428b	-0.0787402
172	0x3e019bf5	0.12657149
173	0xbcc00d5f	-0.023443876
174	0x3dfb1ea4	0.122617036
175	0xbd8d8c06	-0.06911473
176	0x3dbe7767	0.09300118
177	0x3d5628a7	0.052284863
178	0x3dbb5e8c	0.09148893
179	0xbcf85280	-0.030312777
180	0x3e116acc	0.14200896
181	0x3e1aac64	0.15104824
182	0x3dd825b5	0.10554067
183	0x3da2dc5f	0.07952189
184	0xbdb1ef30	-0.086881995
185	0x3d93464e	0.07191144
186	0xbd6114e6	-0.05495157
187	0x3d60c073	0.054871034
188	0xbc7543fa	-0.01496982
189	0x3dbb41cc	0.09143409
190	0xbc358e86	-0.0110813435
191	0x3d59ffae	0.05322235
192	0x3de40cc8	0.1113525
193	0x3d3bad5e	0.045819633
194	0x3d1e855c	0.0387014
195	0x3ce446ad	0.027865732
196	0xbddb7a2f	-0.10716664
197	0xbd0839a4	-0.033258095
198	0x38cb348f	9.689584e-05
199	0xbcde27ca	-0.027118582
200	0x3d39ce26	0.045362614
201	0x3d4e3d83	0.05035163
202	0xbd3353fe	-0.043781273
203	0x3d71de06	0.05904963
204	0xbc9a6b8e	-0.018850114
205	0xbdbb5e0a	-0.09148796
206	0x3d5190b8	0.051163405
207	0xbda65b39	-0.08122868
208	0x3ca73b58	0.02041404
209	0x3c051c14	0.00812437
210	0x3d597c97	0.053097334
211	0xbd2b63a2	-0.041843064
212	0x3d157e76	0.036497556
213	0xbe0770a3	-0.13226561
214	0xbdc80c05	-0.097679175
215	0xbdd1c0dc	-0.10241863
216	0xbd6dea23	-0.05808462
217	0xbd7ecc8a	-0.062206782
218	0xbc60a988	-0.013712294
219	0x3d1654bd	0.036701906
220	0x3dcc1dea	0.09966643
221	0xbd3865e5	-0.04501905
222	0xbc457651	-0.012052135
223	0x3db45e0c	0.088070005
224	0x3dacb023	0.08432033
225	0x3b404324	0.0029336894
226	0xbcfba2d9	-0.0307173
227	0x3d79c00d	0.06097417
228	0xbd3fb958	-0.046807617
229	0xbe01b791	-0.12667681
230	0xbda7ca3c	-0.0819287
231	0x3caa7d98	0.02081184
232	0x3dc401f0	0.09570682
233	0x3d1ecc2d	0.038768936
234	0xbcf4fcc7	-0.02990569
235	0x3d7c389c	0.061577424
236	0x3c22f73a	0.009946639
237	0xbdef0168	-0.1167019
238	0xb8efaea1	-0.00011428935
239	0xbdb91c73	-0.090386294
240	0x3dae783b	0.08519026
241	0x3dacedad	0.084437706
242	0xbd8a92c4	-0.067662746
243	0x3ce44882	0.027866606
244	0x3ce36445	0.027757773
245	0xbd22061a	-0.0395566
246	0xbcb56d49	-0.022146838
247	0xbbfcef5e	-0.0077189645
248	0x3d6994b6	0.057026587
249	0x3dd12f06	0.10214047
250	0xbdf85aa2	-0.12126662
251	0x3dd49896	0.10380666
252	0xbd9d7a4c	-0.07689342
253	0xbcb0d18d	-0.021584297
254	0xbd031646	-0.032003663
255	0xbc85a42f	-0.01631364

placing_layer.0.bias f4 [5]
0	0xbb489bd2	-0.0030610454
1	0x3cb8a0ee	0.022537675
2	0xb98d0b98	-0.00026902254
3	0xbda0fe58	-0.07861012
4	0x3cb909ad	0.022587622

placing_layer.1.weight f4 [5, 64]
0	0x3dbc465b	0.09193107
1	0x3d422853	0.047401737
2	0xbad1e8a1	-0.0016014763
3	0x3ba4c4d4	0.0050283466
4	0xbdea9000	-0.11453247
5	0xbdb1b4af	-0.08677041
6	0x3ded47f1	0.11585987
7	0xbb92b3c7	-0.0044769975
8	0xbdb38f8e	-0.08767615
9	0xbd734f5c	-0.059401855
10	0xbd8a826a	-0.06763156
11	0xbcef8dc0	-0.029242396
12	0xbd931e94	-0.07183567
13	0x3dbfbf80	0.093626976
14	0xbdf96eca	-0.121793345
15	0x3d7a90b4	0.061173156
16	0xbc834658	-0.016024753
17	0xbde9b072	-0.114106074
18	0x3da26d32	0.079309836
19	0x3d1aced3	0.0377949
20	0xbddc1795	-0.107466854
21	0x3cb841ff	0.022492407
22	0xbdec93a3	-0.11551597
23	0x3da525c2	0.08063842
24	0x3d57635b	0.052584987
25	0xbc383c5c	-0.01124486
26	0x3da35b95	0.07976452
27	0x3da58375	0.08081714
28	0x3c8057b3	0.015666818
29	0xbd53d71c	-0.051718816
30	0x3dc11256	0.094273254
31	0xbdfc9678	-0.12333387
32	0xbdb0a6d3	-0.08625569
33	0xbd72ab3c	-0.059245333
34	0xbd590cc4	-0.05299069
35	0x3da73ac5	0.08165506
36	0xbdf3f789	-0.11912448
37	0xbdd5f08a	-0.1044627
38	0xbdbffbf6	-0.093742296
39	0x3d6ac175	0.0573134
40	0x3c9baf00	0.019004345
41	0xbd84bef7	-0.06481736
42	0xbd0b87e0	-0.034065127
43	0xbd935e29	-0.07195694
44	0xbde1cac2	-0.11025001
45	0xbd8fe214	-0.07025543
46	0xbd688e9c	-0.056776628
47	0xbdb42460	-0.087960005
48	0x3dcb78b4	0.09935132
49	0xbd8b98d9	-0.06816263
50	0xbd6e1bfc	-0.058132157
51	0xbda546c9	-0.08070142
52	0x3d6385a2	0.055547364
53	0xbdac4da2	-0.08413245
54	0xbc87cdb8	-0.016577587
55	0x3d8d871f	0.06910538
56	0xbbf1feca	-0.0073851096
57	0xbcefe664	-0.029284663
58	0xbd822e98	-0.06356543
59	0xbd397914	-0.045281485
60	0x3dc62146	0.09674315
61	0xbd221a50	-0.039575875
62	0x3d8c3526	0.06846075
63	0xbdbcf25e	-0.09225915
64	0x3e0f8106	0.14014062
65	0x3e23a407	0.1598054
66	0x3daf6d44	0.08565763
67	0x3d3b366e	0.045706205
68	0x3dbbee13	0.091762684
69	0x3c53152c	0.012883466
70	0x3e1f5c62	0.15562585
71	0xbda4cbac	-0.0804666
72	0x3ddd70ac	0.10812506
73	0xbd9ac40b	-0.075569235
74	0x3d60d1a7	0.05488744
75	0xbcfdb135	-0.030968288
76	0x3cf892fd	0.030343527
77	0xbd215498	-0.039387316
78	0xbd3bdffe	-0.045867912
79	0xbd5af20e	-0.053453498
80	0xbd83f9b4	-0.064441115
81	0xbda2f0dd	-0.07956097
82	0xbd75e579	-0.060033295
83	0x3d9344d4	0.07190862
84	0x3d8df2fb	0.069311105
85	0x3de08ff6	0.10964958
86	0x3d73565b	0.059408527
87	0xbdb34cee	-0.087549075
88	0xbdba9ce2	-0.09111954
89	0x3bb11b48	0.0054048635
90	0xbda31ed3	-0.07964864
91	0xbcd2058e	-0.025637414
92	0xbdaf4665	-0.085583486
93	0xbcfcdcab	-0.030866941
94	0x3cd1607f	0.025558708
95	0xbd8effc6	-0.06982379
96	0x3de962ce	0.113957986
97	0x3e0f1c9a	0.13975754
98	0x3db49380	0.08817196
99	0x3c77fc99	0.015135908
100	0xbd64b452	-0.05583603
101	0x3d20ced6	0.039259754
102	0xbbb4fd5d	-0.0055233673
103	0xbc6da625	-0.014504944
104	0x3d713c9c	0.058895692
105	0xbd331506	-0.04372122
106	0x3e19e4ac	0.15028638
107	0x3e18dc3b	0.14927761
108	0x3e1c77de	0.152801
109	0xbc1929be	-0.009348331
110	0x3e205579	0.15657605
111	0x3e0fe554	0.14052325
112	0x3e1372e2	0.14399293
113	0x3d533d1e	0.051571958
114	0x3db7717e	0.08957194
115	0xbd579c69	-0.0526394
116	0xbd49abca	-0.049236096
117	0x3dfa4949	0.12221009
118	0x3d2390df	0.03993308
119	0xbd8240ba	-0.06360002
120	0xbd295b58	-0.041346878
121	0x3dd4734a	0.10373552
122	0xbd8dc8f3	-0.06923094
123	0x3de74dc1	0.11294127
124	0x3e09d2cb	0.13459317
125	0x3e0283dc	0.12745613
126	0x3c82b0f6	0.015953522
127	0x3d2b8b16	0.04188069
128	0x3bc8a5d7	0.0061232853
129	0x3c9947fc	0.018711083
130	0x3d97c03f	0.07409715
131	0x3bd84002	0.006599427
132	0x3dadc28e	0.08484374
133	0x3dd6ac2e	0.104820594
134	0x3d486823	0.048927438
135	0xbda3032c	-0.07959589
136	0xbb4f4069	-0.0031624085
137	0x3cc58fb7	0.02411638
138	0x3d6dd681	0.058065895
139	0x3d87250e	0.065988645
140	0xbd835bda	-0.06414004
141	0x3dc048a2	0.093888536
142	0xbdc4f798	-0.09617537
143	0xbb1d4808	-0.0023999233
144	0x3d87e37b	0.06635185
145	0xbc8ae55b	-0.016955068
146	0xbb05315f	-0.0020323617
147	0xbb7414a4	-0.0037243748
148	0xbd4eae63	-0.050459277
149	0xbda402d9	-0.08008356
150	0xbdd0b32c	-0.10190424
151	0x3d529b36	0.051417552
152	0xbd630f69	-0.05543462
153	0xbdb34a0c	-0.08754358
154	0x3dc62889	0.096757
155	0x3ce4beae	0.027922954
156	0x3c84e667	0.016223146
157	0xbcc5a1ea	-0.024125058
158	0x3dd8929b	0.10574838
159	0x3ded0b55	0.11574427
160	0x3dcb3ca7	0.09923678
161	0x3d784d50	0.060620606
162	0xbdad4688	-0.084607184
163	0xbdabb33c	-0.083837956
164	0xbda1886c	-0.078873485
165	0xbd20107f	-0.039078232
166	0x3ba17e71	0.004928403
167	0x3de035e2	0.10947777
168	0xbdd4c965	-0.103899755
169	0xbcfefe37	-0.031127078
170	0xbdccfd43	-0.10009243
171	0xbdfacbbd	-0.12245891
172	0x3daeafaa	0.08529599
173	0xbdb69949	-0.089159556
174	0xbd901a92	-0.07036318
175	0xbcf782d4	-0.03021375
176	0xbe07e535	-0.1327103
177	0xbd0ae93d	-0.03391384
178	0x3b3ee432	0.0029127714
179	0x3e033d47	0.12816344
180	0xbdede896	-0.11616628
181	0x3b98e455	0.004665891
182	0x3cb36c34	0.021902181
183	0xbdb5e9e2	-0.088825
184	0x3dc5fde4	0.096675664
185	0xbdfd6199	-0.12372131
186	0x3e12390d	0.14279576
187	0x3d1248af	0.035713848
188	0xbd9d4030	-0.076782584
189	0x3d99f377	0.0751714
190	0xbde682f0	-0.11255443
191	0x3df21559	0.11820478
192	0xbce41a26	-0.0278445
193	0x3db2c9d7	0.08729904
194	0xbdaed61f	-0.08536934
195	0x3dcbcc18	0.09951037
196	0xbdd8af1d	-0.10580275
197	0x3dad5b32	0.0846466
198	0x3d1b6dd9	0.037946556
199	0xbd1c2481	-0.03812075
200	0x3d9fa78a	0.077956274
201	0x3dfd7407	0.12375646
202	0x3df5d9e4	0.1200445
203	0x3bdb0f4b	0.0066851727
204	0xbcc17bd5	-0.023618618
205	0x3dfb809d	0.122803904
206	0xbda60589	-0.081065245
207	0xbd69f2a4	-0.057116166
208	0xbcafd007	-0.0214615
209	0x3db8f846	0.090317294
210	0x3cce4e32	0.02518377
211	0x3c0f6ea8	0.00875441
212	0x3d0e0f8c	0.034682795
213	0x3e2052fe	0.15656659
214	0xbda3e208	-0.080020964
215	0xbd4cad48	-0.04996994
216	0x3cb4cf7f	0.022071598
217	0x3c9d8bf5	0.019231776
218	0xbd953985	-0.072863616
219	0x3da1cac4	0.079000026
220	0x3db0b201	0.086277016
221	0xbd03be3c	-0.032163844
222	0x3e0e4990	0.1389525
223	0xbdf786e3	-0.120862745
224	0x3d059baf	0.032619175
225	0xbbea5407	-0.00715113
226	0xbcdce589	-0.02696492
227	0x3dac4040	0.08410692
228	0xbdca3025	-0.09872464
229	0xbd855338	-0.06510013
230	0x3d9295c2	0.0715747
231	0xbd2ce39e	-0.04220926
232	0x3da24ffe	0.079254135
233	0xbdade07e	-0.08490084
234	0x3dcd4d61	0.100245245
235	0x3d3ed8f4	0.04659362
236	0x3dae4b69	0.08510477
237	0xbd6fbdbe	-0.05853056
238	0xbdaadae7	-0.083425336
239	0x3de93654	0.113873154
240	0xbdc10edd	-0.09426663
241	0xbce7168a	-0.02820899
242	0xbd14d2b8	-0.03633377
243	0xbd944737	-0.07240146
244	0x3dbb2b81	0.09139157
245	0xbdb9f8e8	-0.09080678
246	0x3dbc8ea5	0.09206895
247	0xbbca1a0d	-0.0061676563
248	0x3d8b047e	0.06787966
249	0xbdcb0594	-0.09913173
250	0xbd330b82	-0.043712147
251	0xbdb1122e	-0.086460456
252	0xbc13f01c	-0.0090294145
253	0xbca6d251	-0.020363959
254	0x3e004fe6	0.12530479
255	0x3dd4a08b	0.10382184

placing_layer.1.bias f4 [5]
0	0xbb76e18f	-0.0037671064
1	0x3cf78d76	0.030218821
2	0x3d9d659e	0.076853976
3	0xbda34fc8	-0.079742014
4	0xbe071f4b	-0.13195531

placing_layer.2.weight f4 [5, 64]
0	0x3dba269e	0.09089397
1	0x3d6e21e4	0.05813779
2	0xbd61159c	-0.05495225
3	0xbd52d9d9	-0.051477287
4	0x3cff57cc	0.031169794
5	0xbd5792f8	-0.052630395
6	0x3dab2b6c	0.083578914
7	0x3c922950	0.017841965
8	0x3d44de86	0.048063777
9	0x3db45b1e	0.08806442
10	0xbc9e2e1f	-0.019309102
11	0x3dfb19ab	0.12260755
12	0xbcd68263	-0.02618522
13	0xbdd8e89e	-0.10591243
14	0x3de11106	0.10989575
15	0xbd3cb015	-0.046066362
16	0xbc9f79e4	-0.019467302
17	0x3de8cbda	0.113670066
18	0xbc64c598	-0.013963126
19	0xbdeb0722	-0.1147597
20	0xbd62873c	-0.05530475
21	0x3d283f35	0.041075904
22	0xbd75593a	-0.059899546
23	0x3d0c9b44	0.03432776
24	0xbd82773d	-0.06370399
25	0xbdb8e6b4	-0.09028378
26	0xbd891c0b	-0.06694802
27	0xbd947e10	-0.07250607
28	0xbd818fec	-0.06326279
29	0xbd2b3803	-0.041801464
30	0x3d658c48	0.056041986
31	0x3c96e582	0.018419985
32	0xbd9850ae	-0.074372634
33	0x3d1e767a	0.038687207
34	0xbd6b2d0d	-0.05741601
35	0xbdbfa982	-0.09358503
36	0xbda28abc	-0.07936618
37	0xbdece784	-0.115675956
38	0x3d4d9448	0.05019024
39	0xbdc50564	-0.09620169
40	0xbd93777f	-0.072005264
41	0x3d19c618	0.037542433
42	0xbd86f62c	-0.06589922
43	0xbd820913	-0.06349387
44	0xbdd51856	-0.10405032
45	0x3d2dee94	0.042463854
46	0xbd99d8e2	-0.0751207
47	0x3dcc3d15	0.09972588
48	0xbc5546ab	-0.013017337
49	0x3d3ba132	0.045808025
50	0xbd5a7d3c	-0.05334209
51	0xbdcca7a2	-0.09992911
52	0x3d817b7f	0.06322383
53	0xbd374793	-0.044745993
54	0x3df690c2	0.12039329
55	0x3d95431e	0.07288192
56	0x3cc6fe89	0.024291294
57	0xbcd7a409	-0.026323335
58	0xbd84ee94	-0.06490818
59	0x3c429fca	0.011878917
60	0x3dc7d57d	0.097575165
61	0xbdc310aa	-0.09524663
62	0x3ddd485e	0.108048186
63	0xbc8c1363	-0.017099088
64	0x3e093aa5	0.13401277
65	0x3d33f4de	0.043934695
66	0x3ca0b879	0.019619213
67	0x3cf84c53	0.030309832
68	0x3e08c044	0.13354594
69	0x3e1aabed	0.15104647
70	0x3e2800bd	0.16406532
71	0xbd78290a	-0.060586013
72	0xbd688a92	-0.056772776
73	0x3d6e1eb9	0.05813477
74	0xbd2d02ae	-0.042238884
75	0x3db77d54	0.08959451
76	0x3db73d31	0.08947218
77	0x3e125fa9	0.14294304
78	0x3dc85465	0.09781722
79	0x3ddac84d	0.106827356
80	0xbd5aae99	-0.053389166
81	0x3e246c94	0.16057044
82	0x3da39a6c	0.07988438
83	0x3c80e773	0.015735364
84	0x3db23daa	0.08703168
85	0x3dea88d3	0.114518784
86	0xbcee408a	-0.029083509
87	0x3dafa699	0.08576698
88	0xbb34153d	-0.002747848
89	0xbc28e0fe	-0.010307549
90	0x3df1b43b	0.11801954
91	0x3ded4133	0.115847014
92	0x3d98c04f	0.07458555
93	0x3d8a4366	0.067511365
94	0x3da66c48	0.08126122
95	0xbcaa7a9c	-0.020810418
96	0x3dc3f04a	0.09567316
97	0x3da92d08	0.08260542
98	0x3d9ff45b	0.07810279
99	0x3e08736b	0.13325278
100	0xbd89d50c	-0.067300886
101	0x3c093370	0.00837408
102	0x3dd9c6e7	0.10633641
103	0xbcb831b9	-0.022484647
104	0xbc1ad7ef	-0.009450897
105	0xbd8ad11e	-0.06778167
106	0x3de1b79d	0.110213496
107	0x3e0cd5ab	0.13753383
108	0x3dd23412	0.10263838
109	0x3dfac57a	0.12244697
110	0xbb5e12b0	-0.003388565
111	0x3e12a727	0.14321576
112	0xbd811b27	-0.06304007
113	0x3d194f6c	0.03742926
114	0x3dd2c4dc	0.10291454
115	0x3e2a23e0	0.16615248
116	0x3dc898e6	0.09794788
117	0x3ddbc9d0	0.10731852
118	0x3de367df	0.11103796
119	0xbd6d821e	-0.057985418
120	0xbd13375d	-0.03594147
121	0x3df5c34b	0.1200014
122	0x3e291a59	0.16513957
123	0x3bb23b7e	0.005439221
124	0x3e1d1008	0.15338147
125	0x3e2272e8	0.15864146
126	0x3de17ce6	0.110101506
127	0xbce5085e	-0.027958091
128	0x3e01c15c	0.12671417
129	0x3d35ddae	0.044400863
130	0xbc8de630	-0.017321676
131	0xbd5e139c	-0.05421792
132	0x3d9a687c	0.0753946
133	0x3e169679	0.14705838
134	0xbd0a4e9c	-0.033766374
135	0xbd0ebcfa	-0.03484819
136	0x3dfb7ea0	0.12280011
137	0x3e0d5e41	0.13805486
138	0xbcae9bbc	-0.021314494
139	0x3d2930af	0.041306194
140	0xbdae2778	-0.08503622
141	0x3c0ca510	0.008584276
142	0x3e1e24b6	0.15443692
143	0x3d6ff3e6	0.05858221
144	0x3deb0a55	0.1147658
145	0x3dc65a2e	0.09685169
146	0x3cedb210	0.02901557
147	0x3da5dfe7	0.080993466
148	0x3da61cf1	0.08110989
149	0xbda3c9ac	-0.0799745
150	0x3da484cb	0.08033141
151	0x3e070973	0.13187198
152	0x3aa8aaac	0.0012868247
153	0x3db00c5b	0.085961066
154	0xbd800581	-0.0625105
155	0x3d207e66	0.039183043
156	0xbd91bb4a	-0.07115801
157	0xbd692d70	-0.0569281
158	0x3d4c23b9	0.049838755
159	0x3de9a433	0.11408272
160	0x3d7e43b3	0.06207628
161	0xbd827db4	-0.06371632
162	0xbda8ab24	-0.082357675
163	0x3ddec751	0.1087786
164	0x3d9a9947	0.075487666
165	0x3d3100f1	0.04321379
166	0xbda1af06	-0.07894711
167	0x3d8b542f	0.06803166
168	0x3dedd78c	0.11613378
169	0x3ddb1d36	0.10698931
170	0x3d6d09b6	0.05787059
171	0xbd80c770	-0.0628804
172	0x3df575c7	0.11985355
173	0x3e03700e	0.12835714
174	0xbc24f023	-0.010067019
175	0x3d81c83a	0.06337018
176	0xbd9bcc43	-0.07607319
177	0x3e0de5bd	0.1385717
178	0x3db36561	0.08759571
179	0xbd4609ed	-0.04834931
180	0x3ccfd3d2	0.025369558
181	0x3e090859	0.1338209
182	0x3d879341	0.06619883
183	0x3d8fe075	0.07025234
184	0x3d95c5fc	0.07313153
185	0x3dab79a8	0.083728135
186	0xbd5970fa	-0.05308626
187	0x3d639c3b	0.055568915
188	0xbd8494f8	-0.06473726
189	0x3c47b18d	0.0121883275
190	0xbd7d35d9	-0.06181893
191	0xbc8c15f0	-0.017100304
192	0x3dd2bd55	0.102900185
193	0x3c0e771d	0.008695391
194	0x3dc23712	0.0948316
195	0x3dcefe02	0.10107042
196	0x3d3cf03f	0.046127554
197	0x3db4c3f4	0.088264376
198	0xbd07dd45	-0.033170003
199	0xbdccd6b1	-0.10001887
200	0xbaedb652	-0.0018136001
201	0xbda2736d	-0.07932172
202	0x3cdcb4f8	0.026941761
203	0x3cd4fb13	0.025998628
204	0xbd5edb9a	-0.054408647
205	0x3c70d4b8	0.014699154
206	0x3d7a2428	0.061069638
207	0xbd0ab1a4	-0.033860818
208	0x3d818d81	0.06325818
209	0xbd251682	-0.04030467
210	0x3d58dcc5	0.052944917
211	0x3d590fc0	0.052993536
212	0xbe0ef794	-0.13961631
213	0xbdca9f07	-0.09893613
214	0xbdece15f	-0.115664236
215	0x3cfcd412	0.030862842
216	0x3dbfc8a2	0.093644395
217	0xbd3b9cb8	-0.045803756
218	0xbdea2da9	-0.1143449
219	0x3de99a35	0.11406366
220	0xbd20b80c	-0.03923802
221	0xbce1b3e6	-0.027551603
222	0x3cee6acc	0.02910366
223	0x3cd24361	0.025666894
224	0x3d36878f	0.044562872
225	0xbdeb59ec	-0.114917606
226	0x3d6f7764	0.05846347
227	0xbe0cab84	-0.13737303
228	0x3b885530	0.0041605458
229	0x3d3d9124	0.046280995
230	0xbd451b48	-0.04812172
231	0x3d74280b	0.0596085
232	0xbd181f31	-0.03713912
233	0x3d00ebd4	0.031474903
234	0xbc242811	-0.010019318
235	0x3dc98f28	0.09841758
236	0xbdf13d58	-0.117792785
237	0x3dab3640	0.08359957
238	0xbdae224e	-0.08502637
239	0xbd61d2bd	-0.055132616
240	0x3cdb4150	0.026764542
241	0xbd05c8f1	-0.032662336
242	0xbbcf358a	-0.006323521
243	0xbd9cc2ec	-0.07654366
244	0xbc104b54	-0.008807022
245	0xbe160a8e	-0.14652464
246	0x3bf41264	0.0074484814
247	0xbde5049a	-0.11182518
248	0xbd6db4dd	-0.058033813
249	0x3dc7e537	0.09760516
250	0xbdc766f0	-0.09736431
251	0x3dac9ef3	0.08428755
252	0x3dcee88a	0.10102947
253	0x3de02c31	0.10945929
254	0x3dd0502e	0.10171543
255	0xbdc23817	-0.094833545

placing_layer.2.bias f4 [5]
0	0xbe021715	-0.12704118
1	0xbd02120a	-0.031755485
2	0x3d9dc9c3	0.077044986
3	0xbd9fbf55	-0.078001656
4	0x3d5f37a4	0.054496422
