extra_baseline2/log_res/back/3exp_3/ddpg_agent_env-20240811-211723/ddpg_actor.pth (torch, 275435 bytes, 108 tensors)

fc.0.weight f4 [64, 620]
000000 2b 6c 22 3c eb c3 e8 3c 5d 7d 29 bd e1 8d 96 bc
       0.009913485 0.028413733 -0.04137932 -0.0183782
000010 0d 09 01 3c f5 17 b8 3c 9a 64 59 3c 86 84 a9 3c
       0.007875693 0.022472361 0.013268614 0.020693075
000020 6c 42 b4 37 c4 8b 0f 3c d4 75 0e bd ac 28 69 bc
       2.1488602e-05 0.00876135 -0.03478034 -0.014230888
000030 f5 e3 67 bd 91 a7 57 bd c4 08 60 bc fb 78 21 3c
       -0.05661388 -0.05265004 -0.013673965 0.009855504
000040 21 20 1f b9 12 b2 8d 3c 0f ef 01 bd 1a 1a 80 bb
       -0.0001517539 0.017296825 -0.031722125 -0.0039093615
000050 90 97 5e b6 c9 c0 52 3c 2e 50 72 bc 46 f8 7a 3d
       -3.3168799e-06 0.012863346 -0.014789624 0.06127193
000060 aa 05 d1 b9 8f 89 0e 3d f2 a1 5d 3d d6 3c a7 bb
       -0.00039867806 0.034799155 0.05410952 -0.0051036878
000070 63 81 15 3b 39 67 e9 3a ac 46 9f 3b ab de 8d 3c
       0.0022812716 0.0017807252 0.0048607197 0.01731809
000080 a3 1a 58 bc 7a 6f 3f 3c 8c 0b eb 3b 6e 8e 71 bd
       -0.013189944 0.011684293 0.0071730074 -0.058973722
000090 c2 94 33 bd 97 c7 6e 3d 2d 76 2d 3d 15 5f 91 bb
       -0.04384304 0.058295812 0.04234903 -0.0044363835
0000a0 39 fc de 3c 7f 7d c4 bb 9a 20 18 3c f2 49 37 bb
       0.027219879 -0.0059964056 0.009285117 -0.0027967659
0000b0 1e 4e 50 bc 5b 6a f8 bc 7a 27 07 3d cd f3 61 3d
       -0.012713937 -0.030324152 0.032996632 0.055164147
0000c0 e5 05 19 bd c1 9a c6 bc 4a fe e6 ba 45 79 25 3d
       -0.037359137 -0.024243714 -0.0017623391 0.040398855
0000d0 85 47 08 3d 64 40 ea 3c 65 92 83 3c f5 2c 3f bd
       0.03327133 0.028595157 0.016061017 -0.046673734
0000e0 84 a3 c6 3c 78 42 6d bd 58 aa c4 36 99 94 cd 3b
       0.024247892 -0.057924718 5.861086e-06 0.0062738177
0000f0 66 52 cc 3c dc 37 04 3d b8 5d 35 bc 40 c8 0d 3d
       0.024941634 0.032279834 -0.011069708 0.0346148
000100 b7 9e f3 3c 74 ca c1 3c 0e 7c cf 3c cf 08 45 ba
       0.029738767 0.023656107 0.025327709 -0.0007516266
000110 d3 58 70 3c 00 1b ef 3c d5 0b fc ba ec 23 d3 bc
       0.014669615 0.02918768 -0.00192296 -0.025773965
000120 52 91 2f 3d 0c c3 e2 3c 71 c0 30 3d 00 b3 b1 3c
       0.042863198 0.027680896 0.043152276 0.0216918
000130 2f 3c af bb 8c d2 1f bd 9a a8 b6 bc 82 14 b7 bc
       -0.0053477506 -0.039019153 -0.022297192 -0.022348646
000140 73 ad 57 bd e7 64 0f 3d 7e 5c ae 3c db 8e d2 bc
       -0.05265565 0.035008337 0.021284338 -0.025702884
000150 0d 9c 38 3b ae 23 7d bb d7 04 b4 bc 8a a9 1a bd
       0.0028169185 -0.0038626003 -0.021974964 -0.03775934
000160 0c cc d3 3c 86 80 4f bc 8a 66 17 3d 9b f7 25 3d
       0.025854133 -0.01266492 0.036963023 0.040519338
000170 fa fd bd 3c ae fa 18 ba d8 9f f1 bb 3a a4 cd bc
       0.023192395 -0.0005835694 -0.007373791 -0.025102723
000180 39 f0 98 3c b7 b8 88 bc b9 ca 3e bd 41 d7 2b 3c
       0.018669235 -0.016689641 -0.04658005 0.010488332
000190 07 a4 39 3d 57 70 58 3d 18 7e 6a 3c a3 44 5f 3b
       0.045322444 0.05284151 0.01431229 0.003406801
0001a0 07 e3 b9 bc d6 20 8c bc 43 7f 02 3b 9b 8d 45 bc
       -0.022691263 -0.017105501 0.001991228 -0.012057687
0001b0 76 9b 00 bc ed b2 07 ba 72 af 05 3c 24 d1 fe 3c
       -0.007849565 -0.00051765033 0.008159505 0.031105585
0001c0 eb ec ad bb bb 9d 4f 3d 0a 2d 35 3d 25 5d 6b bd
       -0.005307784 0.050687533 0.044232406 -0.057461876
0001d0 30 8f 15 bd 79 8c 82 bc 02 6a 21 bc 3a a1 ec 3c
       -0.036513507 -0.015936123 -0.009851934 0.028885473
0001e0 45 17 5b 3d da 4c bf 3c 3a 55 47 bd 82 61 ff 3c
       0.05348899 0.023352075 -0.048665263 0.031174425
0001f0 53 6b eb bc 5f 01 e3 bc 4f 73 95 3c f5 9d 14 bd
       -0.0287377 -0.027710615 0.01824346 -0.036283452
000200 c1 80 88 3c df d8 8c bd 8e b8 f2 bc d1 3a 9f bb
       0.016662957 -0.068773024 -0.029629018 -0.0048593064
000210 5e f1 1e bd 7d 9e a0 bc c6 23 d0 3c 9b 85 6e 3c
       -0.038804404 -0.019606823 0.025407683 0.014558221
000220 d2 e1 fd ba a9 9c 65 3c 2b b3 03 3d 80 cd 96 3c
       -0.0019369668 0.0140144015 0.03215329 0.018408537
000230 fa ad 76 3d 33 1c 12 3d 48 56 75 3d ea cf b6 3c
       0.06022451 0.035671424 0.059896737 0.022315938
000240 91 f7 af bc c9 e0 46 3c 3a 33 0d 3d e4 0c 8b 3c
       -0.021480354 0.012138554 0.03447268 0.01697392
000250 56 08 a0 bc 9c c9 6d bb c6 fe 7a bd 13 5f 25 bd
       -0.019535225 -0.0036283499 -0.061278127 -0.040373873
000260 38 db b9 bc a8 2a 14 bc 2c bb 0a 3d 24 5e a7 bc
       -0.02268754 -0.009043373 0.033869907 -0.020430632
000270 ff 1b 56 3d aa 62 7c bc c0 19 f5 3b f5 bf d9 bc
       0.052272793 -0.015404383 0.0074798763 -0.02658079
000280 c2 b5 b3 3c 47 47 5b 3a a6 1e dd bb f7 c5 89 bc
       0.021937255 0.0008364808 -0.0067480383 -0.01681803
000290 8d 59 8b 3c 9a 3d 00 3d 02 ef cb bc 9a 4b 03 bc
       0.017010475 0.031308748 -0.024894241 -0.00801363
0002a0 b8 e3 8d bc bc 96 9b bc e9 3c 6b 3d dd 56 6c 3c
       -0.017320499 -0.018992774 0.057431135 0.014425007
0002b0 70 50 f5 3c 7d 9c f0 3c cb 71 38 bd 81 00 fd 3b
       0.029945582 0.029371494 -0.045030396 0.0077210073
0002c0 7e 6a af 3c e7 37 e3 bb 00 09 5f 3d 0f 84 16 bc
       0.021413084 -0.0069341543 0.054451942 -0.009186759
0002d0 02 20 69 3c 2e 76 ed bc 2a 44 15 3d 9b 8b f0 3a
       0.014228823 -0.028987017 0.03644196 0.0018352153
0002e0 89 ce 28 3d f1 d8 92 3a 1a 69 13 bd ee c7 5b 3c
       0.041212592 0.001120357 -0.035988905 0.013414366
0002f0 39 97 45 bd 56 55 01 3d ba f1 4c 3d 26 35 5f 3d
       -0.04823992 0.031575523 0.050035216 0.054494046
000300 38 92 b0 bc 09 9c 01 3d d4 fd f9 ba 81 74 34 bd
       -0.021554098 0.031642947 -0.0019072839 -0.04405642
000310 64 31 72 bc 1b f5 16 bc 5d 86 0c bd 39 4f 36 bc
       -0.014782283 -0.009213711 -0.034307826 -0.011127287
000320 f4 03 a9 3b 19 1f 3f 3d 59 20 62 bd 84 cd 18 bb
       0.005157942 0.046660516 -0.05520663 -0.0023315856
000330 1f 36 a9 bc 57 1b 31 3d 09 10 c6 bc 3b 55 55 3d
       -0.02065569 0.043238964 -0.024177568 0.052083235
000340 7c de 22 3c 75 91 fa 3c 8f 20 24 bc 32 fc 0c bd
       0.00994074 0.030586937 -0.010017528 -0.0344202
000350 6f 45 9c 3c 10 a7 14 bc 9a f8 cb 3c 1f 88 54 3c
       0.019076077 -0.009073034 0.024898816 0.012971907
000360 d5 7a 89 bc 1d fe bc 3b 26 78 3e 3d 45 2f 0a bc
       -0.016782204 0.0057675974 0.0465013 -0.0084341215
000370 f3 1d 68 3b 59 a3 d0 3c 0a eb 39 3d bc a2 03 bd
       0.0035418242 0.025468515 0.045390166 -0.032137617
000380 90 4b 3f bc 4c 34 05 bc e6 a8 04 3b 1b d1 89 bc
       -0.01167573 -0.008130144 0.0020242273 -0.016823342
000390 1a 29 be ba a1 cb 83 3b 92 75 4b bb 6c f5 08 3b
       -0.0014508099 0.004022077 -0.003104542 0.0020898236
0003a0 ab 10 3b bc 67 5f 85 3d fb 2b 79 3b 0f 7a 51 bc
       -0.011417548 0.06512337 0.00380206 -0.012785449
0003b0 84 11 bc bb 79 99 42 bc b6 59 1c bd c8 5f 6a ba
       -0.0057393927 -0.011877411 -0.038171493 -0.0008940664
0003c0 e7 ad 85 3b fc df ee 3c 1c b5 11 3b 97 d9 3d 3b
       0.0040795687 0.029159538 0.0022233194 0.0028968805
0003d0 a0 71 e1 3c fb ea 87 bd 07 04 ed ba d6 10 80 bc
       0.027520001 -0.06636616 -0.0018082865 -0.015633028
0003e0 cb de 38 3a cb da 99 bc ae 4e a7 bc 71 9e c6 3b
       0.00070522417 -0.018781086 -0.02042326 0.006061368
0003f0 97 14 0b 3d 3d b2 33 bc fe 79 bd bc da 54 67 bc
       0.033955183 -0.010967788 -0.02312946 -0.014119351

fc.0.bias f4 [64]
000000 76 0f d9 3c 5e c9 5e bc 95 b4 79 bc b4 16 0a 3d
       0.02649663 -0.013597814 -0.015240808 0.033713058
000010 9b 8e ec bb 3d 4d 21 bd 09 88 0b bd 5c 8c 1e 3b
       -0.0072191483 -0.0393803 -0.03406528 0.0024192547
000020 d8 80 1a 3d 9a 36 bb bc 7a 26 29 3c 5e 70 19 bd
       0.03772053 -0.022853184 0.010324115 -0.037460677
000030 6d b9 07 3d a2 f3 82 3c 06 af c2 3b f4 39 dc 3c
       0.03313582 0.015985314 0.0059412746 0.026883103
000040 36 f5 1a 3d 10 32 5e ba 05 cb 1f bd a9 9a 13 3d
       0.037831508 -0.0008476088 -0.039011974 0.036036167
000050 3b 4b cb 3b 94 88 ca bc f2 7a e8 3c 73 a3 ce bc
       0.0062040365 -0.024723329 0.028378937 -0.025224423
000060 9a 4d c3 3c 75 65 06 3d a5 48 a1 3c 28 dc 0b 3c
       0.023840714 0.0328116 0.01968796 0.008536376
000070 47 81 81 3c 3a f7 06 bc ea f6 9c bc 61 31 17 3d
       0.015808715 -0.008237654 -0.019160707 0.036912326
000080 5e 50 51 ba d8 8e 92 bb 8c df 48 bc c9 be 38 3b
       -0.0007984693 -0.0044725947 -0.012260329 0.0028189889
000090 59 bf d3 3c 78 27 d2 3a e4 57 93 3c c1 2c 9e bc
       0.025848078 0.0016033491 0.017986245 -0.01930845
0000a0 27 da bf 3c 34 15 af 3c f9 40 a9 bc 6c 36 9f bc
       0.023419453 0.021372415 -0.020660864 -0.01943513
0000b0 49 a5 19 bd 65 94 e6 3c 2c 4d 20 bb f6 fd 05 3c
       -0.037511144 0.028146932 -0.002446006 0.008178225
0000c0 63 aa a9 bc c6 3e a9 ba 21 d4 90 bc 23 a7 44 3c
       -0.02071113 -0.0012912385 -0.017679276 0.012002739
0000d0 35 e4 0e bd 1f 76 a8 bc cc 9c 0a bd 05 a1 d1 3c
       -0.034885604 -0.020564137 -0.03384094 0.025589475
0000e0 83 ac d4 bc ac f1 80 bc f7 b0 99 3a d6 9e 00 3b
       -0.025961166 -0.015740238 0.0011725713 0.0019625924
0000f0 4f d6 48 bc 07 bf 6b 3c 6c 61 ac bc 82 91 47 3c
       -0.012258126 0.014388806 -0.021042548 0.012180688

fc.2.weight f4 [64]
000000 03 21 84 3f 0a 50 84 3f 1a 8b 84 3f 69 51 84 3f
       1.0322574 1.0336926 1.035495 1.0337344
000010 0d 66 84 3f 00 00 80 3f 5d 0e 84 3f 00 00 80 3f
       1.0343643 1.0 1.0316883 1.0
000020 4d 9a 84 3f e9 90 84 3f 00 00 80 3f 00 00 80 3f
       1.0359589 1.0356723 1.0 1.0
000030 7b 0e 84 3f 00 00 80 3f 57 e0 83 3f 05 cb 84 3f
       1.0316919 1.0 1.0302838 1.0374457
000040 2a 51 84 3f 00 00 80 3f 00 00 80 3f 00 00 80 3f
       1.0337269 1.0 1.0 1.0
000050 00 00 80 3f 00 00 80 3f 00 00 80 3f 00 00 80 3f
       1.0 1.0 1.0 1.0
000060 00 00 80 3f 00 00 80 3f 00 00 80 3f 23 23 84 3f
       1.0 1.0 1.0 1.0323223
000070 73 6e 84 3f 24 46 84 3f 00 00 80 3f 9d e2 83 3f
       1.0346206 1.0333905 1.0 1.0303532
000080 00 00 80 3f 62 08 84 3f 00 00 80 3f ab a5 84 3f
       1.0 1.0315058 1.0 1.0363058
000090 59 09 84 3f 00 00 80 3f 00 00 80 3f 00 00 80 3f
       1.0315353 1.0 1.0 1.0
0000a0 90 f9 83 3f 00 00 80 3f 00 00 80 3f 39 c6 83 3f
       1.0310535 1.0 1.0 1.0294868
0000b0 c6 8c 84 3f 00 00 80 3f fe 73 83 3f 00 00 80 3f
       1.0355461 1.0 1.0269773 1.0
0000c0 40 27 84 3f 00 00 80 3f f9 56 84 3f 00 00 80 3f
       1.0324478 1.0 1.0339042 1.0
0000d0 38 d6 83 3f 00 00 80 3f 00 00 80 3f 09 94 83 3f
       1.0299749 1.0 1.0 1.0279552
0000e0 00 00 80 3f 00 00 80 3f 43 62 84 3f 9e 5b 84 3f
       1.0 1.0 1.0342487 1.0340459
0000f0 00 00 80 3f 00 00 80 3f 00 00 80 3f 00 00 80 3f
       1.0 1.0 1.0 1.0

fc.2.bias f4 [64]
000000 c5 9d 12 3d cf e9 a0 3c de 11 fe bc 34 cd 75 bc
       0.035794992 0.019642739 -0.03101438 -0.0150025375
000010 b3 3c 82 bc 9d 38 0f 3d dc e6 2d bd 3f 27 30 3d
       -0.015898084 0.0349661 -0.042456493 0.043006178
000020 ce ab 07 3d 90 28 e5 bc bf f3 03 bd cc ae 38 bd
       0.03312283 -0.027973443 -0.032214876 -0.045088574
000030 35 5e 02 3d 92 86 09 3d 7d 97 98 bc 82 07 bb bc
       0.031828124 0.033575602 -0.018626923 -0.022830728
000040 81 c6 a5 ba 77 eb 35 3d 6e 95 3b bd a6 7e 17 3d
       -0.001264766 0.04441401 -0.045796804 0.036986016
000050 91 d3 02 3d a9 ea 13 3d 22 18 36 bd 1a 93 32 bd
       0.031940047 0.03611246 -0.04445661 -0.04359732
000060 4d 2f 37 bd 00 15 31 3d fe ec c5 3c 79 09 e5 3c
       -0.044722844 0.043232918 0.024160858 0.027958618
000070 4b 4a 1a bd 17 e3 08 3d d2 a8 0c bd fc 08 2f bd
       -0.037668508 0.033419695 -0.034340687 -0.042733178
000080 e6 50 23 3d 77 f6 a2 3c 1f 71 2d bd 28 fd d1 3c
       0.039872073 0.019892914 -0.04234421 0.02563341
000090 a7 b3 f7 bc 33 f4 14 bd 24 b0 12 3d 53 69 37 bd
       -0.030237032 -0.0363657 0.035812512 -0.04477818
0000a0 5b 7a d2 3c 92 fd 3b 3d 74 e9 2e bd 75 a5 fa 3c
       0.02569311 0.04589612 -0.042703107 0.030596474
0000b0 01 69 20 3d 19 05 10 3d 14 26 1b bd 51 74 03 3d
       0.03916264 0.03516111 -0.03787811 0.03209335
0000c0 43 96 dc 3c 22 7e 3a 3d 5c e6 d6 3c 6f d2 38 bd
       0.02692712 0.045530446 0.02623289 -0.04512256
0000d0 8f 61 2f bc ec a7 16 bd 47 87 36 bd 54 46 53 bc
       -0.010704412 -0.036781237 -0.044562604 -0.0128951855
0000e0 90 2f 35 3d b1 e0 34 3d 34 c5 ae bc 14 1f 29 bd
       0.044234812 0.044159595 -0.021334268 -0.041289404
0000f0 39 ca 3a bd c6 e5 32 bd 6b 1c e8 bc c4 34 09 bd
       -0.04560301 -0.04367616 -0.028333863 -0.033497587

fc.2.running_mean f4 [64]
000000 46 38 9d 46 f6 03 a9 45 33 8a 78 46 3a 0c 08 46
       20124.137 5408.495 15906.55 8707.057
000010 ce 16 aa 44 00 00 00 00 02 b6 13 47 00 00 00 00
       1360.7126 0.0 37814.008 0.0
000020 d0 8d 96 44 79 28 30 46 00 00 00 00 00 00 00 00
       1204.4316 11274.118 0.0 0.0
000030 35 cf 76 46 00 00 00 00 1c c2 ed 46 f2 0b f2 43
       15795.802 0.0 30433.055 484.09332
000040 59 f4 dc 45 00 00 00 00 00 00 00 00 00 00 00 00
       7070.5435 0.0 0.0 0.0
000050 00 00 00 00 00 00 00 00 00 00 00 00 00 00 00 00
       0.0 0.0 0.0 0.0
000060 00 00 00 00 00 00 00 00 00 00 00 00 1e cb 73 46
       0.0 0.0 0.0 15602.779
000070 5d e3 bc 46 67 ea 9c 46 00 00 00 00 e6 1c ab 46
       24177.682 20085.201 0.0 21902.45
000080 00 00 00 00 e5 39 03 43 00 00 00 00 84 8a e4 46
       0.0 131.22615 0.0 29253.258
000090 32 57 06 47 00 00 00 00 00 00 00 00 00 00 00 00
       34391.195 0.0 0.0 0.0
0000a0 a4 30 bc 46 00 00 00 00 00 00 00 00 fd 7f 9e 46
       24088.32 0.0 0.0 20287.994
0000b0 fe b5 3b 46 00 00 00 00 e9 01 a5 46 00 00 00 00
       12013.498 0.0 21120.955 0.0
0000c0 e3 9f e0 46 00 00 00 00 6f 50 19 47 00 00 00 00
       28751.943 0.0 39248.434 0.0
0000d0 b4 2b eb 46 00 00 00 00 00 00 00 00 56 42 da 45
       30101.852 0.0 0.0 6984.292
0000e0 00 00 00 00 00 00 00 00 f0 2b b9 44 0c dd 04 47
       0.0 0.0 1481.373 34013.047
0000f0 00 00 00 00 00 00 00 00 00 00 00 00 00 00 00 00
       0.0 0.0 0.0 0.0

fc.2.running_var f4 [64]
000000 be 29 ea 46 7e 14 94 46 50 58 01 47 1c 0d 59 46
       29972.871 18954.246 33112.312 13891.277
000010 74 85 a7 46 86 7d 3b 1f 7b 24 9b 46 86 7d 3b 1f
       21442.727 3.970262e-20 19858.24 3.970262e-20
000020 3b e3 13 47 87 31 e5 46 86 7d 3b 1f 86 7d 3b 1f
       37859.23 29336.764 3.970262e-20 3.970262e-20
000030 d2 b1 24 47 86 7d 3b 1f b8 3c 4b 46 77 b8 a3 46
       42161.82 3.970262e-20 13007.18 20956.232
000040 27 03 22 47 86 7d 3b 1f 86 7d 3b 1f 86 7d 3b 1f
       41475.152 3.970262e-20 3.970262e-20 3.970262e-20
000050 86 7d 3b 1f 86 7d 3b 1f 86 7d 3b 1f 86 7d 3b 1f
       3.970262e-20 3.970262e-20 3.970262e-20 3.970262e-20
000060 86 7d 3b 1f 86 7d 3b 1f 86 7d 3b 1f 52 1f d0 46
       3.970262e-20 3.970262e-20 3.970262e-20 26639.66
000070 97 9d a2 46 7d 40 8f 46 86 7d 3b 1f f1 9e 0a 47
       20814.795 18336.244 3.970262e-20 35486.94
000080 86 7d 3b 1f 9d 7d cb 46 86 7d 3b 1f 89 c0 33 47
       3.970262e-20 26046.807 3.970262e-20 46016.535
000090 d7 3d ad 46 86 7d 3b 1f 86 7d 3b 1f 86 7d 3b 1f
       22174.92 3.970262e-20 3.970262e-20 3.970262e-20
0000a0 06 04 27 47 86 7d 3b 1f 86 7d 3b 1f ed ce de 46
       42756.023 3.970262e-20 3.970262e-20 28519.463
0000b0 08 1e 78 46 86 7d 3b 1f cc 80 bd 46 86 7d 3b 1f
       15879.508 3.970262e-20 24256.398 3.970262e-20
0000c0 12 0a b8 46 86 7d 3b 1f 16 68 63 47 86 7d 3b 1f
       23557.035 3.970262e-20 58216.086 3.970262e-20
0000d0 53 5b 2e 47 86 7d 3b 1f 86 7d 3b 1f 65 e2 d9 46
       44635.324 3.970262e-20 3.970262e-20 27889.197
0000e0 86 7d 3b 1f 86 7d 3b 1f 9b 99 1c 46 37 48 26 47
       3.970262e-20 3.970262e-20 10022.401 42568.215
0000f0 86 7d 3b 1f 86 7d 3b 1f 86 7d 3b 1f 86 7d 3b 1f
       3.970262e-20 3.970262e-20 3.970262e-20 3.970262e-20

fc.3.weight f4 [64, 64]
000000 d5 04 b0 3d 8c d6 cc bc 2c 3b 05 be 99 96 b2 3d
       0.08594672 -0.025004648 -0.13010854 0.087201305
000010 07 07 01 3e 98 34 f5 3d 79 87 f8 3b 2a ac 7d bc
       0.12600337 0.11972922 0.007584509 -0.015482942
000020 e8 73 c6 3d a1 dc 80 3d fd 31 b5 ba f9 25 8f 3d
       0.09690076 0.062920816 -0.0013824102 0.069896646
000030 d1 d6 94 3c 3d 45 5f bd 87 84 3a 3d 26 bb e2 3d
       0.018168839 -0.05450939 0.045536544 0.11070852
000040 fe d2 be 3d 10 92 04 bd 20 d3 eb 3d f6 21 0b bc
       0.09317587 -0.03236586 0.11514878 -0.008491984
000050 9e f0 e0 3c 9b d6 04 3c b4 78 56 bd 29 87 06 3e
       0.027458485 0.008107807 -0.052361205 0.13137497
000060 e5 32 f3 bd bf d6 00 be b7 57 9e 3d 7f 9c 65 3d
       -0.11874942 -0.12581919 0.07731574 0.05605745
000070 ff 54 cb bb 6a 59 2a 3d f5 f2 66 bd e3 5c de 3d
       -0.0062052007 0.04158918 -0.056384046 0.108575605
000080 1a cf 75 bd ba 5c f4 3d 2f 97 ee bd 46 d0 12 bd
       -0.06001196 0.11931749 -0.1164993 -0.035843156
000090 59 ac cb 3d 23 65 5e 3c ce e4 74 bc a8 40 00 3e
       0.09944982 0.013573918 -0.014947129 0.12524664
0000a0 8b 07 78 bc ed 9a f3 bd 6d c9 41 3d 51 0d 93 bd
       -0.015138517 -0.11894784 0.047311235 -0.07180274
0000b0 8b e3 0b be 5e 82 f2 3d e7 10 c6 bb ec d3 c6 bd
       -0.1366102 0.11841272 -0.0060444954 -0.0970839
0000c0 42 4a 91 3d df 47 84 3d cc d5 a3 bd 57 3d 3d 3d
       0.07094242 0.06459021 -0.07999763 0.046201076
0000d0 69 2c fa bb f1 c2 0f ba 0c 00 8c bd 8b 74 b9 3d
       -0.0076346886 -0.00054840656 -0.068359464 0.09055432
0000e0 fc cc b2 bd bd b9 ef 3d 4f 62 14 3d 57 d9 aa 3d
       -0.08730504 0.11705349 0.036226567 0.083422355
0000f0 d9 3a 9f bc d9 76 86 3d e3 76 a7 3d 9c c8 19 bd
       -0.01943724 0.06565637 0.08176973 -0.03754483
000100 94 62 0c be ba 75 92 3d 37 a5 1c be f9 3f 46 3d
       -0.1370948 0.07151361 -0.152974 0.048400853
000110 60 b3 50 b7 38 0c f0 3c fe ba 02 3e 6d 3b 82 3d
       -1.243953e-05 0.029302701 0.12766644 0.06358991
000120 02 0c ff bd 76 aa 96 3c a5 e5 61 bc fb c4 f5 bc
       -0.12453462 0.018391829 -0.013787662 -0.030001154
000130 53 0b 7f 3d 35 29 4f bd 8a 5d b2 3d 8b 1e 4a 3d
       0.06226666 -0.050576407 0.087092474 0.049345534
000140 28 b0 1b bc 14 5f ec 3d 99 5f cb 3d 73 06 cd bd
       -0.009502448 0.11541572 0.09930343 -0.10010996
000150 9f 50 cc 3c 6c 89 22 bc 02 b8 00 3d ae 5e 88 bd
       0.024940787 -0.009920459 0.031425484 -0.06658684
000160 b2 99 af 3d 2c d9 8f 3d f9 0d be 3d a2 36 a5 3d
       0.08574237 0.07023844 0.09280009 0.08067061
000170 d3 0e df 3d 7f 7a d3 bd 24 54 9a bd 9c ab c2 bb
       0.10891499 -0.10326099 -0.0753558 -0.0059408676
000180 63 aa 9f 3b 70 c1 da 3d 10 cd ab 3d 51 c3 d3 bd
       0.0048726066 0.106814265 0.08388722 -0.10339988
000190 bd 77 aa bc 3f 3b 6c 3c 9f b1 74 bd 1f ad c3 bd
       -0.020809049 0.014418422 -0.059739705 -0.095545046
0001a0 0d 05 9a bb de b2 0b bc 07 ba 93 3d 63 7f 81 bc
       -0.004700309 -0.008526532 0.07213216 -0.015807813
0001b0 4c f8 7d bc 62 c8 a4 bd 5b 3b b2 3d 26 51 c5 3d
       -0.015501093 -0.080460325 0.087027274 0.096346185
0001c0 20 4f dd 3c f7 b4 07 ba 09 b0 37 3c 55 cb 02 be
       0.027015269 -0.0005176807 0.011211404 -0.12772878
0001d0 e3 b8 de bd 20 42 08 be 81 8a b1 bd 6a c7 bf 3a
       -0.10875108 -0.13306475 -0.08668996 0.0014631574
0001e0 3e 5c 95 3d 69 53 cc bd 33 77 64 bd 57 ec 23 3d
       0.072929844 -0.09976847 -0.05577774 0.040020313
0001f0 07 d2 a0 bb 15 05 eb bd 41 15 62 3c 92 77 cb 3b
       -0.0049078497 -0.11475579 0.013799013 0.0062093223
000200 5f 8b 59 bc c4 2b a4 3d 06 c6 35 3d 35 87 85 bd
       -0.013277858 0.0801616 0.044378303 -0.06519929
000210 03 b5 e1 3c 26 bc 0f 3e 68 a5 ad 3c 2d 52 fa bc
       0.027552133 0.14036617 0.021197036 -0.030556763
000220 94 33 17 3d ad 23 14 be ee 79 4e 3c 91 a1 11 3d
       0.036914423 -0.14466734 0.0126023125 0.035554472
000230 68 7e 1c 3e f0 72 58 3d 2c c5 1c 3d 25 ce 19 be
       0.15282595 0.052843988 0.038273975 -0.15020044
000240 a1 fd 74 bd 30 e7 c7 3b 1c d0 15 be 8a d9 23 bd
       -0.059812192 0.0061005577 -0.14630169 -0.040002383
000250 0b 54 2f 3c 82 e0 ec 3c 4d 4d a7 3d 58 32 ab bd
       0.01070119 0.028915647 0.08169041 -0.08359212
000260 34 fa b2 bd 17 f9 c8 bd 68 fa 99 3d 0a 06 3a 3c
       -0.08739129 -0.09813135 0.07518464 0.011353979
000270 d7 b6 4a bd 29 b3 ac bd 96 59 29 be b3 7e 9a 3d
       -0.049490776 -0.084326096 -0.1653808 0.07543697
000280 d8 53 22 bc 18 bd b3 3d 27 01 83 bd 29 b5 1e 3e
       -0.009907685 0.08776301 -0.06396704 0.15498795
000290 b4 51 dc bd ab b4 12 be 6f 47 24 bd a5 f8 0f bd
       -0.10757771 -0.14326732 -0.040107187 -0.035149235
0002a0 06 f8 72 bd 7d 40 8c bd 57 0c b1 3d 27 d8 a2 bd
       -0.059318565 -0.06848238 0.08644932 -0.07951384
0002b0 f4 ec f3 3d e5 7c 23 bd 36 62 1c 3c ca f3 99 3d
       0.119104296 -0.03991403 0.0095449 0.07517202
0002c0 6b 5a 37 3d 62 41 b2 bd 02 76 04 3e 2c c7 b6 3d
       0.044763964 -0.08703877 0.12935641 0.08924708
0002d0 05 49 a1 bd 16 fe 2d bd 03 d1 7b 3d 52 51 ed 3d
       -0.078752555 -0.042478643 0.061478626 0.11587776
0002e0 bf 8e 68 3c 28 c2 69 bd 3a 53 0d bd 90 db 05 3d
       0.01419419 -0.057069927 -0.0345032 0.032680094
0002f0 74 b6 95 bc d4 77 7b 3d b8 b4 19 be ef 4d 12 be
       -0.018275477 0.061393574 -0.15010345 -0.14287542
000300 c4 7e 1f 39 e7 8f 3a 3d a0 3d 24 bb 4a 4f c0 bd
       0.00015210646 0.045547392 -0.0025061145 -0.09390123
000310 50 e5 1f 3e e3 e6 2a 3d ac a5 5d bd 2b 56 9b 3d
       0.1561482 0.041724097 -0.054113075 0.075847946
000320 b9 84 05 be 04 0a a5 3d 21 3a 45 3b cc 55 87 bd
       -0.13038911 0.08058551 0.0030094462 -0.06608161
000330 7a 96 88 3d 2b 66 a0 3d 87 86 8d 3d 9f 56 1e 3e
       0.06669326 0.07831987 0.06910425 0.15462731
000340 c5 34 b6 3d dc a7 1c 3e 92 1d c6 bd f0 7a 5c bd
       0.08896784 0.15298408 -0.09673609 -0.05382818
000350 f3 a5 4d bd 0b 27 ea 3d 50 b8 6a bd 8f a9 23 be
       -0.05020709 0.11433228 -0.05730468 -0.1598265
000360 bc 7d 95 3b c9 24 ac 3d da 6f d9 3c 56 55 c8 bd
       0.004562108 0.08405454 0.026542593 -0.097819015
000370 d8 4e 91 bd 51 f5 05 be 2b 64 d1 bd 0e e2 01 3d
       -0.070951164 -0.13081862 -0.10224184 0.031709723
000380 15 0d ae bd 2c cc ce 3d fa ad 46 bd ae 43 c2 bd
       -0.08498589 0.100975364 -0.04850576 -0.09485565
000390 07 2a f1 ba 28 30 37 3c 0a d8 23 3e c9 52 91 3d
       -0.0018399366 0.011180915 0.16000381 0.07095868
0003a0 19 85 ff bc ed 10 1b 3e 33 a8 82 3d 70 da b5 3d
       -0.031191396 0.15143175 0.06379738 0.08879554
0003b0 50 7b 66 bd 75 4f b0 3d e9 5c ff bb df ca a4 bb
       -0.056269944 0.08608905 -0.007793058 -0.005029067
0003c0 21 ea 8d bd 8c ce 2e bc 4a 80 9e bc 82 3a 49 3d
       -0.06929422 -0.010669362 -0.019348282 0.049128063
0003d0 70 14 05 be f5 57 80 bd 41 e0 16 bd ab 9a 4e bd
       -0.12996078 -0.062667765 -0.03683496 -0.05044047
0003e0 91 a7 28 3b a6 27 0b 3e 8c 58 8e bc 35 a3 20 3e
       0.0025734643 0.13589343 -0.017376207 0.15687259
0003f0 2e 2a ec bd a8 4e 27 be 32 ca ac bd 21 44 99 bd
       -0.11531483 -0.16338599 -0.08437003 -0.07483698

fc.3.bias f4 [64]
000000 fa df 5e 3c b6 f6 62 bc 25 bd 6d 3d 7d eb ac 3d
       0.013603205 -0.013852766 0.05804171 0.08443353
000010 b7 1d fd 3c fe 46 83 3d 6c 9b e7 3d ca 4b 70 bc
       0.030897958 0.06410025 0.11308941 -0.014666507
000020 23 bc ca 3d 0d 1c f5 bb 21 ea 14 3e 4f ca 36 3d
       0.098991655 -0.0074801506 0.14542438 0.04462653
000030 42 a3 13 3e 76 3f fd 3c 27 de 0b 3d b5 cb 96 bd
       0.14417747 0.03091405 0.034147408 -0.07363073
000040 fd 20 7c bc 0c d3 73 bc 88 7e e3 3d 9f 5e e1 3c
       -0.015388724 -0.01488186 0.11108118 0.02751094
000050 26 7a 80 bb c5 54 e7 3c 65 ff bd 3c 65 22 2d bd
       -0.003920811 0.028238663 0.02319307 -0.04226913
000060 c5 5e 02 3d 4e df a5 3c 7c 74 62 3d 84 4d c2 3d
       0.03182866 0.020248082 0.05528687 0.09487441
000070 41 65 b3 3d 26 f5 00 3e e4 30 d4 3d f3 d4 76 bc
       0.08759547 0.12593517 0.10360888 -0.0150654195
000080 8f ca 4f 3d f1 de 19 3c ca 48 1a 3e 4d 3c 69 3d
       0.050730284 0.009391532 0.1506683 0.056942273
000090 ac 3e ac bd fe 2c de 3c 88 1a 2d bc 65 d5 95 bc
       -0.08410391 0.027121063 -0.010565408 -0.018290231
0000a0 81 dd df 3d 8c e2 5f 3d f4 e3 04 3e af 9d 88 bd
       0.109309204 0.05465941 0.12977582 -0.06670701
0000b0 0b 61 97 3d 35 10 49 3d 41 a6 89 3d d3 7f 09 bd
       0.07391556 0.04908772 0.067211635 -0.03356917
0000c0 77 ea b4 3d 2e 46 63 3d d5 18 d1 bb c3 a2 ca 3d
       0.08833783 0.05548685 -0.006381134 0.098943256
0000d0 9f 3d 97 3d 47 7d f0 3d 35 8e ec 3c 8a 78 b8 3d
       0.073848 0.11742645 0.028876403 0.09007366
0000e0 a1 dc c2 3d d4 2f e0 3d 7f e3 b4 bc d7 fc 06 3e
       0.09514738 0.109466225 -0.022081135 0.13182388
0000f0 03 d5 60 3d 89 68 9c 3b 65 9b 98 3d 77 01 ea 3d
       0.054890644 0.0047732037 0.07451514 0.11426061

placing_layer.0.weight f4 [5, 64]
000000 95 70 1d bc 73 42 da 3d 48 f9 01 bd 40 5b 8d bc
       -0.009609361 0.106572054 -0.031731874 -0.017255425
000010 04 97 b1 3d 25 84 3d 3d 3c ca 22 3e c8 b5 cd ba
       0.08671382 0.0462686 0.15897459 -0.0015694434
000020 4f f1 f9 3c 03 e8 de 3c 1e 58 a6 3c 7b 75 21 bd
       0.030510573 0.027210241 0.02030569 -0.03941868
000030 ec 4b 90 3d 27 77 87 3d 37 5b 7b 3d 75 14 6a bc
       0.07045731 0.066145234 0.061366286 -0.014287104
000040 44 d8 e5 3d 11 cb cc 3d 27 9c cc 3d d8 0b 48 3c
       0.1122289 0.09999669 0.09990721 0.012209855
000050 8f 7f 65 3d e4 d0 d5 3d 14 ed 3a bc 72 45 ac bc
       0.056029852 0.10440233 -0.011409063 -0.021029208
000060 94 70 13 3d 96 3f 21 bd 12 e1 84 3d d1 94 3d 3c
       0.035996035 -0.03936728 0.06488241 0.011571125
000070 b9 81 80 bc 43 f9 af 3d b4 5b 8b 3d ce 35 af bb
       -0.015686857 0.08592465 0.068046 -0.00534699
000080 d6 6d 4a bd 35 38 a1 bd 9e 8d fe bc 38 49 af bd
       -0.049421154 -0.07872049 -0.031073388 -0.08558887
000090 93 20 58 3d 1c 73 63 bd 2c 49 75 3b af 6b 19 bd
       0.05276544 -0.0555297 0.0037427647 -0.03745621
0000a0 eb 25 f0 3d a5 b2 8f 3d 0a b4 96 3d ff 1b 1d 3e
       0.11725982 0.070164956 0.073585585 0.15342711
0000b0 8e ce 04 3e e4 8a 85 3d 0c 29 52 bc 07 cf 1d 3e
       0.1296942 0.06520632 -0.012827169 0.15411006
0000c0 1c 3c 98 3d 73 6c b7 3d 19 21 97 bc ac ee 4e bd
       0.0743334 0.08956232 -0.0184484 -0.050520584
0000d0 36 15 80 3d 3a ae b9 3d 6e 46 0d 3d a6 01 9b 3c
       0.06254046 0.09066434 0.034490995 0.018921684
0000e0 0a 86 1c 3e 4c 34 13 3e 18 4e 06 3d 29 fd 04 3c
       0.15285507 0.14375418 0.03278932 0.008116999
0000f0 2c 19 3b 3d 69 72 92 3d 4b c9 c6 3d c9 cd b0 bd
       0.045678303 0.07150728 0.09706362 -0.086330004
000100 d0 09 1b 3e 71 29 98 3d 82 19 84 bd 7c d5 f0 3d
       0.15140462 0.07429779 -0.06450178 0.11759469
000110 4d 09 07 3e 32 ff dc 3d be ae b7 3d e5 27 98 bc
       0.13187142 0.10790862 0.08968876 -0.01857371
000120 2e b6 2e bc 98 f1 02 3e eb 42 e5 bc 0f 90 05 3c
       -0.010663552 0.12787473 -0.02798601 0.008152022
000130 7f 0d 44 bd ec e5 9f bc f4 e0 87 3d d9 9a 88 3d
       -0.047864433 -0.019518815 0.06634703 0.0667016
000140 93 1d d0 3c 00 ab bf 3d af c6 c6 bd ea 9b b5 bd
       0.025404727 0.093587875 -0.09705865 -0.08867629
000150 27 3e 80 bd 45 f2 a5 3d ed 1b b7 bd 79 1e fe 3c
       -0.062618546 0.0810285 -0.08940873 0.03102039
000160 28 e2 c5 3b 84 d5 f3 bb 4b 54 17 3e eb 62 e3 3d
       0.006038923 -0.0074412245 0.14778249 0.111028515
000170 72 dd bd bd 80 fa dd bd 18 c1 cb 3d 3c 0b d8 3d
       -0.09270753 -0.10838795 0.09948939 0.10549018
000180 6e c8 ac bd 10 4f 03 3d e5 64 c2 3c 6c 5f a4 3d
       -0.084366664 0.03205782 0.02372975 0.08026013
000190 cc 77 d7 3c e7 74 d1 3d a0 70 0b 3e 03 be 62 3d
       0.02630224 0.102273755 0.13617182 0.05535699
0001a0 3b 79 ee 3d 8c 8e 8c 3d 78 57 dd bb f8 e8 92 3c
       0.116442166 0.06863126 -0.006754812 0.017933354
0001b0 e5 e0 bf 3d 98 2f 53 bd 7e 9a 48 bd d5 06 0e bd
       0.09369067 -0.05155906 -0.04897546 -0.034674484
0001c0 63 d8 02 3d b5 1a 35 3b 14 ad c7 bd 55 09 a3 3d
       0.031944644 0.0027634327 -0.09749809 0.07960764
0001d0 d7 fa 56 3d 6b 7d ea 3d 78 86 2f 3d ea 3d fc 3c
       0.052485313 0.11449703 0.04285285 0.030791242
0001e0 5f e3 1c 3e de e2 22 3e cd 85 bd bd ac 2e 0e 3d
       0.1532111 0.15906855 -0.09254036 0.03471248
0001f0 6e b4 d1 bd e3 8b c6 bd ff 90 d4 3d 2e 46 75 bd
       -0.10239492 -0.0969465 0.10379218 -0.05988138
000200 8c af 8c bb 4a f1 ba bc 7d 05 30 3d df ab 5a bd
       -0.0042933878 -0.022820134 0.042973984 -0.053386565
000210 5a 0f 58 bd 8d b5 d7 3d 95 a0 ad bd 00 5d eb bd
       -0.052749015 0.10532675 -0.08477894 -0.11492348
000220 c9 05 08 3d ba 5a f1 3b d3 ee 02 be 8b aa aa 3d
       0.033208642 0.007365552 -0.12786417 0.0833331
000230 9e 55 06 be 10 80 2a 3d ce 7a 13 3d 61 60 a1 bd
       -0.13118598 0.041626036 0.036005788 -0.07879711
000240 c2 d2 c4 3c 0e 1c a5 3c f6 23 0a be 36 e2 a8 3a
       0.024026278 0.02015498 -0.1349028 0.0012884799
000250 90 8e 53 3d 86 4c 8b 3b a4 1f 96 3c 5e e0 04 3d
       0.05164963 0.0042510657 0.018325634 0.032440536
000260 8c 95 da 3d e8 68 2b 3d ce c1 2a 3b 9c 77 8a bd
       0.10673055 0.041848093 0.0026055458 -0.06761095
000270 f8 07 52 3b 23 f8 a8 3d d6 fa b8 bd 84 57 9b 3d
       0.0032048207 0.08250453 -0.09032218 0.07585052
000280 fc 0c 1e 3d 40 53 e7 bd bd 54 03 bd bd af c0 bd
       0.0385866 -0.112951756 -0.032063235 -0.094085194
000290 99 35 e6 bd 97 12 85 3d 87 93 8a bd 14 96 15 3d
       -0.11240692 0.06497686 -0.0676642 0.03652008
0002a0 34 28 b6 3d fa 11 c7 bd 96 4f 66 3c 0e bf 00 be
       0.08894387 -0.09720226 0.014057061 -0.12572882
0002b0 53 85 6a bd fa 9d 99 3d 24 05 cd bd b4 33 3b 3c
       -0.057256054 0.07500835 -0.10010746 0.011425901
0002c0 83 68 d8 3d b9 35 96 3d 35 dc ac bd 77 b5 ea bd
       0.10566809 0.073344655 -0.08440439 -0.11460393
0002d0 28 fc 42 bd 33 2c 05 3d 3e 01 30 3d cc c0 3f bd
       -0.047603756 0.032512855 0.042969935 -0.046814725
0002e0 8b 24 a4 3d 41 47 46 3d 9c fd 74 3d 90 32 47 ba
       0.080147825 0.048407797 0.059812173 -0.0007598782
0002f0 b7 95 df 3d 67 e5 ee bd f6 d1 82 3c 53 46 a6 3d
       0.10917228 -0.11664849 0.015969258 0.08118882
000300 90 b4 dc bd e8 e2 be 3c 56 57 94 bd 50 f4 a1 3c
       -0.10776627 0.023301557 -0.072432205 0.019769818
000310 60 09 8d 3b 36 b3 e5 bd 30 8e 76 bd 50 36 29 bd
       0.004304096 -0.112158224 -0.060194194 -0.041311562
000320 c8 4d ad bc 06 2d d2 bd 58 27 f0 bc e0 37 46 bd
       -0.021155253 -0.10262494 -0.029315636 -0.04839313
000330 5a d3 f7 bd e4 bb a0 bd ac e8 ae bd 2e ca db 3d
       -0.12100859 -0.07848337 -0.085404724 0.10731922
000340 a8 8f a4 3c c8 7d a8 bd 34 8c fd 3d 98 0c 10 bd
       0.020088032 -0.08227116 0.12380257 -0.03516826
000350 d4 74 43 bd ec ab bb 3d 80 03 f9 bb 40 30 5a 3d
       -0.047718838 0.09163651 -0.007599294 0.05326867
000360 50 5c 48 bc 00 6a d6 bb 5c e1 c9 3d 98 05 21 bd
       -0.01222904 -0.006543398 0.09857437 -0.039311975
000370 00 69 b4 3d f6 31 db 3d a0 1a d1 bd 50 14 0d bc
       0.0880909 0.10702889 -0.102101564 -0.0086108
000380 a8 56 d9 bd 90 f8 3e 3d bc a5 c4 bd 20 36 02 bc
       -0.106122315 0.046623766 -0.09601924 -0.007947475
000390 12 21 ca bd b4 ab a2 3d 98 f2 70 3d d4 ca 3f 3d
       -0.09869589 0.07942906 0.058825105 0.04682429
0003a0 5c 14 15 3d 20 97 ab bb 70 31 d8 bd d6 0d c6 bd
       0.03639637 -0.0052365214 -0.105563045 -0.09670608
0003b0 96 39 bc bd 6a 18 91 3d 6a e3 a1 bd 82 91 96 bd
       -0.09190671 0.07084735 -0.07904704 -0.07351972
0003c0 40 11 74 3d 44 37 cf bd 3c 5d bf 3d 44 2a ca bd
       0.059586763 -0.10117963 0.09343955 -0.09871343
0003d0 8c 88 a2 bd f0 15 91 bc c0 83 8c bc 5e bf d0 3d
       -0.079362005 -0.017710656 -0.017152667 0.101927504
0003e0 a0 d4 ea bb 74 f0 25 3d 38 db 40 3d 9c 11 b8 bd
       -0.00716646 0.040512517 0.047084063 -0.08987734
0003f0 d4 4a 50 3d a8 a5 c9 bd 4c 2a b7 bd b0 17 73 3c
       0.05085261 -0.098460495 -0.08943614 0.0148371905

placing_layer.0.bias f4 [5]
000000 a5 96 5c bd 16 1a 30 bd 17 80 80 bc 3a f4 8e bd
       -0.053854603 -0.042993627 -0.015686078 -0.06980176
000010 86 92 09 3e
       0.134348

placing_layer.1.weight f4 [5, 64]
000000 8e e5 a3 3d 7e 4c b9 3d 52 72 04 3c 01 96 43 3d
       0.080027685 0.09047793 0.008083897 0.047750477
000010 b4 82 b1 bd 72 8e 02 be c2 62 c3 3d c4 e5 b2 3d
       -0.08667508 -0.12749651 0.09540321 0.087352306
000020 ce 6b 96 3d 07 9d aa bc ed ba 3e 3c 8a 3f c1 3d
       0.07344781 -0.02082683 0.011641246 0.09435947
000030 bb e1 e0 bd 53 9a 85 bd 9a 37 1f 3d 17 73 ca 3d
       -0.10980555 -0.06523576 0.038871385 0.09885233
000040 44 bb c1 bd 8b 72 cf 3d 17 4c 90 bd ee 77 70 3d
       -0.09459546 0.10129269 -0.07045763 0.058708124
000050 c9 f0 60 bd d2 21 83 3d 8a 14 bb 3d d6 fb c4 bd
       -0.05491713 0.06402935 0.09134777 -0.096183464
000060 7e 0f 79 bd ae 14 c7 3d bf 21 c9 3d cf 13 66 bb
       -0.06080579 0.09720741 0.0982089 -0.0035107022
000070 55 88 27 3d 58 36 01 bb 45 c9 fe 3b 09 2a 69 3d
       0.0409015 -0.001971623 0.007775458 0.056924853
000080 ce e0 ff bd ac 88 94 bc 60 f3 02 39 2e 6c e0 bd
       -0.1249405 -0.018131576 0.0001248843 -0.10958134
000090 d6 7e 51 3d 46 ee eb bc cb 18 d6 bd 3f 47 1b 3d
       0.05114635 -0.028800141 -0.10453948 0.037909742
0000a0 44 76 c3 3c 44 b6 01 be 87 b5 0c bb 61 3b 53 bd
       0.023860104 -0.12667185 -0.0021470503 -0.0515703
0000b0 91 73 d3 3d 5f b8 ba bd e1 93 a2 3d 27 0c 3a bd
       0.10324777 -0.09117197 0.07938362 -0.045421746
0000c0 fc 9d d3 3d 3a 8b 95 bd 75 e1 f2 bd 49 db 96 bd
       0.103328675 -0.07301946 -0.11859409 -0.07366044
0000d0 bc 70 03 be 1a a7 ad 3b 43 bb a0 bd 6f 30 23 3c
       -0.12835974 0.005299461 -0.07848217 0.009960278
0000e0 9e 5d 22 bd be d0 b7 bd ff 87 c4 3d 65 9c 55 3c
       -0.03964006 -0.08975361 0.09596252 0.013037776
0000f0 c6 b9 ab 3d 7e 69 fb 3c e0 5d 31 3d 81 d8 d6 3d
       0.08385043 0.030689951 0.043302417 0.104905136
000100 f8 8c f6 3d 06 83 29 bd 46 e0 ea 3d 8e 81 eb ba
       0.120386064 -0.04138472 0.11468558 -0.0017967687
000110 9f 10 ed 3d 00 a5 a2 bc 54 b6 cb bd 68 08 11 bb
       0.11575436 -0.019854069 -0.09946886 -0.0022130255
000120 4c 10 6e 3b 32 d3 8a bd 31 5b 29 bd b0 c4 78 bb
       0.0036325632 -0.067785636 -0.041346733 -0.0037959032
000130 5d 6b 1b 3d 38 98 e6 bd b9 1b 9a 3d 21 60 9c bd
       0.037944186 -0.11259502 0.07524819 -0.07635523
000140 e1 a9 02 3e 51 de 2d bd 40 11 0a bd c6 07 c9 bc
       0.12760116 -0.042448346 -0.033707857 -0.02453984
000150 33 c5 e9 3d c4 33 a5 bd b3 f5 7c 3d 3e a8 7d 3d
       0.11414566 -0.08066514 0.061757755 0.061928026
000160 34 9f 9f bc 00 89 ad 3c 31 15 52 bd fb 99 fa bc
       -0.019485094 0.02118349 -0.05128974 -0.030591002
000170 38 d1 de 3d 2d e6 01 3e 5c 02 7d 3d b5 db 41 bd
       0.10879749 0.12685461 0.06176983 -0.04732867
000180 6d 6e a8 3d 79 32 d4 3d e1 a6 bb 3c 26 04 bf 3c
       0.08224187 0.103611894 0.022906723 0.023317408
000190 5e 81 1f 3e 24 80 2f bd f6 da a0 bd 79 95 12 3e
       0.15576693 -0.042846814 -0.078542635 0.14314832
0001a0 7e a5 1c 3d 55 0d 48 bd 75 6f 93 bd c7 de c9 bd
       0.038243763 -0.04884084 -0.07198993 -0.098569445
0001b0 33 40 cc bd cd 4d e6 bd 59 95 c8 bc c5 ed 79 3d
       -0.099731825 -0.11245308 -0.024485277 0.06101777
0001c0 67 0c 90 bd b3 a7 1f 3e 8f 29 9b 3d ce 6f 83 bc
       -0.070336156 0.15591316 0.07576286 -0.016044524
0001d0 58 96 17 3e 66 f4 84 3d 7a cf b4 3d ac 02 b5 bd
       0.14803445 0.06491928 0.088286355 -0.088384
0001e0 31 9b fa 3c 78 9f 04 3e d7 4f ec bc 50 28 ed 3d
       0.03059158 0.12951458 -0.028846664 0.115799546
0001f0 7b b2 7c 3c f5 a7 78 bd d3 c6 ba bb 38 05 8a 3d
       0.015423412 -0.06070705 -0.005699971 0.06739277
000200 64 10 df 3d 2b 2e 17 bd e5 7f 01 3e 9c bf 05 3e
       0.10891798 -0.036909264 0.12646444 0.13061374
000210 ab ae b7 3c e2 60 84 3d da 37 5a bd 50 f9 2d bb
       0.022422155 0.064637914 -0.05327592 -0.0026546307
000220 ae 47 55 bd ce 44 3e 3d 47 85 a6 3d bf 39 d3 3c
       -0.052070312 0.046452336 0.081308894 0.025784371
000230 eb f5 95 bc 99 37 43 3c cb 60 c7 3d 3f ff 8d bd
       -0.01830574 0.011915111 0.09735259 -0.0693345
000240 b8 53 8f bd 2b bf bd bc 25 3b a3 bd 98 95 96 bd
       -0.0699839 -0.023162445 -0.07970265 -0.073527515
000250 11 2e aa 3d 84 cc 2b bd 43 29 de bc ae e9 d5 bd
       0.08309568 -0.04194309 -0.027119284 -0.104449615
000260 1e 08 8e 3d 59 4d 47 3d 38 80 e2 bc 3f 92 ca bd
       0.06935142 0.04865775 -0.02764903 -0.098911755
000270 89 15 82 bd 75 0d e5 3c 59 9b 1c bd 65 91 20 3d
       -0.06351764 0.027960518 -0.03823409 0.03920116
000280 8e 4e ce bc 96 da a6 3c 20 6a ea 37 a4 79 cb bd
       -0.025183942 0.020367902 2.7944392e-05 -0.099353105
000290 ea 23 1e bd 0d 00 0c 3e ac 15 eb 3c 23 53 f9 bc
       -0.03860847 0.13671894 0.028696857 -0.03043515
0002a0 53 16 9a bc a5 e6 d7 bd 73 77 63 3d e8 b5 f9 3d
       -0.018809473 -0.10542039 0.055533838 0.12192899
0002b0 00 4d e7 bd 19 03 e6 bd 3d ff ef 3d 16 72 0f 3e
       -0.112939835 -0.112310596 0.11718605 0.14008364
0002c0 ac df cd bb a0 31 99 bd 4e 21 8f bd 11 34 d5 3d
       -0.0062827673 -0.07480168 -0.06988774 0.104103215
0002d0 83 84 98 3d 53 46 6d bd d2 b9 12 bd 43 48 24 bd
       0.074471496 -0.057928395 -0.035821743 -0.040107977
0002e0 82 4c 8d 3d 05 df 96 3d d7 0e 23 bd 41 8a aa 3c
       0.06899358 0.07366756 -0.039809074 0.020817878
0002f0 c2 bb 53 3d 24 6f 0c 3e ae f4 0d 3d 0f 00 99 3d
       0.05169273 0.13714272 0.034657173 0.07470714
000300 8d 5e 86 3c fb 3f e8 bd b5 7b df 3d 00 39 ef bd
       0.016402507 -0.11340328 0.10912267 -0.11680794
000310 c5 55 16 3d e7 f3 02 be f5 7d b1 bd aa ad 9e bb
       0.03670289 -0.12788354 -0.086666025 -0.0048424797
000320 d2 c6 0a 3d 90 35 c6 3d 0d 3f 89 bd e3 2c 0e 3d
       0.033881016 0.09678185 -0.06701479 0.034710776
000330 ef ee ae 3d 2a 03 81 3d 0f bc 36 3c d9 e3 b4 3b
       0.08541667 0.062994316 0.011153235 0.0055203256
000340 29 41 2a bd 1e cd af 3c 60 3b 31 bc 67 ea c9 3d
       -0.041566048 0.021460112 -0.010817379 0.09859162
000350 c6 e2 07 bd c9 6b e6 bb ac 14 a5 3d ff 1d d9 bd
       -0.033175252 -0.007031892 0.080605835 -0.106014244
000360 58 3e 18 3d 3f 18 dd bd 13 a3 ab bd eb 16 90 bd
       0.03716883 -0.1079564 -0.08380713 -0.07035621
000370 77 38 a7 3d ef 0f 54 bc 73 61 dc 3d 94 54 93 3d
       0.08165067 -0.012943252 0.107607745 0.07193866
000380 27 ff 27 bd 39 58 0d 3c 5b d0 e2 bc 3d b7 d0 bd
       -0.041014817 0.008626991 -0.027687242 -0.101912
000390 d7 6d c2 3d d3 65 05 be e1 bc fc bd b7 30 1b 3d
       0.094936065 -0.13027124 -0.12340713 0.037888255
0003a0 6f bd 29 3d 41 a7 64 bd 4e f2 7a 3d d8 4a 81 3d
       0.041440424 -0.05582357 0.061266236 0.063131034
0003b0 11 ce c6 3c ee c8 d6 3d 02 f8 27 bd 4c b4 e7 bc
       0.024268182 0.10487543 -0.041008003 -0.028284214
0003c0 47 d5 94 bd e3 d6 9d bc 17 f5 60 bd 80 ab 24 bd
       -0.07267242 -0.019267505 -0.054921236 -0.040202618
0003d0 cf 74 9b bd 97 db 96 bd 1b 46 78 bc e6 78 9b bb
       -0.07590639 -0.07366102 -0.015153433 -0.004744637
0003e0 ab 45 01 be 45 e5 5b 3d 3c 4d 32 bd 06 36 05 be
       -0.12624232 0.053685445 -0.043530688 -0.1300889
0003f0 b3 52 a1 bd 30 e9 92 3d b1 7c d9 bd a8 99 c9 bd
       -0.07877102 0.07173383 -0.10619486 -0.09843761

placing_layer.1.bias f4 [5]
000000 48 3c 74 bb 30 c8 81 3d 1e 51 1c 3e 34 fd 9f 3b
       -0.0037267376 0.06337011 0.15265319 0.004882479
000010 53 62 4a bd
       -0.049410176

placing_layer.2.weight f4 [5, 64]
000000 9f b3 ee 3d c4 b1 13 3a c8 b4 81 3d 68 96 b4 bc
       0.11655354 0.0005634094 0.063333094 -0.022044376
000010 9f 63 b0 3d 16 db 0d bc 23 3e 22 3e ae 91 16 3d
       0.08612751 -0.008658191 0.15844016 0.036760025
000020 47 c9 e8 bc 3c 35 b8 bc 41 44 1d 3e e5 5f da 3c
       -0.028416289 -0.022486322 0.15358068 0.026657054
000030 3c 54 a3 3d 9c a4 45 bc 67 ee 47 3d bb cc 1b 3e
       0.07975051 -0.012063172 0.048811343 0.15214817
000040 78 ed 5e 3d 9b 89 16 3e d2 c2 51 3d 9a 69 a6 3d
       0.054425687 0.1470093 0.051211186 0.08125611
000050 ff 0c 1d 3e 81 0b 17 3e 3c e9 74 3d c9 c2 86 3d
       0.15336989 0.14750482 0.059792742 0.06580121
000060 e4 d1 8d 3d 80 9e cf 3d 2d c3 e3 3d 08 70 0a 3e
       0.06924799 0.10137653 0.11121211 0.13519299
000070 03 f1 bf 3c 40 8c a9 b8 f3 68 aa bd 5f 09 8d bd
       0.023430353 -8.0846716e-05 -0.08320799 -0.06886553
000080 8f ad 63 3d 28 02 fb 3d 4a c9 5f 3d 37 9b 16 3e
       0.05558544 0.12256271 0.054635324 0.14707647
000090 64 63 6c 3d df fb bb 3d 39 f5 bb 3c 0e 89 19 3e
       0.057711974 0.091789 0.02294408 0.14993688
0000a0 db 6b 32 3d 73 69 e9 3b 33 6e 21 bd 98 95 eb 3d
       0.04355989 0.007123166 -0.039411735 0.11503142
0000b0 82 55 17 3e c9 07 a1 bd db db 99 bd a8 65 18 3e
       0.14778712 -0.07862813 -0.07512637 0.14882529
0000c0 43 7b b9 bd f5 50 47 3d 0b 94 19 3d a6 93 d3 3d
       -0.090567134 0.04866119 0.0374947 0.10330896
0000d0 e1 ab 57 bc 13 0d b0 3d 48 e8 20 3e 9d 94 5f 3d
       -0.013163538 0.08596244 0.15713608 0.054585088
0000e0 f3 64 27 3d 10 89 9f bd 1d ee 56 3d 60 d1 8a 3d
       0.040867757 -0.077898145 0.052473176 0.06778216
0000f0 cf 30 97 3d 5b 38 b7 3d 8d d7 c7 bc 2f aa 31 bd
       0.073823564 0.08946296 -0.024394775 -0.04337519
000100 3d 5b e3 bb 17 50 df bc 65 87 0e bd ef 5a c0 bd
       -0.0069383667 -0.02725987 -0.03479709 -0.09392344
000110 ec 09 ae bd da 79 78 3c d5 be a5 ba ad 77 82 3d
       -0.08497986 0.01516577 -0.0012645373 0.063704826
000120 e7 cf da 3d 8a 92 cc ba 59 d7 5a 3d 1c 78 9f bd
       0.106841855 -0.0015607637 0.053428028 -0.07786581
000130 75 50 59 bd 6b 67 cd 3d ee b1 41 3d fd ab 7d 3d
       -0.053055245 0.10029491 0.047288828 0.0619316
000140 1f 71 ef 3c 35 0f 92 bd 97 23 09 3c b5 03 f5 3d
       0.029228745 -0.07131807 0.008370302 0.11963598
000150 77 ce 52 bd 55 14 95 3d 1e e8 8e bc 5e fa 5d bd
       -0.05146643 0.07279269 -0.017444666 -0.054193847
000160 3f aa ce bb 59 88 45 bd 7c dd 08 bd 7c fd 06 bd
       -0.006306916 -0.048225734 -0.03341435 -0.032956585
000170 0b 07 e4 bc 38 60 85 bd d6 96 ed bc f3 41 5e bd
       -0.02783539 -0.06512493 -0.029002588 -0.054262113
000180 97 53 5c bc c0 c3 27 bd dd ad 14 3c 1a 2f 17 bd
       -0.013447664 -0.040958166 0.009074655 -0.036910154
000190 36 cc 4c bb ac 53 e9 3c 13 55 b8 bd e9 13 bf 3d
       -0.003124965 0.02848228 -0.090006016 0.093299694
0001a0 55 e6 85 3c fd fa 55 bd bb 61 76 3d a6 7e d5 3d
       0.016345182 -0.052241314 0.060151797 0.10424547
0001b0 60 d7 85 3c ad 4a 07 3b 3d 03 c1 bb e5 50 83 3d
       0.01633805 0.0020643875 -0.0058902786 0.06411914
0001c0 57 08 9d 3d 9f 77 bf 3d c3 50 f3 3c f1 05 97 bd
       0.07667606 0.09348988 0.029701596 -0.0737418
0001d0 94 0f a4 bd c0 18 9e 3d 11 e5 a5 3d f0 7a 1d 3e
       -0.08010784 0.077195644 0.081003316 0.15378928
0001e0 61 71 80 3d b5 25 c3 bd 4d eb e4 3c 35 f8 1c 3e
       0.06271625 -0.095286764 0.027944231 0.15329058
0001f0 be 18 12 3d 88 03 02 3e 7c fb f4 bd d5 41 b5 bc
       0.035668127 0.1269666 -0.11962029 -0.022126118
000200 b4 a6 74 3d 4d b2 98 bd 44 cf 09 3d 8e 3b 06 be
       0.059729293 -0.07455883 0.03364493 -0.13108656
000210 d7 e8 95 3d b4 b8 e3 3b 28 5d f1 3c 3b a2 79 3d
       0.07319801 0.0069495086 0.029463366 0.06094573
000220 72 0a dc bb 7b aa f2 bd 4b fe dc 3d 7a e6 8e 3d
       -0.0067151124 -0.11848923 0.1079069 0.06977554
000230 14 7e 20 bd cb 9c a0 bc 6c d7 54 3c bf e7 87 bd
       -0.039182737 -0.019606015 0.012990814 -0.06635999
000240 ea 1d a9 bc ca 93 fe bd 4d cb 03 bd 5f ff d9 bc
       -0.020644147 -0.12430532 -0.032176305 -0.026611028
000250 4f a4 45 bb c3 87 69 3d 70 68 92 3d 3e f3 97 3d
       -0.003015775 0.057014238 0.07148826 0.07419442
000260 4f bd 02 be 2e 11 92 3d fc 85 c1 3d 52 1d d8 bd
       -0.12767528 0.07132183 0.094493836 -0.105524674
000270 1c 23 82 3d 81 c2 2c bd 88 30 68 bd 3d 54 91 3d
       0.06354353 -0.04217768 -0.056686908 0.07096145
000280 14 9b 47 bd 20 77 45 3c 88 b7 59 3d 3d 7d d5 bc
       -0.04873188 0.012052327 0.053153545 -0.026060695
000290 df 6b c6 bd 00 cf 1c ba 1d 75 a9 3c de ab c9 bd
       -0.096885435 -0.0005981773 0.020685727 -0.09847234
0002a0 e8 4e 2e 3c 6d ac 5a 3d 76 86 d3 3c 3e 63 67 3d
       0.01063893 0.053387094 0.025820952 0.05649113
0002b0 2a f7 91 3d c0 cc d0 3d 67 ba 86 3d 34 0e 92 bd
       0.07127221 0.10195303 0.06578522 -0.07131615
0002c0 c5 7e 48 bd ad d5 27 3d 3c 9b a2 bc 47 a1 e8 bd
       -0.04894902 0.04097526 -0.019849412 -0.11358886
0002d0 9d 82 05 be f0 0d 4e bb da 23 f9 bd 2c 57 17 bd
       -0.13038106 -0.0031441413 -0.12165041 -0.036948368
0002e0 e0 a5 b7 3d df 6e d0 bc 9b 96 e0 bd 29 90 fb bd
       0.08967185 -0.025443492 -0.10966226 -0.12283356
0002f0 ec 99 90 bd 1f c1 af 3d ec 68 b1 bd eb a4 4b 3d
       -0.07060608 0.08581757 -0.086625904 0.049717825
000300 30 c0 04 be f1 37 d6 bd d0 07 20 3d 60 63 24 bd
       -0.12963939 -0.10459889 0.03906995 -0.040133834
000310 87 ad 9d 3d bf d9 b5 bd 07 b1 ed 3d 61 58 a8 3c
       0.07699113 -0.088794224 0.11606031 0.020549955
000320 a0 2b c4 bd 5d 68 03 bc 44 a8 69 3d 39 51 c5 bd
       -0.09578633 -0.008020488 0.057045236 -0.096346326
000330 ac e0 61 bd 46 4d 9e 3c f2 87 1e bd c8 fc 11 3d
       -0.055145904 0.019323956 -0.038703866 0.03564146
000340 23 d3 e6 bd ce c3 2f 3c 15 b1 d5 bc 17 3a 7a 3b
       -0.1127074 0.010727836 -0.026085416 0.0038181597
000350 3e ef 30 3d 06 8b a1 3c 82 3e b0 3d 2f d2 17 bd
       0.04319691 0.019719612 0.086056724 -0.03706568
000360 62 d2 35 3d 18 fa 09 3d 8a 23 cb bd 99 17 e5 3d
       0.04439009 0.033685774 -0.09918888 0.111861415
000370 05 14 19 bd ec e5 1b 3d 00 ff 1c 3d 23 5f 9d 3c
       -0.037372608 0.038061067 0.038329124 0.019210404
000380 bc fa fd bd 25 55 00 bc 7b 1f 5e 3d 2c aa af bd
       -0.124013394 -0.0078328 0.05422924 -0.085773796
000390 84 6a 27 3d 26 8e 03 be cb a5 a3 3d 25 ff c5 3d
       0.040873066 -0.12847194 0.07990607 0.096678056
0003a0 5d 9f 43 bd 54 4f 5b bc 3d 4c 3e bc 0f d8 97 bd
       -0.047759403 -0.0133856125 -0.011614856 -0.07414257
0003b0 77 8c f6 bd 11 d2 8c 3c 0d e5 b3 3c fe 95 e3 bc
       -0.1203851 0.017190011 0.021959806 -0.027781483
0003c0 e9 eb 48 3d 7a 47 33 bd 7a 78 ee bd 27 eb b8 3d
       0.049053106 -0.043769337 -0.11644073 0.09029227
0003d0 c8 4c a3 ba 76 bf a0 3d 45 d8 ee bd ea a7 38 3d
       -0.0012458796 0.07849018 -0.11662344 0.04508201
0003e0 f0 14 d9 3d bb ea 8d bd 13 87 67 bd 92 12 e8 bd
       0.10599697 -0.06929537 -0.0565253 -0.11331667
0003f0 d8 40 6a 3c 1a ce 3a 3d a6 51 9a bd c9 13 02 be
       0.0142976865 0.04560671 -0.075351045 -0.1270286

placing_layer.2.bias f4 [5]
000000 62 da e8 3d 5e 8a b6 3d 77 c3 d7 bc 4f 3e aa 3c
       0.11369778 0.0891311 -0.026338322 0.020781664
000010 8d 6b 82 bd
       -0.0636817
